fetch_sticky_mittens_step/networks/ours_10k_block_3_uber_level_0_seed_150/network_reach_object_0.pth (torch, 596983 bytes, 8 tensors)

fc1.weight f4 [256, 60]
00000000: d9bb 78be f53d 6fbd 3d9d 73bc 2bb5 a9bd
00000010: 2298 c63d 7e77 63bd 75d7 aabd e518 533e
00000020: fb3d 253d 7722 2d3e 5936 da3d 93b4 923e
00000030: 4510 66be ddb4 f63d 25c7 453d f779 8c3d
00000040: 8b9c 4f3e 878f 813d 727d 4f3e b430 5a3d
00000050: 7c76 8a3e 0651 babd 86b4 1fbe 0747 c3be
00000060: 0d14 0cbc b932 4cbe ba2e a1bd d32f 08be
00000070: acb6 76be 31bf 5abe c32f 1d3e 6a39 90bd
00000080: a339 253d 0b2b b93e 0ae4 ac3d ff58 1d3e
00000090: 62eb 51bd babc 023e e7a0 b7bd fa7f 3b3e
000000a0: b2e3 063e 53ba adbe 8b01 99be 8e36 633e
000000b0: 4522 52bd 09cf 5e3e 42ce 87be 0a40 8f3e
000000c0: b8aa b93e bb32 cfbd 1659 8b3d ce74 21be
000000d0: 5503 9bbe 0e0e 663e 9c13 d2be 4d65 7cbd
000000e0: 48a1 c83e 97a1 13bd 0484 463e 8e29 913e
000000f0: e191 673d 4c58 603e 4aa3 b53d bd4c 2abd
00000100: 6cc5 cfbd ce4c 9cbc 4e7b f03c 47a0 d43d
00000110: c7d3 ea3c 8993 28be 8e13 ea3d db65 973e
00000120: 18ae 07be 11d4 2a3e f1cd 5b3e b0d9 d0bd
00000130: 1d37 d63d cd92 183e 7410 453d 2edd 66bc
00000140: d532 be3d bfc3 f5bd 5706 fd3d f725 863e
00000150: b3d3 8cbe d37b 0ebe 0119 2dbe ec8a 6dbd
00000160: 30f4 eebd e945 7ebe ca14 37bd 44be 9fbe
00000170: b8c9 a8bd e7e2 323e d380 8fbb d523 753d
00000180: 0983 5a3d 8b45 c2be b466 a0bd a15d 92bd
00000190: e68e 86be f1b8 3bbe 4c6b a2be ec15 80bd
000001a0: 3854 a9bd e185 d03d 6f2f 943e 607a 21bb
000001b0: 2036 f53d 0a87 2cbe 4b9b 353c a7e9 4d3d
000001c0: 0a76 a2be fd77 bfbd ae4a bfbe ecdb 823d
000001d0: 9d8c 8b3e 67cd 73bd d686 44be cf4b 41be
000001e0: 26a1 c23d 217d 483e e396 2bbe ec83 153e
000001f0: 0700 90bd 5b75 073d f832 1fbd 482d 4b3e
00000200: 8229 98bc 7bd2 b1bd 1138 89bc 2217 8ebc
00000210: e124 13be 4c36 673e ed52 60be b02e 353d
00000220: 2116 803e ea7e 0b3e 68bd 893d a49c 863d
00000230: 0359 7a3d fbe6 3c3c 88c4 4e3e 38e0 0abd
00000240: 4266 e938 b2a8 393d c94b 763d 327d eebe
00000250: d13b a8bd 1b73 c53d d0f0 b0bd 6196 503d
00000260: 0001 f63e a9b9 d6bd 5ef7 1ebd 20ec 763b
00000270: e190 973c edbd 3fbd b40b 20be d7d5 b5be
00000280: dd0b 103e acb3 683e 23a5 a4be e07b 633e
00000290: ee84 c53d da1c 2fbc 46ac 823e 2131 1abd
000002a0: d272 353e 45d0 f43c 7557 a63d 68d8 b8b9
000002b0: 7d6c 33be 92b7 12be 97fe 923e ce59 eebd
000002c0: c540 193d f3d6 90be a53a 1c3f 2750 2b3f
000002d0: 9711 733e eb30 5dbe 356a e3bd 3220 12bd
000002e0: e59e e93c 7f89 bf3c 04d4 20be b502 bd3d
000002f0: 9e1d 95bd 5d47 bdbd c4ab 163e e306 09bf
00000300: 14d6 8d3c e489 05be 66b9 8ebe c0cf 94b9
00000310: d267 79be 10c1 1b3e 6807 693c 09e4 d1bd
00000320: 39b9 06bd 6cc2 da3b 1b96 353e 9eaf ddbd
00000330: 3377 12be e33d 603e 24b5 e43e e834 d73c
00000340: 6a2c 883d 2efe cd3e 87e2 4e3d f409 723e
00000350: 491c 003d 4d21 cabd e385 a8bd ccbf 9b3d
00000360: 98a7 9cbd 473b 99bd 38d2 45bd 9da8 933d
00000370: b040 923e f49a eabd c430 063e b2c7 483e
00000380: 1951 863d ddc2 0b3d 451f 86bd 97eb 6a3c
00000390: 2f52 c23e 8f22 453d 3fa7 b43d e7c7 413c
000003a0: b9bf fe3d 2c63 f9bd ea04 303d fab1 7a3e
000003b0: 4a12 ed3d 5472 783e db62 37bc 330c b3bd
000003c0: 6e1a 223e 2928 8e3d 6b65 0a3a 1233 573e
000003d0: 131a 4a3e 3c7a f63b 181d 183e db7e 9a3d
000003e0: ba0c 823d 2cea c03c 25e5 0fbe 47e4 d53e
000003f0: f801 a5be d960 09be 8bbd 153e 7eac b0bd
-0.24290408 -0.058408696 -0.0148690315 -0.08286508 0.09696986 -0.05553388 -0.083418764 0.20614965
0.040342312 0.16907679 0.10654897 0.28653392 -0.22467144 0.12046216 0.048285622 0.068592004
0.2027456 0.06326204 0.20262697 0.053269103 0.2704352 -0.09097485 -0.15596208 -0.38140127
-0.008549702 -0.19941224 -0.078702405 -0.13299493 -0.24093121 -0.21361996 0.15350251 -0.07042201
0.04033817 0.36165652 0.084419325 0.1536598 -0.05124987 0.12767306 -0.089662366 0.18310538
0.13172796 -0.33931217 -0.2988399 0.2218878 -0.051302213 0.21758665 -0.2652455 0.27978545
0.3626306 -0.10117098 0.06804101 -0.15767214 -0.3027598 0.22466299 -0.41030586 -0.061620045
0.39185548 -0.036042776 0.19386297 0.28352016 0.056535605 0.21908683 0.088690355 -0.04157709
-0.10145077 -0.019079592 0.029355671 0.10382133 0.028665436 -0.1646253 0.11429511 0.29569897
-0.13250005 0.1668246 0.21465279 -0.101977706 0.10459731 0.1489975 0.048111394 -0.014090819
0.09287039 -0.12000226 0.12354725 0.2620084 -0.27505264 -0.13914423 -0.1690407 -0.057993814
-0.11667669 -0.24831356 -0.04469756 -0.3119985 -0.082416 0.17469369 -0.0043793707 0.059848625
0.05334762 -0.37943682 -0.07832089 -0.071467645 -0.26280898 -0.18332268 -0.31722486 -0.06254181
-0.082680166 0.101817854 0.2894244 -0.0024639592 0.11973214 -0.16848388 0.011084388 0.050271656
-0.31730682 -0.09349058 -0.37361664 0.06389603 0.27255717 -0.05952206 -0.19192061 -0.18876575
0.09503393 0.19578983 -0.16756777 0.14601105 -0.07031255 0.033070903 -0.038866967 0.19841492
-0.01857448 -0.08682724 -0.016750367 -0.017345015 -0.14369537 0.22579306 -0.21906634 0.044233978
0.25016883 0.13622633 0.067255795 0.065728456 0.061120044 0.011529679 0.20192158 -0.033905238
0.00011129353 0.045326896 0.060130868 -0.4657989 -0.08214534 0.09641095 -0.08639681 0.050924663
0.48047638 -0.104846306 -0.038810126 0.0037677363 0.0185017 -0.046811987 -0.15629464 -0.3551471
0.14067025 0.2272479 -0.3215724 0.22215223 0.09644495 -0.010688031 0.2552206 -0.03764451
0.17719582 0.029884467 0.0812215 -0.0003525645 -0.17521854 -0.14327839 0.28709862 -0.11638223
0.037415285 -0.28288993 0.61026984 0.6691918 0.23737179 -0.21600692 -0.11104242 -0.035675235
0.02851815 0.023380993 -0.15705878 0.09229032 -0.0728104 -0.09242127 0.14713961 -0.53526133
0.017313994 -0.13040882 -0.27875823 -0.00028383546 -0.2435601 0.15210366 0.014222957 -0.102485724
-0.032891486 0.006676009 0.17733042 -0.10824512 -0.14303283 0.21898608 0.4466945 0.026270345
0.06649096 0.40232986 0.050509002 0.2363661 0.031276975 -0.09869633 -0.08228662 0.07604942
-0.076491535 -0.074820094 -0.048296183 0.07209895 0.28564978 -0.11455336 0.1310454 0.19607428
0.06558437 0.034121383 -0.06548933 0.014338396 0.37953326 0.04812866 0.08820962 0.011827446
0.12438912 -0.12177119 0.042973436 0.24481955 0.11575754 0.24262363 -0.011193003 -0.08742561
0.15830395 0.06941254 0.00052793947 0.21015576 0.19736509 0.0075218957 0.14854848 0.07543727
0.06350084 0.023549162 -0.14052255 0.41775724 -0.32228065 -0.1341585 0.14623086 -0.0862665

fc1.bias f4 [256]
00000000: 83da 64bf 29d4 11be 270d 17bf 77a7 d2be
00000010: cdc7 36bf aa1f 51bf c475 edbe c5cb 55bf
00000020: 16ca debe 9659 01bf 7c7b 1abf 9469 0dbf
00000030: b9a8 1cbf db64 5dbf 5464 e0be 3faf 81be
00000040: d303 19bf 040f 31bf 90e0 56bf ed1d d3be
00000050: 929e 23bf 142a 47bf 2980 52bf 6a63 9abe
00000060: e125 0bbf 582b cfbe cfad f6be f34c 00bf
00000070: 55ef 6fbf 416a 30bf f231 22bf 4f15 3dbf
00000080: 6a56 6cbf ca8b 07bf 04dc 92be 78c9 4fbf
00000090: e213 993d 72c2 3abf 34f0 3dbf df70 84be
000000a0: fffb 1bbf 3881 22bf 542c 53bf adc8 3dbf
000000b0: 421d 7dbf f663 01bf 7a58 34bf e820 2dbf
000000c0: bb82 11bf 33f0 49bf 1a94 6cbf 552b fabe
000000d0: 825a 86bf a822 19bf fc1d 89be aed3 62bf
000000e0: fc2e 25bf 2f1f 50bf 9ba9 33bf 6a64 19bf
000000f0: 0cf5 40bf 4128 a3bf 30fd 66bf 91b2 6abf
00000100: 7aec 4fbf ff20 24bf 01bb d0be 0985 3ebf
00000110: 9a58 c0be 1bda 0dbf 9088 35bf edf8 50bf
00000120: aeef 56bf 325f 5ebf e1eb 25bf 261b 34be
00000130: b903 05bf 7765 04bf c4db 1cbf 9f20 18bf
00000140: bc58 8cbf d2e4 b7be c69f 1cbf abb9 6abf
00000150: 793f 0cbf f482 55bf 3952 01bf ad50 54bf
00000160: 4b11 02bf b715 27bf cc6f 78bf 53da f2be
00000170: 6a2b d5be 9171 f4be 1181 1cbf 6789 44bf
00000180: c0b9 55bf 83ae 2ebf 05b2 38bf 0b0e 49bf
00000190: 2869 46bf f1d9 42bf 2f3a a9bf 62cd 62bf
000001a0: 8c49 8abe 2141 50bf 0f50 c9be 8e14 7bbf
000001b0: ff40 d3be 27fc 3bbf e13e a2be f8c6 1cbf
000001c0: a201 ebbe ce6b fdbe 3774 54bf 462d dcbe
000001d0: 1e97 25bf f3fe 7ebf e1e9 44bf dbfd a0be
000001e0: 048a 67bf d0f5 dfbe a0ba 2cbf ceae 3cbf
000001f0: 8a10 48bf 3925 1dbf 0065 8bbe d39f 2ebf
00000200: 9457 edbe 6355 d2be 0378 3dbf d074 3abf
00000210: 72c1 f9be a453 83be c9c5 67bf 7ef5 3cbf
00000220: 83ea 32bf 5091 6dbf 4ad4 b6be d532 27bf
00000230: a606 e9be 5d05 6abf cd5f 3abf dcc5 40bf
00000240: 41cf 33bf e89f c4be c2d0 33bf a070 2abf
00000250: c4ff 48bf 4600 83bf 9440 53bf d223 31bf
00000260: cf5a 33bf 892f 22bf 0656 40bf a7eb e0be
00000270: 2219 01bf 2306 25bf db74 45bf d7a2 ffbe
00000280: 9269 77bf c797 dabe 7015 13bf 3a2b eebe
00000290: e51c 39bf 07e2 79bf 495f 60bf 7ce4 44bf
000002a0: 7b9b 63bf d0e1 59bf ee54 22bf 5cf1 3cbf
000002b0: 2ab5 0dbe de54 32bf 5097 57bf d869 2fbf
000002c0: 6f35 0abf b6d2 35bf 1876 5fbf 3114 3fbf
000002d0: b51d 38bf 38cf 35bf 1847 dcbe 5220 4cbf
000002e0: 07d4 46bf 33a9 33bf 77ab 4abf d730 5fbf
000002f0: e5fa 56bf 478d 35bf d528 5abf 6f74 efbe
00000300: 6bbb 11bf b6f0 0bbe 98b6 47bf 279b 18bf
00000310: 052c f5be 29d1 5abf d35a 64bf f291 0fbf
00000320: 8f71 51bf 71ac 4dbf b4b3 3bbf 2e42 cebe
00000330: f759 99be e8c2 60bf 58c8 25bf bb7a 33bf
00000340: b482 50bf de29 33bf bc9c 39bf 975d 14bf
00000350: 3305 b5bd a820 47bf 3dbb 5ebf 1937 04bf
00000360: 2d89 48bf e792 0cbf 12fe 5abf d424 e8be
00000370: b5ff 0fbf d040 34be 25c5 3cbf fc56 55bf
00000380: 51b2 3dbf 2052 0fbf c66b 553d 3c52 10bf
00000390: 6a39 36bf 3a74 24bf 72a9 73bf 3a6d 66bf
000003a0: f857 0ebf 30dd 4fbf 2af1 5abf 7774 32bf
000003b0: f9f5 0cbf 2932 22bf ed9d 1ebf f7b3 31bf
000003c0: bd2b 50bf 7a2e 50bf aaa9 31bf 7c55 27bf
000003d0: ddce 07bf 9f46 2fbf cbc1 fabe aea7 cebe
000003e0: bff2 02bf cece 31bf be66 ddbe 1e53 4abf
000003f0: 2c06 3fbf b7dd 3ebf 07a1 43bf 40c7 7dbf
-0.8939592 -0.14241089 -0.59004444 -0.4114339 -0.7139862 -0.8168894 -0.4637891 -0.8351405
-0.43513554 -0.5052732 -0.6034467 -0.55239224 -0.6119495 -0.8648202 -0.43826544 -0.25329015
-0.5977146 -0.6916354 -0.83936405 -0.4123377 -0.63913834 -0.7779858 -0.82226807 -0.30153972
-0.54354674 -0.40462756 -0.4817948 -0.50117415 -0.93724567 -0.6891213 -0.6335746 -0.7386064
-0.9231936 -0.52947676 -0.28683484 -0.8116679 0.074744955 -0.7295295 -0.74194646 -0.25867364
-0.6093139 -0.6347842 -0.82489514 -0.7413433 -0.9887277 -0.50543153 -0.70447505 -0.67628336
-0.56840104 -0.7888214 -0.92413485 -0.48861185 -1.0496371 -0.59818506 -0.2678069 -0.8860425
-0.6452482 -0.8129758 -0.7018067 -0.59918845 -0.7537391 -1.274666 -0.90230083 -0.9167872
-0.8122021 -0.6411285 -0.40767673 -0.74421746 -0.37567598 -0.5541093 -0.709115 -0.8162983
-0.8395947 -0.86864007 -0.6481305 -0.17588481 -0.51958805 -0.51717323 -0.61272836 -0.59424776
-1.096458 -0.35916764 -0.61181295 -0.91689557 -0.5478435 -0.83402944 -0.50516087 -0.829356
-0.50807637 -0.6526751 -0.9704559 -0.47432193 -0.41634685 -0.47742894 -0.6113444 -0.7677216
-0.83486557 -0.68235034 -0.72146636 -0.7853705 -0.77504206 -0.761138 -1.3220881 -0.8859464
-0.27009237 -0.8134938 -0.39318892 -0.9807824 -0.41260526 -0.7343163 -0.31688598 -0.612411
-0.45899683 -0.4949631 -0.8298983 -0.4300329 -0.6468371 -0.9960777 -0.7691937 -0.31443676
-0.9044497 -0.43742228 -0.6747227 -0.7370423 -0.78150237 -0.6138492 -0.27225494 -0.6821262
-0.4635588 -0.4108077 -0.7401125 -0.7283449 -0.487804 -0.2564975 -0.9053617 -0.7381209
-0.69889086 -0.92799854 -0.3570884 -0.6531194 -0.45512885 -0.91414434 -0.7280243 -0.7530191
-0.7023812 -0.3840325 -0.70240414 -0.665781 -0.7851527 -1.0234458 -0.82520413 -0.6919528
-0.7006044 -0.6335378 -0.7513126 -0.43929788 -0.50428975 -0.6446249 -0.7713143 -0.49928924
-0.9664546 -0.42693922 -0.57454586 -0.46517354 -0.72309715 -0.97610515 -0.87645394 -0.7691114
-0.8890912 -0.8511019 -0.6341084 -0.73805785 -0.1383864 -0.6966075 -0.8421526 -0.6852088
-0.53987783 -0.71024644 -0.8728957 -0.74640185 -0.7192033 -0.71019316 -0.4302299 -0.79736817
-0.7766728 -0.7018005 -0.79167885 -0.871839 -0.83976585 -0.709187 -0.85218555 -0.4676852
-0.569266 -0.13666043 -0.7801299 -0.59611744 -0.47885147 -0.85475403 -0.89201087 -0.5608207
-0.818139 -0.8034125 -0.7332108 -0.40284866 -0.2995145 -0.87797403 -0.64758825 -0.70109147
-0.8144944 -0.6998576 -0.7250478 -0.57955307 -0.08838882 -0.77784204 -0.8700445 -0.5164657
-0.78334314 -0.54911655 -0.8554393 -0.45340598 -0.5624955 -0.17602849 -0.7373832 -0.8333585
-0.74100214 -0.5598469 0.052104734 -0.5637548 -0.71181357 -0.6423985 -0.9518043 -0.90010417
-0.5560298 -0.8119688 -0.8552424 -0.6970896 -0.55062824 -0.6335779 -0.61959726 -0.6941523
-0.8131674 -0.8132092 -0.6939951 -0.65364814 -0.53050023 -0.68467134 -0.48975977 -0.40362304
-0.5115165 -0.69456184 -0.4324245 -0.79033077 -0.7461879 -0.7455706 -0.76417583 -0.99132156

fc2.weight f4 [256, 256]
00000000: 471a 79be 785f 02bd ce44 8abe f374 ddbd
00000010: 3544 633e ffc5 e0be 16e3 203e e865 b13d
00000020: c76b e9bd f162 d9b9 307d f0bd f4f0 9abd
00000030: 88d0 9ebe 65e1 a83e b883 1cbf 35e7 693d
00000040: 4c81 9d3e fddb 6e3d 1f50 bfbd 905c a0be
00000050: d6c8 f73d 2be8 56be ae81 603e 1af4 c53d
00000060: 87c8 693e 2d02 a43d 4b56 ad3e b6e2 a2be
00000070: d05b 02bf 13fa d8bd 2b1e a73e a249 3dbd
00000080: 36a9 d3be 1f23 c8bd f0b6 d1be 92ff 263e
00000090: db8d e23d d6d6 82be 0806 61bd ce1d 053d
000000a0: b66c 1e3e 6b18 7f3e dab2 c0be 8c73 26bd
000000b0: dfd9 333e 2fa9 1bbe a8fd b5bd 80e5 963d
000000c0: f1af 623e be10 d6bc 85f4 7dbe 5f6a ecbd
000000d0: d4d3 cabe d76d a5bd 1645 c33d 7b81 bdbd
000000e0: 40ab d03d b1c0 003e 3ce1 a83d 6d9b 13bc
000000f0: f229 41bf 71e2 1f3e d8f7 7abe 0cc2 6dbd
00000100: fd10 5cbe 323d 05be 7dab 5ebe 4931 6f3d
00000110: ddaa acbd cc80 9bbd 6282 01bf 668d c23b
00000120: 950b 6cbe 15b6 5fbe 19a2 49be 8bee 35bc
00000130: 132d ec3d ddea c83d d960 bb3c 9199 1bbf
00000140: d877 df3d 2162 3ebe 9942 2abf c444 82be
00000150: ed57 09bf b771 7b3e 3819 413e a7df babe
00000160: f351 553e 7cb6 383d 56cc 043e b35c 553d
00000170: a49e 71be 3517 2d3e 8c77 373e 9f74 2dbe
00000180: 1c0e 5bbe fac0 60be f3f6 bbbd c2b5 7c3b
00000190: a69d 2f3e b518 84bd f75d d7bd 3cc0 28be
000001a0: b97b c0be 38fe 37be 7bf6 28be fdd2 d0be
000001b0: bb52 3ebe af25 263d 652e 8ebe 466c f9bb
000001c0: 5519 94be 7f3d 45be e09f 77be b026 d63d
000001d0: d44d 15be 1449 eb3d 151f 67bd 313a cfbe
000001e0: 8e63 50be 6a9c e73d 33e3 adbd 6e20 bc3d
000001f0: 4af3 62bf b443 783c 4851 613e cc3c f3be
00000200: 68eb bf3e a4ed 65bd ef28 34be e056 4bbd
00000210: 7b27 133e 7c19 87be c086 d7be 130e 193e
00000220: d21d 07bd 79cd 32be d43a 94be 33ae ff3d
00000230: 5d6f a3bd 266d 393e c9ed b1bd fa19 b6be
00000240: 3629 cc3d 53b9 19be ea94 79be c987 9dbe
00000250: 8017 353d 8a83 253e f5df ecbe 0a67 df3d
00000260: 2362 253e 0aec b93d 62d5 a8bd a682 8b3e
00000270: 274f 0dbf 56ca 40bc 255a 1abf 5ca6 67bf
00000280: 5ab5 94be 708e adbe 13a0 843d 6f94 a93e
00000290: bfa3 acbe ba06 a3bd 6494 79bf 2d4f 62be
000002a0: b021 413d 7624 09bf b68e 873d 6041 5fbe
000002b0: af70 3c3c 35e2 d7bd 919e ff3d e06a 1bbf
000002c0: 7ae7 173e c99c b03e 544d ccbe 22ce abbe
000002d0: ac0b 2dbe 1c31 37bf cef6 debd 12de ae3d
000002e0: bc44 d2be 3acd 28bd a585 943e 7c80 6ebb
000002f0: de7d 853e 470c 53be 0810 8a3d b269 d7be
00000300: 0abd 53be 3207 c33e 5e1f 53bf 2daa 38bd
00000310: e387 5fbd 3bdf 493e 65c4 10bf 426c f43c
00000320: 15b5 85bd b5e0 46be 5b9e b8be 6acb d93d
00000330: 0aab 0cbe 43f2 a8be 5b17 0bbd a0a2 ecbd
00000340: 14a9 823e cf5f c7bc f48c 76be 20bc abbe
00000350: 473d f7bd d020 23bf 6f13 b2be f4cb 99bd
00000360: d5c6 04bd 356c f6bc 517d e8bd 5fe5 ccbe
00000370: a8fc 3b3e a124 243d 0dcd 043e ea14 48be
00000380: 12da c4be 4d9e 7bbc 74ed 7d3d 474a debc
00000390: 5a65 943e ad35 1e3e bd6c 533e 3b93 dbbd
000003a0: 2d71 a63e 5ed9 9c3e 4665 c4bd 2663 b43e
000003b0: 8eb3 213d b839 27be faf2 80be 19df 49be
000003c0: 49f9 05bd 868a b13e 1c39 8dbe 75ed 3abe
000003d0: 9688 4f3e 1e99 2f3e bdfd b0bd 1315 e03d
000003e0: 4109 703d 2ab6 c03d 5e91 303e 5cbd ac3e
000003f0: 962d bcbe eac0 67bd b9b9 6d3e be95 73be
-0.2432643 -0.031829327 -0.2700562 -0.10813322 0.22193988 -0.4390106 0.15711626 0.08662015
-0.1139751 -0.00041463182 -0.117426276 -0.075654894 -0.31018472 0.32984462 -0.61138487 0.05710526
0.30762708 0.058315266 -0.09341454 -0.3132062 0.12098853 -0.20987003 0.21924469 0.09665699
0.22830401 0.080082275 0.338549 -0.31813592 -0.50921345 -0.10594573 0.32640204 -0.0462128
-0.41340035 -0.09772324 -0.40959883 0.1630843 0.11062213 -0.25554532 -0.054937392 0.032499127
0.15471157 0.24911658 -0.37636453 -0.040637538 0.1756358 -0.15201257 -0.08886272 0.073679924
0.22137429 -0.02613103 -0.24800308 -0.11543726 -0.39614737 -0.08077591 0.095346615 -0.09253212
0.10188913 0.12573506 0.08246085 -0.009009224 -0.7545463 0.15613724 -0.24508607 -0.058046386
-0.21490856 -0.13011625 -0.21745105 0.05839661 -0.08431027 -0.075929254 -0.50589573 0.005937266
-0.23051293 -0.21846803 -0.19690742 -0.011104236 0.11532035 0.098104216 0.022873329 -0.607812
0.1091153 -0.1859212 -0.6650787 -0.2544309 -0.5364979 0.24555098 0.18857276 -0.36498758
0.20832042 0.045095906 0.12968573 0.052090358 -0.23595673 0.16903384 0.17916697 -0.16939019
-0.21392101 -0.21948615 -0.09177961 0.0038560485 0.17149982 -0.06450025 -0.10515969 -0.16479582
-0.37594393 -0.1796807 -0.16500275 -0.4078597 -0.18586247 0.04056328 -0.2776977 -0.007611784
-0.28925577 -0.1926174 -0.24182081 0.10456598 -0.1458047 0.11488548 -0.056426127 -0.40474084
-0.20350477 0.113091305 -0.084906004 0.09185873 -0.8865248 0.01515286 0.22003663 -0.47507322
0.37484288 -0.056134835 -0.1759374 -0.049643397 0.1437053 -0.2638663 -0.42094994 0.14946775
-0.032987423 -0.17461194 -0.28951132 0.12484398 -0.07980225 0.18108043 -0.08687932 -0.35566694
0.09968798 -0.15012102 -0.24373212 -0.30767658 0.044211864 0.1616346 -0.46264616 0.10908325
0.16150717 0.09078224 -0.082438245 0.27248114 -0.551989 -0.011766991 -0.602938 -0.9048822
-0.2904461 -0.33897734 0.06475844 0.33121058 -0.33718678 -0.07960267 -0.9749205 -0.22100516
0.047151268 -0.5357126 0.06619017 -0.21802282 0.011501475 -0.105411924 0.12481416 -0.60709953
0.14834395 0.34494618 -0.39902747 -0.33555704 -0.16898984 -0.7155931 -0.10886918 0.0853845
-0.41068065 -0.041211344 0.29008213 -0.00363925 0.26072592 -0.20610152 0.06741339 -0.42072827
-0.20677581 0.38091427 -0.8246974 -0.045084167 -0.05457295 0.19714062 -0.56549674 0.029836778
-0.06528679 -0.19421656 -0.36058316 0.10634501 -0.13737121 -0.3299733 -0.03395782 -0.11554456
0.2551962 -0.024337677 -0.24077207 -0.33541965 -0.120722346 -0.6372194 -0.34780452 -0.07509604
-0.032416184 -0.030080894 -0.11352027 -0.40018746 0.183581 0.040073995 0.12968846 -0.19539228
-0.38447624 -0.015357566 0.06199403 -0.027135028 0.28983575 0.15450163 0.20646949 -0.10721441
0.3250822 0.30634588 -0.09589629 0.35231894 0.039477877 -0.16330612 -0.25185376 -0.19714011
-0.03270844 0.34675997 -0.27582633 -0.18254645 0.20266947 0.17148253 -0.08642147 0.109415196
0.058602575 0.09409745 0.17242953 0.3373822 -0.3675353 -0.05658046 0.23215379 -0.23787591

fc2.bias f4 [256]
00000000: 2fe4 30be afa5 c2bd cca4 03bf 2d13 563e
00000010: 7b1c 00be 1d05 27be ae42 79bd 2845 263e
00000020: 35b1 debe 0aba 84be 3b80 45be 749c 2dbf
00000030: e917 c63e 2e12 b33e 7728 f2be 15fc f93d
00000040: 1e6e b63c ac39 b9bd 5fa8 283e 83f9 f8bd
00000050: 429d 7a3e af16 ed3d 8b5e 84be 386d 7f3e
00000060: 4a59 98bc da8e 40bd 6ca3 c1bd b7b8 f7bd
00000070: 8261 45bd b3af 66bd e365 0cbe bdbf 00bd
00000080: cd73 b1be 4f81 8dbd 693f 323c 3e10 ed3d
00000090: 0afe 53be fd24 f43e 27b3 5cbd ee45 acbd
000000a0: 80d7 c0bd 3aef a13e 522c 1dbe 3bf7 733d
000000b0: 83ab 10bc c194 6abd 763c c5bd b324 313e
000000c0: cf9e 07be a489 e8bd 02c6 5bbd 2917 86be
000000d0: 50bb 073e db3f aabd 2582 47bc edc6 0f3e
000000e0: 6d1d a23d d26b 8a3e c8f7 043f d205 8b3d
000000f0: 13b0 04be 75c9 623e 98d5 6cbb 0370 233d
00000100: 6395 c93d 4bf9 37be 301f 273f 0d4e 27bd
00000110: ab3f b7bd 596c 443e 0bef d03e a07d 893d
00000120: 98a3 abbe 0ae6 993e 4362 9bbe 9e21 56be
00000130: 466b 91bd 1a6a 7abe a6ef 3cbf b491 16be
00000140: 53aa ddbc 0b71 d2bd 4c9f 1fbe a59b febc
00000150: 66ee 3d3e c89c 05be b9fc f63e 3b83 33be
00000160: 282f 61bd a212 0dbf adc1 b13c 1712 d53c
00000170: f1ae 22bd 4dff 09be 9e75 993e 7498 9e3d
00000180: e377 83bc c73d 94be 5cac e5bd d1a5 41bd
00000190: 64ae dd3d 6c12 39bd 1b94 18bf a112 febd
000001a0: ef5c 11be 5905 14be fa02 c33d b94f 023d
000001b0: acce cdbd b694 5cbe f057 72be fafa febd
000001c0: 76c3 563e cd6b 9c3d fe95 26bd cc2a 43bd
000001d0: e9a7 ca3e 061f 56bd 0d59 cdbe a54a d03d
000001e0: 38d3 43be fdc2 c43e c709 1fbe 368e 8e3e
000001f0: 7210 09be 9b95 3d3e b22e b43e 167e 993c
00000200: d36f 223d 5ee7 32be 9b41 06be 364a bc3e
00000210: c52b 27bd 539a f83e 35c8 84bd 3805 36be
00000220: f920 253e a6e8 66be 9924 9a3c 3220 62be
00000230: 1896 61be 3376 82bd 58c1 4dbd a2de 493e
00000240: a83a 89bd 0b54 46be 5671 733e c9e5 213e
00000250: 0ae7 183e 18bf 42be 02b0 c13e a50b c63c
00000260: ade0 eabd 0874 a73d 1986 cfbd 3ece 82be
00000270: 2fe1 07be d935 9f3e 24d8 6d3e 3a01 4c3e
00000280: 3a59 80be e6eb 843e e19e 803a f55d 7fbd
00000290: e5ae 883d 3b4e 473c aa5f 04bf c888 cebd
000002a0: 64bf d7bd 6564 f73d afaa 1ebf 8845 243f
000002b0: 6a70 b83e a307 adbd 83c1 1abe 0402 b2be
000002c0: bb40 2abf 9bf8 36be 814e 67be bcd5 a5bd
000002d0: 21ba 553b d825 f53d f54c d83d ad6a 203e
000002e0: 9d18 28be 8808 553e 00ca 873e bf67 06be
000002f0: fb27 193f 1a54 9abd 8c39 353f 5182 e13d
00000300: 854e ae3d 0b77 393c 7c75 b2bd d8d0 773e
00000310: c4ed 90be fa70 7abe 5f9e c9bc af13 57be
00000320: a24e 733e 7d2b 943e 92a4 243f 136a 003f
00000330: 4e3b 513d 5913 80bd 8fe8 ed3d 3d4e 0fbf
00000340: 62ac 963c 4e69 41be 2d11 213c af51 083e
00000350: 34c3 ab3e 55c8 64be aae9 ce3e a049 2d3e
00000360: 6eb6 ab3e 611d 9b3d 5aae 2bbe 965d a03b
00000370: b62c 62be 0611 b63e 687c c13e d7fa cf3e
00000380: 254c d4bd 49f5 a33e 8ec8 40be 5928 0a3f
00000390: 0fdd 3ebc 686e 863d 26fb 0fbe e8f4 143e
000003a0: 8d94 a8bd 540d a8bd a4f2 a4bd f5a6 18bc
000003b0: 7910 1f3e 76c5 b73b ab5a 42bd 88f0 9a3e
000003c0: e07a c13c 37a1 4dbd b836 2cbe 3ec0 9ebd
000003d0: da31 d23e ea99 5cbe 2248 ac3e 2010 f7be
000003e0: 7cb3 73be b7bb 1f3e f08a b1bd d4fe 853e
000003f0: 8f1b 88bd e48f 28be 9cad 19be 07e9 123d
-0.17274545 -0.09504258 -0.51423335 0.20905752 -0.12510864 -0.16310544 -0.060854606 0.16237319
-0.43494573 -0.25923187 -0.19287197 -0.67816854 0.38690117 0.34974808 -0.47296497 0.12206284
0.022269305 -0.09044203 0.16470478 -0.121569656 0.24474052 0.11576592 -0.2585338 0.24944007
-0.018597264 -0.047011234 -0.094549984 -0.120957784 -0.048188694 -0.056319904 -0.13710742 -0.031432856
-0.3465866 -0.06909429 0.010879376 0.115753636 -0.20702377 0.4768447 -0.05388179 -0.084117755
-0.09416103 0.31627828 -0.15348938 0.05956195 -0.008829954 -0.05727077 -0.09630673 0.17299156
-0.13244174 -0.11354378 -0.05365563 -0.26189545 0.13255048 -0.08312961 -0.012177025 0.14040728
0.07915769 0.27035385 0.51940584 0.067882195 -0.12957792 0.22147162 -0.0036138054 0.039901745
0.098429464 -0.17966191 0.65281963 -0.04084592 -0.089476906 0.19181956 0.40807375 0.06713414
-0.3352325 0.30058318 -0.30348405 -0.20911261 -0.07100539 -0.24454537 -0.73803174 -0.14704019
-0.027058756 -0.102754675 -0.1558811 -0.031080076 0.18547973 -0.13048089 0.48239687 -0.17530529
-0.054976612 -0.55106556 0.021698797 0.026009602 -0.03971762 -0.13476296 0.29972547 0.07743922
-0.016048377 -0.28953382 -0.112145156 -0.047277275 0.10824278 -0.045183584 -0.5960099 -0.12405897
-0.14195608 -0.14455165 0.09522052 0.03181431 -0.10049185 -0.21541104 -0.23666358 -0.12450214
0.20973 0.07637749 -0.040670387 -0.047648236 0.3958123 -0.05227568 -0.40107003 0.10170487
-0.19123542 0.38430014 -0.15531074 0.27842873 -0.1338518 0.18514101 0.35191876 0.01873688
0.039657425 -0.17471072 -0.13110964 0.36775368 -0.040813226 0.4855524 -0.06483499 -0.17775428
0.1612586 -0.22549686 0.01881628 -0.22082594 -0.22029912 -0.06370201 -0.050233215 0.19713834
-0.06700641 -0.19367997 0.23773703 0.15810312 0.14931884 -0.19018209 0.37829596 0.024175474
-0.11468635 0.08176428 -0.10132999 -0.25547975 -0.13269494 0.3109577 0.23226982 0.19922343
-0.25068074 0.25961226 0.0009812975 -0.062345464 0.066739835 0.012164648 -0.5170847 -0.10084683
-0.10534552 0.120796956 -0.6197919 0.64168596 0.36023265 -0.08448722 -0.15112881 -0.34767163
-0.6650502 -0.17868273 -0.2258854 -0.08097407 0.0032612162 0.11970109 0.105615534 0.15665694
-0.16415639 0.20804036 0.265213 -0.13125513 0.5982663 -0.07535572 0.70790935 0.11011184
0.0851107 0.011319886 -0.087138146 0.24200761 -0.283064 -0.2445716 -0.02461165 -0.21003602
0.23760465 0.2893943 0.64313614 0.50161856 0.051081948 -0.0625369 0.11616623 -0.5597876
0.018392745 -0.18887827 0.009830755 0.1331241 0.33547366 -0.22342046 0.40412647 0.16922617
0.3353762 0.07573963 -0.16765729 0.004893969 -0.22087368 0.35559863 0.37790227 0.40621063
-0.10366086 0.32023075 -0.18826506 0.53967816 -0.011649384 0.06564027 -0.1406065 0.1454655
-0.08231459 -0.08205667 -0.080540925 -0.009317149 0.15533628 0.005608256 -0.04744975 0.30261636
0.023618162 -0.050202575 -0.16817749 -0.07751511 0.4105366 -0.21543089 0.33648783 -0.4825449
-0.23798937 0.15598951 -0.08669078 0.2617098 -0.066458814 -0.1646114 -0.15007633 0.035866763

fc3.weight f4 [256, 256]
00000000: f823 b43d 740a 8bbe f745 a6be 9c71 21bf
00000010: 9198 3abe 3165 d83d 5c71 df3c c98a 133e
00000020: ab31 7bbe 582d a3be 416c 08bd 5bc1 dcbe
00000030: aa6e 1c3d 1a37 083d 091d 1abf fa4c 013f
00000040: 2c97 9d3e 2744 97be 96b3 1b3d 1f8a 63bc
00000050: d3be e8bd eec6 acbe 2fb5 9bbd 9c16 b7be
00000060: f753 7a3e 8e0c d2bd 051e 13bd ee51 b03c
00000070: d9c5 4a3e 3c8c 9a3b 31b8 643c e506 17bf
00000080: 7f4b c93d 0f12 f4bd 02f0 9bbd 28f8 b8bd
00000090: 04e4 f5bd 2c0f 38be aa64 34bd 657e 2e3e
000000a0: 0d39 a23b dc29 93be 358f 47be 85d1 0abf
000000b0: 5ec1 52be 3404 923c ae3f 27bd 5641 9d3d
000000c0: 7a5c a4be d27d 33bc b7f3 fbbb f7f6 fabc
000000d0: 1d2a acbe 9ee8 c83c 49b6 73be 41ed ea3c
000000e0: 7082 4d3e 0c99 013e 036b 0cbe a644 93be
000000f0: 8cee f739 784e 503e 59ec 41be 3354 a23e
00000100: 0a32 b23d 7dcd 81be f7f9 803e f7e7 783e
00000110: 993a cfbc cb38 77bd 3f20 b9be 51a5 eebe
00000120: 05cd d0be 37a9 bdbe 6e68 2bbe d620 bbbd
00000130: 16d1 12bf b42a 91be bc1e dabe 4868 cbbc
00000140: 57c5 1f3d 5162 05bd 2a00 bdbe 3cc2 dfbd
00000150: dcb1 b8bd 5cce 263e 3b09 4abd 1855 89be
00000160: 0a70 813e cf02 bdbe 3e92 96be a409 933d
00000170: 226b 8ebd dcab f53d 4c60 a13e 1e81 d3bd
00000180: 9967 ecbe b285 113e 6e32 3bbe 23e2 223e
00000190: 0584 e53c 79f1 73be a91d 35be 9cb6 42be
000001a0: 052a 073c fa44 07be e898 913e 1fa3 08bf
000001b0: 3a33 5cbd b7f1 04be fb39 74be 1e13 3abe
000001c0: 58e1 833d 778e ea3e d659 bebc a767 053e
000001d0: 5b7c d43d 2c64 2d3d da4e c63c e951 a43d
000001e0: 0663 f7be acde a43c b5bc d3bd e48c 223e
000001f0: fffd 963c b1e1 4fbe 1f98 4d3e 373c 273e
00000200: eb0a 5cbe 84f6 c9bd fb4e 8ebd 0bba 033c
00000210: 3abd 2bbd 1f4c 79be d927 393c 90ed f0bd
00000220: 3e3a 8d3d 4a8c fbbd b335 d0be f067 913d
00000230: 0a07 09be 7072 08bf bf37 13bd 650c 93be
00000240: d7a2 4dbd 0e61 aebe fc97 8abe 6ee0 82be
00000250: cbec afbe 8f87 cd3d 767e dc3c 32a0 683a
00000260: 8c0d 453d 75d1 fd3d d2e1 8fbe 5dd1 5fbe
00000270: 8ba3 d5bc e6c1 2a3e add4 a8bd 33c7 e73d
00000280: 1a77 113d 8c8c 933e b7f4 7dbf 7c4c a53c
00000290: c219 b5be 12bd ab3d ee17 80bc f91f 2fbd
000002a0: ec0b 90be 47a6 773e b341 1abe 114b 02bf
000002b0: 56b1 16be 7c09 d5bc 2563 5bbe f380 793c
000002c0: 92c4 abbe ac7d 70be 1191 9dbd 6aa5 c8be
000002d0: 6711 ec3e e523 edbe 2479 013e 654d 34be
000002e0: 6efc d9bd 3385 e53d cef3 3f3d dce2 26bf
000002f0: b35a 49be 2d67 053c db23 ca3c 9e75 29bd
00000300: 42e7 27be cd8a bc3d 0d08 143e 15f0 783e
00000310: 7a5d 8dbd 5cfe b0bd d16e b7be e765 9d3c
00000320: c13e e9bc cdbe 313e 6ec8 a0be 09ae ffbd
00000330: 073f a0b9 8cd7 9abd d4e3 fc3d b814 9f3d
00000340: c218 b3bd d864 d53d 7cd9 00bf 2758 8dbe
00000350: 1d50 9fbe 74bd 59be 2fb5 2fbd 02d2 dd3c
00000360: d3e6 453d 043a f63d 09d3 233d 8a68 3dbe
00000370: 5998 e9be ec0c eabd 1cc2 683e 65ab 963d
00000380: eeab b3be c09c 403e aafb c83d 9cc7 07bd
00000390: c1b2 debc 9f5b aebd 8845 2fbe 7c66 37be
000003a0: 5049 5c3c 270e ca3d ba89 c53d 0f1d 8d3e
000003b0: 7de2 243d 6924 9fbc 1eab 433e 24e2 52be
000003c0: 13a7 3f3e d846 d43d 07f7 93bc d6d1 71bd
000003d0: f6b8 ff3d 6d8f 383d 0d1d 8abe 4aac f03d
000003e0: 0371 95be 7675 f3be 77d9 0e3b e235 823e
000003f0: 831f a93e 08c4 483d d894 e03c 7ac0 dfbd
0.08795923 -0.27156413 -0.32475254 -0.6306398 -0.18222262 0.10566176 0.027275734 0.14408411
-0.24530666 -0.31870532 -0.033306364 -0.4311627 0.038191475 0.033255674 -0.60200554 0.5050808
0.30779397 -0.29544184 0.038013063 -0.013887911 -0.11364522 -0.3374552 -0.076029174 -0.35759437
0.24446093 -0.10256301 -0.0359173 0.021523442 0.19802035 0.0047164243 0.01395993 -0.58994895
0.09828853 -0.11917507 -0.07614137 -0.09031707 -0.12006381 -0.17974538 -0.044041313 0.17040403
0.0049506486 -0.28742874 -0.19488223 -0.5422595 -0.20581576 0.01782427 -0.040832214 0.076784775
-0.32101804 -0.010955291 -0.007688965 -0.03063534 -0.3362588 0.024524983 -0.23800005 0.028677585
0.20069289 0.12656039 -0.13712697 -0.28763312 0.00047289243 0.20342433 -0.18937816 0.31704864
0.087009504 -0.25352088 0.25190708 0.24307238 -0.025296496 -0.060356896 -0.36157414 -0.466105
-0.40781417 -0.37043163 -0.16739056 -0.09137122 -0.5735029 -0.28352892 -0.42601573 -0.024829999
0.039006557 -0.032564465 -0.36914188 -0.10925719 -0.09018299 0.16289657 -0.04932521 -0.26822734
0.25280792 -0.36916205 -0.2940845 0.07179573 -0.06954028 0.1199567 0.3151878 -0.103273615
-0.4617279 0.14211157 -0.18280956 0.15906577 0.028017053 -0.23822583 -0.17687096 -0.19014972
0.008249764 -0.13209906 0.2843697 -0.53373903 -0.05375979 -0.12982832 -0.23850243 -0.18171355
0.06439465 0.45811817 -0.023236196 0.13027821 0.103752814 0.04233186 0.024207521 0.080234356
-0.48317736 0.02012571 -0.103387274 0.15874058 0.018431662 -0.20300938 0.20077561 0.16331564
-0.2148854 -0.09861472 -0.06948658 0.008039962 -0.041928507 -0.24345444 0.011301004 -0.117640615
0.068958744 -0.122826174 -0.4066597 0.07099903 -0.13381591 -0.5329962 -0.035941835 -0.28720394
-0.050204124 -0.34058422 -0.2706908 -0.2556185 -0.34360346 0.100356214 0.02691577 0.00088739686
0.048108622 0.123934664 -0.28101975 -0.2185721 -0.02607896 0.16675529 -0.0824369 0.11317291
0.035513975 0.28818166 -0.9920153 0.020178072 -0.35371214 0.08385672 -0.01563641 -0.0427551
-0.28134096 0.24184524 -0.15064125 -0.5089579 -0.14716086 -0.026005499 -0.2142454 0.015228498
-0.3354841 -0.2348544 -0.07693685 -0.391887 0.46107027 -0.46316448 0.12643868 -0.17607649
-0.1064385 0.11207046 0.04686337 -0.6518991 -0.19663505 0.008142275 0.0246753 -0.041371934
-0.16396812 0.09206162 0.14456196 0.24310334 -0.06902595 -0.08642265 -0.35826734 0.01921363
-0.028472306 0.17357941 -0.31402916 -0.124843664 -0.00030564537 -0.075606436 0.12348142 0.07767624
-0.087449566 0.10419625 -0.50331855 -0.27606317 -0.3111581 -0.21263677 -0.0428974 0.027077679
0.048315834 0.12022784 0.03999618 -0.1849691 -0.45624045 -0.11428246 0.22730297 0.0735691
-0.3509211 0.18809795 0.09813626 -0.033149347 -0.027184846 -0.08513569 -0.17116368 -0.17910188
0.013445213 0.098659806 0.0964541 0.27561232 0.04025506 -0.019426541 0.19108245 -0.20594078
0.18716078 0.10365075 -0.018062128 -0.059038006 0.124864504 0.045058656 -0.2697529 0.117516115
-0.29187784 -0.47550553 0.00217971 0.25431734 0.33031854 0.049015075 0.027414724 -0.10925384

fc3.bias f4 [256]
00000000: b301 adbc 24fa babe 06ca e0bd 4371 9ebd
00000010: 500e 063e 502e debd 8f7d 043e b9f1 79be
00000020: be62 18bd b984 dfbd 5095 303e 671a c73d
00000030: 9636 e03d 7cdd 3f3e 780e 72be ca93 babd
00000040: 7fb4 20be fc5f 69be ebca 08be 8089 3bbe
00000050: 798f 9cbd 9d3b 14bb 689c 9f3c a172 8b3d
00000060: 2857 c33b 7090 67bc fff3 45bd cb09 72be
00000070: a4df 9fbc 1575 42be ed95 e2bd d029 793e
00000080: 5cb7 76bd a853 003e 1b84 81bc 3349 833e
00000090: aa2d 77bc 1bfe 4ebe 9022 e0bd 76b9 c73e
000000a0: 24f2 41be b2a9 a7bd d0a8 333d 5d07 a8bd
000000b0: ef3c 5b3d 8b69 e0bb f993 173c d7d4 3f3e
000000c0: b4d2 823c 1e6a b63c bc5d 0bbe 3454 a73e
000000d0: 9725 42be 1d27 b8bc 8ac4 533e 6cb2 4cbe
000000e0: 95e2 333e 9067 a8bd 3a4c 3f3e c882 933c
000000f0: bad9 1f3e f795 2f3e 745b 0dbe dc63 90bc
00000100: 3e2b 56bc 6978 20be e590 b43d 449e 0fbe
00000110: 3387 663d b9d2 06be cd50 883c f273 793d
00000120: 5af6 b93d 97c1 3dbe ed0c a2be b64f 2a3d
00000130: 7e55 12bd 0f6c 88be 2ee1 d53d 8a09 ba3d
00000140: e2b7 18be 6ab6 c9bc b469 c53c a1f6 d9bd
00000150: bcdb 983e f5f3 0dbe 9120 8a3e 9f99 aa3d
00000160: e7e4 b63e 84ba aabe 6ff8 a53d c0d7 c83e
00000170: 5940 64bb fa86 8d3c 3b87 b0bd 2a36 d83e
00000180: c081 84be b23f 5bbe c251 12be b79f fd3e
00000190: 5e7b 03bd 5f7e 333e e243 24be 526c 7cbe
000001a0: de46 2f3d e77c 84be a10c 8ebe cb9a f73d
000001b0: 0d5b cb3c 694f 41be 8cad a53d 04dd a5be
000001c0: ee3e 043e e6cd 81bc dd6d 0f3e 4cb9 0ebe
000001d0: 1b37 8abe 84d6 243e 9bd8 0abe 53cf a2be
000001e0: 00a5 c23d 9e20 b33c ef31 80be a77e 113c
000001f0: cbc0 8fbe f6d5 a0be 1b13 3d3c 57c3 2b3e
00000200: faca 983d 6dbf 6f3e 4cad c2bd 34b9 66be
00000210: 42e6 793d c103 f83d bd16 febb a320 f43d
00000220: 0209 273d da38 46be b3e1 a3bd ee6e f63d
00000230: 9f68 3f3c 6be7 533e d0b9 14be 9345 bd3d
00000240: 427a afbd 8d52 083e 8db5 83bd 5c01 ac3e
00000250: 5711 66bd 4a50 c23d bf6c 2cbd 2d77 733e
00000260: b3c2 42be cd8b f6bd 9d54 2d3e 68b5 953d
00000270: 57fd 9abd f9e6 a83d cd5e d03e 0d38 a4bd
00000280: 9f2b adbd db11 153e 5706 493e 470e 48be
00000290: 23ae 49be 95e4 15bd 6d4d 8abd 5acf 86bd
000002a0: f515 31be a100 ccbd 0517 d2bd 5355 20be
000002b0: 3ca4 1dbe febe dc3e f1ac 44be 2d7b 813e
000002c0: 2d27 253e 4d69 b23d 97bb 8bbd 4b67 cdbe
000002d0: 97aa e0bd a88c b9bd 7bf7 cabd 86ef 00be
000002e0: e74c 56bc 613c 6a3d c85b 1a3d af93 f9bd
000002f0: 5ff1 23be 3acc 343e e568 b43c 302f c33c
00000300: 48c7 c43e 7318 c1bc 3bcc 443e 230a 6b3e
00000310: 50a4 06be d5d9 88bc de9e 953c 11eb e53d
00000320: 9f9d 473e d649 e53c e31e 2cbc e02f 2c3e
00000330: f432 aebe 746a 063e 0fe5 3bbe 09d7 2d3e
00000340: 7fcb 41bc 9311 043e 56fa c4bd 756a 95be
00000350: 19a1 65be e1e5 f63d 8037 a7be 21da 16be
00000360: 5e07 53be fd29 8abe b473 873d 08f3 973c
00000370: 5480 d53d e0fd 5cbe 0848 54bd c665 fdbd
00000380: c803 9e3e 4a0b 9f3e bc2d 573b f38c 2c3d
00000390: 7e30 09be 4816 89be 1e74 6e3d d9dc a83b
000003a0: d8f9 1ebe ff54 e0bd 7db5 263e db43 7dbc
000003b0: 3481 a8bc 7c73 0abd 937a f5bd 768f 6ebe
000003c0: cce1 f83d 84ad 4e3e 57c3 9dbe 6f2d 68be
000003d0: dea9 94be 0792 a0bd fd2b cfbd 22ee 59be
000003e0: e089 bcbd 46f4 02be b1ce e13e 3f79 49be
000003f0: 43b3 b1be d17f 80be 1aee 023e 2e5c 93be
-0.021118974 -0.36518967 -0.10976033 -0.07736447 0.13091397 -0.10848677 0.12938522 -0.24408616
-0.037203543 -0.10913987 0.17244458 0.09721833 0.109479114 0.18736833 -0.23638332 -0.0911022
-0.15693854 -0.22790521 -0.13358657 -0.18314171 -0.07644553 -0.002261854 0.01948376 0.06808973
0.0059613176 -0.014133558 -0.048328396 -0.23636548 -0.01951582 -0.18989976 -0.11063752 0.24332356
-0.06023346 0.12531912 -0.015810063 0.25641784 -0.015086571 -0.20214121 -0.10944092 0.39008683
-0.18940026 -0.08186664 0.043862164 -0.082045294 0.053524908 -0.006848519 0.009251588 0.18733536
0.015969612 0.022267397 -0.13609976 0.3268143 -0.18959652 -0.022479588 0.20680442 -0.19989938
0.17566903 -0.08222878 0.18681422 0.018006697 0.156104 0.17147051 -0.13804418 -0.017625742
-0.013071833 -0.15670933 0.08816699 -0.14025217 0.05628128 -0.13166322 0.016640091 0.06090159
0.09080191 -0.1853088 -0.31650487 0.041579925 -0.035726063 -0.26644942 0.1044334 0.09083851
-0.14913896 -0.024623115 0.024098255 -0.10642744 0.29855144 -0.13862593 0.2697797 0.08330082
0.35721514 -0.33345425 0.081040256 0.39227104 -0.0034828393 0.017276276 -0.08619543 0.42228824
-0.2588024 -0.21411017 -0.14289 0.49535915 -0.032100074 0.17528675 -0.1604152 -0.24650696
0.042792194 -0.25876543 -0.2774401 0.12090071 0.02482369 -0.18877949 0.08089742 -0.32395184
0.12914631 -0.01584525 0.14006753 -0.13937873 -0.26995167 0.16097456 -0.13559191 -0.317988
0.095041275 0.021866139 -0.25038096 0.008880294 -0.28076777 -0.3141324 0.0115402 0.16773735
0.0746059 0.23412867 -0.0950571 -0.22531587 0.061010607 0.12110091 -0.0077541755 0.119202875
0.040780075 -0.19357625 -0.08002033 0.12032877 0.011682658 0.20693748 -0.14524007 0.09241786
-0.08568241 0.1331274 -0.064311124 0.33594787 -0.05616888 0.0948797 -0.042095896 0.2377593
-0.19019584 -0.12038384 0.16926809 0.07309991 -0.07567852 0.082471795 0.40697327 -0.08018503
-0.08455586 0.14557593 0.19631325 -0.19536696 -0.19695334 -0.036594946 -0.06753049 -0.06582518
-0.17293532 -0.099610575 -0.10258297 -0.15657549 -0.15394682 0.43114465 -0.19206597 0.25289288
0.16128226 0.08711491 -0.06822889 -0.4011787 -0.109700374 -0.09060031 -0.099104844 -0.12591371
-0.013079858 0.057186488 0.037685186 -0.121863715 -0.16010045 0.17656031 0.022022674 0.023826212
0.3843329 -0.023571229 0.19218533 0.22953086 -0.13148618 -0.016705433 0.01826423 0.11226476
0.19493721 0.02798931 -0.010505411 0.16815138 -0.3402325 0.13126546 -0.18349098 0.1697656
-0.011828302 0.12897329 -0.0961806 -0.29182783 -0.22424735 0.12055565 -0.3265953 -0.14731647
-0.20608279 -0.2698516 0.066138655 0.018548504 0.10424867 -0.2158122 -0.051826507 -0.12372927
0.3086226 0.310633 0.0032833656 0.042126607 -0.13397405 -0.26774812 0.058216207 0.00515328
-0.15524995 -0.10953712 0.1628017 -0.015458073 -0.020569421 -0.03380154 -0.1198627 -0.23296914
0.12152442 0.20183378 -0.30813095 -0.22673582 -0.29035848 -0.078403525 -0.10115812 -0.21282247
-0.09205985 -0.12788495 0.44103006 -0.19675158 -0.34707078 -0.25097516 0.12786141 -0.28781265

output.weight f4 [4, 256]
00000000: ccc7 87bd b144 ebbc 8429 723c ee86 483d
00000010: 1c76 98bc dfb1 2c3c 3639 be3d 8b7f ac3c
00000020: 458c 0b3d 888d b03c fb23 85bc eb6a 6f3c
00000030: fca1 9d3d c32b 14bc 4cec 853c 1eb3 383d
00000040: 4d7a 64bd bf32 bc3c 35fc 0d3d 71c9 1ebe
00000050: 9726 87bd 23cb 2cbd 405c c8bd a423 59bc
00000060: 934c 04bd f952 8fbc 2257 b33a 3868 ef3d
00000070: d5fe 103e 65e7 453d 7fe7 d33c 8fa5 fcbc
00000080: 0ee2 063d 1848 933c a515 bbbb 6db8 a93d
00000090: 14bf e63d 0a6d 293d 8bec 303d 6772 6b3c
000000a0: 78a3 1e3d 71ac 9e3c 3c67 773d 0c8d 1fbd
000000b0: 32ee f9bc 72ee c4bd bfb5 1a3b 8907 703d
000000c0: 1bd7 8e3d 666d 273d 4921 c83c 980d 283b
000000d0: 54c6 8a3d 98be 1cbe 100f a43c 70d8 3bbb
000000e0: 5c1b d6bd f795 9a3b 863e d83c 74b1 ffbd
000000f0: 8044 8fbd 69b8 57be 3427 5f3b d6d5 f03c
00000100: 7661 c13c c27b 0b3c dd56 97bc cf32 17bc
00000110: 2fd4 e93c e055 07be 01e2 0ebc 1929 303d
00000120: b9c1 e5bd 0b4d 8c3b bcef 29bd ff1e d23d
00000130: 5f1a 82bc 594c bebc 1476 2cbb 0ac9 d2bc
00000140: 93cb dcbd 2e37 403b a04c 21bc 3518 28bd
00000150: 4898 b03c 0183 f83d 2232 fa3d c72c 3c3b
00000160: 3616 a1bd 14d8 7d3c 7d46 8c3c 70b9 a3bd
00000170: ede1 debd 55d8 9f3b d778 f53d 0cf4 923d
00000180: 0e88 983d 67ed 52bd 3f60 9f3d 90ab 063e
00000190: 2b61 603d e2b5 68bd f7b9 a03c b4b1 87bd
000001a0: a1ac 5bbc 29a8 fe3b 5f46 9dbb 603e d0bc
000001b0: 48ec dd3d 509a 4a3d 30b9 a03d 3ed3 8f3c
000001c0: fbc5 01bc 9e84 9f3c aa64 f4bc 3fb8 81bc
000001d0: dca7 f23d c7cc d7bd 08da ddbc 29a2 4cbe
000001e0: fdac 25bd 7383 8abd 24ae 003e ccd5 6a3d
000001f0: 8c99 e3bd 6f03 d2bd 02f8 eb3d 674e 8a3d
00000200: 990b 3fbd ca66 183d e336 7c3c fbdb 35bd
00000210: 1117 1f3b 7b3f 463c c06f bfbc 6695 fb3b
00000220: 8592 6bbb 35da b83c 2322 48be b5a7 aa3b
00000230: 774b 8a3c 4f73 fd3c 44e4 6ebe 6b96 4fbc
00000240: 39d9 c43d db1f 013d 1a0c f53d 8008 faba
00000250: a812 043d 4af6 dcbc 5dd8 0cbc f2bb 423d
00000260: d239 073d 663a f83c 5646 c63d 77fd a33c
00000270: dbba 1dbd 1e7a a33c c55f 4d3d 8f29 5e3d
00000280: 6712 863c dc04 0a3b c245 343d 6800 5e3d
00000290: d356 963a b158 64bd a107 07be d3bb 653d
000002a0: 32b9 e83c f5d8 2a3d 5051 e8bb 9c69 1a3d
000002b0: c1f9 cfbc 77cc 68bc 029b 58be f68c 8cbd
000002c0: 6037 313d 1f9f 90bd babd 8d3d 36e6 9fbd
000002d0: 4977 e0bd 1a52 bc3d 556b 1bbd d8f5 213c
000002e0: 60d8 c7bc f9bb 8a3c 5524 08bd 27c2 9d3c
000002f0: 4a20 223d 468b 72bb f41d 223d 1e3f 1bbc
00000300: ba39 3cbb bef0 09be fb40 ef3b 9868 c6bd
00000310: ef4b 033d b5f7 513d db71 b3bd 4f1e a53d
00000320: a3c3 203d 8dd9 b93d 08f8 093d 9cbb b73c
00000330: b9ae 023e 7987 9bbd acf8 cfbb b3a4 f7bd
00000340: 0ab5 40bc 7b3f 90bd 8a4c ae3d 8ccb eb3d
00000350: 9fe6 313e 890e a9bc d77f 443d 7fc4 273e
00000360: 5be4 80bd 0510 e2bd 8f2f 063a 9cda 863c
00000370: d064 d2bd f2f7 bdbb 8f8a 1bbb eea9 89bd
00000380: d1f8 823c 6b31 3cbd 91ca 6abd 8df0 fbbb
00000390: 490d 973d 1690 92bd f817 aa3d 92b3 55bd
000003a0: 0221 bc3c 28d2 80bd 280c 943c 7d35 d63c
000003b0: c3b9 943d a7ac 893c cf45 f13c 9507 0f3e
000003c0: c99d 25bd ae04 0bbb f06f 2abc d722 31bd
000003d0: 79fd 45be 5936 37bc 4f75 0abe ca95 2c3e
000003e0: 210b fbbc 74e3 ec3c 9e9a 1ebe 4b74 c0bd
000003f0: 8073 ba3d a381 8d3c ca29 2a3c a79c fe3c
-0.06629905 -0.028719278 0.014780406 0.048956804 -0.018611006 0.010540455 0.09288256 0.021056911
0.03406932 0.021551862 -0.016252508 0.014612894 0.07696912 -0.009043637 0.016348027 0.045092694
-0.055780698 0.022973416 0.03466435 -0.15506531 -0.06599157 -0.042185914 -0.0978322 -0.013253126
-0.03229959 -0.01749562 0.0013682584 0.116898 0.1415971 0.04831638 0.025867222 -0.030840663
0.032930426 0.017978713 -0.0057093673 0.082871296 0.11266914 0.041363753 0.043194335 0.014370537
0.038730115 0.019369336 0.060401186 -0.038952872 -0.030509088 -0.09615792 0.0023606864 0.058600936
0.06974622 0.040875815 0.024429934 0.0025642868 0.06776109 -0.15307081 0.020026714 -0.0028662942
-0.10454437 0.0047175842 0.026397001 -0.124850184 -0.06995487 -0.2106644 0.0034050466 0.02939884
0.023606043 0.008513393 -0.018474037 -0.009228422 0.02854356 -0.13216352 -0.008720876 0.043007944
-0.1121859 0.004281645 -0.041488394 0.10259818 -0.015881715 -0.023229765 -0.0026315497 -0.025730629
-0.10781016 0.0029329765 -0.009844929 -0.04103871 0.021556988 0.12134362 0.12216593 0.0028713213
-0.078655645 0.015493412 0.017123455 -0.07994354 -0.10882936 0.0048780837 0.11985939 0.071754545
0.07447825 -0.051495936 0.07782029 0.13151383 0.054780167 -0.056814082 0.019619925 -0.06625691
-0.013407857 0.007771511 -0.0047996487 -0.025420368 0.10836083 0.04946357 0.07847822 0.017556783
-0.007920737 0.019472416 -0.029833157 -0.015834926 0.11848423 -0.10537105 -0.027081504 -0.19983734
-0.040448178 -0.06763353 0.1256643 0.0573328 -0.11113271 -0.10254561 0.11521913 0.06753235
-0.04664192 0.037207402 0.015393945 -0.044399243 0.0024275223 0.012100096 -0.023368716 0.007677722
-0.0035945487 0.022564987 -0.19544272 0.0052079805 0.016881688 0.030938772 -0.23329264 -0.01267014
0.096117444 0.03152452 0.11965199 -0.001907602 0.032244354 -0.026972909 -0.008596507 0.04754252
0.033014126 0.030301284 0.09681384 0.020018322 -0.038508277 0.019955691 0.05014016 0.054238852
0.016366197 0.0021060025 0.04401184 0.054199606 0.0011469967 -0.055748645 -0.13186504 0.056087326
0.02840862 0.041710813 -0.0070897713 0.037698373 -0.025387647 -0.0142089045 -0.21152881 -0.06862824
0.0432657 -0.070616 0.06920953 -0.07807581 -0.10960252 0.09195347 -0.037944157 0.009885274
-0.024395168 0.016935335 -0.033237774 0.019257618 0.039581574 -0.0037009283 0.039579347 -0.0094754975
-0.002872093 -0.13470742 0.0073014474 -0.096879184 0.032054838 0.051261622 -0.087619506 0.080624215
0.039249074 0.09074698 0.033683807 0.022428326 0.12761964 -0.07594199 -0.0063467827 -0.12091961
-0.011761913 -0.07043358 0.085106924 0.11513433 0.17373131 -0.020636814 0.04797348 0.16383551
-0.06293555 -0.11038212 0.0005118781 0.016461663 -0.10273135 -0.0057973797 -0.002373371 -0.06721865
0.015987786 -0.045945566 -0.05732209 -0.007688588 0.07375581 -0.071563885 0.08305353 -0.052173205
0.022964958 -0.06290084 0.018072203 0.026148552 0.07261994 0.01680596 0.029452233 0.13967736
-0.04043368 -0.0021212506 -0.010402665 -0.043246116 -0.19334973 -0.011182391 -0.13521312 0.16854015
-0.030644955 0.028917052 -0.1548867 -0.09397181 0.09104061 0.01727373 0.01038594 0.031080557

output.bias f4 [4]
00000000: 4381 8d3d 553c b63d 98a2 873d ad08 5f3c
0.0690942 0.08898226 0.06622809 0.013612908
