fetch_sticky_mittens_step/networks/ours_10k_block_3_uber_level_0_seed_150/network_pick_n_reach_goal_1.pth (torch, 596855 bytes, 8 tensors)

fc1.weight f4 [256, 60]
000000 2b 61 4d bd 1c 59 5f 3b 47 8a 1d 3d f4 1b a4 bd
       -0.050141495 0.0034080213 0.03846195 -0.08013144
000010 aa 16 fa 3d 84 ac fd bd 91 fc 4c 3d f5 3e fb 3d
       0.12211354 -0.1238642 0.050045554 0.122678675
000020 bd 9c 20 3d 45 53 81 bd 93 a8 89 bd cb d8 8b bd
       0.039211977 -0.063147105 -0.06721606 -0.06828459
000030 cf df 9d 3d bb f3 dd bc d0 f7 a9 bd 97 3b 81 bd
       0.07708704 -0.027093759 -0.082992196 -0.06310194
000040 5a fe e3 bd 92 79 c6 3c ce 5a 0e 3d 08 ae 23 bd
       -0.11132498 0.024227891 0.034754567 -0.03996089
000050 9d f3 9a 3b 95 a5 1d 3c 22 55 c6 3b 79 57 69 bc
       0.004728748 0.009621997 0.006052629 -0.0142420465
000060 71 26 9c 3d dc 8b 86 bc 2e fc ad bd af 83 cc 3d
       0.076245196 -0.016424112 -0.08495365 0.09986054
000070 61 65 9d bd c0 e5 9e 3c 1f 56 da bc fb bf 78 bd
       -0.07685352 0.019396663 -0.026652394 -0.06072996
000080 3f 9e 8d bd a7 b7 69 bc bf 19 ea bd bd cd 3d bc
       -0.06914949 -0.014264978 -0.11430692 -0.011584696
000090 f5 fe f8 3d 4e 3f 01 3e 1d 1c bd bd 5c 12 82 bd
       0.12158004 0.12621805 -0.09233878 -0.06351158
0000a0 b3 c0 bd 3d d8 9c 97 bd f9 05 a2 3c d5 40 df bd
       0.0926527 -0.074029624 0.019778239 -0.109010376
0000b0 b7 7b e8 bc ed c9 00 be 74 67 24 bd e3 1e c8 3d
       -0.028379304 -0.12577029 -0.040137723 0.09771516
0000c0 f9 f4 00 be 66 8e 54 3d 2c 5e 83 bd c6 e2 8d 3b
       -0.1259345 0.051893614 -0.06414446 0.004330012
0000d0 29 23 34 3c a0 19 02 be 20 09 70 bd b9 48 10 3d
       0.010994711 -0.12705088 -0.058602452 0.035225604
0000e0 46 74 f9 bd 49 74 ee 3d 2a 47 f6 3c 9c 32 b9 bb
       -0.121803805 0.116432734 0.03006323 -0.005651785
0000f0 ed 61 d4 bd 76 fd ad 3d 2c 5a a6 bd b5 3b 03 3e
       -0.1037024 0.084956095 -0.08122668 0.12815745
000100 2f fd d6 3d 8d 2d 09 bd b4 87 d4 bc 98 31 87 bd
       0.1049751 -0.033490706 -0.025943615 -0.06601256
000110 b3 3d b2 3d 98 c2 52 bc 13 7f c2 bc 4b d9 3d 3d
       0.087031744 -0.012863778 -0.023742234 0.046349805
000120 ed 33 bf 3d 1e 1a 9b bc 88 18 da 3d aa ca d8 bd
       0.09336076 -0.018933352 0.1064921 -0.1058553
000130 b2 d2 d1 3c 4f 69 bf bc 89 ab 95 3d 6f 32 01 3e
       0.025613163 -0.023365645 0.07308108 0.12616895
000140 3f af 89 bc 7c b9 f6 bd b7 6f 28 bd af 72 e2 3b
       -0.016807197 -0.12047097 -0.041122165 0.006910644
000150 80 d4 98 3d bf 2c bc bc be 96 67 bd e9 52 ec bd
       0.07462406 -0.022970555 -0.056540243 -0.11539251
000160 ec f7 e0 3d 85 14 d6 bc 7a 1c 9c 3c 38 aa df 3c
       0.10984787 -0.026132831 0.019056547 0.027302846
000170 68 8f 33 3c c7 8d bf bc aa 73 0c bd a8 27 8e 3d
       0.010959484 -0.023383034 -0.034289993 0.069411576
000180 0c 29 20 3d 94 ad 64 3d f2 28 da bd 55 6c 8f bc
       0.039101645 0.0558296 -0.10652341 -0.017507711
000190 74 e4 bd 3d 81 bf bd bc 9b 1f b3 3c dc 40 d6 3d
       0.092720896 -0.023162605 0.021865657 0.1046159
0001a0 9e 2f f1 ba f4 6a 4e 3d 7c 68 e7 bd 85 a8 b8 3d
       -0.0018401032 0.050394967 -0.11299226 0.090165175
0001b0 39 79 b6 bd 1c 58 a3 3d bf c4 cd 3d 77 8d 8f 3d
       -0.0890984 0.0797579 0.10047292 0.07009404
0001c0 f0 05 03 3e 46 2b 7c 3c 65 5f f8 3d 75 64 b9 3d
       0.12795234 0.015391177 0.1212757 0.09052364
0001d0 18 f0 c8 bc 4e 09 9e 3d 27 6b db 3d b5 d0 a6 3c
       -0.024528548 0.077166185 0.10713797 0.020363191
0001e0 d0 25 77 bd e6 06 ca 3d b6 ad 8c 3b fa af 66 3d
       -0.060338795 0.09864597 0.004293169 0.056320168
0001f0 2f 91 09 3d 91 36 10 bb 86 57 8d bd 0b d3 03 3e
       0.033585723 -0.002200518 -0.069014594 0.12873475
000200 fb bc f9 bd 85 f2 e2 bd 40 ed 62 3d bb bd b3 3d
       -0.12194248 -0.11081413 0.05540204 0.087764226
000210 77 3b ec bd 63 99 c4 bd 33 06 eb bd ed 11 66 bd
       -0.115347795 -0.09599569 -0.11475792 -0.05616944
000220 8a 05 ae bd fe 1b b1 3d e8 38 23 3c ea 07 88 3d
       -0.0849715 0.08647917 0.009962298 0.066421345
000230 e8 d3 97 bc 9c 3b 92 bc 2c 96 de 3b 5c 18 10 3a
       -0.018533662 -0.01785069 0.006792804 0.0005496794
000240 29 df 20 3d ef f2 fc bd e7 8f 93 bd 70 a7 a6 bd
       0.039275322 -0.123510234 -0.072051816 -0.08137405
000250 ba 7a 8b bd 0a 40 82 3d 46 01 31 bd 7e ff b4 bd
       -0.068105176 0.06359871 -0.043214105 -0.08837794
000260 f7 7b 47 bd bf 55 2b 3d 94 9b 9d bb ab ee bf bd
       -0.048702206 0.04182982 -0.004809806 -0.09371694
000270 5c 67 96 3c cd 6c ef bb 9f 60 6c 3d d0 80 32 3b
       0.018359832 -0.0073066712 0.057709333 0.0027237423
000280 d6 ba 75 3d a7 34 da 3c 87 d3 47 3d af cf 5a 3d
       0.059992634 0.026636435 0.048785713 0.05342072
000290 01 b6 e4 bd f3 f5 9d bd 2f de 0b 3c fb 2e 02 be
       -0.11167527 -0.07712927 0.008536859 -0.12713234
0002a0 b8 eb 96 bd 29 e0 e9 bc 3c 0e 5f 3b e5 52 f9 bb
       -0.073691785 -0.02854927 0.0034035584 -0.0076087588
0002b0 be 3c cc 3d f2 5a 24 bd 58 b4 c0 bd 22 cd d0 3d
       0.09972523 -0.040125795 -0.09409398 0.10195376
0002c0 65 52 b8 bc df 18 c3 bd 14 bb e2 bd d4 91 85 3c
       -0.022500226 -0.09526228 -0.110708386 0.016304888
0002d0 46 8c 88 bd 5d b1 06 bc 8c a0 a4 3c 51 71 57 bd
       -0.0666738 -0.008220998 0.020096086 -0.0525983
0002e0 04 6c 65 3d c7 1e f5 bd ed d6 9f 3d b4 35 15 3d
       0.056011215 -0.11968761 0.07804666 0.03642817
0002f0 9e 58 d9 bd c0 35 97 bd 0a de 60 3d 61 ca ce bd
       -0.106126055 -0.07383299 0.054899253 -0.100971945
000300 ed 9d e2 bd cb 7c 8f bb 98 6c 73 3d e3 4d 0c bd
       -0.11065278 -0.00437889 0.059429735 -0.034253966
000310 27 15 f1 3b 95 44 db bd ca 51 e6 bd 6b 3f b2 bd
       0.007357258 -0.1070644 -0.11246069 -0.08703502
000320 9c ad c9 3c 4c 85 a2 bc f1 fb bf 3d 60 d8 17 3d
       0.024618916 -0.019838952 0.09374226 0.037071586
000330 a6 0b 21 bb be 34 0c ba ae af 94 bb 0f c8 87 bd
       -0.0024573593 -0.00053484354 -0.004537544 -0.06629955
000340 5a 39 a9 3d ab 4c cc 3d f5 e3 94 3d 1b 74 c3 3b
       0.08262892 0.09975561 0.07270042 0.0059647686
000350 a9 78 db bd dd ad 8e bd 59 32 57 3a 51 c1 10 3d
       -0.107163735 -0.069667555 0.00082091015 0.03534061
000360 e1 76 65 bd f2 92 e6 bd 2d f8 fb 3d 03 ce ce bd
       -0.056021575 -0.11258496 0.12303195 -0.10097887
000370 8c 69 90 bd f8 0c f5 3d b7 c5 df 3d d7 98 b5 bd
       -0.070513815 0.11965364 0.10926383 -0.088670425
000380 90 7f a1 3d b7 b9 a7 bd 21 1c bf 3d dd 40 d9 3d
       0.07885659 -0.08189719 0.09331537 0.10608075
000390 30 b4 91 3b df b9 12 3c 4f 53 46 3d bb f0 10 bb
       0.004446529 0.008955448 0.048419293 -0.0022116143
0003a0 89 c2 12 3d 74 30 05 3b 2c 6e a6 3d 28 f9 8d bd
       0.035830054 0.002032307 0.08126482 -0.069322884
0003b0 2f 11 79 bc 74 c4 91 ba 95 c7 28 bd de 37 ec 3d
       -0.015201851 -0.001112117 -0.04120596 0.11534093
0003c0 b2 d4 68 bb f5 e1 b7 bd 5e 57 9d 3d 5c 98 bc bd
       -0.0035527167 -0.08978645 0.076826796 -0.09208748
0003d0 9e 59 74 3d f5 b0 98 3c 6f 05 2c 3d 25 59 c6 bd
       0.059655778 0.018639067 0.04199737 -0.09684972
0003e0 0a e1 de bd 14 6a 6c bb 1a e7 72 bd 53 39 ef 3c
       -0.108827665 -0.003607397 -0.059302427 0.029202139
0003f0 9e 0b 48 3c 56 55 df 3c 68 65 66 bc ab 22 f3 3d
       0.012209801 0.027262371 -0.014062263 0.11871847

fc1.bias f4 [256]
000000 00 2f f0 3d 72 63 00 be 5c 2a 96 3c 29 44 89 3d
       0.117277145 -0.12537935 0.018330745 0.06702454
000010 96 91 e5 3d 12 d2 e9 3d 9a 66 e3 bd 32 0c 02 3e
       0.11209409 0.11417021 -0.11103554 0.12699965
000020 ec f7 7b 3d d5 6d 07 bd 32 9a 13 bd 1b 92 ea bd
       0.061515734 -0.03306373 -0.036035724 -0.11453649
000030 37 ec f9 bd 71 45 63 3d a3 a3 8b 3c 2a dd 3d 3b
       -0.122032575 0.055486146 0.017045802 0.0028970935
000040 61 ae 21 3c 36 35 68 3d 32 2f a8 3d 1a 34 0d 3b
       0.009868235 0.05669137 0.08212127 0.0021545948
000050 6f d2 81 3d b3 5f d6 3d d7 47 9f bd 9f f3 97 bd
       0.06338965 0.10467472 -0.07777374 -0.07419514
000060 ba f3 9e bc 92 e0 01 be 2d 35 07 bd ae a4 86 bd
       -0.019403327 -0.12683323 -0.033009697 -0.06574379
000070 aa 75 17 bc d9 b3 cf 3d ec 63 90 bd 61 d4 79 3d
       -0.009244362 0.10141725 -0.070503086 0.060993556
000080 df 18 a6 3c a9 c6 8c bc d6 9a dc bd 2c e1 90 3d
       0.020275531 -0.017184572 -0.1077172 0.07074198
000090 f8 df 9d bc a3 dc e8 bd 78 6c 09 3d f3 50 e6 3d
       -0.019271836 -0.11370208 0.03355071 0.112459086
0000a0 57 05 b8 bd 6a 7f 46 bd 75 64 cc 3c 7e 66 bd 3d
       -0.089853935 -0.048461355 0.024950245 0.092480645
0000b0 97 b6 9c 3c 37 4e f5 bd 51 2a d1 3b 97 2d 98 bd
       0.019130034 -0.11977809 0.0063832183 -0.074305706
0000c0 eb 43 d8 bd 62 f3 99 bd f3 12 45 3d 1c 80 05 bd
       -0.10559829 -0.07517125 0.048113775 -0.032592878
0000d0 8f fc 46 3d d4 56 af bd 37 a2 ed 3d bc 45 1f bd
       0.048580702 -0.08561483 0.11603206 -0.038884863
0000e0 bd 4b 00 bd 19 7a 6f bc fb fa ef bd aa 9d 73 3d
       -0.03132223 -0.014616513 -0.117177926 0.059476532
0000f0 e5 4b 35 bc 88 2d 70 bd 16 ac 79 bd 6f 76 5f 3d
       -0.011065458 -0.058637172 -0.06095513 0.054556306
000100 99 f0 23 3d 73 43 d8 bd 3c 70 d1 3d e7 f1 6f 3d
       0.040024374 -0.1055974 0.10226485 0.058580305
000110 de 37 f4 3d bd 3a c0 3c 44 6e e4 bd 41 83 10 bb
       0.11924718 0.023465509 -0.11153844 -0.002205089
000120 b5 4d 97 bd a0 96 30 bc 46 a1 bf 3b ee 9c ab 3b
       -0.07387868 -0.010778099 0.0058480827 0.0052372133
000130 08 15 ae bd 60 89 e8 3d b5 20 f3 3d fa 4d a4 bd
       -0.08500105 0.11354327 0.11871473 -0.08022685
000140 b3 73 98 3c 78 76 fb 3c 3d 42 85 bc 54 76 10 bd
       0.018609857 0.030696139 -0.016266936 -0.035269096
000150 ee 6e e7 bd af f6 e6 bd a8 76 4b 3d 8c 5b db 3c
       -0.11300455 -0.1127752 0.049673706 0.026777051
000160 f3 c9 7f 3d b7 d4 b3 3d ca b5 03 3e 29 14 1f 3d
       0.062448453 0.087808065 0.12862316 0.038837586
000170 1c 29 78 3d 86 e2 bb 3d 21 d1 95 bd 05 6c 6d 3d
       0.06058608 0.09174065 -0.07315279 0.057964344
000180 8a 61 e2 3d f9 91 fe bd 83 a4 db bd 8d 78 01 3e
       0.1105376 -0.12430186 -0.107247375 0.12643643
000190 70 fe b4 3b fc 1b 35 3d b1 b4 af 3d 04 ed 9f bd
       0.0055234954 0.04421614 0.08579386 -0.07808879
0001a0 db d2 86 3d f0 22 e3 3c b0 5c 4a bd 98 7f e2 bc
       0.06583186 0.02772662 -0.0494048 -0.027648732
0001b0 db 3e a0 bd 59 b6 e5 bb 7a bf fb bc ee 8d d0 3d
       -0.07824489 -0.007010263 -0.030730952 0.10183321
0001c0 d1 b2 b2 3d 11 e4 9f bd c4 ca f6 bd b3 6b 8e bd
       0.08725513 -0.07807172 -0.12050393 -0.06954136
0001d0 de fb 89 3d 95 2b c1 3d c5 cf c0 3d 13 86 3a 3c
       0.06737493 0.09432141 0.09414629 0.011384505
0001e0 2b b6 a4 3d 36 74 45 3d 05 2d 66 3d 19 d1 17 bd
       0.08042558 0.04820653 0.056195278 -0.037064645
0001f0 61 b5 9a 3d c5 d6 3c 3c 15 62 e6 bd 84 51 9f bd
       0.075541265 0.011525814 -0.112491764 -0.0777922
000200 9f d0 99 bc a8 a8 d4 3d f3 1e 8c 3d 27 8d d3 3c
       -0.018776236 0.10383731 0.068418406 0.025824143
000210 52 79 ad bd 7d 08 48 3d 3f ed d6 3c 33 0c b3 bd
       -0.08470406 0.04883622 0.026236175 -0.08742561
000220 3a 92 4d 3d 13 e1 23 3d 78 22 db 3d eb 1c a7 3d
       0.05018828 0.04000957 0.10699934 0.081598125
000230 36 3a 93 bd 84 4b 56 3d 34 8c df bd d1 a3 7b bd
       -0.07188837 0.05231811 -0.109154135 -0.061435524
000240 69 e8 ec 3d a5 dd 7d 3d f9 4e d1 3d 99 4c da bc
       0.11567766 0.061978955 0.10220141 -0.026647853
000250 73 f3 c4 3d cd f8 89 3d 68 05 eb 3c 94 ae ae 3d
       0.09616747 0.06736908 0.028689101 0.08529392
000260 01 ce f1 3d c2 72 88 bd 3f 00 7f 3d 10 b7 4c bd
       0.1180687 -0.06662513 0.062256094 -0.04997927
000270 88 5f d7 3d cd 95 c3 bc 8c b3 d0 bb 43 a0 48 3d
       0.10516268 -0.023875142 -0.00636906 0.048980962
000280 6a 50 dd 3d b9 0d ab bc d2 05 fe 3d 18 8b 64 bb
       0.108063534 -0.020880567 0.12403454 -0.0034872945
000290 a7 4f df bd aa 2f 33 bd 1c 7c 47 3d 1e 64 b1 3c
       -0.10903864 -0.043746628 0.048702344 0.021654185
0002a0 36 15 84 bc 7d 56 8c bd 89 f9 a8 3d 81 25 35 bd
       -0.016123395 -0.06852434 0.0825072 -0.04422522
0002b0 e6 86 01 3e 48 b4 52 bd 31 5d db 3c 04 37 95 3d
       0.12649116 -0.05144146 0.026777836 0.07285884
0002c0 62 1c 86 3d 6a 0a ea bd 98 c2 24 3b da 61 f5 bc
       0.06548382 -0.114277676 0.00251404 -0.029953886
0002d0 d8 17 ce 3b 91 f8 26 3b 46 a7 03 3e 56 cd 49 bd
       0.0062894635 0.0025477747 0.12856779 -0.04926809
0002e0 5b c8 eb 3d e0 08 3c 3d 1a 52 65 bc a3 cf 3f 3d
       0.11512824 0.0459069 -0.013996625 0.046828877
0002f0 00 31 c2 bc f8 6e ca 3c f5 fb 82 bd f9 f5 a3 bc
       -0.023705006 0.024711117 -0.06395713 -0.02001475
000300 66 0d 6f bd 24 42 f6 3d 43 0a b8 3d b7 d8 ea 3d
       -0.058362387 0.12024334 0.08986332 0.11467116
000310 4c 10 6e 3c c5 17 7a bc 9d 3d 1a 3d 7c 76 9b bd
       0.014530253 -0.015264456 0.037656415 -0.075909585
000320 00 5a cc 3d 38 29 9f 3d 1d 1a 95 3d 0e 31 da bd
       0.09978104 0.07771534 0.07280371 -0.10653888
000330 5f 47 91 3d b0 75 93 3d 21 15 7b bc 02 4d f8 bd
       0.07093691 0.072001815 -0.015324862 -0.12124063
000340 b8 c7 fe bc 4f 05 35 bd 70 72 e5 bc 13 8a 5c 3d
       -0.031101093 -0.044194516 -0.02800867 0.053842615
000350 22 83 4c 3d 9f cc 01 be 4a ed a8 3d d2 9a 92 bd
       0.049929745 -0.12675713 0.08248384 -0.07158436
000360 bc 78 11 3c 0f 12 b5 3c 9e 3b fb bd 40 e5 54 bd
       0.008878883 0.022103338 -0.122672305 -0.051976442
000370 a5 d6 c8 bd c9 43 f2 3d 05 60 35 3d ac b6 fd 3c
       -0.09806565 0.11829335 0.044281024 0.030970894
000380 9a 1a d7 bd e0 24 96 bc 63 14 68 3d 1b 78 d6 3d
       -0.10503121 -0.01832813 0.056660067 0.10472127
000390 21 57 7b 3d cc 4e 06 3d 0d 78 b0 3d 50 6a dd bd
       0.06136239 0.03278999 0.08616648 -0.10811293
0003a0 00 1c 8b bd 8e b7 a3 bd 24 84 ea 3d bd 36 92 3d
       -0.0679245 -0.07993995 0.11450985 0.07139347
0003b0 3e de 38 3c c5 c5 49 3d 51 4b aa bd 6e 53 44 3d
       0.011283455 0.049260873 -0.08315147 0.047931127
0003c0 43 29 8a 3d dc 32 aa 3d 38 5f ca bc 35 c9 3a 3d
       0.06746151 0.08310482 -0.024703607 0.045602042
0003d0 31 36 fa 3d ed 3c c6 3d 60 b5 bc bd 1b 67 aa bd
       0.122173674 0.096795894 -0.09214282 -0.08320447
0003e0 ec 8f e9 3d 68 9b c9 bc 5e 29 ec bc 29 ee 9b 3c
       0.11404404 -0.024610236 -0.02882832 0.019034462
0003f0 55 93 de bc 3c 89 c8 bd c3 bc a2 3d aa d2 ba 3d
       -0.027169863 -0.097918004 0.0794616 0.09122212

fc2.weight f4 [256, 256]
000000 b6 34 05 3d 9c d5 c8 3c 12 41 62 bd da 88 65 3d
       0.032520972 0.02451592 -0.055237837 0.056038715
000010 78 1e 7a 3c 20 ae 36 bd 7e 90 46 3d 40 17 4e 3b
       0.015266053 -0.044599652 0.048477642 0.0031446964
000020 8a bc 5b 3d f4 82 11 3d a0 ab c9 bc 00 2c b1 3c
       0.0536466 0.035525277 -0.02461797 0.021627426
000030 36 bd 09 bd 88 7c 41 3c 62 d3 3f bd 60 c2 5e 3c
       -0.03362771 0.011809476 -0.04683245 0.013596147
000040 80 82 39 3d b2 7e 00 bd a0 a0 82 bc 00 f0 2e 3c
       0.04529047 -0.031370826 -0.015945733 0.010677338
000050 b6 b1 3f 3d e8 2b 14 3c e2 ab 5f 3d a0 ec 57 3c
       0.046800338 0.009043671 0.05460728 0.013178974
000060 a4 99 57 3d b8 6c 70 3d 88 69 9f 3c 40 98 19 bd
       0.052636757 0.058697432 0.0194595 -0.037498713
000070 b8 5e 30 3d e4 a1 19 3d f4 e1 04 bd 50 97 1f bc
       0.04305908 0.037507907 -0.03244205 -0.009740666
000080 f8 c0 4a bc e8 c4 5b bd dc 52 d3 bc 26 2f 51 bd
       -0.012375109 -0.05365458 -0.025796346 -0.051070355
000090 60 fa 76 3c 0a 6b 6a 3d d8 a9 ac 3c 98 33 7e 3d
       0.0150743425 0.057230987 0.021077082 0.062060922
0000a0 f8 9e 6f 3c 28 fe 2b bd 86 0c 20 3d c6 6d 55 bd
       0.014625303 -0.04199043 0.039074443 -0.05210664
0000b0 f0 0d eb 3c 00 0b 03 3c 44 6a 18 3d 1e 10 0d bd
       0.02869317 0.007998228 0.037210718 -0.0344392
0000c0 08 6d de 3c 58 f8 9a bc 32 53 07 bd 78 70 27 bc
       0.0271516 -0.018917248 -0.033038326 -0.010219686
0000d0 52 22 6e 3d e0 b1 9a 3c 3e 28 56 bd c6 a8 0d 3d
       0.0581382 0.018883646 -0.05228447 0.034584783
0000e0 20 53 c2 bb 2e 82 1e 3d 08 c6 f2 bc d6 35 62 3d
       -0.0059303194 0.038698368 -0.029635444 0.055227123
0000f0 38 86 03 3d 0c 45 82 3c c0 e3 42 3c dc 23 e2 3c
       0.032110423 0.015902065 0.01189512 0.02760499
000100 00 28 02 bb 00 ab b3 3b 2c 7a 4f 3d b0 87 51 3c
       -0.0019860268 0.0054830313 0.05065362 0.012788698
000110 66 bd 46 3d 76 f5 3d 3d be 13 4d bd ea c9 47 bd
       0.04852047 0.046376668 -0.050067656 -0.048776545
000120 00 74 db 3c 58 87 27 bd b0 86 30 bd 24 a1 d8 bc
       0.026788712 -0.04090056 -0.043097198 -0.026444025
000130 b0 86 d8 3b 70 fa 0f 3c be 7f 4e 3d 00 c8 3d bc
       0.006607853 0.008787736 0.050414793 -0.011583328
000140 08 4c b1 3c 0a 87 45 3d 06 d6 68 bd e0 c5 e9 3c
       0.0216427 0.048224486 -0.056844734 0.028536737
000150 e0 0a 79 bb 44 4d 1d 3d 18 4d 23 bc 94 92 f5 3c
       -0.0038000867 0.038403764 -0.009967111 0.02997712
000160 e6 62 0d bd 44 ee 10 3d 68 eb e5 bc 60 4c 0a 3c
       -0.034518145 0.035383478 -0.028066352 0.008441061
000170 cc 52 cf bc 70 5f bc 3c aa 0b 37 3d 20 85 06 bb
       -0.025308035 0.022994727 0.044688858 -0.0020526126
000180 a0 a3 d4 3b 90 73 6f 3d e0 81 f1 3c 90 47 15 bc
       0.006489232 0.05845982 0.029480875 -0.0091113
000190 06 0c 08 bd 00 d8 59 3a 50 d6 a6 3b 84 f0 a1 3c
       -0.03321459 0.00083100796 0.005091466 0.019768007
0001a0 ec e5 ba bc 2c 32 7f bd c0 16 10 bb 4e 62 39 bd
       -0.022814713 -0.062303707 -0.0021986216 -0.045259766
0001b0 f8 bf 61 3c e0 f0 9a 3b 00 b7 bf bc d0 d4 b1 3b
       0.013778679 0.0047284216 -0.02340269 0.0054269806
0001c0 c0 ca 3a bd 00 83 95 ba 56 51 4e bd ae d6 0c bd
       -0.045603514 -0.0011406839 -0.050370537 -0.034384422
0001d0 bc 88 65 3d 60 2d a1 3c 48 d9 38 bd d6 ad 6e 3d
       0.056038603 0.019674957 -0.04512909 0.05827125
0001e0 c2 71 26 bd f0 c6 01 bc 70 61 c6 bc d0 ff 6c 3d
       -0.04063583 -0.007920966 -0.024216384 0.05786115
0001f0 f2 76 36 3d 08 ed 68 bc be c3 4e bd 32 76 58 3d
       0.04454703 -0.014216669 -0.050479643 0.052847095
000200 30 84 fb 3b f4 92 a5 3c ac ec 1e bd 58 3d 13 bd
       0.00767567 0.020211674 -0.038799927 -0.035947174
000210 c8 a2 79 3c cc eb b5 bc 68 09 21 bc 18 87 99 bc
       0.015236564 -0.022207163 -0.009828903 -0.018741176
000220 cc 13 e4 3c ac b3 7c 3d 40 75 ee ba 9c 76 d6 bc
       0.027841471 0.061694786 -0.0018192902 -0.026179604
000230 30 31 0e 3c 18 87 97 bc 7a 41 37 3d 92 8a 1d bd
       0.008678719 -0.018497035 0.044740178 -0.03846223
000240 48 4f 5c 3c 3c 1c 54 3d e4 18 9f 3c 68 66 3e bc
       0.0134466365 0.05178474 0.019421048 -0.011621095
000250 46 48 3a bd 88 1f 00 3d 40 f6 f2 bc e0 c0 14 bc
       -0.04547908 0.03128007 -0.029658437 -0.009079188
000260 92 35 76 3d a8 94 60 bd c8 74 21 3c 00 79 c5 3a
       0.060109682 -0.05482927 0.009854503 0.0015065968
000270 3c ac d5 bc 40 1d 70 3b 80 04 22 bc ee 1e 67 3d
       -0.026083104 0.0036638528 -0.009888768 0.05642598
000280 fa 2b 34 3d 50 5d f4 bc d6 a4 4a 3d 6e da 7e 3d
       0.04398725 -0.029829651 0.049473606 0.06222003
000290 de 0f 1e bd 44 3d 01 bd 06 b2 24 bd c8 dc b0 3c
       -0.03858935 -0.031552568 -0.04020884 0.021589652
0002a0 d0 7b 6d 3c 08 be 17 bc 20 51 8d 3c 96 f5 13 3d
       0.014494851 -0.009261616 0.017250597 0.03612288
0002b0 c6 af 64 3d 9a 93 59 bd b6 40 0f 3d 58 29 11 3d
       0.055831693 -0.05311928 0.034973823 0.03543982
0002c0 00 83 18 3c 54 6d 59 3d 60 a3 27 bd 80 86 6f ba
       0.009308577 0.05308278 -0.04092729 -0.00091371685
0002d0 c8 9f 28 bc 54 0f f6 bc bc 89 18 bd 00 3f de bb
       -0.010292001 -0.030036606 -0.03724073 -0.0067824125
0002e0 a0 f3 18 3c d8 1d 7e 3c e0 f4 db bc f0 0f 1a bc
       0.0093354285 0.015510045 -0.026850164 -0.009403214
0002f0 30 9c ba bb 0c 1b 47 bd 70 94 59 bc 34 6e 3f bd
       -0.0056948885 -0.04860978 -0.013280019 -0.046735957
000300 40 e7 8e ba 10 47 70 bd 68 51 d4 bc c0 22 77 bd
       -0.0010902658 -0.05866152 -0.025917724 -0.060335875
000310 1e 62 45 3d b2 af 44 3d a0 41 70 bb ce 8a 7a 3d
       0.048189275 0.04801912 -0.003666021 0.06116753
000320 44 ef d5 bc 50 c9 f7 bb 60 a5 09 3b 32 69 1a 3d
       -0.026115067 -0.00756184 0.0021003112 0.03769798
000330 aa cf 60 3d c0 d7 2d bb 08 3e d5 3c 2e b5 6c 3d
       0.054885544 -0.0026526302 0.026030555 0.057789974
000340 94 93 9a bc c0 ec 60 bb 6a ff 43 3d 70 d8 88 3b
       -0.018869199 -0.0034320801 0.047851004 0.004176192
000350 0c ed c0 3c 4a 45 31 3d 58 9d 82 3c b8 d8 5f 3c
       0.023550533 0.04327897 0.015944168 0.01366251
000360 3c 13 53 3d cc ca 40 bd 58 fc e8 bc b0 73 78 bc
       0.051532015 -0.047068402 -0.02844064 -0.015164301
000370 b4 74 ce 3c 18 2f 84 bc 90 8a 7d 3d e0 17 20 3c
       0.025202133 -0.016135737 0.06189972 0.009771317
000380 4c 43 3a bd 34 36 15 bd c4 ae d4 3c 4c 63 87 bc
       -0.045474336 -0.036428645 0.025962241 -0.01652684
000390 98 05 20 bd e8 fa 4b 3c dc f1 7e bd 28 98 21 3c
       -0.039067835 0.012449957 -0.062242374 0.009862937
0003a0 80 26 df 3c 74 d7 07 bd 4c d0 54 3d 96 f0 42 3d
       0.027240038 -0.033164456 0.05195646 0.047592722
0003b0 a0 cc 29 bc 00 a4 0a bd c8 04 82 bc 60 e4 10 3b
       -0.010363728 -0.03384781 -0.01587142 0.0022108778
0003c0 68 2c 2a 3c 90 f0 e1 bb 94 79 85 3c 32 9a 47 bd
       0.010386564 -0.0068951324 0.016293325 -0.048731036
0003d0 30 20 e6 3c d8 cc 18 bc d4 29 98 bc 9c 26 9f 3c
       0.02809152 -0.009326182 -0.018574633 0.01942759
0003e0 30 dd dc bc d8 d7 29 3c e0 12 60 bc 9e 20 1a bd
       -0.02696094 0.010366403 -0.013676375 -0.037628762
0003f0 a0 ae 4a bb e0 64 a1 bb 00 82 2f 3c 46 b3 76 3d
       -0.0030926839 -0.0049253553 0.010712147 0.060229562

fc2.bias f4 [256]
000000 f6 cc 56 3d 9e d6 18 3d ec ad 51 bd ce e7 71 3d
       0.05244156 0.03731405 -0.051191255 0.059058957
000010 8c bd a4 3c 1a 27 44 bd 7c 15 f5 3c 14 2a ea 3c
       0.020109914 -0.047888853 0.029917471 0.028584518
000020 a0 e9 6f bb 34 e7 fb 3c 5a ea 58 bd 9a c0 02 3d
       -0.0036607757 0.030749895 -0.05295787 0.03192196
000030 64 ca c2 3c d0 b5 b2 bc ac db 22 3d b8 8f 46 3c
       0.023778148 -0.02181521 0.039760277 0.012119226
000040 b0 b5 6b bc 16 5f 28 bd 4c 40 ed bc b2 53 05 3d
       -0.014386579 -0.041106306 -0.028961323 0.03255052
000050 94 c3 b1 bc fc f9 65 bd c0 18 52 3c 82 64 1e 3d
       -0.021699704 -0.056146607 0.012823284 0.03867007
000060 e0 2e 8d 3b 2e dc 10 3d b0 24 e5 bb b0 89 46 bd
       0.0043085665 0.03536623 -0.006992899 -0.048471153
000070 d0 8f 33 bc b0 e3 42 bd 40 b6 21 3d e0 79 40 3d
       -0.010959581 -0.04758042 0.039480448 0.04699123
000080 12 d8 02 3d 58 2c c3 bc 2c ea 19 bd 84 d8 54 3d
       0.031944342 -0.023824856 -0.03757684 0.051964298
000090 22 1f 75 3d 92 9b 59 3d d6 b0 09 3d 6a e5 04 bd
       0.059844144 0.05312688 0.03361591 -0.03244535
0000a0 30 13 64 bc e0 6d 51 3b 20 a9 53 bb 50 e2 88 bc
       -0.01392059 0.003195636 -0.0032296851 -0.016709477
0000b0 80 8e 6c 3a 00 0b a4 3b 0e 41 51 bd 50 60 b9 bc
       0.00090239197 0.005006194 -0.05108743 -0.022628933
0000c0 f4 a7 98 3c ea 55 2a bd 58 7f 00 bd 5c c1 bf bc
       0.018634774 -0.04158584 -0.031371444 -0.02340763
0000d0 e0 e8 9a 3b 76 a5 16 3d b6 9c 7d 3d c0 81 b1 3c
       0.004727468 0.03677889 0.06191703 0.021668315
0000e0 a4 98 48 3d b0 70 ae 3b 98 e6 62 bc 36 7f 2e bd
       0.048973694 0.005323492 -0.013848923 -0.042601787
0000f0 d8 85 7f 3c 40 ad bc bc a0 97 3d 3c 8e 0a 51 3d
       0.015595876 -0.02303183 0.011571795 0.051035456
000100 10 fe fb 3b 70 72 98 bc e8 95 74 3d cc ef 23 bd
       0.0076901987 -0.018609256 0.059713274 -0.04002361
000110 5c 0c da 3c f0 b8 88 3c 00 52 8c 3c 7e fa 13 3d
       0.026617222 0.016689748 0.017128944 0.03612756
000120 80 c8 10 ba 5a f4 12 bd 3a a2 52 bd 6a 7e 19 3d
       -0.0005523041 -0.035877563 -0.051424243 0.037474073
000130 2c fe ac bc 7c 30 33 3d d0 21 70 bd e8 0e 84 bc
       -0.021117292 0.04374741 -0.058625996 -0.01612039
000140 f0 82 b5 bc b8 8d 64 3c 9e ee 2c 3d f8 c0 53 3d
       -0.022157162 0.013949804 0.04221975 0.0516977
000150 60 47 e9 bb fa 6d 54 3d 92 09 15 3d 84 93 38 3d
       -0.0071191043 0.051862694 0.03638608 0.045062557
000160 2c 7b ee bc 90 6b 4f 3c 04 e1 5b 3d de de 14 bd
       -0.029111467 0.012659922 0.05368139 -0.036345355
000170 8c 3d f8 bc b4 14 b2 3c 8c e4 0e 3d d8 ab 67 3c
       -0.030302785 0.021738388 0.034885928 0.014140092
000180 f8 64 3e bd 7e 10 41 bd 5e 9e 43 3d 78 6d 8d bc
       -0.04648301 -0.04713487 0.047758453 -0.017264113
000190 e4 64 a9 bc 96 5c 60 3d bc 7b 75 bd 60 3f 94 3c
       -0.020677991 0.054775797 -0.059932455 0.018096626
0001a0 a8 6e 16 3c 08 11 14 bd a4 cd 80 bc 5a 0b 0f 3d
       0.009181656 -0.036149055 -0.015723057 0.034922935
0001b0 5c 5d dc 3c a4 10 2f 3d 1c b0 12 bd 00 c1 a2 ba
       0.026899986 0.04274048 -0.035812482 -0.0012417138
0001c0 d0 9a b2 bc fa 83 51 3d 2c 42 c7 bc 32 3e 24 bd
       -0.021802336 0.051151253 -0.024323545 -0.040098377
0001d0 14 24 3c 3d 7e 1f 4b 3d 48 c1 0a 3d 40 6c 84 ba
       0.045932844 0.04959058 0.033875734 -0.0010103062
0001e0 00 74 65 3c 90 70 2b 3d e0 2b 8a bb e8 4e 86 bc
       0.014004707 0.041855395 -0.004216656 -0.016395047
0001f0 e0 cf 5c bb c0 55 8c 3b 96 9a 13 3d bc 74 d6 bc
       -0.003369324 0.004282683 0.036036097 -0.02617871
000200 6c 23 15 bd 30 b8 bc 3c 26 ed 5e 3d 78 20 f2 3c
       -0.036410734 0.023037046 0.05442538 0.029556498
000210 54 96 06 bd 90 01 16 bc dc 0f 00 3d a4 a2 cb 3c
       -0.032858208 -0.009155646 0.031265125 0.024857827
000220 40 d3 95 3a 5c 09 f5 bc 3c 8b 23 bd 04 9a fa 3c
       0.0011430755 -0.02991169 -0.039927706 0.030591018
000230 f0 88 31 bd 42 e1 6f bd 90 9f d9 bb 00 23 b5 3b
       -0.043343484 -0.058564432 -0.006641336 0.005527854
000240 be 76 2e 3d 04 bf bc bc 68 94 50 3d a8 7e 16 bc
       0.04259371 -0.023040302 0.05092278 -0.009185471
000250 b8 71 ad 3c 70 9d 72 3d 9c cf b6 bc f0 0c 5a 3c
       0.02117239 0.059232175 -0.022315793 0.013308749
000260 1c eb 30 bd 44 e4 e4 bc c6 2f 25 bd a4 28 32 bd
       -0.043192968 -0.027940877 -0.040328763 -0.04349579
000270 40 a4 4d bb c0 2c 97 3c f0 bd 09 3d d8 02 34 3d
       -0.0031378418 0.018453956 0.033628404 0.043948025
000280 60 93 9f bc ca cd 69 3d d8 ec 4c bc 18 23 71 bc
       -0.019479454 0.05708102 -0.01250764 -0.01471784
000290 28 2b 1f bd 78 f5 74 3d fc ad 1c 3d 30 a3 bb 3c
       -0.038859516 0.05980441 0.038251862 0.022904962
0002a0 ba 6e 28 bd b4 20 d6 bc 7c 34 25 bd 00 39 83 bb
       -0.041121222 -0.026138641 -0.040333256 -0.0040045977
0002b0 ae 3a 56 bd b8 00 e7 bc 18 27 30 bc f0 73 71 3d
       -0.052302055 -0.028198585 -0.010751508 0.058948457
0002c0 64 28 ce bc 3c 14 5d 3d 80 3e 90 3b 50 37 bb 3c
       -0.025165744 0.053974375 0.004401982 0.022853523
0002d0 04 87 17 bd fe 91 0f bd 00 46 75 3a c0 57 35 bc
       -0.036993995 -0.03505134 0.0009356439 -0.0110682845
0002e0 5c 46 36 3d 90 3d 2c bc b8 89 9d 3c f4 bf 9e 3c
       0.044500694 -0.0105127245 0.019230708 0.01937864
0002f0 70 be f4 3b 72 72 63 bd 00 02 2c 39 10 79 75 bd
       0.007468991 -0.055529065 0.00016403943 -0.059929907
000300 46 49 6a bd b8 c1 66 3d dc ff eb 3c 94 b6 9e 3c
       -0.057198785 0.05633709 0.028808527 0.01937417
000310 04 ea a6 bc 90 d6 7c 3c f8 52 ac bc f0 53 40 bc
       -0.02037526 0.015432015 -0.021035656 -0.011738762
000320 00 91 13 bc c0 31 41 bb ec d3 5b bd e0 7d 4a 3c
       -0.009006739 -0.0029479116 -0.0536689 0.0123591125
000330 30 ee 5b 3d a0 3f 14 bc d4 2c a6 3c 16 4c 34 bd
       0.05369395 -0.0090483725 0.020285048 -0.044017874
000340 1a dd 0e 3d 64 8f 39 bd 20 81 1c bc ce 62 49 bd
       0.034878828 -0.045302764 -0.00955227 -0.049166493
000350 e6 ca 6c bd b0 90 81 bc 4e 96 19 bd 10 d3 e5 bb
       -0.057810687 -0.015816063 -0.037496857 -0.007013686
000360 4c 4f 3f 3d 08 1b 7a bc 1e 00 34 3d 54 40 d3 3c
       0.046706483 -0.015265234 0.043945424 0.02578751
000370 3c f1 4d bd e6 c8 73 3d a0 2c 71 3b e2 3b 6c 3d
       -0.050278887 0.059517764 0.003680028 0.057674296
000380 a0 72 d3 bc 60 3c 58 3d e8 15 3b 3c 00 48 1b 3b
       -0.025811493 0.052791953 0.011418797 0.0023694038
000390 10 7b a9 3b e4 99 f1 bc fc 87 a1 bc 00 d6 aa 3a
       0.005172141 -0.029492326 -0.019718163 0.0013033748
0003a0 18 f1 4b 3d 7a 59 78 bd 4c 76 b7 3c f8 84 68 bc
       0.04979047 -0.060632206 0.022395276 -0.0141918585
0003b0 62 cd 71 bd 00 78 5d bd f0 3a 34 3d f0 08 20 bd
       -0.05903376 -0.05406952 0.04400152 -0.039071023
0003c0 fc 64 40 bd 50 87 f0 bc c8 7a d1 bc c0 d4 69 bc
       -0.046971306 -0.029361397 -0.025571242 -0.014271915
0003d0 20 3d 6c bc 54 f7 81 bc 36 4a 52 bd 60 53 58 bd
       -0.01441887 -0.015865006 -0.051340304 -0.052813888
0003e0 36 e9 7b 3d e0 ed 82 3b 9c a8 3d 3d 0c 5e 06 bd
       0.061501704 0.003995642 0.046303377 -0.032804534
0003f0 d6 aa 23 bd e0 c2 74 3b d8 65 67 bc a0 9f 3b 3d
       -0.039957844 0.00373476 -0.014123403 0.045806527

fc3.weight f4 [256, 256]
000000 20 60 44 3c 50 47 c5 bc 98 49 87 bc 24 5f 72 bd
       0.011985809 -0.024081856 -0.016514584 -0.059172764
000010 ca b5 21 3d 56 32 2d bd fc 03 06 bd 1e 7e 6d bd
       0.03948001 -0.042284332 -0.032718644 -0.057981603
000020 30 bb eb 3b 0c 91 b5 3c f4 1b e1 bc 38 a4 2b bc
       0.0071939453 0.02216389 -0.02747915 -0.0104761645
000030 36 73 51 3d 20 e2 6d bd e2 ae 4c bd 26 f1 69 bd
       0.051135264 -0.058076978 -0.04997147 -0.057114743
000040 72 19 4e bd 94 bd c0 bc 00 99 62 3a 48 e2 19 bd
       -0.050317235 -0.023527898 0.00086440146 -0.037569314
000050 b4 22 1e bd 70 57 7c 3c 74 8d 6c bd 5c 2d b3 3c
       -0.038607314 0.015401706 -0.057752088 0.021872215
000060 14 53 73 3d d6 cd 37 bd 58 31 80 bc ac 1b a7 bc
       0.0594054 -0.044874035 -0.015648529 -0.020398937
000070 48 34 b6 bc a8 03 07 bd 38 3c 04 3c 90 2c e8 3c
       -0.022241727 -0.03296247 0.008070998 0.028341562
000080 36 d5 43 3d 60 8f e6 bc aa 8a 0e 3d 68 28 8e 3c
       0.047810756 -0.028144538 0.03480021 0.017353252
000090 be f0 03 bd ac 51 6a bd 0c dc 72 bd 8c 91 5e bd
       -0.03221201 -0.057206795 -0.059291884 -0.054338023
0000a0 ce f4 0a 3d 60 ad 4a bb 62 bc 34 3d 48 72 19 3d
       0.03392487 -0.0030926093 0.04412497 0.037462503
0000b0 b6 40 5c bd 80 46 de 3c 8c 69 e0 bc 00 eb 55 3a
       -0.05377265 0.027133226 -0.027394079 0.0008160323
0000c0 d6 fc 4f 3d 96 a7 5d bd a0 cc f8 3c bc f4 8e bc
       0.050778233 -0.0541149 0.03037101 -0.017450683
0000d0 18 2e b0 3c f4 df c9 3c b0 42 c5 3b ac 64 df 3c
       0.021506354 0.024642922 0.0060199127 0.027269684
0000e0 68 83 57 bd 72 cd 25 3d 46 94 74 bd e0 26 c4 bc
       -0.052615553 0.04047913 -0.059711717 -0.023944318
0000f0 18 3e 14 bd 28 43 af 3c 9c c5 bd bc 18 9d 3c bc
       -0.03619203 0.021394327 -0.023165517 -0.011512063
000100 ee 49 73 bd 28 8a b1 3c 00 d4 26 3c f0 c5 61 bd
       -0.059396677 0.021672323 0.010182381 -0.05512041
000110 d2 e8 59 3d a8 70 71 bc 28 28 13 bd 9a bd 40 3d
       0.05320055 -0.014736332 -0.035926968 0.04705582
000120 48 d0 86 bc d8 69 58 3d 56 c0 5d 3d 54 58 80 bc
       -0.016456738 0.052835315 0.054138504 -0.015667118
000130 c8 9b 39 3d 48 d0 2b 3d 30 71 21 bc fe 59 3c 3d
       0.04531458 0.04194668 -0.009853646 0.04598426
000140 00 ec 22 b9 52 aa 1d bd d6 e0 32 3d 70 2f 6f 3c
       -0.00015537441 -0.03849251 0.04367145 0.014598712
000150 da 35 59 bd a0 15 ad bb b4 1f b1 3c b0 2d ce 3c
       -0.053029872 -0.005282119 0.021621563 0.02516827
000160 28 7c 8b 3c 98 60 7a bc 80 99 32 3a 24 6b 0d bd
       0.017026976 -0.015281819 0.00068130344 -0.034526005
000170 34 9e 90 bc c4 66 14 3d f4 dc ad bc d6 00 07 bd
       -0.017653562 0.036230817 -0.021223523 -0.03295978
000180 a0 39 73 bd 3c a6 84 bc b0 1c 78 bd 74 b7 25 bd
       -0.059381127 -0.016192548 -0.060574234 -0.040458158
000190 56 66 50 3d 88 90 3e bc 76 8a 46 3d 80 d1 75 3c
       0.050878845 -0.011631139 0.04847189 0.015003562
0001a0 b4 93 ba 3c 9a a1 3f 3d 8c a1 86 3c 10 00 7f bd
       0.022775508 0.046784975 0.016434453 -0.06225592
0001b0 00 12 ce b9 60 52 72 bb c0 55 ef 3a f0 c5 b4 bc
       -0.00039304793 -0.003697537 0.0018259808 -0.02206704
0001c0 34 b0 e8 bc 50 88 2f 3c 38 92 cb 3c 66 40 36 bd
       -0.028404333 0.010713652 0.024849996 -0.04449501
0001d0 c0 88 2d 3c d2 01 59 3d 74 58 f9 3c e4 51 22 3d
       0.010591686 0.05298025 0.030437686 0.03962888
0001e0 a4 51 11 3d e0 e0 b1 bb 7c 44 a0 bc 58 a7 ef 3c
       0.03547825 -0.0054284185 -0.019563906 0.0292546
0001f0 80 a6 1c 3b 98 04 6b 3c 14 a1 ec 3c 70 1e 29 3d
       0.0023902953 0.014344357 0.028885402 0.041288793
000200 d0 f9 1e bd 70 f6 1a bd 24 49 a6 3c 40 d8 8d 3a
       -0.03881246 -0.037832677 0.020298548 0.0010821894
000210 98 02 f4 3c 4a 35 0f 3d 56 17 43 3d 68 c9 73 bc
       0.029786393 0.03496293 0.047629677 -0.014879562
000220 80 6d 15 3a 52 c6 2a 3d c0 f9 79 3b c2 70 33 3d
       0.00057002157 0.04169304 0.0038143247 0.043808706
000230 64 c2 4c bd 92 36 45 3d 64 58 36 3d 2a 8c 47 3d
       -0.049990073 0.048147745 0.04451789 0.048717655
000240 60 55 2a bc bc a2 5d 3d b4 19 9d bc 64 cf 9d bc
       -0.010396332 0.054110274 -0.019177295 -0.01926393
000250 78 05 2e bd e6 62 38 bd 90 c0 ea 3c 74 b3 a2 bc
       -0.042485684 -0.045016192 0.028656274 -0.01986096
000260 8c 27 1e bd 98 3d 59 bd b6 af 05 bd 58 8b 70 bc
       -0.038611934 -0.053037256 -0.032638274 -0.01468166
000270 70 0f e9 bc 72 3c 01 3d 30 db 08 3c 6c 8d 5a bd
       -0.028449744 0.031551786 0.00835304 -0.053357527
000280 50 98 be bc 94 fd fe bc f8 4b 77 bd 88 c5 5c bd
       -0.023265988 -0.031126775 -0.060375184 -0.053899318
000290 b8 f4 7e 3d 64 1f ad 3c 18 5c 80 bc 60 de 8e 3b
       0.0622451 0.021133132 -0.015668914 0.0043600053
0002a0 c2 ba 2d 3d e2 bc 45 bd ac 03 97 bc 88 1d 3f bd
       0.042414434 -0.048275836 -0.018434368 -0.046659023
0002b0 b0 7e eb 3b 80 8e 67 bd f8 61 7c bd 74 dd 5e 3d
       0.007186733 -0.056532383 -0.061616868 0.054410413
0002c0 bc 4c 05 3d 90 22 e3 bc 6c 80 99 3c 00 45 ec ba
       0.032543883 -0.027726442 0.018737994 -0.0018025935
0002d0 e0 44 a3 bc 50 c8 c6 bb 60 9e ec 3b 58 d7 65 bc
       -0.019930303 -0.0060663596 0.007221028 -0.014028393
0002e0 66 d9 03 3d c0 8f b6 ba 2c ef 26 bd 6e 7a 04 3d
       0.03218975 -0.0013928339 -0.040755436 0.03234332
0002f0 40 e5 96 ba 1c 39 a2 3c 00 b3 23 3a 56 84 6a 3d
       -0.0011512414 0.019802622 0.00062446296 0.05725511
000300 8e 21 49 3d ae ac 36 bd 18 50 c6 bc 4c b3 67 3d
       0.049104266 -0.044598274 -0.024208114 0.056567475
000310 64 8e 16 3d 78 21 eb bc 76 a7 27 3d b4 3f f5 3c
       0.036756888 -0.028702483 0.040931188 0.029937603
000320 7e 11 72 bd b0 19 83 3b a0 1d 1d 3d c0 c4 85 bc
       -0.059098713 0.004000865 0.03835833 -0.01632917
000330 ac d2 86 3c c0 dc c8 ba e0 23 9c 3c 64 c0 f2 bc
       0.016457878 -0.0015324578 0.019060075 -0.029632755
000340 c0 47 53 bc 90 ea 06 bc 30 43 d0 3c 60 d7 18 3b
       -0.0128955245 -0.008234635 0.025422662 0.0023321733
000350 a8 81 f8 bc 3c 8d 30 3d 18 8d fc 3c 40 af fe ba
       -0.030335262 0.04310344 0.030828997 -0.0019430891
000360 30 96 e9 bc 2a da 71 3d ac 77 27 bd 30 83 a0 3b
       -0.028513998 0.059045948 -0.040885612 0.0048984513
000370 aa 84 53 3d 28 96 29 bd 8a ff 15 bd 8c 26 bf bc
       0.05164019 -0.041402966 -0.036620654 -0.02333381
000380 d8 8b 9b bc 1a 8e 1b 3d 5c 42 7a bd b8 a1 ad bc
       -0.018987581 0.037977315 -0.06109844 -0.021195278
000390 e8 ef 74 3d 50 b3 9a bb e0 eb b9 3c 40 de 29 bc
       0.059799105 -0.0047210827 0.022695482 -0.01036793
0003a0 f2 3a 0f bd 9c 8e 67 3d 44 6d 49 bd e8 4c 7e bd
       -0.034968324 0.056532487 -0.04917647 -0.062085062
0003b0 34 56 e7 bc 1c 4e 3e bd bc b4 98 bc 88 c9 55 3d
       -0.028239347 -0.04646121 -0.018640868 0.05219415
0003c0 90 2c 33 3d d0 bc e6 bb 66 64 27 3d 8e 05 0f bd
       0.04374367 -0.007041551 0.04086723 -0.034917407
0003d0 66 a9 45 bd 1c 82 2d bd a8 f3 d5 3c c0 33 26 3d
       -0.048257254 -0.04236041 0.02611716 0.040576696
0003e0 c4 25 6b bd 1c 7f de 3c ac 2d 29 bd 0a 03 23 bd
       -0.057409063 0.02716022 -0.04130332 -0.03979782
0003f0 00 36 7e 3d a0 0b 1b bc 54 25 2e bd b8 9f 47 3d
       0.062063217 -0.009463221 -0.042516068 0.048736304

fc3.bias f4 [256]
000000 06 7e 52 3d f0 0f 55 bc 0a 2d 3e 3d 46 9a 17 bd
       0.051389717 -0.013004288 0.04642967 -0.03701236
000010 26 1b 27 3d a8 ba 44 3d 70 55 78 bd 38 d0 36 bc
       0.040797375 0.04802957 -0.060628355 -0.011158042
000020 be 18 2b bd c0 33 d1 3c e4 85 39 3d 54 9e a9 bc
       -0.041771643 0.025537372 0.045293704 -0.02070538
000030 28 9a 3e bc a8 b0 00 bd b8 d9 52 bc 48 82 80 3c
       -0.011633433 -0.031418473 -0.012869291 0.015687123
000040 72 30 6e bd ba 7a 05 bd 56 8c 1f 3d 54 54 54 bd
       -0.05815167 -0.032587744 0.038952194 -0.051838234
000050 c0 27 7b bb 92 c5 0d bd 64 6e 82 bc a0 57 d5 3c
       -0.0038323253 -0.034612246 -0.015921779 0.02604276
000060 40 97 20 bb 4e a7 22 bd f2 ee 13 bd 20 f8 12 3d
       -0.0024504215 -0.039710335 -0.036116548 0.03588116
000070 c6 0b 7a 3d 90 e9 79 bd 08 dd 64 bc 80 53 ff ba
       0.061046384 -0.06101376 -0.013968714 -0.0019479841
000080 d4 0b 83 bc 68 5a 05 3c a8 b1 a3 bc e6 ae 32 bd
       -0.015996851 0.00813923 -0.019982174 -0.043623827
000090 c0 f0 84 3a 7e b0 5c 3d c0 ce 84 3a 88 74 6d bd
       0.001014255 0.053879254 0.0010132417 -0.05797246
0000a0 c0 ab c0 bc a6 f9 77 3d 6e c7 0e bd 02 d0 47 bd
       -0.023519397 0.060540818 -0.03485816 -0.048782356
0000b0 7e e9 53 3d 90 c9 4f bc 20 ec 81 bc 50 e5 50 3d
       0.051736347 -0.012682334 -0.015859663 0.05099994
0000c0 74 08 98 bc 44 d1 34 bd cc 17 f1 bc 72 9b 55 bd
       -0.018558718 -0.044144884 -0.029430293 -0.052150197
0000d0 c8 55 63 bc 60 58 16 3b a0 72 c7 bb 34 a6 d1 3c
       -0.013875432 0.002294086 -0.0060866624 0.025591947
0000e0 78 ec 4e bc e8 df 33 bd ae 5c 43 bd 88 45 04 3d
       -0.012629621 -0.043914706 -0.047695808 0.032292873
0000f0 16 28 0e bd fc 00 9e bc 70 e7 85 bc cc 71 d0 bc
       -0.034706198 -0.019287579 -0.01634571 -0.025444888
000100 4c b8 94 bc c4 d1 56 bd a4 7e 51 3d 00 fe f5 3b
       -0.018154286 -0.05244614 0.051146165 0.007507086
000110 96 3c 68 bd c0 14 c5 3c b0 fd 87 bb da 8c 03 3d
       -0.056698404 0.024057746 -0.004150115 0.03211675
000120 08 41 70 3c 9c e0 c2 3c 30 cd b6 bb 2c 04 99 bc
       0.014663942 0.023788743 -0.0055786595 -0.018678747
000130 84 45 24 3d 0a da 65 3d c0 a6 68 bd f6 2b 27 3d
       0.040105358 0.05611614 -0.05679965 0.04081341
000140 48 de 42 bc 20 60 78 bd d8 b8 26 3d 0c e9 5f bd
       -0.011893816 -0.060638547 0.040703624 -0.05466561
000150 96 46 2f bd b8 6a 98 bc f8 10 3d bd 9c 3b 8a 3c
       -0.042791925 -0.018605575 -0.04615876 0.016874127
000160 0e 00 04 3d 18 da 50 bd 68 dd b8 3c 1e f1 6e 3d
       0.032226615 -0.05098924 0.022566512 0.058335416
000170 e4 17 90 3c f8 09 09 3c c4 90 b8 3c c8 6d 22 3c
       0.017589517 0.008364193 0.022529967 0.009913869
000180 e0 0d b5 bb d0 f4 77 bc 14 36 b3 bc 58 29 8d 3c
       -0.0055253357 -0.015134051 -0.021876372 0.017231628
000190 a2 bb 33 3d 94 d4 9d 3c 34 b0 24 bd 48 ff e5 3c
       0.043880112 0.019266404 -0.040207103 0.02807583
0001a0 2e ab 2c bd 4a 66 01 3d 20 e8 fe 3c 0c 6a 85 bc
       -0.042155437 0.03159169 0.031116545 -0.016285919
0001b0 9c 37 34 3d b8 81 05 bd b0 94 89 bc c0 68 45 3b
       0.043998346 -0.032594413 -0.016794533 0.003012225
0001c0 00 e4 1c bd 64 9e ec 3c 70 dc de 3c 30 5e 2e 3d
       -0.038303375 0.02888412 0.027204722 0.042570293
0001d0 4e 67 5d 3d 04 f8 2b bd c0 61 42 bd 20 e7 6d bb
       0.054053597 -0.041984573 -0.047456503 -0.0036301091
0001e0 72 36 6e 3d 28 df 6e bd 10 2c fb 3c ec a1 e1 bc
       0.05815739 -0.058318287 0.03066066 -0.02754303
0001f0 ba f4 71 bd 4c 84 98 3c 50 ce 05 bc f4 a2 3b bd
       -0.05907128 0.018617772 -0.0081668645 -0.0458097
000200 7c cc 8d 3c e8 32 85 bc e8 3f d2 3c 50 e2 c9 3b
       0.01730942 -0.016259626 0.025665238 0.0061610118
000210 5c 94 46 3d 94 ae c0 bc 80 d4 32 bb c4 de 0e bd
       0.04848133 -0.023520745 -0.0027287304 -0.034880415
000220 18 65 36 bd 60 30 43 bc 54 20 32 bd e2 e6 5d 3d
       -0.044530004 -0.011913389 -0.04348786 0.054175265
000230 38 37 3f 3d fe 64 67 3d e4 65 6f bd 8e 5b 70 3d
       0.04668352 0.056492798 -0.05844678 0.058681063
000240 50 a5 a1 bc 40 82 39 bd 2a fc 2a bd ca 31 29 bd
       -0.019732147 -0.04529023 -0.04174439 -0.04130725
000250 b0 63 bb 3b d2 3a 0d bd ce c6 3d bd 80 b5 c3 ba
       0.005718671 -0.034479924 -0.046332173 -0.001493141
000260 c0 4a 3f 3b 7e 48 63 bd 8a 76 14 3d bc 5c 5f 3d
       0.0029188842 -0.055489056 0.03624586 0.054531798
000270 b4 07 4d bd 80 b0 31 3b 0e 54 5c bd 48 f1 2d 3d
       -0.050056174 0.002711326 -0.0537911 0.04246643
000280 90 0d 9f 3b a8 b4 e3 3c 90 42 55 3d 38 27 60 3c
       0.0048539117 0.027796105 0.052065432 0.0136812255
000290 cc 74 e9 3c 74 a7 ed bc e8 51 28 bd a8 2e 61 3c
       0.028498076 -0.029010512 -0.041093737 0.013744034
0002a0 e0 f6 7f bc a0 03 74 3c b8 d4 3a bc 28 bc 0c bc
       -0.015622824 0.014893442 -0.011403255 -0.008589782
0002b0 a6 c9 31 bd 4e 93 70 3d 88 a2 03 bc 3a f6 3b bd
       -0.043405198 0.05873423 -0.008034356 -0.045889117
0002c0 88 b3 54 3c de 7f 7f bd 6c 93 f3 3c 2a 43 58 3d
       0.012982257 -0.062377803 0.029733382 0.052798428
0002d0 9a ee 31 bd 88 94 2e 3c 34 5a d6 3c a4 b7 7e bd
       -0.04344044 0.01065553 0.02616606 -0.062186852
0002e0 2e 87 19 bd cc 1b e0 bc e0 e0 6c 3c 18 33 e0 3c
       -0.037482433 -0.027357005 0.014457911 0.027368113
0002f0 00 cd 4c 3a 40 8e 8c 3c 40 47 5b bb 20 91 d3 bb
       0.000781253 0.017157674 -0.0033459216 -0.006456509
000300 b8 5a 4f bc d8 c9 1b 3c 34 68 a3 3c ec 73 00 3d
       -0.012655906 0.0095085725 0.019947149 0.03136055
000310 5e 8d 5b bd 88 23 79 bd 9c 5f fc bc 60 df af 3c
       -0.053601615 -0.0608249 -0.030807309 0.021468818
000320 8c 93 94 3c 3c a0 d1 3c a4 40 48 3d d0 99 da 3c
       0.018136762 0.025589101 0.04888977 0.026684672
000330 90 ff 09 bd 0c eb d8 3c 18 dd f3 3c 4a 40 02 3d
       -0.03369099 0.026479267 0.029768512 0.031799592
000340 42 45 0c 3d 90 8f fd 3b 3c 78 7d 3d 30 8e 11 3d
       0.034245737 0.0077380612 0.061882243 0.03553599
000350 38 89 f9 3c a0 f1 43 3d f0 fd 7f 3c 0c 68 ee bc
       0.030460939 0.047837853 0.015624508 -0.029102348
000360 ca 48 47 3d 98 b6 9d bc 7a b2 27 bd e0 0b 75 3b
       0.0486534 -0.019252107 -0.040941693 0.0037391111
000370 90 59 10 bd 70 60 e0 3c ce 35 2b bd 90 90 de 3c
       -0.035241663 0.027389735 -0.04179936 0.027168542
000380 98 03 bd bc c8 37 ce 3c d8 78 b0 3c bc 46 6f 3d
       -0.023073003 0.025173083 0.021541998 0.058417067
000390 ac 20 03 3d 24 57 02 3d 40 03 dd 3a 10 e0 01 bc
       0.03201358 0.031821385 0.001686193 -0.007926956
0003a0 4e 86 4b bd 70 44 84 3b f6 ad 08 bd 28 a9 6c 3c
       -0.04968863 0.0040364787 -0.033369027 0.014444627
0003b0 2c 1b fd 3c d0 f9 12 3c b0 a4 0c bc f0 61 4b 3c
       0.030896746 0.008970693 -0.008584186 0.012413487
0003c0 b6 fc 00 bd ce 85 3e bd f0 64 69 3c a6 e6 67 bd
       -0.031491004 -0.046514325 0.014245257 -0.056616448
0003d0 12 96 7b 3d f0 3a 25 bd f4 f9 9b bc 40 93 9d 3c
       0.061422415 -0.04033941 -0.019040085 0.019235253
0003e0 f2 da 6e bd 3c 35 1c bd 60 38 2a 3d be 89 47 bd
       -0.05831427 -0.038136706 0.04155767 -0.048715346
0003f0 10 ed f9 3b 48 61 16 3d 08 9d 56 3c 18 7d 60 3d
       0.007627137 0.03671387 0.013098963 0.0548068

output.weight f4 [4, 256]
000000 f4 16 cf 3c 52 1a 41 3d c0 41 b1 bc 44 88 c3 bc
       0.0252795 0.04714424 -0.021637797 -0.023868687
000010 28 8d b6 3c 80 97 08 3d 34 1c 59 3d a0 db 37 3c
       0.022284105 0.033347607 0.053005412 0.011221796
000020 b8 db cf 3c e2 c3 4b bd ea 3e 64 bd 8a 4a 42 bd
       0.025373325 -0.049747355 -0.055724062 -0.047434367
000030 58 36 c6 bc b0 4b 5d bd 2a 0c 13 bd 76 64 44 bd
       -0.024195835 -0.05402726 -0.035900272 -0.04794737
000040 32 da 51 bd a2 25 5f 3d 0c 2f 18 bd 0c d9 40 3d
       -0.051233478 0.05447925 -0.037154242 0.047081992
000050 00 a6 44 3c ce fe 58 3d 08 8d 5f 3d 78 59 6f 3c
       0.012002468 0.052977376 0.054577857 0.014608733
000060 d0 94 6c bc 00 e7 5f 3b 48 9f 2c 3d ba 72 01 bd
       -0.014439777 0.0034164786 0.04214409 -0.031603552
000070 e4 0c f5 bc 78 6e 38 bd d4 4a 10 3d 7c c9 7f bd
       -0.029913373 -0.045027226 0.03522761 -0.06244801
000080 a6 af 73 3d 0e f9 26 3d d0 90 4e 3c b0 77 2c bc
       0.059493683 0.04076486 0.012607768 -0.010526583
000090 c4 c8 de 3c 28 69 4e 3d e2 a3 63 3d 74 cb 35 bd
       0.027195342 0.050393254 0.055576213 -0.04438348
0000a0 88 5a 23 3d 10 88 18 3d a2 1c 42 bd bc 30 92 3c
       0.03988126 0.037239134 -0.047390588 0.017845504
0000b0 2e d1 3d 3d f8 ea f3 bc 3c f6 fe bc 58 c3 fe bc
       0.046342067 -0.029775128 -0.031123273 -0.031099007
0000c0 e8 82 4b 3c 80 5d e0 ba aa 64 2f bd 00 b9 f2 39
       0.012421347 -0.0017117709 -0.04282061 0.00046295673
0000d0 c8 85 ae 3c 30 45 c3 3c c8 b4 46 bd 88 f2 ae bc
       0.021304026 0.023836702 -0.04851225 -0.021355882
0000e0 8c bf 12 3d b6 d3 0e 3d 46 af 6b bd 74 45 1a bd
       0.035827205 0.034869872 -0.0575402 -0.037663892
0000f0 c0 d6 f1 3a aa 54 76 bd 10 cd 1c 3d 1e de 77 3d
       0.0018450841 -0.060139336 0.0382815 0.06051456
000100 18 bf e8 bc 54 79 b4 3c 48 6f da bc 3a 48 13 3d
       -0.028411433 0.02203051 -0.026664391 0.035957552
000110 12 9b 67 3d 6c 0b 02 bd 88 a2 75 3c 28 bb c9 bc
       0.05654437 -0.031749174 0.014992364 -0.024625376
000120 e0 f7 5d 3d ac 5d 7c 3d 28 01 82 bc fc d6 da 3c
       0.05419147 0.06161277 -0.015869692 0.02671384
000130 08 a2 d1 3c 50 9b 5d bd f4 3d 8f 3c 28 5a fd 3c
       0.025589958 -0.054103196 0.017485596 0.030926779
000140 c2 c7 4b bd ac aa 1a bd 6c 0f bf 3c 24 a5 74 3d
       -0.04975105 -0.03776042 0.023322783 0.059727803
000150 8e 4f 1b bd 4e 2a 42 3d 30 64 15 bd 90 f8 eb 3b
       -0.037917666 0.047403626 -0.0364725 0.007201262
000160 08 ac 84 bc e8 a9 3f 3c 00 22 1b ba bc 66 57 bd
       -0.016195312 0.011698224 -0.0005917847 -0.05258821
000170 ca 7d 34 3d 0c 36 0e 3d e8 17 62 3d 54 84 47 3d
       0.044065274 0.034719512 0.05519858 0.048710182
000180 00 b2 d7 3a f8 fe 77 bc aa 9c 68 bd 3e 42 5b bd
       0.0016456246 -0.015136473 -0.05679003 -0.05352997
000190 e8 14 4f 3d 40 26 06 3b 50 5b c3 bc 14 0a 78 3d
       0.050557047 0.0020469576 -0.023847252 0.060556486
0001a0 dc a1 35 3d 36 c4 3b bd 94 c7 f8 bc 60 1e df 3c
       0.044343814 -0.04584142 -0.030368604 0.027236164
0001b0 d4 a0 1e 3d 20 b0 03 bd 38 f8 4c bd f2 a1 7b bd
       0.038727596 -0.032150388 -0.050041407 -0.06143374
0001c0 00 a2 bd 3c cc 37 89 3c a0 1e 69 bb c0 a3 48 bb
       0.023148537 0.016750239 -0.0035571232 -0.003061518
0001d0 74 42 1d bd 70 4e 84 bb 54 e1 32 3d e8 fb dc bc
       -0.038393453 -0.004037671 0.04367192 -0.026975587
0001e0 ac 6e 74 3d 60 a7 b5 3b 40 7e db 3a 14 eb 2a 3d
       0.059675857 0.0055436343 0.0016746 0.041728094
0001f0 3a 2a 73 3d cc 00 0f bd 20 c3 76 3c 2e ac 59 bd
       0.059366442 -0.03491287 0.01506117 -0.05314272
000200 b0 4b e7 bc 4c 79 df 3c 20 16 9b 3b b8 54 13 3c
       -0.028234333 0.027279519 0.004732862 0.0089923665
000210 84 18 41 bd cc e5 63 3d 20 d4 13 bd f2 15 3d bd
       -0.04714252 0.055639073 -0.03609097 -0.046163507
000220 26 aa 4e bd 86 70 4a 3d 0c c6 ef 3c 68 9d aa 3c
       -0.050455235 0.049423717 0.02926924 0.02082701
000230 6c d6 2d 3d 56 cd 20 3d 30 3c 17 3c 3e 85 04 3d
       0.042440817 0.039258324 0.009230658 0.032353632
000240 a0 6d c4 3c 94 7d f5 bc d4 c8 5a 3d ac b2 b1 bc
       0.023978055 -0.029967107 0.05341418 -0.021691643
000250 0e 13 6c bd 6c 48 82 bc 20 94 83 bc 90 15 cb 3b
       -0.05763536 -0.015903674 -0.016061842 0.006197639
000260 f6 6c 48 3d 7c ee 49 bd 6e 7a 2a 3d 64 71 c3 3c
       0.04893204 -0.049299702 0.041620664 0.02385778
000270 c0 6c 68 3d 0e f1 1f 3d 5c 99 da bc 1c 13 f7 bc
       0.056744337 0.039048247 -0.026684456 -0.03016048
000280 68 33 28 3c d2 5d 77 bd b2 03 5c 3d 34 05 3f bd
       0.010266162 -0.06039221 0.05371446 -0.04663582
000290 60 94 b6 3b 60 7f 21 bc 00 b1 2a 3d 94 65 5b bd
       0.005571887 -0.009857029 0.041672707 -0.05356367
0002a0 a0 7b dc 3c e0 5f 40 bc 5a f1 7d bd 20 f6 6c 3d
       0.026914418 -0.011741608 -0.06199775 0.05785191
0002b0 74 63 58 bd f0 92 d4 bc 02 b3 1a 3d a0 9d 34 3c
       -0.05282922 -0.025948972 0.03776837 0.011023909
0002c0 4a fe 6b bd 94 33 50 3d c8 9a 36 3c 00 39 2a 3b
       -0.057615556 0.05083044 0.011145301 0.0025973916
0002d0 18 0b e1 3c 84 ec d7 3c b8 ac 24 3c 78 86 0b 3d
       0.02747111 0.026357897 0.010050945 0.034063786
0002e0 14 c9 21 bd b4 12 2a bd c0 a0 a6 ba 84 a2 89 3c
       -0.039498404 -0.041521743 -0.0012712702 0.016801126
0002f0 7e e3 25 bd 06 bc 1e bd 88 9e 37 bc ac 15 4a bd
       -0.040500157 -0.038753532 -0.01120723 -0.049337074
000300 94 30 73 bd dc 32 c5 bc e8 68 2e bd c0 2a 87 3b
       -0.0593725 -0.024072103 -0.042580515 0.0041249692
000310 80 b0 da ba 80 86 88 bc d4 94 54 bd 3e 75 4e 3d
       -0.0016684681 -0.016665697 -0.051899746 0.05040478
000320 80 2a e9 bc 24 ad b4 bc 96 f7 0a bd a0 0b dd bc
       -0.028462648 -0.022055216 -0.033927523 -0.026983082
000330 60 32 88 bb ac 51 c7 3c be 8d 36 3d e8 03 51 bc
       -0.004156396 0.024330936 0.04456877 -0.012757279
000340 e4 fd dd bc c0 32 31 3d 20 ff 42 3d 60 a4 d2 3b
       -0.027098604 0.04326129 0.047606587 0.0064282864
000350 40 18 0d bb 4a 2c 7e 3d 84 8b cc 3c 48 c2 62 3d
       -0.0021529347 0.062053956 0.02496887 0.055361062
000360 54 6a 1a 3d a8 cd 87 bc 66 23 6e bd e8 8e bc bc
       0.03769906 -0.016577557 -0.058139227 -0.023017362
000370 c6 c7 0e bd cc 44 5c bd 28 89 22 3d 08 26 bd bc
       -0.034858488 -0.053776547 0.039681584 -0.023089424
000380 0a a9 3a 3d 98 12 d6 bc a6 4d 7d 3d a4 d0 15 3d
       0.045571364 -0.026131913 0.06184163 0.03657593
000390 40 77 2f bb 80 64 3f 3d 4c e0 aa 3c 1e a1 43 3d
       -0.002677396 0.046726704 0.020858906 0.047761075
0003a0 80 62 dc ba a6 18 32 3d 38 82 25 bd 76 f4 6b 3d
       -0.0016814023 0.043480538 -0.04040739 0.057606183
0003b0 04 a4 8e 3c d8 11 45 3c 84 0c dc 3c b8 30 eb bc
       0.017412193 0.01202818 0.026861437 -0.028709754
0003c0 38 f7 8f bc 32 0f 55 3d 30 3b fe 3c 64 86 86 bc
       -0.017573938 0.052016445 0.031034082 -0.016421504
0003d0 20 7c c0 bc 08 cf c5 bc 80 5a 6e bd 00 9a 19 bd
       -0.023496687 -0.024146572 -0.058191776 -0.03750038
0003e0 ec c7 21 3d 18 a2 61 3c 54 7e 1a bd 38 d8 4e bc
       0.0394973 0.013771556 -0.037718132 -0.012624793
0003f0 ba fd 65 3d 3e c7 49 3d 22 f8 26 bd 20 7d 69 bc
       0.056150176 0.049262278 -0.04076398 -0.0142510235

output.bias f4 [4]
000000 40 60 3e 3b c8 da 94 bc 60 a1 b6 3c 00 bb 83 bb
       0.0029049069 -0.01817073 0.022293746 -0.004020095
