fetch_sticky_mittens_step/networks/ours_10k_block_3_uber_level_0_seed_150/network_pick_n_reach_goal_0.pth (torch, 596983 bytes, 8 tensors)

fc1.weight f4 [256, 60]
0	0xbd8f3d0a	-0.06994064
1	0x3c52e961	0.012873025
2	0x3ddd5d9d	0.10808871
3	0x3e06bc3f	0.13157748
4	0xbd0905f4	-0.033452943
5	0x3d3eee00	0.046613693
6	0xbd8d5a6e	-0.06902014
7	0xbd3014fd	-0.042988766
8	0x3e22c809	0.1589662
9	0x3e03216d	0.1280572
10	0xbdf0df4f	-0.11761343
11	0x3dcaa19a	0.09894104
12	0x3c21c971	0.0098746875
13	0xbe20d2d9	-0.15705432
14	0xbcb489a5	-0.02203829
15	0xbe4bb2a7	-0.19892369
16	0x3dd47eb4	0.10375729
17	0x3d4a7ff3	0.049438428
18	0xbda6cbc5	-0.08144335
19	0x3da18b16	0.07887857
20	0xbb180b66	-0.0023200153
21	0xbe6321d8	-0.22180879
22	0x3c2f646a	0.010705093
23	0xbe1ff268	-0.15619814
24	0xbc48a838	-0.012247138
25	0xbbbe533f	-0.0058082636
26	0xbdc49095	-0.09597889
27	0x3bfe6eec	0.0077646878
28	0xbde96a2c	-0.11397204
29	0x3cf17c5f	0.02947825
30	0xbca1f8e3	-0.019771999
31	0x3df5c05c	0.1199958
32	0xbe587f7c	-0.21142381
33	0x3dbd2c22	0.09236933
34	0xbe101250	-0.14069486
35	0x3d84693b	0.064653836
36	0xbd581570	-0.05275482
37	0xbd0be555	-0.034154255
38	0xbe05c2c4	-0.13062578
39	0x3e027ebe	0.12743661
40	0x3d622ce1	0.05521858
41	0xbca02720	-0.019549906
42	0xbe0d4ea2	-0.13799527
43	0x3d983f5c	0.0743396
44	0xbdc56643	-0.096386455
45	0xbd45b8f3	-0.048272084
46	0xbdbcec42	-0.0922475
47	0x3d34a2cb	0.044100564
48	0xbd199818	-0.037498564
49	0xbdc2b3cd	-0.095069505
50	0x3e199367	0.14997636
51	0xbe4e2c91	-0.20134188
52	0xbd8105c6	-0.06299929
53	0xbd9c1c2f	-0.07622563
54	0xbe0821b7	-0.13294111
55	0x3e4e1e0a	0.20128646
56	0x3e7cede3	0.24700122
57	0x3e2cd4aa	0.16878
58	0x3e24b171	0.16083314
59	0x3c4f00f2	0.012634503
60	0xbdcb8f6f	-0.09939467
61	0xbd2cf431	-0.042225067
62	0x3db51081	0.088410385
63	0xbe3aae81	-0.1823063
64	0x3e34eac0	0.17667675
65	0xbd0eb65f	-0.03484189
66	0x3dd2d754	0.10294977
67	0x3dc67734	0.09690705
68	0xbe3f9de8	-0.1871258
69	0x3e36dd4c	0.17857856
70	0x3e27e61f	0.16396378
71	0xbd881a19	-0.06645603
72	0x3daee785	0.085402526
73	0x3e2b8de8	0.16753352
74	0xbdeaceee	-0.1146525
75	0xbc843bfd	-0.016141886
76	0x3cee8dc0	0.029120326
77	0xbd5fab89	-0.054606948
78	0x3db8909a	0.090119556
79	0xbde11559	-0.109904
80	0x3e91135c	0.28335083
81	0x3b85d824	0.004084604
82	0xbd91144a	-0.07083948
83	0xbdeb4077	-0.11486905
84	0x3d006364	0.031344786
85	0x3d808eaa	0.06277211
86	0x3bb84245	0.0056231343
87	0x3d96059d	0.073252894
88	0x3c134cd6	0.008990487
89	0x3b5e016c	0.003387536
90	0x3dc0f4dd	0.09421704
91	0x3def0b82	0.11672117
92	0xbd153d01	-0.03643513
93	0xbd38137e	-0.044940464
94	0xbe6add55	-0.22935994
95	0xbdf0cc24	-0.11757687
96	0xbb79570d	-0.003804627
97	0x3e2434d7	0.16035782
98	0x3d1830cb	0.037155908
99	0x3d892f7d	0.06698511
100	0xbd57e403	-0.052707683
101	0x3d11e36d	0.03561728
102	0xbe3766d8	-0.17910326
103	0xbc8e78a3	-0.017391508
104	0x3dabb472	0.083840266
105	0xbd365001	-0.04450989
106	0x3d4923f4	0.049106553
107	0xbd05604d	-0.032562543
108	0xbd8d6255	-0.06903521
109	0xbe4160a9	-0.18884529
110	0xbd2c92ed	-0.042132307
111	0xbda5be22	-0.080929056
112	0xbe133fab	-0.14379756
113	0x3e8dd3d9	0.2770069
114	0xbcaeee8e	-0.021353986
115	0x3dedbbab	0.116080604
116	0xbd2294f5	-0.039692838
117	0x3ce33e3d	0.027739638
118	0x3ce7301b	0.02822118
119	0xbd00747c	-0.03136109
120	0xbdb7d63c	-0.08976409
121	0x3dc2ce74	0.09512034
122	0xbd50c127	-0.050965454
123	0xbd80d477	-0.062905245
124	0x3e01141a	0.12605324
125	0xbd6113c6	-0.054950498
126	0xbe18fba5	-0.14939745
127	0xbcf6d5dd	-0.030131275
128	0x3de24ef4	0.11050215
129	0xbe9e4218	-0.309098
130	0xbdd71c6b	-0.10503467
131	0xbdb889bf	-0.09010648
132	0xbe223677	-0.15841089
133	0x3d96a70f	0.07356083
134	0xbe167d70	-0.14696288
135	0x3ce1df8f	0.027572421
136	0xbdd97c08	-0.1061936
137	0xbe6e4f8b	-0.2327253
138	0xbe488b2b	-0.19584338
139	0x3e1fc3d6	0.15602049
140	0x3ea082d7	0.31349823
141	0xbe3f0b8a	-0.18656746
142	0xbd07a16b	-0.033112925
143	0x3d87a8ce	0.06623994
144	0x3da2ffeb	0.07958969
145	0xbe22521a	-0.15851632
146	0x3e161cb2	0.14659384
147	0xbe388789	-0.18020453
148	0xbc626585	-0.013818149
149	0x3c61da0a	0.013784895
150	0xbe396fd3	-0.18109064
151	0xbddec2e3	-0.108770154
152	0x3ccf0328	0.02527006
153	0xbdc6db7d	-0.09709833
154	0x3ddf2fc3	0.10897782
155	0xbd7d21d4	-0.06179984
156	0xbdb886b6	-0.09010069
157	0xbd176c14	-0.036968306
158	0xbe3558c5	-0.17709644
159	0x3e25c36b	0.16187827
160	0x3d12db9e	0.035853975
161	0xbd2388b5	-0.039925296
162	0xbe06793b	-0.13132183
163	0x3e5ff15f	0.2186942
164	0xbd1120c8	-0.035431653
165	0xbe1ae8d5	-0.15127881
166	0xbe02a6d0	-0.12758946
167	0x3ca3b33d	0.019982928
168	0xbe4fe11e	-0.20300719
169	0x3c960b1e	0.018315848
170	0x3e0d0a42	0.13773444
171	0x3dc13641	0.09434176
172	0xbdd17c5d	-0.102287985
173	0xbe3ae8b8	-0.18252838
174	0x3e8e4471	0.27786592
175	0x3e2f9d03	0.17149739
176	0xbdc9c8a3	-0.098527215
177	0xbe34841a	-0.17628518
178	0x3d26ab47	0.040690687
179	0xbe870703	-0.26372537
180	0x3db191da	0.08670397
181	0x3e0dfe31	0.13866498
182	0x3c5eda01	0.013601781
183	0x3c325247	0.010883874
184	0xbdc8d860	-0.09806895
185	0xbd3d8625	-0.04627051
186	0x3d838583	0.0642195
187	0xbd3a45c8	-0.045476705
188	0xbe554720	-0.20827913
189	0x3d0e49a8	0.034738213
190	0x3bfce8ce	0.007718182
191	0x3e5e71d4	0.2172311
192	0x3d04a718	0.032385916
193	0x3d8ba785	0.06819061
194	0x3e29398b	0.16525857
195	0x3df22c4a	0.11824854
196	0x3da5253b	0.08063742
197	0x3e5e09c1	0.21683408
198	0xbe75d18e	-0.2400572
199	0x3e5b0783	0.21389584
200	0xbe695dd3	-0.22789697
201	0x3dee86a0	0.116467714
202	0x3e28236c	0.16419762
203	0x3e07d86c	0.13266152
204	0x3e0f73cf	0.14009021
205	0x3dfc5368	0.12320596
206	0xbd8c105f	-0.0683906
207	0xbe0a757d	-0.1352138
208	0x3dfa95b8	0.12235588
209	0xbc660108	-0.014038332
210	0x3dbee41f	0.093208544
211	0xbdfc8dea	-0.123317555
212	0x3e16dfb8	0.1473378
213	0x3e19317e	0.14960286
214	0x3e4d1fb0	0.20031619
215	0xbd52e825	-0.05149092
216	0xbd0bbc24	-0.03411497
217	0x3e05f5c9	0.13082041
218	0xbe12aaf0	-0.1432302
219	0xbcf4a935	-0.02986584
220	0xbcc8ea5d	-0.024525816
221	0xbdd64bd9	-0.104636855
222	0xbeb4074f	-0.35161826
223	0xbcea7322	-0.028619353
224	0xbd902e4e	-0.07040082
225	0xbd86e8ff	-0.06587409
226	0xbdc0655b	-0.09394332
227	0x3dd79fe7	0.10528546
228	0x3d26f9d0	0.040765584
229	0xba2ec1c6	-0.0006666448
230	0xbe34effa	-0.17669669
231	0xbddcc325	-0.10779408
232	0x3d642848	0.055702478
233	0xbd0de018	-0.03463754
234	0x3e5feac9	0.21866907
235	0xbda06f02	-0.07833673
236	0xbd2557b3	-0.04036684
237	0x3c3a498f	0.011370077
238	0x3e6b93d5	0.23005612
239	0xbaa1f69a	-0.0012356818
240	0x3e0ea157	0.13928734
241	0xbd2bf201	-0.04197884
242	0x3b7422d0	0.0037252195
243	0xbd9bf7aa	-0.076155975
244	0x3c09c220	0.008408099
245	0xbd9379a5	-0.07200936
246	0x3e42381a	0.18966714
247	0xbe9cec06	-0.30648822
248	0xbcd2b2f2	-0.025720093
249	0x3daeaf29	0.08529503
250	0xbdaf7d2f	-0.08568799
251	0xbd243f48	-0.040099412
252	0xbd57b7a5	-0.05266537
253	0x3d9d2e21	0.07674814
254	0x3cdf1373	0.027230954
255	0x3d3b7cb6	0.04577323

fc1.bias f4 [256]
0	0xbe594c7a	-0.2122058
1	0xbe1acb70	-0.15116668
2	0xbe8d78f5	-0.27631345
3	0xbe38689d	-0.18008657
4	0xbeaa704c	-0.332888
5	0xbe99ac4c	-0.30014265
6	0xbe88f9b1	-0.26753
7	0xbeb515ff	-0.35368344
8	0xbe8ed9e9	-0.27900627
9	0xbe73a5e5	-0.23793752
10	0xbe18d81c	-0.14926189
11	0xbe94a98d	-0.29035607
12	0xbe9637b5	-0.29339376
13	0xbec62c16	-0.3870551
14	0xbe4be444	-0.19911295
15	0xbe5f942d	-0.21833868
16	0xbe33ce2a	-0.17559114
17	0xbe81941a	-0.25308305
18	0xbe2e956a	-0.17049184
19	0xbea7d7d0	-0.3278184
20	0xbe379183	-0.17926602
21	0xbe813059	-0.252322
22	0xbeb1054c	-0.34574354
23	0xbde1bf94	-0.11022869
24	0xbe5395b8	-0.20662582
25	0xbe386764	-0.1800819
26	0xbe1940b1	-0.14966084
27	0xbeb71352	-0.35756928
28	0xbd4a101c	-0.04933177
29	0xbdd1338d	-0.10214911
30	0xbea4e00d	-0.32202187
31	0xbe3aab88	-0.18229496
32	0xbe98b7af	-0.2982764
33	0xbe9c478a	-0.3052333
34	0xbd573cab	-0.05254809
35	0xbed922f1	-0.4240947
36	0xbe7e0abe	-0.24808785
37	0xbeadc53f	-0.3393955
38	0xbc212680	-0.009835839
39	0xbe885c2d	-0.26632825
40	0xbdf3a419	-0.118965335
41	0xbeac5c00	-0.3366394
42	0xbeb70c70	-0.35751677
43	0xbe4d25c2	-0.20033935
44	0xbe673dc9	-0.22582163
45	0xbe4ba581	-0.19887353
46	0xbe814bd0	-0.25253153
47	0xbe212116	-0.15735278
48	0xbe27e62f	-0.16396402
49	0xbe68ebef	-0.22746252
50	0xbeadb6f0	-0.33928633
51	0xbdd8f0c2	-0.10592796
52	0xbe995c7b	-0.2995337
53	0xbd169d49	-0.036771093
54	0xbe38837e	-0.1801891
55	0xbe19b19e	-0.15009162
56	0xbdb02b0c	-0.086019605
57	0xbe506031	-0.20349194
58	0xbe1918b8	-0.14950836
59	0xbe3bcbcc	-0.18339461
60	0xbe6a9f8f	-0.2291243
61	0xbe44947c	-0.19197267
62	0xbe407418	-0.18794286
63	0xbeaa1583	-0.33219537
64	0xbe6cd7e4	-0.2312923
65	0xbe852dd7	-0.26011536
66	0xbea83f5a	-0.32860833
67	0xbe5061de	-0.20349833
68	0xbe8bf820	-0.27337742
69	0xbe359a30	-0.17734599
70	0xbec529b4	-0.3850838
71	0xbe9e4ba0	-0.30917072
72	0x3dca2ed2	0.098722115
73	0xbed7b4d0	-0.42130136
74	0xbc1cc712	-0.009568946
75	0xbe111137	-0.14166723
76	0xbe5081cc	-0.20362014
77	0xbea3f840	-0.32025337
78	0xbd5880cf	-0.052857216
79	0xbece79f1	-0.4032741
80	0xbe516444	-0.20448405
81	0xbe59e8a3	-0.2128015
82	0xbe84a3fb	-0.25906357
83	0xbeb457d4	-0.35223258
84	0xbddf3286	-0.108983085
85	0xbe036398	-0.12830961
86	0xbe76168d	-0.2403204
87	0xbe669c55	-0.22520573
88	0xbe0b44b2	-0.13600424
89	0xbe677d20	-0.22606325
90	0xbeb3c1ba	-0.3510874
91	0xbedad186	-0.4273798
92	0xbea42f8d	-0.32067528
93	0xbde3fa73	-0.11131754
94	0xbe6b0ada	-0.22953358
95	0xbe45e481	-0.19325449
96	0xbea717d8	-0.3263538
97	0xbca5bf92	-0.02023295
98	0xbe2d5e13	-0.16930418
99	0xbe62cb26	-0.22147807
100	0xbec25079	-0.3795202
101	0xbecf3b60	-0.40474987
102	0xbe8bad0c	-0.27280462
103	0xbe3311a1	-0.17487194
104	0xbe96bee9	-0.29442528
105	0xbdfc0fea	-0.12307723
106	0xbe957560	-0.29191113
107	0xbe971a7e	-0.295124
108	0xbe9294e8	-0.2862923
109	0xbed9ebc3	-0.42562684
110	0xbe83b67d	-0.25725165
111	0xbe776001	-0.24157716
112	0xbe152cc2	-0.14567855
113	0xbebca476	-0.36844224
114	0xbdc2a55a	-0.095041946
115	0xbeb921e5	-0.36158672
116	0xbe835268	-0.25648808
117	0xbe6739b4	-0.22580606
118	0xbeb0e5ee	-0.34550422
119	0x3d8a6645	0.067577876
120	0xbe66ff23	-0.22558264
121	0xbe6a33cc	-0.22871321
122	0xbe97fa53	-0.2968317
123	0xbe4c8997	-0.19974361
124	0xbe9d2655	-0.30693308
125	0xbe565e72	-0.20934466
126	0xbe805023	-0.2506114
127	0xbe4e6817	-0.20156895
128	0xbe681856	-0.22665533
129	0xbeb87d27	-0.36032984
130	0xbeb56eaa	-0.35435992
131	0xbea023c5	-0.3127729
132	0xbea6cc84	-0.32577908
133	0xbe97cb98	-0.29647517
134	0xbd7d6c92	-0.06187112
135	0xbe493825	-0.19650324
136	0xbda907b9	-0.08253426
137	0xbe86ac13	-0.26303157
138	0xbe30de7d	-0.17272373
139	0xbea7b685	-0.3275644
140	0xbead4ccb	-0.3384765
141	0xbe41870d	-0.18899174
142	0xbe127372	-0.14301851
143	0xbe6125e9	-0.21987118
144	0xbea3271a	-0.3186577
145	0xbe230685	-0.15920456
146	0xbe82bdaa	-0.25535327
147	0xbe8a871c	-0.27056205
148	0xbdd104b1	-0.10205973
149	0xbed02612	-0.40654045
150	0xbe301d9b	-0.17198794
151	0xbe228958	-0.15872705
152	0xbd9fc7f5	-0.07801811
153	0xbe210daa	-0.15727869
154	0xbea92a89	-0.33040264
155	0xbea26357	-0.31716415
156	0xbe37b218	-0.17939031
157	0xbecc8076	-0.39941758
158	0xbe546c9d	-0.20744558
159	0xbe5e44f9	-0.21705998
160	0xbe947397	-0.28994438
161	0xbe8c3c94	-0.27389967
162	0xbe5976e5	-0.21236761
163	0xbea90ca6	-0.33017462
164	0xbe7e68f8	-0.2484473
165	0xbef94a5d	-0.48689547
166	0xbeb6229f	-0.3557329
167	0xbe8a1bd8	-0.26974368
168	0xbe8fb818	-0.2807014
169	0xbe462ef8	-0.19353855
170	0xbed7c640	-0.4214344
171	0xbe88fafa	-0.2675398
172	0xbec68d37	-0.38779613
173	0xbe22c612	-0.1589587
174	0xbe5f4c72	-0.21806505
175	0xbeae97b7	-0.34100124
176	0xbe33cd6c	-0.17558831
177	0xbe941df9	-0.28929117
178	0xbe19e9f5	-0.15030654
179	0xbe6c2353	-0.2306035
180	0xbe732b0b	-0.23746888
181	0xbe2ce866	-0.16885528
182	0xbe35c171	-0.17749573
183	0xbe82c913	-0.25544032
184	0xbe5340c8	-0.20630181
185	0xbe63fe37	-0.22264944
186	0xbe65f5c9	-0.22457041
187	0xbe9b0eca	-0.3028472
188	0xbeac2ac9	-0.33626392
189	0xbe5c9de0	-0.215446
190	0xbe8270e7	-0.25476763
191	0xbe89f634	-0.2694565
192	0xbdcd7f87	-0.100340895
193	0xbdb80cd7	-0.08986824
194	0xbdeeacdc	-0.11654064
195	0xbde07e1c	-0.109615535
196	0xbe1accc9	-0.15117182
197	0xbea473f3	-0.32119712
198	0xbe4421fe	-0.19153592
199	0xbe471d31	-0.1944473
200	0xbdea5762	-0.11442448
201	0xbe0530a9	-0.13006844
202	0xbeb5ffcf	-0.3554673
203	0xbd89683b	-0.067093335
204	0xbe97efbc	-0.2967509
205	0xbe753821	-0.23947193
206	0xbe8c6340	-0.27419472
207	0xbe22be21	-0.15892841
208	0xbe383dcb	-0.17992322
209	0xbe8f8321	-0.2802973
210	0xbe09f3e6	-0.13471946
211	0xbeb6d1d0	-0.3570695
212	0xbeba215e	-0.36353582
213	0xbe5cd451	-0.21565367
214	0xbeb38235	-0.35060278
215	0xbd723e6e	-0.05914157
216	0xbe1f2e1e	-0.15544936
217	0xbe41d3cc	-0.1892845
218	0xbeaf94b3	-0.34293136
219	0xbd6e37e7	-0.05815878
220	0xbe89981f	-0.26873872
221	0xbe4bd906	-0.19907007
222	0xbe7ea87f	-0.24868964
223	0xbe92a6ea	-0.2864297
224	0xbe40339f	-0.18769692
225	0xbe7c0e70	-0.24614882
226	0xbe02bb12	-0.12766674
227	0xbc2f0529	-0.010682383
228	0xbeab3236	-0.33436745
229	0xbe0962ed	-0.13416643
230	0xbea5347d	-0.32266608
231	0xbe36a938	-0.1783799
232	0xbeb17772	-0.34661442
233	0xbe4458bb	-0.19174473
234	0xbd4eeba8	-0.050517708
235	0xbd5683e3	-0.05237187
236	0xbe26f551	-0.16304518
237	0xbdcb6b50	-0.099325776
238	0xbe0aa9a4	-0.13541275
239	0xbebce47d	-0.36893073
240	0xbe81ec48	-0.2537558
241	0xbe2393bf	-0.1597433
242	0xbe722fee	-0.23651096
243	0xbe4a5917	-0.19760548
244	0xbe0ae123	-0.13562445
245	0xbe65828c	-0.22413081
246	0xbe86d3ab	-0.26333365
247	0xbe1d474d	-0.1535923
248	0xbe9bf1a5	-0.30457798
249	0xbe8e35df	-0.27775475
250	0xbd4615d1	-0.04836065
251	0xbe8d0657	-0.275439
252	0xbe9ec21e	-0.31007475
253	0xbebff971	-0.37494996
254	0xbe4bb14b	-0.1989185
255	0xbe44bad5	-0.19211896

fc2.weight f4 [256, 256]
0	0x3c789214	0.0151715465
1	0xbdee159a	-0.11625214
2	0x3d55c64d	0.052191067
3	0xbd192236	-0.03738614
4	0x3dcb7f1f	0.09936356
5	0x3d4af832	0.049553104
6	0x3e0dec96	0.13859782
7	0x39745ba8	0.00023303798
8	0xbe41393c	-0.1886949
9	0xbbb299b6	-0.0054504527
10	0xbd89ac22	-0.06722285
11	0x3d4e9279	0.050432656
12	0x3d101343	0.03517462
13	0xbdb131c0	-0.08652067
14	0x3d3a4568	0.045476347
15	0x3df45a44	0.11931279
16	0x3e187653	0.14888887
17	0xbe680f31	-0.22662045
18	0x3cd92d9e	0.02651101
19	0x3d8671fa	0.06564708
20	0xbdd0228f	-0.101628415
21	0x3d971819	0.07377643
22	0xbdc216d3	-0.094770096
23	0x3dcf0f9c	0.10110399
24	0xbd77ab97	-0.060466375
25	0x3dd7c9ee	0.10536562
26	0x3e10ad0d	0.14128514
27	0xbd570ac5	-0.052500505
28	0x3b0e7286	0.0021735742
29	0xbdaeb592	-0.085307255
30	0xbe37f22d	-0.17963476
31	0xbebe5c56	-0.37179822
32	0x3c399153	0.011326152
33	0xbe10e484	-0.14149672
34	0x3c899026	0.016792368
35	0xbddbada4	-0.10726479
36	0x3d27352c	0.040822193
37	0xbd294f4d	-0.041335393
38	0xbab37d37	-0.0013693933
39	0xbc732a04	-0.01484156
40	0x3d8e6620	0.069530725
41	0x3cf9c28e	0.030488279
42	0xbe560af4	-0.20902616
43	0xbd32fe5f	-0.04369962
44	0xbbccfea8	-0.0062559433
45	0x3d5f24cc	0.05447845
46	0x3d497e8c	0.04919295
47	0x3d7aaffd	0.06120299
48	0xbbe0d4b9	-0.006861296
49	0x3c81da29	0.015851097
50	0xbd8ca65b	-0.06867667
51	0xbd97356a	-0.07383235
52	0xbddc8d36	-0.10769121
53	0xbe054aba	-0.13016787
54	0xbca3eab0	-0.020009369
55	0xbc8d5a77	-0.017255051
56	0xbdc550ce	-0.09634553
57	0x3ce27477	0.027643425
58	0xbd4c0bbb	-0.049815875
59	0xbe65df4d	-0.22448464
60	0xbaeae6d6	-0.0017921578
61	0xbc90b217	-0.017663045
62	0xbe353cee	-0.17699024
63	0xbe128683	-0.14309125
64	0x3cbcc7ee	0.023044553
65	0xbcaf6df4	-0.021414734
66	0xbc2bf52a	-0.010495463
67	0x3d162396	0.03665503
68	0xbe03c5c0	-0.12868404
69	0x3d1f24e2	0.038853534
70	0x3e0611e5	0.13092764
71	0xbe95c89d	-0.29254618
72	0x3e1d3a33	0.15354232
73	0x3dc7f03e	0.097626194
74	0x3d7e8a49	0.062143598
75	0x3e1d0e58	0.15337503
76	0xbd8e7586	-0.069560096
77	0xbd6d23af	-0.05789536
78	0x3d10bf64	0.035338774
79	0xbea53965	-0.3227035
80	0x3db8202e	0.08990513
81	0xbe642056	-0.2227796
82	0x3d9f0bc4	0.07765916
83	0xbd9d4bb5	-0.076804556
84	0x3d52c3db	0.051456314
85	0xbeceb699	-0.40373686
86	0x3cdb8b4d	0.026799822
87	0xbde5808d	-0.1120616
88	0xbf03f1ce	-0.5154084
89	0x3d2adeb1	0.04171628
90	0xbd2e6cfe	-0.04258441
91	0x3cf4cf93	0.029884135
92	0xbda85fb9	-0.08221383
93	0x3ced25d0	0.028948694
94	0xbe0da45e	-0.13832232
95	0xbe6df6b9	-0.23238648
96	0xbd8b253d	-0.06794212
97	0xbec61b7c	-0.38692844
98	0x3d3e4684	0.046453968
99	0xbd8e157e	-0.06937693
100	0xbdb02aa2	-0.086018816
101	0xbe485a85	-0.1956578
102	0xbd133320	-0.03593743
103	0xbd60844b	-0.054813664
104	0x3c03bfb4	0.008041311
105	0xbe8323a6	-0.25613135
106	0xbe84f823	-0.25970563
107	0x3e34ea24	0.17667443
108	0xbdd5c101	-0.10437203
109	0xbe409648	-0.18807328
110	0xbdf7ac5f	-0.12093424
111	0x3d23449c	0.039860353
112	0xbd79df7a	-0.06100414
113	0xbdc24b93	-0.09487071
114	0x3dbead14	0.09310356
115	0xbe2a3ec2	-0.16625503
116	0x3d0677d9	0.03282914
117	0xbdd57520	-0.104227304
118	0xbdc4ca32	-0.09608878
119	0x3c8264d3	0.015917217
120	0x3bc4c718	0.006005179
121	0x3c9115b9	0.017710553
122	0xbcbd9982	-0.023144487
123	0xbe56b02d	-0.20965643
124	0xbeb6a457	-0.35672256
125	0x3d91812a	0.07104714
126	0xbc22d5b5	-0.009938647
127	0xbd02f850	-0.03197509
128	0xbeaabe37	-0.33348247
129	0xbe91a93c	-0.28449428
130	0x3cb9211b	0.022598794
131	0x3e023dbd	0.12718864
132	0xbe5f350e	-0.21797583
133	0xbbe3fb2c	-0.0069574323
134	0xbe3bedce	-0.18352434
135	0xbdff42ed	-0.12463937
136	0xbd833aa0	-0.06407666
137	0xbdfe819b	-0.12427064
138	0xbd8705c8	-0.065928996
139	0x3cac5d48	0.021040574
140	0x3c342137	0.010994247
141	0xbd8eef3c	-0.06979224
142	0x3d6fb8e4	0.058525935
143	0x3d3077c0	0.043082952
144	0x3ce0ace8	0.027426198
145	0xbd883c8c	-0.066521734
146	0xbe0332ee	-0.12812397
147	0x3c6c9a5c	0.014441099
148	0x3d3933b2	0.045215316
149	0xbe82b6f8	-0.2553022
150	0xbe3178e1	-0.17331268
151	0x3e225126	0.15851268
152	0x3d269a1e	0.04067432
153	0xbdebc9c6	-0.115130946
154	0xbe33d004	-0.1755982
155	0xbd92a81a	-0.07160969
156	0xbe89b82a	-0.2689832
157	0xbd3c1099	-0.045914266
158	0x3bb94b1e	0.0056547066
159	0xbe89187f	-0.26776502
160	0x3d4e0ac2	0.05030323
161	0xbbab46e5	-0.005226957
162	0xbe24223d	-0.16028686
163	0x3b98b1fd	0.0046598897
164	0x3e02b29a	0.12763444
165	0x3d9fae0c	0.07796869
166	0xbe585d50	-0.21129346
167	0x3b8bf5dc	0.004271252
168	0xbe1ae8fd	-0.1512794
169	0xbeb70fc5	-0.3575422
170	0xbded9aaf	-0.11601769
171	0x3deee143	0.11664059
172	0xbd8e73be	-0.0695567
173	0x3d73e0e7	0.059540655
174	0xbe0894c4	-0.13338
175	0x3dd4f304	0.10397914
176	0x3cbaa197	0.02278213
177	0x3d93a294	0.07208744
178	0xbe2323ce	-0.15931627
179	0x3d8fe8f2	0.07026853
180	0x3cb6ef73	0.022330975
181	0xbcf787c4	-0.030216105
182	0xbe0b8d6d	-0.13628168
183	0x3ca1911a	0.01972251
184	0xbe274cfd	-0.16337962
185	0xbc1636dd	-0.009168354
186	0xbbd093df	-0.006365284
187	0x3dee3fee	0.11633287
188	0x3d2f7447	0.0428355
189	0xbd463f85	-0.04840042
190	0xbbbe0e5f	-0.005800053
191	0xbcc2ca5c	-0.023778133
192	0x3d29b165	0.041428942
193	0xbdb83c69	-0.08995897
194	0xbd577030	-0.052597225
195	0xbe8e2aa3	-0.27766904
196	0x3db99fe1	0.090636976
197	0x3ba03f07	0.004890326
198	0xbeabd9d8	-0.3356464
199	0xbe28338c	-0.16425914
200	0xbd1e6de9	-0.038679037
201	0xbdf0e5f5	-0.11762611
202	0x3d677579	0.056508515
203	0x3cbe3c2c	0.023222052
204	0x3ca4a3ea	0.020097692
205	0x3d811f9d	0.06304858
206	0xbe1b152a	-0.15144792
207	0x3d5c81ff	0.05383491
208	0x3b879e29	0.004138727
209	0x3e14f4bf	0.14546488
210	0xbe34c87f	-0.17654608
211	0x3e0a2595	0.13490899
212	0xbe0694fa	-0.13142768
213	0xbcac3cdb	-0.021025112
214	0xbe543b55	-0.20725758
215	0x3cf71fa8	0.030166462
216	0x3d4bc5d6	0.049749218
217	0xbe1a0fdc	-0.15045112
218	0x3e0bece0	0.1366458
219	0x3da12b6c	0.0786961
220	0xbd3e8f45	-0.04652335
221	0xbea3d669	-0.3199952
222	0xbe4c6d86	-0.19963655
223	0xbe1c5b84	-0.15269285
224	0x3d0d11d5	0.034440834
225	0xbd8ebea2	-0.06969954
226	0xbd596274	-0.053072408
227	0xbbd75c86	-0.006572309
228	0xbe8a3cd7	-0.26999542
229	0x3da4980c	0.08036813
230	0x3d261798	0.040549845
231	0xbe497bde	-0.19676158
232	0xbe3ce321	-0.18446018
233	0xbe2273e0	-0.15864515
234	0x3d3b0575	0.0456595
235	0x3c014364	0.007889602
236	0x3d712aef	0.058878835
237	0xbe060198	-0.13086545
238	0xbdb675ed	-0.08909211
239	0xbe3f00d1	-0.18652655
240	0x3da76b4a	0.08174761
241	0xbda1079f	-0.07862782
242	0x3cd2f97c	0.025753729
243	0xbcb656db	-0.022258213
244	0x3d387411	0.045032565
245	0xbdb48c28	-0.08815795
246	0xbd73d30c	-0.05952744
247	0xbc30b8cc	-0.0107862465
248	0x3da04722	0.078260675
249	0xbdc9d777	-0.0985555
250	0x3d32de1d	0.043668855
251	0xbdc68837	-0.0969395
252	0x3dfdcf2d	0.12393031
253	0x3da89c68	0.08232957
254	0xbc8cca4f	-0.017186312
255	0x3c7c9c34	0.015418101

fc2.bias f4 [256]
0	0x3e046f6d	0.1293313
1	0xbd94c480	-0.07264042
2	0xbd9c91d0	-0.07644999
3	0x3cf1db26	0.029523443
4	0x3b9dd8b5	0.0048170933
5	0xbdeb4893	-0.11488452
6	0xbda8781c	-0.08226034
7	0xbdb76805	-0.08955387
8	0x3e11d023	0.14239554
9	0xbca7b662	-0.02047271
10	0x3d96aaf4	0.073568255
11	0xbd5a172e	-0.053244762
12	0xbd63582c	-0.05550401
13	0xbd8bf018	-0.068329036
14	0x3db5ae9e	0.08871196
15	0xbac1f72a	-0.0014798392
16	0x3c7892b2	0.015171694
17	0xbbc3ebce	-0.005979038
18	0xbe55dff5	-0.20886214
19	0xbd4547ad	-0.04816406
20	0x3d178635	0.036993224
21	0xbd194a7a	-0.037424542
22	0x3da2efff	0.07955932
23	0xbce5c711	-0.028049024
24	0xbdd68a86	-0.1047564
25	0xbd80d66c	-0.06290898
26	0xbd55d213	-0.052202296
27	0x3d1d9556	0.038472496
28	0xbd7614bf	-0.06007838
29	0x3de6bc4a	0.11266382
30	0xbd58d392	-0.052936144
31	0x3c727b10	0.014799848
32	0x3db5c08c	0.08874616
33	0xbe07da04	-0.1326676
34	0xbc8ef7c8	-0.017452136
35	0xbcdc8912	-0.026920829
36	0x3cce8bb3	0.025213098
37	0x3c6ad3ed	0.014332754
38	0xbd56450f	-0.052311953
39	0xbe3aef99	-0.18255462
40	0x3ce910a6	0.028450321
41	0xbd2f0bb5	-0.042735774
42	0x3ace1ce3	0.0015725162
43	0xbd9ae945	-0.07564024
44	0x3d174bc3	0.036937486
45	0xbda7a610	-0.08185971
46	0xbd8361fd	-0.06415174
47	0x3df97f69	0.12182505
48	0xbdab732a	-0.08371575
49	0x3d23f7de	0.040031306
50	0xbd33b456	-0.043873154
51	0xbe3417e7	-0.17587243
52	0x3cf7f21f	0.03026682
53	0xbd048d2c	-0.032361194
54	0x3e27ac0b	0.16374223
55	0x3cd515dd	0.026011402
56	0xbd7f1b57	-0.062281933
57	0xbcca1712	-0.024669204
58	0x3df5ce3e	0.12002228
59	0xbcbeed42	-0.023306493
60	0xbda0d6c6	-0.07853465
61	0x3d2882e8	0.041140467
62	0x3d5503c7	0.052005555
63	0x3da920ab	0.08258184
64	0xbc334251	-0.010941104
65	0xbd901447	-0.070351176
66	0xbd4cd9bb	-0.05001233
67	0x3ce3acc4	0.027792342
68	0x3d9a58da	0.07536478
69	0xbdc99422	-0.09842707
70	0xbda96b56	-0.08272426
71	0x3d7572e4	0.05992402
72	0x3cbc6ef0	0.023002118
73	0xbe33e2b0	-0.17566943
74	0xbc13d64f	-0.009023263
75	0xbd884721	-0.06654192
76	0xbd1e89dc	-0.03870569
77	0x3cfc796b	0.030819615
78	0x3ddd7c3d	0.10814712
79	0xbd0c9397	-0.03432044
80	0x3d647ee0	0.05578506
81	0x3d27da73	0.040979814
82	0xbc694e40	-0.014239848
83	0xbd1fee05	-0.039045352
84	0xbcd4e849	-0.025989668
85	0x3ceb8fef	0.028755156
86	0xbd8279ed	-0.06370912
87	0xbd5f3957	-0.054498043
88	0x3d8688c7	0.06569057
89	0xbd303650	-0.043020546
90	0xbd4d3e01	-0.05010796
91	0xbdb075fc	-0.08616254
92	0xbc0ace0c	-0.008471977
93	0x3cc6a0fb	0.024246683
94	0xbd248f0b	-0.04017548
95	0x3d5014ad	0.050800968
96	0xbca56d3d	-0.02019369
97	0x3dad41b5	0.08459798
98	0xbc78b2fd	-0.015179393
99	0xbd3cf0fc	-0.046128258
100	0x3d9ab137	0.07553332
101	0x3dd09b1c	0.10185835
102	0x3d2337a6	0.039847992
103	0xbc12fde8	-0.008971669
104	0xbd1a24a2	-0.037632592
105	0xbd6d14fd	-0.057881344
106	0x3d12e1f2	0.03586001
107	0x3df63e1b	0.120235644
108	0xbd36c0b4	-0.04461737
109	0x3da2fc74	0.07958308
110	0x3d136a41	0.035990003
111	0xbda80e1c	-0.08205816
112	0x3dad0843	0.084488414
113	0x3b13f602	0.0022577052
114	0xbd2eb232	-0.04265041
115	0xbc32b192	-0.010906594
116	0xbda1c1d4	-0.07898298
117	0xbd28bbed	-0.041194845
118	0x3b425ee5	0.0029658612
119	0xbe01524d	-0.12629052
120	0xbdb22e71	-0.08700264
121	0x3e014625	0.12624414
122	0x3ca19be9	0.019727664
123	0x3d84815f	0.06469988
124	0x3cdb591c	0.02677589
125	0xbd18f105	-0.03733923
126	0xbd968dca	-0.07351263
127	0xbd81ee85	-0.06344322
128	0x3e01149a	0.12605515
129	0xbd24aba0	-0.040202737
130	0x3d24178b	0.040061515
131	0x3d0cd985	0.03438713
132	0xbcab188a	-0.020885725
133	0x3cfa0518	0.030520007
134	0xbb2cf075	-0.002638844
135	0xbd5860d9	-0.052826736
136	0xbe343a77	-0.17600428
137	0x3d6bac46	0.05753734
138	0x3d9320a8	0.07183963
139	0x3e301224	0.1719442
140	0x3dc836db	0.09776088
141	0xbe1fb6de	-0.15597102
142	0x3de660fc	0.11248967
143	0x3d3c8a24	0.04603018
144	0xbd840182	-0.064456
145	0xbda62b97	-0.08113783
146	0xbc9ef0a2	-0.019401852
147	0x3dde8fcb	0.1086727
148	0x3dc622d4	0.09674612
149	0xbd54aa22	-0.051920064
150	0x3d7dab4b	0.061930936
151	0x3dbc9e99	0.092099376
152	0xbdfb14d7	-0.12259834
153	0x3d090bde	0.033458583
154	0x3d7d303b	0.061813574
155	0xbccb809c	-0.0248416
156	0xbd99ac34	-0.07503548
157	0x3e4cd67f	0.20003699
158	0xbd950a20	-0.07277322
159	0x3c005762	0.007833334
160	0x3ca3d759	0.020000147
161	0xbd22097a	-0.03955982
162	0x3e08c703	0.13357167
163	0xbd11b2aa	-0.035570778
164	0x3da26823	0.07930019
165	0xbe2032e3	-0.15644412
166	0xbd8fe236	-0.07025568
167	0x3d550b1b	0.052012544
168	0xbd03fb12	-0.03222186
169	0xbd28130c	-0.04103379
170	0x3d49c8e6	0.049263857
171	0xbda877c9	-0.08225972
172	0xbc414fef	-0.011798843
173	0x3d23d0fd	0.03999423
174	0x3b41dad4	0.0029579895
175	0x3d83d003	0.064361595
176	0xbd5a5136	-0.053300105
177	0x3da32998	0.07966918
178	0x3d7872b4	0.060656264
179	0x3c905038	0.017616376
180	0xbd92fe64	-0.071774274
181	0x3bc0fc5c	0.0058894586
182	0xbd2b9790	-0.04189259
183	0x3d9829ac	0.07429823
184	0x3d6a994b	0.057275098
185	0xbdf930fc	-0.12167546
186	0xbdd4094c	-0.10353336
187	0xbc5de3b4	-0.013543058
188	0x3da726ce	0.08161698
189	0xbdcf0731	-0.101087935
190	0xbd2c9d62	-0.04214228
191	0xbe5bd909	-0.21469511
192	0x3d8745db	0.06605121
193	0x3d7ab705	0.061209697
194	0xbd755b8a	-0.05990175
195	0xbdaddc57	-0.08489292
196	0xbd85dff8	-0.06536859
197	0x3cc30b74	0.023809172
198	0xbcadf753	-0.021236097
199	0xbd2a9de7	-0.041654494
200	0xbdb9443c	-0.09046218
201	0xbd75b6fa	-0.059988953
202	0x3dbfda8d	0.09367857
203	0x3d5a43a2	0.053287156
204	0xbdb585a2	-0.08863379
205	0x3d1c4655	0.03815301
206	0x3d05a0f8	0.032624215
207	0x3d138eed	0.036024977
208	0xbb598b0f	-0.0033194458
209	0x3c93b0d3	0.018028652
210	0x3da40cc6	0.08010249
211	0x3d6525cf	0.05594426
212	0x3dda66f1	0.10664166
213	0x3e1dc13b	0.15405743
214	0xbe287e60	-0.16454458
215	0x3dae47d7	0.08509796
216	0x3d132cb8	0.03593132
217	0x3d05f3fd	0.03270339
218	0xbc9b85ca	-0.018984694
219	0xbd058e49	-0.032606397
220	0xbd0d175b	-0.0344461
221	0xbd4a0464	-0.049320593
222	0x3daf7b21	0.08568407
223	0xbccc0c6b	-0.024908265
224	0xbd9a5c4d	-0.07537136
225	0x3cb2de01	0.021834375
226	0x3d455867	0.04818001
227	0xbbf8ef1c	-0.0075968634
228	0x3dd093aa	0.10184415
229	0xbde9d065	-0.11416701
230	0x3e1c3cf6	0.1525763
231	0xbe6abd0a	-0.22923675
232	0x3d49e0ad	0.049286533
233	0xbd01f4a9	-0.031727467
234	0x3d5ccd52	0.053906746
235	0x3d8c3af0	0.06847179
236	0x3ce00f9e	0.027351197
237	0x3d8a41bb	0.06750818
238	0x3c495abc	0.012289699
239	0x3e10fb20	0.14158297
240	0x3d35d5de	0.044393413
241	0x3c3f95e3	0.011693451
242	0x3ce0b02a	0.027427752
243	0x3e2af57f	0.16695212
244	0xbd8d2265	-0.06891326
245	0x3d1cd3dc	0.038287982
246	0x3dc1fc8b	0.09471997
247	0xbda5c09c	-0.08093378
248	0xbba7b0f2	-0.005117529
249	0x3ce68295	0.028138438
250	0x3d744c47	0.059643056
251	0xbd4f7821	-0.050651673
252	0xbd8b1607	-0.06791311
253	0xbe3b8cbc	-0.18315405
254	0x3c309a81	0.010779024
255	0x3c36a839	0.011148506

fc3.weight f4 [256, 256]
0	0x3d55d18e	0.0522018
1	0xbe5c9838	-0.21542442
2	0xbd61a0b3	-0.055084895
3	0xbe9186b6	-0.2842309
4	0xbb88a8af	-0.0041704993
5	0xbe935270	-0.28773832
6	0xbd09607b	-0.033539277
7	0x3d02f0cf	0.031967934
8	0xbe63235d	-0.22181459
9	0xbc1ad4a6	-0.009450113
10	0xbd7940dc	-0.06085287
11	0xbd053ad9	-0.032526825
12	0xbb10b3ac	-0.002207975
13	0x3dcf4a5b	0.10121604
14	0xbe3b4762	-0.18288949
15	0xbe95b04e	-0.29236072
16	0xbe389d6e	-0.18028805
17	0x3e2f4631	0.1711662
18	0xbe2df74f	-0.16988872
19	0xbde35e5a	-0.111019805
20	0xbe3e7b9d	-0.18601842
21	0xbe5dfe83	-0.2167912
22	0xbddb4527	-0.10706549
23	0x3db5f748	0.08885056
24	0x3d0285c1	0.03186584
25	0x3d11d4f3	0.035603475
26	0xbd93c6ef	-0.07215678
27	0xbe777a5b	-0.24167769
28	0xbc5cfaaa	-0.013487497
29	0x3d37658a	0.04477457
30	0xbc984fc1	-0.018592717
31	0x3d428e4c	0.047498986
32	0x3ba0fded	0.004913083
33	0xbe374efc	-0.17901224
34	0xbc04c45d	-0.008103457
35	0x3d85b63b	0.06528898
36	0x3e4e9018	0.20172155
37	0x3d8401e7	0.06445675
38	0x3d556c9f	0.052105542
39	0xbd48b158	-0.048997253
40	0xbcb62ebf	-0.022239087
41	0x3e1b6d8e	0.1517851
42	0xbce2c09d	-0.027679736
43	0x3c45ca4a	0.012072155
44	0xbe259cd7	-0.16173111
45	0x3dade43c	0.08490798
46	0xbe7eb2da	-0.24872914
47	0xbe8c2c63	-0.27377614
48	0xbe1e0b2f	-0.15433954
49	0xbd6af749	-0.057364736
50	0x3ddf536f	0.109045856
51	0xbd3df51f	-0.046376344
52	0xbdb9b269	-0.09067232
53	0x3ce444fb	0.027864924
54	0xbd21765c	-0.039419517
55	0xbe213f55	-0.15746816
56	0xbeb9a64a	-0.3625968
57	0x38b1b7a6	8.474225e-05
58	0x3c852ab8	0.016255721
59	0xbd7844a2	-0.06061233
60	0xbe5773c6	-0.21040258
61	0xbeb162fb	-0.3464583
62	0xbd3b08e8	-0.04566279
63	0x3e53e67c	0.20693392
64	0xbd80a98a	-0.06282337
65	0x3d112709	0.035437617
66	0x3d86a8b6	0.06575148
67	0x3e206bd6	0.15666136
68	0xbdf2be5e	-0.11852716
69	0xbc873692	-0.016505513
70	0x3cfbb064	0.030723758
71	0xbd62fd2d	-0.05541723
72	0xbe33d30c	-0.17560977
73	0xbc809f45	-0.015700946
74	0x3d4a53a8	0.049396187
75	0x3d317a31	0.04332942
76	0xbe26e3d3	-0.16297846
77	0xbda21cdb	-0.0791566
78	0xbd964734	-0.073378
79	0xbea23ac9	-0.31685475
80	0x3dd38fe9	0.10330183
81	0x3d9ef058	0.07760686
82	0x3c7a5403	0.015278819
83	0xbea255bd	-0.31706038
84	0x3db36bb8	0.0876078
85	0x3e111d52	0.14171341
86	0x3d35ac4e	0.044353776
87	0xbd5529de	-0.05204188
88	0xbb900597	-0.0043951976
89	0xbcd7da74	-0.026349284
90	0x3d4740f3	0.048645925
91	0x3d0f4d26	0.034985684
92	0xbec7c96a	-0.39020854
93	0x3ec7ec65	0.39047542
94	0xbead29af	-0.33820865
95	0x3e4935f1	0.19649483
96	0x3d6c9c92	0.057766505
97	0xbd5bc03d	-0.05365013
98	0x3e17aa6d	0.14811106
99	0x3d6dfbad	0.058101345
100	0x3d614c72	0.055004545
101	0x3cfb2ef1	0.030662032
102	0x3d31b72b	0.043387573
103	0x3d876c04	0.06612399
104	0x3d373994	0.044732645
105	0x3c3a04e8	0.011353709
106	0xbd1204bf	-0.035649057
107	0xbe85c53f	-0.2612705
108	0xbde299f1	-0.11064518
109	0xbe0a2281	-0.13489725
110	0xbc41ff78	-0.011840694
111	0xbc8f3b84	-0.017484434
112	0xbba79f31	-0.0051154126
113	0xbddc9d7a	-0.10772224
114	0xbc6dfa3a	-0.014524991
115	0x3c2e28ab	0.010629813
116	0x3d15de2c	0.036588833
117	0xbdd60a69	-0.10451204
118	0x3d0935a6	0.03349843
119	0x3d01b1fb	0.031663876
120	0xbb836480	-0.0040097833
121	0x3d8776ea	0.06614478
122	0x3e2a45f6	0.1662825
123	0xbce15ec2	-0.027511004
124	0x3d85538d	0.06510077
125	0x3e6d6bf7	0.23185717
126	0xbe5cc7b0	-0.2156055
127	0xbe31347a	-0.17305174
128	0x3e10b31b	0.14130823
129	0x3e394e59	0.18096294
130	0xbe63ac32	-0.22233656
131	0x3c7a4588	0.015275367
132	0x3da8063a	0.082043126
133	0x3d18a569	0.037267122
134	0x3d7199ee	0.05898469
135	0xbddeaf14	-0.10873237
136	0xbeb58c66	-0.35458678
137	0x3d8d163f	0.06889009
138	0x3dd987a1	0.10621572
139	0x3d82b5fb	0.06382366
140	0xbe4d5e6c	-0.2005555
141	0x3bcd788b	0.0062704734
142	0x3da000d2	0.078126565
143	0x3e1af761	0.1513343
144	0xbda09632	-0.078411475
145	0xbe353b96	-0.17698511
146	0xbef2a4b4	-0.47391284
147	0xbe200ef5	-0.15630706
148	0x3de88342	0.113531604
149	0x3cb0c7e8	0.021579698
150	0x3c9d0f19	0.019172238
151	0x3d477003	0.048690807
152	0xbde369a9	-0.111041375
153	0x3c220371	0.009888516
154	0xbe902025	-0.28149524
155	0xbbfce23a	-0.007717398
156	0xbe53b1e0	-0.20673323
157	0x3d1724f1	0.036900464
158	0xbcdc9447	-0.026926173
159	0x3d38deae	0.04513424
160	0x3d7c84c6	0.06165006
161	0xbdb64df2	-0.08901586
162	0x3db4543c	0.08805129
163	0xbe0dd8c1	-0.13852216
164	0xbe4c26e2	-0.19936708
165	0xbd9f72e3	-0.07785585
166	0x3ccda315	0.025102178
167	0xbe1ef066	-0.15521392
168	0xbe954102	-0.2915116
169	0xbdc91bb1	-0.09819735
170	0xbc0f2c2b	-0.008738558
171	0xbbe0c46c	-0.006859353
172	0xbca6a60f	-0.020342855
173	0xbf1987ad	-0.5997265
174	0xbd878960	-0.06617999
175	0xbc2b40a1	-0.01045242
176	0x3c5ed357	0.013600192
177	0x3df3430a	0.11878021
178	0xbedeae10	-0.43492174
179	0x3b551498	0.0032513496
180	0x3d4dbe2b	0.050230186
181	0x3db1c7c5	0.08680681
182	0x3e7e11a2	0.24811414
183	0xbdd497d7	-0.10380524
184	0x3d591bf9	0.053005192
185	0xbd9c0ebb	-0.07619997
186	0xbe914a10	-0.28376818
187	0xbe293111	-0.16522624
188	0x3d33907e	0.04383897
189	0x3cb50ff3	0.022102332
190	0xbd4b8f2b	-0.049697082
191	0xbd619bab	-0.055080097
192	0x3d224880	0.039619923
193	0xbda39512	-0.07987417
194	0xbd9db0da	-0.076997474
195	0xbd2c45cb	-0.042058747
196	0x3976c3df	0.00023533356
197	0x3c89175a	0.016734768
198	0xbd558c3b	-0.052135687
199	0xbe007fe2	-0.12548783
200	0x3cbe4c20	0.023229659
201	0x3ddb446d	0.107064106
202	0x3c99c532	0.018770788
203	0xbd1e9ac1	-0.038721804
204	0x3c8dfdcd	0.017332936
205	0x3bf110d6	0.0073567433
206	0xbc72d77c	-0.014821883
207	0x3eaa82a8	0.33302808
208	0x3e0de22f	0.13855813
209	0xbe666cea	-0.22502485
210	0x3e562fd3	0.20916681
211	0x3da7ffb3	0.08203068
212	0xbe8c1b65	-0.2736465
213	0x3e0f43aa	0.13990656
214	0x3e59b32b	0.21259753
215	0xbc851646	-0.016245972
216	0x3e3c6bba	0.1840047
217	0xbd8a531d	-0.06754134
218	0xbc87412e	-0.016510572
219	0x3d098bfc	0.033580765
220	0x3c909bb5	0.017652372
221	0x3d430166	0.047608756
222	0xbd44d800	-0.048057556
223	0x3d6b19bd	0.057397593
224	0x3d0f5cd0	0.035000622
225	0x3cd8cc3f	0.02646458
226	0xbd6271ae	-0.055284195
227	0x3cbc6e2a	0.023001749
228	0x3d665cb9	0.05624077
229	0x3d0f41f0	0.034974992
230	0xbdb83a76	-0.089955255
231	0xbeabb394	-0.33535445
232	0x3dabe7b2	0.08393802
233	0xbeb6c7a9	-0.35699204
234	0xbd48a2f8	-0.048983544
235	0xbe007e2d	-0.12548132
236	0xbe41c652	-0.1892331
237	0xbe02abaf	-0.12760805
238	0x3df3c14a	0.11902101
239	0xbe47c3bd	-0.19508262
240	0x3e319848	0.17343247
241	0xbe9115c1	-0.2833691
242	0xbd9184ea	-0.071054295
243	0xbd9068ab	-0.07051214
244	0x3d3119ce	0.0432375
245	0xbeb7cfba	-0.3590067
246	0x3df62ef5	0.12020675
247	0x3d6c4606	0.057683967
248	0xbddc2f9a	-0.10751267
249	0xbc510fe9	-0.012760141
250	0xbd4290c7	-0.04750135
251	0xbe02b99a	-0.12766114
252	0x3d1ab9ad	0.03777473
253	0xbefccec5	-0.49376503
254	0x3dc15c29	0.09441406
255	0xbd0e6caf	-0.034771618

fc3.bias f4 [256]
0	0x3b0d9f18	0.002160972
1	0xbcafcaf0	-0.021459073
2	0xbe1c8d34	-0.1528824
3	0xbd590d03	-0.052990925
4	0x3d8d367b	0.06895157
5	0xbcfa2c9c	-0.03053885
6	0x3d0ce755	0.034400303
7	0x3ca994f5	0.020700911
8	0xbd20f616	-0.039297186
9	0x3dd87803	0.105697654
10	0xbdb1979f	-0.086714976
11	0xbd759cf9	-0.059964154
12	0x3e2a2813	0.1661685
13	0x3e350613	0.17678098
14	0x3d1cc693	0.038275313
15	0xbde179d8	-0.11009568
16	0x3c9d2916	0.01918463
17	0x3e27b237	0.16376577
18	0x3e131c06	0.14366159
19	0xbdf6ab21	-0.12044359
20	0xbc89fd7a	-0.0168445
21	0xbc6484d0	-0.013947681
22	0xbc8cf3f9	-0.017206179
23	0x3e158b0d	0.14603825
24	0xbe1b93a4	-0.15193039
25	0xbe09bbaa	-0.13450494
26	0x3d7c34f9	0.061573956
27	0x3d93c39a	0.072150424
28	0x3e25487f	0.16140936
29	0x3dfda22d	0.12384448
30	0xbe417aca	-0.18894497
31	0xbdf0f0e9	-0.117647
32	0x3e6b6647	0.22988234
33	0xbdbf416d	-0.09338651
34	0x3deb18d1	0.11479343
35	0x3d61fe78	0.05517432
36	0x3e1186d6	0.14211592
37	0xbe383022	-0.17987111
38	0x3e1ec796	0.15505823
39	0xbde21fcb	-0.1104122
40	0xbd8f5832	-0.06999244
41	0x3c7152f0	0.0147292465
42	0xbd99e8cd	-0.07515106
43	0x3d33b9d8	0.043878406
44	0xbe132498	-0.14369428
45	0x3cb8ebe3	0.022573417
46	0x3e048a45	0.1294337
47	0x3de127cd	0.109939195
48	0xbccb9b94	-0.024854459
49	0xbda59e95	-0.08086888
50	0x3dd9f013	0.10641494
51	0x3d3569dd	0.044290412
52	0xbd81422e	-0.06311451
53	0xbdc00233	-0.093754195
54	0x3dc97725	0.09837178
55	0xbda21288	-0.07913691
56	0x3e2b9f83	0.16760068
57	0x3cc8581d	0.024456078
58	0x3e00bd5e	0.12572238
59	0xbe3be0b4	-0.18347436
60	0xbdd87d4d	-0.10570774
61	0x3e13e4ca	0.14442745
62	0x3d80c6b3	0.06287899
63	0xbdc2ff62	-0.09521367
64	0xbdabf1ec	-0.08395752
65	0xbd5ed3b0	-0.0544011
66	0x3da55687	0.080731444
67	0x3ded815f	0.11596941
68	0xbca7df84	-0.020492323
69	0x3e1bf66b	0.1523072
70	0xbb98b788	-0.0046605505
71	0xbe5cef53	-0.2157567
72	0xbe1cb885	-0.15304764
73	0x3cf8b1db	0.030358246
74	0xbdbbff93	-0.09179606
75	0xbd954493	-0.0728847
76	0x3df8825a	0.121342376
77	0x3db6b504	0.08921245
78	0xbdc05066	-0.09390335
79	0x3cbeda9b	0.023297599
80	0x3da58d1b	0.08083554
81	0xbda16f62	-0.07882573
82	0x3d7acecd	0.061232377
83	0x3da3932e	0.07987057
84	0xbe02db5c	-0.12778991
85	0xbd4b2260	-0.04959333
86	0xbc9003d6	-0.017579954
87	0xbd38ef04	-0.045149818
88	0x3d1aface	0.037836842
89	0xbdb6967b	-0.089154206
90	0x3c40832e	0.011750026
91	0xbcff4ba2	-0.031163994
92	0x3da141a8	0.07873851
93	0xbdb5897a	-0.08864112
94	0x3e01ca09	0.12674727
95	0xbc1c34d7	-0.009534082
96	0x3d9b49c5	0.0758243
97	0xbe320a6f	-0.17386793
98	0xbd507fa9	-0.050902996
99	0xbddfc4f9	-0.109262414
100	0xbdb8d27d	-0.090245225
101	0xbd8ceb8c	-0.068808645
102	0xbab32c96	-0.0013669904
103	0xbdbcd516	-0.092203304
104	0xbe07bb1e	-0.13254973
105	0xbd89dee4	-0.06731966
106	0xbdee76c2	-0.11643745
107	0xbd88c4a8	-0.06678134
108	0x3db75440	0.08951616
109	0xbdb60169	-0.08886988
110	0xbd9004ff	-0.07032203
111	0x3d8e7b1e	0.069570765
112	0xbe2247e5	-0.15847738
113	0x3d399747	0.045310285
114	0xbc858957	-0.01630084
115	0xbe26c469	-0.16285862
116	0x3e05700f	0.13031028
117	0xbd939f09	-0.07208068
118	0xbdec10ba	-0.11526628
119	0x3d5c4b04	0.053782478
120	0xbe324b2c	-0.17411488
121	0xbd311b13	-0.04323871
122	0x3de01987	0.10942369
123	0x3df40e87	0.11916833
124	0xbdf2fa7d	-0.11864183
125	0x3d508cac	0.050915405
126	0xbdd8da97	-0.10588568
127	0xbd884c0b	-0.06655129
128	0xbc5763ac	-0.013146322
129	0xbdf72908	-0.12068373
130	0x3d8cfc99	0.06884117
131	0x3d2a0541	0.041508917
132	0x3e12bad4	0.14329082
133	0xbd6f9293	-0.058489393
134	0x3dac1ac1	0.084035404
135	0xbde2c316	-0.11072366
136	0x3d2e6909	0.042580638
137	0xbde163ed	-0.110053875
138	0xbe2017c9	-0.15634073
139	0xbe247d4d	-0.16063423
140	0x3e2debe7	0.16984521
141	0xbd1daaf4	-0.03849311
142	0xbd8b45db	-0.06800433
143	0x3e4ef037	0.20208822
144	0x3bdbbab1	0.006705605
145	0xbdc04d62	-0.093897596
146	0x3d2e4d6e	0.04255431
147	0x3e509bc0	0.20371914
148	0x3d00e432	0.031467624
149	0xbe48b674	-0.1960085
150	0x3d6c9398	0.057757944
151	0x3e0f1b1c	0.13975185
152	0x3dcce9b5	0.100055136
153	0xbcb36751	-0.021899851
154	0xbd953a8b	-0.07286557
155	0xbe356099	-0.1771263
156	0xbe14f7e2	-0.14547685
157	0xbd5812a8	-0.052752167
158	0x3dd42f43	0.10360577
159	0xbd86b9cc	-0.06578407
160	0x3d601028	0.054702908
161	0x3db78d8b	0.08962544
162	0xbdbf7c1f	-0.09349846
163	0x3cc40515	0.023928205
164	0xbddd7dbb	-0.10814997
165	0xbdc66b91	-0.096884854
166	0x3e1f48fc	0.15555185
167	0xbe17fa42	-0.1484156
168	0x3e098866	0.13430938
169	0x3d0501b0	0.032472312
170	0x3d86c91e	0.06581329
171	0x3a592811	0.00082838634
172	0x3d7d8baf	0.06190079
173	0x3d258913	0.040413927
174	0xbdeedcd3	-0.116632126
175	0x3e364dd7	0.17803131
176	0x3dcd6a27	0.100300126
177	0xbd494214	-0.049135283
178	0x3cf7b8a5	0.030239413
179	0x3c09154f	0.008366897
180	0xbd106d2a	-0.035260357
181	0xbdf4f16f	-0.11960112
182	0xbdcf4207	-0.101200156
183	0x3e0b0ea9	0.13579811
184	0xbd12d4b8	-0.035847396
185	0x3e03377c	0.12814134
186	0x3e00c586	0.12575349
187	0xbdfad47c	-0.122475594
188	0xbd674793	-0.056464743
189	0xbe0462b6	-0.1292828
190	0x3ccb866b	0.024844369
191	0xbe080935	-0.13284762
192	0xbda23a71	-0.07921303
193	0x3e17659b	0.14784853
194	0xbce9c704	-0.02853728
195	0x3df938bc	0.12169024
196	0xbe1b5221	-0.15168048
197	0xbaa42b54	-0.001252512
198	0xbcf825e2	-0.030291501
199	0x3cd4f11c	0.025993876
200	0x3d3abead	0.045592
201	0xbde289ad	-0.11061416
202	0x3df066e2	0.11738373
203	0xbd1d5a13	-0.03841598
204	0xbe2e178d	-0.17001171
205	0x3e112373	0.14173679
206	0xbd970bd8	-0.07375306
207	0xbe0584a0	-0.13038874
208	0x3e1a73ed	0.15083285
209	0xbc1be715	-0.0095155435
210	0x3d97cb6d	0.07411847
211	0x3da63f1c	0.08117506
212	0x3e28285e	0.16421649
213	0x3d00994f	0.031396206
214	0xbe1f56ad	-0.15560408
215	0xbe1814d2	-0.14851692
216	0x3df603d9	0.12012453
217	0xbd68ddc3	-0.056852113
218	0xbe146af0	-0.14493918
219	0x3d9c7897	0.07640188
220	0x3dfdfe49	0.12402017
221	0x3d113a8f	0.035456236
222	0xbc83a8e3	-0.016071742
223	0x3cf8ccb0	0.03037104
224	0x3d8f62cf	0.07001268
225	0x3d465c39	0.048427794
226	0xbd9885c2	-0.07447387
227	0x3db9aa42	0.09065677
228	0xbd48d863	-0.049034487
229	0x3a0638fd	0.0005120186
230	0xbd8c5f68	-0.06854135
231	0x3d50c528	0.050969273
232	0xbe0cc2ea	-0.13746229
233	0x3e11c127	0.14233838
234	0x3de1fb2d	0.11034236
235	0xbe12ee37	-0.14348684
236	0xbd337a8e	-0.04381805
237	0xbe007ae3	-0.12546878
238	0xbcb97a7f	-0.022641419
239	0xbda9b150	-0.08285773
240	0xbd7a7e48	-0.061155587
241	0x3dacc830	0.0843662
242	0xbe07531d	-0.13215299
243	0x3d540d10	0.05177027
244	0x3d5c2af2	0.053751893
245	0xbe2d41b5	-0.16919596
246	0xbd63f975	-0.055657823
247	0xbe08fdd6	-0.1337808
248	0x3dbfa365	0.09357337
249	0xbe0b51e4	-0.13605458
250	0xbc93c332	-0.018037412
251	0xbe0e1768	-0.13876116
252	0xbd90f56e	-0.07078062
253	0x3e04b9ab	0.12961452
254	0x3d8a6892	0.067582265
255	0xbd336613	-0.043798517

output.weight f4 [4, 256]
0	0xbd60faa4	-0.05492653
1	0x3d8a67b8	0.06758064
2	0xbe2de337	-0.16981207
3	0xbd98450e	-0.07435046
4	0x3d14f02b	0.036361855
5	0xbe228cd3	-0.15874033
6	0xbcd7386a	-0.026272018
7	0x3d460dcc	0.048353
8	0x3d28caab	0.041208904
9	0x3d260a08	0.04053691
10	0x3de4a9bf	0.11165189
11	0xbd430000	-0.047607422
12	0xbe16cd3c	-0.14726728
13	0xbd0a2ca0	-0.033733964
14	0xbda78e7c	-0.081814736
15	0xbd0be9fb	-0.034158688
16	0xbaa59024	-0.0012631458
17	0xbcf538d3	-0.029934322
18	0x3cab8a51	0.020939978
19	0x3d14a77c	0.036292538
20	0xbdcda5f3	-0.10041418
21	0x3e5a1883	0.21298413
22	0xbd65a918	-0.056069463
23	0x3ddd0953	0.10792794
24	0x3d33f293	0.04393251
25	0x3c0647ad	0.0081958
26	0xbc326390	-0.010887995
27	0x3d6b2cdb	0.057415824
28	0xbe11067b	-0.14162628
29	0xbdbd2419	-0.09235401
30	0x3cdcfd39	0.026976215
31	0xbd2add06	-0.04171469
32	0xbda763c5	-0.081733264
33	0x3cd8664e	0.02641597
34	0xbcfaa40b	-0.0305958
35	0x3d89e3e0	0.06732917
36	0x3c86d7bf	0.016460298
37	0xbd3025ea	-0.043004908
38	0xbd43026a	-0.047609724
39	0xbd57f733	-0.052725982
40	0x3d062d6d	0.032758165
41	0x3dc9dbd4	0.09856382
42	0xbd0a5197	-0.033769216
43	0x3c3c27a4	0.01148406
44	0x3e1eca6b	0.15506904
45	0xbe282fc2	-0.16424468
46	0x3d2e42df	0.042544242
47	0xbdb1a909	-0.08674819
48	0x3d53acc4	0.051678434
49	0xbdfc1b1a	-0.12309857
50	0xbcf89823	-0.030345982
51	0x3d8fa632	0.07014121
52	0xbc6706ec	-0.014100771
53	0xbd86fba4	-0.065909654
54	0xbe247972	-0.16061953
55	0x3d0723d3	0.03299315
56	0x3c1b62be	0.009483991
57	0xbcf004de	-0.029299196
58	0x3d7fb2a4	0.062426224
59	0xbc9d76e7	-0.019221736
60	0x3ddad675	0.10685436
61	0xbd536954	-0.05161412
62	0x3db2e0ec	0.08734307
63	0xbc55d2b5	-0.013050725
64	0x3dde43ad	0.10852752
65	0x3d52977f	0.05141401
66	0xbd15cd39	-0.03657267
67	0x3d64ca95	0.05585726
68	0xbdb95ecb	-0.090512834
69	0xbd225595	-0.0396324
70	0x3e4c2803	0.19937138
71	0x3cefdd0a	0.029280204
72	0xbd19a1d5	-0.03750785
73	0x3dafd089	0.08584697
74	0x3d16f0d1	0.036850754
75	0xbc1edff9	-0.009696954
76	0xbbbb4d77	-0.0057160216
77	0x3cc04983	0.023472553
78	0x3cdd8a5c	0.027043514
79	0x3d567c60	0.052364707
80	0x3d494ed8	0.049147457
81	0xbc9515d0	-0.018198878
82	0x3d933dbd	0.0718951
83	0x3d4dd631	0.050253097
84	0xbc80c2b1	-0.015717836
85	0x3de3a42b	0.11115297
86	0xbd3cc23e	-0.04608368
87	0x3e031ee6	0.12804756
88	0x3defc418	0.11707324
89	0x3dfd24ec	0.12360558
90	0x3bdbbe38	0.0067060255
91	0xbc1470e2	-0.0090601165
92	0x3e06ad02	0.13151935
93	0x3e2e6cd1	0.17033698
94	0xbd865578	-0.065592706
95	0x3dfa0367	0.1220768
96	0x3cb6c182	0.022309069
97	0x3cd559ec	0.026043855
98	0xbd9cd088	-0.07656962
99	0x3c8c775a	0.017146755
100	0xbe0c940b	-0.13728349
101	0xbd98a818	-0.07453936
102	0x3d059fca	0.03262309
103	0xbe1877cd	-0.1488945
104	0x3c6d0f10	0.014468923
105	0x3d70ec18	0.058818907
106	0xbb23a8a0	-0.0024972335
107	0x3dc3c49c	0.09558985
108	0xbd5a5ee0	-0.053313136
109	0xbbf3b9c6	-0.0074379174
110	0xbd75d728	-0.060019642
111	0xbe2d8b4d	-0.1694767
112	0xbe33b37a	-0.17548934
113	0x3d6b3848	0.05742672
114	0x3d885970	0.06657684
115	0xbce9ef9e	-0.028556641
116	0xbdf50561	-0.119639166
117	0xbd324ee6	-0.043532275
118	0x3da941cc	0.08264503
119	0x3d8ff1cb	0.0702854
120	0xbac9b9b4	-0.0015390427
121	0x3ce3b6b5	0.027797082
122	0xbc9a9dbf	-0.018874047
123	0xbd5119c1	-0.05104995
124	0x3dc9f413	0.098610066
125	0xbdf2774b	-0.118391596
126	0x3c1b5384	0.009480361
127	0x3dc930d3	0.098237656
128	0x3e054333	0.13013916
129	0xbc517f58	-0.012786709
130	0xbd7ed80c	-0.062217757
131	0x3da95524	0.082681924
132	0x3da9e793	0.082961224
133	0xbe58c1e9	-0.21167721
134	0xbc1408b7	-0.009035281
135	0x3cb8c78d	0.02255609
136	0x3db7c05d	0.08972237
137	0xbb8dd4b0	-0.004328333
138	0xbc1ea62c	-0.009683173
139	0x3dac6ddf	0.08419394
140	0x3e0f2397	0.1397842
141	0x3bd3f693	0.006468603
142	0xbcf73947	-0.03017868
143	0xbd3ba982	-0.045815952
144	0x3ddbe97e	0.107378945
145	0x3e1dedfd	0.15422817
146	0x3cfb1f35	0.03065453
147	0x3d99d769	0.07511789
148	0xbcfa0fcd	-0.030525113
149	0x3cafbc42	0.021452073
150	0x3d1c8a66	0.038217925
151	0xbce91215	-0.028451005
152	0xbdce2fec	-0.10067734
153	0xbe1224e7	-0.1427189
154	0xbb4784c2	-0.003044412
155	0x3db801a4	0.08984688
156	0xbdc0deb5	-0.09417478
157	0xbe105193	-0.14093618
158	0x3e0bb1b8	0.13642013
159	0xbd49dd30	-0.049283206
160	0x3d2e231d	0.042513955
161	0xbd9d7477	-0.076882295
162	0xbe051725	-0.1299711
163	0x3dcd05a3	0.10010841
164	0x3dbbbc6c	0.09166798
165	0xbb59783f	-0.0033183245
166	0x3c6f52dd	0.0146071585
167	0xbe02451b	-0.12721674
168	0x3d7e65c4	0.06210877
169	0x3d1c6696	0.03818377
170	0xbd69ead7	-0.057108726
171	0x3c5c9141	0.013462366
172	0x3c26f3e9	0.010189989
173	0x3ca78f83	0.020454174
174	0xbce69f7a	-0.028152216
175	0x3d73bbd1	0.059505288
176	0x3dd1a563	0.10236623
177	0x3e10b084	0.14129835
178	0xbc877d39	-0.016539203
179	0xbd8c1913	-0.0684072
180	0x3da24ab3	0.07924404
181	0xbd47a746	-0.04874351
182	0x3e3327b9	0.17495622
183	0xbd46bdbd	-0.048520792
184	0x3c71d786	0.014760857
185	0x3b55176e	0.0032515186
186	0xbdbd093e	-0.092302784
187	0x3e10d9c4	0.14145571
188	0x3c899257	0.016793413
189	0xbdbc1c5f	-0.09185099
190	0x3826fe68	3.981442e-05
191	0xbc47baba	-0.012190515
192	0x3c7afee2	0.015319558
193	0x3cd87e38	0.026427373
194	0x3deb515d	0.11490128
195	0x3cc940ea	0.024567086
196	0xbcb848dd	-0.022495681
197	0xbd4b77f2	-0.049674936
198	0xbdaae600	-0.0834465
199	0xbddc9259	-0.10770101
200	0x3db75d9b	0.08953401
201	0xbc2b7026	-0.01046375
202	0xba585117	-0.00082518294
203	0x3bdcfc64	0.0067439545
204	0xb9d2bfde	-0.00040197273
205	0x3994ccf4	0.00028381462
206	0x3cc70249	0.024293082
207	0xbdbcebd6	-0.0922467
208	0xb8c14458	-9.215687e-05
209	0x3d431759	0.047629688
210	0xbdf6e181	-0.1205473
211	0x3d7501d7	0.059816208
212	0xbdf29d4e	-0.1184641
213	0xbcf23c56	-0.029569786
214	0x3cc92b57	0.024556799
215	0xbb125871	-0.0022330547
216	0x3d67fdd3	0.05663855
217	0xbdb5b94e	-0.08873235
218	0xbd3204c0	-0.04346156
219	0xbd0f7e30	-0.03503245
220	0xbdd79cad	-0.105279304
221	0x3d4d3043	0.050094854
222	0xb9cc3728	-0.00038951007
223	0x3d148466	0.036259077
224	0x3d268fc2	0.040664442
225	0x3ca3b295	0.019982615
226	0xbdc87704	-0.097883254
227	0xbcf3002f	-0.029663173
228	0xbb3239a8	-0.002719501
229	0xbd61bd65	-0.05511226
230	0xbe06141f	-0.13093613
231	0xbdcdcf78	-0.10049337
232	0xbdaa8c27	-0.08327513
233	0xbc2dae0c	-0.010600578
234	0xbd940b64	-0.07228735
235	0xbde63abb	-0.11241671
236	0x3de05ac5	0.10954813
237	0x3c835338	0.016030893
238	0xbd41c341	-0.04730535
239	0x3d94b7c8	0.07261616
240	0x3d8e2ce5	0.06942157
241	0xbdcc5cfe	-0.09978674
242	0xbaf883e8	-0.001896021
243	0x3dada05f	0.08477854
244	0x3d75174b	0.059836667
245	0x3dcbcb84	0.09950927
246	0x3d74e2d1	0.05978662
247	0x3dabbf08	0.08386046
248	0xbc116371	-0.008873806
249	0x3ab5e7a4	0.0013878238
250	0xbd43674c	-0.047705933
251	0xbd5d6080	-0.054047108
252	0x3df1b596	0.11802213
253	0x3d8092f2	0.062780276
254	0xbd9086b5	-0.07056943
255	0x3d92d8ee	0.07170282

output.bias f4 [4]
0	0xbd245dcb	-0.04012851
1	0x3cb74d3a	0.022375692
2	0x3d2ec053	0.042663883
3	0xbcfdfb41	-0.031003596
