fetch_sticky_mittens_step/networks/ours_10k_block_3_uber_level_0_seed_150/network_pick_n_reach_goal_2.pth (torch, 596855 bytes, 8 tensors)

fc1.weight f4 [256, 60]
00000000: 7b88 173d d2d6 b83d c1ac 8f3c 1e30 cfbc
00000010: 1a57 10bb 3e20 a73d e556 f93d f7fe dc3d
00000020: 37bc 13bd 5efa b2bd ede6 ee3b 512d 263d
00000030: 54c8 ea3d 5189 823d a4c4 d9bd 93c5 0fbd
00000040: 63b8 40bc 82e8 f6bc f413 08bd 027f 7b3d
00000050: 3278 aebd 8609 febd 20ff ed3c db3d f63d
00000060: bcf1 f9bd a9c8 ee3d 149a 8e3d 0797 253d
00000070: 7dba 003e 6f9b 9d3d 2a8c d8bd d0bf edbd
00000080: 94d6 003e 6936 f5bc 00d2 d2bd d830 e23c
00000090: 569e f1bd ae13 003e 15a1 b23d aeed b73d
000000a0: 7d2b 9dbc dd5c a5bd 2f63 f33d 50d2 c83d
000000b0: 6711 973d 2c40 d0bd c7ca 6d3c 9f93 c3bd
000000c0: f093 80bc aee9 013e 9720 52bd 9231 56bd
000000d0: 2a42 f2bd 13c2 1fbd f7bd 4e3d 8ed6 f43d
000000e0: b456 4bbb fcae d93d e121 9fbd a192 8b3d
000000f0: e52f d7bc ff19 c0bd a3b7 cabd ccfc 8d3d
00000100: 2575 e4b9 2587 bbbc c813 cfbd a65d c13d
00000110: 513c e2bd 8309 7c3d 4479 fe3d 4f3f 2dbd
00000120: 31ad d13d e10f 03bd 3199 ad39 77a7 ddbd
00000130: 78b2 1bbd 8e6a f0bd 6c82 40bd 3343 e93d
00000140: 042c 90bd a5d9 163c 4816 11bd dcd9 d8bc
00000150: d213 93bc 6d09 c1bc 649d 02be 6160 a3bc
00000160: 1152 a5bd 43de e33d 521d b63d fa02 8c3c
00000170: c781 a2bb 198b db3d f5d0 d63d 1099 ea3d
00000180: 14de 4ebc 4e6a d7bd 0ce0 f1bd ac54 9fbd
00000190: 0499 afbd 30fd 903d 54cd 193c 7218 4b3d
000001a0: 409b 81bd 7039 023e 1d3d cc3c 6aa8 d83d
000001b0: 411f d83d bd23 e5bd def3 d73b deb6 063d
000001c0: 15f7 07bd b14e a1bd 007a 6bbd ab89 e9bd
000001d0: f676 c3bd f38d c9ba 708e 94bd 1c07 e9bc
000001e0: bd5e f53d 1007 d03d 0cbd e23d 00b7 543d
000001f0: a6ac 1cbd 6614 353d da90 913d 32dc a9bd
00000200: cccf a03d 65cb d5bd b124 b0bd 1c54 c63d
00000210: a3d9 e1bc 5306 fdbd 21ba e3bd e0d1 5d3c
00000220: 9d14 bebc e497 683d 766f fcbd 3111 d1bd
00000230: 8b47 d73d 6f35 033e 097b 77bb 0004 d9bd
00000240: b823 fa3d b1e6 5d3d de17 a53d 41c4 2fbc
00000250: dc22 02be 2832 963d ad07 d83d fe5e c23c
00000260: 49cc 443d 2754 f1bc 61d8 f03c 3f71 203b
00000270: a25e 26bd f623 2f3d 702e 43bd 3bc1 9c3d
00000280: 3c63 aebc 3a2f c6bd 50d1 8f3d 8056 773d
00000290: 746f 2fbd fe03 b8bd 2807 f23d 3da6 823d
000002a0: 2767 8b3d 3f7f 353d 1fac d33d 312c c4bd
000002b0: 0823 47bd 7aee b0bc d828 633c e20f 683c
000002c0: 5c1c 9f3d 7f61 a83d 095f f53d da1f 213d
000002d0: 52ff 33bd 4ebb 473d 422f f8bd 6caf 613d
000002e0: d0bf d63d e9ee d23c 7687 b73d 9155 04bd
000002f0: ddcd 1dbd e963 c73d 32d6 fd3d 598b c83d
00000300: 0d6d 3f3d 88ea 083d 3fc9 bdbd 3e0e 4abd
00000310: 1a29 9cbd d7ef bcbd 37f0 5d3c 9c2d a13d
00000320: 27ec b63d 7d0a 25bd 0f12 d6bd d444 b13d
00000330: 874a d1bc 4440 b23c 78fd f2bc 21ae 103d
00000340: 92f4 d1bd 5fe9 8e3d 6cc3 f73d 3001 a63d
00000350: c0be 773d 2515 99bd 6f81 a8bd a3e7 7ebd
00000360: 5f45 91bd 7ceb d13c 0e38 cebd 49c4 643d
00000370: 9298 c6bd 542a 963b 268a 24bd 5941 2b3d
00000380: 3a6c 56bd f0c5 023d aba6 d03c c1b5 38bd
00000390: 5dc7 9abc ad2f ba3c 932f a03d cc99 653d
000003a0: a56c bc3d 75f7 773d 4122 c3bb 20a7 a73d
000003b0: a61f b5bc 2237 eebd 21d1 b03d ef26 0dbb
000003c0: 79ce 98bd a019 4f3d 8bd2 f2bb 721f cc3d
000003d0: 229d 0fbd b636 b63d d62a 3e3d 9c47 dd3c
000003e0: 6a3d cebc 043e 8abd 8e17 e53d 6f56 eb3d
000003f0: 498f 00be 3399 d53d 118a b73c 0df1 993d
0.036995392 0.09025349 0.01753843 -0.025291499 -0.0022024573 0.081604466 0.12174777 0.10790818
-0.036068168 -0.0873916 0.007290712 0.04057056 0.11463991 0.06373847 -0.10633209 -0.03510053
-0.011762711 -0.030140165 -0.033222154 0.06140042 -0.08519019 -0.1240416 0.029052317 0.12023517
-0.1220431 0.11659367 0.06962982 0.040427234 0.1257114 0.07695662 -0.10573609 -0.11608851
0.12581855 -0.029933171 -0.102939606 0.027611181 -0.11797778 0.12507507 0.0872213 0.08980881
-0.019185776 -0.08074353 0.11884152 0.09805739 0.07376366 -0.1016849 0.014513678 -0.09549641
-0.015695542 0.12686798 -0.05130061 -0.052293368 -0.11829026 -0.039003443 0.050474133 0.119549856
-0.003102702 0.10629079 -0.07770134 0.068150766 -0.026267955 -0.09379958 -0.09898307 0.06932983
-0.00043574828 -0.02289159 -0.10111195 0.0944169 -0.11046661 0.06153251 0.12425473 -0.042296704
0.10238112 -0.031997565 0.00033111268 -0.10822957 -0.038011998 -0.11739074 -0.04699938 0.1138977
-0.07039645 0.009207164 -0.03542164 -0.026471071 -0.017953787 -0.023564065 -0.12755352 -0.019943418
-0.080722935 0.111263774 0.08892311 0.017091263 -0.0049593183 0.1071989 0.10489074 0.114549756
-0.01262619 -0.10518323 -0.11810312 -0.07779822 -0.08574107 0.07079542 0.009387333 0.04958386
-0.0632844 0.12717223 0.024931485 0.105789974 0.10552836 -0.11188457 0.0065903505 0.03288924
-0.03319462 -0.07876337 -0.057489395 -0.11403211 -0.095441744 -0.0015377387 -0.0725373 -0.028445773
0.119809605 0.10157597 0.11071214 0.051932335 -0.038250588 0.044208907 0.07107706 -0.08293952
0.07852134 -0.10439185 -0.08600748 0.09684011 -0.027569598 -0.12354722 -0.11119486 0.013538808
-0.023203189 0.05678548 -0.12325947 -0.10208357 0.105116926 0.12813352 -0.0037762544 -0.10596466
0.12213844 0.054175083 0.08061193 -0.010727943 -0.1270861 0.07333785 0.10548339 0.023726936
0.048046384 -0.029459072 0.029400053 0.0024481562 -0.040617593 0.042758904 -0.047651708 0.07654043
-0.021287553 -0.096769765 0.07022345 0.060385227 -0.0428309 -0.089851364 0.11817771 0.06379364
0.06806784 0.044310804 0.10335564 -0.09578741 -0.048617393 -0.02159809 0.013864718 0.014163943
0.07769081 0.08221721 0.11981017 0.039337017 -0.043944664 0.048762612 -0.12118389 0.055098936
0.10485804 0.025748687 0.08961384 -0.032308165 -0.038526405 0.09735853 0.1239437 0.097922035
0.04673486 0.03342679 -0.092669 -0.04932999 -0.07625027 -0.09225433 0.013546041 0.078700274
0.08931761 -0.040293206 -0.10452663 0.08655706 -0.025548233 0.02175916 -0.029661879 0.035322312
-0.10251726 0.06978106 0.12097821 0.08105695 0.060484648 -0.07474736 -0.082278125 -0.062232625
-0.070933096 0.025624983 -0.10069285 0.055851255 -0.09697069 0.0045826826 -0.04017081 0.041810367
-0.052349307 0.03192705 0.025470098 -0.04509521 -0.018893892 0.022727812 0.07821574 0.056054875
0.0920041 0.060538728 -0.005955011 0.081861734 -0.022109818 -0.116316095 0.08633638 -0.0021538099
-0.074612565 0.050561547 -0.0074103526 0.09966935 -0.035061963 0.08897154 0.04642757 0.027011685
-0.025175769 -0.0675011 0.11186133 0.11491095 -0.12554659 0.10429611 0.022404702 0.0751668

fc1.bias f4 [256]
00000000: bf20 80bc 700a 6e3d 0497 d83d 0b8d 7abd
00000010: 0b61 edbd e70b afbd 46eb 643c 11ac fc3d
00000020: 3bca d63c b44d d63d 5ffe a5bb f6ee fd3c
00000030: b5ed c5bd 49e0 23bc d06e e2bb 9786 58bd
00000040: ebe0 5ebd 926e 663d 54ff b9bd f14a 833c
00000050: 320f 33bd 998a 4abd c17c 3fbd 542f debd
00000060: 8a02 1f3d f07d d83d 3365 763d a29c 41bb
00000070: a789 a93d 3066 b2bd b2e0 ec3d a4ed 01be
00000080: 8e2a e9bd 81da a4bd 6eb0 7a3c dcce 613c
00000090: 9d2f be3d cc99 4a3d 3ccb e93d 5dc4 c13c
000000a0: c729 6abd abca 72bc 836a aabd d7ce babd
000000b0: 563d c23d 0bf5 ac3d 7803 db3c 5dc1 f53d
000000c0: 0efa b63b 0009 7dbd 23bd ab3c 00fe 803d
000000d0: 005d 313d ba02 9c3d afe1 1ebd 2886 643d
000000e0: 94ef 893d 0646 9b3d d973 d53d 09b1 a93d
000000f0: 4a3c 8a3c ca47 fa3d 134e 163d 1bb6 56bd
00000100: 927f b63d 023d 8ebd 3fe9 91bd c80b 03bb
00000110: 4a9e 25bd 95e9 af3d 9b3c 613d 297c 943d
00000120: 132f 7a3d 4f9b 033d 1dde fb3d cfae d03d
00000130: 9111 d9bd bef3 ef3c a850 ce3d 3fb5 fd3d
00000140: f488 97bd a5e0 d83d e175 f93d 9d90 d1bd
00000150: 3d19 123d 1023 e03d e426 7abd c0f4 14bd
00000160: 4f3e b3bd 4e39 f2bd 9dec 68bd 9aca b23d
00000170: f764 f13d ea2d 8fbb 61cd 533c 089d a5bc
00000180: 7f11 d0bd f60f 073d 3dd9 f13d c5b8 f53d
00000190: 3757 3e3d 65bb 1bbd 5e8e 6f3d 07bf 183d
000001a0: 0565 8a3d 15ea d93d c569 32bc 6695 6ebd
000001b0: 3d17 8cbd 95c3 8fbd 99e2 e6bd dbd9 87bd
000001c0: d2d3 85bd 8845 cdbd 57b3 04bd 2478 f9bd
000001d0: 4fa1 a5bd 7595 b53d 0fbb 18bd f266 823d
000001e0: 8a6f 15bd 1c1b 0abd 6385 3f3b 9824 183c
000001f0: 2abe 39bd ac06 883d 1643 d4bc 37f9 51bd
00000200: 7383 3fbd 0e3b a7bb 8914 bebd 11f3 083d
00000210: 85f0 d3bd 6dd9 f8bd 44fc a7bd 3bd7 42bd
00000220: 39a1 913d b7ce bf3a 7c6f ecbd 300e 1ebd
00000230: 21f5 003e 71b4 593d 19e6 52bd 687d dcbd
00000240: 4ef5 983d 3672 1f3d 0139 5dbd 60ff fa3c
00000250: c2bb b13d cceb 3c3d 8b3a 66ba e82e a03d
00000260: 31f6 f43d db9f 6a3d fde1 1abc 26d0 743d
00000270: ae53 513d bfd0 33bd 36cc fcbd c19f 09bd
00000280: efa5 96bd fa5d af3d c792 813d 663b 01be
00000290: 45ec b5bc 5162 b6bd 39b7 7dbc a0ff f0bd
000002a0: 5583 703c a53c afbd 7d78 683d 0474 013e
000002b0: 5e0a d13c 4036 bf3c dad2 03be 1c6d acbd
000002c0: aee6 f3bd de22 9c3d 0730 d8bd 804a 0d3c
000002d0: ca94 c83d 631a c13d 1b64 9d3d 952c a4bb
000002e0: c169 2ebc a0a6 90bd 346d d2bd 6095 18bd
000002f0: 240f aa3d d8df f83d 5091 4b3b 9bc0 ecbc
00000300: b2f1 e83d 6f50 843d 1603 b6bc 3bff bbbd
00000310: 2a16 3e3d afbb d13b 6969 48bc d9fb ca3c
00000320: 0144 c8bd 0a9e 1f3d d938 fdbd e522 843d
00000330: ba17 58bd 0d1c 8f3d 1b40 dfbd 4215 6cbc
00000340: 1c49 a73d 6093 a53d 6bd0 c93d 2bed c33d
00000350: bcec e8bd abb4 9c3d ab81 e63d 97ba 243d
00000360: e744 343d 828c 38bd acbc b5bd 3753 2cbd
00000370: dde8 76bd 18eb 17bd e6db 05bb 862e f83d
00000380: 7031 f63d 8f52 abbd 9c43 983c b856 f7bd
00000390: d2f4 c23d aad0 fe3d 832a 99bd b302 a4bd
000003a0: fc2b 563d 8b8e df3d bdf7 fbbd 3bdf ad3d
000003b0: e6e8 9bbd 3f0e e83d 889a 92bc 006a c43d
000003c0: 507e 97bc 610f 25bd 07c0 37bc 8255 da3c
000003d0: fb00 b0bd ffde e9bd 1f3f b73d 5bfa e7bd
000003e0: 658b 983d e831 7cbd fc9d 6abd f053 c6bd
000003f0: 36c2 623d 5ba9 9cbc 35d5 483d 0363 37bc
-0.015640615 0.058115423 0.10575679 -0.061169665 -0.11590775 -0.08547192 0.013972109 0.123375066
0.026219478 0.104640394 -0.005065724 0.030997735 -0.0966448 -0.010002204 -0.0069101825 -0.05286273
-0.054413717 0.05625779 -0.09081903 0.016026946 -0.043715663 -0.049448583 -0.046749834 -0.10848871
0.03882078 0.10570896 0.060155105 -0.0029542823 0.08278208 -0.08710897 0.11566295 -0.12688309
-0.1138507 -0.08049489 0.015300853 0.013782229 0.09286425 0.04946308 0.11415717 0.023653204
-0.05716875 -0.014818828 -0.08321097 -0.09121483 0.09484355 0.08445176 0.026735052 0.11999772
0.005584008 -0.06177616 0.02096421 0.06298447 0.043301582 0.076177076 -0.038789447 0.055792004
0.06735149 0.07581715 0.10422487 0.0828572 0.016874451 0.12220724 0.03669555 -0.052419763
0.08911051 -0.0694523 -0.07124566 -0.0019996036 -0.04043416 0.08589474 0.05498944 0.07250244
0.06108005 0.032130536 0.12298224 0.10189592 -0.10599054 0.02929103 0.10073978 0.123880856
-0.073991686 0.105897225 0.12180687 -0.10232661 0.0356686 0.10944188 -0.061072245 -0.036366224
-0.08752119 -0.11827336 -0.056866277 0.087300494 0.11786836 -0.004369487 0.012927384 -0.02021648
-0.10159587 0.032974206 0.11809013 0.119981326 0.046469893 -0.03802051 0.05848538 0.037291553
0.06757549 0.10640351 -0.010889475 -0.058247946 -0.0684037 -0.07019726 -0.11273689 -0.066333495
-0.06534542 -0.10023028 -0.032397594 -0.12181118 -0.08087408 0.08866397 -0.037287768 0.063672915
-0.036483325 -0.03371726 0.0029223792 0.009286068 -0.04534737 0.066418976 -0.025910895 -0.05126306
-0.04675622 -0.0051034754 -0.092812605 0.03343493 -0.1034861 -0.12150846 -0.08202413 -0.04756854
0.07110829 0.0014633749 -0.115447015 -0.03858775 0.1259351 0.053150598 -0.05148897 -0.10766107
0.07468663 0.03892728 -0.05400944 0.03063935 0.0867839 0.04612331 -0.00087825273 0.07821447
0.1196102 0.057281356 -0.009453294 0.05976882 0.051105194 -0.043900248 -0.12343638 -0.03359962
-0.07355868 0.085628465 0.06326824 -0.12620315 -0.022207389 -0.08905471 -0.015485578 -0.117675066
0.0146797495 -0.08556489 0.05675553 0.12641913 0.025517639 0.023341298 -0.12873402 -0.084192485
-0.11909233 0.07623838 -0.105560355 0.008623719 0.09794004 0.09428861 0.07685109 -0.0050101974
-0.010645331 -0.07063031 -0.10274735 -0.03725183 0.08303669 0.1215207 0.0031061955 -0.028900435
0.11374225 0.06460654 -0.022218268 -0.09179541 0.046407856 0.0064005475 -0.012232163 0.024778293
-0.09778596 0.038969077 -0.123643585 0.06451968 -0.052757002 0.06987772 -0.10900899 -0.014409365
0.081682414 0.0808475 0.09854206 0.095667206 -0.113732785 0.07651647 0.11255201 0.04021701
0.044011023 -0.045055874 -0.08873877 -0.042071547 -0.06028067 -0.037089437 -0.002042526 0.12118249
0.12021148 -0.08365356 0.018586926 -0.12077087 0.09519352 0.12442143 -0.074788116 -0.08008327
0.05228804 0.1091586 -0.12303112 0.084898435 -0.07612781 0.11330842 -0.017895952 0.095905304
-0.018492848 -0.04029787 -0.0112152165 0.026652101 -0.08593937 -0.11419486 0.08947586 -0.113270484
0.074484624 -0.06157103 -0.057279572 -0.096839786 0.055360995 -0.019123724 0.049031455 -0.01119304

fc2.weight f4 [256, 256]
00000000: dccb c93c 60ee f63c b46a 393d 5074 4e3d
00000010: 7655 663d 7851 2abd f011 3abd d8a5 e63c
00000020: 50c2 6abd e4aa 3f3d 283d 36bc cc13 d9bc
00000030: b6c8 12bd 8855 72bd c0ac 02bd 18cc 23bc
00000040: 425e 5c3d b88c 5bbc f0d8 adbb 1e52 7e3d
00000050: c057 e5ba 90c8 a83c 7c54 a9bc 9c4f 5dbd
00000060: 00fc feb9 3e13 6abd 5400 a0bc 9248 3a3d
00000070: 8cf5 15bd e8f5 06bd a04a 693c 20ec 72bb
00000080: b615 243d 001e 53ba f09d 763d 4016 c5ba
00000090: 743e e43c b816 1c3c 8c9a b6bc 20cd 76bb
000000a0: 5cdc babc ecf2 a63c eeae 51bd 0069 e5bb
000000b0: 4c46 14bd e0be 073d 30e1 aebb b032 7b3c
000000c0: a04d 03bb 802b 52bc 4049 febc 1c23 b13c
000000d0: 34bb 30bd fc3b db3c acea 423d f89c 8b3c
000000e0: fc21 2bbd 10a9 61bc 70d1 e3bb 54a9 4c3d
000000f0: e015 22bc 707e dc3b d894 043d c87c 3b3d
00000100: 50f9 e93b 0010 ffbc 009e 563b e8f1 343c
00000110: 2457 053d 68a5 edbc 463a 19bd 103b 28bc
00000120: dcde b43c 7cc3 8a3c 28b5 53bc 9ae5 4dbd
00000130: c2af 403d 80ec c03b 1616 46bd 9e9b 723d
00000140: 6ec1 39bd 6059 79bc 0a93 4b3d 2c6a b23c
00000150: f035 33bc 80e1 763c 24a5 b43c 08d2 4cbd
00000160: 3024 acbb fc2e a3bc d0d1 e93c b030 c7bc
00000170: 3627 363d 881f 183c 9886 c5bc 08eb 893c
00000180: 50fc 833c 4808 7b3d 70a0 4dbc 12b1 543d
00000190: 585e 75bc a644 2b3d 50f1 a3bb e45a 4f3d
000001a0: 9e62 283d 4a21 533d 281d 1d3c 820b 7f3d
000001b0: 46a5 5a3d 2ecf 6e3d 78cd 453d b030 3f3d
000001c0: c03b 683d fc45 c93c 58b4 17bd 3487 5ebd
000001d0: e0da d2bc d4df f5bc 5c43 193d e481 9dbc
000001e0: 0e7f 7c3d 6074 543d d4fe dabc 6600 6dbd
000001f0: 00c0 9b3c ec93 2dbd 2247 1abd 04c1 27bd
00000200: c0f7 59bd 10d2 c63b e859 d7bc 424d 433d
00000210: 646e 09bd d431 49bd 9464 76bd 8092 bfbb
00000220: 083d 1ebc c054 873c 9825 f83c b0bc db3c
00000230: fe3c 193d ca1c 56bd 5616 273d 9891 68bc
00000240: f426 853c dc5b 39bd 701b 20bc 5428 61bd
00000250: c01f c8ba 4c1a 97bc e003 02bc 80b1 753a
00000260: 00d5 933a ecce 5b3d c47c aa3c 34bf 3a3d
00000270: 3cf6 9fbc 0e48 1a3d 0098 7d38 8e89 2f3d
00000280: 002c 943c 947e 49bd 9054 423d 78f8 e0bc
00000290: be75 2abd b046 823b 88a7 5c3c b07e 44bc
000002a0: 9c53 f63c 968d 233d f06d ffbb ec4c fdbc
000002b0: 4833 dd3c a4b2 45bd 1080 dcbc 587c 12bd
000002c0: 1e0d 35bd a044 3cbd 1ccb 30bd 60b1 6abd
000002d0: 8c0e 43bd dcdc 77bd 000c 4abd 0c76 73bd
000002e0: b83e 28bc 066b 3d3d 3876 2abc aac8 233d
000002f0: 00f6 333d f46e 143d fc7d 563d b228 7b3d
00000300: 7212 143d c0b4 eaba dc4f 86bc 207a edbc
00000310: 088f 283d 42cf 1cbd c0d4 653d d8af 0c3d
00000320: b28b 0a3d e02a e03c 0275 56bd 08dd f73c
00000330: 54ad b23c 6070 963c fe21 5f3d d0a7 a43b
00000340: d819 1d3d 5ef8 50bd b0fe fa3b 00a0 9337
00000350: 48d7 91bc 1206 41bd e006 20bc 701b 0dbc
00000360: d050 4c3c f8a6 b2bc c039 06bb 82a8 05bd
00000370: 0ec9 56bd 82b3 6d3d c8ee f2bc c09c 883a
00000380: e050 d9bb e0c1 52bd 9893 1dbd 3a2a 16bd
00000390: 1654 16bd 8e84 303d 2426 8ebc a82b 4d3c
000003a0: 408a 833c b0c9 9f3b 526c 443d 16cc 113d
000003b0: ecc0 983c 74d0 913c b0be e33c f8bd e13c
000003c0: ee98 4d3d fc86 433d d893 7c3d ea60 29bd
000003d0: 5a3f 19bd fa92 723d d0c3 ebbb a045 02bd
000003e0: 24bb 02bd 1ee1 083d 30aa 8c3b 98dc ff3c
000003f0: 4007 a13b 7010 4c3c c4a0 11bd fe42 0a3d
0.02463334 0.030142963 0.045267776 0.050403893 0.056233846 -0.0415816 -0.045427263 0.028155252
-0.057314217 0.046793833 -0.011122979 -0.026498698 -0.035835944 -0.0591636 -0.03190303 -0.00999739
0.05380083 -0.013400249 -0.005305402 0.06209003 -0.0017497465 0.020603448 -0.020670168 -0.054031
-0.0004863441 -0.057147257 -0.019531406 0.045479365 -0.036611125 -0.03294936 0.014238983 -0.003706701
0.040059768 -0.00080534816 0.060209215 -0.0015036538 0.027861811 0.009526901 -0.02229049 -0.0037658885
-0.022810154 0.020379506 -0.051192217 -0.0070010424 -0.036199853 0.033141017 -0.005336903 0.015331909
-0.0020035282 -0.012827754 -0.031040788 0.021623187 -0.04314728 0.026762001 0.04758708 0.017042622
-0.041780457 -0.013773218 -0.006952457 0.04996617 -0.009892911 0.0067289397 0.03236851 0.045773298
0.007140316 -0.03113556 0.0032747984 0.011044003 0.032553807 -0.029009536 -0.03740909 -0.010267988
0.022078924 0.016938917 -0.012921609 -0.050267793 0.047042616 0.005887568 -0.048360907 0.05923044
-0.045350485 -0.015219063 0.049700774 0.021779142 -0.010938153 0.015068412 0.022051401 -0.05000499
-0.0052533373 -0.019919865 0.02854243 -0.024315208 0.04447099 0.009284861 -0.02411203 0.016835704
0.016111523 0.061287194 -0.012550458 0.05192668 -0.014976107 0.041813515 -0.005003132 0.05062379
0.041109674 0.05154542 0.009589471 0.062266834 0.053380273 0.05830305 0.048291653 0.04667729
0.056697607 0.024569504 -0.037037224 -0.05432816 -0.025739133 -0.030013956 0.037417755 -0.019226976
0.061644606 0.051868796 -0.02673284 -0.057861708 0.019012451 -0.042377397 -0.037665494 -0.04095556
-0.05321479 0.006067522 -0.026287988 0.0476811 -0.033552542 -0.049119785 -0.060154513 -0.0058463216
-0.009658106 0.016519904 0.030291364 0.026823372 0.037411682 -0.05227355 0.040792786 -0.0141948685
0.016253926 -0.04525362 -0.009772167 -0.0549701 -0.0015268251 -0.018445157 -0.007935494 0.0009372458
0.0011278689 0.053664133 0.020811446 0.0455925 -0.019526593 0.037666373 6.046146e-05 0.04285579
0.018087387 -0.04919298 0.047443926 -0.02746223 -0.041616194 0.0039757118 0.013467677 -0.011993095
0.030069165 0.03992995 -0.007795088 -0.030920468 0.027001992 -0.048266068 -0.026916534 -0.035763115
-0.044201963 -0.045963883 -0.04316245 -0.057298064 -0.047621295 -0.060513362 -0.04932785 -0.05943875
-0.01026886 0.046244644 -0.010404162 0.03998629 0.043935776 0.036238626 0.05236624 0.061318107
0.036150403 -0.0017906651 -0.016395502 -0.028988898 0.04115203 -0.038283594 0.056111097 0.034347385
0.03382463 0.027364194 -0.05235768 0.030256763 0.021811165 0.018364131 0.054475777 0.0050248876
0.038354725 -0.05101811 0.0076597556 1.7598271e-05 -0.01780285 -0.04712493 -0.009767264 -0.008612499
0.012470439 -0.021808133 -0.00204812 -0.032631405 -0.052437834 0.05803252 -0.029654875 0.0010422692
-0.0066319555 -0.051454425 -0.038470834 -0.036661364 -0.036701284 0.043095164 -0.017352171 0.0125226155
0.016057134 0.004876338 0.047954865 0.035595022 0.01864668 0.017799594 0.027800888 0.027556404
0.050194673 0.047736153 0.061664432 -0.04135219 -0.037413932 0.0592222 -0.0071949735 -0.03180468
-0.031916752 0.033417813 0.004292749 0.031233117 0.0049141943 0.012455091 -0.03555371 0.033755295

fc2.bias f4 [256]
00000000: fc8b a9bc 50b1 eb3b 50a9 d43c 66fe 2c3d
00000010: 2eeb 14bd 3620 48bd 7667 563d be1b 473d
00000020: 300c 003d fa58 03bd c451 603d 92cf 67bd
00000030: fe4b 58bd 4e25 223d a827 6b3d 7091 a53b
00000040: c2c8 20bd 84fa d43c deed 653d 7076 6c3c
00000050: 4632 2b3d 22c4 123d b03c b43b 2825 6bbd
00000060: a06d 873b 200d e93c 3603 0cbd 7e75 71bd
00000070: 8045 4fba e4bd 283d 9ee0 2cbd f87c 6f3d
00000080: d23c 623d ea08 263d 84ff ffbc ce48 7cbd
00000090: 5c17 84bc 809e ac3c 38b4 5a3c 24cc e1bc
000000a0: 2430 053d 0c80 8abc 24b9 153d ec40 443d
000000b0: 08c2 3f3c d4ed 42bd bee5 20bd a80e 633c
000000c0: c8e1 433d b066 61bd 6c45 253d f04f 1bbc
000000d0: 4c13 723d c4aa 41bd c08b d2bb 7ea6 04bd
000000e0: 9abe 093d c0ed 6bbc a2f0 09bd 20f6 8fbb
000000f0: cc26 ef3c f0ce 6cbc 68b2 6d3c e8ac 463d
00000100: e805 9a3c 3226 56bd 60b2 53bb 46da 103d
00000110: 603d 633b 88c4 1fbc d865 fc3c 5ec9 7ebd
00000120: 8033 963a 54e6 bd3c f804 d93c c2ef 693d
00000130: a27a 2dbd 28ad 0bbc f2cd 24bd d470 343d
00000140: 8020 0bba a007 78bd e0a8 37bb 84ca 65bd
00000150: d445 ea3c 9c78 ab3c 107e 19bc ecb7 eabc
00000160: 5cce 28bd e01f a0bc 0429 973c 6018 7dbb
00000170: 4844 70bc 58d6 8f3c e0d7 033b c63a 4d3d
00000180: 207a 5ebd dc8d 2dbd 7492 27bd 46b8 3cbd
00000190: bcae 4abd c0bd cbbb 1016 ccbc 3040 ea3b
000001a0: a686 0ebd c67f 553d 58aa 0e3c acb2 3f3d
000001b0: b06c 553c 062c 133d d8c4 7ebc 66ef 11bd
000001c0: b08c 2c3d bcda 8b3c bcbc 5a3d 80e4 b7bb
000001d0: 3069 9bbb b89b 813c 7c05 fd3c e451 c3bc
000001e0: 305a cabb e2d4 44bd 3ccc 89bc 4c0c a23c
000001f0: 42eb 1cbd d870 47bc 38c2 4b3d 00fa 4b39
00000200: e0d5 25bd f80a 653c 2012 733d 483d a5bc
00000210: 70e2 543d b0f1 9dbc 000f 7a3c a0ec 48bd
00000220: 807a ebbc 928d 5ebd 0cdb 65bd b09f b7bb
00000230: 500f eebc 7087 1fbd 3c3f 10bd e8bf 7d3c
00000240: 98f3 cbbc a683 33bd 0022 fd39 b494 3f3d
00000250: bcea b43c da99 3abd e8f2 293c 70cc d1bb
00000260: d43f 0a3d 3426 c63c de69 28bd 4009 d0bb
00000270: 8ea6 1dbd f68e 65bd 7061 48bd 843a d3bc
00000280: 4060 e33c 4abe 30bd 6221 5a3d c6b7 50bd
00000290: 509e d1bb 4a47 4c3d 8ab2 793d 080e afbc
000002a0: 1887 4ebd 4277 773d 68e6 0cbd 50f2 c6bc
000002b0: 309c e13b b00e 70bd 905a 16bc 6a49 2e3d
000002c0: e02d 223b 747a c7bc 9e8a 6ebd 7447 f63c
000002d0: 9816 28bc 1041 c9bc 2033 423d 745c 563d
000002e0: a002 12bd 624d 783d 4c4b 9c3c e2a2 3dbd
000002f0: 0ef6 25bd 9a93 54bd def0 1d3d 182d 5cbc
00000300: 98ee 3ebc 3013 d03c b030 b1bb 405e ddbc
00000310: 1225 3b3d a8b7 09bc eeca 103d 44e0 e03c
00000320: e4b5 e43c 3409 ac3c d4c3 c33c a0a6 fabc
00000330: e0b3 48bd 68f8 85bc ee8e 373d bcbd 1d3d
00000340: 1071 fa3c c4e2 473d 980c b73c 7803 fcbc
00000350: 4880 40bc 1ee1 0fbd c863 1e3d 0058 1bbc
00000360: ec2e 41bd 3a71 70bd 981f 4cbc e8cf a33c
00000370: 30be 38bc 14bd d03c 6896 333d 385b 0b3d
00000380: 48ef 2abc 18cb 9c3c f0b2 99bc 30a5 df3b
00000390: 9ca8 b03c 0c56 533d 28c3 c1bc f87f fd3c
000003a0: ea95 3c3d d87e 123c 6009 d23b 4849 89bc
000003b0: a40b cfbc 806a 51bb cc9b b63c 1865 cf3c
000003c0: 583a 4ebd 7ce0 56bd 9e63 60bd b024 23bd
000003d0: 40fc cf3a a401 f1bc 3830 68bd d24d 3bbd
000003e0: 00fa 2e3c 20a7 803c 4c52 bb3c d01d f4bc
000003f0: 5ee4 6b3d a8b8 53bc 902b c93c 207c 603b
-0.020696633 0.007192768 0.02595964 0.0422348 -0.036357097 -0.048858844 0.05234476 0.04861044
0.031261623 -0.032067277 0.054765478 -0.05659444 -0.052806847 0.039586358 0.057410866 0.005052738
-0.039253958 0.025998361 0.05613505 0.014432535 0.04179599 0.035831578 0.0055003986 -0.05740848
0.0041329414 0.028448641 -0.03418275 -0.05894994 -0.00079067796 0.04119672 -0.0422064 0.05846879
0.055233784 0.040535845 -0.031249769 -0.06159287 -0.01612442 0.021071672 0.013348632 -0.027563162
0.032516614 -0.01690676 0.036553517 0.047913477 0.0117039755 -0.04759009 -0.0392816 0.013858475
0.047822744 -0.05502957 0.04034941 -0.009479508 0.059100434 -0.047281995 -0.006425351 -0.03238534
0.033629037 -0.014399946 -0.03367675 -0.004393354 0.029193304 -0.014453635 0.014507867 0.04850474
0.018801644 -0.05228252 -0.0032302365 0.03536441 0.0034674034 -0.009751447 0.030810282 -0.062203757
0.001145944 0.023181118 0.026491627 0.057113416 -0.04235328 -0.00852517 -0.040235467 0.044052914
-0.0005307272 -0.060554147 -0.0028024241 -0.056101337 0.02859775 0.020931534 -0.009368435 -0.028652154
-0.041212425 -0.01954645 0.018452175 -0.0038619265 -0.014664717 0.017558262 0.0020117685 0.05010488
-0.054315686 -0.042371616 -0.040911153 -0.046074174 -0.049483046 -0.0062176883 -0.024912864 0.007148765
-0.03479638 0.052123807 0.008707605 0.046801254 0.013026401 0.035930656 -0.015549861 -0.0356287
0.042126358 0.017072074 0.053402647 -0.005611956 -0.004742764 0.015821323 0.030886404 -0.02384276
-0.006175302 -0.048054583 -0.01682102 0.019781254 -0.038310297 -0.0121729 0.04974577 0.00019452721
-0.04048717 0.013979666 0.059343457 -0.020170823 0.05197376 -0.019280285 0.015262365 -0.04905379
-0.028744936 -0.05433423 -0.056117103 -0.005603753 -0.029060036 -0.038947523 -0.035216555 0.015487649
-0.024896428 -0.04382672 0.00048281252 0.046772674 0.022084586 -0.04555688 0.010372855 -0.0064025447
0.033752277 0.024188139 -0.041116588 -0.006348759 -0.038488917 -0.05604454 -0.04892105 -0.025784738
0.027755857 -0.043150224 0.053254493 -0.05095651 -0.006397046 0.049872674 0.060961284 -0.021368995
-0.050421804 0.060416467 -0.03439942 -0.024285465 0.006885074 -0.058607757 -0.009176865 0.04255048
0.0024746582 -0.024350382 -0.058237664 0.030063368 -0.010259293 -0.024567157 0.047412038 0.052334264
-0.035647035 0.060620673 0.019078873 -0.046297915 -0.04051786 -0.051898576 0.038559787 -0.013438486
-0.011653565 0.025399774 -0.0054074153 -0.027022481 0.04568965 -0.0084056035 0.03534978 0.027450688
0.027918763 0.021000482 0.023897089 -0.030597031 -0.048999667 -0.0163538 0.044814043 0.038511023
0.03057149 0.048800245 0.022344872 -0.030763373 -0.011749335 -0.035126798 0.038669378 -0.00948143
-0.04716389 -0.05870173 -0.012458704 0.019996598 -0.011275813 0.025480784 0.04384461 0.03402254
-0.010433026 0.019139811 -0.018762082 0.006825112 0.021564774 0.051595733 -0.023652628 0.03094481
0.046041407 0.008941375 0.006409809 -0.016758576 -0.025274105 -0.0031954348 0.022291087 0.02531676
-0.05034861 -0.05246018 -0.054782502 -0.03982991 0.0015868023 -0.029419728 -0.05668661 -0.045728512
0.010679722 0.015704691 0.02286639 -0.029799372 0.057590835 -0.012922443 0.024556905 0.0034253672

fc3.weight f4 [256, 256]
00000000: ecb7 25bd a062 ad3b 3003 b2bc 4037 4dbc
00000010: c43c 46bd 68cb 52bd b063 b43c c87b 703d
00000020: 68a4 46bd d0b4 44bd 98bf 553d 146a 463d
00000030: f024 d53c c09a 523d 5e55 7cbd f8d9 263d
00000040: a63f 2d3d 7aec 533d fcaf bdbc a8a4 b93c
00000050: 00f4 d038 e47a 123d 503c 9a3c dc7e 4ebd
00000060: 185f fe3c e0d0 afbb a268 4abd 4092 14bd
00000070: c8ac ad3c e01c 023c 8a29 4ebd c0fd 373d
00000080: 281d a8bc c0fa b03b 9a28 71bd dc85 9cbc
00000090: e07a 85bb 3e3d 4e3d c0a2 19bd 781c 06bc
000000a0: f234 713d 001c 3139 58eb 6abd 40ab fa3a
000000b0: 1c8d 403d 66e5 04bd 6c76 de3c da9a 503d
000000c0: 8832 303c 406e 4d3c 20ff cabb cc2e 76bd
000000d0: b08b 56bd 7211 403d 7096 233d ce7f 7cbd
000000e0: 7030 d0bc dcc2 80bc 782a f23c 907f c53b
000000f0: c07d 993c d0e0 a43b c8e1 05bc 94b0 393d
00000100: b423 47bd 70fe 49bd 68c6 64bd dc1e eabc
00000110: e230 4dbd e8e4 08bc 804a 6dbc 1ca6 1e3d
00000120: e875 79bd 0093 143c 9c2a 553d f20e 233d
00000130: 86b0 6ebd 5c82 f5bc a05e 10bc 40d6 853c
00000140: c005 5f3d 644c 643d 2200 0bbd 8a48 52bd
00000150: f874 0a3c 70e3 983c 0001 043a f0bb 023c
00000160: 9e37 3e3d 863e 77bd 689b da3c 80c1 6fba
00000170: ec6f 473d 688b 0bbd 108a 0fbd b8c4 fb3c
00000180: 40da a63a cc26 623d 4a85 08bd c4db 22bd
00000190: f8f1 30bc c0ab a9ba 0cc4 953c 683b 53bd
000001a0: 8c83 00bd c0a9 8fbc d455 42bd 0a78 2f3d
000001b0: e4a6 bdbc 38a5 673d 58f9 d83c 68f4 323d
000001c0: ca8e 7a3d 18d9 373d a4ff cf3c b874 533d
000001d0: 6857 e4bc 0279 363d c403 c8bc 7467 b9bc
000001e0: d82d 0abc d028 ccbb 0a00 563d c478 37bd
000001f0: 3ac6 48bd 58c2 cd3c 70fd f13c 2e13 5abd
00000200: 02d2 21bd bc03 883c 8478 4a3d 2229 483d
00000210: 24a3 50bd f659 1c3d 2638 2f3d 28a0 92bc
00000220: a688 5abd 0c34 69bd d42c 4e3d bce9 6e3d
00000230: 423e 03bd 0428 7e3d 00bf d63b c250 073d
00000240: 10f9 853c 1ac7 0ebd 601f 643c 96f9 263d
00000250: 50db 0a3c 2046 febc 5828 6dbc c85d 5fbc
00000260: 36e5 59bd 208f c63c 5c5f c13c 847a 763d
00000270: 1099 85bc 926c 733d 021c 7dbd 64b9 63bd
00000280: 40e7 163d bc7a 0cbd 2c07 613d b6db 543d
00000290: 480d 43bc c2ba 543d 04ca 38bd b0cc e4bb
000002a0: ea16 333d 84cd a93c ceea 6d3d 526f 783d
000002b0: ec5e e33c f225 723d 08f0 1abd fc5b 823c
000002c0: 0061 18bd d071 c2bc 96d4 2abd d0fb d53b
000002d0: de0c 473d 0ac3 633d 787f 5d3c 5c64 623d
000002e0: 86c9 36bd e0a7 51bb dcad 343d 6803 b8bc
000002f0: d0b9 283c cc44 b8bc fa39 42bd b029 a3bc
00000300: 6ed6 3fbd a6a1 7abd e07a e6bb 524a 003d
00000310: f08a 103d c21b 543d e025 013d a8bf 203c
00000320: 1247 0d3d 909b e8bc 1c0c 743d d04a b4bb
00000330: 888a 3d3d 2674 0f3d e477 23bd bcd9 58bd
00000340: 5212 383d 7c1c 0a3d a0fb 3a3c 2e6b 00bd
00000350: 7607 513d 7079 dc3b 3830 4bbc 5861 183c
00000360: dc0c 61bd 70a3 7abd aaa0 12bd c41e bdbc
00000370: 76d1 713d 7838 043d cc2b fbbc 6800 593c
00000380: 8c91 e1bc 2043 483c 90e9 be3c d8cd 6a3c
00000390: e07a ab3b 6c58 1f3d 7a16 473d 4a6b 6c3d
000003a0: 30c5 49bd 70ca a43c ecca 8dbc be75 4ebd
000003b0: 807d 783a d0a1 aabb ea7c 763d b0ec 00bd
000003c0: 309e dabc 6476 36bd e4aa 25bd 18ba 353d
000003d0: e0ae 353d 84d5 0abd 6c83 a73c 2465 d9bc
000003e0: b62a 563d dc24 11bd 563f 6b3d 1608 213d
000003f0: b009 35bd a843 bf3c b8e6 273c 4433 b3bc
-0.040458605 0.005291298 -0.021730036 -0.01252538 -0.048397794 -0.051463515 0.022020191 0.058711797
-0.048496634 -0.048024 0.05218467 0.048441008 0.02601859 0.051417112 -0.06160485 0.040735215
0.042297028 0.051739193 -0.023155205 0.022661522 9.9636614e-05 0.03576173 0.018827587 -0.05041395
0.031051204 -0.005365476 -0.049416192 -0.036272287 0.021200553 0.007941455 -0.050332583 0.04491973
-0.020521715 0.0054009855 -0.05887661 -0.019106798 -0.0040734857 0.050351374 -0.037508726 -0.008185498
0.058888383 0.00016890466 -0.057353348 0.0019124523 0.047009572 -0.032445334 0.027156077 0.050928928
0.010754235 0.012538493 -0.006194964 -0.060103223 -0.05237931 0.046891637 0.03993839 -0.06164532
-0.025413722 -0.015717916 0.029561266 0.0060271695 0.01873672 0.0050316826 -0.008171506 0.045334414
-0.048618034 -0.049314916 -0.055853277 -0.028579168 -0.050095446 -0.008355357 -0.014483094 0.038732633
-0.06090346 0.009068251 0.05204259 0.039809175 -0.058273815 -0.029969387 -0.008811623 0.016337514
0.054448843 0.055736914 -0.033935674 -0.05133871 0.008450739 0.018663138 0.00050355494 0.007979378
0.04643976 -0.06036236 0.026685432 -0.000914596 0.04869072 -0.034068495 -0.035043776 0.030733451
0.0012729838 0.05521278 -0.03333024 -0.039760366 -0.010799877 -0.0012944862 0.018281959 -0.051570326
-0.031375453 -0.017536998 -0.047445133 0.042839088 -0.023150869 0.05655405 0.026486084 0.043690115
0.06117133 0.04488477 0.025390454 0.051624984 -0.02787371 0.044548996 -0.024415858 -0.022632338
-0.008433782 -0.006230451 0.05224613 -0.044792905 -0.04901717 0.025117084 0.029539794 -0.053240947
-0.03950692 0.016603343 0.04943134 0.048867352 -0.050936833 0.03817173 0.042778157 -0.017898634
-0.053352974 -0.0569344 0.05033572 0.058328375 -0.032041796 0.06204988 0.0065535307 0.033036
0.016354114 -0.034857847 0.013923496 0.040765367 0.00847514 -0.031039298 -0.014474951 -0.013633199
-0.05319711 0.02423817 0.023605041 0.060175434 -0.016308337 0.059429713 -0.06179429 -0.055596724
0.03684163 -0.034296736 0.05493848 0.051967345 -0.011905022 0.05193592 -0.045114532 -0.0069824085
0.043723024 0.02072788 0.058085255 0.06065304 0.027755223 0.05911822 -0.037826568 0.015913002
-0.03720188 -0.02373591 -0.041706644 0.0065302625 0.048596255 0.055605926 0.01351916 0.05527149
-0.04462578 -0.003199093 0.044111118 -0.022462562 0.010298207 -0.022493742 -0.047418572 -0.01991734
-0.046835355 -0.061189316 -0.007033691 0.031320877 0.03528875 0.051784284 0.03153026 0.009811319
0.034491606 -0.02839449 0.05958186 -0.0055020824 0.04627469 0.035022877 -0.03990926 -0.052942023
0.044939347 0.03371857 0.011412531 -0.031352215 0.051032506 0.0067283437 -0.012401633 0.009300552
-0.054943904 -0.061191022 -0.035797752 -0.02308596 0.05903765 0.032280415 -0.030660532 0.013244726
-0.027535222 0.012223035 0.02330473 0.014331304 0.0052331537 0.038902685 0.04860542 0.057719506
-0.04926032 0.020116061 -0.017308675 -0.050405256 0.000947915 -0.005207278 0.06017772 -0.031475723
-0.026686758 -0.0445465 -0.040446177 0.044366926 0.044356227 -0.03389503 0.020448409 -0.026537485
0.052286826 -0.035435542 0.05743345 0.039314352 -0.04419869 0.02334769 0.010247879 -0.021875031

fc3.bias f4 [256]
00000000: 74a8 f3bc 64d6 3fbd ce93 1fbd 20c7 973c
00000010: 0abb 74bd a46c 84bc d616 2fbd 0004 063c
00000020: f42b 04bd f048 263c ba25 13bd 34cd c1bc
00000030: f004 77bc 6828 353d 1846 e63c ae12 2dbd
00000040: d4b7 193d 70e0 0dbd 988c 003d 70fc b93b
00000050: d8d3 4ebd 0488 de3c 681b 013d 54e4 1d3d
00000060: 9475 5fbd 46d9 03bd eeda 653d f635 4c3d
00000070: b631 523d 0011 b53c a040 babb b04f 4c3d
00000080: e0dd 6a3c e8a0 39bd 064f 1e3d e27d 213d
00000090: a0fe 47bb 6a88 0fbd 883b f63c 2ce8 93bc
000000a0: 168b 17bd 905f c9bb 501a 9abc a422 9b3c
000000b0: 308a 73bc 6cfc 13bd 90fd 873b 1ab4 46bd
000000c0: f80b 593d 0057 42bc d0d6 9c3b 38b5 97bc
000000d0: bcb5 7fbd b097 873c f0f6 fa3b 50e9 77bc
000000e0: c866 4abd e6ad 05bd ca34 1ebd 700d b53c
000000f0: 7c09 903c 4c08 443d b8e2 7ebc 9cdc 233d
00000100: 5275 0dbd d87d 72bd 8c62 e6bc d6d9 6bbd
00000110: fc61 5abd 30c2 d7bb f882 10bc b42b 2fbd
00000120: ccb0 c8bc 0023 3abd 7492 e4bc 6880 33bc
00000130: 2854 76bc a23c 5c3d 88b6 abbc f4f4 0dbd
00000140: 504a edbb 541b d33c 9630 57bd 92ea 773d
00000150: 3c4f 8cbc 0075 aa39 88c1 7bbd e08f 13bb
00000160: a00e b13c c835 39bd b484 9bbc 807e 753a
00000170: 6024 24bc 805f 123a a498 54bd 444e 1c3d
00000180: 90ed 89bb 0069 fabc 10ce b83b 00f1 ba3b
00000190: 7a2c 573d 8878 51bd 006f d8bb c476 62bd
000001a0: e8cb 353d 9044 f63b 1824 0f3c b68c 11bd
000001b0: f85e 5a3c a848 8c3c 0830 3f3c 84aa 873c
000001c0: 2836 82bc 32c6 5dbd 149e 5fbd 02a7 32bd
000001d0: 8826 26bd b846 7dbc 507e 003c fc00 87bc
000001e0: 3069 8e3c b0ff 233d 9c6a 003d d63a 0c3d
000001f0: 70cf 8abb 2ec7 65bd 36fb 313d 28c4 6f3c
00000200: f88e 2abd 104e 54bd 08c1 46bc 8460 b2bc
00000210: 909c adbb 20db 7a3c a035 83bc 78d0 76bc
00000220: 80df 2c3d 3610 603d cc3b 3bbd 46e1 56bd
00000230: e28a 30bd c087 2dbd 4e5f 52bd 2ea9 0abd
00000240: 5e5b 613d 0052 daba 1061 8b3c e0c4 2abc
00000250: bcea 0cbd c07c 503d 4c6a 9b3c 281a 44bd
00000260: 28ae 5f3c 481b a0bc 3451 3ebd 9405 b4bc
00000270: 2cb9 34bd 005e 34bd a033 49bc e8e0 7abd
00000280: 6e76 0abd 146d 3a3d fc5a b23c 22e2 423d
00000290: acc8 c7bc 0a88 44bd 58b5 6cbc a08d 0fbc
000002a0: 288d 5d3c 1ac5 79bd 348b 95bc 40c2 8dbb
000002b0: 58d7 1abd 305a 3b3d 08ae 1d3c 80b3 363a
000002c0: 405c 7fbd b0d5 883b 0850 20bd ac60 7d3d
000002d0: 0a98 7dbd 7ee6 1b3d 4c7b d43c 4c76 1a3d
000002e0: fed9 35bd 80d2 23ba 1808 533d fcec 33bd
000002f0: 465b 3d3d 3c57 103d d8c0 653d 0879 05bc
00000300: 8010 1b3c d84a 49bd e064 123d 0003 ea3a
00000310: b21b 2cbd 20a7 6a3c 069e 053d 2081 dc3b
00000320: 5cb9 b13c 0055 e5bc dc34 e23c f8de 563c
00000330: acf0 91bc 6a9d 4fbd 7050 57bd cef7 053d
00000340: c869 6c3c 80b0 153a 20d6 6d3d 50da 46bd
00000350: 6a82 763d b4bd e13c 8e65 3ebd 505f 703c
00000360: 42cc 36bd 3446 58bd a0d2 953b 70c9 8dbc
00000370: 7616 4e3d 56f2 6f3d c0f0 ed3a d459 673d
00000380: a497 f53c 38de 0abd a028 5b3b 9a7e 42bd
00000390: 48c9 3bbd 428f 6a3d d250 583d 7c82 40bd
000003a0: 188f 6dbd 144b 1f3d b82e 333c 409b 28bc
000003b0: 8ce1 8ebc a073 523b e053 743c 687b d1bc
000003c0: a076 a4bc 00e2 61ba f8e5 613c f0d5 bbbc
000003d0: ec33 93bc 0881 7f3d 9efa 6bbd e0e4 103d
000003e0: b446 093d 44fe 713d 28ee 45bc 6cf6 90bc
000003f0: b20c 6cbd 7686 5d3d c8b0 923c a25a 023d
-0.02974341 -0.04683532 -0.038959317 0.018527567 -0.059748687 -0.016165085 -0.042746387 0.008179665
-0.03226848 0.010149226 -0.03592465 -0.023657419 -0.015076861 0.044227988 0.028109595 -0.042254142
0.037528828 -0.03463787 0.03138408 0.005675845 -0.050495 0.027164467 0.031520277 0.03854783
-0.05455549 -0.03218963 0.05611699 0.04985615 0.05131694 0.022102833 -0.0056839734 0.049880683
0.014335126 -0.045319468 0.03864958 0.03942669 -0.0030516759 -0.035042204 0.030057684 -0.018055044
-0.036997877 -0.006145425 -0.018811375 0.018937416 -0.014864489 -0.0361294 0.0041501 -0.048511602
0.05298993 -0.011861563 0.00478635 -0.018519029 -0.062429175 0.016551822 0.007658832 -0.01513131
-0.049414426 -0.032636546 -0.038624562 0.022101134 0.017582648 0.047859475 -0.015556984 0.04000531
-0.034535713 -0.059202045 -0.028123163 -0.05758079 -0.0533161 -0.0065844283 -0.008820288 -0.042766288
-0.024498366 -0.045443535 -0.027901866 -0.010955907 -0.015034713 0.05376876 -0.020961061 -0.034657434
-0.0072415248 0.025769867 -0.05253657 0.060526438 -0.017127626 0.000325121 -0.061463863 -0.0022516176
0.021613419 -0.045217305 -0.018984176 0.0009364858 -0.010018438 0.00055836886 -0.051903382 0.038160577
-0.004209228 -0.030567646 0.005639799 0.005704999 0.05253265 -0.05114034 -0.006605029 -0.055289045
0.044383913 0.0075154975 0.008736633 -0.035534583 0.013328306 0.017124489 0.011669166 0.0165608
-0.015894964 -0.054144092 -0.054594114 -0.043616302 -0.04056409 -0.015458755 0.007842615 -0.016479962
0.017384142 0.040038764 0.03135167 0.034235798 -0.0042361543 -0.056098156 0.043452464 0.01463417
-0.041640252 -0.05183226 -0.012130983 -0.021774538 -0.0052982047 0.0153110325 -0.016016781 -0.015064351
0.042205334 0.05470296 -0.045711324 -0.05246093 -0.0431012 -0.04236579 -0.05136042 -0.03385275
0.055018775 -0.0016656518 0.017014056 -0.010422915 -0.034403548 0.05090022 0.018971585 -0.047876507
0.013652362 -0.019544259 -0.04646416 -0.021975316 -0.044121906 -0.044034958 -0.012280375 -0.061249644
-0.03380435 0.04551418 0.0217719 0.04757894 -0.02438768 -0.0479813 -0.014447533 -0.008761793
0.013522424 -0.060978986 -0.018254854 -0.004326135 -0.037803024 0.045740306 0.009624012 0.00069694966
-0.062343836 0.004175864 -0.039138824 0.06185977 -0.061912574 0.03806161 0.025937699 0.037710473
-0.044397347 -0.00062493235 0.05152139 -0.043927178 0.046229623 0.035239443 0.056092113 -0.008146532
0.009464383 -0.049143642 0.035740733 0.0017853677 -0.0420186 0.014322072 0.032621406 0.00672926
0.021694832 -0.027994633 0.027613096 0.013114683 -0.017814957 -0.05068723 -0.052566946 0.032707028
0.014429517 0.00057101995 0.058065534 -0.048548043 0.060182966 0.027556278 -0.04648357 0.014671162
-0.04462839 -0.052801326 0.0045722276 -0.017307967 0.05031439 0.05858072 0.0018153414 0.05648215
0.029979534 -0.03390333 0.0033440962 -0.047484018 -0.045846254 0.057265528 0.05281145 -0.04699944
-0.057997793 0.03888996 0.010936432 -0.010290921 -0.017441534 0.0032112375 0.0149125755 -0.02557154
-0.020076096 -0.00086167455 0.013787739 -0.022929162 -0.017969094 0.062378913 -0.057612054 0.035374522
0.033514693 0.059080377 -0.012080707 -0.017695628 -0.057629295 0.05408331 0.017906561 0.031824715

output.weight f4 [4, 256]
00000000: d08e afbb d248 51bd 68d5 653d 72e0 7abd
00000010: cea7 163d 08f9 ce3c 40df 543d 0003 79bb
00000020: 58e9 023c e0d7 4b3b c02c a53b f404 f6bc
00000030: 0457 053d 00d1 b9bc a049 64bb 8e79 7fbd
00000040: 30b7 c4bc a4ce aebc 24a7 81bc fcac 2dbd
00000050: 00ad b73c 9e1b 443d e83a af3c 20d8 2bbd
00000060: 48c8 573d 24aa 6fbd 787f 853c 2831 65bc
00000070: d43b 9b3c 5a8b 7e3d 4497 a93c 7c55 adbc
00000080: 7892 dbbc 9474 f73c f8d2 923c 807a 433c
00000090: ea62 4f3d 9056 e7bb 70be f8bb cc43 cf3c
000000a0: 4636 5abd 04de 8f3c 805d 933c 5c84 8e3c
000000b0: ce3a 603d 0c79 dd3c d2e9 4b3d 1efc 533d
000000c0: 2a1b 0d3d 6039 5fbc fc80 163d d08f d7bc
000000d0: 288e 393c 14db 633d aa5d 06bd a424 6cbd
000000e0: 34d2 f03c 3c5e ffbc f060 233c 642d 8f3c
000000f0: f09e bebb beb2 123d 023c 3d3d 9ca5 923c
00000100: aef5 4b3d 0cd4 e4bc ae19 063d 505c 39bc
00000110: 2cd6 30bd 1eee 1d3d ac4d f53c 0cfb 133d
00000120: 94de 853c 886b 773c 325c 383d feb1 373d
00000130: 7061 c4bb 3c20 d7bc a8b3 523d 60b0 4a3c
00000140: 78ed a7bc a0f2 51bd 38a3 403d 6849 60bc
00000150: 6e57 1bbd 809a 0d3c 4853 163d 4e82 2e3d
00000160: c0e8 f93b 0068 d33c 02a8 6bbd ec37 7f3d
00000170: fcb5 adbc 3ac6 4fbd 0003 bd3b 9855 5d3c
00000180: 5242 5b3d 087f 823c c235 6d3d 283a cfbc
00000190: 9cdf f43c 30db de3b 28bd bb3c 2047 053c
000001a0: deae 1c3d eed2 733d f449 fdbc 9866 1bbd
000001b0: dc88 b3bc 4042 603b d059 f3bc 5242 03bd
000001c0: 92a9 4dbd 38e7 93bc 5c56 babc 405c 45bb
000001d0: 8850 a5bc 741c e7bc 587d 62bc febc 083d
000001e0: 2476 c8bc 402c 28bb 28fe 9dbc 6c3f 34bd
000001f0: 8852 5ebd 54b0 f83c c05a 3bbb e04b 78bc
00000200: f8b9 3fbc a0e5 9dbb a436 d23c 007d e43a
00000210: 86fa 163d 00ce b539 6818 2c3c e23d 0b3d
00000220: 486d 433d e482 4ebd 3086 23bc d48f d93c
00000230: b051 073d 74e0 4b3d 002c f6b9 b03c 303c
00000240: e67a 223d b4cf 91bc c67a 5e3d 42c0 243d
00000250: 78e1 52bc 2423 4e3d 5e01 6e3d 48ac a03c
00000260: 701d edbc a41c 483d a0f0 073c 3060 86bb
00000270: f89f 4c3c 68bc 493c 7cc1 4cbd 58a4 6d3d
00000280: ee18 4e3d 224e 7ebd bc5c c43c 4663 3ebd
00000290: 4054 0fbb 20cc 79bb 5a97 3d3d ea7b 5fbd
000002a0: 4660 593d 60f1 f1bb 38fc 1dbd 8091 6bbb
000002b0: d47c 81bc 80d2 483c 40a4 5abc 981d 09bc
000002c0: b063 7bbc 5a30 0c3d 1880 e4bc 9a46 513d
000002d0: 9025 a83b 80bd 63bc 7008 21bc 50fb bc3b
000002e0: d815 4e3d 00dd 893c 44b2 e5bc 0657 1ebd
000002f0: 7048 59bc ec19 b2bc 70e2 a73c c0f0 d33b
00000300: 605e 0abd 8836 6bbc 00c9 0fbd f812 253d
00000310: 2ec3 4e3d e4d8 7b3d 8273 65bd 08b8 e9bc
00000320: 8c1e 6c3d ac38 b5bc 7c36 e5bc 3c5b a2bc
00000330: 40af 7e3b 18f1 6e3c a806 573c 9476 e03c
00000340: 56ed 37bd fc96 a93c b0e0 87bc 6e28 263d
00000350: d6bf 253d a43e e2bc 1c0f e6bc 3af4 2fbd
00000360: 388b f8bc 50cd e83c 2efb 523d b018 b8bc
00000370: 604c 67bc 2069 8f3b 2095 3cbd c26c 523d
00000380: 00da 53bc 98a1 f2bc d0e1 a53c 9e99 3f3d
00000390: f8e9 f83c 6ccd 953c 00e1 55bc 2266 5ebd
000003a0: 60c9 603c 305a d1bb 4cc7 99bc 842d 72bd
000003b0: bcf5 bbbc 0016 7ebd 2050 a23c e8a8 dfbc
000003c0: f0b5 563c 7c7c e33c 3886 3a3c 28a3 58bd
000003d0: 245b fbbc 98f9 7abd b0ef 1a3c 3875 acbc
000003e0: c618 613d 9098 023d 3c25 3a3d 56b3 44bd
000003f0: d6a8 02bd 9466 90bc 001d f939 8622 043d
-0.0053576007 -0.051094837 0.056111723 -0.061249204 0.036781125 0.025265232 0.05197072 -0.0037996173
0.007990204 0.0031104013 0.005040735 -0.030031659 0.032553688 -0.022682667 -0.0034833923 -0.062371783
-0.024013132 -0.021338768 -0.01582677 -0.0424013 0.02242136 0.0478779 0.021390393 -0.04195416
0.052681237 -0.058511868 0.016296133 -0.013988771 0.018949427 0.062144615 0.020702012 -0.021158926
-0.02680324 0.030206956 0.017922863 0.011931062 0.05063144 -0.0070598796 -0.0075910613 0.025300883
-0.053274415 0.01756192 0.01798892 0.017397098 0.05474358 0.027035259 0.049783535 0.05175411
0.034449734 -0.013624519 0.036744103 -0.026313692 0.011325397 0.05562885 -0.03280417 -0.05765213
0.029397108 -0.031172864 0.009971842 0.017477699 -0.0058172867 0.035814993 0.046199806 0.017901234
0.049794845 -0.027933143 0.032739334 -0.011313513 -0.043173 0.038557164 0.029944263 0.03612809
0.016341485 0.015101321 0.0450098 0.04484748 -0.005993061 -0.026260488 0.051440865 0.012371153
-0.020498976 -0.051256776 0.047030658 -0.013689376 -0.037925176 0.008642793 0.036700517 0.042604737
0.007626623 0.025806427 -0.05753327 0.06230919 -0.021204941 -0.050726153 0.00576818 0.013509177
0.053530045 0.015929714 0.057912596 -0.025296286 0.029891782 0.0068010315 0.022917345 0.008134633
0.038252704 0.05952733 -0.030919053 -0.037939638 -0.021915846 0.0034219176 -0.029705912 -0.03204567
-0.050210543 -0.01805459 -0.022746257 -0.00301148 -0.020180002 -0.02821181 -0.01382383 0.033383362
-0.024470396 -0.002566114 -0.01928623 -0.044005796 -0.054277927 0.030357517 -0.0028588027 -0.015154809
-0.011702053 -0.004818633 0.02566082 0.0017432272 0.03686001 0.00034676492 0.010503866 0.033994563
0.04771164 -0.050417796 -0.009980723 0.02655784 0.033036888 0.049774602 -0.0004695356 0.0107566565
0.039667986 -0.017799236 0.054316305 0.040222414 -0.012871139 0.05032648 0.058106773 0.0196134
-0.028944701 0.04885544 0.008297116 -0.004100822 0.012489311 0.012312986 -0.04998921 0.05801806
0.050316744 -0.062086232 0.02397 -0.046481393 -0.0021870285 -0.0038116053 0.04628692 -0.054561533
0.05307033 -0.0073835105 -0.038570613 -0.003594488 -0.015806593 0.012257218 -0.013344824 -0.008368872
-0.015343592 0.0342258 -0.027893111 0.05109272 0.005131431 -0.013900161 -0.009828672 0.0057672635
0.0503138 0.016829014 -0.028039105 -0.03865721 -0.013261899 -0.021740876 0.020493716 0.0064679086
-0.03378141 -0.014356263 -0.035103798 0.040301293 0.050479107 0.06148614 -0.05601836 -0.028530136
0.05764632 -0.02212175 -0.027980082 -0.019818895 0.0038861781 0.014583848 0.013124146 0.027400292
-0.044904076 0.020701878 -0.016586632 0.0405659 0.040466152 -0.02761776 -0.028083377 -0.042957522
-0.030339822 0.028418213 0.051509075 -0.02247271 -0.01411733 0.0043765455 -0.046040654 0.05137325
-0.012930393 -0.02961807 0.020249277 0.04677736 0.030385002 0.01828643 -0.013054132 -0.05429662
0.013719887 -0.006388925 -0.01877179 -0.05912544 -0.022944324 -0.0620327 0.019813597 -0.02730222
0.013104901 0.02776932 0.011384539 -0.052889973 -0.030683108 -0.061273187 0.00945656 -0.021051988
0.054955266 0.031883776 0.045445666 -0.04802259 -0.031899296 -0.017627038 0.00047514588 0.032259487

output.bias f4 [4]
00000000: d6f7 69bd 5656 023d f8a6 583d 4e64 2f3d
-0.05712112 0.031820618 0.05289361 0.042820267
