fetch_sticky_mittens_step/networks/ours_10k_block_3_uber_level_0_seed_150/network_reach_object_2.pth (torch, 596855 bytes, 8 tensors)

fc1.weight f4 [256, 60]
00000000: 59ee e63d 2eba 813d b7f3 f0ba 46b0 8d3d
00000010: 7cd3 b73d 293b dfbb e696 82bd ed79 c0bd
00000020: acbf 90bc 77df 933d cf25 d33d 0180 2aba
00000030: e089 debc a01a 57bd af39 8e3d c42f d7ba
00000040: 2ce9 dcbb 4e88 96bd 777f da3c e045 d5bd
00000050: a6e1 763d fa77 e23d 4719 703c 7638 e23a
00000060: 3249 cd3d 3fea fdbd 2761 c7bd e673 3c3d
00000070: ac2a 8a3d 8dac e13d b08e 023e 0f3f fc3d
00000080: 95bb dfbd 5aa4 1c3d 1b8c a93c ff18 e7bd
00000090: 9c5d b2bd 7695 8f3d e16d ecbd ffd6 2c3d
000000a0: b510 c9bd 723f f63d 4dd5 a1bb be84 2c3d
000000b0: e316 9fbd c15b c73d 0545 fc3d 07b2 c8bc
000000c0: f2fb a5bd 74a1 0e3a 8e0f 5b3d 0775 b6bd
000000d0: 9f60 083d df2e e33d d057 14bd 07aa efbd
000000e0: f432 f83d b054 193c 9c4e f9bd c7cb 5a3d
000000f0: 7da9 00be d737 683d 3cae 403d 81ea b73d
00000100: f99f 773d 0175 df3d 47c3 abbd 6df0 52bc
00000110: 1748 973d 443f ca3d f1d8 513d 7ad9 5dbd
00000120: f561 dabd 9b4e 63bc f415 fbbd a4c2 68bd
00000130: 6383 ae3d 1e48 d9bd 8697 a0bc a51d ebbc
00000140: 13fe 043d 43b3 5dbd e0c6 82bc 31c9 d5bd
00000150: 811b fbbd efec 13bc f76a a7bd 6d63 87bc
00000160: 1d72 8abd 6bdf 523d 0be6 c53d f6ce adbc
00000170: 7c9c 00be 525c bebd 820f 853d aa8e 013d
00000180: 1f34 ee3c 3ec2 84bd 7168 483c 84e5 f43d
00000190: 80d8 4cbd 2ddb a5bd f642 1fbd b849 bdbd
000001a0: 2e1a 363d 3b10 c53d 1f4d f03d 80e6 4a3d
000001b0: 2938 0f3d 2047 fcbc 8336 ce3d be8f dd3c
000001c0: 2570 8e3d ccfd 00bd cede a03d 2209 00be
000001d0: 51d7 b7bd 8626 973d aeec a7bd 53d9 e33d
000001e0: 0132 24bb 826c ecbd 1ee2 d93d e291 e5bd
000001f0: df68 d2bd bd1a 8c3d 0e58 94bd d560 ddbd
00000200: 1905 4fbd 3100 ab3d 3952 f33d a1e2 873d
00000210: 6499 ecbc 2000 953d f50e 7dbd 3bf9 d13c
00000220: cdb2 8e3d 9e88 b03d 250e e9bb 873d 82bd
00000230: 6b3b 813d ea91 ee3c e4f0 fc3d b34d ff3d
00000240: 993e 81bd ca54 5cbd a2c5 dbbc 89cc b53d
00000250: fa87 bf3d 610c cebd 1edc 39bb 93ba a83c
00000260: 0754 7ebd 010a 633d 2c51 d0bb 0800 ee3c
00000270: 5e46 d7bd 42b3 e4bd c9fb df3d 4e19 1a3c
00000280: 5104 9a3d 9bf0 6e3c 7a1d c63d 7ad1 c7bd
00000290: 7415 043e 3970 d43d f6d4 013e c963 6c3d
000002a0: 5732 2fbd c450 5bbc 6f38 ebbd bc88 2abd
000002b0: 610c e93d e5dc 97bd 5455 b1bd 0875 a2bd
000002c0: cf72 92bd 94b5 213d c7ce 6d3c c922 e53d
000002d0: e52f 1dbd 065a 743d c477 713d 3ff1 4e3b
000002e0: 805c b3bd 4668 333d 4024 453d 38dd c23d
000002f0: 393c 0abd 3830 d93d 4e61 debc 1fd6 69bc
00000300: eeb1 fdbc 09fd df3d f859 87bc 21e5 87bd
00000310: 9539 aa3d e497 d9bd f9a8 8cbd ec07 90bd
00000320: 3e5a 003e ae4a a43d 6af0 e6bc ef94 d43c
00000330: e133 a53c db9b ab3d 2d5d 02bc 2e84 29bd
00000340: 8f33 b33d 97a2 fbbc 3163 79bd 8611 db3d
00000350: cf3f 12bd 4df3 753d ba68 43bd f952 81bc
00000360: c25f 06bd b75f ffbd c4d7 e33d eb89 923d
00000370: 2360 993d 499f 33bd 27ac 29bd 5c09 72bd
00000380: 2e78 6f3d 1583 863d 3f99 93bc 9168 c7bd
00000390: 11b6 b8bd b2db 2d3d 4d74 003e a37d 2f3d
000003a0: 9e52 b33d 9fea ba3d f07b 6f3d 8c23 9d3c
000003b0: 47ee 423d 155e 5fbc ed23 733d a818 943d
000003c0: e914 93bd 808a adbd cb6e edbd 0613 25bd
000003d0: d83e e23d 05cb c9bd bd42 61bd 5547 c7bd
000003e0: c802 e8bb c385 7abb 5733 fc3d 0365 74bc
000003f0: 1665 a03d 57a1 cb3d 6fac 2e3c 69eb de3d
0.1127593 0.06334339 -0.001838318 0.06918387 0.08975884 -0.0068124724 -0.06376438 -0.093982555
-0.017669521 0.07220357 0.10309946 -0.00065040594 -0.027165353 -0.052515626 0.06944596 -0.0016417434
-0.0067416634 -0.07350217 0.026672108 -0.10413718 0.06027379 0.1105804 0.014654464 0.0017259258
0.100237265 -0.123981945 -0.09735327 0.046008967 0.0674642 0.110192396 0.12749743 0.12316715
-0.1092445 0.038242675 0.02069669 -0.112840645 -0.08709261 0.07010929 -0.11544395 0.042197224
-0.0981764 0.1202382 -0.0049387575 0.04211878 -0.07768037 0.097342975 0.12317852 -0.024498953
-0.081046954 0.00054409285 0.05348163 -0.0890904 0.03329527 0.11092924 -0.036216557 -0.11702352
0.121190935 0.00935857 -0.12173197 0.053416993 -0.12564655 0.056693878 0.047041163 0.08980275
0.060455296 0.109109886 -0.083868556 -0.012874705 0.07386797 0.09875348 0.051232282 -0.05416248
-0.10663215 -0.0138737215 -0.122600466 -0.05682625 0.08521154 -0.106094584 -0.019603502 -0.028700659
0.032468867 -0.054126035 -0.015963972 -0.10438765 -0.12261105 -0.009028657 -0.08174699 -0.016526902
-0.06760047 0.0514826 0.09663018 -0.02121685 -0.12559694 -0.092949525 0.064970985 0.031630196
0.029077588 -0.06482361 0.012231932 0.11957839 -0.050011158 -0.08098445 -0.03888222 -0.09242576
0.04445856 0.09622236 0.1173346 0.04953623 0.034965668 -0.030795634 0.10068991 0.02704608
0.069549836 -0.03149204 0.078549966 -0.12503484 -0.08976615 0.07380395 -0.0819944 0.11125436
-0.0025054219 -0.11544134 0.106388316 -0.112094656 -0.10273909 0.068410374 -0.072433576 -0.10809485
-0.05054197 0.08349646 0.11880917 0.06635023 -0.028881736 0.072754145 -0.061781842 0.025631538
0.06967697 0.08619808 -0.007112282 -0.06359392 0.06310161 0.029122312 0.12350634 0.12465992
-0.06310768 -0.0537918 -0.026827637 0.088769026 0.09352107 -0.10060955 -0.002835996 0.020596778
-0.062091853 0.055429462 -0.0063573327 0.02905275 -0.10511468 -0.11167003 0.10936696 0.009405447
0.075203545 0.014583732 0.09673591 -0.09756751 0.12898809 0.10372967 0.12678894 0.05771235
-0.042772617 -0.013385955 -0.11485373 -0.041634306 0.11379314 -0.07415179 -0.08658853 -0.07932478
-0.07150804 0.039479807 0.014514632 0.11188275 -0.038375754 0.059656166 0.058952108 0.00315769
-0.08757877 0.043800615 0.048130274 0.095148504 -0.03374884 0.106049 -0.027146008 -0.014272242
-0.030968633 0.109369345 -0.016522393 -0.066355 0.08311764 -0.10624674 -0.068681665 -0.07032761
0.12534425 0.080220565 -0.02819081 0.025949923 0.02016634 0.083793364 -0.007956785 -0.041385822
0.087500684 -0.030717177 -0.060885612 0.10696702 -0.035705384 0.060046483 -0.047707297 -0.015786635
-0.032806166 -0.12469428 0.111251384 0.07155212 0.0748904 -0.043853078 -0.041423943 -0.059090957
0.05846422 0.06567971 -0.01801741 -0.09736741 -0.090191014 0.042445846 0.12544365 0.042844426
0.08755992 0.09126782 0.058467805 0.01918199 0.04759052 -0.013633271 0.059360433 0.07231265
-0.07181723 -0.084736824 -0.11593398 -0.040301345 0.11047143 -0.09853176 -0.054995287 -0.097304024
-0.0070804097 -0.00382267 0.1231448 -0.014916661 0.078317806 0.099428825 0.010661229 0.10884745

fc1.bias f4 [256]
00000000: 0942 0bbc d71f d4bc 106b afbd 079e 4ebd
00000010: 8317 813d aeea cabc 5bf2 cb3d 591a c1bd
00000020: 9755 02be 62e4 043d dfbd d73c 4814 71bd
00000030: 19cb 8139 c294 22bd 885b 67bd 4a05 e6bd
00000040: f825 a5bc 3a8b dd3d 90ac 99bd 68f9 d4bc
00000050: ba41 533d 4867 cabd c764 ad3d 0433 86bd
00000060: 9722 65bc 293b 12bd a65d 26bc 14b1 a0bd
00000070: 1d57 3d3d 654f 823d 7f80 a4bc 1cc4 f83d
00000080: 1270 efbd 5df2 433c 9a25 033e b3e2 023e
00000090: 78e8 833d 0236 15bc 55b2 8abd a2b2 883c
000000a0: fd39 903d c7f5 c13c 5472 9c3d 52cf 263c
000000b0: 7627 e8bd 3f4d 79bd 12ec 8f3d 9d66 03be
000000c0: 5b0d a83c f198 2f3b abd0 b0bd 1794 843d
000000d0: b7ad 95bc 3e97 45bd 4ee0 b9bd abad ba3d
000000e0: ad74 c1bc 3cce b2bd 18bc c53d f779 993c
000000f0: 9f18 2c3d d8ee e13d c8db a1bd 6a40 a83c
00000100: de68 a9bd f2ed ccbd a173 b63c 2674 d33d
00000110: 2b3f 323c 96a3 5b3d ca36 87bc dd3e 203d
00000120: c3e6 f93d f500 60bd 7e77 d2bc d056 18bc
00000130: 7bde 333d 77d9 d7bc 090a 153d 5bc6 873d
00000140: f103 c1bc e44e 113d be0b 4abd 5ecf c83c
00000150: 8f34 01be b570 d63d db42 76bd 4c3b 83bd
00000160: 9c32 ac3d dd2e f6bc 4bb0 8cbc e383 03be
00000170: f409 11bd c2c1 383d b9ce ac3d 51b9 febd
00000180: dc84 83bd 5222 00be ac9e 6dbd cee6 bc3d
00000190: 0ec0 d63d 7263 af3d 0f6f febb 2e54 423d
000001a0: a922 933d 8098 63bd 9184 b4bc 7374 83bc
000001b0: 114a d43d c68e d9bd 5e4b 90bd c005 6cbd
000001c0: ad6b 983d 1bc0 3a3a 82cb 9d3c 09a0 c03d
000001d0: 4785 a13d b26a 243d d822 c73d 236c d53d
000001e0: ee31 923a 032e 4dbd 4f89 6d3d 25bb ad3b
000001f0: 3d14 b5bd 6315 cbbd 284f 02be 62b1 a9bd
00000200: ec5c bfbd 8763 61bd 003b 503d 8bbc 09bc
00000210: 5333 e3bd ee65 f63d e3a4 1cbd ab42 453c
00000220: 8f95 283d 1ece 563d 74ca 33bd df65 e2bd
00000230: 8f5f d6bd e8ed ee3d dbb1 dabd ce3e 8cbd
00000240: 947b fbbd c9bc c1bd 67d6 123b 04c2 e9bd
00000250: 599a e13c 67b5 1e3b 7211 b9bd 3700 17bd
00000260: 2a80 d4bd d337 80bd 608d f9bb af50 c7bd
00000270: 728a c5bb d893 81bb 835c 01be bd67 babc
00000280: a500 febc 7b38 9abc d4e1 b9bc 12f2 9abd
00000290: eb38 0f3d 36b3 8a3d 2203 d43d d7ec 333d
000002a0: 7c5e f6bd eed5 aa3d f0a9 fc3d 86ec ee3d
000002b0: b866 f93d ffa1 e5bd 0b3a 8cbd 2f59 e1bd
000002c0: fcd1 7bbd c116 dbbd af2e 213d 877f e93d
000002d0: 83b3 0abb 80d0 1b3c 214f 023e 57f6 f3bc
000002e0: f327 423d 09af 873d 489a a3bc e129 f1bd
000002f0: c95f 893c 31bd debd 670e f2bd b630 d93d
00000300: c5c5 f2bd 3866 7f3d 7808 ac3a 95a8 c53d
00000310: ec0f 3bbd c1d9 3f3c 40bb adbd ab25 bd3d
00000320: b240 02be 3807 8a3d 580f 62bd 07bf ed3c
00000330: 387c 10bd b6ae 84bd a669 e8bd 3b22 c53d
00000340: 7de8 8dbd aa43 fc3d bd4d cbbd 8afe a6bc
00000350: 9fca fa3d a283 6e3d a1f9 1d3d 5c99 00bd
00000360: 7b6c e83c e5b2 e7bd 86e7 cebd 3c7f 2b3c
00000370: 9c60 c3bd 94c8 c9bd 7d5a 273c e735 4dbd
00000380: d4fb 9b3d 1a4a d73a 7d2b b4bc d8fe ddbd
00000390: 3f63 b9bc 3608 3c3d 33cb f53c ec7f 85bd
000003a0: 3fe5 f2bd e024 5b3d ada1 713d 25b2 de3d
000003b0: af80 7fbd c197 a13d 160a 8e3c d306 d5bd
000003c0: 7635 863d c0bb febd 090f b7bc 85ba 91bd
000003d0: 594a 22bd c642 153d 79f2 b53d 23fe aabd
000003e0: 9ee5 863d 1c0f e63d bc42 a9bd aef5 c13d
000003f0: ef95 fabd bd50 413d d6c7 97ba c806 a63d
-0.008499631 -0.025894089 -0.085653424 -0.050443675 0.06303313 -0.024770107 0.09958335 -0.094288535
-0.12727962 0.032444365 0.026335655 -0.058857232 0.00024756117 -0.039692648 -0.056483775 -0.112314776
-0.020159706 0.10817571 -0.07503617 -0.025997832 0.051576354 -0.098829806 0.084664874 -0.06552699
-0.013985298 -0.03570095 -0.010154163 -0.07846275 0.046225656 0.063627996 -0.020080803 0.1214678
-0.116912976 0.011959639 0.12807313 0.12781791 0.06440824 -0.009107115 -0.067722954 0.016686741
0.070423104 0.023676766 0.07638994 0.010181265 -0.113356516 -0.060864683 0.07027449 -0.12832113
0.02051418 0.002679404 -0.0863355 0.064735584 -0.01827131 -0.04823994 -0.09075986 0.09115156
-0.023615206 -0.08730742 0.09655017 0.018734915 0.042015668 0.11031884 -0.07903248 0.020538528
-0.08271955 -0.10006322 0.022271933 0.10324888 0.010879318 0.053622805 -0.016505618 0.03912245
0.122022174 -0.054688413 -0.025691744 -0.009298041 0.043913346 -0.026348813 0.036386523 0.0662963
-0.02356145 0.035475627 -0.049327604 0.024512943 -0.12617706 0.10470716 -0.060122352 -0.06407794
0.084080905 -0.030051643 -0.017173907 -0.1284328 -0.035409883 0.045106657 0.08437867 -0.1243769
-0.06421825 -0.12513092 -0.05801265 0.0922371 0.1048585 0.085638896 -0.007764704 0.04744356
0.07184345 -0.055565357 -0.022035869 -0.016046738 0.103656895 -0.10622935 -0.07045625 -0.05762267
0.074424125 0.0007123963 0.01926208 0.09405524 0.07886749 0.040140815 0.09723443 0.10421016
0.0011153796 -0.05009271 0.057992276 0.0053018504 -0.08841751 -0.099161886 -0.12725508 -0.08285786
-0.09343895 -0.055026557 0.050837517 -0.008406769 -0.11093774 0.1203116 -0.038243186 0.012039821
0.041158255 0.052442662 -0.043894246 -0.110545866 -0.10467445 0.11666471 -0.106784545 -0.068479165
-0.1227943 -0.09459836 0.0022405626 -0.11413959 0.027539419 0.002421701 -0.090365306 -0.03686544
-0.10376008 -0.062606476 -0.00761573 -0.09732186 -0.006028467 -0.003954392 -0.12632947 -0.022754544
-0.031006167 -0.01882576 -0.022690691 -0.075657025 0.03496639 0.06772463 0.1035216 0.04392704
-0.1202974 0.08341585 0.123371005 0.11666207 0.12177795 -0.11212539 -0.06847008 -0.110033385
-0.061479554 -0.10697699 0.03935116 0.11401277 -0.0021164126 0.0095101595 0.12725498 -0.02978055
0.04740138 0.06625182 -0.019971028 -0.11775566 0.016769307 -0.10875929 -0.11819153 0.10604994
-0.11854128 0.062353343 0.0013125082 0.09651295 -0.04566948 0.011709631 -0.08482981 0.092357
-0.12719992 0.06739658 -0.055190414 0.029021753 -0.035274714 -0.06478636 -0.11348276 0.096256696
-0.06929109 0.123175934 -0.09926937 -0.020385046 0.12245678 0.058231004 0.038568143 -0.031396255
0.02837204 -0.11313418 -0.10102753 0.010467347 -0.09539911 -0.0985271 0.010214445 -0.050100233
0.07616392 0.0016425282 -0.021993393 -0.10839623 -0.022630332 0.045906268 0.03000412 -0.0651854
-0.118601315 0.053501964 0.058992077 0.10873822 -0.06237858 0.07890273 0.017338794 -0.10401692
0.065531656 -0.12438154 -0.022346037 -0.07115654 -0.039621685 0.036440633 0.088841386 -0.08349254
0.06586765 0.11233351 -0.08264682 0.09470688 -0.12235629 0.04719614 -0.0011579941 0.08106762

fc2.weight f4 [256, 256]
00000000: d087 a33b 382c babc 62f1 103d 305e 30bc
00000010: 9025 9cbc c609 073d 9406 da3c e4a8 613d
00000020: 6e1a 5a3d 107e 813c 0082 59ba 2459 57bd
00000030: 2c2d 1b3d d01f c3bc 26f5 1bbd 2af1 003d
00000040: 104d 333d 54ac aa3c f03a a0bb ec8f 423d
00000050: 34f9 9e3c ac9d ab3c 605b bf3c 3032 413d
00000060: 0867 62bc bc6c ca3c 6c98 d63c bef9 703d
00000070: c0d0 14bd a4ff 903c f82f f5bc d8a8 133d
00000080: 08fc 7d3c 0048 243a 98e7 7b3d d204 7abd
00000090: 6c33 34bd 464b 54bd 2810 5c3c 3095 363c
000000a0: 5cfb d0bc e0cd d4bc 002d f43b 6c46 4fbd
000000b0: ea2d 1d3d 1a27 5d3d 020b 1f3d a068 2a3d
000000c0: d01b fcbc 4c9a 74bd e86b 20bd 7411 dfbc
000000d0: a8b6 6fbd e86b 4d3d eaea 523d fef4 45bd
000000e0: e8db 3dbc 5eaa 2c3d a40b 5e3d 6cb3 3c3d
000000f0: 50f2 4e3c 94e0 9a3c b60c 00bd 8c57 123d
00000100: 4632 093d 6038 4d3d b02a bd3c d888 2a3d
00000110: da2a 7dbd 64fe f43c 0030 ee38 2096 44bb
00000120: be93 183d f005 a0bb 8c53 3fbd ae3c 733d
00000130: 0c29 8cbc 42a7 12bd e4c4 4e3d de36 613d
00000140: 9058 8b3c ea84 45bd 5025 053d 28af 8e3c
00000150: 0076 60ba 00eb a5ba bcff dabc 1079 c4bc
00000160: 40c8 24bd 1c80 0f3d 3a69 573d 66de 003d
00000170: dc64 583d f0d9 eb3b 4014 1b3d 68aa c6bc
00000180: 0473 533d 744c f3bc 28fe 43bc a0a6 efbb
00000190: 507a a73c 5281 043d f0ce a03b bc63 203d
000001a0: 708f 6bbd e0ea 2dbb ea50 31bd 0e07 743d
000001b0: 9294 26bd 989e 65bd 7e05 47bd 8022 573b
000001c0: 1a5c 5cbd 74ef 84bc 789f 52bd 0015 63bc
000001d0: 024b 75bd fac8 273d 3c61 873c a63c 60bd
000001e0: bc9b 843c 78b8 1ebd 6ace 69bd a218 0a3d
000001f0: d2ba 6cbd ba4a 623d 7c50 693d 0056 25bb
00000200: e8f3 40bc 9aff 0b3d 161c 38bd 30da c8bc
00000210: cc91 6ebd 288b 833c b8ca e4bc 6006 5a3b
00000220: ec11 c23c d6d0 1bbd c835 083c 56d1 493d
00000230: 90ee a2bb 4236 63bd cc07 31bd a0bc 97bc
00000240: 2e3a 243d 64c8 68bd 60fe 183c 3a69 11bd
00000250: feb5 013d b2a6 65bd 9801 c8bc a05d 70bd
00000260: c42d 00bd 3882 6abd 7883 5a3c 4050 fcba
00000270: e44e 30bd 9a4c 54bd 8011 043d cc17 a4bc
00000280: 4434 cd3c d8a4 23bd 44e9 c2bc 20ce 9abc
00000290: acb3 1c3d e463 fbbc b825 4c3c be57 7dbd
000002a0: 2c00 65bd 101c 5c3d d0d1 20bc 34a4 d6bc
000002b0: 98a8 d93c 34f1 fe3c 38aa 47bc 40f6 5f3b
000002c0: 1068 643c 887b fa3c 50cb f63c 3448 b2bc
000002d0: 30ce c73c 0890 d93c 1a17 37bd 0080 79b7
000002e0: fafb 11bd 0037 c739 da70 4b3d b8d1 ff3c
000002f0: 7c24 6ebd d642 6dbd 1c1e bfbc c426 523d
00000300: faf0 00bd 5e94 61bd ac62 91bc 40a7 823a
00000310: a8a3 d4bc 00e0 9bb9 3abc 3ebd 6a7a 353d
00000320: c6d4 52bd b076 533d f427 b1bc a833 be3c
00000330: 0809 2dbd 607e b13c b634 30bd d45a b4bc
00000340: e249 093d a08c 063b 08e0 69bd 944f f83c
00000350: 489d 9a3c 0054 fa38 e006 143c 4aa8 593d
00000360: 909a d9bb c842 a7bc f8e3 503c 6a5e 5ebd
00000370: cc9a 1f3d 64c9 95bc 4010 cc3a 5098 3bbc
00000380: 8a28 4cbd a0da 6a3c a4be e8bc 883c 1d3d
00000390: d6e0 29bd 8c09 bc3c 1cec b0bc ceb6 5ebd
000003a0: e821 c0bc 48a3 4c3d fc9e a93c 48d1 77bc
000003b0: d8cd 40bd f89e 5a3c 389f 8bbc 4051 4f3c
000003c0: 70f0 a6bb 3043 a23b 00fc 0d3d 2ab2 07bd
000003d0: a061 a33b 3881 b83c 10c1 9f3c c84d f8bc
000003e0: 38f5 a5bc c0ff dc3a 00f2 1939 14c5 22bd
000003f0: 58f6 69bd 8ca7 19bd 70ac c33b d82b 6dbc
0.0049905553 -0.022726163 0.03538645 -0.010764644 -0.01906088 0.032968305 0.026614465 0.055092707
0.05324786 0.015807182 -0.00082972646 -0.052575245 0.037884876 -0.02381888 -0.03807559 0.031479992
0.043774664 0.020834126 -0.0048898384 0.047500536 0.019405939 0.020949207 0.023359 0.047167003
-0.01381851 0.024710052 0.026195727 0.058831923 -0.036331892 0.017700024 -0.0299301 0.036049694
0.015501983 0.00062668324 0.061500162 -0.061039753 -0.043994352 -0.0518296 0.013431586 0.0111439675
-0.025510482 -0.025977075 0.0074516535 -0.05060427 0.038373865 0.05399237 0.038828857 0.041603684
-0.03077498 -0.05971746 -0.039165407 -0.027230002 -0.058523804 0.050151736 0.051493563 -0.048329346
-0.011588074 0.042154662 0.05421032 0.046069548 0.012631014 0.018905915 -0.031262122 0.035728022
0.03349521 0.05010259 0.023091644 0.04163441 -0.061808445 0.02990646 0.00011357665 -0.0029996708
0.037250273 -0.0048835203 -0.046710536 0.05938404 -0.017109416 -0.03580404 0.05048074 0.054983966
0.017010003 -0.04822246 0.032506287 0.017417505 -0.0008562505 -0.0012658536 -0.026733272 -0.023983508
-0.040230036 0.035034284 0.052590586 0.031462096 0.052830562 0.007197611 0.03786111 -0.024251178
0.05162336 -0.029699542 -0.011962451 -0.0073135644 0.020444065 0.032349892 0.0049074814 0.039157614
-0.05750984 -0.0026537701 -0.043290056 0.05957704 -0.04066903 -0.05605945 -0.048589222 0.003282696
-0.053798772 -0.016227461 -0.051421613 -0.013859987 -0.059885986 0.04096315 0.016525857 -0.05474534
0.016187541 -0.03875014 -0.057081617 0.033714898 -0.057795353 0.055247046 0.05696152 -0.0025228262
-0.011776902 0.034179308 -0.04494866 -0.024518102 -0.05824451 0.016057566 -0.027928695 0.003326796
0.023690186 -0.03804096 0.008313604 0.049271904 -0.0049722865 -0.055471666 -0.043220326 -0.01852256
0.040094547 -0.056831732 0.0093379915 -0.035500742 0.031667702 -0.056067176 -0.024414822 -0.058683038
-0.031293646 -0.057253093 0.013337009 -0.0019249991 -0.043043986 -0.051830865 0.03224325 -0.020030878
0.025049336 -0.03995213 -0.02379287 -0.018897116 0.038257286 -0.03068728 0.012460165 -0.061851256
-0.055908367 0.0537377 -0.009815648 -0.026201345 0.02656965 0.031120874 -0.012186579 0.0034173876
0.013940826 0.030576482 0.030126244 -0.021762945 0.02439031 0.026557937 -0.044699766 -1.4871359e-05
-0.035640694 0.00037997216 0.04966817 0.031227931 -0.058140263 -0.057925068 -0.023329787 0.0513065
-0.031479813 -0.055073135 -0.017747246 0.0009968057 -0.025956944 -0.00029730797 -0.046566226 0.044306196
-0.051472448 0.05162686 -0.021625496 0.023217991 -0.04224494 0.021666706 -0.04301902 -0.022015966
0.033517726 0.0020530596 -0.05709842 0.030311383 0.018873826 0.00011936575 0.009034842 0.05313901
-0.0066407397 -0.020417586 0.0127496645 -0.05428926 0.038965985 -0.018284507 0.0015568808 -0.011449888
-0.04984335 0.014334351 -0.028411217 0.038387805 -0.041474186 0.022953771 -0.02159696 -0.054373555
-0.023453668 0.049960405 0.020705692 -0.01512558 -0.047071308 0.013343565 -0.017043695 0.012653649
-0.0050945804 0.004951857 0.034664154 -0.033128895 0.004986003 0.022522554 0.019501239 -0.030310526
-0.020258531 0.0016860887 0.00014681369 -0.03973873 -0.057119697 -0.0375133 0.005971484 -0.014475785

fc2.bias f4 [256]
00000000: 9a0e 1cbd 287a 443c 00f4 a73b 86dc 553d
00000010: 00ca 9b3b e08b 873b d042 2b3d 66c3 1fbd
00000020: 3059 29bd a486 a3bc 66b3 3f3d 08d6 e7bc
00000030: 54b5 37bd 0899 03bc a606 5bbd 604b 5bbb
00000040: 028a 28bd 5e81 6bbd 6864 583d f6b6 233d
00000050: c249 24bd e814 933c d00b cb3b eca0 d73c
00000060: b4a6 c23c d836 9f3c f424 273d 80c4 e1bc
00000070: ce0a 4dbd 3825 713d 0002 c1b9 0cde 223d
00000080: e8e6 ab3c 7ea7 00bd 2ee2 5c3d de82 373d
00000090: fa2f 3e3d 8c25 9cbc 42b0 00bd 8264 1dbd
000000a0: c0b1 4abb dcb9 0bbd 6c5c 2d3d 409f 173c
000000b0: 7c90 703d 32af 30bd f6ed 443d c8c7 783c
000000c0: 5809 86bc 60f6 1c3d 7ee1 69bd c0ef 583c
000000d0: 48e7 3dbd b47a fa3c 9c71 2b3d a8cb ab3c
000000e0: 8875 fb3c 1293 143d 18a3 663c 7c07 d7bc
000000f0: 24ac aebc a8f2 0abd 6046 08bb 3216 4ebd
00000100: 20e3 b03b f233 7b3d 98f8 b63c a8bd ad3c
00000110: 6c02 fd3c ac58 5abd 54bf 893c f4e0 aabc
00000120: 8041 c73c a042 583b 30b2 7cbc 703d a9bc
00000130: a8d1 203c 6060 463c 80b3 ccbc dccb 2b3d
00000140: 8ab9 123d 089c 273c 801d 633c 20ca 09bd
00000150: 14d2 a63c f8ab 863c 682f 3ebc dc81 c9bc
00000160: 90e2 87bc 8064 fbba 02d8 4bbd 8abd 143d
00000170: 805d 90ba c0bb 7abd 4ab0 4dbd d85f 6e3c
00000180: 3a29 51bd 8e84 0d3d 52f1 0e3d 74d3 363d
00000190: 42a4 71bd bccc eabc 30bb 943b 80e0 3c3d
000001a0: e4ac 3cbd f8d5 273c 00b9 353a 7ece 343d
000001b0: a4a6 adbc 2055 60bd a050 4d3c e09c 7f3b
000001c0: 9ced 7abd 4edf 49bd 5042 36bd 784b 953c
000001d0: d00f f63b 7878 113c b006 e1bb 6a29 423d
000001e0: 321c 3dbd a8d4 d1bc b6e5 58bd b4ac fcbc
000001f0: 007a ffbc 7800 babc 803e 71bb 6c7a 4abd
00000200: 30d3 14bc d0c5 23bc caa6 3c3d 6808 6dbc
00000210: 544f f23c ea85 52bd 10f8 e43b 20d1 fa3c
00000220: 2055 08bb f057 cbbc 5463 81bc 4248 24bd
00000230: 32d1 0c3d c893 18bc 0039 543d 8afc 623d
00000240: 0ad2 5d3d 1017 103c c8b5 6ebc a89f 993c
00000250: c4f8 45bd ce9d 18bd 5804 3bbd 2424 eabc
00000260: 6081 60bb 9058 0a3d 0812 7b3d f8da 7c3d
00000270: 402b 743b 4eb3 69bd 50b9 a0bb a2e7 413d
00000280: 783d 77bd d0e2 27bd 74f3 883c 1824 443c
00000290: 1220 5a3d 141b ea3c 38d8 40bd 6277 5d3d
000002a0: 38bc 373d d033 0bbc 6616 2dbd 10d8 9cbb
000002b0: 1c4f dcbc 7001 1ebc 9420 d2bc c024 f1ba
000002c0: 1445 7dbd 1064 a1bb 64c9 3cbd 460d 293d
000002d0: 841a 9f3c 7ea0 253d 605c 663c c4ad 84bc
000002e0: 5878 563d 18c5 7bbd 4c03 9abc 88f8 dd3c
000002f0: 8ab7 61bd 7004 11bd 4609 323d 1cc4 b43c
00000300: 202d b4bc 2843 8d3c 60f3 4e3c aac8 013d
00000310: 42ac 6d3d 10ef ff3b 3407 b33c 5827 efbc
00000320: 10b9 7bbc 0c27 583d 8819 5c3d 0088 4c3a
00000330: 3ecc 50bd f6aa 3b3d d04d dcbb 3810 b6bc
00000340: 84fe 4cbd 262a 0f3d acc0 1abd b088 043c
00000350: 8032 fd3a f0f5 87bc 52d0 1cbd 3038 30bc
00000360: c8bf 41bc 8a52 553d daeb 02bd fe45 753d
00000370: 7ebc 603d fadf 123d 5c52 c3bc 1e7e 0d3d
00000380: c8f0 833c 00da 6339 782b e93c 20ce b33b
00000390: 643f eebc 6646 083d 4426 25bd dab6 5c3d
000003a0: e81f 353d 60a4 2e3d 7816 7f3c 2209 74bd
000003b0: 280e 973c 20b0 153d 04cf b5bc 4ca4 0d3d
000003c0: 4a1f 18bd a481 213d 1638 78bd d0c2 06bd
000003d0: acf5 d33c 1c23 c13c ce12 5e3d 48c9 07bd
000003e0: dc91 47bd a0f7 46bc 487b 3ebc 7c42 9b3c
000003f0: 8856 5abd 402a 7c3d b8a7 a53c a6b9 543d
-0.038099863 0.011992015 0.0051255226 0.05221226 0.004754305 0.0041365474 0.041811764 -0.039004706
-0.04134482 -0.019961663 0.046801947 -0.0283003 -0.044850662 -0.008032091 -0.053473137 -0.0033461675
-0.04114724 -0.05749642 0.05283013 0.039969407 -0.040109403 0.017954305 0.0061964765 0.02632185
0.02376113 0.019435331 0.040806726 -0.027559519 -0.050059132 0.058873385 -0.0003681332 0.03976254
0.020984128 -0.031409733 0.05392664 0.04480254 0.046432473 -0.019060872 -0.031418093 -0.03842593
-0.00309287 -0.034112796 0.04232447 0.009254277 0.05873154 -0.04313583 0.0480785 0.01518435
-0.016361877 0.0383209 -0.05709981 0.013240755 -0.046363145 0.030576088 0.041856393 0.020971134
0.030695692 0.03627307 0.0140769705 -0.026248686 -0.021322317 -0.03392282 -0.00207939 -0.050314136
0.005398169 0.061328836 0.022335336 0.0212086 0.030884944 -0.05330722 0.016814865 -0.02085922
0.024323225 0.0032998696 -0.015423343 -0.020659178 0.009815611 0.0121079385 -0.024987936 0.041942462
0.035821475 0.010230072 0.013862014 -0.033640027 0.020363845 0.016439423 -0.011607982 -0.024598055
-0.016587526 -0.0019179732 -0.049766548 0.03631357 -0.0011014193 -0.06121421 -0.05021695 0.014549218
-0.051064707 0.034550242 0.03489811 0.04463525 -0.05899454 -0.028662078 0.004538916 0.046112537
-0.04606332 0.010243885 0.0006932169 0.04414224 -0.021197625 -0.05476868 0.0125314295 0.0039003417
-0.06126176 -0.049285226 -0.044496834 0.018224463 0.007509209 0.00887882 -0.0068672523 0.047402777
-0.046169467 -0.025614098 -0.052953444 -0.03084407 -0.031186104 -0.022705302 -0.0036810935 -0.049433157
-0.009083554 -0.009995893 0.0460575 -0.014467336 0.029578842 -0.05139724 0.006987579 0.030617297
-0.0020802692 -0.024822205 -0.015794434 -0.040107973 0.03437919 -0.009312578 0.051812172 0.05541662
0.054155387 0.008794561 -0.014569707 0.018752888 -0.048332945 -0.03725987 -0.04565844 -0.028581686
-0.00342568 0.033775866 0.061296493 0.061732262 0.0037257224 -0.057055764 -0.0049049035 0.047340043
-0.060361356 -0.04098779 0.01671765 0.011971496 0.05325324 0.028577365 -0.047081202 0.05406893
0.044857234 -0.00849624 -0.04225769 -0.004786499 -0.026893191 -0.009643897 -0.0256503 -0.0018397793
-0.061833456 -0.0049252585 -0.0460905 0.041272424 0.019421823 0.04043626 0.01406011 -0.01619614
0.052360862 -0.06146726 -0.0188004 0.027096048 -0.055106677 -0.035404623 0.043465875 0.022066168
-0.021994174 0.017243937 0.012631267 0.03168551 0.058025606 0.007810481 0.02185402 -0.029193565
-0.015363947 0.052771613 0.053735286 0.0007802248 -0.05097603 0.045817338 -0.006723143 -0.02222453
-0.050047413 0.034952305 -0.037781402 0.008089229 0.0019317418 -0.016596764 -0.038284607 -0.010755584
-0.011825509 0.05208067 -0.031963207 0.059881203 0.05486726 0.035858132 -0.023842983 0.034544103
0.016106024 0.00021729618 0.02846311 0.0054872185 -0.029082961 0.033270262 -0.040319696 0.05388532
0.04421988 0.04263723 0.015569322 -0.059579022 0.018439367 0.03654492 -0.02219344 0.034580514
-0.037139215 0.039430276 -0.060600363 -0.03290063 0.025873981 0.023576312 0.054217152 -0.03315094
-0.048723087 -0.012143999 -0.011626072 0.0189526 -0.05330518 0.06156373 0.020221576 0.05193486

fc3.weight f4 [256, 256]
00000000: 1c12 7c3d a87b 413d b438 af3c d208 343d
00000010: ec3f ec3c 3875 6cbd b00b 7dbc 5068 b53c
00000020: 9e0b 43bd 0088 1abc 2048 e3bc 2c9a 34bd
00000030: f0d3 063c c488 aa3c a0e6 23bd 6656 3d3d
00000040: 0050 193a 821f 473d 727a 54bd 6478 a3bc
00000050: 1845 85bc 28c3 4bbd f2c0 7f3d 68fa c2bc
00000060: 40f4 093c e26a 5bbd d050 e1bb 2a95 373d
00000070: 8cb5 4c3d d4e8 70bd 4425 9f3c 9017 cc3b
00000080: 96d7 543d e89d 6abd 40b4 d8bc a0c3 7e3c
00000090: 3069 c8bb e08d 163c 6c34 82bc 5071 e03c
000000a0: 20b7 60bc b660 36bd caa6 593d e0ba e73b
000000b0: c437 de3c b81e b43c f6c7 63bd 3c06 22bd
000000c0: 78b5 463c a437 70bd 9a2d 233d 40de f33c
000000d0: 8055 243b 9245 6fbd 6410 373d 405e f43c
000000e0: f025 583d 1c32 86bc d4e3 443d f23f 043d
000000f0: f86f c23c fc03 0cbd a48d e43c 8ee2 63bd
00000100: 5069 923c 0ea2 29bd eca2 863c 7063 773d
00000110: ea91 763d ec78 6abd 407c e8bc 28ac 303c
00000120: a845 c4bc c0e4 e23b daac 4b3d 8034 6b3c
00000130: ec4f 773d d4b0 4bbd 5044 e6bb 2a72 4bbd
00000140: 38f0 26bc ac2b babc 2854 6b3c 0643 14bd
00000150: 5c60 e3bc 6808 513d 4c7f 283d c868 f1bc
00000160: beb5 203d 565c 14bd 50d5 dd3c e628 38bd
00000170: 9eab 5dbd 007e 13bd 5819 ea3c 340e bbbc
00000180: 6a13 503d be2b 403d 0051 113d 20fd d9bb
00000190: 187a c23c 74bb ed3c 5aa3 01bd 387f 4c3d
000001a0: a0e1 6f3b e04e 54bb 9630 703d 123e 263d
000001b0: 303b c93b e004 45bb 3032 cabb d47c 19bd
000001c0: 8aab 4a3d f8d8 b83c b6d5 03bd 1e19 1cbd
000001d0: 6872 5ebd 6449 10bd 5065 5e3d 047e bdbc
000001e0: f8ba 7e3c eaea 4e3d 682a 2abd 28e9 80bc
000001f0: 809e 553b fa86 4abd b061 6d3d 6c70 363d
00000200: b80d 03bd aec4 4c3d 8068 da3c a413 2bbd
00000210: c464 813c 6245 52bd c02a 39bc acd3 253d
00000220: d04e 6fbd e4f2 d63c d48e 853c 9c80 013d
00000230: de60 3c3d 78da adbc 1433 04bd 8ce7 ddbc
00000240: 3023 133c 7c79 d3bc 5056 d4bc 0ac3 07bd
00000250: 1c86 ff3c 164c 23bd 8a03 6a3d 2888 36bc
00000260: a810 6a3c 186c 2b3c 4845 08bc 9082 bfbb
00000270: 6685 62bd 0a46 6f3d d401 abbc daca 3d3d
00000280: 3c61 db3c 06bb 04bd 6036 443c 16a9 50bd
00000290: 30b1 86bb 2abf 02bd 307e c0bb 28ed 713c
000002a0: ee5b 5dbd b0ba c1bc 547e 21bd 5a59 4dbd
000002b0: a001 7d3d 38cd 70bd dc72 6e3d 6a26 373d
000002c0: 364b 553d a0a2 71bc bc3f a93c 8053 98ba
000002d0: a052 ffbb b852 273c be90 37bd e6d2 053d
000002e0: b898 76bc 5aa9 493d f01f 993c 0070 8cba
000002f0: b80d ee3c 00f8 88b8 b899 453d f4ad b53c
00000300: f077 92bb 000d 603c 52cf 323d 9e8f 143d
00000310: 006e e3b9 dc08 b93c fc75 a83c 4cc1 4b3d
00000320: f8f8 073d e82c 91bc e665 2ebd d236 753d
00000330: 6067 b73c 20ad 1c3d 4434 5fbd 541f 10bd
00000340: 189e b83c c875 abbc ecab 1e3d 00aa 4b3b
00000350: 3053 97bc e04d 77bb 0c0d 163d d02c 83bc
00000360: 7efe 113d 5019 9abc dc0f dc3c 8e84 7ebd
00000370: 40f1 e43b 428e 6abd 3c5e 213d 004b d3bb
00000380: f0e1 813b 307f 273c b49c 743d d48f 073d
00000390: 549e c4bc 00be 6c39 dc66 ebbc 0ee7 64bd
000003a0: 4489 463d ec81 5d3d 407b ff3b 2c15 58bd
000003b0: 18cd 30bd 9eae 60bd 647d f7bc 7a8c 693d
000003c0: 9acb 173d c458 443d f0bf 5f3d 404d f73a
000003d0: 80e1 033d 0c70 ee3c 1865 433d d440 1e3d
000003e0: c88a 0d3c 96cb 0c3d c062 5cbb b848 2fbc
000003f0: 6083 c93c 2096 0bbc 2621 5f3d fc53 51bd
0.061540708 0.04723707 0.021389343 0.043953724 0.028839074 -0.057728976 -0.015444681 0.022144467
-0.0476185 -0.009431839 -0.027744353 -0.044092342 0.008229241 0.020817168 -0.040014863 0.046224974
0.0005848408 0.048614033 -0.051874585 -0.019954868 -0.016268298 -0.049746662 0.062439866 -0.023801044
0.00842005 -0.05356873 -0.0068760887 0.04481999 0.049977824 -0.058815792 0.01942695 0.006228395
0.05196341 -0.057279497 -0.026453137 0.01554957 -0.006116055 0.009189099 -0.015894137 0.027397782
-0.013715535 -0.044525824 0.053137578 0.007071838 0.0271262 0.021987304 -0.05561062 -0.039556727
0.012128226 -0.058646813 0.03983841 0.029769063 0.0025075376 -0.058415957 0.044693366 0.029830098
0.052770555 -0.016381316 0.048068836 0.032287546 0.023735031 -0.034183487 0.02789957 -0.05563598
0.017872483 -0.041414313 0.01643511 0.060397565 0.06019775 -0.057244226 -0.02837956 0.010783233
-0.023958996 0.006924242 0.04972539 0.014355779 0.060378954 -0.049729183 -0.0070271865 -0.049669422
-0.010189109 -0.022725902 0.014363326 -0.03619673 -0.027755909 0.051033407 0.041137025 -0.029468909
0.039235823 -0.03622087 0.027079254 -0.04496088 -0.054118745 -0.036008835 0.028576538 -0.022833921
0.050799765 0.046916716 0.03547764 -0.0066524893 0.02373986 0.029020049 -0.031649925 0.049926013
0.003660299 -0.0032395646 0.058640085 0.04058654 0.006141089 -0.003006272 -0.0061705336 -0.03747256
0.04948 0.022564396 -0.032186233 -0.03810989 -0.054308325 -0.03522624 0.054295838 -0.023131378
0.0155475065 0.050517 -0.041544348 -0.015736178 0.0032595694 -0.04944513 0.05795449 0.044540808
-0.031995505 0.049992256 0.026661158 -0.041766778 0.01579512 -0.0513357 -0.011301696 0.04048507
-0.05842477 0.026238866 0.016303457 0.031616792 0.045990817 -0.021222338 -0.032275274 -0.02708795
0.008980557 -0.025814764 -0.025920063 -0.033144988 0.031191878 -0.039867483 0.05713228 -0.011140861
0.014286198 0.010462783 -0.008317299 -0.0058444217 -0.055303 0.058416404 -0.020874895 0.046336032
0.026779763 -0.032404922 0.011975855 -0.050942503 -0.004110478 -0.03192059 -0.0058744177 0.014766015
-0.05404275 -0.02364859 -0.039427117 -0.05013404 0.061769128 -0.05878946 0.058215007 0.04471437
0.05207368 -0.0147482455 0.020660274 -0.0011621565 -0.007791832 0.010212593 -0.04481577 0.03267183
-0.015051059 0.04923377 0.018691987 -0.0010714531 0.029059276 -6.531179e-05 0.0482423 0.022177674
-0.004469864 0.013674974 0.043654747 0.036269777 -0.0004337877 0.022587232 0.020564072 0.04974489
0.03319642 -0.017721608 -0.042577647 0.059866734 0.02238816 0.038251042 -0.054493204 -0.035186127
0.022536322 -0.020930186 0.038738176 0.003107667 -0.018472284 -0.0037735626 0.036633536 -0.01601258
0.035643093 -0.018810898 0.026863031 -0.062138133 0.006986767 -0.057264574 0.03939651 -0.0064481497
0.0039637014 0.010223195 0.059719756 0.03309615 -0.024001278 0.00022577494 -0.02873557 -0.055884413
0.04847075 0.05407898 0.007796675 -0.052754566 -0.043164343 -0.054854028 -0.030211158 0.057018735
0.037059404 0.047936216 0.054626405 0.0018867627 0.032197475 0.029106162 0.047703832 0.038636044
0.008639045 0.034373842 -0.0033628196 -0.01069849 0.024598777 -0.008519679 0.054474972 -0.051105484

fc3.bias f4 [256]
00000000: 5e9c 0dbd a4d9 983c 9c4b 633d 0094 b039
00000010: 2855 823c fc7e ed3c 2e45 01bd 9876 3b3c
00000020: 40f5 4f3b dc38 993c 8e04 693d 4006 fcba
00000030: 380e 9ebc 00ea e7bb d4f3 c83c 4456 12bd
00000040: f0ee 0dbc 12d0 41bd b881 45bc 04c8 1fbd
00000050: e82c 273c 621d 1f3d b050 3cbd b668 0a3d
00000060: f66e 29bd 0028 623c 6427 2fbd c091 f5bc
00000070: d260 7a3d fe49 493d 68c1 4ebd f473 5b3d
00000080: 04c9 c7bc 7a6e 583d 701a b93b a01b 4c3c
00000090: 1882 783d 2ee3 51bd de10 743d 76a7 11bd
000000a0: 781d 81bc d0f7 803b 12b0 2cbd ec0d 023d
000000b0: 00a2 dc3c d019 73bc e8e2 0cbc 9082 033c
000000c0: 324e 56bd 8cbc 123d f8c4 91bc 423a 77bd
000000d0: b27b 3b3d 4048 f03b c8f6 c7bc 2ed9 2e3d
000000e0: ec75 38bd 5439 ec3c 56c0 313d 404b d63b
000000f0: c0fb aabb 3c8e 893c b8dd 9fbc 58f5 f23c
00000100: 60cb 7abd 6494 33bd e6ba 313d 907b 913b
00000110: ba46 18bd c024 3e3c 14ac 5b3d 3eee 783d
00000120: 4e09 17bd 009a 0ab9 207a 693c 70a2 c8bb
00000130: 306c 32bc 68f9 0f3d 800b f83b 4095 dd3c
00000140: 1c1c 35bd 8403 d23c 407b 0fbd 00b3 41ba
00000150: d82a 4bbc 726b 55bd 7857 c43c 602a 233b
00000160: be04 5abd bc5d 09bd 029b 703d 9c0b 7bbd
00000170: d80c 0e3c 2660 253d 66fb 1dbd 1a30 253d
00000180: 48f5 0d3d fcc7 a3bc 74d6 4e3d 4ab6 3fbd
00000190: ceb2 79bd a832 8fbc 3c4b ca3c 00c7 41bc
000001a0: 8892 4ebd 708d 65bd 30c8 be3b 56d0 2ebd
000001b0: f6c0 11bd e23d 103d 8031 543d 8c37 fdbc
000001c0: 6c89 00bd 7087 22bc 8c5c 343d b808 6cbc
000001d0: 90cd 34bd 761b 6f3d 5ed3 413d baa6 503d
000001e0: 72ac 21bd 4c12 2cbd 3ee2 5ebd 50bf 713c
000001f0: 9e77 61bd 5a1e 113d ac67 353d 70f8 523d
00000200: e4cd 76bd 0880 123d 308f 5bbc 101d 423c
00000210: 5a9d 4fbd f404 483d e4f9 873c 6cf2 df3c
00000220: b030 46bc 148a c0bc 7898 2a3c 8087 3ebb
00000230: 9c45 123d b4ae cfbc 5cb8 9ebc b002 873c
00000240: d013 b9bb a438 2bbd f06e 0a3d 3cd0 75bd
00000250: 880d 32bd ce6f 333d ca72 123d 3873 a3bc
00000260: a475 d33c 4eea 73bd 7a9d 603d 205f 603d
00000270: 9a37 5f3d 6436 7ebd 26f4 4c3d a81f 773c
00000280: 08d9 29bd 08bd 54bc 5eea 5b3d 40a3 9f3a
00000290: 00e6 d639 8ce0 cdbc 90a9 a43c 8645 6c3d
000002a0: d28d 0a3d f63b 0c3d 3c59 2bbd 00cb 97b9
000002b0: 0845 05bd 504f df3b 2eb4 3f3d 7a37 713d
000002c0: 848d ff3c a063 b93b 30c0 9bbb ee34 40bd
000002d0: 1c22 e13c b828 293c 7804 41bc 8290 66bd
000002e0: a064 a83c e099 003d 0070 c7ba b229 393d
000002f0: d088 7e3c 0083 45ba b8a1 0bbd ac92 9a3c
00000300: a28e 56bd e00c 9a3b ac15 863c 00f6 b1ba
00000310: f84a 1f3d 4862 39bc d08e de3b 0206 06bd
00000320: ceb5 41bd e27c 28bd 80ca 4bbd 60fc e6bc
00000330: 5816 4bbd 3a3d 193d 1c52 4abd 4855 f2bc
00000340: 6695 69bd a8a8 11bc 28ed 223d 4c61 833c
00000350: 40cc 70bd 9e70 49bd 303e 70bc 00c3 35bb
00000360: 7c5b 083d 2cb0 92bc 0093 bf3b 66f8 7e3d
00000370: 5292 213d 8037 a53c 98ae 8fbc c809 ffbc
00000380: 0882 423d c032 17bd c802 993c 2089 343b
00000390: ac04 b5bc 5cda 37bd 3e31 18bd 644a 183d
000003a0: 00d2 f6bc e6de 20bd ec2c 40bd a8dc 8d3c
000003b0: f832 77bc 3029 253d b896 d9bc c817 b9bc
000003c0: 9882 cd3c f07c 603d 7e47 003d 4019 5e3d
000003d0: f033 da3b b2e0 413d 1807 0bbd 4068 f5ba
000003e0: 2c00 80bc ca48 0d3d 6801 a6bc f8cf ad3c
000003f0: 2026 5c3b a836 453d 2001 423d 8ea1 26bd
-0.03457295 0.018658467 0.05549203 0.00033679605 0.015909746 0.028991215 -0.031560116 0.011441849
0.0031731874 0.01870387 0.05688911 -0.0019227937 -0.01929389 -0.0070774555 0.024530329 -0.0357268
-0.008662924 -0.047317572 -0.012054853 -0.03900911 0.010203578 0.03884638 -0.045975387 0.033791266
-0.041365586 0.013803482 -0.042762175 -0.029976726 0.06112749 0.04914283 -0.050477415 0.05357738
-0.024387844 0.052839734 0.0056489035 0.012457758 0.060670942 -0.051242046 0.0595864 -0.035560094
-0.015761122 0.0039357916 -0.0421601 0.03175156 0.026932716 -0.014837697 -0.008599021 0.008026734
-0.052320667 0.035824344 -0.017794117 -0.060358293 0.045772262 0.0073328316 -0.024409667 0.042687587
-0.045034334 0.02883593 0.043396316 0.006539732 -0.005217999 0.016791455 -0.019514903 0.029658005
-0.06122911 -0.04384269 0.04339113 0.0044397786 -0.037176825 0.011605442 0.053630903 0.06077408
-0.036874108 -0.00013218075 0.014250308 -0.0061228797 -0.010890052 0.03514996 0.0075697303 0.027048707
-0.04421626 0.025636442 -0.03502965 -0.0007389039 -0.012400351 -0.05210442 0.02396749 0.0024897084
-0.05322718 -0.033536658 0.058741577 -0.06129037 0.008670054 0.040374897 -0.03856983 0.040329076
0.034657747 -0.01999282 0.050497487 -0.046804704 -0.060961537 -0.01748021 0.024694078 -0.01182723
-0.05043271 -0.05604309 0.005822204 -0.042679153 -0.035584413 0.035215266 0.05180502 -0.030910276
-0.031381056 -0.009919986 0.044033572 -0.014406376 -0.044141352 0.0583758 0.047320716 0.050940253
-0.039471097 -0.042009637 -0.05441498 0.014755085 -0.055045716 0.035429336 0.044288322 0.05150646
-0.060254946 0.03576663 -0.013400838 0.011847749 -0.05068717 0.04883285 0.01659865 0.027337275
-0.012096569 -0.02350334 0.010412328 -0.0029072464 0.035710916 -0.02535186 -0.019375019 0.016480774
-0.005648114 -0.041802064 0.033797204 -0.06001304 -0.043469936 0.043807797 0.035754003 -0.019952402
0.025812931 -0.059549622 0.05483768 0.05477822 0.054496385 -0.06206359 0.050037526 0.015083231
-0.041466743 -0.012984522 0.053690307 0.001217939 0.00040988624 -0.025131486 0.020100385 0.05768349
0.033826657 0.03423687 -0.041833147 -0.0002895221 -0.032536536 0.0068148747 0.046802692 0.058890797
0.03119541 0.005657628 -0.004753135 -0.046925478 0.027482085 0.0103246495 -0.011780851 -0.056290157
0.020555794 0.031396747 -0.0015215874 0.04520578 0.015535548 -0.0007534474 -0.034089774 0.018868767
-0.05238212 0.004701242 0.016367756 -0.0013577342 0.038889855 -0.011314936 0.006791927 -0.032720573
-0.047292523 -0.041134723 -0.049753666 -0.028196514 -0.049581856 0.037411906 -0.04939471 -0.02958168
-0.057027243 -0.008890308 0.03977695 0.016037606 -0.058788538 -0.049179666 -0.014663264 -0.0027734637
0.03329037 -0.01790627 0.005846381 0.06224861 0.039446183 0.020168066 -0.017539307 -0.031132594
0.04748729 -0.036913633 0.018678084 0.0027547553 -0.022096954 -0.044885978 -0.037156336 0.03718032
-0.030129433 -0.039275073 -0.04691784 0.017317131 -0.0150878355 0.040322483 -0.026561126 -0.022594348
0.025086686 0.05480665 0.03131818 0.0542233 0.0066590235 0.047333427 -0.033942312 -0.0018723086
-0.015625082 0.034493245 -0.020264342 0.021217331 0.003359206 0.048147827 0.047364354 -0.040681414

output.weight f4 [4, 256]
00000000: 7018 5fbd 5885 563c 90cc 273d 30ab e83c
00000010: 30cd d53b 66eb 51bd 1011 953c 0040 9db7
00000020: 70d0 fb3b be32 153d 2087 75bc 1420 893c
00000030: f8f2 023d 9413 ee3c 8237 053d 409e 963a
00000040: 2ab7 17bd 4810 f1bc 5a18 633d 2c82 77bd
00000050: d82a 9bbc c824 4a3c 1470 ae3c e0df f7bc
00000060: 1409 c1bc 44fd b33c 48b7 473c a8d1 1b3c
00000070: 8cd9 d93c 08cd 61bd 4046 b5bb 503b 4f3d
00000080: b25a 233d 5c06 323d f075 97bb 7872 bd3c
00000090: aa57 4e3d 242b 31bd 2076 3e3d 8adf 563d
000000a0: a022 70bc 4eeb 363d f4ca af3c 0027 82bc
000000b0: a679 4abd a8c2 c43c cca4 bb3c 0860 1abc
000000c0: 1084 b53c 9aed 68bd 8820 4abd fc55 8c3c
000000d0: 98b8 083c 00b8 4bbc a668 603d f8ae 5e3d
000000e0: d018 f63b 6482 b0bc 8adb 473d a094 1c3b
000000f0: 286d 57bd 2c1e 8abc 501e 80bc 62f0 34bd
00000100: 021b 613d 4466 a3bc 28f7 343d ec28 c0bc
00000110: 501f 3b3c 48df 31bd 0008 5d3c 6092 523b
00000120: bc76 e23c 24c1 1abd 8e4f 7bbd 1041 863b
00000130: b868 edbc 64e9 7cbd 2830 57bd b8fd 69bd
00000140: 30de 9dbb 342a b53c 38da 19bc 9eea 3ebd
00000150: 284d a53c 8035 9b3a bae3 78bd 7e66 6d3d
00000160: 386b a43c 0031 3abd 4a45 343d 7a36 34bd
00000170: ee45 1e3d 1e92 4b3d 7e4d 7abd 00a4 cfb9
00000180: 44da 49bd f432 99bc 9085 1abd 0066 2b3c
00000190: 8090 a8bc b809 683d 4e71 59bd 80f7 c33b
000001a0: 50f8 633c b4b3 6a3d a054 813b 70d4 b23b
000001b0: 7cf2 c6bc 68b2 203c b4c7 783d 98e3 e13c
000001c0: 2867 8a3c 6424 48bd 88bc ce3c 68dc 643c
000001d0: 5830 c9bc 001c 8fbc b069 853c 4e2f 6d3d
000001e0: 4072 4e3d eead 49bd 324f 233d 3248 50bd
000001f0: 9abe 1c3d 809b 67bb a82a 42bc d860 f93c
00000200: 7471 533d d464 a83c 20b4 2a3b 703d e4bb
00000210: 5826 f9bc 50b8 8e3b d4b9 ae3c 182d 34bc
00000220: 4001 2d3c e0ce 3cbd 50bb 883c 7090 0a3c
00000230: 88cb 9abc 523f 77bd 784e 2abd 20e7 663b
00000240: 6871 ccbc 1cf1 753d f4e3 ab3c 9066 0ebd
00000250: a6a0 503d 2053 23bc 1474 db3c e0c1 243b
00000260: 9496 14bd e806 d33c 9ce3 e7bc 68b0 513c
00000270: 6606 383d 82f2 44bd ce39 493d e455 4fbd
00000280: 7c49 8a3c 10e3 d2bc 0c02 1e3d ecb6 ff3c
00000290: f8de 7b3c b837 4cbc d0f2 4d3d e8fb 1c3c
000002a0: cc40 b23c d8cd 193c ee3c 32bd 20a5 5ebc
000002b0: 72c8 0abd dcdd 56bd dafb 68bd 3ad5 503d
000002c0: e0fb 76bd e086 ef3c 9057 143d 4492 90bc
000002d0: f436 e8bc 6095 793d 0858 15bc c8b6 913c
000002e0: 5807 28bd 8c54 3e3d 1ca5 bebc 42cb 48bd
000002f0: 9080 bdbb 062f 013d a022 fcbc f070 e3bc
00000300: 4227 4e3d 38ab df3c bc22 b73c 90ca d3bc
00000310: 74b7 3fbd 803c 5b3c 10e4 643c 74e1 cabc
00000320: 28eb fc3c 02bf 4f3d 3075 943c a878 5d3c
00000330: 00c0 f9b8 9872 e13c 60dc 0cbc 7855 d03c
00000340: 60dd 423c 1023 e63c fa3b 65bd 7679 103d
00000350: c057 f6bb 7055 213d 4c5f 563d acbd 20bd
00000360: b01f 613d 708a 9e3c b4ca 413d 381b 45bd
00000370: e885 de3c 68fb ad3c 3450 cbbc 044f 8abc
00000380: 48f0 60bd c4c2 f2bc c0b1 9a3b 68f8 7dbc
00000390: ec9c dabc 000c 20bd 4810 183c 0084 cd3c
000003a0: 342b eebc 146f 7ebd 3ee7 283d 0089 49bb
000003b0: 00b3 0b3b ee24 3e3d 1a8c 1abd 047f d6bc
000003c0: 7007 c7bc ccc9 6abd 5800 55bc 2c1c 593d
000003d0: ac95 d73c 8087 9c3a 042f 8bbc e6f8 0dbd
000003e0: f448 bc3c dc32 bebc dc64 053d 5060 6e3d
000003f0: ac64 e33c 985f 3dbd 387b 103c 68f7 3bbd
-0.054466665 0.013093315 0.04096657 0.028401941 0.0065247044 -0.051249884 0.018196613 -1.874566e-05
0.00768476 0.036425345 -0.01498583 0.016738929 0.031969994 0.02906207 0.03252364 0.0011491254
-0.037039913 -0.029426709 0.055443145 -0.060426876 -0.018941328 0.012337871 0.021293677 -0.03025812
-0.0235639 0.021971352 0.012189694 0.009510435 0.026592992 -0.055127174 -0.005532056 0.050593674
0.039881416 0.043463096 -0.0046222135 0.023125872 0.05037657 -0.043254033 0.04649937 0.052459277
-0.014656693 0.044657998 0.02145908 -0.015887737 -0.04943242 0.0240186 0.02290573 -0.00942231
0.022157699 -0.05686722 -0.04934743 0.017130844 0.008344792 -0.012434006 0.0547873 0.054366082
0.007510282 -0.02154655 0.048793353 0.0023892298 -0.052594334 -0.01686009 -0.015639454 -0.04417456
0.054957397 -0.019946225 0.04418102 -0.023457013 0.01142104 -0.04342583 0.013490677 0.0032130703
0.027644508 -0.03778185 -0.061355166 0.0040971115 -0.028980598 -0.061746016 -0.05253616 -0.05712673
-0.0048177466 0.02211485 -0.009390406 -0.046610467 0.020178393 0.0011841506 -0.060764052 0.057959072
0.020070657 -0.045456886 0.04401139 -0.043997265 0.03864091 0.049699895 -0.06110906 -0.00039604306
-0.04928042 -0.018701054 -0.03772503 0.01046133 -0.020576715 0.056649894 -0.05308657 0.005980432
0.013914183 0.057300285 0.0039468557 0.0054574534 -0.024285547 0.00980816 0.060737327 0.027574345
0.016894892 -0.04886283 0.025236383 0.013968565 -0.024559185 -0.017469406 0.016285747 0.05790644
0.050401926 -0.049238138 0.03987045 -0.0508501 0.03826771 -0.0035340488 -0.01185099 0.030441687
0.05162187 0.020555891 0.0026047304 -0.0069653317 -0.030413792 0.004355468 0.021328844 -0.010997079
0.01055938 -0.04609573 0.01669088 0.008457288 -0.01889588 -0.06036312 -0.04157874 0.0035232976
-0.02495642 0.060044393 0.02098272 -0.03476578 0.050934456 -0.009968549 0.026788749 0.0025139973
-0.036276415 0.02576013 -0.028306775 0.012798406 0.044927977 -0.048082836 0.049127392 -0.05061902
0.016880743 -0.025743037 0.03857617 0.031215154 0.015372984 -0.012464456 0.050280392 0.0095815435
0.021759413 0.009387456 -0.04351514 -0.013589174 -0.033882566 -0.052457675 -0.05688081 0.0509846
-0.0602988 0.029239118 0.03621632 -0.01764787 -0.028346516 0.06093347 -0.009115227 0.017787352
-0.04102263 0.04646735 -0.02327209 -0.049021967 -0.005783148 0.031538986 -0.03077823 -0.027763814
0.050330408 0.027303323 0.02235543 -0.025853425 -0.046805814 0.013381124 0.01397039 -0.024765708
0.03087385 0.05071927 0.018122286 0.013517536 -0.00011909008 0.027520463 -0.008597463 0.02543138
0.0118936 0.028092891 -0.0559654 0.035272084 -0.007517785 0.03938812 0.052336976 -0.039243385
0.05496186 0.019353122 0.047312453 -0.04812166 0.02716346 0.021238044 -0.024818517 -0.01688338
-0.05491665 -0.029633887 0.0047208965 -0.015501119 -0.026686154 -0.039073944 0.0092812255 0.025087357
-0.029073335 -0.06211765 0.041236155 -0.0030751824 0.002131641 0.046421938 -0.037731268 -0.026183613
-0.024295539 -0.057321355 -0.01300057 0.053005382 0.026316486 0.0011942238 -0.016990192 -0.034661196
0.022984006 -0.023217611 0.03256689 0.05819732 0.027757965 -0.046233743 0.00881844 -0.04589024

output.bias f4 [4]
00000000: f000 20bc 1459 22bd 5a33 763d 0035 d939
-0.0097658485 -0.039635733 0.060107566 0.00041428953
