fetch_sticky_mittens_step/networks/ours_10k_block_3_uber_level_0_seed_150/network_release_and_lift_0.pth (torch, 594935 bytes, 8 tensors)

fc1.weight f4 [256, 58]
00000000: dd99 953d b6db 113d 4df9 d63d 620c 8d3c
00000010: 72c2 9d3c d315 05be 8821 fa3d ed98 91bd
00000020: f8ee 36bd 8457 f3bc f6db b0bd 0a1a fdbd
00000030: cc21 83bd aa3e b6bd f476 b23d 4829 913d
00000040: 6ad7 f03d a617 153d 2629 aabd 9842 06bd
00000050: a629 3fbd a59f 203d 319a bcbd 9bbc d2bd
00000060: 3f31 d8bd 43f7 c13d 3fb5 f33d 4e4d 4dbd
00000070: 5bf8 d9bd 49f3 dc3d dc7b e23d 8ee3 f83d
00000080: b369 8a3b 49ac fbbd f355 b53b bdf0 55bd
00000090: 8445 bc3d 28fe 1fbc 5cdc f73d 9218 56bd
000000a0: 5635 db3d 347d ae3d 30b5 013e aa80 c4bd
000000b0: fd83 e0bd 0c57 98bd bce8 88bd be57 623d
000000c0: 2697 893d cee8 043e 3e01 503d 722f a43d
000000d0: 3ca2 7abc ad88 aebd ed2b 06be 7210 8e3d
000000e0: 6bd3 7fbd fda5 8d3d 6d1c 30bd 58ca 4d3d
000000f0: fed0 8cbd f366 e83b 29dd 5d3d 0948 143c
00000100: 8bf1 8fbc 24b2 e63d 9609 e13c f15a edbd
00000110: be88 fd3d d967 c3bd 442a e03d ca58 023e
00000120: dd78 463d aa0b fc3d 4f69 07bd ea2e 22bd
00000130: 32be e1bd 5da3 833d 165a cb3d 1103 8bbc
00000140: 0e3f 633b 9026 973b dd85 debd 43d1 bdbc
00000150: b753 363d 4ab1 c33d b85a aabd 83a1 4b3d
00000160: 1a64 853d 1083 aebd 0453 b13d c53d 8e3c
00000170: cb2b cc3d c708 00bd 06a6 e4bd 8f91 c93d
00000180: d201 4e3d f06d 043e affb 2e3d 14bd e3bc
00000190: 4ef6 b53c 446d ae3d 88dd 553c e1b7 923c
000001a0: 05b0 2dbd a143 993d 7a44 04be 9653 0dbd
000001b0: 051c e53d 7f52 a0bd 96fd 253d 3131 973d
000001c0: 641c b73d 0117 833d 1a43 91bc e658 a33a
000001d0: 6f1c ca3d 6e6a 713d 47e2 9a3c 59b3 d73c
000001e0: f85e cdbd 79ae d33d d34e 22bd 3911 2c3d
000001f0: ecf4 1abd d2a0 d43a f07c 033e 5fe6 3d3b
00000200: 3106 373d 8a52 d93c cbb8 8bbc c15a 05bd
00000210: f602 acbd c373 b0bd 996d 7abd 9881 d63d
00000220: f3c7 a5bd 5343 81bd c1fa e6bd 2183 f3bd
00000230: 5a75 8a3c dca0 ba3d e440 0ebd 6f5f 793d
00000240: 4c48 c03d f0c7 043e c5bd 943d 1c37 48bd
00000250: 9da7 02be b543 833d f4ca d6bd 7abf 843d
00000260: 4bcc 01be 4028 de3d 97a1 07bd 9466 b2bc
00000270: 06e1 023e f260 8d3d 8e01 e4bd 5168 e93d
00000280: 773e fb3d 1e13 81bd d57b bc3d 245f 893d
00000290: def6 e33d 997d a3bd 8a03 c7bd 2e0d 803d
000002a0: 7c49 73bd ca4c 533d ae2f 75bd f05a be3d
000002b0: 32e9 02bd 0946 cd3d 52f3 e43d 000c c6bd
000002c0: 7ab7 cdbd a794 a2bd 499b 6b3c ac55 16bd
000002d0: 7a6d e13c 6880 013e 68fe 73bd f14a cd3c
000002e0: 22e5 553d 2f76 013e a40a 5ebd 1ae2 98bd
000002f0: 8e7f 94bd a5e9 ccbc 5b0f 04bd 3128 e4bd
00000300: 26cd abbd 9655 bf3d 7e76 2dbd 51f1 fd3d
00000310: e41a 9d3d 173d 9c3c 944b b33c bb4f 90bd
00000320: 85a7 d3bd d954 843d 5e59 9f3b facd 85bc
00000330: 1f34 fe3d 685b 893d 16f6 f23c 26c7 f0bc
00000340: 6a22 01be c9f8 c8bc b45e 1d3d c7a7 00be
00000350: bf80 eabc 4114 e13d 93b2 02be 122f 3cbd
00000360: a2d4 023e 63b4 c03c 393f 033e 4dbc d23b
00000370: 35e9 c8bd 9f40 fdbc 08b6 c33d d9d5 c5bd
00000380: afdf 693d 6500 b33d 47dc bcbd 27d3 d03c
00000390: 0236 5bbb fb0f 34bd e889 82bd ef6e 8abd
000003a0: e0cf a53d e7c3 883d 34af c9bd 4801 b9bc
000003b0: 1494 f5bd fcef 0f3d 9240 92bd bf03 913d
000003c0: 4caa 333d 2fd9 d6bd b00a 02be 21bd 89bc
000003d0: fac9 03be 8f0d 84bd 600a 2e3b 521f 11bc
000003e0: 3a01 dfbd 63ae 013d ab1a 05be b224 993d
000003f0: 0131 3d3d aa2c 903d b87d f43d ec67 e03d
0.07304738 0.035609923 0.10496769 0.017217819 0.019257758 -0.12996607 0.12213427 -0.071092464
-0.044661492 -0.029704817 -0.08635704 -0.12358482 -0.064029306 -0.08898671 0.08714095 0.07087952
0.11759837 0.036399506 -0.0830863 -0.032778352 -0.04667058 0.03921475 -0.09209097 -0.1028988
-0.10556268 0.094709896 0.11899804 -0.05012255 -0.10643073 0.107885905 0.110587806 0.121527776
0.004224026 -0.1228872 0.0055339276 -0.05223154 0.091929466 -0.009765185 0.12102577 -0.052269526
0.107035324 0.08519974 0.12666774 -0.09594853 -0.10962675 -0.07438478 -0.066850156 0.05525946
0.067182824 0.12979433 0.050782435 0.08016862 -0.015297469 -0.085221626 -0.13102694 0.069367304
-0.062457483 0.069164254 -0.04299586 0.0502418 -0.068757996 0.0070923506 0.054165993 0.009050378
-0.017571231 0.112644464 0.027470391 -0.11589611 0.12379597 -0.09541292 0.109455615 0.12729183
0.048455108 0.12306912 -0.033059414 -0.039595522 -0.11022605 0.064276434 0.09929292 -0.016969236
0.0034675035 0.0046127513 -0.10865376 -0.023171073 0.04451343 0.095552996 -0.083180845 0.049714576
0.065132335 -0.08521092 0.08658412 0.017363438 0.0996929 -0.03125837 -0.11164479 0.09842216
0.050294705 0.12932563 0.042720493 -0.02780012 0.022212174 0.085169345 0.013053305 0.017909946
-0.042404193 0.07483602 -0.12916747 -0.034503542 0.11186985 -0.07828235 0.04052504 0.073824294
0.08940962 0.06400872 -0.017732192 0.0012462407 0.098687045 0.05893939 0.018906726 0.026330637
-0.100278795 0.103360124 -0.039625954 0.042008612 -0.037831232 0.0016222245 0.12840629 0.0028976423
0.04468364 0.026528616 -0.01705589 -0.032557253 -0.08399002 -0.0861583 -0.061139677 0.10473937
-0.08094778 -0.06311669 -0.11278296 -0.11890245 0.01690166 0.09112713 -0.034729853 0.06088203
0.093887895 0.12966895 0.07262758 -0.04888068 -0.12759252 0.064093985 -0.10487929 0.06481834
-0.12675588 0.10847521 -0.03311309 -0.021777429 0.12781152 0.069032565 -0.11133109 0.1139685
0.122677736 -0.063024744 0.092033066 0.067076 0.111310706 -0.0798294 -0.09717472 0.06252514
-0.059396252 0.051586904 -0.059859924 0.09294689 -0.031960674 0.10023124 0.11179222 -0.096702576
-0.10044761 -0.079385094 0.014380285 -0.036702797 0.027518023 0.1264664 -0.059568793 0.025060149
0.05222047 0.1264274 -0.054209366 -0.074650005 -0.072508916 -0.025013754 -0.032241207 -0.111404784
-0.08388738 0.09342496 -0.04234933 0.12399543 0.076711446 0.019072099 0.021886624 -0.070464574
-0.10334686 0.06461496 0.0048629483 -0.016333569 0.12412285 0.067068875 0.029658359 -0.029391836
-0.12610784 -0.024532693 0.038420394 -0.12564002 -0.028625844 0.10990191 -0.12763433 -0.045943327
0.12776425 0.023523515 0.12817086 0.0064311386 -0.09810106 -0.030914603 0.09556204 -0.09659929
0.057098087 0.087403096 -0.09221702 0.02549131 -0.003344894 -0.043960553 -0.0637396 -0.0675944
0.0809629 0.066779904 -0.098478705 -0.022583619 -0.11991134 0.035140976 -0.07141222 0.07080793
0.04386358 -0.10490643 -0.1269939 -0.016813817 -0.12870017 -0.064478986 0.0026556477 -0.008857565
-0.10888906 0.03166045 -0.12998454 0.07477702 0.046189312 0.07039769 0.119380414 0.109573215

fc1.bias f4 [256]
00000000: 1e8a d83d a7ef 1c3d d2e6 13bd b44d d4bb
00000010: cad3 f03b c7e8 543b 7508 86bd 6daa f93c
00000020: a9b1 073d 1cf6 843c b44e a5bd c2ac be3d
00000030: b899 b43c 891a f1bd 99e2 f6bd 3b63 4639
00000040: 941f 3abd c5b1 a7bd 9f68 b33d 5a2a 673d
00000050: 6d4a 6fbd 43a4 62bd 2783 95bd 5822 923d
00000060: dd14 413c db01 43bd 0ef9 febc 9ca9 82bd
00000070: c89a de3d 28c8 fa3d 2411 fa3c dafc 68bd
00000080: 4873 03bc 1378 cfbc 01c2 cdbd f77c e5bd
00000090: 8d2e 95bd ed6b c2bd 8b60 13bd ed22 1e3d
000000a0: 4aa4 47bd 1979 93bc 66bb 2cbd 8913 54ba
000000b0: 794e b53d dd4e 593d 38d7 98bc dc7a d3bc
000000c0: 535b 73bd e7e9 50bd ce04 963d c5f3 e03d
000000d0: 7d9c dfbb 9575 e33d 72b9 663c 0fff 0abc
000000e0: 0852 8139 69a6 33bc e21b 993d 9e40 003d
000000f0: e028 71bd 9b48 97bd 8670 be3d 0c3b a23c
00000100: f70e 953d 1c26 b03c e9b2 e63c e33b c63d
00000110: 0caf ff3c 46e1 09bc c20e fdbd 0938 4d3c
00000120: a50b d33c 7786 a63d 867a 9e3d 7a8e 47bc
00000130: 0678 03be 0985 fbbc d5c8 753d 9e90 8dbd
00000140: e544 a23d 7963 703d aa2d 923d b3f5 2b3d
00000150: 1cfe 8abc d1f5 a93d 4f43 ff3d e8b9 bd3d
00000160: d5f5 e03d 7cde bd3d 555d ec3d 4278 a8bc
00000170: 5c31 bcbd d071 08bd 934f 9abd c4cd a63d
00000180: 0207 57bd 9d44 7abd 6182 483c ce7d b13a
00000190: 7d46 6f3d 2b01 9bbc bfcc e73d 6b13 b9bd
000001a0: 83bb d2bb 6beb 973d b85d d3bd ce9d c93d
000001b0: bd09 ca3c ada0 c03d 586a 69bd dd3c df3c
000001c0: 8963 9ebd dbe0 f7bc 23e7 5d3d 8f16 f0bd
000001d0: afd4 b03d f765 5d3c 6585 87bc 517b 4a3d
000001e0: 97e3 813d 7849 243d 72ba 2bbd 8941 d8bd
000001f0: 989d 043d c347 963d 23af 673d e666 cabd
00000200: 7027 143d 36a5 b2bc a554 30bd 2a69 073b
00000210: fa99 f23d 3cef d1bc fe49 39bd cf4a 59bd
00000220: 6c2c ac3b ea30 9fbd d35e ca3c 6873 d43d
00000230: f884 ecbd 87ea 4fbd 8ade 933d f4d5 b23d
00000240: ae03 f3bd 5554 25bd 67c3 fcbd 33f6 12bd
00000250: 8e52 cabd 9a5e e93d 2663 e83d 8204 88bd
00000260: f83a 023b 2772 fabd 72cd e5bd 242f 683d
00000270: 201d f03d 0027 4b3c 0abf a43d 6905 c73d
00000280: de97 023d 8d13 87bb 409b 86bd 9f16 003e
00000290: be57 c0bd b972 e53d 378b fb3d 312a 783c
000002a0: dd60 473d 5663 38bd 2a1e 9fbd 4ffc 043e
000002b0: 3b40 41bd 844b 623d 0da7 d93d 317b db3d
000002c0: 1592 8b3d e771 f7ba 3eab 88bd 7e11 873d
000002d0: eea2 8c3d 9c6a 053d b026 a4bc dace 963c
000002e0: eb2d f2bd 410d e93d c284 5d3c 12aa a3bd
000002f0: 6c81 1a3d a61b e4bc b224 9e3d 6530 8d3d
00000300: b5de f7bd 4dff 21bd a886 56bd c19e a9bd
00000310: 7ea3 e03c 521b db3c 5e34 efbc 4744 cf3c
00000320: 8be2 a13c 34c2 263d 9d42 2abd 55b7 c03d
00000330: 5fa7 2d3c 795b c3ba 10ba a9bd f7f5 a9bb
00000340: 12eb a73c dd78 a9bc a95a 013e aeeb 603d
00000350: 3602 b3bc e2d8 58bc a714 5dbd c28d ffbc
00000360: 0b5b c53b a78e 99bc 2aea 94bd a7ef eebd
00000370: 20c0 183d 1701 21bc 061b 79bd 3944 bebc
00000380: 3a8a 6dbd 8843 acbd f387 45bb 78a0 82bb
00000390: 5dff c63d 6ff3 b93d 9612 a3bd e824 d5bd
000003a0: bb52 e63d db7f 0abd e931 4ebd 1b35 8ebb
000003b0: 9a35 593d b280 4d3d dbf5 f4bd 6ee3 02be
000003c0: 88bb 9bbd d632 f2bc ece9 44bd b701 cd3d
000003d0: 0d00 123c d8d3 3a3d 6d30 89bd e93d c9bd
000003e0: 457c b3bd 120d c0bb 013a 9c3d 87aa e5bc
000003f0: 74ae 023c 2df1 00bd c31c 9d3d 16bd d43c
0.10573219 0.038314488 -0.0361088 -0.0064789895 0.007349466 0.003248738 -0.06544582 0.030476773
0.033128414 0.016230635 -0.08071652 0.09310295 0.022045955 -0.11772639 -0.12054939 0.00018919718
-0.04544027 -0.08188204 0.08760189 0.056436874 -0.058420587 -0.055332433 -0.07300406 0.07135457
0.011784759 -0.04760919 -0.031124618 -0.06380007 0.10869366 0.12245208 0.030525751 -0.056881763
-0.008023091 -0.02532581 -0.10046769 -0.11205476 -0.072842695 -0.094932415 -0.035980742 0.038607527
-0.048740663 -0.01800208 -0.042170905 -0.0008090069 0.08852858 0.053053726 -0.018657312 -0.02581542
-0.059413265 -0.051004317 0.07325135 0.10983995 -0.006824075 0.11106411 0.0140823 -0.008483662
0.00024665915 -0.010964968 0.07476021 0.031311624 -0.058876872 -0.07386895 0.09298806 0.019803546
0.07278245 0.021502547 0.028161483 0.09679391 0.031211399 -0.008415526 -0.123563305 0.012525567
0.025762388 0.08131116 0.07738213 -0.012179965 -0.12838754 -0.030703085 0.06000598 -0.06912349
0.07923297 0.058688615 0.07137616 0.041982364 -0.016966872 0.08298839 0.1246401 0.092639744
0.10984389 0.09270951 0.11541239 -0.020565156 -0.09189102 -0.033311665 -0.07534709 0.081447154
-0.052496918 -0.06110059 0.012238116 0.0013541521 0.058416832 -0.018921455 0.11318349 -0.09036907
-0.0064310445 0.07417949 -0.1032061 0.09844552 0.024662847 0.094056465 -0.056986183 0.027250702
-0.077338286 -0.030258587 0.054175507 -0.11723053 0.08634316 0.01351308 -0.0165431 0.04943401
0.063422374 0.040109128 -0.041925855 -0.10559375 0.032376856 0.07337906 0.056563508 -0.098829076
0.036170423 -0.021807294 -0.043049473 0.0020662048 0.11845775 -0.025626771 -0.04523658 -0.05304986
0.005254319 -0.077730015 0.024703419 0.103735745 -0.11548799 -0.050760772 0.0722018 0.087322146
-0.11865936 -0.04036363 -0.123419575 -0.035879325 -0.09879027 0.11394997 0.11347036 -0.06641485
0.0019871574 -0.12228804 -0.11220826 0.05668558 0.11724305 0.012399435 0.0804425 0.09717829
0.031883113 -0.0041222037 -0.0657258 0.1250863 -0.093917355 0.11203522 0.122824125 0.015146778
0.04867636 -0.04501661 -0.07769425 0.12986873 -0.047180396 0.0552478 0.106275655 0.10716856
0.06814972 -0.001887855 -0.06673287 0.06595133 0.06867014 0.032572374 -0.020037979 0.018409181
-0.118251644 0.11379481 0.013520421 -0.07991423 0.037721083 -0.027845215 0.07721843 0.06893996
-0.12103025 -0.039550114 -0.052374512 -0.08282233 0.02742171 0.026746426 -0.029199775 0.025301112
0.019761344 0.04071255 -0.041567434 0.09409968 0.010598986 -0.001490458 -0.08287442 -0.005186792
0.020497832 -0.020687515 0.1263224 0.05491226 -0.02185164 -0.013235303 -0.053974774 -0.031195525
0.006022816 -0.01874478 -0.07271226 -0.11666804 0.0372926 -0.00982692 -0.060816787 -0.02322589
-0.05799315 -0.08411318 -0.0030140847 -0.0039864145 0.097166754 0.090796344 -0.07962529 -0.1040743
0.11246248 -0.03381334 -0.050340567 -0.0043398268 0.053029634 0.05017156 -0.11960956 -0.1278207
-0.07604128 -0.029565256 -0.048074648 0.10010093 0.008911145 0.045612186 -0.066986896 -0.098262616
-0.08763937 -0.005860933 0.07628251 -0.028035415 0.007976163 -0.031480003 0.076715015 0.02596907

fc2.weight f4 [256, 256]
00000000: 32c3 3fbd bcd0 45bd ca5d 5b3d ac91 14bd
00000010: a091 4e3d 20fb ab3c 3238 0abd ce81 36bd
00000020: 7c7e fe3c 6046 2cbb 2066 293d 9275 5c3d
00000030: e049 113b b449 ecbc 1833 4d3d 4205 51bd
00000040: c4f9 df3c 40b4 5f3d 8c75 e4bc c033 7c3b
00000050: fc5e 1fbd da89 6cbd 0669 4e3d c23b 5e3d
00000060: 9e7f 173d e074 173c 3858 bcbc 8cbe 0ebd
00000070: 8487 573d d8e5 463d 12b6 543d a455 c73c
00000080: 5e81 3abd fc93 b43c d629 743d a076 ebbc
00000090: aa82 2cbd 00b3 7e3a f84f 5cbd 947d 4d3d
000000a0: 100a 1a3c 0ea6 423d 38f8 633c 7044 5d3d
000000b0: e897 5c3c 5ca5 f03c f0a0 b73b b0ca 99bc
000000c0: 8a61 283d bae2 3fbd a08a c4bb 70c9 13bc
000000d0: bc10 d63c 32e4 1bbd 2c1f 88bc 18ed 24bd
000000e0: dc04 0d3d ace8 bf3c 3019 073c 48e2 6ebc
000000f0: da51 323d 50d0 233d 9c34 aebc f61c 7c3d
00000100: 66f0 14bd 903f 1abc ec41 a73c f00b 1ebd
00000110: 5a77 0bbd 00f0 fc37 80dc c73b 38b5 423d
00000120: 585e 29bc fcd5 d53c b8a7 303d 1842 1a3c
00000130: c83d f7bc 2c20 013d 6cde 353d 8097 f03c
00000140: 8008 ef3a 0088 f0b9 2466 5cbd 54dc f23c
00000150: 8805 9b3c 208c 353c 16e3 42bd f44b 353d
00000160: 6056 403c f4a5 94bc 74a9 c1bc 1c6d 333d
00000170: b85e 053d d8ef 4b3c 08b7 183c c8e6 3abd
00000180: 0072 3dbd c4fb 2bbd f882 743c d233 7c3d
00000190: 8025 58ba 6edb 71bd b43f cbbc aaec 593d
000001a0: 8cc7 48bd 0028 443d e498 643d 728c 643d
000001b0: e6c6 4a3d b281 41bd 0a2d 21bd d8cc 51bd
000001c0: 324d 373d c859 29bc 96e9 143d ec0a 8e3c
000001d0: ee3f 4c3d 3cde 643d 1a6a 203d 0e6c 6fbd
000001e0: 40bc 62bc b261 5f3d f868 043c 0e2d 5ebd
000001f0: 6021 7b3d f091 22bc 8069 3a3b 144b f23c
00000200: e87c 61bc 6ea1 3dbd d83e 953c 4050 64bd
00000210: 56ae 143d 6655 433d 0ea2 2e3d 04dc b23c
00000220: 40fd 783d cc4f ae3c 8640 47bd fc25 dabc
00000230: 400e 0d3d f67c 70bd fcd7 1c3d d645 2f3d
00000240: f8a7 a9bc 80c3 683c 8008 65bb b82e 613c
00000250: 44b1 debc f2c6 69bd 30a1 09bd f07d 68bd
00000260: 8019 ddbb 56b7 763d 28bf 23bc 48e1 fabc
00000270: 8e19 523d 22a8 173d e034 003d d0a1 9f3c
00000280: 7a3c 3f3d 604e 8c3b 24a0 873c 605e f43b
00000290: b0b4 693c 0cbc e23c 6068 9e3c 50bd 833b
000002a0: 88ff 263d c6e1 313d 7c2e 2b3d 0050 c438
000002b0: d80b 5c3c 04fb ac3c 0c02 6c3d c014 3ebd
000002c0: 385d 54bc d0bb 2cbc 98f1 603d 5e09 263d
000002d0: 30c8 49bc 2415 1fbd 582b 6d3c 041b 143d
000002e0: 78d9 ec3c 9810 c2bc 4e84 453d 4cac c8bc
000002f0: 4077 7b3b 1431 903c 10dd 95bb 507d b0bb
00000300: 6e68 273d 2628 163d 70cf 9a3c 88d8 11bd
00000310: 34b6 66bd d866 f93c 8ad7 62bd 3817 9dbc
00000320: 682f ff3c 20de 54bd a437 12bd 78b2 27bd
00000330: ac4a 8ebc 602a adbb 50c0 20bd 6e72 683d
00000340: 68de bf3c 289b ce3c 2224 293d 84b2 973c
00000350: 40a3 c2bb bc47 ee3c 2033 07bc fcbd 5dbd
00000360: 4844 e4bc 3c18 37bd 80df de3c 80c8 003a
00000370: 662e 753d 9a0c 3a3d 644a e7bc a669 0fbd
00000380: 80c5 9a3b 6004 3f3d a481 c23c 9878 a93c
00000390: 50f9 8a3b 30df 72bd dabd 793d 983f 6fbd
000003a0: 3804 26bd e860 69bc d0f2 aa3b a0c9 32bc
000003b0: 0e89 3bbd f4b3 b53c f838 623d 380f 513c
000003c0: 8c49 513d b0de e8bb a802 1f3d 0e9b 56bd
000003d0: b0d2 58bd 40fa 12bd 8860 4abc b070 783c
000003e0: 001d 83ba 440f f33c 74e3 26bd 584a cd3c
000003f0: 0424 69bd d0cd ea3c d0d1 3e3c a612 1a3d
-0.046817012 -0.048294768 0.05355624 -0.036271736 0.050431848 0.02099377 -0.033745 -0.044557385
0.031066172 -0.0026287064 0.04135716 0.05382306 0.0022169277 -0.028843738 0.050097555 -0.051030405
0.027340777 0.05461526 -0.027888082 0.0038482994 -0.038908944 -0.057748653 0.050393127 0.05425621
0.03698694 0.009244174 -0.022991285 -0.03484969 0.052619472 0.04855904 0.05193145 0.024332829
-0.04553353 0.02204322 0.05961021 -0.028743088 -0.0421168 0.0009716004 -0.0537872 0.05016859
0.009401813 0.047521643 0.01391416 0.054020345 0.013463952 0.029375724 0.005603902 -0.018773407
0.041108645 -0.046847083 -0.0059979707 -0.009020194 0.026131026 -0.03805942 -0.016616426 -0.040265173
0.034428462 0.023426376 0.008245751 -0.014580317 0.04353509 0.039993584 -0.02126532 0.061551057
-0.036362074 -0.009414569 0.020417176 -0.038585603 -0.03404937 3.01525e-05 0.0060992837 0.047536105
-0.010337435 0.026103012 0.0431287 0.009415172 -0.030180827 0.031524822 0.04440157 0.029369116
0.0018236786 -0.00045877695 -0.053808346 0.029646076 0.018923536 0.011080772 -0.047579847 0.044261888
0.011739343 -0.018145539 -0.023640372 0.043805227 0.032561034 0.01244732 0.009320982 -0.045630246
-0.046251297 -0.04198815 0.0149238035 0.061572857 -0.0008245334 -0.059047155 -0.02481065 0.053204216
-0.049018428 0.04788971 0.05580987 0.055798 0.04950609 -0.047242828 -0.039349593 -0.051220745
0.044751354 -0.010336347 0.036355577 0.017339192 0.049865656 0.055876 0.039163686 -0.05845266
-0.013838828 0.05453653 0.008081667 -0.054242186 0.061311126 -0.0099224895 0.002844423 0.029576816
-0.01376269 -0.04629653 0.018218443 -0.055740595 0.036299072 0.047688864 0.042635016 0.021833427
0.060788393 0.021278284 -0.04864552 -0.02662944 0.034437418 -0.058712922 0.038291916 0.04279121
-0.020709977 0.014206767 -0.0034947693 0.013744049 -0.027184136 -0.057074495 -0.033600986 -0.05676073
-0.0067474246 0.060233437 -0.009994306 -0.030625 0.051293902 0.03702558 0.031300426 0.019486338
0.046688534 0.004281804 0.016555853 0.0074575394 0.014264271 0.027677558 0.01933688 0.0040203705
0.040771037 0.043428205 0.041792378 9.3609095e-05 0.013430558 0.021115787 0.05761914 -0.046406507
-0.012961678 -0.010542825 0.0549179 0.040536277 -0.012315795 -0.03883852 0.014475666 0.036158577
0.02891229 -0.023689553 0.04822188 -0.02449622 0.003837064 0.017601527 -0.004573472 -0.005386032
0.040871076 0.036659382 0.018897742 -0.03560689 -0.056326106 0.030444548 -0.055381335 -0.01917611
0.031150535 -0.051969647 -0.035697594 -0.040941685 -0.01736959 -0.0052845925 -0.039245903 0.056749754
0.023421481 0.025220469 0.041294225 0.01851774 -0.005939871 0.02908694 -0.008251935 -0.05413626
-0.02786459 -0.044700846 0.027206182 0.00049126893 0.059858702 0.045422174 -0.028233714 -0.035012864
0.004723251 0.04663503 0.023743458 0.020687386 0.004241146 -0.05929488 0.060972072 -0.058410257
-0.040531367 -0.014244296 0.005216934 -0.010912329 -0.045785002 0.022180535 0.05523011 0.012759976
0.05109553 -0.0071066245 0.038820893 -0.052393965 -0.052935302 -0.03588319 -0.012352116 0.015163586
-0.001000315 0.029670365 -0.04074426 0.025059864 -0.056919113 0.028662592 0.011646703 0.03761544

fc2.bias f4 [256]
00000000: 2e7c 1cbd e4c4 bfbc 9cae b03c 2a45 793d
00000010: 9070 013c 48ed 7c3c 44d0 3cbd 20cf 753d
00000020: 2879 cd3c f430 dbbc e06c a23c d0ed 9f3b
00000030: e601 46bd cc21 dabc 0449 be3c 8eae 273d
00000040: 303f 2bbd 0033 b23a 42d3 7c3d 5c45 3f3d
00000050: 30a8 0cbc b612 25bd 7cfb 2f3d 8cf4 9abc
00000060: 08af 593d 0042 813a 7294 023d a85d 20bc
00000070: 00b2 90b9 30da 623c 001e 2bba 38ba 363c
00000080: 68bf c1bc 60e0 9bbc 44ae 21bd 2847 5e3c
00000090: f033 e6bc 48c4 25bd accf bebc 9060 86bc
000000a0: 2059 443d 0066 39bc f07a d73c d49e 883c
000000b0: 1e47 543d 1a9a 05bd c0d4 d0bb d2a0 763d
000000c0: 5433 62bd 3cf5 923c 34a1 9fbc f27f 51bd
000000d0: b0ac 53bd 080f 303c 20a8 ebbb 2085 8abc
000000e0: e869 2abd 6ac6 2cbd 6048 ebbc e07e d23b
000000f0: d0e1 4a3d 1a2e 4fbd 42b3 2abd 90f8 053c
00000100: ec8a 99bc 7070 28bc 7c70 92bc 7021 27bc
00000110: e8d2 63bc 86a7 66bd 9c55 1dbd 3cd2 aa3c
00000120: d064 b8bc bc64 afbc 9210 64bd 0090 13bc
00000130: 7020 5cbc 544d 023d 60ac b8bb d0df 3f3d
00000140: 2a42 633d e067 773c 7081 353d e0e2 4d3c
00000150: e070 9f3b f85b 333d acb2 d23c 56d7 673d
00000160: f685 37bd 282a 5cbd 9e44 3abd b45b 87bc
00000170: a8c6 7fbd 8694 29bd 9812 50bc 2492 49bd
00000180: 6e35 45bd 48b7 1fbd 2898 273c 107a 403d
00000190: c880 883c 405f aebc fc4c 633d e085 883c
000001a0: ccb1 2a3d 0c59 24bd 6a3d 373d 8cf1 b2bc
000001b0: 90ef 54bd 140d 27bd 803c 55bc a80f 5bbc
000001c0: ce00 4ebd a648 753d 30c7 73bd ec23 d13c
000001d0: 30e9 3dbd d03a 013d 7030 b23c 00ed aa3a
000001e0: c08a 643c 2c68 27bd c060 01bc 00dd 97bc
000001f0: dcc2 8c3c da66 5ebd 8206 57bd f883 763c
00000200: c47f bfbc 1cca 7f3d 449b d8bc 8c12 dfbc
00000210: 2cd7 6a3d b4ae 383d 1058 0bbc b060 59bd
00000220: f876 023c 6e51 2abd 80b4 37ba 68fc 22bd
00000230: 8200 243d 206b b2bc 3657 37bd ece8 97bc
00000240: b06f 7f3d c8f9 21bc debf 723d f268 4a3d
00000250: 18f8 4fbd 4e15 1bbd 584e 663d 1e1e 3a3d
00000260: 0042 9f3c 4838 503c 3099 a2bc cc38 e33c
00000270: 4e37 78bd c821 fc3c 880b 0fbc f0e1 0d3c
00000280: 6499 e0bc d6a9 663d 900d f13b 7080 813b
00000290: cc20 59bd d0ac 233d d855 71bd d4eb 693d
000002a0: eecb 173d 6090 c13c d073 683d 707e 02bd
000002b0: ea57 5bbd 10aa 68bc 5ac7 1f3d b87d 1e3c
000002c0: fc0f a4bc 3eba 0f3d 5e86 1dbd 0009 143d
000002d0: d862 30bd bcb8 533d 4439 963c 98ab c8bc
000002e0: 9282 45bd b8b4 0a3c a420 133d 880d 0ebd
000002f0: dc5c e33c 1672 2dbd 8e57 203d 408d aebb
00000300: 0256 5fbd 5646 2f3d fa74 173d f0e4 4a3c
00000310: ecb6 833c 7859 5b3d 2cff e03c 7200 10bd
00000320: a07a acbb 58fb 733c f2e1 4dbd 7420 b8bc
00000330: 103d d0bb d817 08bd 44d6 a7bc 4e3c 763d
00000340: e867 603d 788b 633d 30e4 c2bc 9897 ddbc
00000350: 9032 4cbd 84c3 d53c 3cd4 44bd 1876 7b3d
00000360: 9282 3fbd c015 503b 30b7 9dbb c8e7 dcbc
00000370: 9c9a 5abd 9436 1cbd 50c2 19bc 2482 3f3d
00000380: b8fd 483c e85b 74bd 06bf 76bd c666 343d
00000390: 98f7 b4bc 164d 113d 8405 9e3c a889 313c
000003a0: dab5 60bd 02d2 363d 88cf 64bd d2de 133d
000003b0: 7622 2abd 481c eabc 3015 9bbb 04e4 84bc
000003c0: 4c52 50bd 5c7b 473d eed5 413d 70c2 453d
000003d0: e0ff db3b 60da ffbc 5090 323d 3070 0ebc
000003e0: 2a5a 10bd e007 6e3d 5069 843b 3aa3 1e3d
000003f0: 009c 4c3c 9857 1f3c 90e7 dc3c 50ae 903b
-0.038204364 -0.023409314 0.021567635 0.060856976 0.007900372 0.015437432 -0.046097055 0.060011983
0.025082186 -0.026756741 0.019827306 0.0048806444 -0.048341654 -0.026627444 0.023228176 0.040937953
-0.041808307 0.0013595521 0.06172491 0.046697006 -0.008585021 -0.040301047 0.042964444 -0.018915437
0.05314544 0.0009861588 0.03187985 -0.009787954 -0.0002759844 0.013845965 -0.00065276027 0.011152796
-0.02365084 -0.019027889 -0.039472833 0.01356677 -0.028100938 -0.04047039 -0.023292385 -0.016403466
0.04793656 -0.011315823 0.026303738 0.016677298 0.051825635 -0.032617666 -0.006373018 0.060211964
-0.05522473 0.017939202 -0.019486047 -0.05114741 -0.05167836 0.010745771 -0.007191673 -0.016909182
-0.041604906 -0.04218141 -0.028721035 0.006423816 0.049531758 -0.050581075 -0.04167486 0.008176938
-0.018743 -0.010280713 -0.017875902 -0.010200843 -0.013905264 -0.056312107 -0.03841172 0.0208522
-0.022509009 -0.021410339 -0.055679865 -0.0090065 -0.013435468 0.031812027 -0.005635783 0.046844304
0.05548302 0.015100449 0.044312894 0.012566298 0.0048657507 0.04378888 0.025719963 0.056601845
-0.04480549 -0.05375114 -0.045475595 -0.01652322 -0.062445313 -0.04140141 -0.012699746 -0.049211636
-0.048146658 -0.03899315 0.010229148 0.046991408 0.01666297 -0.021285653 0.05549334 0.0166654
0.041673467 -0.040123984 0.044736303 -0.021843694 -0.051986277 -0.040783957 -0.013014913 -0.013370432
-0.050293736 0.059883736 -0.059516132 0.025529824 -0.046364963 0.03155023 0.021751612 0.0013040602
0.013949096 -0.04087083 -0.007896602 -0.018537998 0.01718276 -0.054297306 -0.05249644 0.015046112
-0.023376353 0.062448606 -0.026441224 -0.027230524 0.05733411 0.045088485 -0.008504882 -0.053070724
0.007962935 -0.041581564 -0.00070077926 -0.039791495 0.040039547 -0.021779597 -0.044760905 -0.018543683
0.062362373 -0.009886213 0.05926501 0.04941649 -0.05077371 -0.037862115 0.05622706 0.04543888
0.019440651 0.012708731 -0.019848436 0.027737044 -0.060599618 0.030777827 -0.008730777 0.008659825
-0.027416892 0.056314312 0.007356353 0.0039520785 -0.053009793 0.03995973 -0.058919758 0.05710967
0.037059717 0.023628414 0.056751072 -0.03185886 -0.05355064 -0.014200702 0.039008476 0.009673528
-0.020027153 0.035089724 -0.03845822 0.036141396 -0.043063015 0.05168985 0.018337853 -0.024495885
-0.048220225 0.008465938 0.0359198 -0.034680873 0.02775424 -0.04234513 0.039146 -0.005326897
-0.054525383 0.042791687 0.036976792 0.0123836845 0.016078435 0.05355212 0.027465425 -0.035156675
-0.0052636415 0.014891468 -0.050264306 -0.022476412 -0.0063549355 -0.033225864 -0.020487912 0.060116105
0.054786593 0.05555293 -0.023790449 -0.027049825 -0.049852908 0.026094206 -0.048053965 0.06139192
-0.04675538 0.0031751245 -0.0048130974 -0.02696599 -0.053370103 -0.038137987 -0.009384707 0.04675497
0.0122675225 -0.05965796 -0.060240768 0.044043325 -0.022090718 0.035473906 0.01928974 0.010836042
-0.054860927 0.044633873 -0.05586198 0.03610117 -0.04153677 -0.028577939 -0.0047327504 -0.016222008
-0.050859734 0.04870163 0.04732316 0.048281133 0.0067138523 -0.031232059 0.04359466 -0.00869374
-0.035242237 0.05811298 0.0040408745 0.038729884 0.012488365 0.009725474 0.026965886 0.004415311

fc3.weight f4 [256, 256]
00000000: f8e4 3dbd d874 64bd 6c18 59bd f8f4 09bc
00000010: cc66 8ebc 4051 5b3c 9ee4 6e3d 38e4 3bbd
00000020: fa8c 4d3d f4e4 093d 8037 fa3b 3624 1cbd
00000030: 6848 3f3c 8089 06bd d82c 463d d074 7c3d
00000040: 4c72 4dbd 681a 553c 60dd 433b 50dd 743c
00000050: b651 6d3d c4d4 d33c 70d4 7cbc 887e 71bc
00000060: e02b 05bb d41e 5a3d 744a a9bc 906c ef3b
00000070: 4073 43bb 40ab 7c3b f896 033c e013 683c
00000080: 80ad d1bc 009a 48bd 483d a53c c820 5abc
00000090: 4835 2fbd 88b0 7b3d 3238 7fbd 98e3 7f3d
000000a0: 004c 6b39 182f 2c3d a8d8 cebc 70bf 14bd
000000b0: b042 02bc 90ff 0d3c 3e4a 443d 7ebd 36bd
000000c0: 3833 0cbd bad1 403d 3079 ea3c 4064 cfba
000000d0: 98e5 10bc e89e f63c 60fc 1abb fee3 07bd
000000e0: 1001 893c 28dd 343c c401 30bd b82b 1ebc
000000f0: a8ff 5d3d f85f 65bc 0ee0 6a3d 84d4 21bd
00000100: c083 acbb aeeb 4f3d 640f 443d 44ce b93c
00000110: 88ca 703d 6025 093c 74b6 8e3c 58c3 943c
00000120: 22ca 5e3d 4a43 17bd d84b 2dbd d6e1 663d
00000130: 20c2 13bb 9056 5cbc 30da b2bb 8636 633d
00000140: 60d7 483b ecb9 ba3c 204a 67bd 605c fcbc
00000150: 0833 5b3c 28a7 9f3c 086a 37bd 88ed c33c
00000160: 00a0 de38 8079 dc3b 60f5 80bb 7880 37bc
00000170: 38a8 13bd 9238 5bbd 04b2 f8bc f0b5 61bd
00000180: 7a86 5f3d c0a0 5bbb 485a a63c fcf5 8dbc
00000190: 0029 a23a b0b7 8dbb dc3b c1bc 6090 11bd
000001a0: a813 33bc a03f 013c 5ec8 533d c893 053c
000001b0: d253 4e3d a0cf 793c a44d 7abd f4d8 d63c
000001c0: 4004 3cbd 0099 a0ba d099 c1bb 78de e73c
000001d0: 0844 5d3d a4e1 b83c 8889 823c ea4d 023d
000001e0: 200e 0e3b fc92 dd3c 128f 58bd c436 25bd
000001f0: 409b cd3b 2eee 75bd 40b8 03bc b41e 22bd
00000200: e674 6cbd 3456 50bd 783c 483d bc29 d33c
00000210: 302d 1a3d 709e 333d f6cd 623d f4c3 2c3d
00000220: 484b e3bc a0cd a23b 8c87 10bd 26ea 56bd
00000230: 1014 8e3b fc34 c33c a4d9 d9bc d4bb f6bc
00000240: 6a85 19bd 40c1 ad3a 0015 f03b 1086 52bd
00000250: c201 58bd a611 20bd b6bb 433d 7c5a 2d3d
00000260: c0ac 6dbc 8a9b 20bd 42d8 32bd 00b8 953b
00000270: 6698 483d 0252 073d 007c 9dbb e451 d53c
00000280: b2aa 44bd f831 f4bc 9a37 7c3d 10a2 453c
00000290: 2a43 0d3d 509d 983b 9ea9 05bd f61a 6fbd
000002a0: 309a 3abd d80c 2a3d 70ff ab3b 7c12 bc3c
000002b0: 0856 813c 7254 76bd c284 173d a04c 2e3c
000002c0: 4c14 fcbc c092 b3ba b0e9 c6bb 2014 673d
000002d0: ec23 763d 8037 96bc 44ee 3d3d be7d 3b3d
000002e0: 7808 d83c 5a71 21bd 2cab f13c 446e 5a3d
000002f0: e4a3 4e3d c410 203d c44c 42bd 0022 6fb9
00000300: 007a 46ba e4e3 cf3c 90ac a83b 2034 9b3b
00000310: 1a28 063d 722c 163d d034 ab3b 1061 ab3c
00000320: b065 b7bc f2ac 5bbd ac4c bcbc b021 ac3c
00000330: c4b0 d1bc c69e 663d 401b 03bd 3892 5cbc
00000340: ba51 59bd b02d 0f3d 6030 99bc 3c50 f83c
00000350: 14c6 08bd 8075 7c3b 4842 2b3c 44c7 dc3c
00000360: 604e cbbc 768e 78bd 9cc9 8f3c 6027 c83c
00000370: e806 08bc c4ef 9a3c 90c9 d0bc 9092 0d3c
00000380: 9470 1c3d 707e 44bd 3865 8abc 9061 bd3c
00000390: 5ce2 e13c 7096 98bc 208c debc ac8f 67bd
000003a0: 2c3a e7bc 9ee4 5f3d 9838 493d 006a 5739
000003b0: 90c2 c9bc 661f 47bd 1e53 2ebd 20a1 58bd
000003c0: 3008 66bd e2b8 323d d435 823c aec0 23bd
000003d0: 2644 42bd 2af8 1cbd 1e52 103d f40f c4bc
000003e0: a007 92bb 38a2 cabc 42b0 053d 0046 feb9
000003f0: 901d 7cbd b065 2fbc ecde c23c 2255 61bd
-0.04636094 -0.055775493 -0.053001806 -0.0084202215 -0.017383002 0.013386071 0.058323495 -0.045871943
0.050183274 0.033665612 0.0076360106 -0.03812047 0.011674978 -0.032845974 0.04838261 0.06163484
-0.05015783 0.013006784 0.0029886588 0.014945343 0.057939254 0.02585829 -0.015431508 -0.01473964
-0.002032034 0.053252056 -0.020665385 0.007306643 -0.0029823333 0.0038554221 0.008031599 0.014164895
-0.025595427 -0.04897499 0.020170823 -0.01331348 -0.042775422 0.06144765 -0.06230945 0.06247291
0.00022439659 0.0420371 -0.025249794 -0.03631538 -0.00795047 0.008666888 0.047922365 -0.044614308
-0.034228534 0.04707501 0.02862224 -0.0015822724 -0.008843802 0.03010507 -0.0023648962 -0.033176415
0.01672414 0.011039056 -0.042970434 -0.009653978 0.05419889 -0.0139999315 0.05734258 -0.03950931
-0.0052647293 0.05076187 0.04786624 0.022681363 0.0587869 0.008370727 0.017420985 0.018159553
0.054391988 -0.036929406 -0.04230866 0.056367718 -0.0022546127 -0.0134483725 -0.005458139 0.05547192
0.0030645952 0.022793733 -0.056467175 -0.030805767 0.013378866 0.019488886 -0.044778854 0.023916975
0.00010615587 0.006728351 -0.003935501 -0.011200063 -0.036049098 -0.053520747 -0.030358322 -0.05510515
0.054571606 -0.0033512563 0.020306721 -0.017329209 0.0012371838 -0.004324876 -0.023588113 -0.035538077
-0.010929979 0.007888705 0.051704757 0.00815291 0.050372906 0.015247256 -0.0611092 0.026226498
-0.04590249 -0.0012252629 -0.0059082285 0.028304324 0.054019958 0.022568531 0.01593472 0.031812586
0.00216759 0.027047627 -0.052870817 -0.04033543 0.0062746108 -0.0600416 -0.008039534 -0.039580062
-0.05772867 -0.05086346 0.048885792 0.025776736 0.03764075 0.04385227 0.0553722 0.042179063
-0.027745858 0.00496836 -0.035285518 -0.052469395 0.0043358877 0.023828976 -0.026593037 -0.03011886
-0.03748075 0.0013256446 0.007326722 -0.051397383 -0.05273605 -0.03907933 0.047786437 0.04232262
-0.014506519 -0.039210834 -0.04366327 0.0045690536 0.048973463 0.033037193 -0.0048060417 0.026040025
-0.04801435 -0.029808983 0.061576463 0.0120625645 0.03448788 0.004657425 -0.032632463 -0.05837532
-0.0455572 0.041516155 0.0052489564 0.022958033 0.015788093 -0.060139127 0.036991842 0.010638386
-0.030771397 -0.0013700351 -0.006070338 0.056415677 0.06009285 -0.018337011 0.046369806 0.045774214
0.026371226 -0.03941474 0.029500566 0.053327814 0.050449267 0.03907849 -0.04743649 -0.00022805482
-0.000757128 0.025377221 0.005147524 0.0047364384 0.032753088 0.03666348 0.0052248016 0.020920306
-0.022387356 -0.05363173 -0.022985779 0.021012157 -0.025596984 0.056303762 -0.03200841 -0.013462596
-0.053056456 0.03495568 -0.018699825 0.030311696 -0.033392027 0.0038522184 0.010452814 0.026950486
-0.024817646 -0.060682736 0.01755219 0.024432838 -0.008302428 0.018913157 -0.025486737 0.0086409
0.0381933 -0.047972143 -0.016893968 0.02311781 0.027573757 -0.018626422 -0.027166426 -0.0565335
-0.02822598 0.054661386 0.049126238 0.00020543486 -0.024628907 -0.04861393 -0.042559735 -0.052888036
-0.056160152 0.04363335 0.015894808 -0.039978676 -0.047428273 -0.038322605 0.035234563 -0.023933388
-0.0044564754 -0.024735555 0.032638796 -0.0004849881 -0.06155163 -0.0107053965 0.023787938 -0.05501283

fc3.bias f4 [256]
00000000: 98c5 76bc 7425 44bd 0014 973c e879 bfbc
00000010: f630 65bd 3c73 bfbc bcb2 993c f472 a2bc
00000020: b825 61bd c49f 043d 2e31 19bd 486b d4bc
00000030: a4e1 523d 7c26 74bd bc16 3e3d 404f c2ba
00000040: a8c9 68bd 3046 053d 7453 6b3d 5661 39bd
00000050: b014 c53b e08f 663b a8bc 253d 503c 663c
00000060: 80b1 1dba 60cb 533b b833 6d3c 3ab7 433d
00000070: 4083 73bc 5e6c 69bd 80e5 51bb 80b1 41ba
00000080: 96a4 1b3d e02e 2d3b 4078 97bb 7054 7ebc
00000090: 5416 f73c 9017 bc3b 58e2 d83c 18d6 55bc
000000a0: 1619 46bd 646c f93c 98d8 633c 10e3 b53b
000000b0: d8de 0a3c 6ec2 713d 2a86 72bd 003b c3b9
000000c0: a207 7bbd f0d6 a1bb b00f 98bb ce3c 38bd
000000d0: b6c8 143d ba4f 0f3d bcf1 99bc 283d 043c
000000e0: 202a 43bc b47e dd3c 8cb7 46bd 9c86 a03c
000000f0: 90b1 4b3c fc96 5fbd 7e2e 3ebd e090 7b3b
00000100: 5656 713d a0ee 09bb 460b 353d 306d d5bc
00000110: 06be 37bd 28c4 533c f6ac 693d 40b8 feba
00000120: 4e3e 0abd e023 09bc 0084 cfbc 3250 183d
00000130: 6823 213d 4076 123c 484f 5fbd e478 593d
00000140: ee19 1cbd 2014 48bd c0a4 d3ba 10bb 683d
00000150: 426c 583d 82d2 123d 2069 193b 20b9 083b
00000160: 58e9 4dbc 6c99 643d 52dd 283d 305c dcbb
00000170: d60f 67bd 702c 6bbd c06d c8bb 9e1b 02bd
00000180: 5690 36bd 5c02 2fbd 5290 243d 28c9 ac3c
00000190: fc5d 1dbd 44f5 02bd 20c8 ee3b 0cc6 10bd
000001a0: 98b9 02bc 5217 28bd 283b 7a3d a42b 5abd
000001b0: 4005 1dbb 205e 01bb a0ca 5fbd 68df c4bc
000001c0: 5458 d3bc 9648 3b3d c0b6 b43b e0cc 9d3c
000001d0: 30f7 27bd 389f 023d 14d2 99bc 0462 043d
000001e0: e835 6c3c 40fd f2bc 84e3 393d c8dd 823c
000001f0: 24ac 43bd 8874 60bc 3ac2 093d 5023 03bd
00000200: a888 603c f2ac 6cbd 4ae5 47bd a630 76bd
00000210: a014 49bc 7880 7dbc b01d 9cbb 6063 b2bc
00000220: 84ca f73c 0463 513d e6f5 003d 80a4 81bc
00000230: d2ae 11bd 28a9 55bd 3078 133c d875 43bc
00000240: 2082 163d 80b1 8fbc 9e41 4b3d beda 43bd
00000250: a031 c83b a6e0 323d 3c3f 573d f48f 003d
00000260: bc34 a9bc 2037 e1bb b2cb 273d d053 313d
00000270: ba38 0b3d 2af9 7e3d ac8c ebbc 049e 0b3d
00000280: 30c4 aa3b 343e 7dbd 6635 573d 4e15 74bd
00000290: ac29 a33c c452 58bd 007b 0dba 9038 bbbb
000002a0: 462a 3abd 721e 03bd 6074 e33b fc8b 84bc
000002b0: 9079 e9bc e258 74bd 2417 3f3d ac96 bbbc
000002c0: 1c92 983c fcc8 e33c a07b b03b 145e f33c
000002d0: cc2d b13c 3cee 553d e05a 383b 20af 283d
000002e0: 5c51 a43c f8cf 0e3d 7653 443d 70b7 5b3c
000002f0: b8cb 2cbd 28c3 1bbc 40a4 a63c 268c 04bd
00000300: a8d8 5c3c 8c72 293d 806d 403a dcf3 d6bc
00000310: 66cd 12bd 86be 523d 585f 8e3c 2653 02bd
00000320: 8623 0c3d 881c 003c 4c73 27bd 0634 20bd
00000330: 809d 313b 3cdf 6a3d 2876 623d 984e 69bd
00000340: acd1 88bc 4613 21bd c057 feba 18d3 283d
00000350: 88d3 2c3d 00c7 063b e0f4 a4bb 00e3 95b9
00000360: 2a1c 5dbd 18ff 66bd 30c8 ac3b 50fc d0bb
00000370: 3816 37bd 281d af3c 2026 47bd 0a94 20bd
00000380: 406e 053c baf7 70bd f012 0e3c 8c3b 9dbc
00000390: fe6d 1cbd 360d 2bbd 4c85 93bc 9cdb 95bc
000003a0: b07e 9dbc bcab d1bc e8e3 bd3c b471 543d
000003b0: 80a3 3fba c8c9 77bc 726e 6e3d 5cb2 1d3d
000003c0: 50f0 463c 50e4 77bc 6c95 74bd a80a 18bd
000003d0: 7473 3fbd f690 4c3d 001d ab39 5824 5c3c
000003e0: 042a 6dbd 2865 79bd 8044 e3bb 18bf 28bc
000003f0: 3016 233c 4077 2cbb c40e 5e3d faac 06bd
-0.015061758 -0.04788728 0.018442154 -0.02337356 -0.055954896 -0.023370378 0.018761985 -0.019830205
-0.054967612 0.032378927 -0.037400417 -0.025930062 0.05148472 -0.059607014 0.0464084 -0.0014824644
-0.05683294 0.03253764 0.057452634 -0.045258842 0.006014429 0.003518097 0.04046312 0.014052466
-0.0006015524 0.0032317266 0.014477663 0.04778216 -0.014862835 -0.056988113 -0.0032027662 -0.0007388815
0.03799876 0.0026425645 -0.004622489 -0.015523061 0.030162014 0.0057401136 0.026475117 -0.013051532
-0.048363768 0.030447192 0.01390662 0.0055507496 0.008475982 0.059023313 -0.05920998 -0.00037237257
-0.061286576 -0.0049389526 -0.004640542 -0.044979863 0.036324225 0.034988143 -0.018792026 0.008071221
-0.011911899 0.027037956 -0.048514888 0.019595437 0.012432471 -0.05458735 -0.046431057 0.0038385913
0.058920227 -0.0021046773 0.044200204 -0.026053041 -0.044858955 0.012925185 0.057049714 -0.0019433573
-0.033750825 -0.00837037 -0.025331497 0.037185855 0.039340407 0.008939326 -0.054518968 0.053093806
-0.038110666 -0.048847318 -0.0016147122 0.05681902 0.052837618 0.035845287 0.0023408607 0.0020862296
-0.0125678405 0.055810377 0.041226692 -0.006724857 -0.056411587 -0.057415426 -0.006116599 -0.03176462
-0.044571243 -0.04272686 0.040176697 0.021092013 -0.03841971 -0.031972185 0.0072870404 -0.035345122
-0.007978819 -0.041037865 0.061091572 -0.053264275 -0.0023959428 -0.001973994 -0.054636598 -0.02403231
-0.025798954 0.04572352 0.0055149496 0.019262731 -0.04100722 0.031890124 -0.01877693 0.032320037
0.014417149 -0.029661775 0.04538299 0.015974894 -0.047771588 -0.013699658 0.033632495 -0.0320161
0.013704456 -0.05778212 -0.04880265 -0.06010499 -0.012272984 -0.015472524 -0.004764281 -0.021775901
0.030247934 0.05111982 0.031484507 -0.01582551 -0.035567112 -0.052163273 0.009000823 -0.011929952
0.03674519 -0.017540693 0.049623124 -0.04781603 0.0061094314 0.043671273 0.05255054 0.031387284
-0.020655029 -0.0068730265 0.040965743 0.04329282 0.033989646 0.06224934 -0.028753601 0.034086242
0.0052113757 -0.0618269 0.05254116 -0.05959063 0.019917332 -0.052813306 -0.00053970516 -0.00571353
-0.04545047 -0.032011457 0.006941363 -0.016180031 -0.028500348 -0.059655078 0.046652928 -0.022898994
0.018624358 0.027805798 0.005385831 0.029707946 0.021628283 0.05222915 0.0028130338 0.041182637
0.020058326 0.034866303 0.047931157 0.013410434 -0.04218647 -0.009506978 0.020341992 -0.03236022
0.013479389 0.041369006 0.00073405355 -0.026239328 -0.035840414 0.05145123 0.017379448 -0.031817578
0.034213565 0.007819302 -0.04088144 -0.039112113 0.0027101934 0.0573418 0.055288464 -0.05695972
-0.016701542 -0.03932502 -0.0019404814 0.04121694 0.04219392 0.002056539 -0.005034074 -0.00028588623
-0.053981937 -0.05639562 0.0052728876 -0.0063777342 -0.044698924 0.021376207 -0.048620343 -0.03920368
0.008143961 -0.05883 0.008671507 -0.019193433 -0.038190834 -0.041760646 -0.018007897 -0.018293194
-0.019225448 -0.025594585 0.023179963 0.05186625 -0.0007310435 -0.015123792 0.058210798 0.038500175
0.012142256 -0.015130118 -0.059712812 -0.037119538 -0.046740964 0.049942933 0.00032637268 0.013436399
-0.057901397 -0.060887486 -0.006935656 -0.010299467 0.00995402 -0.0026316196 0.0542133 -0.032879807

output.weight f4 [4, 256]
00000000: 40a0 843b cead 6fbd c8d3 ae3c 70c3 cfbc
00000010: 7689 3abd 9297 7ebd bcc6 aabc 7a24 2c3d
00000020: 68fd d43c eaa3 713d d038 5ebc 1cc4 16bd
00000030: 20bc cc3b 0088 c8ba 0058 3cba 064d 72bd
00000040: 5c70 9c3c fc83 7f3d 7045 253d 087b 6fbd
00000050: a480 99bc 48b0 b33c f033 5ebc dc69 103d
00000060: 24c6 fabc ac87 adbc 7085 6b3c 20a5 02bc
00000070: 781a 3b3d 0cbf 88bc 744f f23c 7c5d 333d
00000080: 107b 633c 845e b33c b00c 19bd 2e7d 3e3d
00000090: ac72 adbc 9611 2ebd 3835 88bc 48dd 57bc
000000a0: 2ab5 2dbd 385e 713d 4262 7cbd 6c34 8b3c
000000b0: 90b7 523d 80f9 7a3a da42 6cbd d2ee 713d
000000c0: 04ea 92bc 68bd 45bd e03c 46bd 605f 6d3b
000000d0: d652 34bd b4ba 75bd c289 693d a873 25bd
000000e0: 9ce7 1fbd 00ba 223d d403 be3c bafc 41bd
000000f0: 6871 05bd b0a9 bc3b 827c 1f3d 62db 63bd
00000100: 4cc5 eb3c 1aaa 573d 080f 363d 143e 5dbd
00000110: 8093 33ba d039 a6bc 16cd 5d3d 0e1d 4f3d
00000120: 1883 1fbd 746f 7dbd 80c1 10ba 7477 e13c
00000130: c0ae d03b a0ae 65bd f029 d03c 445a 79bd
00000140: 8600 293d 405f 9fba 7047 b03b d82f 02bd
00000150: 9ce7 753d 54c4 9e3c fce7 68bd 98fe 65bc
00000160: 6071 06bd 64dc 8abc a070 8abb 481c ebbc
00000170: d09c 933c c04b cd3c fa90 5c3d a044 5ebc
00000180: acd1 a2bc 90a1 babc 58b5 40bd d6d9 46bd
00000190: 8e01 223d 4ace 293d 8c61 47bd 0818 53bc
000001a0: 006d b739 a626 7abd 3ce7 94bc a8f2 1b3d
000001b0: 40fa 803c bcd6 0ebd a074 223c cce5 eebc
000001c0: 229c 4a3d 283a 7c3d d296 54bd 1861 78bd
000001d0: a04e 6e3c d869 c1bc 009e 64bc 205b 6d3b
000001e0: 940e b03c 801f aabb 284d 29bd 5e9e 6a3d
000001f0: 3828 413d 600d 1dbc a87c 3cbc 985a 7b3c
00000200: 505d f9bb 7ae3 243d 6cf0 293d 8096 dd3c
00000210: ee25 4cbd c0f5 ecba 58b9 5bbd bca3 f4bc
00000220: 6868 443c 602a 693b be3f 763d d2ff 0a3d
00000230: 707b 5cbc 88b2 6abc e207 293d f4d7 76bd
00000240: 5eb3 04bd 165d 5c3d 3097 283d 0005 52bb
00000250: be24 7d3d bc69 f1bc 724a 123d a609 323d
00000260: 40fd 41bb d201 743d 3414 42bd b228 41bd
00000270: 1057 dbbc a04a 183b d02b 183c 9633 4a3d
00000280: 4404 df3c 026f 52bd 405c 283c 20ee 91bb
00000290: 34b8 593d 90f0 2d3c 9c7b 4c3d 80ff 103a
000002a0: 60eb d73b 66d0 483d 666c 063d 3050 fbbc
000002b0: 5c0d 8fbc 0835 c53c 80a0 e93b c04a 48bc
000002c0: 64d2 d33c 00db 683c 5c77 d83c 7c56 1a3d
000002d0: 848a 563d 2c5f 58bd 5abc 123d c003 ecbc
000002e0: 3880 af3c aa9f 373d 603b b3bc 442a 11bd
000002f0: 8a4f 2dbd 70d4 70bd 70b7 473c a4f7 b6bc
00000300: 3eb5 683d 1a63 4a3d 9e1d 113d 0209 493d
00000310: f434 063d c002 b93c d6c2 743d c888 90bc
00000320: f85c 763d f88f a93c 122f 7bbd 40b9 623b
00000330: 20df 6f3b e8e4 9f3c 880c 12bd a4dd b2bc
00000340: dacf 6dbd c091 8cbc 047c 4cbd e43f fdbc
00000350: 0c3f 623d e0fd acbc ece9 92bc f07f 4fbd
00000360: 9859 e7bc ec63 38bd e02c 443c 10fe e5bb
00000370: 540a 12bd 90a1 433d 5cf1 41bd a87d c33c
00000380: 1065 b6bc f0c8 4fbc 58d0 db3c 68f9 2bbd
00000390: 24da 933c c09f 77bb be8c 7c3d ce6e 73bd
000003a0: 888d fe3c 5084 f0bb 8471 453d 36ed 373d
000003b0: 80c1 f8ba 5474 3fbd ae38 7b3d 2852 433c
000003c0: a436 f33c 0a4b 503d 6cd0 aabc 4ac4 673d
000003d0: d834 f33c b2ed 2abd 1c89 863c 7c19 c8bc
000003e0: 8026 f3bb f07b 40bd 6283 0a3d a47c aabc
000003f0: b05c 43bd 8898 33bc 36ee 6bbd 0a76 3e3d
0.0040474236 -0.058515362 0.02134122 -0.025361747 -0.04554125 -0.062156267 -0.020846717 0.042026974
0.02599974 0.05899421 -0.01356335 -0.03680812 0.006248012 -0.001529932 -0.0007184744 -0.059155487
0.019096546 0.06238173 0.040349424 -0.05846694 -0.018738098 0.021934643 -0.013562188 0.035257205
-0.030612059 -0.021182857 0.014375076 -0.007973939 0.04567954 -0.01669266 0.029578902 0.043790326
0.013884321 0.021895654 -0.037365615 0.0465061 -0.021172844 -0.04249724 -0.01662694 -0.013175316
-0.0424091 0.058927745 -0.061617143 0.01699277 0.05144459 0.00095739216 -0.057680942 0.059065647
-0.017933853 -0.048276335 -0.0483979 0.0036220178 -0.04402431 -0.059992507 0.05701614 -0.0403935
-0.03903924 0.039728165 0.023195185 -0.04736016 -0.032578856 0.005757533 0.0389371 -0.05562914
0.028780602 0.052652456 0.04444793 -0.05401428 -0.00068502873 -0.020291239 0.054150663 0.050564818
-0.03894338 -0.061873868 -0.0005521998 0.02752278 0.006368488 -0.05607474 0.025410622 -0.0608771
0.041260265 -0.0012159124 0.0053796098 -0.03178391 0.060035333 0.019380726 -0.056861863 -0.014037751
-0.032822967 -0.016950794 -0.0042248517 -0.028700009 0.01801911 0.025060534 0.053849198 -0.013566166
-0.01987537 -0.022782117 -0.047047943 -0.04854759 0.039552264 0.0414565 -0.048677012 -0.012884147
0.0003498569 -0.061072014 -0.018176667 0.038073212 0.015744328 -0.034872755 0.009915501 -0.02916231
0.049465306 0.0615789 -0.051901646 -0.06063947 0.014545113 -0.02361004 -0.013953686 0.0036217645
0.021491326 -0.0051917434 -0.041333348 0.057279937 0.047157496 -0.009585708 -0.01150433 0.015341423
-0.0076100007 0.040256 0.04148905 0.027049303 -0.04984086 -0.001807861 -0.053643554 -0.02986323
0.011987783 0.0035578236 0.060119383 0.033935376 -0.013457164 -0.014324792 0.041267283 -0.060264543
-0.03239762 0.05379971 0.04115981 -0.0032046437 0.06180262 -0.029469363 0.035715528 0.043466233
-0.0029600412 0.05957205 -0.04738255 -0.04715795 -0.026774913 0.002323784 0.009287789 0.049365602
0.027223714 -0.051375397 0.0102759 -0.0044534355 0.053154185 0.010616437 0.04992257 0.00055312365
0.006589338 0.04902687 0.03281822 -0.030677885 -0.017462425 0.024073139 0.007129729 -0.012224853
0.025857158 0.01421237 0.026424102 0.037680134 0.052378193 -0.052825138 0.035824157 -0.028810382
0.021423444 0.044830002 -0.021878898 -0.0354407 -0.042312182 -0.058796346 0.012189731 -0.022334881
0.05681347 0.049410917 0.035428636 0.049080856 0.032765344 0.02258432 0.059756123 -0.017643347
0.060147256 0.020698532 -0.061324187 0.003459528 0.0036601499 0.01951833 -0.035656482 -0.021834202
-0.05805955 -0.017159343 -0.049922958 -0.030914254 0.055235907 -0.02111715 -0.017933808 -0.05065912
-0.028240964 -0.045017168 0.01197359 -0.007018812 -0.03565438 0.0477615 -0.04734932 0.023863629
-0.022264987 -0.012682185 0.026832744 -0.0419859 0.018048353 -0.0037784427 0.06165766 -0.059431843
0.031073347 -0.0073399916 0.04820396 0.044903956 -0.0018978566 -0.0467418 0.06133335 0.011921443
0.02968914 0.050852813 -0.020851336 0.05658368 0.029688284 -0.04173059 0.0164228 -0.024426214
-0.007420361 -0.046993196 0.033816703 -0.020811386 -0.047695816 -0.010961659 -0.057600223 0.04649929

output.bias f4 [4]
00000000: d823 603d 4021 ffbc 6078 7a3b 8004 febb
0.054721683 -0.031143785 0.0038218722 -0.0077520013
