fetch_sticky_mittens_step/networks/ours_10k_block_3_uber_level_0_seed_150/network_release_and_lift_1.pth (torch, 594807 bytes, 8 tensors)

fc1.weight f4 [256, 58]
000000 b0 83 fb 3d e6 ec 70 3d 7e e0 92 bd 9c b9 2a 3d
       0.12280977 0.058819674 -0.07171725 0.041680917
000010 c1 d4 d4 3c 2b dd 26 bd 6a a3 a5 3c c4 09 db bd
       0.025980355 -0.040738266 0.020219523 -0.10695222
000020 bf 26 92 3d ae ef ce 3c 63 bd 91 3d 2e 11 b2 bd
       0.071362965 0.025260773 0.07116201 -0.08694683
000030 ad d1 6d bd 6d 23 d8 bd c7 aa b2 bd 34 b5 98 3d
       -0.05806129 -0.10553632 -0.087239794 0.07456437
000040 b7 07 11 bd 1a b1 00 be 60 ef c6 3d 54 3c fd 3d
       -0.035407748 -0.12567559 0.09713626 0.12365022
000050 7d 7c 8d bc 06 45 06 be 1c da 96 3d b9 86 cb 3d
       -0.017271275 -0.13112268 0.0736582 0.09937806
000060 e0 dc 9b 3a 0c f9 04 3e ce 0d a6 3d 47 5e 12 3d
       0.0011891387 0.12985629 0.08108102 0.03573444
000070 41 2a 00 3e b4 f6 91 3d 9b c1 f7 3b ff 76 04 be
       0.12516119 0.07127133 0.0075609214 -0.12936018
000080 27 2c e1 3d 76 ac 80 bd 4d 55 5f 3d aa db 53 bd
       0.109947495 -0.06282894 0.05452471 -0.05172316
000090 ce 85 06 3c 3b 05 a3 bd c8 c9 f6 bd 79 23 06 3d
       0.008210612 -0.07959982 -0.120502055 0.032748673
0000a0 1b bf fa 3d 34 38 a8 3d 62 89 c0 bd cd 2c 6e bc
       0.12243482 0.08213845 -0.09401204 -0.0145370485
0000b0 ec 0d d5 bd e6 56 ec bd 7a 3e d2 bd a4 92 8f 3d
       -0.10403046 -0.11540012 -0.10265823 0.07010391
0000c0 15 21 b5 3d eb 94 26 bd 6c c3 a7 3d c1 6b ee 3d
       0.088442005 -0.040669363 0.08191571 0.11641646
0000d0 61 c6 03 be 1e b1 4c 3d a9 8e e3 3d 5f c1 d9 bd
       -0.12868644 0.0499736 0.11111195 -0.10632586
0000e0 59 7d e1 3d ff c2 85 bd 18 79 8a 3c a4 88 dc 3d
       0.11010236 -0.06531333 0.016903445 0.1076825
0000f0 50 97 7e bd 38 4f ba 3d 0f e4 29 3d 90 b4 e6 3d
       -0.06215602 0.09097141 0.04147726 0.11264908
000100 3c 8d 0a 3d 49 cd 8c bd 48 d9 fc bc aa 4e 3d 3d
       0.033826098 -0.068750925 -0.030865327 0.046217598
000110 1b 3c 7e bd 82 13 6f ba e5 ce 81 bd c5 13 c8 bd
       -0.06206904 -0.00091200334 -0.0633829 -0.09769396
000120 0b c9 c1 3d 19 09 49 3c 6c 78 fa 3d 95 de 9b 3d
       0.09462174 0.012270235 0.1223 0.076108135
000130 c6 41 fb bd fe bb b9 bd 64 62 aa bc be 3f 97 3d
       -0.12268405 -0.0906906 -0.02079887 0.07385205
000140 2f 02 b9 3d 06 b4 bc bd 78 de 1a bc 6a e7 96 3d
       0.090336196 -0.09214024 -0.009452455 0.073683575
000150 fe e9 c1 3d bb e0 f5 3c 84 28 aa bc 9c 02 12 3c
       0.094684586 0.030014386 -0.020771272 0.008911755
000160 f6 89 b5 bd 9f 0d b1 bd 48 fc a1 bc 25 ec 80 3d
       -0.088642046 -0.08645176 -0.019773617 0.06295041
000170 38 78 e0 3d ae d9 c9 bc 2e 78 b9 3d ad 5b ab 3d
       0.1096043 -0.02463993 0.090561256 0.08367095
000180 f6 13 e8 3b 88 ca 83 bc 71 7f f9 3d 87 ef a0 3d
       0.0070824577 -0.016087785 0.12182511 0.07858186
000190 9f aa d8 bd 59 85 84 bc 1e c8 a3 3b da cb cd 3d
       -0.105794184 -0.016176866 0.004998221 0.10048647
0001a0 91 c0 54 3d 75 5b 91 bd de 6b cd 3d 48 4e 4a bc
       0.051941458 -0.07097522 0.1003034 -0.012347765
0001b0 d6 b6 93 3d 1d 7e 96 bd 6a 2e 80 3d 19 37 13 3d
       0.072126076 -0.07348273 0.06258853 0.035941217
0001c0 6f dd ef bd ba 00 f2 3d 0f b2 ef bc aa 2f f5 bd
       -0.11712157 0.11816545 -0.02925971 -0.11971982
0001d0 80 a1 da 3b b6 78 aa bc 6c 20 fb 3d 41 eb 25 3d
       0.0066720843 -0.020809513 0.12262043 0.04050756
0001e0 f8 fb e0 3d fe 4f c7 bd 4c 29 05 be 08 da c6 bc
       0.10985559 -0.09732054 -0.13004035 -0.024273887
0001f0 45 aa e1 3d 87 11 9e bc 35 ef 13 3c cd 34 9d bd
       0.110188045 -0.019295467 0.009029199 -0.076760866
000200 b6 1e 68 3d ea bd 62 3d 0d 33 7a 3d fb 1f 5d 3d
       0.056669913 0.055356897 0.061083842 0.053985577
000210 8b ec 8b 3d ac b7 98 bc aa 25 1f 3d 20 2b c8 3a
       0.06832226 -0.01864227 0.03885428 0.0015271641
000220 5d b1 88 3d 0d e5 55 bd a7 4e d7 3d 8a f6 01 3e
       0.06674454 -0.052220393 0.105130486 0.12691703
000230 61 3c d9 3c b4 e0 8a 3d c1 16 c0 3c df 10 ff bd
       0.026518049 0.0678114 0.02344835 -0.1245439
000240 0e e2 2a bd 26 46 4d 3c 29 6d 86 3d 12 08 9a 3d
       -0.04171949 0.012528932 0.065637894 0.075210705
000250 37 6c cb 3d c9 20 5c 3d 45 32 b3 bc 8e f1 b0 3d
       0.0993275 0.053742204 -0.021874556 0.08639823
000260 75 a8 dc 3d 94 e9 d7 bb 93 83 36 bd bb da f9 3d
       0.10774318 -0.006589124 -0.044559073 0.12199923
000270 55 d2 f2 3d e7 0f 84 3d 4d d4 64 bd eb 5c e9 3c
       0.11856524 0.06448346 -0.05586653 0.02848669
000280 ee 85 a2 bd ac 1e 77 bd 21 12 b0 bd ca 65 1f bd
       -0.07935701 -0.060331985 -0.08597208 -0.038915433
000290 e5 12 1b 3d 9c e3 c0 bd ac 46 05 be 4a 44 1f bc
       0.037859816 -0.09418413 -0.1301524 -0.009720871
0002a0 d5 57 94 bd 5e 6f 05 be eb 95 b6 bd 3b 1f 9a bd
       -0.07243315 -0.13030764 -0.08915313 -0.07525488
0002b0 ba b4 75 3d 4e 63 b8 bd 84 72 09 bc 97 80 0e 3d
       0.059986807 -0.09003316 -0.008389119 0.0347906
0002c0 a9 5d 3f 3d af dc 67 3c 69 d3 49 bd 54 0e 61 bd
       0.04672018 0.014151736 -0.049273882 -0.054945305
0002d0 01 2f d4 3d fc fb e1 3d e9 36 92 3d 08 c3 47 3d
       0.10360528 0.1103439 0.071393795 0.04876998
0002e0 35 c3 ca bc ab 03 53 3c 5d 1b 69 3d 3c 12 d7 bb
       -0.024751285 0.0128792925 0.05691086 -0.006563453
0002f0 da a6 83 3d 77 da 8f bb 03 46 da 3c 98 bf 39 3d
       0.06428309 -0.0043900567 0.026644712 0.045348734
000300 ef 59 40 bd 39 19 ad bd 3f a3 a7 3d 16 4c f7 bb
       -0.046960767 -0.084520765 0.081854336 -0.007546912
000310 36 74 82 3d 38 ef 82 bc ef 70 9b 3d 39 47 fb 3d
       0.06369822 -0.015983209 0.075899 0.12269444
000320 42 eb de 3c 25 d5 cc bd 22 85 e7 3d 8c 3a d6 3d
       0.027211789 -0.100015916 0.1130469 0.10460386
000330 d2 68 eb bd 7d 35 63 bd f0 15 f8 bc 71 d4 38 3d
       -0.11494602 -0.055470932 -0.030283898 0.045124475
000340 a6 96 04 3c a1 82 64 bd 55 48 ce bd e4 e5 fe 3d
       0.008092558 -0.05578864 -0.1007239 0.12446192
000350 00 58 d2 bd 9d dc 39 bd c7 a9 4d bd a5 5e 80 3d
       -0.10270691 -0.04537641 -0.05021074 0.06268052
000360 71 ed 04 be 88 ee f5 bd 62 b7 e3 3d 99 ef e2 bd
       -0.12981202 -0.12008387 0.11118962 -0.11080856
000370 d0 70 23 bd c6 9d cd 3d 9c db f0 3d 7e 91 cb 3d
       -0.03990251 0.100398585 0.11760637 0.0993986
000380 ec 40 7a bd 3e 57 04 3e 2d 46 b4 3d 99 16 9f 3d
       -0.06109707 0.12923905 0.088024475 0.07767982
000390 1a ac 22 bd 17 67 3b 3d 22 4a 02 3e 50 17 c5 bd
       -0.03971491 0.04575261 0.12723592 -0.09623587
0003a0 ac 0a 95 bd a9 be 06 bd 68 cc c1 3d cb a1 9d 3d
       -0.07277426 -0.03289667 0.094628155 0.07696875
0003b0 f8 6e d7 bd dc 87 f4 bd 08 d3 f1 3d b2 7b 8f 3c
       -0.105192125 -0.119399756 0.11807829 0.017515037
0003c0 0c 69 c1 3d 0d c1 a7 3d 22 77 b7 bb 36 a5 bd bc
       0.09443864 0.081911184 -0.0055989185 -0.023150068
0003d0 0c 2f 80 bd 30 62 a4 bd c2 bb e7 3d b5 f9 c1 3d
       -0.062589735 -0.0802654 0.11315109 0.09471456
0003e0 07 4e ba 3d 80 69 8c bd 88 30 90 3d b7 c5 9c bd
       0.09096914 -0.0685606 0.070405066 -0.076548986
0003f0 4d 99 a0 3d 83 72 80 3c 6c 18 12 3d 2b 52 23 bd
       0.0784174 0.015679603 0.03566782 -0.039873283

fc1.bias f4 [256]
000000 71 49 a1 3d 37 2d ff bb 2f 79 67 bd 23 8a 96 bd
       0.07875336 -0.0077873725 -0.056512054 -0.07350566
000010 0d 53 f5 3d 61 3a 94 bb a7 fd 00 be 05 04 f1 bd
       0.11978731 -0.004523561 -0.1259676 -0.11768345
000020 52 e4 16 bc 2b 13 7f bd 42 4e 8d 3d 58 1f 8c 3c
       -0.009209709 -0.06227414 0.06899692 0.01710479
000030 74 81 87 bc e9 59 9e bc bf 21 5f 3d b7 5c 9f 3c
       -0.01654122 -0.019329982 0.054475542 0.01945339
000040 8b 86 ed bd ee f3 d4 bd e6 ec b1 bd 82 00 1d 3d
       -0.11597928 -0.103980884 -0.08687763 0.038330562
000050 b3 cb 63 bd 71 0c 9c 3d 90 f3 8f 3d cc b9 00 3e
       -0.055614185 0.076195605 0.07028878 0.12570876
000060 db b8 d7 3d 29 5d 6a 3d 43 79 db bd d8 ad 8c 3d
       0.10533305 0.05721775 -0.10716488 0.068690956
000070 40 1d ea 3b a9 8a e4 bd 7b 89 11 bd e4 cc 69 bb
       0.0071446 -0.1115926 -0.035531502 -0.0035675103
000080 75 df 84 bb fd f9 fa 3d 50 a0 b6 bd d1 c2 40 3d
       -0.0040549585 0.12254713 -0.08917296 0.04706079
000090 1f 41 cb bd e3 3d 00 be 28 7f b4 bd 90 26 e1 bd
       -0.0992453 -0.12523608 -0.08813316 -0.10993683
0000a0 34 d4 e8 3d cb 4c 46 bd a8 ac f0 3b b3 a7 e2 bd
       0.113685995 -0.04841308 0.007344801 -0.11067142
0000b0 5a b9 94 3c 6f 87 c3 3d d9 75 84 3d 79 ea b0 bd
       0.018154789 0.09547316 0.0646779 -0.08638472
0000c0 e2 0a ab 3d 4e 00 d2 bc 2e 01 93 bc 19 28 a2 bd
       0.08351685 -0.02563491 -0.017944898 -0.07917804
0000d0 fb 0f d1 3a 84 37 35 3d 0f 20 68 3d 9f 76 de bc
       0.0015950197 0.044242397 0.0566712 -0.027156172
0000e0 37 a2 d5 bd 3b 44 92 3d ea e5 00 3d 62 27 b6 bc
       -0.10431331 0.0714192 0.031469263 -0.022235576
0000f0 d4 76 e8 3d 92 34 a3 3d dc ef d9 3d d2 e3 82 3d
       0.1135079 0.07969011 0.10641453 0.063911095
000100 ee 03 ce 3d e9 51 e6 bc cc 27 64 bc 36 85 84 bd
       0.10059343 -0.02811523 -0.013925504 -0.064707205
000110 1a b8 46 bd a8 8a a2 3d 0d 6b 73 bd 56 55 5e bd
       -0.048515417 0.07936603 -0.059428263 -0.0542806
000120 72 78 fa 3d 26 76 85 3d 92 2b f4 bd 39 e9 dc bc
       0.12230004 0.06516676 -0.11922373 -0.026966678
000130 71 03 b2 bd ce 5a 02 3e 6c 96 95 bd b5 49 33 bd
       -0.08692063 0.12729952 -0.07304081 -0.043771464
000140 99 56 f3 bc 17 25 b2 3c 66 9d 1e 3d b4 18 da 3d
       -0.029704379 0.021746201 0.038724326 0.10649243
000150 a1 a6 73 bc c4 e1 2f bd 3e 86 a3 3d 84 99 e0 ba
       -0.01487127 -0.042939916 0.07984589 -0.0017135595
000160 2a 6e 45 bd 89 50 f1 3d e7 75 36 bc 57 c8 93 3d
       -0.048200764 0.11782939 -0.011136509 0.07215946
000170 fe 78 20 bc a9 91 fd bd bf a7 cb 3b 57 ab 6a 3d
       -0.009794472 -0.12381298 0.0062150653 0.05729231
000180 37 2b 9e 3d d5 57 dd bd e2 b8 a8 bd 4d dd e9 3c
       0.07723086 -0.10807768 -0.082383886 0.028547907
000190 71 b2 df bd 7e 4a ee 3d 46 43 76 3d e6 39 b4 bd
       -0.10922707 0.11635302 0.06012275 -0.08800106
0001a0 c8 12 b6 bd d1 52 b3 bd 96 52 77 3d 99 73 c4 3d
       -0.08890301 -0.0875603 0.060381494 0.09592361
0001b0 a9 26 8e bc cf 76 f9 bd 40 b8 c6 3c fb 15 ee 3d
       -0.017352419 -0.12180864 0.02425778 0.11625286
0001c0 41 41 fd 3d 7a cd a6 3c f9 0e f1 bc a1 0d a3 bc
       0.12365962 0.02036165 -0.029426085 -0.01990396
0001d0 bf 40 76 ba 8e 6a 75 3d 7f 03 b0 3d 84 83 01 bd
       -0.0009393803 0.05991607 0.08594417 -0.031619564
0001e0 03 d1 ca 3d 9d 4a 45 bd ae 94 01 3e b5 21 6d 3d
       0.09903147 -0.04816686 0.12654373 0.057893474
0001f0 52 3a 23 bd 53 ef 82 3d 23 34 f9 bd 1c 8a a1 3d
       -0.03985054 0.06393304 -0.121681474 0.078876704
000200 4e c3 fb 3d e9 d3 74 3d f4 9b d1 3c 0a df a7 bd
       0.12293111 0.059772406 0.02558706 -0.08196838
000210 6d 27 84 3d 53 42 ba bd d2 40 2c 3d 76 fd 65 bd
       0.06452832 -0.090946816 0.042054005 -0.056149922
000220 86 6a a9 bd b1 65 a9 bc 1a 67 97 bd f2 f0 c4 3b
       -0.08272271 -0.020678373 -0.07392712 0.006010168
000230 29 c3 84 3d b6 0e cf 3d 48 3f f4 3d 67 c1 ac 3d
       0.06482536 0.10110228 0.119261324 0.08435326
000240 8f dd fc bd 52 71 06 3e 18 e7 f3 bd 8e 32 41 3d
       -0.123469464 0.13129166 -0.11909312 0.047167353
000250 f5 9e 9a 3d 6f 07 8f bd 4e 6c a1 bc a4 46 fb 3d
       0.0754985 -0.0698384 -0.019704964 0.12269333
000260 97 cb a6 bd 51 e6 d8 3d c3 b1 dd 3c 34 a0 d6 3d
       -0.081443004 0.10590804 0.027062302 0.10479775
000270 6e 00 a5 bc 82 2a 9e bc 45 db 10 3d c0 61 e0 bd
       -0.020141806 -0.019307379 0.03536536 -0.10956144
000280 3e 41 a6 3c 7c ce 86 3c a2 85 a3 3d bc 09 08 bd
       0.020294782 0.016455881 0.07984473 -0.03321241
000290 a3 4a 1a bd c0 10 f8 bc 03 3b b5 3d cb 2d 8e bd
       -0.037668835 -0.030281425 0.08849146 -0.06942328
0002a0 73 f9 92 bd ec d1 3b 3d 61 55 01 3c 9e 30 ab bd
       -0.07176485 0.045854494 0.007893891 -0.08358882
0002b0 2d 23 24 3d 33 ed fd 3d 3c 70 8e 3d 5b d1 5f bd
       0.04007261 0.12398758 0.06955001 -0.054643016
0002c0 e8 88 a4 3c 4d 99 d7 bd 0c ba 4c 3c e9 8f c4 3b
       0.020084813 -0.10527287 0.012495529 0.0059986007
0002d0 e3 c0 62 3d 50 6f cf bc 7c 9f ec bd 7b b6 44 bd
       0.055359732 -0.025321633 -0.11553857 -0.04802559
0002e0 0d 02 05 be 66 bc ab 3d 21 93 84 bd d5 0d 32 3d
       -0.12989064 0.083855435 -0.06473375 0.043470223
0002f0 99 9a 7d bd 10 3f 01 be 28 da 66 3d 35 d7 02 be
       -0.061915014 -0.12621713 0.056360394 -0.12777407
000300 cd 4d aa 3d 0c 65 bf 3d 07 b3 53 3d 83 f5 f9 3d
       0.083156206 0.09345445 0.051684406 0.12205031
000310 60 4a b5 bd c8 8a bf 3c e8 58 87 3d 2d fc 1a 3d
       -0.088520765 0.023381606 0.066087544 0.03783815
000320 b1 93 c6 3d 5d 5e e9 bc 92 40 9c 3d 3b bd f4 bc
       0.09696139 -0.028487379 0.07629503 -0.029875388
000330 96 a0 fe 3b 98 03 ba bd c0 4a 96 3d e8 2a 82 3d
       0.007770608 -0.09082717 0.07338476 0.0635584
000340 7c 72 1c bd a7 04 93 3d 0a 6a 96 3d 04 6f 77 3d
       -0.03819512 0.07178622 0.07344444 0.060408607
000350 a7 6b b6 bd 99 37 e6 3d 19 13 b5 3d b8 60 6c 3d
       -0.08907252 0.11241073 0.08841533 0.057709426
000360 76 d0 b3 bd 56 ea cc 3c a2 36 ae bd 6a d0 b1 bd
       -0.08779995 0.025014084 -0.08506514 -0.0868233
000370 e5 c6 58 3d 5c fd 91 bd ac a2 e1 bd 7d 64 c9 bc
       0.052924056 -0.071284026 -0.11017355 -0.02458405
000380 f5 61 9a 3c 3a c4 54 bd 39 be 8c 3c f6 33 ac bd
       0.018845538 -0.05194495 0.017180549 -0.08408348
000390 15 d9 92 bd 4d 57 1e bd 45 b1 35 3d ea 7a 0b 3d
       -0.07170311 -0.038657475 0.04435851 0.034052767
0003a0 49 2e 3a 3d 73 d7 cc 3d 75 e8 01 be ef d8 4e bc
       0.045454297 0.10002031 -0.12686332 -0.012624963
0003b0 ef 52 05 3e fb f5 0c bd 96 eb 01 be b0 b9 e8 3d
       0.13019918 -0.034414273 -0.12687525 0.11363542
0003c0 40 77 3e 3d ef 2e af bd 69 5a 9e 3d 86 54 51 3d
       0.046500444 -0.08553874 0.07732088 0.051106
0003d0 84 46 94 3d ed fa db 3d be dd c5 bd fd b8 da 3d
       0.07240012 0.1074122 -0.096614346 0.10679815
0003e0 9e 8a b6 bc 2b 91 b5 3b 1e 5c 70 3d 9d be dc 3d
       -0.022282895 0.005540987 0.0586816 0.10778544
0003f0 e0 36 bb bd 49 73 b1 3d 35 41 bc 3d fc 84 8c 3d
       -0.09141326 0.08664567 0.09192125 0.06861302

fc2.weight f4 [256, 256]
000000 d8 91 a5 3c be f3 38 3d 68 b8 17 3c 98 52 50 bd
       0.020211145 0.045154326 0.0092602745 -0.050860018
000010 70 45 ad bc 94 14 a0 3c 72 91 4f bd 6c b0 3c bd
       -0.021151274 0.019541062 -0.050675817 -0.046066687
000020 e8 4d 09 3c c8 c1 5f 3d cc f8 39 3d e4 8d 7e bd
       0.008380391 0.054628164 0.045403287 -0.062147036
000030 1e f9 00 3d 60 f2 11 bc 38 0b 2e bc ac f9 0c 3d
       0.031487577 -0.008907884 -0.010622792 0.034417793
000040 d4 23 96 3c 68 60 d9 bc 38 f1 5e bd 90 7d f5 3b
       0.018327631 -0.026535228 -0.054429263 0.007491775
000050 e8 7e 67 bc 80 6c 23 3b 58 c1 c6 bc d2 6d 68 3d
       -0.014129378 0.0024936497 -0.024262115 0.056745358
000060 1a 71 78 bd dc 73 45 bd 00 be 7a 3d 6c 33 44 3d
       -0.060654737 -0.048206195 0.061216354 0.047900602
000070 84 86 f0 bc 9c c9 ef 3c 2e d8 76 3d 46 4d 3d bd
       -0.029361017 0.02927094 0.06026476 -0.04621627
000080 c0 d3 9e ba b8 3a 64 bc 48 36 c0 bc 64 65 0a 3d
       -0.001211755 -0.013930015 -0.023463383 0.0337881
000090 48 91 ac 3c d0 a6 fc bb fc 2e 49 3d 64 f0 23 bd
       0.02106537 -0.0077103153 0.049117073 -0.040024176
0000a0 b0 bb 90 3c e0 fc af 3c 14 ab 11 bd 74 f0 98 bc
       0.017667621 0.021482885 -0.035563543 -0.018669344
0000b0 4c 5e 83 3c 76 aa 7c bd 28 78 ce 3c 86 ed 41 bd
       0.016036175 -0.061686 0.02520378 -0.04734566
0000c0 e0 57 bf bc c4 85 e5 bc 60 41 ab 3b 9a ec 4b 3d
       -0.023357332 -0.028017886 0.005226299 0.049786188
0000d0 70 9e 45 3c 76 15 5b bd e4 a5 5f 3d e8 e9 56 3c
       0.0120617 -0.053487264 0.054601565 0.013117291
0000e0 00 f6 45 bb a0 1a 01 3c c2 c9 68 3d 28 62 6a bd
       -0.0030206442 0.007879883 0.056833036 -0.057222515
0000f0 40 48 b0 bb bc 9a ea 3c da 56 2b bd 20 a0 ec 3c
       -0.0053797066 0.028638236 -0.041830875 0.028884947
000100 c4 a6 c6 bc 10 44 a4 bb c0 ef e6 3b 00 96 02 ba
       -0.024249442 -0.0050129965 0.0070476234 -0.0004981458
000110 d8 5e 27 3c 00 0a 5d bc ec 70 97 bc d0 24 23 3c
       0.010215484 -0.013491154 -0.018486463 0.009957507
000120 f0 05 7d 3d 1a c9 65 bd 40 ce 5f 3d 00 86 00 39
       0.06177324 -0.05609999 0.054640055 0.0001225695
000130 82 bf 1c bd dc 74 0d bd f0 27 19 3d c0 19 d7 bb
       -0.038268574 -0.034535274 0.037391603 -0.006564349
000140 ee d9 2e bd 84 3a 9c 3c 12 c9 5f 3d dc b1 4a 3d
       -0.042688303 0.019070871 0.054635115 0.049486026
000150 54 5c c9 bc 82 af 6d bd b2 bd 33 bd 5e 5e 33 3d
       -0.024580158 -0.058028705 -0.04388208 0.043791167
000160 4e 46 70 3d d0 fe 3e bc c0 b2 cc 3c 50 29 b6 bc
       0.058660798 -0.011657432 0.024987578 -0.022236496
000170 20 03 01 bb a4 17 05 bd e0 61 46 bb 78 0a 7b 3c
       -0.00196857 -0.03249325 -0.003027074 0.01532232
000180 a6 13 5c bd 80 3e 01 ba 80 80 22 bc b8 57 d9 3c
       -0.053729676 -0.00049302727 -0.009918332 0.026531085
000190 66 c1 1a bd 00 97 b4 3a 00 bc b3 39 d8 c3 16 3d
       -0.037782095 0.0013777912 0.0003428161 0.036807865
0001a0 80 1a a5 3c f8 33 25 3d 72 9c 41 bd 74 96 d9 bc
       0.020154238 0.040332764 -0.04726834 -0.026561
0001b0 d0 23 3e 3c d2 5a 5a 3d 28 16 e0 bc 6a 82 7e bd
       0.011605218 0.05330927 -0.027354315 -0.06213609
0001c0 38 a4 b6 bc 90 13 84 bc ac 17 48 3d 30 91 ed bb
       -0.022295102 -0.01612261 0.0488507 -0.0072499737
0001d0 9c 8d 80 bc f0 cd 22 bd 70 4d 74 bd 44 83 79 3d
       -0.015692525 -0.03974718 -0.059644163 0.0609162
0001e0 1c 0c 18 bd 40 32 cb 3a aa 66 6f 3d 28 cc 1d 3d
       -0.037120923 0.0015502647 0.058447517 0.038524777
0001f0 84 a4 4c bd 3a 74 35 3d 52 60 73 3d 38 1f 61 bd
       -0.04996158 0.044300295 0.05941803 -0.054961413
000200 9c fe fd 3c f8 53 58 3c c4 17 72 bd 7a bc 4a 3d
       0.031005196 0.013203613 -0.059104696 0.04949615
000210 ae 18 5e 3d 42 66 7a 3d 90 5d eb bc 56 27 4a 3d
       0.054222755 0.061132677 -0.028731138 0.04935392
000220 90 0e cb bb 9c 1d 11 bd 20 a4 77 3c 0c a4 ef 3c
       -0.0061968043 -0.03542863 0.015114814 0.029253028
000230 5a e5 08 bd c8 11 b0 bc 50 18 ba 3b 5e cb 6b bd
       -0.03342185 -0.021492854 0.005679168 -0.057566993
000240 e8 6e ca bc 4e ac 10 bd c2 4c 31 3d 68 66 73 3d
       -0.024711087 -0.035320573 0.043286093 0.059423834
000250 e6 dd 01 bd b0 c9 70 bc ae 6a 0a 3d 68 e9 47 3d
       -0.03170576 -0.014696524 0.033793144 0.048806578
000260 a0 11 d8 bb d8 f9 f3 bc 0c 5f 03 bd 1a 57 54 bd
       -0.006593898 -0.02978222 -0.032073066 -0.05184088
000270 dc d1 98 3c 08 fd c4 bc 68 9a 65 3d e0 35 37 3b
       0.018654756 -0.024046436 0.056055456 0.0027955696
000280 f6 ad 57 3d cc b9 34 bd d0 71 52 3d 3c ab a2 bc
       0.052656136 -0.044122502 0.05137807 -0.019857042
000290 80 5a b9 ba ae 3b 47 bd e0 04 6d 3d 38 e6 3c bc
       -0.0014141351 -0.0486409 0.057865977 -0.011529498
0002a0 80 05 2e bd c2 f9 6b 3d 08 60 5c bc ec ae 6c 3d
       -0.042485714 0.057611234 -0.01345063 0.057784006
0002b0 10 47 30 bc ec 76 cf 3c 84 43 c8 bc 00 d0 1d 3c
       -0.01075913 0.025325261 -0.024446256 0.009632111
0002c0 c0 23 90 ba 50 bc 79 3c 82 11 0c bd b0 15 20 3c
       -0.0010996982 0.015242651 -0.034196384 0.009770796
0002d0 68 e8 58 bc 40 3f f1 3b 44 a8 b9 3c 80 89 04 3d
       -0.013239004 0.0073622763 0.022663243 0.032357693
0002e0 90 d3 05 3d ec c2 9e 3c 00 9b 3d bd 96 03 08 3d
       0.032672465 0.019380055 -0.046290398 0.033206545
0002f0 00 d0 d5 3a 88 3b 46 3c c0 9e b0 3a 00 8a 17 bb
       0.0016312599 0.012099154 0.0013475046 -0.0023123026
000300 a0 cf 1e bd 9c c8 4d bd 78 79 7e bc f4 d9 c1 bc
       -0.038772225 -0.050240144 -0.01553189 -0.023663498
000310 f2 68 59 3d d6 09 2c 3d 48 30 15 3d 28 17 8c 3c
       0.0530786 0.042001568 0.036422998 0.017100886
000320 28 c9 aa bc 32 53 77 bd 5c 82 49 3d 18 4d 51 bc
       -0.020847872 -0.060382076 0.049196586 -0.012774728
000330 c0 40 88 3b 34 37 59 3d 46 1a 05 bd fc eb 6e bd
       0.0041581094 0.05303116 -0.03249576 -0.05833052
000340 cc 36 a0 bc 80 3d 87 3c c6 8a 4a 3d f8 e5 df 3c
       -0.01955738 0.016508818 0.04944875 0.027331337
000350 00 67 4b 3a 00 c8 64 3c 10 6d ce 3c 20 c2 66 3b
       0.00077591836 0.013963699 0.02519849 0.0035210922
000360 f8 a8 62 3d 00 98 72 bb b0 65 48 3c 08 40 7a 3d
       0.055336922 -0.0037016869 0.012231275 0.06109622
000370 b8 6c 25 bd f0 02 5e 3d 1c 99 1f bd c8 ae 8f bc
       -0.040386885 0.05420202 -0.038964376 -0.017539397
000380 44 a9 58 3d dc 9b 06 bd 28 84 ed bc b0 3e 93 bb
       0.0528958 -0.032863483 -0.028993681 -0.004493557
000390 c4 72 c2 bc 20 98 37 3b 52 f0 55 3d f0 37 a0 bb
       -0.023736365 0.0028014258 0.05223114 -0.004889481
0003a0 c2 01 64 bd 20 72 10 bc 80 54 5b 3b a4 ef 62 bd
       -0.05566574 -0.008816272 0.0033467114 -0.05540432
0003b0 d2 40 35 3d 44 72 57 3d 00 ec 1b ba 40 12 c7 3a
       0.04425127 0.052599207 -0.00059479475 0.0015187934
0003c0 d4 bf 5e 3d bc 7e f9 bc 50 75 26 3c f8 65 d4 bc
       0.05438216 -0.03045594 0.010159805 -0.025927529
0003d0 f0 fe 84 3b 10 43 a5 3c f4 63 d3 bc c8 d8 32 3c
       0.004058711 0.02017358 -0.025804497 0.0109159425
0003e0 10 21 dd 3c 18 c9 71 bd a0 46 12 3b ac 00 6f 3d
       0.026993304 -0.05902967 0.0022319928 0.05835025
0003f0 8e ec 5c bd a0 ad f8 3c f4 fc 27 bd e4 80 9e bc
       -0.053936534 0.030356228 -0.04101272 -0.01934857

fc2.bias f4 [256]
000000 1c 69 8d 3c 44 93 83 bc e0 e9 3d bb 92 b0 25 3d
       0.017262034 -0.016061433 -0.0028978512 0.040451594
000010 84 e3 dc 3c c0 35 55 bb e4 32 c5 3c 44 8e 8c bc
       0.026963957 -0.0032533258 0.024072118 -0.017157681
000020 50 2c 46 3d e2 56 39 3d b8 15 84 3c 9c 67 22 3d
       0.048382103 0.045248874 0.016123638 0.03964959
000030 80 d6 90 bc 4a f7 54 bd d0 a4 a1 bb ac 00 9e bc
       -0.017680407 -0.051993646 -0.0049329773 -0.01928743
000040 8c 3e 42 bd e0 6c 0f 3d 50 0e d9 bc 7a 26 0d 3d
       -0.04742293 0.03501594 -0.026496083 0.034460522
000050 d0 96 97 3b e0 6e a6 bc 80 a6 d6 3a 64 99 3d bd
       0.0046261325 -0.020316541 0.0016376525 -0.046288863
000060 88 dc 80 bc bc 30 8d bc 10 59 a6 bb a0 8f 9d bc
       -0.015730157 -0.017235152 -0.005076535 -0.019233525
000070 70 e4 7d 3d 50 c9 24 3c e4 fc bf 3c 28 be 62 bd
       0.061985433 0.010057762 0.023436017 -0.05535713
000080 c0 31 97 bb 60 1e ac 3c 50 82 12 bd 8c 6f 97 bc
       -0.004614085 0.021010578 -0.035768807 -0.018485807
000090 b8 68 65 3d 60 c8 33 bc e4 00 e1 bc 50 d8 d6 3c
       0.05600807 -0.010973066 -0.027466245 0.026226193
0000a0 7c 8b e2 bc 98 80 7b bd 80 66 49 3a 6c 28 3a 3d
       -0.027654402 -0.061401933 0.0007682815 0.045448706
0000b0 54 d0 4f bd 86 0c 54 bd d0 c3 1a 3c e8 fd 64 bc
       -0.050735787 -0.051769756 0.009446099 -0.013976552
0000c0 74 4e 1f 3d 86 14 5c 3d a4 e5 ea 3c 00 5b dc 3c
       0.038893178 0.05373051 0.028673954 0.026898861
0000d0 e8 4b 08 3c d0 7a 62 bd 18 88 13 bc 70 b6 ce 3b
       0.008318879 -0.055292904 -0.009004615 0.0063083693
0000e0 2a 5c 6b bd c0 9f fd 3b a0 04 f4 3c 60 c4 2c 3d
       -0.05746094 0.007739991 0.029787362 0.042179465
0000f0 40 d5 12 3b 94 d7 69 3d 10 44 b3 bb ec ad b2 3c
       0.002240494 0.057090357 -0.00547076 0.021811448
000100 98 b2 1f bd 3e b7 68 3d 14 81 a0 bc 54 dd 6b bd
       -0.03898868 0.05681538 -0.0195928 -0.05758412
000110 26 3e 39 bd d0 c0 18 bd d0 d5 62 3d 0e 49 7a 3d
       -0.045225285 -0.037293255 0.05537969 0.061104827
000120 14 3b 0d 3d 60 5b 86 bc 00 0e 83 39 40 cc d5 3c
       0.03448017 -0.016400993 0.00024996698 0.02609837
000130 16 1e 6d bd 18 14 3a 3c aa f2 7f 3d 50 5b 7b 3d
       -0.05789002 0.01135733 0.06248728 0.06136638
000140 a4 fe e9 bc e4 46 97 bc d0 d6 19 bc dc e1 a3 3c
       -0.028563805 -0.01846642 -0.009389594 0.02000516
000150 d0 86 bd bb b0 fc a6 3c f6 3a 5a 3d 3e b6 28 3d
       -0.005783893 0.020384163 0.053278886 0.041189425
000160 b8 d3 ac bc 60 44 53 3c 38 33 8e 3c 44 bf 9c bc
       -0.02109705 0.01289472 0.017358407 -0.019134171
000170 a4 80 34 bd 60 4a 7b bd d6 0c 1a bd 5a a0 21 bd
       -0.044067994 -0.061350226 -0.037609898 -0.039459564
000180 48 36 3b 3d 7c 43 c2 bc e8 66 3c 3d 90 a6 eb bb
       0.045706064 -0.02371382 0.045996577 -0.0071914867
000190 68 df 58 bc 7e c2 55 bd bc aa 2a bd 8a e4 27 bd
       -0.013236858 -0.052187435 -0.04166673 -0.040989436
0001a0 00 81 d9 3a 50 6d a2 3b e0 d1 1c bb 22 ca 0a bd
       0.0016594231 0.0049568787 -0.0023928806 -0.033884175
0001b0 58 00 67 3c 36 50 7c bd 9c cc cc 3c e4 c2 93 3c
       0.014099203 -0.061599933 0.02499991 0.018037267
0001c0 00 a3 38 bc 60 99 39 bd 30 81 01 3d f8 dc 65 bc
       -0.011269331 -0.045312285 0.031617343 -0.014029734
0001d0 88 e6 e6 bc e0 d5 46 3d 98 63 29 3c d0 7d 0b bd
       -0.028186098 0.04854381 0.010338686 -0.03405553
0001e0 ac bd 80 bc 08 d4 1d bd 14 d6 32 3d b2 9d 72 bd
       -0.015715443 -0.038532287 0.043661192 -0.05923242
0001f0 b2 d2 17 bd b0 cf ca 3b 0c 3b b4 3c 72 57 41 bd
       -0.03706617 0.006189309 0.022000812 -0.047202535
000200 c8 42 07 bc 66 30 05 bd 6e d5 41 3d 28 f8 0c 3c
       -0.008255668 -0.03251686 0.047322683 0.008604087
000210 74 8b 41 bd 80 2b 07 3a 9c e1 9c 3c 30 a9 3b 3c
       -0.047252133 0.00051563233 0.019150548 0.011453912
000220 b0 c1 82 3b 20 29 46 3b ba 79 1a 3d 48 ff 48 bd
       0.0039903745 0.0030236915 0.037713744 -0.04907158
000230 68 b2 7f bc 80 3c 80 bb 1a d5 5e bd 14 f7 fb 3c
       -0.0156065 -0.003913462 -0.05440245 0.030757464
000240 10 d7 22 bd c8 03 d9 bc 1e 73 07 3d 90 42 79 3c
       -0.03975588 -0.02649106 0.03306877 0.015213624
000250 50 d7 e6 bc 14 aa 60 3d 50 05 f2 bb 18 77 47 bd
       -0.02817884 0.0548497 -0.007385887 -0.04869756
000260 e4 63 67 3d 8a d7 68 bd c4 ce 52 bd d6 fc 50 bd
       0.056491747 -0.05684618 -0.05146672 -0.051022373
000270 48 a5 92 3c 44 df 36 3d f2 13 09 bd 60 d7 2c 3d
       0.017901078 0.044646516 -0.033466287 0.042197585
000280 b2 9f 79 bd b8 2b df bc a2 29 00 3d 86 ac 71 3d
       -0.060943313 -0.027242526 0.031289704 0.05900242
000290 cc 21 e8 bc 40 db 38 3c f0 d5 0d 3d d6 77 2f 3d
       -0.028336428 0.011282742 0.034627855 0.042838894
0002a0 c4 c4 b5 3c 30 d3 50 3d 7c 5c e8 3c 20 6c df bb
       0.022188552 0.050982654 0.028364412 -0.0068183094
0002b0 bc 4e 04 bd 48 e8 6e 3d 8a 91 0a 3d b4 c7 08 3d
       -0.03230165 0.05832699 0.033830203 0.033393577
0002c0 46 b7 3e 3d 5c 14 60 bd c0 10 f9 ba a0 63 09 3b
       0.046561502 -0.054706916 -0.0019002184 0.0020963922
0002d0 88 2c 10 3c 10 3f 2c bd 58 e6 0c 3c 02 4f 66 3d
       0.00879968 -0.04205233 0.00859984 0.05622769
0002e0 ec af 51 3d 22 24 5b bd 30 95 22 3c 58 51 4b bc
       0.051193163 -0.053501256 0.009923264 -0.012409531
0002f0 40 38 12 3d 74 b0 fd 3c 4e 89 5c bd d0 97 b7 3c
       0.035698175 0.030967928 -0.05384188 0.022411257
000300 7c 2f 2f bd 60 61 d9 bc a8 11 d5 3c 24 e5 71 bd
       -0.042769894 -0.02653569 0.026009396 -0.059056416
000310 58 ef 01 bc 34 cd b7 bc fe 14 71 3d d0 89 80 3c
       -0.007930599 -0.022436716 0.05885791 0.015690714
000320 d4 bd 55 bd 36 c2 14 3d 78 10 08 bd 50 fa 86 bc
       -0.052182987 0.036318026 -0.03321883 -0.01647678
000330 74 03 ed 3c 24 92 64 3d 80 9b d4 3b 1e 8d 50 bd
       0.02893231 0.055803433 0.0064882636 -0.05091583
000340 2a 52 53 3d e0 bb 47 3b 7c 97 80 bc b8 4a c6 3c
       0.05159203 0.0030476972 -0.015697233 0.02420555
000350 38 a1 c6 bc dc d7 f9 3c 60 fc bd 3b b0 d6 2f bd
       -0.024246797 0.030498438 0.0057979077 -0.04292935
000360 30 c6 f8 3c a4 96 60 bd cc be 8b 3c 84 e5 53 3d
       0.03036794 -0.054831162 0.017058752 0.051732555
000370 90 c0 fb bb 18 4a 85 bc 5c 7e 8a 3c 60 38 42 bb
       -0.0076828673 -0.016270682 0.016905956 -0.0029635653
000380 3e ab 04 3d 48 16 ac 3c 88 93 52 3c 24 71 da bc
       0.03238987 0.021006718 0.012852557 -0.026665278
000390 32 ee 26 bd b6 6b 18 bd a8 b8 f8 3c a0 50 40 3c
       -0.040754505 -0.037212096 0.030361488 0.0117379725
0003a0 f4 2d 4c bd a8 93 b9 3c b0 af 7b 3d fa c6 53 bd
       -0.04984851 0.022653416 0.061446846 -0.05170343
0003b0 32 d7 6c 3d 00 c7 c2 3b 30 28 09 bd 80 19 7a bd
       0.057822414 0.005944133 -0.03348559 -0.061059475
0003c0 ee f6 30 bd c4 79 f6 3c 7c 55 89 bc 6a 8f 66 3d
       -0.04320424 0.03008736 -0.016764395 0.056289114
0003d0 9e 4b 0a bd ee c5 7b bd f0 7d be 3b 04 11 ab 3c
       -0.03376352 -0.061468057 0.0058133528 0.020882137
0003e0 9c e3 77 bd 60 5b f1 bb c0 ca 4a bb 4c 7a 1a bd
       -0.0605198 -0.007365629 -0.0030943602 -0.037714288
0003f0 d0 fe e6 bc 5c 8c f1 bc 44 77 d8 bc 60 30 10 bc
       -0.028197676 -0.029485874 -0.026424058 -0.008800596

fc3.weight f4 [256, 256]
000000 9a b5 6a 3d 20 ef c1 bc 40 16 91 3a b8 3d d6 bc
       0.057302095 -0.023673594 0.0011069253 -0.026152477
000010 c8 8c 22 bc 68 84 54 bd 8c e3 59 3d 14 30 73 3d
       -0.00992126 -0.051884085 0.05319552 0.059372023
000020 3c 6d 31 3d c0 ab 58 3b 70 d6 5b 3c 20 87 01 3d
       0.043317065 0.0033061355 0.013417825 0.031623006
000030 e0 6d 12 3c c4 2e 33 3d 30 e3 2c 3c 00 d4 27 bb
       0.008937329 0.04374577 0.010552213 -0.002560854
000040 e4 1d 8a 3c 40 68 d2 bb 80 1d 1d ba 58 0b d3 bc
       0.016859956 -0.006421119 -0.00059934705 -0.025762245
000050 e4 17 ea 3c 7c 4e 63 bd 54 e7 3d 3d be 53 0f bd
       0.028575845 -0.05549477 0.04636319 -0.034991972
000060 70 81 cb bb 58 49 50 3d fa c9 54 3d e2 cb 3c 3d
       -0.0062104985 0.050851196 0.051950432 0.046092875
000070 80 a6 98 bb cc 45 ea bc 1e 23 7f bd 44 b7 2e bd
       -0.00465852 -0.028597735 -0.06228935 -0.042655244
000080 40 44 af bc 82 ec 68 3d 5e 4b 1f bd 22 f4 01 3d
       -0.021394849 0.056866176 -0.038890235 0.031726964
000090 4a c2 34 3d 68 22 0e bd 20 af 3b 3b 36 3a 2e bd
       0.0441306 -0.03470078 0.0028638318 -0.042535983
0000a0 40 a8 e5 ba 0c aa 11 3d 70 46 59 3c 88 fa 0a 3d
       -0.0017521456 0.03556256 0.0132614225 0.03393033
0000b0 54 0c 16 bd e4 77 59 bd c4 fc ce 3c e6 3d 21 bd
       -0.03663285 -0.053092852 0.025267012 -0.03936567
0000c0 10 ab a3 bc fc 59 fd bc c0 3f 7f 3d 64 ff 84 3c
       -0.01997903 -0.030926697 0.062316656 0.016235061
0000d0 7c 6f 50 3d 12 59 5a 3d c0 16 79 bb dc 8f 53 3d
       0.05088757 0.0533076 -0.0038007945 0.051650867
0000e0 c2 ca 14 bd 88 2f 7e bd 00 15 b1 ba 52 ba 10 bd
       -0.036326177 -0.062057048 -0.0013510287 -0.03533394
0000f0 60 fd 5d 3b 8c ee 6f 3d 4e 00 17 bd fe 4e 42 3d
       0.0033872947 0.058577105 -0.036865525 0.047438614
000100 58 f2 b6 bc 90 5e d0 bc fe 39 6b bd b0 f0 2f bd
       -0.022332355 -0.025435716 -0.057428353 -0.042954147
000110 1a 05 5c 3d 98 49 e7 3c fe 67 00 3d 96 7a 61 3d
       0.053715803 0.028233334 0.031349175 0.055048548
000120 3c c6 a0 bc 4c 3a 3a 3d 60 cd 12 3c 60 ca 4a 3c
       -0.019625776 0.045465752 0.008960098 0.0123773515
000130 40 9e 79 3c c4 b9 a5 3c 78 f5 48 3c aa f0 25 3d
       0.015235484 0.020230182 0.012265556 0.04051272
000140 e0 d8 b1 3b 70 99 39 bc 60 14 9d bb 04 52 6d 3d
       0.005427465 -0.011328086 -0.0047936887 0.057939544
000150 70 3c e1 bc 40 2f 1d 3c 1e 66 38 bd ca ff 27 bd
       -0.02749464 0.009593785 -0.04501926 -0.041015424
000160 d0 06 88 3b f8 3f a4 3c b2 fc 73 3d e4 2c 31 3d
       0.0041512027 0.020050034 0.05956716 0.0432557
000170 aa 55 04 bd e8 ee e9 bc 46 15 4c bd 2c d7 f4 bc
       -0.032308258 -0.028556302 -0.049824975 -0.029887758
000180 28 e0 2d 3c 00 b6 1e ba aa 5c 37 3d 70 c1 32 3c
       0.010612525 -0.0006054342 0.044766106 0.010910377
000190 2c 0e 2c 3d 66 ac 46 bd c8 57 cb bc 50 8c 9c 3c
       0.042005703 -0.048504256 -0.02482213 0.019109875
0001a0 9e db 32 3d f0 e4 da bb c0 08 d0 bc 52 21 1e bd
       0.043666475 -0.0066801235 -0.025394797 -0.038605995
0001b0 ce 10 52 bd 90 35 bc bc 7c 23 61 3d ba c4 4c 3d
       -0.051285557 -0.02297476 0.05496548 0.0499923
0001c0 1e 06 06 bd ca 01 05 bd b8 a8 67 bd d0 b6 6a bc
       -0.032720678 -0.03247241 -0.056557387 -0.014325812
0001d0 52 07 1d bd f6 7e 0f 3d 14 2c a1 3c 52 a9 70 bd
       -0.03833706 0.03503319 0.019674338 -0.058755226
0001e0 30 ce c5 bb 24 f2 5c bd f8 44 0d 3d 86 f9 2f 3d
       -0.0060365424 -0.05394186 0.0344896 0.042962573
0001f0 40 0b dd 3a 24 66 e0 bc 88 cb 0d 3c e0 73 f6 bc
       0.0016864315 -0.027392454 0.008654483 -0.03008455
000200 1e 46 53 bd b0 1e 57 3c 40 d0 66 3b 3c 2e 51 3d
       -0.05158054 0.013129875 0.0035219342 0.051069483
000210 d8 fa 0b 3c e0 fd de bc 44 b0 ae 3c 60 a9 4e bd
       0.0085436925 -0.027220666 0.021324284 -0.050454497
000220 e0 b4 88 bb 5c 12 76 bd 90 19 2e 3c 58 e3 22 3d
       -0.0041719526 -0.060076103 0.010626212 0.039767593
000230 70 33 ed bc a8 71 8c bc 80 f2 b5 bc 00 d9 2c bb
       -0.028955191 -0.01714404 -0.02221036 -0.002637446
000240 08 04 fd bc 48 a9 82 bc 42 fe 51 bd cc 70 e1 3c
       -0.030885711 -0.01594986 -0.05126787 0.027519606
000250 ea 61 5d 3d 58 d6 52 3d 52 57 12 3d ec 74 d4 3c
       0.054048456 0.051473945 0.035727806 0.025934659
000260 4c a9 9b bc 34 30 f1 3c 00 13 af b9 dc d3 14 3d
       -0.019001625 0.02944193 -0.00033392757 0.036334857
000270 44 9c 9e bc 02 3f 10 bd 34 c8 84 3c 9e 44 67 3d
       -0.019361623 -0.03521634 0.016208746 0.056461923
000280 08 1e 16 3c 74 80 7c bd a8 1a 31 bd 10 a3 e0 3b
       0.009162433 -0.06164594 -0.043238312 0.006855376
000290 d0 75 2e bd d0 1a 98 3b ec da c9 bc ee 3a 66 3d
       -0.042592824 0.004641868 -0.024640523 0.056208543
0002a0 80 f1 4f bb c6 3c 56 bd d6 1f 72 bd d8 a7 ca bc
       -0.0031729639 -0.05230405 -0.059112392 -0.024738237
0002b0 20 8f d9 bc 38 68 cf 3c 18 fa f8 3c e0 d6 35 3c
       -0.026557505 0.02531825 0.030392691 0.0110985935
0002c0 90 58 4d 3d 90 b7 5f 3d d0 de fa bc 10 d6 64 bd
       0.050133288 0.05461842 -0.030623823 -0.05586821
0002d0 90 ec c5 bc b0 b2 d1 bc d6 ba 73 bd 5e b6 56 bd
       -0.024160653 -0.0255979 -0.059504353 -0.052420013
0002e0 1c ca a3 3c 46 cd 69 3d f4 ab 8b 3c 68 6d 2d 3c
       0.019993834 0.05708053 0.017049767 0.0105851665
0002f0 84 72 e6 bc 14 85 9c bc d0 b3 96 3c a8 eb 6d 3d
       -0.028130777 -0.019106425 0.018396288 0.058086067
000300 00 13 66 bc 0c a8 ee 3c 9a 03 6f 3d f4 07 b6 3c
       -0.014042616 0.029132865 0.058353044 0.02222059
000310 b8 0f f8 3c e8 ed 1e bc 9a 20 7d bd f2 ee 69 3d
       0.030280933 -0.009700276 -0.06179867 0.05711264
000320 5e 8b 15 3d ba 67 6b bd 74 71 92 3c 94 fc 30 bd
       0.036509864 -0.05747197 0.017876364 -0.043209627
000330 00 25 ba 3a 08 a1 74 3c cc 48 91 3c d4 90 7e bd
       0.0014201701 0.014930971 0.017734908 -0.062149838
000340 02 2e 0b bd 00 a7 46 ba d0 26 b6 bb c0 e4 03 3d
       -0.033979423 -0.00075779855 -0.005558826 0.032200575
000350 50 4e 48 3d 16 b1 4f 3d 82 f7 14 3d 24 c8 37 bd
       0.04890281 0.05070599 0.036368854 -0.044868603
000360 94 28 1c 3d 8c dd bc 3c 80 b5 4b bc ac 8d e2 bc
       0.038124636 0.02305486 -0.01243341 -0.027655445
000370 c8 80 4c bc 54 a9 3f bd 00 2d 8a 39 88 f5 f9 bc
       -0.012481876 -0.046792343 0.0002635494 -0.030512586
000380 24 46 73 3d ea f6 0b bd 68 af 27 3d ac ca 1f 3d
       0.059393063 -0.034171022 0.040938765 0.039011642
000390 5c cb 76 bd 2c f8 ca 3c a0 68 77 bb 6a 24 6a bd
       -0.060252532 0.02477654 -0.003775157 -0.057163633
0003a0 08 e2 d7 bc 28 a2 0c 3d 50 55 2f bd 50 77 6c 3d
       -0.026352897 0.03433433 -0.04280597 0.057730973
0003b0 40 9c 78 3b 20 f4 58 bd 68 e4 f9 bc 24 38 bc 3c
       0.003793493 -0.05296719 -0.03050442 0.022975989
0003c0 5e 4c 24 3d 00 cf 0e 3a 36 8a 33 3d 64 a8 c3 3c
       0.040111892 0.00054477155 0.04383298 0.023884006
0003d0 ac 1f 84 3c e8 0e 10 3d d2 a1 50 bd a6 84 22 3d
       0.016128384 0.035170466 -0.050935574 0.039677285
0003e0 40 dd 70 bc 60 79 21 bd 80 15 4e bb 48 52 3f bc
       -0.014701188 -0.039422393 -0.003144592 -0.011677332
0003f0 e4 e9 33 bd 7c e6 4f bd d8 2e 21 bd 00 1c 92 bb
       -0.043924227 -0.050756916 -0.039351314 -0.0044589043

fc3.bias f4 [256]
000000 00 60 a2 bb 64 42 22 bd 38 b5 52 bd 98 69 f9 3c
       -0.0049552917 -0.039614096 -0.051442355 0.030445859
000010 7e 19 2e bd ee 59 27 3d 44 75 a3 bc 7c 66 65 bd
       -0.04250478 0.040857248 -0.019953378 -0.05600594
000020 64 95 d4 3c 90 15 85 3c 0e f8 2c bd 88 8b 58 3c
       0.025950141 0.016245633 -0.04222875 0.013216861
000030 80 dc 16 bb b8 65 0f 3d b4 b0 c7 bc 6c e4 3b bd
       -0.0023019612 0.035009116 -0.02437625 -0.045872137
000040 e0 13 62 bb ec d6 d1 3c 00 57 97 bc bc 1b c4 3c
       -0.003449671 0.025615178 -0.018474102 0.023939006
000050 42 67 69 bd 40 ba 07 bb 60 48 48 bc 60 4e 6b bb
       -0.05698324 -0.002071038 -0.012224287 -0.003590487
000060 2a 70 4b 3d b0 5e 70 bc 68 a3 78 bc 54 1f 82 bc
       0.049667515 -0.014671013 -0.015175678 -0.015884079
000070 d8 c6 7b bc 60 0c ff bc 90 e0 c4 3c 50 bf c3 3b
       -0.015367232 -0.03113383 0.024032861 0.005973734
000080 88 de 77 3c 38 f8 92 bc d8 eb a9 3c 7a 66 18 bd
       0.015128739 -0.017940626 0.020742342 -0.037207104
000090 a0 f0 52 3b 08 29 19 3d 9c ee c7 3c 26 e0 5d 3d
       0.003218688 0.037392646 0.02440577 0.054168843
0000a0 20 d4 4c bc 5c fd 68 bd a2 c8 31 3d c8 4e ab 3c
       -0.012501746 -0.056882247 0.04340423 0.02091159
0000b0 ca cd 24 bd e2 84 77 bd b8 28 76 bd 48 7f 6f bd
       -0.04023532 -0.06042946 -0.060097426 -0.058470994
0000c0 9c 12 21 bd ac 07 d0 3c 2c 0d 62 bd d0 6d da bb
       -0.039324388 0.025394283 -0.055188343 -0.0066659227
0000d0 00 2f cc 3c c0 3f 01 3c 30 21 e1 3b 80 e1 03 ba
       0.024924755 0.007888734 0.0068704113 -0.00050308555
0000e0 f2 db 30 bd 12 50 0e 3d 80 24 b6 bb 90 5a 34 3d
       -0.043178506 0.03474433 -0.0055585504 0.04403168
0000f0 b8 e0 02 bc c0 3a e3 ba 50 72 ef 3c a8 b0 65 bc
       -0.007988147 -0.0017336234 0.029229313 -0.014019169
000100 58 79 3f bc 12 00 2c 3d 66 53 35 3d 1c 08 ac 3c
       -0.011686645 0.041992255 0.044268988 0.02099996
000110 60 e8 5d bb 56 e3 5c bd 88 c7 00 bd 16 82 71 bd
       -0.003386043 -0.053927742 -0.031440288 -0.05896195
000120 bc 3a 2d 3d 66 e5 41 3d b2 bb 19 bd d4 b3 20 bd
       0.04229234 0.047337912 -0.037532516 -0.039233997
000130 16 24 55 bd 9e a9 4e 3d c8 6b 8c 3c 8e 25 13 bd
       -0.052036367 0.05045473 0.017141238 -0.035924487
000140 58 d8 c0 bc 8e ed 3d bd 4e df 4c 3d 70 9a 53 3c
       -0.02354066 -0.046369128 0.050017647 0.012915239
000150 68 18 55 bd 16 a6 04 bd c0 2c d7 bb 44 68 18 bd
       -0.05202523 -0.032384954 -0.006566614 -0.03720881
000160 00 39 15 ba f8 54 16 3c 70 36 b5 3b 72 3c 52 3d
       -0.00056923926 0.009175532 0.005530171 0.051327176
000170 f2 50 0a bd 40 f4 80 bc 0c 2c a1 bc 80 39 31 bb
       -0.0337686 -0.015741467 -0.019674323 -0.002704233
000180 f2 c8 60 bd f6 e9 33 3d 1c f6 12 bd b0 68 34 3c
       -0.054879136 0.043924294 -0.03587924 0.011011288
000190 e4 70 32 3d 42 6a 54 bd 02 8e 24 bd 1a 54 22 bd
       0.043564692 -0.051859148 -0.04017449 -0.039630987
0001a0 42 27 65 3d 7e e3 34 bd 82 83 03 bd 50 ef 51 3c
       0.055945642 -0.044162266 -0.032107837 0.012813404
0001b0 be a9 18 3d e0 dc 85 3b 10 24 e0 bc 04 75 81 3c
       0.037271254 0.0040851682 -0.027360946 0.015802868
0001c0 98 f8 a2 3c 70 53 d8 bb 28 6a 5a 3c 0a 4f 4f 3d
       0.01989393 -0.0066017434 0.013330974 0.050612487
0001d0 38 2b 56 bd a6 bf 5a 3d a8 11 0e 3c b2 b4 5c 3d
       -0.05228731 0.053405426 0.008671202 0.053883262
0001e0 50 39 2c 3d 00 27 af bc b0 a4 2d 3d aa e3 2c 3d
       0.042046845 -0.021380901 0.042393386 0.042209305
0001f0 66 73 05 bd 26 c7 20 bd 70 36 bd bc 04 ea 74 bd
       -0.032580756 -0.039252423 -0.023097247 -0.059793487
000200 b4 29 6a bd 9e ab 01 3d e8 0b 0d 3d c0 68 38 bb
       -0.057168677 0.031657808 0.034435183 -0.0028138608
000210 66 35 4a bd f4 a8 e4 3c 58 06 a6 bc fa 95 64 bd
       -0.04936733 0.027912594 -0.020266697 -0.05580709
000220 54 8b 20 bd 4c 54 cd 3c 02 b2 27 bd 7a 81 27 bd
       -0.039195374 0.02506461 -0.040941246 -0.040894963
000230 14 25 c1 3c 8c c8 71 3d e8 32 f8 3c 62 46 20 bd
       0.02357725 0.059029147 0.030297711 -0.039129622
000240 08 94 ed 3c e0 cc 2b 3b 12 d6 48 3d e4 78 85 3c
       0.02900125 0.0026214644 0.04903228 0.016292997
000250 34 e0 37 bd 92 b2 16 3d a0 1c 68 bb 70 2b 23 bc
       -0.04489155 0.03679139 -0.0035417452 -0.009959087
000260 ea 03 55 bd 88 3f 8f 3c 70 b7 c6 bc 68 4e 4f bc
       -0.052005686 0.017486349 -0.024257392 -0.012652971
000270 c4 b1 9f 3c 6c fb b1 bc 42 d3 6d bd 96 06 45 3d
       0.019493945 -0.021726333 -0.0580628 0.048101984
000280 70 cb c9 3b 6e 46 52 bd 10 7d 76 3d cc f9 44 bd
       0.006158285 -0.0513367 0.060177863 -0.048089787
000290 96 00 19 3d b8 f3 09 3d a8 27 9e 3c f4 fb ab 3c
       0.037354074 0.033679694 0.019306019 0.020994164
0002a0 88 78 00 bd 12 a9 4f 3d 2c 58 23 bd 54 f9 aa 3c
       -0.031364948 0.050698347 -0.03987901 0.020870842
0002b0 50 bb a9 3b 40 60 8d 3b 70 e0 4a bc 94 be b8 bc
       0.0051798 0.0043144524 -0.012382612 -0.022551812
0002c0 b0 76 36 3c 38 26 f0 3c b8 06 01 bc b0 d2 00 3c
       0.011136696 0.0293151 -0.007875137 0.007862732
0002d0 00 d5 11 bd f4 ae 2d 3d a0 93 54 3d a0 25 7c 3d
       -0.035603523 0.042403176 0.0518986 0.06155932
0002e0 34 a1 f0 bc 32 26 60 bd 26 21 7a 3d 9e 3c 79 3d
       -0.029373743 -0.054723926 0.06106677 0.060848825
0002f0 5c 6b 2b bd 50 9f 0e 3c d0 64 3b 3c d0 0c 63 bc
       -0.041850433 0.008704975 0.01143761 -0.013858035
000300 d2 ce 0e 3d 6e 14 79 bd c8 0f 52 bc 60 3c fd 3c
       0.034865208 -0.0608105 -0.012821145 0.030912578
000310 fc 36 2a bd 88 90 19 bc 52 ab 39 3d e4 87 b3 bc
       -0.041556343 -0.009372838 0.0453294 -0.021915384
000320 9a e4 17 bd c0 b9 47 3d 3c 0d 9d 3c e8 95 26 3d
       -0.037083246 0.04876113 0.01917135 0.040670305
000330 00 bc 81 ba c2 c1 0f bd 14 65 b8 3c de 60 48 bd
       -0.0009897947 -0.03509689 0.022509135 -0.048920505
000340 c2 1a 2e 3d d0 ad 2d 3c e0 cc a9 bc d4 72 8d bc
       0.042505987 0.010600522 -0.020727575 -0.017266668
000350 ac c5 dc 3c d4 24 06 3d 50 98 c7 bc a4 1d 8d bc
       0.026949726 0.032749966 -0.02436462 -0.017226048
000360 40 cb 40 bd a8 2e a0 bc 84 49 b7 3c a0 d5 4f 3c
       -0.047068834 -0.019553497 0.022373922 0.0126852095
000370 40 7a c0 3b 50 80 8f bc 40 5a 75 bb d2 e0 40 3d
       0.0058739483 -0.017517239 -0.0037437826 0.047089405
000380 2c 78 d2 3c 00 cc 36 3d 06 e1 38 3d 80 92 e2 3b
       0.025692068 0.044628143 0.045136474 0.006914437
000390 62 89 33 3d a0 50 c0 bb 6c 9a 1e 3d 74 3c 75 3d
       0.04383219 -0.0058689862 0.038721487 0.059872106
0003a0 92 e6 15 3d 96 03 30 bd b2 25 64 bd ea 53 1d bd
       0.036596842 -0.04297217 -0.05570001 -0.038410105
0003b0 80 5f a6 bb 78 6e 42 bc 42 0a 68 3d ca 0e 35 bd
       -0.0050773025 -0.011867158 0.056650408 -0.044203557
0003c0 24 7a 32 bd 5a 6a 4b bd 10 ae 69 3d c0 41 2f 3b
       -0.043573514 -0.04966197 0.057050765 0.002674207
0003d0 00 77 19 3c fa 4b 1c bd 6c 64 8c bc 1c 84 9c bc
       0.009366751 -0.038158394 -0.017137729 -0.019105963
0003e0 96 af 2a 3d cc f3 61 3d 5c 90 ca 3c e0 71 23 3b
       0.041671358 0.055164143 0.024727039 0.00249397
0003f0 74 e6 5f bd 04 8d 58 bd 88 22 c6 3c 18 07 2e 3d
       -0.054663137 -0.052868858 0.024186388 0.042487234

output.weight f4 [4, 256]
000000 02 e7 50 bd 4c dd 8d 3c f0 8f 92 3b 9e 36 77 3d
       -0.051001556 0.017317437 0.004472725 0.06035482
000010 80 f8 9f ba b6 2a 76 3d b8 50 ea 3c 86 9f 6a 3d
       -0.0012204796 0.060099326 0.028602943 0.05728104
000020 d0 d6 94 bc 80 69 74 3d 40 5f 68 3c ec 47 8e 3c
       -0.018168837 0.059670925 0.014182866 0.01736828
000030 08 ee e0 3c be 11 08 3d 30 13 a0 3c 08 eb c1 bc
       0.027457252 0.033220045 0.0195404 -0.023671642
000040 b2 f9 40 bd 34 51 45 bd e2 8d 7a bd d0 28 70 3d
       -0.047113128 -0.048173144 -0.061170466 0.05863267
000050 e8 c2 15 bd c0 2f 65 bd 18 16 32 bd 14 bd a2 3c
       -0.03656283 -0.05595374 -0.0434781 0.01986555
000060 b4 3f dc bc c4 01 6e 3d 40 cb 15 3c 0a bf 09 bd
       -0.026885845 0.058107153 0.009142697 -0.033629455
000070 c8 73 1f bc 0e c0 54 bd 6e d1 0f bd d4 ab 29 bd
       -0.009732194 -0.05194097 -0.035111837 -0.041423634
000080 30 67 65 bc 44 b2 ee bc 1c ac 03 bd 02 f2 07 bd
       -0.014001653 -0.029137738 -0.03214656 -0.03318978
000090 38 c0 5f bd 20 4b 74 3d 62 5b 4e bd 00 50 8b 38
       -0.054626673 0.059641957 -0.05038012 6.642938e-05
0000a0 b8 63 1e bc fa 01 67 3d 44 93 04 3d 10 e7 9c 3b
       -0.0096673295 0.05639837 0.032367006 0.004788287
0000b0 32 03 31 bd 9e 5f 67 3d ac 3d 6a 3d 1c 45 d4 3c
       -0.043215938 0.056487672 0.05718772 0.02591186
0000c0 4c 46 cc bc c0 75 23 3d f6 06 49 3d 14 9e b6 bc
       -0.024935864 0.039907217 0.049078904 -0.022292174
0000d0 fe 16 1f bd cc 5d b2 bc 00 70 16 3d 48 11 fa 3c
       -0.038840286 -0.021773241 0.036727905 0.030525818
0000e0 50 e2 46 3c b8 3d 78 3d c8 2e 0f 3d cc f1 3e 3d
       0.012138918 0.060605735 0.034956723 0.046617314
0000f0 08 45 27 bc f4 f5 4f bd ac c7 21 3d 60 9e 7f bc
       -0.010209329 -0.05077167 0.039497063 -0.015601724
000100 0e d7 1d 3d 40 5d 88 bc c0 ff 41 3b fc a6 f8 3c
       0.03853517 -0.016646028 0.0029601902 0.030353062
000110 28 ed bf bc 90 bc b6 bb ba 14 4f bd f8 79 0c 3c
       -0.023428515 -0.0055766776 -0.050556876 0.0085740015
000120 30 68 21 bc 4c bb 96 3c ee de 7c bd e2 ad 59 3d
       -0.0098515 0.018399857 -0.06173604 0.053144343
000130 34 5f 08 bd 0c d5 42 bd f8 ff 3b 3c 1e 97 02 bd
       -0.033293918 -0.04756646 0.011474602 -0.031882398
000140 20 46 94 bc 08 f2 54 3c b0 fc bf 3b 00 2a 85 ba
       -0.018099844 0.012997158 0.00585898 -0.0010159612
000150 74 ab 9f bc e4 b3 63 3d 48 be f4 bc 78 75 b5 3c
       -0.019490935 0.05559148 -0.02987589 0.02215074
000160 04 ed c0 bc f8 98 2f bc a8 bc 4f 3c 0c c7 68 3d
       -0.023550518 -0.010717623 0.0126792565 0.05683045
000170 00 00 57 37 76 49 4e 3d ac a4 ce bc e0 09 62 bc
       1.2814999e-05 0.050363027 -0.025225006 -0.0137963
000180 04 96 16 bd ea 92 2b 3d a8 0c 7b bc 28 e0 1b bd
       -0.03676416 0.041888155 -0.015322842 -0.03805557
000190 44 25 28 bd 2c f7 3d 3d 56 90 30 bd 64 89 75 bd
       -0.041051164 0.0463783 -0.0431064 -0.05994548
0001a0 60 e5 2c bb 94 5a 84 3c 98 04 3a 3c 18 32 79 3c
       -0.0026381835 0.016156472 0.011353634 0.015209697
0001b0 3c f4 f2 bc 94 12 91 3c d8 60 22 bd 9c 05 af 3c
       -0.029657476 0.017709054 -0.03964314 0.02136498
0001c0 ac c9 c5 3c 7c e7 26 bd 02 02 51 bd 60 6e b5 3b
       0.024144016 -0.040748104 -0.051027305 0.0055368394
0001d0 00 3c 87 ba 6a c0 72 bd 80 76 6c 3b d8 e5 14 bc
       -0.0010317564 -0.05926553 0.0036081374 -0.009088002
0001e0 58 f6 13 bc 00 0e 22 3c 30 f6 68 bd ac 75 78 bd
       -0.009030901 0.009891033 -0.056875408 -0.060659096
0001f0 10 be 28 bc 60 6e f0 3b ae 53 10 3d 98 ef 71 bd
       -0.010299221 0.0073373765 0.035236053 -0.059066385
000200 50 95 0e bd 98 da e4 bc 20 08 dd bb 12 e9 29 bd
       -0.034810364 -0.027936265 -0.0067453533 -0.04148204
000210 60 1f a2 3c c8 fc 42 3c d2 46 7e 3d a0 bd 3a 3b
       0.019790351 0.011901088 0.06207926 0.0028494373
000220 84 cd 3f bd 86 45 67 bd 90 cd 56 bc be 75 42 bd
       -0.046826854 -0.056462787 -0.013110533 -0.04747557
000230 20 91 30 3d 5c 60 c7 3c 78 d6 57 3d b0 c4 2a 3c
       0.043107152 0.02433794 0.052694768 0.0104228705
000240 34 43 38 3d 90 bf 14 3c 00 bd 4b 3a be a8 3b bd
       0.044985965 0.009078875 0.00077719986 -0.045815222
000250 b8 b0 26 bc f8 61 cf 3c ec f8 80 3c c8 6f 62 bd
       -0.010173969 0.02531527 0.015743695 -0.055282384
000260 5e ef 53 3d 80 de f3 ba a8 ec f1 bc 30 bd 47 bd
       0.05174195 -0.0018605739 -0.029531792 -0.048764408
000270 e8 7b 52 bd f2 6f 62 bd c0 6e cb bc 5c fc 4b bd
       -0.051387697 -0.05528254 -0.024833083 -0.049801216
000280 d8 30 88 3c 44 23 cd bc 68 94 8c bc 3a 46 48 3d
       0.016624853 -0.02504123 -0.01716061 0.0488951
000290 e0 d0 7a bd 4c 76 f8 bc 80 ce f6 bc 60 28 b1 bc
       -0.061234355 -0.030329846 -0.030127764 -0.021625698
0002a0 fc 90 8d 3c bc 1d b8 bc 8c 15 60 bd 20 28 68 bb
       0.017281048 -0.022475116 -0.05470805 -0.0035424307
0002b0 ea cd 62 bd 16 bf 7a 3d ae a8 26 bd c0 52 bd ba
       -0.055372156 0.06121739 -0.04068821 -0.0014444217
0002c0 02 a1 40 bd b2 11 3f bd 10 d0 d5 bc 60 cd e7 bb
       -0.04702855 -0.046647735 -0.026100188 -0.007074043
0002d0 c0 d8 3c 3c 00 c6 50 3a 66 10 65 3d ca 27 3f 3d
       0.011526287 0.00079640746 0.055923842 0.046668805
0002e0 f8 5b 74 bd 3a dc 3d bd 4a 58 60 bd b2 fc 19 3d
       -0.05965802 -0.046352603 -0.0547717 0.037594505
0002f0 c0 b7 4a bc 28 2f c8 bc 78 fc 4e 3c c8 7b b3 bc
       -0.012372911 -0.024436548 0.012633435 -0.02190961
000300 da 0d 39 3d e6 08 5f 3d 74 b6 e1 bc 00 a0 7a 3a
       0.045179226 0.054451846 -0.02755282 0.0009560585
000310 f6 fa 06 3d 00 14 35 3a b0 d4 e5 3c c0 37 57 bc
       0.03295418 0.0006907582 0.028055519 -0.01313585
000320 ba d5 14 bd d4 7f 19 3d 90 1f f5 3b 76 0f 1f bd
       -0.036336638 0.037475422 0.007480569 -0.038833104
000330 d4 2f 1a 3d a4 4b ed bc 40 f5 e3 bc 68 3f b9 bc
       0.03764327 -0.028966732 -0.027826905 -0.022613242
000340 c0 70 ff bc ac 6e 08 3d e0 e7 ae bb 38 e5 1e bc
       -0.031181693 0.03330867 -0.0053377002 -0.009698205
000350 92 a2 44 3d 40 54 70 bb 00 5e 45 3d 9c a0 e1 3c
       0.0480066 -0.003667131 0.04818535 0.027542405
000360 bc d0 47 3d 8c 5b c0 bc da cb 0f bd 68 26 0b bc
       0.04878305 -0.023481153 -0.035106517 -0.0084930435
000370 8c ed a6 3c 52 33 4b bd e0 ad f2 3c ec 3d a6 bc
       0.020376943 -0.04960949 0.029623926 -0.020293199
000380 90 51 56 3c 52 6a 7a bd a6 53 61 bd fe 83 2a bd
       0.013080969 -0.06113655 -0.055011414 -0.041629784
000390 70 3a 04 3d b8 15 57 3c 00 47 34 3d c0 3e 79 3c
       0.032282293 0.013127737 0.044013023 0.015212715
0003a0 50 4a 81 bb 20 75 ce 3c 00 0e 91 3a d6 69 7d 3d
       -0.0039456263 0.025202334 0.0011066794 0.06186851
0003b0 50 ca 99 3c 36 64 42 bd 22 ae 6c bd 3c 21 52 bd
       0.018773228 -0.04745885 -0.057783253 -0.051301226
0003c0 40 fd 09 bd 30 88 c9 3b f0 b2 8a bc d0 18 f5 bb
       -0.033688784 0.006150268 -0.016931027 -0.0074797645
0003d0 38 a0 09 bd 68 96 fe 3c 58 a9 02 3c 9e af 2a 3d
       -0.033600062 0.031077579 0.007974945 0.041671388
0003e0 00 ad e3 bb c8 c5 26 3c 04 b3 6c 3d 68 be c9 3c
       -0.0069481134 0.010178991 0.05778791 0.024626926
0003f0 00 ae 76 bd 94 05 2e bd 48 ee 4f bd f6 8e 6d bd
       -0.060224533 -0.04248579 -0.050764352 -0.057997666

output.bias f4 [4]
000000 38 d3 23 bd 00 14 62 bd 42 1f 64 3d 24 0d fb bc
       -0.039996356 -0.055194855 0.055693872 -0.030645914
