fetch_sticky_mittens_step/networks/ours_10k_block_3_uber_level_0_seed_150/network_release_and_lift_2.pth (torch, 594807 bytes, 8 tensors)

fc1.weight f4 [256, 58]
000000 9b 6e 01 be ce a8 9f 3c 4e d8 b3 bd 1e 18 b6 bc
       -0.12639849 0.019489672 -0.08781491 -0.022228297
000010 71 53 15 3c 93 79 ee bd 39 72 d4 3d 23 d8 d2 bc
       0.009114132 -0.11644282 0.10373349 -0.025737828
000020 bf 6f 54 bd c1 7b ec bd 91 4b e5 bd 02 6f 71 3d
       -0.051864382 -0.11547042 -0.11196054 0.058943756
000030 63 fb b8 bd 70 4c e4 bd 59 f9 6c bd e7 99 02 be
       -0.09032323 -0.11147392 -0.057854984 -0.12754022
000040 dd 03 2b 3c 1a d7 e7 3c c5 2c 95 3d 3a 07 f1 bd
       0.010437933 0.02830081 0.0728393 -0.117689565
000050 16 ce b8 bd 97 ca 7d 3d 0e 21 44 3d b5 a5 ea 3d
       -0.09023683 0.061960783 0.047883086 0.11457387
000060 07 8b 05 be dd 64 5e bd a5 4e e5 bd d5 b4 52 3d
       -0.13041316 -0.05429541 -0.11196641 0.051441986
000070 1c 52 77 3d cc d0 10 3b d7 dc 12 3d d7 07 e0 3d
       0.06038104 0.002209711 0.03585514 0.10938995
000080 af 60 df bd ef 28 f5 3d 41 08 e6 3d 6c 24 4c bd
       -0.10907113 0.11970698 0.11232043 -0.049839422
000090 10 87 ac 3d 52 6b 9a bd 37 54 0a 3d c8 a6 e1 3d
       0.08424199 -0.07540001 0.03377172 0.11018139
0000a0 6a 2b a6 bc fd 03 c3 3c 4b 4e f3 3d f9 3b f0 bd
       -0.020284373 0.023805613 0.118801676 -0.11730189
0000b0 57 ba 09 3d e8 06 d0 3c 2f 8a 12 bd de a1 c9 3d
       0.033624973 0.025393918 -0.035776313 0.09845327
0000c0 ac 21 a2 bd 09 23 17 bd c3 21 75 bd f4 6a 94 bd
       -0.07916579 -0.036898647 -0.05984665 -0.07246962
0000d0 4d 15 fc 3d e4 b4 92 3d 1c 67 ae 3d 39 13 e9 ba
       0.1230875 0.071634084 0.0851576 -0.0017782218
0000e0 42 a7 ef bc 0d e2 99 3d c4 ab 05 be 71 f3 c4 bb
       -0.02925456 0.07513819 -0.13053805 -0.006010466
0000f0 c8 7a c6 3d b9 ed f9 bd 7c e7 80 3d 41 04 4c 3d
       0.096913874 -0.12203545 0.06294152 0.049808744
000100 a6 61 40 3d 9d 8e 31 bc 90 4e 78 3c c6 c0 d8 3d
       0.046968125 -0.010837224 0.0151554495 0.105836436
000110 b7 69 01 3d 42 b5 ba 3d 6a a0 65 3d 70 47 dd 3c
       0.03159496 0.091166034 0.056061186 0.027011603
000120 5a 1f df 39 89 75 4e bc 25 d6 1d bd 80 57 b0 3d
       0.00042557233 -0.012601265 -0.038534302 0.08610439
000130 cb e1 c5 3c dd 6c 82 bc 0c a5 d5 3d af fc b8 3d
       0.024155518 -0.01592105 0.10431871 0.090325706
000140 8c 37 e7 bd 2f 57 c5 3d fb 27 a7 bb 89 8b b5 3d
       -0.112898916 0.096357696 -0.0051012016 0.08864505
000150 a9 09 be 3d b3 0b ca bd a0 bf 1d 3c 23 56 c4 3b
       0.09279186 -0.09865513 0.0096282065 0.0059917136
000160 03 86 ff 3c e5 a0 28 3d 36 4d a5 3d 9a 56 bf bd
       0.031191831 0.041169066 0.080713674 -0.0934269
000170 cd ad b9 bd 36 fc ad bd cb 89 da 3d 5b f5 8c bd
       -0.09066353 -0.08495371 0.10670813 -0.06882735
000180 0f ca bc bc e9 81 94 3d e3 e2 ce bd 31 22 55 3d
       -0.023045568 0.07251341 -0.10101869 0.05203456
000190 74 4e a7 bb e9 e0 e2 3d 97 07 6f 3d 76 51 d5 3c
       -0.005105788 0.110780545 0.058356848 0.02603982
0001a0 fe e6 3f 3b 7b 0e 55 bd d0 44 f0 bd cf 1f ba 3d
       0.002928197 -0.052015763 -0.11731875 0.09088098
0001b0 52 a5 23 bd b6 a2 ce 3d d5 4c 7d 3d b3 06 ae ba
       -0.039952584 0.100896284 0.06184085 -0.0013277143
0001c0 b8 48 f8 3d 7e c0 95 3b eb 76 ad bd 0c 91 4b 3d
       0.12123245 0.004570066 -0.084699474 0.049698874
0001d0 87 f6 f4 3d dc f0 e5 bd 2d ff d3 3d 4a b5 d9 bd
       0.11961084 -0.11227581 0.10351405 -0.10630281
0001e0 1a 94 fb 3c bb e4 32 bc 24 e3 1f bd b7 3a 4a bd
       0.030710269 -0.010918791 -0.039034978 -0.0493724
0001f0 ea 58 b2 3d ef b8 85 bc 1f 83 6c bd d5 9e ea bd
       0.08708365 -0.016323535 -0.057742234 -0.11456076
000200 28 b4 2e bc 76 5b dd 3d b1 f9 94 bc 71 d4 72 3d
       -0.01066307 0.108084604 -0.018185468 0.05928463
000210 9a 7f 1a 39 be 3f 97 3c a2 de 82 bd 49 de 97 3d
       0.0001473412 0.018463012 -0.0639012 0.074154444
000220 48 bb 19 3d a1 fd 95 bd 93 a7 01 3c eb 27 88 bd
       0.03753212 -0.073237665 0.007913488 -0.06648239
000230 f1 10 ae 3c 9b 9a 66 bd 28 54 7b bb 6e 7d 1d 3d
       0.021248313 -0.056299787 -0.0038349722 0.038449697
000240 b5 2d d8 3d 8f 60 00 bd 63 0d cb 3d e5 06 05 3e
       0.10555593 -0.031342085 0.09914663 0.12990911
000250 a6 72 f9 3d f5 38 bd 3d a1 59 0c bd 1e c2 ce bc
       0.121800706 0.09239379 -0.034265164 -0.025239047
000260 fc a2 04 3e 66 81 b7 3d 16 cd 74 bc 2f 19 a2 3d
       0.12952799 0.08960228 -0.014941474 0.0791496
000270 9a dd 5c bb 00 7d c6 3c 1f ba 83 3a 6c 79 1e 3c
       -0.003370142 0.024229527 0.0010049975 0.009672504
000280 d8 78 ba bd 9b 2d a1 bb 51 ad af bd c7 ba f3 3d
       -0.0910508 -0.0049187667 -0.08577979 0.11900859
000290 06 5c 9a bd 0e 71 8d bd 66 e7 d0 3d a2 6a 81 3d
       -0.07537083 -0.06906329 0.10200386 0.06319167
0002a0 6d 9b 0d 3d 3e 5c ac 3d 8e b1 b2 3d 7f 0f e4 3d
       0.034572054 0.08416031 0.08725272 0.11135768
0002b0 48 26 9e bd 1a 8e f7 bc f4 f4 09 3d 8e ee 02 3e
       -0.07722145 -0.030219126 0.03368087 0.12786314
0002c0 82 38 80 38 57 03 cc 3d d0 cc f4 3d 71 19 04 be
       6.114041e-05 0.099615745 0.119531274 -0.1290033
0002d0 28 f6 0f 3d b6 0a 21 3d 37 ba 06 3d bb 31 81 3b
       0.035146862 0.039316855 0.032892432 0.003942696
0002e0 bd 16 fb 3c d3 b1 37 bb 5d b5 f2 3d bf 65 73 bd
       0.03065049 -0.0028029575 0.118509986 -0.059423205
0002f0 cb 6d a8 bd c2 41 04 3d e9 20 43 bb 1d ba af 3d
       -0.08224066 0.032289274 -0.0029774255 0.0858042
000300 90 81 8f 3d cb 7b 02 be ae a0 a9 3d ef 09 f6 3d
       0.07007134 -0.12742536 0.082826 0.120136134
000310 98 e1 51 3d 40 64 8b bd 28 ab 75 3d 05 7b f2 bc
       0.051240534 -0.068062305 0.05997768 -0.029599676
000320 7c b6 7c bd 17 4c ff bd 63 f5 48 bd e2 35 80 3a
       -0.06169747 -0.12465685 -0.049062144 0.0009781683
000330 86 2c 9f 3d 53 39 9b 3d 2a 0c 72 bd e9 8f fe b9
       0.07772164 0.07579293 -0.05909363 -0.00048553877
000340 54 60 6b bd 55 bd 8a bd d8 1b e2 3d 90 32 db 3c
       -0.057464913 -0.067743935 0.11040467 0.026757509
000350 fb bb 09 bc cc b5 fb bd 05 57 f5 bc 8f 29 9c bb
       -0.008406634 -0.122905344 -0.02994872 -0.0047656964
000360 50 14 29 bc 01 ea 27 3d 4e 12 07 3c d9 88 f8 bd
       -0.010319784 0.040994648 0.00824411 -0.121354766
000370 1a 2c 98 3d 02 25 c1 3d 85 79 bc bd f1 0c 48 3d
       0.07430287 0.09430887 -0.092028655 0.048840467
000380 4c 55 d9 bd 45 13 44 3d 05 13 05 3e 05 42 d9 3d
       -0.10611972 0.04786994 0.12995537 0.10608295
000390 15 c8 cb 3d 05 da ef bd e1 56 99 bc 5e 9f bd 3c
       0.09950272 -0.11711506 -0.018718185 0.023147281
0003a0 9c 80 d9 bd c4 7d 79 3d 8f 8c 46 3d 12 3c 58 3d
       -0.106202334 0.060910955 0.04847389 0.052791663
0003b0 b0 03 b8 bd 75 be 27 ba bf 03 8a 3d a3 8a 0d bd
       -0.08985078 -0.0006398925 0.06738996 -0.034556042
0003c0 2a 2d a3 3d 32 81 a6 3d 50 84 f5 bd e3 e3 8f 3d
       0.07967599 0.08130111 -0.11988127 0.07025888
0003d0 93 df 97 3d ff f6 66 3d 6e f9 9f bb d1 05 86 bc
       0.0741569 0.056387898 -0.0048820293 -0.016360195
0003e0 b3 b3 bf bd a2 e6 c2 bd d6 c8 7c 3d 02 a6 b7 3c
       -0.09360447 -0.09516646 0.06171497 0.022418026
0003f0 80 90 ff 3d 66 ef 63 bd ea 99 98 3d 5b e6 32 3d
       0.12478733 -0.05564823 0.07451232 0.043676715

fc1.bias f4 [256]
000000 49 d2 01 3d 5f 6b 45 3d 5a a9 3a bd 46 a9 fb 3c
       0.031694684 0.0481981 -0.045571662 0.030720364
000010 d8 db b7 3d 2a 67 f1 3d 4d 9d ec bc 0f bf ce 3d
       0.08977479 0.11787255 -0.0288836 0.10095035
000020 41 61 9a 3d f9 8a 07 3c 0a ee 9f bc ad 2c dc bd
       0.07538081 0.00827288 -0.019522686 -0.10750709
000030 60 bc b4 3d cf ea 56 bd 7a b2 44 bd ce 01 c4 3c
       0.08824992 -0.052470025 -0.04802177 0.023926642
000040 c4 40 fe bc 1a e0 46 bd 83 0f a4 3c c1 8e f9 bc
       -0.031036742 -0.048553564 0.020026928 -0.030463578
000050 bd 26 8b bd f3 56 17 bd 36 f4 b0 bd 71 a4 de bd
       -0.06794498 -0.036948156 -0.086403295 -0.108712085
000060 0b 12 99 b8 29 f6 51 bc 4b 32 f2 bd d4 a6 67 bd
       -7.298969e-05 -0.012815037 -0.11825999 -0.056555584
000070 18 85 f0 bd 64 1e a9 3c b6 d0 fd 3d 92 2b 51 3d
       -0.117441356 0.020644374 0.12393324 0.051066943
000080 4e ba 1e 3d 16 3c b1 bd 6b bf 99 3d a3 89 5a 3d
       0.038751893 -0.086540386 0.07507213 0.053353917
000090 57 53 84 3d 45 d1 75 3d 6f 36 7a bd 7b 99 13 3d
       0.06461208 0.060014028 -0.06108707 0.036035042
0000a0 42 85 e6 bd eb 1f d0 bd 35 8b bb 3d 9b 9b 79 3d
       -0.11255886 -0.10162338 0.09157411 0.060939413
0000b0 23 90 01 3e d7 eb c4 3d 75 50 b9 3d 4c 26 36 3d
       0.1265264 0.096152954 0.09048549 0.044470116
0000c0 5c 4c 5d 3c 89 2a c8 3c ef 2f d2 3d 67 5b fb 3d
       0.013506975 0.024434345 0.10263049 0.12273293
0000d0 e0 64 f9 3d 41 b3 fb bd 14 fa 7a 3c ae 2a 0f 3d
       0.121774435 -0.12290049 0.015318412 0.034952812
0000e0 37 48 e3 3c 55 a6 f5 3c f9 8d f5 3d fb c5 86 3d
       0.027744396 0.02998654 0.1198997 0.065807305
0000f0 bc ec 05 3e 47 c6 5d bd 2b 95 b2 3d e3 e7 88 bd
       0.13078588 -0.05414417 0.08719858 -0.06684854
000100 42 a6 98 bd 86 9e e3 3d 1b b5 b9 bd 0b ed a5 3c
       -0.07453586 0.1111422 -0.09067746 0.020254632
000110 f3 89 c1 bd e2 8e 22 bc cf df 86 3d 36 4a fe 3d
       -0.0945014 -0.009921761 0.06585657 0.12416498
000120 99 21 4e bd 0a e9 a8 3d d4 53 80 3d b6 1f 8d bd
       -0.05032501 0.08247574 0.06265989 -0.06890814
000130 54 e9 ff 3d 93 03 80 3d 5d fa ad 3d ce 76 fb bd
       0.12495676 0.06250682 0.08495019 -0.122785196
000140 4d ba e4 bd cd 78 93 bd 27 8b 03 3e 14 4c e9 3c
       -0.111683466 -0.07200775 0.12846051 0.02847866
000150 71 c7 ec bd ea b0 ad 3d 37 b2 a1 bd 23 9a b4 3d
       -0.11561478 0.08481009 -0.0789532 0.08818462
000160 3b d1 97 3c 91 71 cc bb 33 c1 ff 3b 78 05 bd 3d
       0.018532386 -0.006239124 0.0078050136 0.09229559
000170 d3 23 da 3d f0 47 93 3d 24 80 05 be 72 3c 81 bd
       0.10651364 0.07191455 -0.13037163 -0.06310357
000180 a2 0a 32 3d 72 b7 5a 3d d3 c5 d6 bd 61 6a 55 3d
       0.04346717 0.053397603 -0.10486951 0.052103404
000190 a2 0b d9 3b 00 d5 7b 3d f4 4c bf 3d 65 17 90 3d
       0.006623701 0.06148243 0.093408495 0.07035712
0001a0 a9 49 27 bc 05 a9 e2 bd e5 39 94 bd 33 40 bf 3d
       -0.010210433 -0.11067394 -0.07237605 0.09338417
0001b0 b0 d5 c2 bd 5d b4 8f bd ec 0c a8 3d a7 b9 e4 3d
       -0.09513414 -0.070168234 0.0820559 0.11168223
0001c0 f8 2d 64 3c d4 db 05 3a 4f 93 27 3d 3e d3 ee 3d
       0.013926975 0.00051063043 0.04091197 0.11661385
0001d0 6e d1 bc bd 68 cd 46 3d 0f 11 41 3d f8 d8 02 3e
       -0.09219633 0.048535734 0.04713541 0.1277808
0001e0 05 7c 02 be f6 c0 d2 3c ed ba bc bc f2 17 c8 bd
       -0.12742622 0.025726777 -0.023038352 -0.09770192
0001f0 1b f3 02 be 1a cf f1 3d 1e 00 87 bd 92 eb 8f 3d
       -0.1278805 0.118070796 -0.06591819 0.07027353
000200 e9 c0 e8 3d fe bf 2b 3d 2c 9c c3 bc 30 e1 32 3c
       0.1136492 0.041931145 -0.02387818 0.010917947
000210 15 0a a3 bd 1c db 01 3e 0d 24 36 bd d3 a8 28 3d
       -0.07960907 0.1268124 -0.044467974 0.04117663
000220 bb e8 e2 bd 1d 0f b1 bc 41 04 5f 3d 5c e4 af 3d
       -0.11079546 -0.021613652 0.054447416 0.08588478
000230 8f bb 03 3e b6 6d ca 3d f8 94 ee 3d a7 94 ce bd
       0.12864517 0.09884207 0.11649507 -0.10086947
000240 d2 d0 bc 3d f8 3e bb 3d b1 45 9c 3c b8 da 50 bd
       0.09219517 0.0914287 0.0190762 -0.050989836
000250 cf d0 bb bd 84 60 18 bd 0d 7b fd bc 84 45 70 bc
       -0.091706865 -0.03720142 -0.030942464 -0.014665011
000260 14 90 8d bd cf 37 1a bd cc f3 83 3d 04 f0 10 3d
       -0.06912246 -0.03765088 0.06442985 0.035385147
000270 17 c9 05 be dc bf 72 3d 3c 06 32 bd 65 e3 ce bd
       -0.13064991 0.059265003 -0.043462977 -0.10101966
000280 3f 6d ea 3d 2d 69 39 bb f7 98 00 3e bb 6e d4 3d
       0.11446618 -0.002829145 0.12558351 0.10372683
000290 56 83 1d 3d af ed 54 bd 8d 57 04 3e 40 b2 b8 3d
       0.03845533 -0.051984485 0.12924023 0.090183735
0002a0 c1 b0 08 bd 9c 5d 24 3d 28 25 9d bd 29 ff c3 bd
       -0.03337169 0.040128335 -0.076731026 -0.09570152
0002b0 cd 00 f0 bd e4 6f ae bd bb db 2c bd 21 5d e1 3c
       -0.11718903 -0.08517435 -0.04220174 0.027510228
0002c0 9e 5e 32 3d dc 0d 9e bd fd 93 d3 bd eb c7 e7 3d
       0.043547265 -0.07717487 -0.10330961 0.11317428
0002d0 ab 0e 29 bc 76 2b 14 3d 83 a7 9e 3d d0 65 c3 bc
       -0.0103184385 0.03617426 0.07746794 -0.023852259
0002e0 cf d6 83 bd 0d 30 96 bd ba 26 a2 3d b9 8b 14 bd
       -0.06437456 -0.07333384 0.07917543 -0.036266062
0002f0 61 89 f8 bd 0b 8b 2b 3d a8 f1 c6 3d cc 28 d1 bd
       -0.12135578 0.04188065 0.09714061 -0.102128595
000300 19 38 9e 3b ac 0d eb 3d 69 90 0e 3d 36 71 e5 3c
       0.0048284647 0.11477217 0.03480569 0.028008085
000310 9b 89 9e 3c 5c 79 83 3d 2a 76 03 be 5f 18 09 3b
       0.019352725 0.06419632 -0.12838045 0.0020919067
000320 a9 e9 61 3a 85 c4 d5 3d 94 c0 e4 bd f9 4c 32 bd
       0.0008617887 0.10437874 -0.11169544 -0.043530438
000330 2e 6a d5 3d 12 fb 63 bd fb 09 9b 3d 83 a5 84 bd
       0.10420643 -0.05565936 0.07570263 -0.06476881
000340 85 78 86 3d aa 48 07 3d 65 58 91 3d 87 d0 c6 3d
       0.06565956 0.033028282 0.07096938 0.09707742
000350 ea 11 ab bd 5a 8c 4d bd 5e 5a 46 3d 90 22 bc bd
       -0.08353026 -0.050182678 0.048426025 -0.0918628
000360 62 f9 01 3e 51 28 b2 bd 81 d3 ae bd 0d ae 8c 3d
       0.12692788 -0.08699096 -0.08536435 0.06869135
000370 ae 2f af 3d 1d 9f 5f bc 63 f9 de bd 24 99 9a bc
       0.08554016 -0.013648775 -0.108874105 -0.018871851
000380 ca 96 13 3d cd a0 af 3d 50 ad 41 b8 4e dd 9f 3d
       0.036032476 0.08575592 -4.6176196e-05 0.078058824
000390 32 ee 80 bd cd 94 a3 3d 77 13 58 3d c0 cd 03 3d
       -0.06295432 0.07987366 0.052752938 0.03217864
0003a0 34 2e 7e 3d 6a 7f a2 bd de a2 62 3c 8e 95 cb 3d
       0.06205578 -0.079344586 0.013832776 0.09940635
0003b0 8e 45 77 bd 81 48 c8 3c 88 b9 c1 3d 6d 12 47 3d
       -0.060369067 0.024448635 0.094592154 0.048601557
0003c0 83 55 ca 3d 6d b1 3b bc e2 b0 81 3d b4 48 03 be
       0.09879591 -0.011455876 0.06332566 -0.12820703
0003d0 4e c1 9a 3d b1 5c f0 3c 09 8b 45 3c d4 34 9a bd
       0.07556401 0.029341074 0.012057074 -0.075296074
0003e0 99 b9 b1 bd 69 db 4f 3c fa 33 29 3d 5f 2c 05 bd
       -0.08677978 0.012686589 0.041309334 -0.03251302
0003f0 88 e6 ca bd a9 fb d9 ba 37 49 c6 3d 7f 85 ff 3d
       -0.099072516 -0.0016630787 0.096819334 0.12476634

fc2.weight f4 [256, 256]
000000 f0 61 8d bc 90 b0 e0 3c fa 5f 4c bd de bb 38 bd
       -0.017258614 0.027427942 -0.049896218 -0.04510104
000010 0c c4 4d 3d d2 3c 27 3d 0e ce 4e bd 84 96 5f bd
       0.050235793 0.040829487 -0.050489478 -0.054586902
000020 78 5b 71 bd a4 3e fa bc e6 2b 49 3d 62 25 72 3d
       -0.058925122 -0.030547448 0.04911413 0.059117682
000030 00 6c 2a bd 80 ce 92 bb 60 a0 a6 bb f0 7a f6 bc
       -0.041606903 -0.004480183 -0.005085036 -0.030087918
000040 92 ca 5a bd 84 07 e4 3c 9c 4b 6f 3d 28 42 de bc
       -0.053415842 0.027835615 0.058421716 -0.027131155
000050 9c af 0d 3d a8 2c f8 3c c0 0e 0c 3d e4 f3 34 bd
       0.034591302 0.030294731 0.034193754 -0.044177905
000060 de ba 57 bd d8 d7 07 3c 60 13 4d 3c 48 b3 54 bc
       -0.052668445 0.008291207 0.012516826 -0.012982197
000070 a0 e0 62 bb 00 92 79 b9 10 a6 25 3d 08 fd 54 bc
       -0.003461875 -0.0002380088 0.040441573 -0.0129997805
000080 ac d2 32 bd 00 d9 97 3c a8 23 90 bc d8 90 11 bd
       -0.043657944 0.01853609 -0.017595127 -0.035538524
000090 90 1e 3c 3d 48 92 25 bc 04 dd f1 3c 08 9b 80 3c
       0.045927584 -0.010105677 0.029524334 0.015698925
0000a0 00 c6 c4 3b 80 21 be 3a 54 32 6f 3d 90 54 61 bc
       0.0060050488 0.0014505833 0.058397606 -0.013753071
0000b0 b6 92 41 3d b8 05 87 bc 30 56 61 3d a0 0f b5 bc
       0.047259055 -0.01648222 0.055013835 -0.022102177
0000c0 18 f5 47 bd 68 d9 20 3c 3c 45 da 3c ae 64 18 3d
       -0.048817724 0.009817459 0.026644342 0.03720539
0000d0 78 4b 60 3c c8 9b 7f bc 88 80 0f 3c 48 2e 2b bd
       0.013689868 -0.015601106 0.008758672 -0.041792184
0000e0 90 8c 47 bd 20 43 8a 3c 98 68 4a bd 44 43 2a 3d
       -0.048718035 0.01687771 -0.049416155 0.041568056
0000f0 b0 0e 72 bd 04 d7 a5 bc e8 9f 59 bc 10 ce 6f bc
       -0.05909604 -0.020244129 -0.0132827535 -0.0146365315
000100 98 b1 59 3c 88 88 23 3c 90 f3 79 bd e0 71 75 3b
       0.013286971 0.009981282 -0.061023295 0.0037451908
000110 40 7f 74 3c cc c0 81 bc 42 89 12 bd 1e b7 4c bd
       0.014922917 -0.015839003 -0.03577543 -0.04997932
000120 90 f4 55 3d 4c 13 62 3d 74 f8 01 bd b0 c6 a2 3b
       0.052235186 0.055194184 -0.031731084 0.004967533
000130 0c 76 77 3d fe 44 49 bd 54 4d 02 3d 4c 4d 0f 3d
       0.060415313 -0.04913806 0.031812027 0.034985825
000140 d2 64 0f 3d 5a ec 0b 3d 0c 36 75 3d 10 ae f5 3b
       0.03500826 0.03416095 0.059865996 0.0074975565
000150 a0 d5 a6 bc f6 a4 35 3d c0 45 61 3d e8 8d 70 bc
       -0.020365536 0.044346772 0.05499816 -0.014682271
000160 24 aa da 3c 88 a8 9e 3c d0 fb fd bc c8 7d 4c 3c
       0.026692457 0.019367471 -0.031003863 0.01248116
000170 bc ef 13 3d 92 3b 30 3d c2 5d 1d bd 14 48 16 3d
       0.0361173 0.04302556 -0.038419493 0.036689833
000180 e4 e5 d1 bc 46 17 24 3d 3e 56 44 3d 96 99 37 bd
       -0.025622316 0.040061258 0.04793381 -0.044824205
000190 a8 f2 25 bd 4a 37 7e bd 52 3b 52 3d 58 47 0a 3c
       -0.04051462 -0.062064447 0.051326104 0.008439861
0001a0 52 c9 3e bd b8 a0 72 3d 6a ec 47 3d 08 d5 a9 bc
       -0.046578713 0.059235305 0.048809446 -0.020731464
0001b0 34 27 e9 bc c4 35 57 3d 84 19 10 bd 40 6d 34 3b
       -0.028461076 0.05254151 -0.035180584 0.0027530938
0001c0 9c 4b e6 bc c4 9f 5f 3d c8 86 e1 bc 64 91 85 bc
       -0.028112225 0.054595724 -0.027530089 -0.01630468
0001d0 4c 5f 7a bd 2a b1 16 bd aa 4c 15 3d f0 f4 5f bc
       -0.06112604 -0.03679005 0.036450066 -0.0136692375
0001e0 8c ad 6e bd 00 bb 6f bd 38 17 68 bd 88 c6 66 bc
       -0.058270976 -0.058527946 -0.056662768 -0.0140854195
0001f0 a0 b9 74 3d 68 3f 49 3c 80 04 5f ba 90 d5 1d 3c
       0.05974734 0.012283184 -0.00085074455 0.009633437
000200 00 3a 76 b9 74 33 47 3d 4c aa c4 3c 60 0e 01 bb
       -0.00023481995 0.048633054 0.024006985 -0.0019692406
000210 c0 44 fe ba 5c 21 5d bd 86 15 77 bd 24 58 62 bd
       -0.0019399151 -0.053986892 -0.06032326 -0.05525984
000220 ce 4c 1c 3d 04 c4 53 3d 88 89 12 3c 90 14 84 3b
       0.038159184 0.051700607 0.008943923 0.0040307716
000230 d4 2b c2 3c 72 5a 0f bd e4 36 56 bd 8a f9 5f bd
       0.02370254 -0.034998365 -0.05229844 -0.05468134
000240 ae d9 1d 3d 7c ac 1e bd 00 30 81 ba 92 22 54 3d
       0.038537674 -0.038738713 -0.0009856224 0.05179078
000250 20 1b a1 bb 4a 36 00 3d 42 06 2c bd c2 82 7d bd
       -0.0049165636 0.031301774 -0.041998155 -0.06189228
000260 6c 3b fe 3c 88 e5 3f 3d 6e 72 1e bd d0 a5 31 3c
       0.031034194 0.046849757 -0.038683347 0.010842755
000270 c8 bf d6 bc 00 6a 72 3b fa e7 1d bd ec e1 7c 3d
       -0.026214495 0.003698945 -0.03855131 0.061738893
000280 a0 57 09 3b a0 94 26 bd bc e1 e2 3c c6 8d 4e bd
       0.002095677 -0.040669084 0.02769553 -0.050428174
000290 36 d0 7a bd 92 a0 2a bd 80 f4 8d ba 80 54 83 3b
       -0.06123372 -0.041657038 -0.0010830313 0.004007876
0002a0 e2 cc 6b 3d c6 1f 71 3d 40 18 2a bb 34 53 29 3d
       0.05756844 0.058868192 -0.0025954396 0.041339114
0002b0 50 bc f1 bc e0 ae f6 bb a2 79 54 bd 8e 7a 0a bd
       -0.02950874 -0.007528171 -0.05187381 -0.033808284
0002c0 d0 63 ba 3c c4 e9 c7 bc 40 76 12 3c 1c 5e b3 3c
       0.022752672 -0.02440346 0.008939326 0.02189546
0002d0 7e 23 73 bd 9c 2d f8 bc e2 da 42 bd 34 5a 6e bd
       -0.05936002 -0.030295186 -0.047572024 -0.058191493
0002e0 76 d6 2b 3d 66 e0 04 bd 70 2f 4a bd 8a 96 5e bd
       0.041952573 -0.032440566 -0.049361646 -0.054342784
0002f0 42 a4 45 bd 8c dd 47 3d a0 5f ce bb 56 0b 16 3d
       -0.04825235 0.048795268 -0.0062980205 0.036631905
000300 60 06 1a bc dc 12 8e 3c 0e 13 79 bd 40 5e c3 3a
       -0.009400934 0.017342977 -0.060809188 0.0014905408
000310 c8 61 64 3d d6 f2 54 3d 80 ed 41 3a 06 d0 06 bd
       0.055757314 0.0519894 0.0007397756 -0.03291323
000320 74 2f 74 bd c8 62 e0 bc 18 06 b4 3c 9e 54 5d 3d
       -0.059615567 -0.027390853 0.021975562 0.054035775
000330 22 1c 5e 3d 00 e7 9e bc 20 f4 e3 3b a0 b0 2f 3b
       0.05422605 -0.019397259 0.006956592 0.0026808158
000340 f0 3b cc bb 10 28 6d 3d 08 48 65 bc 20 d3 76 bb
       -0.006232731 0.057899535 -0.013994224 -0.0037662461
000350 e0 66 a3 bc 10 e5 27 3d 60 6b 61 bc 90 66 f3 bc
       -0.019946516 0.040989935 -0.01375851 -0.029711992
000360 a0 e5 4e bc 6c fe 1f 3d da cf 45 bd 58 90 69 bd
       -0.012627989 0.039060995 -0.048293926 -0.057022423
000370 26 78 21 bd 60 61 d8 3b 02 e0 7f 3d 04 46 bc bc
       -0.039421223 0.006603405 0.06246949 -0.022982605
000380 a4 dd 63 bd 62 e9 2b bd e8 16 e5 bc 30 dc e6 3b
       -0.055631295 -0.041970618 -0.027965024 0.0070452914
000390 d2 b8 0b 3d ce 66 09 3d 74 7d e1 bc 1a 30 27 3d
       0.034111805 0.033545308 -0.027525641 0.040817358
0003a0 a6 1e 7c 3d b8 1a 1f bd 94 c7 e3 bc 00 7a 4c b9
       0.061552666 -0.03884384 -0.027805127 -0.00019500405
0003b0 f6 d2 61 3d e0 02 d1 bc 00 08 40 bc 1c 23 1e bd
       0.05513283 -0.025514066 -0.011720657 -0.0386077
0003c0 e8 c8 04 3d 0e 44 47 bd f6 3b 13 3d f2 2a 3d 3d
       0.03241816 -0.048648886 0.035945855 0.046183534
0003d0 d8 38 8b bc 9a e6 20 bd 5a f3 52 3d f0 50 98 bb
       -0.016994879 -0.03928242 0.05150161 -0.0046483204
0003e0 96 d1 17 3d 3a 2c 4d bd f0 fe fc 3b c0 35 d0 3a
       0.03706511 -0.050091006 0.0077208206 0.0015885159
0003f0 e4 a0 cd bc a4 ee af 3c 24 08 cf bc b2 1f 6f bd
       -0.025101133 0.021476097 -0.025272436 -0.058379836

fc2.bias f4 [256]
000000 60 75 7a 3d c2 5d 3c 3d 2a db 52 3d 5e f0 30 bd
       0.061147094 0.045987852 0.051478542 -0.043197982
000010 88 96 d7 bc c2 ab 73 3d e8 8e 5a 3d 8c 28 90 3c
       -0.026316896 0.059489973 0.053358942 0.01759746
000020 0c 3b ee 3c fe 66 40 bd 78 6b 72 bd 4c 15 83 3c
       0.02908089 -0.04697322 -0.05918452 0.016001366
000030 6e b2 57 bd 74 d7 89 3c dc 05 9a 3c 80 71 b4 3b
       -0.0526604 0.016826369 0.018801622 0.0055066943
000040 2c 97 9d 3c 7c df 6a bd e8 e1 6e bd 20 35 7b 3d
       0.019237123 -0.057342038 -0.05832091 0.06132996
000050 f8 7d d1 bc 28 b6 e5 bc f6 c9 49 3d ce dd 44 bd
       -0.025572762 -0.02804096 0.04926487 -0.048063092
000060 d4 f2 dc bc 98 c8 24 bc 10 50 ee 3b 20 f7 e7 3c
       -0.026971258 -0.010057591 0.007272728 0.02831608
000070 76 43 5c 3d 38 32 fe bc e2 3a 51 bd 18 71 46 3c
       0.053775273 -0.031029806 -0.051081546 0.012111925
000080 64 b4 5c bd 8c cf 62 bd 60 2c bc 3c 36 d2 5c bd
       -0.05388297 -0.055373713 0.022970378 -0.05391141
000090 9c 25 cb 3c f8 69 8c 3c 80 f8 76 bd 72 fa 1a bd
       0.024798207 0.017140374 -0.06029558 -0.0378365
0000a0 e8 e5 2d bd e8 ea 1c bc 0a 55 7c 3d 8c 0b 58 3d
       -0.042455584 -0.00957749 0.061604537 0.052745387
0000b0 10 f0 b9 bb 7c 3a a9 3c b8 92 00 bd e0 06 27 bc
       -0.0056743696 0.02065777 -0.031389922 -0.01019451
0000c0 9c ec 51 3d c0 b6 14 bb d4 00 0e bd 00 cd 54 bd
       0.05125104 -0.0022691935 -0.03466876 -0.051953316
0000d0 da a9 5c 3d b0 19 fd 3c a8 71 77 3d 14 0d 1f 3d
       0.05387292 0.030896038 0.060411125 0.03883083
0000e0 4c 3e 1c bd b8 01 3b bd 34 cb 17 bd 40 1b 11 3c
       -0.03814535 -0.045655936 -0.037059024 0.008856595
0000f0 82 f1 69 bd 08 de 3f bd 86 7b 49 bd 96 3f 68 bd
       -0.057115085 -0.046842605 -0.049190067 -0.056701265
000100 6c 2d 59 3d 64 a5 6e bd 30 3f b3 3b 40 24 77 bc
       0.053021833 -0.058263198 0.005470179 -0.015084326
000110 a6 a9 72 3d ce 38 03 3d 30 f6 14 3c 70 e1 83 3c
       0.05924382 0.032036595 0.009091899 0.016098708
000120 dc 47 e2 bc 3c 65 9f bc 00 cc 13 3a 14 3a 09 bd
       -0.027622156 -0.019457452 0.00056380033 -0.033502653
000130 c8 79 14 3c c6 ce 7d 3d e0 ce 68 bb f4 54 2c bd
       0.009062238 0.061964773 -0.0035523698 -0.042073205
000140 ec d0 6a bd c2 95 1a 3d 60 d7 43 bd 78 f7 b0 bc
       -0.05732815 0.037740476 -0.04781282 -0.021602377
000150 2e c0 0d bd c0 8a d5 bc 6c 9d 1e bd a0 20 a0 bc
       -0.034607105 -0.026067138 -0.038724348 -0.019546807
000160 c8 d2 48 bc 00 6d 5c ba 6c 57 8e bc 30 44 ef bc
       -0.012257285 -0.0008408576 -0.01737567 -0.029207319
000170 d0 2f 02 3d b4 d9 42 3d 2c 20 0d 3d 22 32 6b bd
       0.03178388 0.0475709 0.03445451 -0.057420857
000180 10 56 00 bd 98 57 17 3d e0 50 9d bc cc 95 3c bd
       -0.031332076 0.03694877 -0.019203603 -0.046041295
000190 9a 84 57 bd 96 7d 41 bd 8c d8 c6 bc dc ed f2 bc
       -0.052616693 -0.04723891 -0.02427318 -0.029654436
0001a0 b8 22 0a 3d 12 8b 40 3d d4 7a 7f 3d b8 a0 7e 3c
       0.033724517 0.047007628 0.062372997 0.015541248
0001b0 c4 b6 66 bd f0 41 78 3d 04 f2 51 bd 66 62 6c 3d
       -0.056326643 0.060609758 -0.051256195 0.057711028
0001c0 80 63 6b bc 40 7b 96 3a e0 22 22 bd fc 6a 68 bd
       -0.014366984 0.0011480823 -0.03958404 -0.056742653
0001d0 d8 65 cc 3c 02 21 65 bd b8 86 d6 bc 26 f0 44 3d
       0.024950907 -0.05593968 -0.026187286 0.048080586
0001e0 34 b9 92 3c bc 1f 61 3d e6 0a 06 bd 50 d6 5f bd
       0.017910577 0.054961905 -0.032725237 -0.054647744
0001f0 40 7d 39 bc f0 28 3e bd c6 d6 1a 3d b0 61 00 3d
       -0.011321366 -0.04642576 0.03780248 0.031343162
000200 e0 7b 46 3d 60 0a 2f 3b a0 5f 4f 3d 94 70 a7 bc
       0.04845798 0.0026709065 0.050628304 -0.020439424
000210 22 b6 74 bd 44 73 4c 3d 30 c2 c6 bc 2e 0b 09 bd
       -0.059744008 0.049914613 -0.024262518 -0.033457927
000220 9a 4a 25 bd 40 5a 79 bb e0 ab b5 bb c8 3a 57 3d
       -0.04035435 -0.0038048178 -0.0055441707 0.052546293
000230 08 76 6b bd 82 9e 4f 3d e6 2d 2e bd 12 50 4e 3d
       -0.05748561 0.050688274 -0.04252424 0.05036933
000240 0c 7d 66 bd ec f7 2a bd 02 b1 5b 3d 80 1b 09 3a
       -0.056271598 -0.041740343 0.053635605 0.0005230233
000250 2c 2f 38 bd e0 c3 dd 3c 40 98 73 3c 2c c2 a1 3c
       -0.04496686 0.02707094 0.014867842 0.019745909
000260 68 10 18 bd 38 40 9e 3c 60 2f 21 bc f8 a7 6c bd
       -0.03712502 0.019317731 -0.009837955 -0.057777375
000270 18 68 6a 3c 78 00 d2 3c 40 5f b5 3c 10 67 5a bd
       0.014307044 0.02563499 0.022140145 -0.053320944
000280 c4 b4 88 bc 60 a0 71 3c 38 69 f8 3c 30 fe 7b bc
       -0.016687758 0.014747709 0.03032361 -0.015380427
000290 2e 81 62 3d 08 30 9c 3c 18 19 91 3c 60 da 88 3b
       0.055298977 0.019065872 0.017712161 0.004176423
0002a0 46 88 74 3d cc 0f bb 3c dc a7 3b 3d d8 97 05 bc
       0.059700273 0.022834681 0.04581438 -0.008153878
0002b0 3e d4 0f bd 50 80 5d 3c 0c 5c ae 3c 08 16 01 3c
       -0.03511452 0.013519362 0.021284126 0.007878788
0002c0 ec c5 21 3d de be 3e bd 1c c4 7b 3d bc be a2 bc
       0.039495394 -0.046568744 0.06146632 -0.01986634
0002d0 82 6d 3c 3d 3c e3 12 bd 00 4f 19 3c 08 f0 3d 3c
       0.046002872 -0.03586124 0.009357214 0.011592872
0002e0 9e 3e 69 3d b4 bf 49 3d ba a3 19 bd f4 f8 62 bd
       0.056944482 0.049255088 -0.037509657 -0.0554132
0002f0 50 1c e9 bc 80 7d 8c bb 80 b4 2f 3c 0e 27 76 3d
       -0.028455883 -0.0042874217 0.010724187 0.06009584
000300 98 71 cc bc 52 f7 57 3d 64 57 62 3d c8 b5 0e bd
       -0.02495651 0.052726097 0.055259123 -0.03484133
000310 4c 85 38 bd 30 e6 f9 bb dc 12 4b 3d de 06 54 3d
       -0.045048997 -0.0076263174 0.049578533 0.05176436
000320 00 0a 51 3c 1e fc 65 bd 7e 2f 2f 3d c2 68 7a 3d
       0.012758732 -0.05614864 0.0427699 0.06113506
000330 44 36 94 3c 86 4f 02 3d c4 3c e7 bc 48 81 85 bc
       0.018092282 0.03181412 -0.028227217 -0.016296998
000340 08 0b 41 bc bc de a2 3c cc 15 d4 3c 8a ac 32 3d
       -0.011782415 0.019881599 0.0258893 0.043621577
000350 f8 52 7f bd ac 38 f4 3c 10 33 b9 bb ca 51 0b bd
       -0.062334985 0.02981218 -0.005651839 -0.034013547
000360 8e 5e 22 bd dc b4 7e bd aa ab 68 3d da e0 2a 3d
       -0.039640956 -0.0621842 0.056804337 0.04171834
000370 6e 37 22 3d 16 31 57 bd 00 d5 50 3c 84 2a 2e 3d
       0.039603643 -0.052537046 0.012746096 0.042521015
000380 42 4a 03 3d 00 fe 6b 3d a2 06 0c 3d e8 4d 8b bc
       0.03205324 0.05761528 0.034186013 -0.017004922
000390 e8 b6 06 3d 5a ab 3b bd f0 c8 35 3c 48 f8 46 3c
       0.032889277 -0.04581771 0.0110952705 0.012144156
0003a0 94 10 38 3d 34 25 35 bd 9a 21 38 3d 44 2d 71 bd
       0.044937685 -0.044224933 0.04495392 -0.05888106
0003b0 94 d1 a3 bc d8 bf 1c bd 20 9e 1d 3c 60 06 e5 bc
       -0.019997396 -0.038268894 0.0096202195 -0.027957141
0003c0 70 7d b3 bb e8 16 28 bd 4a a0 15 3d ec 25 45 3d
       -0.0054776 -0.04103747 0.036529817 0.04813187
0003d0 30 0e a1 3b 70 32 ad 3b c8 b2 58 bd 7c fe d2 bc
       0.0049150214 0.0052855536 -0.052904874 -0.025756113
0003e0 50 06 ce 3b 9e 53 16 bd ec 06 cb bc d0 f8 29 3d
       0.0062873736 -0.036700837 -0.024783574 0.04149705
0003f0 70 24 99 bb 44 d5 c9 bc 2c 97 6c bd c0 72 c3 bc
       -0.004673533 -0.024637826 -0.057761356 -0.023858428

fc3.weight f4 [256, 256]
000000 68 d9 2a 3c 20 b8 c1 3b d8 6b d0 3c 6c c5 f8 bc
       0.01042781 0.005911842 0.025442049 -0.030367576
000010 84 05 b5 3c 58 c7 af 3c bc 44 e1 bc 60 da 40 bd
       0.022097357 0.02145736 -0.027498595 -0.04708326
000020 a0 88 f9 bb 24 d8 b8 3c a8 d0 c1 3c 90 4f a2 bb
       -0.007615164 0.022564001 0.023659065 -0.0049533322
000030 60 c2 2f bb a4 e9 b3 bc c0 1b 1a 3c c0 8b 30 3c
       -0.0026818737 -0.021961994 0.00940603 0.0107755065
000040 d0 54 bc bc 30 1d d0 3b 3c 1c ff bc 60 53 e8 3b
       -0.02298966 0.0063511357 -0.031141393 0.007090017
000050 e8 67 50 bd 76 3f 60 3d c8 42 75 3d c4 c0 a9 bc
       -0.050880343 0.05474802 0.05987814 -0.0207218
000060 00 57 42 bb f8 ba 50 bc ca 40 12 3d fe 28 31 bd
       -0.0029653907 -0.012739889 0.03570632 -0.043251984
000070 e8 9f 18 3d 76 78 43 3d d8 c1 17 3c ae 44 20 bd
       0.037261873 0.047722302 0.009262525 -0.039127998
000080 38 f4 4c 3c 64 ed 26 bd 84 95 70 3d 56 6e 68 bd
       0.012509398 -0.040753737 0.05873634 -0.05674585
000090 78 e4 f0 bc 34 81 e1 bc 68 b8 33 3c 0c b9 46 3d
       -0.029405817 -0.02752743 0.010969259 0.04851632
0000a0 80 f8 e9 3a bc 1b 51 bd 1a 96 20 bd 38 cf 31 bc
       0.0017850548 -0.05105184 -0.039205648 -0.010852627
0000b0 e0 54 b6 3b 02 3e 0f 3d 34 0f 98 3c 00 6d 21 bc
       0.005564317 0.034971245 0.018561937 -0.009852648
0000c0 6c 85 9d 3c ae d1 79 bd b8 ea d2 bc 6c 6d 47 bd
       0.01922866 -0.06099098 -0.025746688 -0.048688337
0000d0 30 c8 22 3d 30 ed 8b bc 6a 53 16 3d a8 7d 69 bd
       0.039741695 -0.017080873 0.036700644 -0.0570046
0000e0 88 d1 19 3c c0 79 cb bc 0c 0a 61 3d 40 6f 7d bd
       0.009388335 -0.024838328 0.054941222 -0.061873674
0000f0 da d3 5b bd 68 0c 52 bc e8 07 3c bc 08 19 41 3c
       -0.053668834 -0.012820341 -0.011476494 0.011785753
000100 a8 dc 6d bd 20 79 75 bb 48 38 11 bd 0a b5 34 bd
       -0.058071762 -0.003745623 -0.035454065 -0.044117965
000110 00 84 41 b9 48 07 2a 3d 3e 97 4d 3d 64 3f 00 3d
       -0.00018455088 0.04151085 0.050193064 0.031310454
000120 1c f5 ff bc b8 ef 0b 3c d0 c3 93 3c aa dd 27 bd
       -0.031244807 0.00854104 0.018037707 -0.04098288
000130 58 61 1e bd 70 0b 99 3b 48 27 9d 3c 3c 3d 74 bd
       -0.038667053 0.004670553 0.01918377 -0.05962871
000140 00 70 2d 3a c6 eb 0d 3d 50 7d e7 3b 44 cb 6d bd
       0.00066161156 0.03464868 0.007064499 -0.058055177
000150 9a 01 11 3d 4c bb 7b 3d 00 98 43 39 d2 b9 68 3d
       0.035401918 0.061457917 0.00018653274 0.056817837
000160 10 30 38 3c 00 34 cd 3c 9a a8 2f bd 40 ab 90 bb
       0.011241928 0.02504921 -0.0428854 -0.004414946
000170 3a 48 4d 3d 50 d5 16 bd 00 fd 1a bc 5c 3d d2 3c
       0.05011771 -0.036824524 -0.009459734 0.025664024
000180 e6 8e 17 3d 18 cf a0 bc 80 23 0b 3b 6c 76 16 bd
       0.037001513 -0.01963 0.0021230876 -0.03673403
000190 a0 56 30 bd 20 6f b8 bb 08 6f de bc 7c c9 89 bc
       -0.043051362 -0.0056284815 -0.027152553 -0.016819708
0001a0 08 38 67 bc 94 42 e1 3c e2 77 30 3d 20 f0 4d 3c
       -0.01411248 0.027497567 0.04308308 0.012569457
0001b0 0c 81 10 bd 6a e9 7e bd d0 51 55 bc d8 81 fd 3c
       -0.03527932 -0.06223432 -0.013019994 0.030945703
0001c0 62 81 4c bd 7c d0 d9 bc ec de 5a 3d e0 3f 46 3d
       -0.049928077 -0.02658867 0.05343525 0.04840076
0001d0 98 bb 91 bc 66 8e 5a 3d 90 59 d9 3b cc de cd 3c
       -0.017789647 0.053358458 0.006632991 0.025130652
0001e0 64 72 5c 3d 20 30 5f 3d dc 8e 14 3d 04 b9 1d bd
       0.05382003 0.054489255 0.036269054 -0.038506523
0001f0 c4 35 56 3d d0 95 a8 3b b8 99 0b 3c 48 9c 5c bd
       0.05229737 0.005144812 0.008520536 -0.05385998
000200 e0 b7 44 bc 8a cd 53 3d ac 8a d7 bc f4 4b d2 bc
       -0.01200673 0.05170969 -0.026311241 -0.025670983
000210 60 d6 75 3b d4 c4 1e 3d c0 a3 94 3b 98 63 08 bc
       0.003751181 0.03876193 0.004536122 -0.008324526
000220 48 70 69 3d b2 54 0c 3d 18 2a 49 bc 68 3b 7d bc
       0.056991845 0.03426046 -0.012278102 -0.015456058
000230 fc 53 c7 bc 98 68 71 bd 80 15 44 bd c2 59 72 3d
       -0.024332039 -0.05893764 -0.047872066 0.05916763
000240 00 5e 15 39 48 7e a1 bc bc c6 9f 3c 6c d4 df bc
       0.00014244765 -0.019713536 0.019503944 -0.02732297
000250 70 36 4e bd 50 aa e4 3c 6a b5 13 3d f4 65 5b bd
       -0.050344884 0.027913243 0.03606168 -0.053564027
000260 48 44 17 bc 00 96 d1 39 80 00 f8 bb a4 1f dd 3c
       -0.009232588 0.00039975345 -0.007568419 0.026992626
000270 c0 8f 0c 3c f8 3c d0 3c b6 0d 5d bd d6 02 5b 3d
       0.008579195 0.025419697 -0.053968154 0.0534695
000280 e2 cc 4b 3d 40 3b 3a 3c 06 a2 7d 3d 1c 3b de 3c
       0.04975594 0.011366665 0.061922096 0.027127795
000290 10 88 20 bd 08 2d 29 3d 0a b3 00 bd 60 ab 03 bd
       -0.03919226 0.04130271 -0.031420745 -0.032145858
0002a0 08 e4 6a bd b8 6a 4b 3c bc 91 36 3d f0 e9 0e bc
       -0.057346374 0.01241558 0.044572577 -0.008722767
0002b0 30 29 81 bb 1a 8e 1b bd 34 03 c8 3c 42 44 03 3d
       -0.0039416775 -0.037977315 0.02441559 0.032047518
0002c0 68 e1 7d 3c 4c 23 9f bc 58 2c 7f bd 80 77 e5 3b
       0.015495636 -0.01942601 -0.06229815 0.007002771
0002d0 f4 7c db 3c ca c9 3f bd e8 67 f5 bc 20 e9 83 bb
       0.02679298 -0.0468233 -0.029956773 -0.0040255934
0002e0 80 b8 d6 bb 30 06 22 3c 80 0e 3e bc 5e 2b 18 bd
       -0.006552756 0.0098891705 -0.011600137 -0.037150733
0002f0 1c 5e 03 bd 54 e8 22 bd 38 68 f6 bc 04 fb fb bc
       -0.03207217 -0.039772347 -0.030078992 -0.030759342
000300 d8 89 e8 bc 2c ed 9c 3c 40 44 93 3c 4c c4 4b bd
       -0.028386042 0.019156061 0.01797688 -0.04974775
000310 00 4e a0 bc 80 3c 67 3c 44 b0 56 bd 78 c7 b4 3c
       -0.019568443 0.014113545 -0.052414194 0.02206777
000320 90 2d 4e bc f0 34 30 3c d0 9f fc 3b 2e f6 01 3d
       -0.012584105 0.010754809 0.007709481 0.031728916
000330 6e 1d 10 3d 00 a7 5b 3c 84 4b 01 bd 8e f4 6f 3d
       0.035184316 0.013406515 -0.031566158 0.058582835
000340 fc 7c 9b bc 00 9a e9 ba 0a a2 30 bd 84 f7 02 3d
       -0.018980496 -0.0017822385 -0.043123282 0.03197433
000350 f0 52 9e 3b ce 56 05 3d b4 e5 3d 3d e8 60 68 bd
       0.0048316643 0.032553487 0.04636164 -0.056733042
000360 a0 ee 8f bb 8e 97 64 bd 72 9a 18 3d fc c2 85 3c
       -0.00439246 -0.055808596 0.037256666 0.016328327
000370 80 6e c4 3a fa c0 4c bd 0e 2e 69 3d 40 dd 5e bd
       0.0014986545 -0.049988724 0.056928687 -0.05441022
000380 06 56 20 3d 9c 9f 06 bd 00 9b 9d 3c ca f3 3b 3d
       0.03914454 -0.03286706 0.019238949 0.045886792
000390 60 32 57 bb 3e bc 7b bd 68 66 ce bc 56 da 6e 3d
       -0.0032836422 -0.06145882 -0.025195315 0.05831369
0003a0 aa ea 23 bd 34 1d 66 3d 40 0f b7 bc 36 97 74 3d
       -0.040018715 0.056180194 -0.022346139 0.05971452
0003b0 1e 76 39 bd 54 06 24 bd 32 49 5c 3d 68 62 c8 bc
       -0.04527866 -0.040045097 0.053780742 -0.024460986
0003c0 74 43 30 3d 38 23 00 bc 28 4f 0f bd 78 44 8b 3c
       0.04303308 -0.007820897 -0.0349876 0.017000422
0003d0 5c 74 3e bd b0 3e ca bb cc 13 da 3c 60 25 0f bc
       -0.046497688 -0.0061720237 0.026620768 -0.008736938
0003e0 e0 52 24 bd 90 ec b0 bc fc 09 75 bd c8 f8 d0 3c
       -0.0401181 -0.021597177 -0.059823975 0.025509253
0003f0 50 c8 d5 3c 14 cf 21 3d dc f5 f6 3c 60 f1 40 bc
       0.026096493 0.039504126 0.030146532 -0.011776298

fc3.bias f4 [256]
000000 06 cb 00 bd ae 7a 6f 3d 00 8e d0 3b 3e 23 57 3d
       -0.03144362 0.058466606 0.006364584 0.052523844
000010 cc 0d 08 bd f4 5d f5 3c 90 a7 63 3d c0 ce 00 3d
       -0.033216283 0.029952027 0.055579722 0.031447172
000020 a2 36 35 3d ea 4d 1b 3d a4 ea b7 3c ac 14 2a 3d
       0.044241555 0.0379161 0.022450753 0.04152362
000030 a8 c7 20 3d 20 0c e5 bb c0 c2 e4 bb 54 29 d6 3c
       0.039252907 -0.006989971 -0.006981224 0.026142754
000040 fc 05 77 3d 84 80 92 3c 08 ac 4e bc 80 eb 22 bc
       0.06030844 0.017883547 -0.012614258 -0.009943843
000050 8e d7 46 bd bc b2 da 3c c0 b0 5c bb 98 8a a8 bc
       -0.048545413 0.026696555 -0.0033674687 -0.0205739
000060 a0 e3 35 3b 22 ed 64 3d 80 94 7b 3c 5e 38 2b bd
       0.0027754083 0.05589021 0.015355229 -0.041801803
000070 9a 0a 0a 3d b0 8a a7 3c a2 c0 49 3d 20 7b 35 3b
       0.033701517 0.020451874 0.049255975 0.0027691796
000080 ba 20 7b bd be 8c 67 3d b2 cb 0a 3d ee 17 7e 3d
       -0.061310507 0.056530707 0.033885665 0.06203454
000090 28 20 41 bd d4 c4 dd bc 48 4e 52 bc b0 0c 3c 3d
       -0.047149807 -0.027071394 -0.0128360465 0.045910537
0000a0 a0 1f ec bc 50 ad 92 bb d0 c8 35 3d e6 16 10 3d
       -0.028823674 -0.004476227 0.044380963 0.035178088
0000b0 3a 14 52 bd 50 d4 7d bc 00 0b 29 3c 70 fc c8 3c
       -0.05128882 -0.015492514 0.010317564 0.024534434
0000c0 b8 95 00 3d e2 cb 2f bd c2 60 74 3d 54 64 dd bc
       0.031392783 -0.042919047 0.059662588 -0.02702538
0000d0 60 6e ab 3c 82 3a 14 bd b0 d5 5f bd 70 2e f6 bc
       0.020926654 -0.03618861 -0.054647148 -0.03005144
0000e0 70 9a 6f 3d 4c cf 62 bd 78 61 5b bd 0e a1 37 3d
       0.058496892 -0.055373475 -0.05355975 0.044831328
0000f0 14 f0 78 3d 82 0b 08 3d 48 ba 26 3d 80 1f 0e 3d
       0.06077583 0.0332141 0.040704995 0.03469801
000100 c0 58 79 3b cc b2 1b 3d 92 8c 3c bd 5c 15 2b 3d
       0.0038047284 0.03801231 -0.046032496 0.041768417
000110 d2 72 69 bd 40 bc a3 3c 70 71 94 bb 88 b4 48 bc
       -0.056994267 0.019987226 -0.0045301244 -0.012250073
000120 2c bc 52 bd 58 ff 9d bc 80 cf af 3c 58 52 3b bc
       -0.051448986 -0.019286796 0.021461248 -0.0114332065
000130 6c c0 9a 3c 20 5b db 3c a8 f7 ce 3c 20 ce 81 bc
       0.018890582 0.02677685 0.025264576 -0.015845358
000140 08 98 3f bc 90 76 5a 3d ac a8 e7 3c f8 65 41 bd
       -0.011693962 0.053335726 0.028278671 -0.047216386
000150 dc e3 1e 3d ce 8d 5f 3d 78 51 0e 3d 0c 07 92 bc
       0.038791522 0.054578595 0.034745663 -0.017825626
000160 64 ed 8b 3c 90 c7 0b bc 5c 96 9d bc 66 46 7f bd
       0.01708097 -0.008531466 -0.019236736 -0.062322997
000170 c6 58 5c 3d 20 c5 50 3b d4 7f d6 3c e0 47 33 bd
       0.0537956 0.0031855777 0.026184 -0.043769717
000180 24 42 2c 3d 80 1e 0e 3a 24 2d 66 bd c0 fc 0b 3d
       0.042055264 0.0005421415 -0.056195393 0.034176588
000190 9a 71 2d 3d 9c e1 fc 3c 60 c9 0b 3b 00 8f 5f 3b
       0.042344667 0.030869298 0.0021329746 0.0034112334
0001a0 e8 3b 5f 3d a0 84 b0 bc 60 57 2e bc 00 c4 b7 bb
       0.05450049 -0.021547616 -0.010640949 -0.005608082
0001b0 2a df 2e bd 8e f0 4b 3d 28 2d 64 bc 3a cf 22 bd
       -0.042693295 0.049789958 -0.013926782 -0.039748408
0001c0 20 e1 7b bc 06 65 45 bd 14 30 72 3d f6 96 25 3d
       -0.015373498 -0.048192047 0.059127882 0.04042717
0001d0 6c a6 5c 3d 00 f1 df 39 00 dd e5 bb 80 32 e0 3a
       0.05386965 0.00042713434 -0.0070148706 0.0017104894
0001e0 08 c9 64 bd 82 93 72 bd 88 cc 07 bc 20 fa 8e 3c
       -0.05585578 -0.059222706 -0.00828851 0.017453253
0001f0 74 5d 67 3d 4c 05 06 3d c8 8c 7d 3d 58 de 57 3c
       0.05648561 0.032719895 0.061901838 0.0131755695
000200 b4 1f e8 3c e4 78 95 bc b8 cf fd bc 10 70 d5 bb
       0.02833543 -0.018246122 -0.030982837 -0.006513603
000210 70 96 cf bc c8 36 60 bc ec bc 58 3d 28 84 ad bc
       -0.025340289 -0.013684936 0.052914545 -0.021181181
000220 82 bf 3f bd 9e 97 47 3d 8a d4 04 bd 30 8a 52 3c
       -0.046813495 0.048728578 -0.032429256 0.012850329
000230 b8 ed ed 3c c6 cb 6e 3d f2 e0 1c 3d 4a ab 4a 3d
       0.029044017 0.058299802 0.038300462 0.04947976
000240 9c 3f d9 bc 28 76 4b bd 44 f9 d8 bc f0 5e 53 bd
       -0.02651959 -0.04967323 -0.026486047 -0.05160421
000250 4e 7a 02 bd f0 67 8b 3b 3c a2 a6 3c 68 e5 ee bc
       -0.03185492 0.0042543337 0.020341031 -0.029162124
000260 b8 ff 1e bd 86 af 77 bd 52 f7 03 bd 42 f0 0e bd
       -0.03881809 -0.060470127 -0.032218285 -0.034897096
000270 aa e5 42 bd b6 97 23 bd 70 77 c8 bb 48 65 12 3d
       -0.047582306 -0.039939605 -0.0061177537 0.03574112
000280 86 cf 11 bd 2c 4e 2b 3d ce bf 0c 3d ac 36 07 bd
       -0.0355983 0.041822597 0.034362607 -0.033011124
000290 84 42 74 bd 40 b1 3d bd 1c e4 3d 3d 90 89 53 3d
       -0.059633747 -0.046311617 0.04636012 0.05164486
0002a0 82 7c 25 3d d4 0d 93 bc 54 c2 5b bd a8 a7 8e 3c
       0.040401943 -0.01795093 -0.053652123 0.01741393
0002b0 b0 66 f8 bc 40 a1 66 3c d8 26 93 bc ee df 48 bd
       -0.030322403 0.014076531 -0.017962858 -0.04904168
0002c0 ac 44 49 bd e0 e5 32 3d dc b0 13 3d 2c 6b 5e 3d
       -0.049137756 0.043676257 0.036057338 0.054301426
0002d0 f2 a9 3c bd ba 26 58 bd 04 98 da bc 34 38 12 3d
       -0.04606051 -0.052771308 -0.026683815 0.03569813
0002e0 98 a4 50 3d 14 50 58 3d 90 1e 04 3d 40 cd 88 3c
       0.05093822 0.052810743 0.03225571 0.016699433
0002f0 c0 97 7f bb 80 fb 42 3b 7c a7 2f bd 50 0a b2 3c
       -0.0039000362 0.0029751956 -0.042884335 0.021733433
000300 98 c9 d5 bc 6e 91 11 3d 7c 60 cd 3c 80 87 b7 3b
       -0.026097104 0.035539083 0.025070421 0.0056008697
000310 28 7a 37 3d f0 b5 3c 3c b4 da 11 bd 9e c2 1b bd
       0.04479423 0.011517987 -0.035608962 -0.0380274
000320 f0 87 42 3c de db 06 3d 42 59 3f bd ca 9c 70 3d
       0.01187323 0.032924525 -0.046715982 0.058743276
000330 c6 44 52 bd c0 7c 16 bd 40 8a 41 3d ea db 26 bd
       -0.05133512 -0.036740065 0.047250986 -0.04073707
000340 c2 e8 11 bd 6c 4f 3f bd f8 56 6c bc d4 93 21 3d
       -0.035622366 -0.046706602 -0.014425032 0.03944762
000350 7a 49 2c bd d2 6e 37 bd 3c ef 14 3d 24 97 af bc
       -0.04206226 -0.04478342 0.036360964 -0.021434374
000360 1a e4 7c 3d e0 9a 55 bc 6a c1 13 3d 58 7e 01 bc
       0.061740972 -0.013037413 0.036073126 -0.007903658
000370 c8 fa 66 3c 88 bd 49 3c 7a 31 40 bd ec 18 06 bd
       0.014097877 0.012313254 -0.046922185 -0.03273861
000380 68 30 32 bd 20 48 5c 3b 84 55 5b 3d 3e 41 1a bd
       -0.043503195 0.0033612326 0.05354835 -0.037659876
000390 04 01 ce 3c 78 d8 f0 3c 22 78 41 3d a0 99 c3 3b
       0.025146969 0.029400095 0.04723371 0.0059692413
0003a0 e0 32 7d 3b b2 69 7d 3d 98 51 de bc f8 b9 cf 3c
       0.003863506 0.061868377 -0.027138516 0.025357231
0003b0 5e 8a 21 3d 24 a1 7a bd 80 ad de bc b8 00 72 3d
       0.039438598 -0.061188832 -0.02718234 0.059082717
0003c0 4e 12 65 3d 68 82 62 bd b8 e3 0f bd 0e 13 4b 3d
       0.05592566 -0.055300146 -0.03512928 0.04957872
0003d0 80 c1 42 3a c0 1a 9d 3c bc 5d 13 bd 80 fd c4 bb
       0.00074293464 0.019177794 -0.035978064 -0.006011665
0003e0 fc 61 8a bc ce 66 56 3d 4c 2e 74 bd e0 23 75 bd
       -0.016892426 0.052344136 -0.059614465 -0.059848666
0003f0 80 5f be ba 24 8c fc 3c 3a 41 3f bd 76 f3 31 3d
       -0.0014524311 0.030828543 -0.046693064 0.043445073

output.weight f4 [4, 256]
000000 e8 70 10 3d 70 32 8c bb 60 6a a0 bb c8 c7 30 3d
       0.035263926 -0.0042784736 -0.0048954934 0.043159276
000010 5e d0 34 3d 10 af 42 3c 96 22 31 3d a0 df 4f 3d
       0.044144027 0.011882558 0.043245874 0.050750375
000020 4c 6c 55 3d 3e 02 62 3d f0 80 eb bb e0 8d 3f 3b
       0.052105233 0.05517792 -0.0071870014 0.0029228851
000030 48 09 ef 3c c0 b6 56 3b 1e 79 7a bd c4 20 7e 3d
       0.02917923 0.0032762736 -0.061150663 0.062042966
000040 38 0f e5 bc c6 d6 5c bd 42 9d 4a 3d 00 22 7f 39
       -0.027961358 -0.05391576 0.04946638 0.00024331361
000050 2e 06 43 3d d4 61 05 3d 54 1b cd bc f0 41 ae bb
       0.047613315 0.032564 -0.025037445 -0.005317919
000060 70 37 e7 3c 44 c9 d0 bc 4c 98 32 3d d8 70 0d bc
       0.028224677 -0.025486596 0.043602273 -0.008632861
000070 ee 4b 4b 3d 00 10 61 3c bc 07 00 bd 40 36 9b ba
       0.04963296 0.013736725 -0.031257376 -0.0011841729
000080 18 a9 f5 bc c8 ab 43 3d 34 34 cf bc f4 af b6 3c
       -0.029987857 0.047771245 -0.025293447 0.022300698
000090 d2 de 09 3d 60 4c 44 bd b0 89 30 bd 8c ab 51 bd
       0.033659764 -0.0479244 -0.04310006 -0.05118899
0000a0 02 1c 27 3d 28 c4 bd 3c 28 6f 66 3d 74 57 67 3d
       0.040798195 0.023164824 0.05625835 0.056479886
0000b0 4c 5b d9 bc 24 9f c4 3c e0 20 a7 bc 58 74 87 bc
       -0.026532792 0.024001665 -0.020401418 -0.01653497
0000c0 a8 4e 8f bc 42 26 17 bd 70 94 9c 3c 90 ab b1 bb
       -0.01749356 -0.03690172 0.01911375 -0.005422063
0000d0 04 f0 6c 3d c0 02 be bb 0a 81 2b bd c0 28 4b 3c
       0.057846084 -0.0057986677 -0.041871108 0.012399852
0000e0 f6 9c 0c bd 58 45 f6 3c b8 80 12 3d c0 81 c4 3b
       -0.034329377 0.030062363 0.035767287 0.0059969127
0000f0 80 48 55 3b 04 9d 47 bd 42 cd 40 bd 62 76 68 bd
       0.0032544434 -0.048733726 -0.04707075 -0.056753524
000100 b0 01 70 3d 3c 24 a2 3c 48 d9 0b 3c 42 c1 0b bd
       0.05859536 0.019792669 0.008535691 -0.034119852
000110 98 bb 18 bd 10 55 c7 bb 18 04 e6 bc b6 71 29 bd
       -0.03728828 -0.0060831383 -0.028078124 -0.04136821
000120 88 12 36 3c f4 fc bd 3c f4 21 9d bc 20 30 4a bc
       0.011112817 0.023191907 -0.01918123 -0.012340575
000130 20 c4 5b 3b 1c 4a 54 bd 88 69 82 3c 98 46 18 3d
       0.0033533648 -0.05182849 0.015919462 0.0371767
000140 d0 ff 41 3c 08 d9 c7 3c 20 fe 9b bc 00 2b d9 3b
       0.011840776 0.02439548 -0.019042075 0.0066274405
000150 64 8d 28 3d ea f0 18 3d 9e 95 63 bd 20 54 f6 3c
       0.041150466 0.03733913 -0.055562608 0.03006941
000160 e8 ad af 3c b4 13 23 bd 40 7f f9 3a 1c b9 ce 3c
       0.02144523 -0.039813712 0.0019035116 0.025234751
000170 08 ce 35 bc 64 e2 7f 3d 40 0b 48 bd 02 9b 18 bd
       -0.011096485 0.062471762 -0.048838854 -0.037257202
000180 00 f6 3e 3a 60 93 d7 bb 38 39 75 bc 60 02 19 bb
       0.00072845817 -0.0065788478 -0.014967255 -0.0023347363
000190 44 56 fc bc f4 30 0f 3d d0 e6 a7 bb 8c e4 a2 bc
       -0.030802853 0.034958795 -0.0051239505 -0.01988437
0001a0 80 d1 17 bc f8 d8 57 bd 00 62 02 b9 e0 8f 93 3b
       -0.009266257 -0.052697152 -0.00012434274 0.004503235
0001b0 82 ba 7d bd 1a 7a 37 bd 4e e5 1a 3d e6 89 53 bd
       -0.061945446 -0.04479418 0.03781634 -0.051645182
0001c0 a0 80 15 bd c4 e6 e9 3c 10 16 f4 3c de ea 00 3d
       -0.03649962 0.02855242 0.029795676 0.031473987
0001d0 46 a5 24 bd d0 50 b5 3c 4a fb 5a bd 20 af 25 3b
       -0.04019668 0.022133261 -0.053462304 0.0025281385
0001e0 0e 8a 43 3d 70 f1 26 bd d0 6e 0d 3c 82 bf 0a 3d
       0.04773908 -0.040757596 0.008632377 0.033874042
0001f0 68 e2 9a 3c c4 ff ba bc 12 e9 6c bd f2 c4 1d bd
       0.018906787 -0.022827037 -0.05783946 -0.0385179
000200 4c 73 82 bc a0 74 3a 3d 28 24 50 bd 88 99 2b bd
       -0.015924118 0.04552138 -0.05081573 -0.041894466
000210 be ad 71 3d 40 01 70 3c f8 03 ee bc 60 0e 5c bb
       0.059003584 0.0146487355 -0.029054627 -0.0033577904
000220 80 88 49 3b f6 64 00 3d fc 0a 07 3d b4 b2 9f bc
       0.0030751526 0.031346284 0.03296946 -0.019494392
000230 22 10 5f 3d a0 4a f5 3c 04 c8 43 bd f8 43 8e bc
       0.054458745 0.02994281 -0.04779817 -0.017366394
000240 1a c2 26 bd b0 24 ce 3b 28 6d 08 3d b0 61 46 3c
       -0.040712453 0.0062909946 0.033307225 0.012108251
000250 b0 df 31 bc 90 a7 00 3d 2e ec 7a bd ee f7 3e bd
       -0.010856554 0.0314098 -0.061260395 -0.046623163
000260 a0 ee 95 bb 40 cd b2 3c fe ac 4e bd fa 74 5e bd
       -0.0045755655 0.021826386 -0.050457947 -0.054310776
000270 e4 13 80 3c 52 96 63 3d d0 e9 2b 3d d0 8e c6 3b
       0.015634485 0.05556328 0.041971028 0.006059505
000280 48 2e 2c 3d 0e ab 41 bd 5c 09 8a bc 3e d8 18 3d
       0.042036325 -0.04728227 -0.016850166 0.0373156
000290 ec 65 48 3d 80 1f 8f 3a 92 e6 64 3d 60 7b ea bb
       0.048925325 0.0010919422 0.05588395 -0.0071558207
0002a0 90 69 81 bb 46 18 2e bd 80 d0 cc bc 6c 64 b8 3c
       -0.0039493516 -0.042503618 -0.025001764 0.022508822
0002b0 78 4b be 3c e2 a9 35 bd 3c 98 e0 3c 6a a8 1b 3d
       0.023229346 -0.044351466 0.027416341 0.03800241
0002c0 6c 04 f4 3c 44 84 56 bd 08 b4 01 3d f8 da 06 3d
       0.029787265 -0.052372232 0.03166583 0.03292367
0002d0 ae 08 6c bd 60 ea 68 3c 00 ca 89 3b c0 d0 f2 3b
       -0.057625465 0.014216036 0.0042049885 0.007410139
0002e0 48 64 9b bc 1c 75 82 bc 2c 03 bf bc b8 21 cf 3c
       -0.018968716 -0.015924983 -0.023316942 0.025284633
0002f0 ec 04 2c 3d f0 3c 7c 3d c8 97 6c 3d 26 af 28 bd
       0.04199688 0.061581552 0.057761937 -0.04118266
000300 1c b2 68 3d 1a a9 56 3d 02 5b 0e bd 30 6d 13 bd
       0.056810483 0.05240736 -0.03475476 -0.0359928
000310 5c 08 2d bd 30 6b 62 bd e0 0e 36 3b 4c c1 b5 3c
       -0.0422443 -0.055278003 0.0027779862 0.022186898
000320 d0 8b 00 bd 58 41 1a bd 50 bc ff 3b fc 9a a6 3c
       -0.031383336 -0.037659973 0.007804431 0.020337574
000330 00 19 e1 ba 28 8e 3f bc 64 9c 73 bd 28 d7 95 bc
       -0.0017173588 -0.011691608 -0.059475318 -0.018291071
000340 de 3b 27 3d e0 b6 3d bb 96 ad 2c bd f0 25 38 3d
       0.04082858 -0.0028948113 -0.042157732 0.044958055
000350 98 74 7c bd e2 ef 0d bd 08 19 43 3d 7e 41 58 3d
       -0.06163463 -0.0346526 0.047631294 0.052796833
000360 38 34 56 3c 80 bc c8 bb d8 a8 d1 bc 40 8d 8d ba
       0.013073973 -0.0061259866 -0.025593206 -0.0010799542
000370 00 14 59 39 d8 dc 13 3d 2c 29 1c bd 1c a8 72 bd
       0.00020702183 0.036099285 -0.038125202 -0.059242353
000380 56 f6 07 bd 76 29 7c bd 1c 3a b7 bc b4 cb c9 3c
       -0.03319391 -0.061562978 -0.022366576 0.024633266
000390 54 d9 c9 3c 70 19 11 bc 36 5f 78 bd 18 f4 27 bc
       0.024639763 -0.008856162 -0.060637675 -0.010251068
0003a0 94 51 10 bd b8 2e e9 bc 9e 2c 50 bd 10 ff 03 bc
       -0.03523405 -0.02846466 -0.0508238 -0.008056417
0003b0 e2 ec 2d 3d 8c 44 f6 3c 58 1a 21 3c 4c 65 d8 3c
       0.042462237 0.030061983 0.009832941 0.02641549
0003c0 34 32 9e 3c 20 88 5a 3c 08 70 99 3c c0 04 e2 3c
       0.019311048 0.013338119 0.018730178 0.027590156
0003d0 80 47 14 bc 6e 8f 23 bd 32 95 31 3d c0 0f fd 3b
       -0.00905025 -0.039931707 0.043355174 0.007722825
0003e0 10 0b 7d 3c 60 a4 09 bc 88 32 56 bd 98 96 b8 3c
       0.015444532 -0.008401006 -0.052294284 0.022532746
0003f0 c0 d3 17 3d d2 93 32 3d 10 cb 39 bc 40 2d 9d bc
       0.037067175 0.043598004 -0.011339918 -0.019186616

output.bias f4 [4]
000000 24 19 95 bc 18 b8 1e 3d e4 5a 53 3d d2 71 21 3d
       -0.018200465 0.038749784 0.051600352 0.039415188
