sticky_mittens_new/models/gem_1050_finetune/critic_axe_network.pkl (torch, 637971 bytes, 3 tensors)

weight f4 [100, 1586]
000000 a2 2a 5e bc 25 16 b4 3c 00 45 a3 bc c3 f3 f8 bb
       -0.013559969 0.021983216 -0.019930363 -0.007597418
000010 6b d7 a8 3b 1e 01 76 3c 9f f1 5e bc af 57 b9 bc
       0.005152633 0.015014915 -0.013607412 -0.022624819
000020 54 f4 ba bc 35 5c 5c bc 04 e2 94 bb e9 53 78 3c
       -0.022821583 -0.013449718 -0.0045435447 0.0151567245
000030 ec 5f b3 bc 2c 1e d3 3b 67 e5 a6 3c 48 c7 5a 3c
       -0.021896325 0.0064428058 0.02037306 0.013353176
000040 b6 c7 ca 3a 66 ac 0d bc 9a 9f 27 3c 93 3d 57 bc
       0.0015470895 -0.00864706 0.010230923 -0.013137239
000050 ce 3d 01 bc 2c 37 a7 3c 25 83 64 bb e5 d9 a7 bc
       -0.007888271 0.02041205 -0.0034868207 -0.020489642
000060 36 61 b9 bc aa 3b 9a bc d9 d0 8c 3c bd a1 b1 3c
       -0.022629362 -0.018827278 0.01718943 0.021683568
000070 a0 22 62 ba f1 82 be 3a af 13 8a ba 57 b9 4e 3c
       -0.00086263753 0.0014534873 -0.0010534431 0.012617431
000080 e1 a0 8c bc 22 72 cb 3c 9f 08 8c 3c 4a 3d b5 bc
       -0.017166557 0.024834696 0.017093955 -0.022123951
000090 d4 b8 96 bc 16 24 97 3c a2 d4 c4 3c 58 ed 1c ba
       -0.01839868 0.018449824 0.024027172 -0.0005986295
0000a0 75 6a 97 3b a0 d7 f4 3a a8 52 73 3c aa 5b 7a 3b
       0.004620845 0.0018679984 0.01485125 0.0038201609
0000b0 ad 62 83 3c 0b ab 60 3c 15 bc c2 3c 8e 4d f0 bb
       0.016038263 0.013712655 0.023771325 -0.007333464
0000c0 24 be a7 3c a6 fc 66 bc 4b f2 96 3c 32 45 51 3c
       0.020476408 -0.014098322 0.018426081 0.012772845
0000d0 89 5a 49 3c 4d df 94 ba ba 7b 84 3c 95 cf d0 bb
       0.012289652 -0.0011358053 0.016172279 -0.006372402
0000e0 84 ab 35 bb 51 f1 b5 3c 2f 9e b5 3c c6 37 60 3c
       -0.002772064 0.022209795 0.022170154 0.013685172
0000f0 d7 17 a1 3c 3c 64 bd bc fb c4 5b bc d5 a5 9b bc
       0.019664688 -0.023119085 -0.013413663 -0.018999973
000100 df 2b 20 bc c5 38 50 3b f6 c2 02 bc bd 3c 32 3c
       -0.009776085 0.0031772119 -0.007981053 0.010878739
000110 2d 6b 3e 3c 18 e8 2b bc 80 67 c6 3a 4a b8 a4 ba
       0.011622232 -0.010492347 0.0015137047 -0.001256713
000120 73 6c 63 3c d2 0f 3b 3b 98 ec 69 3c 20 6f aa 3c
       0.013880837 0.0028543365 0.0142776 0.020804942
000130 9c ca c4 bc 1b f1 a3 3c 31 aa 86 bc 21 df c5 3c
       -0.024022393 0.020012429 -0.016438575 0.024154248
000140 1e 57 aa 3c aa b3 95 3c 79 4a cb bc b5 78 3f 3c
       0.020793494 0.018274147 -0.024815785 0.011686494
000150 1f be 09 bc cd 83 96 3c 8a a1 a3 3c 4b ee 77 39
       -0.008407145 0.018373394 0.019974489 0.00023644527
000160 d4 7c af bc 8b 00 dc 39 cf 0a 0f bb a5 dc 0e bc
       -0.021421827 0.00041962074 -0.002182651 -0.008719598
000170 72 35 8f bb 95 3e cb 3c dd ff 99 bc 7d 1a 68 bc
       -0.004370385 0.024810115 -0.018798763 -0.014166472
000180 7e 1d 95 3c 51 dc 18 3c 6a 63 74 bb e7 e5 b8 3c
       0.01820254 0.009329871 -0.00372907 0.022570563
000190 1e 29 4a 3b 78 97 2a bc d2 d0 48 3c 4a a3 80 ba
       0.0030847262 -0.0104120895 0.012256818 -0.0009814289
0001a0 58 9c a4 3c 69 42 b3 b9 55 68 9d 3c 5e 08 87 bb
       0.020094082 -0.0003419102 0.019214788 -0.0041208705
0001b0 03 e7 94 bc d0 8a 21 3c fd 39 28 bc a2 4e 22 3c
       -0.018176561 0.009859756 -0.010267732 0.009906443
0001c0 9b 0f 88 3c e8 2b 91 bc 1b 10 90 3a 4d 3b 52 3c
       0.016609004 -0.017721131 0.0010991128 0.012831521
0001d0 00 c8 41 bc b6 b2 4e 3c 05 6b 09 3c 4c 1c 94 bb
       -0.011827469 0.01261585 0.008387332 -0.004519975
0001e0 7b 8a 81 bc 82 4b e2 3a 02 7f 13 bc 32 87 ae 3c
       -0.015813103 0.0017264935 -0.009002449 0.0213047
0001f0 41 91 79 bc 0e f5 92 3a 6b b4 3f bc b9 85 b1 bc
       -0.015232385 0.0011211948 -0.01170073 -0.02167021
000200 b7 2d c8 bb cc 0e c2 bb 1c 08 7b 3c 22 54 04 3b
       -0.0061089653 -0.005922174 0.015321758 0.0020191749
000210 8d 25 63 3c 74 36 17 3c 28 0a c8 3c f7 ba 84 bc
       0.013863933 0.009229291 0.024418905 -0.016202433
000220 09 6d a5 bb d6 b7 a1 bc 13 df ab 3c 7c 9c e3 3b
       -0.0050483984 -0.01974098 0.020980394 0.0069461446
000230 37 7d 2a 3b c9 ba 81 bc c7 3f 88 bc 8f d8 2d 3c
       0.0026014575 -0.015836136 -0.016631974 0.010610714
000240 cf a1 96 bc ea 2e cb bc d6 03 bd bb d6 f4 7a 3b
       -0.018387703 -0.024802644 -0.0057682795 0.0038292906
000250 87 88 a6 3a a6 59 78 bc 89 e5 fe bb 68 ea 2b 3c
       0.0012705483 -0.015158093 -0.0077788276 0.0104928985
000260 d8 33 c8 bc 86 13 18 3c 66 30 71 bc 17 ba 83 bc
       -0.024438784 0.0092819985 -0.014721012 -0.016079945
000270 e6 c7 14 bb f6 0d 7f 3c a4 33 04 3b 39 60 c2 3c
       -0.0022702157 0.015567293 0.0020172382 0.023727523
000280 76 45 16 bc f0 de be 3c 20 3d 73 bc a3 6f 1f 3c
       -0.009171834 0.023299664 -0.014846116 0.009731206
000290 8e 3d af 3c 19 39 59 bc b5 a2 9f bb ee 18 f8 3b
       0.021391656 -0.013258242 -0.004871691 0.007571331
0002a0 db 15 cd 3c 7a 7a 6b bc e9 3a 27 bb ff a8 56 3c
       0.025034836 -0.014372462 -0.002551729 0.013101815
0002b0 5a fd a1 3c 34 14 b2 3c c9 db b3 3c 2a 23 99 3b
       0.019774128 0.02173815 0.021955388 0.0046733813
0002c0 b4 f4 34 3c 28 5c eb 3b 1b d7 62 3c 7d 65 65 bb
       0.01104467 0.0071826167 0.01384523 -0.0035003119
0002d0 dc 9c a4 bc fa d3 90 3c c2 f3 61 bc 40 0e dd 3b
       -0.020094328 0.017679203 -0.013791027 0.0067460835
0002e0 70 a0 99 39 a9 81 80 3c 91 49 2a 3c d2 d1 71 3c
       0.0002930197 0.015686827 0.010393516 0.014759498
0002f0 4c cc 44 bc ee f3 b6 bb 44 33 97 3b 50 83 63 3c
       -0.012011599 -0.005583278 0.0046142656 0.013886288
000300 b9 65 b5 3c 8a 7f 2a bc a3 49 f1 bb 3a 61 3b 3c
       0.022143232 -0.010406384 -0.0073635145 0.011436755
000310 21 e5 8c 3c ff 45 53 3b 33 c5 90 ba 4c b7 80 3c
       0.0171991 0.0032237766 -0.0011045098 0.015712403
000320 8f 4f b4 3c d9 d1 61 3c 8a 23 86 bc fb 90 9b bc
       0.022010593 0.013782942 -0.016374368 -0.01899003
000330 f3 e5 ad 3c 05 30 c1 bb 52 21 4e 3c 3b 91 84 3c
       0.021227812 -0.005895617 0.012581186 0.016182533
000340 cc 22 91 bc 98 73 4e bc 54 f2 7a bb 44 32 3c 3c
       -0.017716788 -0.012600802 -0.0038291411 0.011486594
000350 ec b1 96 bb 37 3f 93 bc ae b5 55 3a 98 25 6a bc
       -0.0045988467 -0.01797448 0.00081523776 -0.01429119
000360 40 42 aa 3c ac 12 17 3c ae 00 91 3c 6e ea 92 3b
       0.020783544 0.00922076 0.01770052 0.0044835126
000370 bb b9 6a bc 1f b1 aa bb ad d5 84 bb cb ea c7 3c
       -0.014326508 -0.0052091028 -0.0040537925 0.02440395
000380 9a e2 a9 3c 6d cf ef 3b 20 3e 97 3c 59 00 8e bc
       0.020737935 0.0073184283 0.01846224 -0.01733415
000390 5c 2a 37 3c 91 cc 46 3c e7 c4 c9 3c 6f 43 80 3c
       0.011179533 0.012133733 0.024630023 0.015657155
0003a0 16 0e 88 3c 35 89 c7 3c 83 12 f4 3b 3b af 54 3b
       0.01660828 0.024357418 0.007448496 0.0032453078
0003b0 af b5 dd bb 32 70 25 3c f2 87 cc bc e8 a5 43 3c
       -0.006766043 0.01009755 -0.024967168 0.011941411
0003c0 c0 e1 68 3c 0e 06 65 bc b1 22 75 bc 0d 07 b3 bc
       0.014213979 -0.013978494 -0.014961884 -0.021853948
0003d0 ba ae 99 bb 8a 8e 8e 3c dc b6 91 3b 7c b8 c5 3c
       -0.0046900185 0.017401952 0.0044468474 0.02413582
0003e0 90 0f 4b 3c c2 8d 62 bc 46 bf c6 3c bc 19 a4 bc
       0.012393847 -0.013827743 0.024261128 -0.020031802
0003f0 94 69 a4 3c 7f 0b 84 3c cf 6f c0 bc 1a 6a 99 bc
       0.020069875 0.016118763 -0.023490814 -0.018727351

bias f4 [100]
000000 e0 69 bb bc 4c 9b dc 3c 4c 1b e0 3b 5e 78 50 bc
       -0.022877634 0.02692952 0.0068391915 -0.01272401
000010 7b fd 94 bc 19 a4 9f 3c 1c d9 83 3b 02 e4 ad 3b
       -0.018187275 0.019487428 0.004023684 0.0053067217
000020 6c 4d 75 3c 5b ef d5 bb a5 d9 8e bc e9 1d b3 3c
       0.014972072 -0.0065287775 -0.017437765 0.021864848
000030 44 80 e5 3c 71 3a 4b bc b5 64 ab 3c 0c c9 7a 3b
       0.028015263 -0.01240407 0.020922044 0.0038266806
000040 cc 3a b8 bb 11 37 1e 3a 2e 59 89 3c d6 79 10 bc
       -0.0056222435 0.0006035427 0.016766157 -0.00881811
000050 61 d9 8d 3c ca e8 03 3c cd 52 c4 3c 58 26 04 3c
       0.017315568 0.008051107 0.023965264 0.0080657825
000060 0e 5d 5e bc 29 b5 44 3c e9 2f d8 3c 95 0f 2e bc
       -0.013571991 0.012006083 0.026390033 -0.010623832
000070 29 36 2c bc 15 3c d6 bc ff af b7 3c 71 95 a6 3c
       -0.01051096 -0.026151696 0.022422789 0.020334931
000080 17 0a 13 bb f8 6d a1 3b cc ed 94 bc 0d 25 de bc
       -0.0022436434 0.0049264394 -0.018179797 -0.027117277
000090 4e a6 de 3c 2a bb 13 3b 0f d4 69 bb 7f b1 20 ba
       0.02717891 0.0022541978 -0.0035679375 -0.00061299646
0000a0 15 21 88 bc 6a f5 51 bc f6 d2 85 3b b1 70 b6 3c
       -0.016617337 -0.012814859 0.0040839864 0.022270532
0000b0 f8 a6 57 3c 04 3a 0f 3c 09 6b cf bc 84 11 43 3c
       0.013162367 0.008741859 -0.025319593 0.0119060315
0000c0 9d ee bb ba cb 5a 63 3c 10 2b 76 3c 03 9e f1 3c
       -0.001433808 0.013876627 0.015024915 0.029494291
0000d0 d0 fb cb 3b 11 19 f1 bb 21 8a ea 3c 86 d5 fe bc
       0.0062250867 -0.0073577245 0.028630318 -0.031107675
0000e0 75 76 73 3c c1 3d bb 3c ea a8 d1 bc 9c ae ce bc
       0.014859785 0.022856595 -0.02559324 -0.025229745
0000f0 45 d4 09 3c 50 1d 19 3c 94 7d c2 bc 35 97 a6 bc
       0.008412425 0.009345368 -0.023741521 -0.020335773
000100 24 0f 3b 3c 8e 51 33 3b 70 d4 22 3c 8e e4 ef 3c
       0.011417184 0.0027361843 0.009938344 0.029283788
000110 65 f9 c7 bc b4 bb 8d bc 25 6f e9 bb 1a 09 2a 3c
       -0.024410913 -0.017301418 -0.007123845 0.010378147
000120 cd c6 e0 3a 55 ca a6 3c 82 71 dd 3b 91 97 a6 bc
       0.0017149091 0.020360151 0.006757916 -0.020335944
000130 a0 4c 1f bc 7c a6 d4 bb 1c a3 39 3c 16 c5 0f 3b
       -0.009722859 -0.006489573 0.011330392 0.002193754
000140 f2 f0 c7 3c 2a 58 3c bc bb 0f d0 bc 2e 6e 13 3a
       0.024406884 -0.011495629 -0.025398126 0.0005624023
000150 a9 07 22 bc c4 bb cf 3c b2 21 0f 3c dd 96 90 bc
       -0.009889522 0.025358088 0.008736061 -0.017650062
000160 61 39 88 bb 98 7d a2 ba 5f 27 5b 3c 77 ba 0b 3c
       -0.0041572307 -0.0012397049 0.013376086 0.008528343
000170 e6 8a 9c bb 64 b8 07 3b 2e 29 9a bc 44 b2 94 bc
       -0.0047773 0.002070927 -0.018818464 -0.01815141
000180 12 9a 4c 3c f2 08 3c 3a 1f 21 ba 3c db e0 a6 bc
       0.012487905 0.0007172964 0.022720871 -0.020370891

weight f4 [1, 100]
000000 fb 56 99 bd 52 1e d7 bd f9 42 bd 3d 64 b2 80 3c
       -0.07487293 -0.1050383 0.0924129 0.015710063
000010 8f 30 8b 3b a6 51 aa bd 24 74 6d bd f4 c0 b6 3d
       0.004247732 -0.083163545 -0.05797209 0.08923522
000020 38 bf 3c bd f9 a3 e9 bc 32 95 9f 3d b2 52 1b bc
       -0.046080798 -0.028520571 0.077921286 -0.009480165
000030 da 1d d1 bd cf 59 26 3d 80 40 e5 bb 53 35 19 3d
       -0.10210772 0.040612992 -0.0069962144 0.03740437
000040 45 80 94 bd ca 16 ca ba f2 9c 24 3c b5 30 40 3d
       -0.07251028 -0.0015418169 0.010047184 0.04692145
000050 4a e0 b6 3d 4e 76 69 3d a8 8e 7a bc 44 eb d7 bd
       0.089294985 0.05699759 -0.015292801 -0.1054292
000060 2a 7b 0f 3d e7 2a 66 bc 3d af 90 bd 01 2f 8a bd
       0.035029568 -0.014048315 -0.07064674 -0.067472465
000070 1f 25 9a 3d fe 9d 87 3c a2 b7 c0 bd 92 80 a0 bd
       0.075266115 0.016554829 -0.09410025 -0.07837023
000080 03 af 9a bb 43 95 11 bc 2b 14 47 3d a4 b0 9f 3d
       -0.00472057 -0.008885684 0.048603218 0.077973634
000090 c8 b4 cc bd 71 f7 3b 3d 25 1d 20 bd cc a8 21 bd
       -0.09995419 0.045890275 -0.039090294 -0.039467618
0000a0 74 b6 69 3d cf 37 87 3d e7 67 94 bd ef 11 05 bd
       0.057058766 0.066024415 -0.0724638 -0.032487806
0000b0 1e 67 89 bc 98 df 60 3d bd 03 44 3d 20 84 a2 3d
       -0.016772803 0.054900736 0.047855128 0.07935357
0000c0 0d fb 7f bc a4 65 0c bd a6 9e c6 3b aa ce d6 bd
       -0.01562382 -0.03427662 0.006061393 -0.10488637
0000d0 eb 5e 44 3d 8d 7b bc bd fb 19 4a bd 23 32 bb 3d
       0.047942083 -0.09203253 -0.049341183 0.09140422
0000e0 25 a7 36 bc b5 f5 d7 bd 42 8c a4 3d ba 79 9f 3d
       -0.011148249 -0.10544912 0.080345646 0.077868894
0000f0 ff 39 1c 3d fd cc 76 bb d5 bc 8c bb e3 ea ec 3c
       0.038141247 -0.0037658804 -0.0042949715 0.028920596
000100 fc 3f 80 3d c8 f8 92 3d e1 37 08 bd 3c 69 f9 bb
       0.06262204 0.071763575 -0.033256415 -0.007611422
000110 72 45 56 3d c0 d0 6d bc cc 41 ba bd 20 06 af bd
       0.052312322 -0.014515102 -0.09094581 -0.0854609
000120 5f d6 b5 bd 82 f3 3b bd 8e f0 28 3d 00 ed bd bc
       -0.08878779 -0.045886524 0.041245036 -0.0231843
000130 98 98 9b bd 02 83 b1 3d 6d 27 94 3d 96 ca e9 3c
       -0.07597464 0.08667566 0.07234082 0.028538983
000140 38 e9 c5 bd bb fd a8 bd 98 75 0d 3d 4f 39 00 bc
       -0.096636236 -0.0825152 0.034535974 -0.007826163
000150 b5 76 a9 bd 2c 2e c6 bd 55 3a ad bc 15 6f b6 3d
       -0.08274595 -0.09676775 -0.021145979 0.08907906
000160 a1 ce d5 bc de bf 59 3d 3d 26 9f 3d d8 17 6c bc
       -0.026099505 0.053161494 0.07770965 -0.014409982
000170 91 d5 09 3d 07 4e 9a bc f6 ad 5a bc bc 43 68 3d
       0.03365094 -0.018836034 -0.01334714 0.05670522
000180 72 a1 b8 3c 5a 17 90 3d f9 b9 21 bd e8 46 bc 3c
       0.02253792 0.07035704 -0.039483998 0.02298303
