sticky_mittens_bottom_up/models/gold_50/critic_gold_network.pkl (torch, 637971 bytes, 3 tensors)

weight f4 [100, 1586]
0	0x3c07495a	0.0082572345
1	0xbc98fbf8	-0.018674836
2	0x3c9141eb	0.017731627
3	0x3af5aeb1	0.0018744079
4	0xbcc07802	-0.023494724
5	0x3cfd907e	0.030952688
6	0x3ca422a6	0.020036053
7	0xbb87b5d4	-0.0041415486
8	0x3c49b8b6	0.012312105
9	0xbc920b70	-0.01782772
10	0x3b1a0c28	0.002350578
11	0xbc919eb3	-0.017775869
12	0xbbb7855f	-0.005600616
13	0xbc9efe52	-0.019408379
14	0xba02ee91	-0.00049946556
15	0x3c364bf8	0.011126511
16	0xbc8460ff	-0.016159533
17	0xbc56b76c	-0.013105255
18	0x3c98b915	0.018642941
19	0x3cc9c49a	0.02462988
20	0xbcad6e90	-0.021170884
21	0xbc1fa7cb	-0.009744595
22	0x3c0e832d	0.008698267
23	0xbc015f20	-0.007896215
24	0xbc71a810	-0.014749542
25	0xbb10fe26	-0.002212414
26	0xbc5ad035	-0.0133553045
27	0xbc9725e5	-0.018450687
28	0x3c770eb6	0.015079191
29	0xbae12537	-0.0017177229
30	0x3c9685fd	0.018374437
31	0x3c460242	0.012085499
32	0xbc7d911f	-0.015476494
33	0xb9fd2f94	-0.0004829137
34	0x3c7464be	0.014916597
35	0xbc91a60d	-0.017779374
36	0xbb66cbb4	-0.0035216631
37	0x3c8cbd7d	0.017180199
38	0x3a91eddc	0.001113351
39	0xbc9970b0	-0.018730491
40	0xbbfe2c0b	-0.007756715
41	0x3c9b7b52	0.018979702
42	0x3cb742ec	0.022370778
43	0xbbf0a5f1	-0.0073440005
44	0xbc89c9d3	-0.01681987
45	0x3c9b216c	0.018936835
46	0x3ad3ece0	0.0016168617
47	0x3be7e9a9	0.007077415
48	0x3c85f3c3	0.016351586
49	0x3cc59409	0.02411844
50	0x3cba200c	0.02272036
51	0x3cc65972	0.024212573
52	0xbc114289	-0.008865961
53	0xbb5bfb45	-0.0033566516
54	0x3cbbeefa	0.022941101
55	0xbcc76d5b	-0.024344137
56	0xbc3bf57a	-0.0114721
57	0x3c722967	0.014780379
58	0xbc94f5d4	-0.018183626
59	0x3c461227	0.012089289
60	0xbcc8205c	-0.024429493
61	0x3cafecc9	0.021475213
62	0xbc586c26	-0.013209378
63	0xbbf80cd6	-0.0075698895
64	0x3c987db3	0.018614626
65	0x3cabee0c	0.020987533
66	0xba83f415	-0.0010067249
67	0x3c71c624	0.014756713
68	0xbb77a77b	-0.0037789035
69	0x3c71d3aa	0.014759937
70	0x3cb52003	0.022109991
71	0x3c42c5f1	0.011888013
72	0xbc55bd7d	-0.013045666
73	0x3cabb75a	0.020961452
74	0x3cc4a641	0.024005057
75	0x3b9b192b	0.004733225
76	0xbcbfda93	-0.023419654
77	0xbbf59a1a	-0.007495177
78	0x3b4d413d	0.0031319403
79	0x3be14d37	0.00687566
80	0x3ca02c2d	0.019552315
81	0x3aae4cf2	0.0013298078
82	0xbbd0dcf1	-0.0063739945
83	0xbb0bbb58	-0.0021321382
84	0xbc14042b	-0.009034197
85	0xbb5db427	-0.0033829303
86	0xb9ac914d	-0.00032914654
87	0xbcc6a54a	-0.024248738
88	0x3b176e7a	0.002310662
89	0x3c9d895a	0.019230533
90	0x3c4aca09	0.0123772705
91	0xbc46b7b4	-0.012128759
92	0x3b787029	0.003790865
93	0x3cb26729	0.021777706
94	0x3cbe9063	0.023262208
95	0x3cb425d8	0.021990702
96	0x3ce25cb2	0.027632091
97	0x3a82418a	0.0009937745
98	0x3ca85b87	0.020551456
99	0x3c87ba89	0.01656844
100	0x3c996335	0.018724063
101	0xbc933ba1	-0.01797277
102	0x3b19034c	0.0023347912
103	0xbbae1b2d	-0.005313298
104	0xbc9fcc2a	-0.019506533
105	0x3ccd5697	0.025065703
106	0xbbe22b31	-0.0069021215
107	0x3b7db4a0	0.0038712397
108	0xba25a88b	-0.00063193653
109	0x3a6f5f49	0.0009131325
110	0x3c8a4fcd	0.016883755
111	0x3ccb9070	0.024849147
112	0x3c8bb596	0.01705436
113	0xbc9eb904	-0.019375332
114	0xbc9c5ab3	-0.019086218
115	0x3c76e1f4	0.01506852
116	0x3bbe249a	0.005802703
117	0xbc9976ff	-0.0187335
118	0x3c75b3ee	0.014996512
119	0xbc01a45b	-0.007912721
120	0xbc9fabe0	-0.019491136
121	0xbc2bcf2c	-0.010486405
122	0xbc1a3696	-0.009412428
123	0xbcbb2b58	-0.022847816
124	0x3c3a486b	0.011369805
125	0x3c37df15	0.0112226205
126	0xbc986549	-0.018602984
127	0xbbbbe4c6	-0.005734059
128	0x3c92f5aa	0.017939407
129	0xbc42c029	-0.011886635
130	0x3c7a142a	0.015263597
131	0xbbe4e3bd	-0.0069851563
132	0x3c4ee840	0.012628615
133	0xbb86772f	-0.0041035633
134	0x3cdef66a	0.027217109
135	0x3cb978d9	0.022640632
136	0xbc90708f	-0.017631797
137	0x3bf17972	0.0073692137
138	0xbc120a63	-0.008913609
139	0xbb9b3aca	-0.004737233
140	0xbc2175d5	-0.0098547535
141	0x3b02dd24	0.0019968236
142	0xbb850273	-0.00405913
143	0xbca7b2cf	-0.020471005
144	0xbc9e0c44	-0.019292958
145	0xbcccb1a9	-0.024987059
146	0x3cc0f5cc	0.023554705
147	0x3cbaec7a	0.022817839
148	0xbcab7fa6	-0.020934891
149	0xbcc01548	-0.023447648
150	0xbc5f419f	-0.013626485
151	0xbc78ec82	-0.015193107
152	0xbcc0572d	-0.023479069
153	0x3c55bedf	0.0130459955
154	0xbb7488ae	-0.0037312913
155	0xbc564d6c	-0.013079982
156	0xbb7d8d06	-0.0038688793
157	0x3c945b04	0.018109806
158	0x3b846b7a	0.0040411325
159	0x3c7bf26a	0.01537762
160	0x3b6ffb41	0.0036618265
161	0xbca54104	-0.020172603
162	0x3c8579cd	0.01629343
163	0x3ce6cbae	0.028173294
164	0xbc0528d2	-0.008127408
165	0x3cc9d5c1	0.024638059
166	0xbca43dbf	-0.020048974
167	0xbb9c804a	-0.0047760354
168	0xbc8b8061	-0.01702899
169	0x3c36736b	0.011135916
170	0x3c9d1921	0.019177021
171	0x3c14d728	0.0090845
172	0x3c08e529	0.008355417
173	0x3cb03103	0.021507746
174	0x3bf1d6ba	0.0073803337
175	0x3c984eb7	0.018592222
176	0xbcb4d630	-0.022074789
177	0xbbda7273	-0.0066664754
178	0x3c8cb486	0.017175924
179	0x3cab6e29	0.020926552
180	0x393b4ca3	0.00017862259
181	0x3c6e8875	0.014558901
182	0xbbba21a6	-0.0056802807
183	0xbca4588f	-0.02006176
184	0xbc048f4b	-0.008090804
185	0xbbdeef4f	-0.00680343
186	0xbc0ddca2	-0.00865856
187	0xbc6a55b5	-0.014302661
188	0x3cf077c4	0.029353984
189	0x3ca17971	0.019711228
190	0x3c0697bd	0.008214888
191	0x3bbf805c	0.005844159
192	0xbc7d5676	-0.015462508
193	0xbc6e39e9	-0.014540174
194	0xbc78fb68	-0.015196659
195	0x3bfef198	0.007780265
196	0x3c8daf9a	0.017295647
197	0x3cca2f66	0.024680804
198	0x3cbfd90e	0.02341893
199	0xbb75f8a4	-0.0037532235
200	0xbc91aab8	-0.0177816
201	0xbc077832	-0.008268403
202	0xba08273a	-0.00051938335
203	0xbc819333	-0.01581726
204	0xbca5a20c	-0.020218872
205	0xbb728511	-0.0037005583
206	0xbc8dbc6e	-0.017301764
207	0xbcb323e4	-0.0218677
208	0xbccd7db9	-0.025084363
209	0x3ca1825d	0.019715482
210	0xbcb8d9d5	-0.022564808
211	0xbb5e7418	-0.003394371
212	0x3c9ebac6	0.01937617
213	0xbc053309	-0.0081298435
214	0x3ca68f39	0.020331966
215	0xbc4cc259	-0.012497508
216	0xbc7a12b5	-0.015263249
217	0xbc81956c	-0.01581832
218	0x3c07e462	0.008294197
219	0x3c1d859d	0.009614375
220	0x3cb5dfc3	0.022201424
221	0x3cf051a8	0.029335812
222	0xbc0c6355	-0.0085686045
223	0xbb0d6f27	-0.0021581145
224	0x3b858338	0.0040744804
225	0xbc2b882d	-0.010469479
226	0x3cdf4dc6	0.027258765
227	0xbc8becbe	-0.01708066
228	0xbcc57c09	-0.024106996
229	0xbc49ea81	-0.0123239765
230	0xbba07184	-0.0048963446
231	0x3c4f82f6	0.012665501
232	0xbbe763ad	-0.007061443
233	0xbbf57d6d	-0.0074917586
234	0xbbd01cac	-0.006351074
235	0x3c373e4c	0.011184286
236	0x3b2bc6ea	0.0026211091
237	0xbcc8f1fa	-0.024529446
238	0x3c43e06d	0.011955363
239	0xbcae1d58	-0.021254227
240	0xbbd4e8d5	-0.0064974823
241	0x3b42787c	0.0029673865
242	0x3b2f5264	0.002675199
243	0x3b867f85	0.004104557
244	0x3bfe4e59	0.0077608046
245	0x3cae4ca2	0.021276776
246	0xbc3bbddf	-0.011458843
247	0xbc8664e0	-0.016405523
248	0x3cc9d5ca	0.024638075
249	0xbb772f32	-0.003771734
250	0x3c91d183	0.017800098
251	0x3c804737	0.015658958
252	0xbc2b361a	-0.010449911
253	0xbc2ad9cc	-0.010427903
254	0xbb2afb85	-0.0026089859
255	0xbc8969bf	-0.016774056

bias f4 [100]
0	0xbc3bc62e	-0.011460824
1	0xbc790435	-0.015198757
2	0xbcdc02ef	-0.026856868
3	0xbca4a93f	-0.020100234
4	0xbb331ed4	-0.0027331607
5	0xbb3bf8c6	-0.0028682216
6	0xbc58dfdc	-0.013236966
7	0x399e484a	0.00030189968
8	0xbc154985	-0.009111767
9	0x3c18bc5b	0.009322251
10	0x3bb762e9	0.005596508
11	0xbc5f73c4	-0.0136384405
12	0x3c23411d	0.009964255
13	0xbc65bb14	-0.014021654
14	0x3bb06c20	0.0053839833
15	0xbc4c7eda	-0.012481416
16	0x3bab7687	0.0052326354
17	0x3a16963d	0.0005744433
18	0xbc34327c	-0.010998365
19	0xbb808da9	-0.003923137
20	0x3bd9560d	0.0066325725
21	0x3cd64b66	0.026159
22	0x3c4643db	0.012101139
23	0xbac2a140	-0.0014849082
24	0x3c073abc	0.008253749
25	0x3c9670e8	0.018364385
26	0xbc934ffd	-0.017982477
27	0xbc090a7b	-0.008364315
28	0xbc95d269	-0.018288808
29	0xbcd41064	-0.025886722
30	0x3c10e685	0.008844023
31	0xbc8104e2	-0.015749399
32	0xbcd232bc	-0.025658958
33	0x3cf3094a	0.029667515
34	0xbc2a5a5c	-0.01039752
35	0xbcf048dc	-0.029331617
36	0x3cef7f0f	0.029235391
37	0xbcaa322a	-0.020775873
38	0xbc5273dc	-0.012845006
39	0x3c10c4ab	0.008835952
40	0x3b60dffb	0.003431319
41	0xbb9e6da9	-0.00483485
42	0xbc5b7e73	-0.013396847
43	0x3b3019be	0.0026870812
44	0x3bd35fdf	0.0064506377
45	0xbc91b45f	-0.017786203
46	0xbbb1001e	-0.0054016253
47	0x3c91eb5d	0.017812425
48	0x3c0512ac	0.0081221275
49	0xbc836bd8	-0.016042635
50	0xbc5fc535	-0.013657858
51	0xbc9462f9	-0.0181136
52	0x3bf5f964	0.0075065363
53	0xbc484e0c	-0.012225639
54	0xbc88f723	-0.016719406
55	0x3cc34c36	0.023840051
56	0x3acedddc	0.0015782672
57	0xbc60d807	-0.01372338
58	0x3c61f945	0.013792341
59	0xbc91aa69	-0.017781453
60	0xbce10684	-0.027468927
61	0x3c78e119	0.015190386
62	0xbbc393cb	-0.005968546
63	0x3cd79231	0.026314827
64	0xbc7b3130	-0.015331551
65	0x3cea971f	0.028636513
66	0xbc4b31e1	-0.012402029
67	0x3cd357e4	0.025798745
68	0xbce1650b	-0.027514001
69	0xbc7d8e95	-0.015475889
70	0xbc65e670	-0.014031991
71	0xbbfd8437	-0.0077367085
72	0xbc32cfcb	-0.0109137995
73	0xbce36ee0	-0.02776283
74	0xbc0bfe69	-0.008544543
75	0xbcca2f62	-0.024680797
76	0xbc8f3a5c	-0.017483883
77	0xbc508dd0	-0.012729123
78	0xbcd5c131	-0.026093097
79	0x3c819c1c	0.015821509
80	0xbceaef67	-0.028678609
81	0x3cbc96fe	0.023021217
82	0xbc222b5f	-0.009898036
83	0xbc92498f	-0.017857341
84	0xbcce106f	-0.02515432
85	0xbc912bf1	-0.017721148
86	0x3bc05f62	0.0058707455
87	0x3c9ed7cd	0.019390011
88	0xbc9c6ab4	-0.019093849
89	0x3bde0ac5	0.006776186
90	0x3c3750bf	0.011188685
91	0xbb9f9cb1	-0.004870974
92	0xbce17239	-0.027520286
93	0xbc858691	-0.016299518
94	0xbbcee4d4	-0.0063138995
95	0x3bd74939	0.006570008
96	0xbc6daa8e	-0.014505995
97	0xbc8201a4	-0.015869923
98	0xbc9544ed	-0.018221343
99	0xbca2f6f1	-0.019893141

weight f4 [1, 100]
0	0xbdb1c1b0	-0.08679521
1	0x3d2ba5d6	0.0419062
2	0x3bb337dc	0.0054693054
3	0x3daf1787	0.08549409
4	0x3d73cbf4	0.059520677
5	0x3d3ba1f7	0.04580876
6	0xbdc5b6d1	-0.0965401
7	0x3db72dd1	0.08944286
8	0xbd90b3c9	-0.07065541
9	0xbda5ac45	-0.080894984
10	0xbdcfdb25	-0.101492204
11	0xbd582ff8	-0.05278012
12	0xbda308b5	-0.07960645
13	0x3dbaabdd	0.091148116
14	0xbdafe478	-0.08588499
15	0xbd857cb5	-0.065179266
16	0x3d25386a	0.040337004
17	0x3da19e2f	0.07891499
18	0xbdae16c3	-0.08500435
19	0x3d729a20	0.059229016
20	0x3d762bf5	0.060100514
21	0xbd30ce99	-0.043165777
22	0xbd8a11bc	-0.06741664
23	0x3db7d9d5	0.08977095
24	0xbc6df38c	-0.014523398
25	0xbd4724bc	-0.048619017
26	0xbc7854fd	-0.015156982
27	0xbce7e9d5	-0.028309742
28	0x3cc5f687	0.024165405
29	0x3c6f7d66	0.0146173
30	0xbd20800e	-0.039184622
31	0xbd970b01	-0.07375146
32	0x3d52872e	0.05139845
33	0xbda7e60a	-0.08198173
34	0xbd534123	-0.05157579
35	0x3cedd6fe	0.02903318
36	0xbd3fa45c	-0.046787605
37	0x3bc45979	0.0059921113
38	0x3b9ad9ab	0.004725655
39	0xbcc14a7b	-0.023595085
40	0x3c12d3fb	0.008961673
41	0x3c18278f	0.009286775
42	0xbdac9c3b	-0.08428236
43	0x3da5a97b	0.080889665
44	0xbd34013b	-0.043946486
45	0xbd43a800	-0.04776764
46	0xbdac82ce	-0.084233865
47	0xbcc259f1	-0.023724528
48	0x3daa3645	0.08311132
49	0x3cf93b00	0.030423641
50	0xbd81e64a	-0.06342752
51	0x3d190021	0.03735364
52	0x3cf81d9b	0.030287554
53	0x3b33a787	0.0027413087
54	0xbdca1f0c	-0.09869203
55	0xbdaf3771	-0.085554965
56	0xbdbaf6ab	-0.091290794
57	0x3d9a86fa	0.07545276
58	0xbb6d521f	-0.0036212278
59	0x3c8e2305	0.017350683
60	0x3d6ec2b4	0.058291152
61	0x3d70401d	0.058654893
62	0xbca563ec	-0.020189248
63	0xbda713cf	-0.08158075
64	0x3daa2f5e	0.08309816
65	0xbd30cdfd	-0.043165196
66	0x3cf09b9d	0.029371077
67	0xbda246aa	-0.07923634
68	0x3c6b7593	0.014371294
69	0xbdb7c0cd	-0.08972321
70	0x3c72e005	0.014823918
71	0xbd18664e	-0.03720694
72	0xbcfa29f7	-0.030537589
73	0x3d65e9ef	0.0561313
74	0xbc33ed0e	-0.010981811
75	0x3d952c80	0.07283878
76	0x3d9d14d6	0.0766999
77	0x3db55133	0.08853378
78	0x3c63feb0	0.013915703
79	0xbd7aaf1d	-0.061202157
80	0x3d9ae479	0.07563109
81	0xbd8c3ec6	-0.068479106
82	0x3ad07dc8	0.0015906626
83	0x3ca98fe8	0.020698503
84	0x3d9b53b3	0.07584324
85	0xbdc8e14a	-0.098085955
86	0x3d5f41c8	0.054506093
87	0xbd992842	-0.07478382
88	0x3d860fad	0.06545959
89	0x3d5a0e0a	0.053236045
90	0xbdb71ffd	-0.08941648
91	0x3d32a818	0.043617338
92	0x3d508434	0.05090733
93	0xbcdaf62f	-0.026728718
94	0x3d84259f	0.06452488
95	0x3d80f51b	0.0629675
96	0xbc2fd1ea	-0.0107312
97	0x3da8361b	0.08213445
98	0xbce71a37	-0.028210742
99	0x3c4f5e83	0.012656811
