fetch_sticky_mittens_step_4_blocks/networks/ours_10k_block_4_uber_level_0_seed_250/network_pick_n_reach_goal_3.pth (torch, 622647 bytes, 8 tensors)

fc1.weight f4 [256, 85]
-0.06770606 -0.10758305 -0.005933916 0.08353559 -0.09984256 -0.077119954 0.024946308 -0.025980415
0.0024610306 0.07984972 -0.07297437 -0.07689841 0.07563699 0.0276411 0.081751555 -0.05048834
0.06742031 -0.106043406 -0.0927885 -0.02873669 0.03517312 0.09580602 -0.0997457 0.0016431395
-0.08879906 -0.090983786 -0.03789543 -0.0830488 -0.024587473 -0.0759725 -0.028961971 0.04928203
0.06277684 -0.059190895 0.014585693 0.037659507 -0.052016042 -0.054615293 0.07053943 0.026315045
-0.08602667 -0.040781252 0.08648292 0.014714877 0.0973158 -0.05916788 0.042469777 0.052714173
-0.024525201 -0.039797712 -0.017607616 0.07067567 -0.0737969 -0.046071444 0.00068958616 0.020203158
-0.097820334 -0.031751245 0.10645878 -0.07914404 0.026608493 0.09700718 -0.021594705 -0.062854305
-0.10588215 0.03226864 -0.049451195 -0.06672105 -0.033664804 0.10325621 -0.00043476044 -0.022884298
-0.057298232 0.05826029 -0.037806742 0.08669186 -0.04687452 -0.042201206 -0.08621946 -0.078209765
0.03760758 -0.0762536 -0.058315866 0.08720663 0.02788659 0.10793639 -0.025957322 -0.055378348
0.09052664 0.044691056 -0.081248455 0.05396291 -0.026698189 -0.0024592334 0.0220448 -0.09983166
-0.06914121 0.04575974 -0.031650312 -0.032061294 0.01763371 -0.09647102 -0.091824315 0.030064996
0.028362235 -0.065395035 -0.069919616 0.035144415 0.063712925 0.03135376 0.055920325 -0.018281622
0.0091602905 0.08272044 0.076819 -0.08558358 -0.077416696 0.042076264 -0.003852745 0.00963547
0.078053854 0.07197799 -0.089265 0.0873854 0.03575699 -0.10482484 -0.10428833 0.046238035
-0.03563991 -0.008259246 0.020380056 -0.03323489 0.04004928 -0.04621772 0.072870255 0.062415846
-0.04818842 -0.098157294 0.07016518 0.005583757 -0.09754362 -0.023391725 -0.050843958 0.01496029
0.049937326 -0.09471482 0.046188112 0.097144894 0.085895486 -0.07949711 0.07188448 0.0027423243
-0.026089221 0.0034213336 0.10094636 -0.06343486 0.034775533 0.018437546 0.07520372 -0.10055433
-0.06839036 0.09601882 0.04761823 -0.060736865 0.09639134 -0.009433502 -0.08814782 0.016799217
0.0049277893 -0.08159313 0.055067796 -0.07382205 0.013991298 -0.021351479 0.08913842 0.047835093
-0.035294082 0.047831263 0.01536495 0.032333873 -0.002191581 0.077875756 -0.09276852 0.073274076
0.001160874 0.052991174 -0.011482168 -0.09710811 0.02954412 -0.009389876 0.07216616 -0.097418174
-0.053696457 -0.0048571005 -0.00027755674 0.06403869 -0.094825916 0.012736733 -0.063632526 0.09202372
-0.019434841 -0.029411886 -0.008854288 -0.09036107 -0.07864549 -0.097593054 0.09985999 0.021914117
0.011136302 0.10845266 0.04732279 0.05350248 -0.08764099 0.07616487 -0.042385396 -0.06382082
0.07924271 -0.085622296 -0.029243575 -0.076294236 -0.09017754 -0.0017019713 0.005546273 -0.085465066
-0.096316546 -0.05158358 -0.013363608 -0.07322893 0.10623921 -0.06361869 0.07937074 -0.027453912
-0.04404798 0.037724495 0.008951418 0.043642778 -0.0682844 0.07526384 -0.015064351 -0.016945766
0.017115641 -0.06098958 0.03311984 0.041831534 0.027799236 -0.082904965 -0.015625775 0.05992011
-0.09002912 0.015277025 0.08273507 0.07342053 -0.095992476 -0.08035444 0.07991435 -0.08332985
00000000: 7aa9 8abd 8154 dcbd 4c71 c2bb b514 ab3d
00000010: 427a ccbd 11f1 9dbd 335c cc3c e1d4 d4bc
00000020: 3e49 213b 4088 a33d 9673 95bd ea7c 9dbd
00000030: 91e7 9a3d 976f e23c 5c6d a73d ddcc 4ebd
00000040: a913 8a3d 492d d9bd e607 bebd 3569 ebbc
00000050: b111 103d f235 c43d 7947 ccbd 9d5e d73a
00000060: 48dc b5bd b555 babd 3d38 1bbd 7d15 aabd
00000070: ab6b c9bc 7897 9bbd a841 edbc f4db 493d
00000080: 2591 803d 2772 72bd d5f8 6e3c db40 1a3d
00000090: c60e 55bd 49b4 5fbd fa76 903d a692 d73c
000000a0: c02e b0bd 3e0a 27bd f51d b13d ab16 713c
000000b0: 824d c73d 055a 72bd caf4 2d3d d1ea 573d
000000c0: 13e9 c8bc ed02 23bd d93d 90bc 68be 903d
000000d0: d422 97bd 69b5 3cbd 58c5 343a 1881 a53c
000000e0: 0756 c8bd 980d 02bd 1007 da3d 4516 a2bd
000000f0: 0efa d93c b3ab c63d 61e7 b0bc c2b9 80bd
00000100: bed8 d8bd 1f2c 043d 568d 4abd 0ca5 88bd
00000110: 1be4 09bd fe77 d33d 8ff0 e3b9 da77 bbbc
00000120: 8db1 6abd 58a2 6e3d 3edb 1abd 808b b13d
00000130: 7fff 3fbd 2cdb 2cbd d493 b0bd 712c a0bd
00000140: 680a 1a3d d92a 9cbd 9edc 6ebd 6499 b23d
00000150: 6b72 e43c c10d dd3d 73a4 d4bc 68d4 62bd
00000160: 0866 b93d f80d 373d 9765 a6bd 3608 5d3d
00000170: 29b6 dabc 172b 21bb 4c97 b43c 8b74 ccbd
00000180: e899 8dbd 916e 3b3d c2a3 01bd b452 03bd
00000190: 9274 903c 9992 c5bd 630e bcbd de4a f63c
000001a0: eb57 e83c d5ed 85bd 0432 8fbd 97f3 0f3d
000001b0: ec7b 823d cd6c 003d b60c 653d 57c3 95bc
000001c0: 0b15 163c 5669 a93d 4853 9d3d 7246 afbd
000001d0: a58c 9ebd 2958 2c3d 567e 7cbb 17de 1d3c
000001e0: b3da 9f3d 3269 933d 91d0 b6bd 1ef7 b23d
000001f0: ec75 123d 68ae d6bd 1f95 d5bd 1864 3d3d
00000200: 27fb 11bd ca51 07bc 13f4 a63c 4f21 08bd
00000210: b70a 243d cb4e 3dbd 003d 953d c2a7 7f3d
00000220: 3861 45bd b106 c9bd c3b2 8f3d f3f7 b63b
00000230: f3c4 c7bd 01a0 bfbc c141 50bd 011c 753c
00000240: 158b 4c3d d8f9 c1bd bf2f 3d3d e7f3 c63d
00000250: f9e9 af3d 61cf a2bd 2c38 933d 91b8 333b
00000260: 10b9 d5bc 7438 603b f7bc ce3d 23ea 81bd
00000270: ca70 0e3d 560a 973c 6804 9a3d 6eef cdbd
00000280: 3f10 8cbd 84a5 c43d 550b 433d 38c7 78bd
00000290: d368 c53d fa8e 1abc d886 b4bd 839e 893c
000002a0: 4b79 a13b 4d1a a7bd c58e 613d 0430 97bd
000002b0: c23b 653c 4ce9 aebc 348e b63d bbee 433d
000002c0: 8790 10bd b7ea 433d 45bd 7b3c 8670 043d
000002d0: a1a0 0fbb 537d 9f3d 6cfd bdbd b810 963d
000002e0: 7828 983a 460d 593d b41f 3cbc 9ee0 c6bd
000002f0: 8306 f23c ffd7 19bc dacb 933d 2e83 c7bd
00000300: d1f0 5bbd 5028 9fbb 0985 91b9 b726 833d
00000310: 1734 c2bd bbad 503c c551 82bd ef76 bc3d
00000320: d135 9fbc 32f1 f0bc 9311 11bc 3a0f b9bd
00000330: e310 a1bd dede c7bd 6583 cc3d 3c85 b33c
00000340: 0975 363c 6e1c de3d 8bd5 413d 6b25 5b3d
00000350: 1f7d b3bd 54fc 9b3d 4f9c 2dbd 7db4 82bd
00000360: 004a a23d be5a afbd 3990 efbc 2740 9cbd
00000370: 01af b8bd ae14 dfba 83bd b53b 4f08 afbd
00000380: 9c41 c5bd 4e49 53bd 09f3 5abc 0df9 95bd
00000390: f193 d93d 844a 82bd 208d a23d 07e7 e0bc
000003a0: a86b 34bd 0085 1a3d f8a8 123c c5c2 323d
000003b0: b1d8 8bbd ee23 9a3d 78d0 76bc d9d1 8abc
000003c0: 1a36 8c3c 36d0 79bd aba8 073d 8b57 2b3d
000003d0: 39bb e33c 14ca a9bd a001 80bc ca6e 753d
000003e0: 3061 b8bd 7d4c 7a3c 0171 a93d 815d 963d
000003f0: b497 c4bd de90 a4bd 22aa a33d d7a8 aabd

fc1.bias f4 [256]
0.09306411 0.093354344 -0.0687461 0.011654668 -0.0107533 -0.103880025 0.0044875983 -0.046051223
0.083882324 -0.07448002 -0.022159815 -0.058377955 0.08359614 0.0063302615 0.075224675 -0.08766354
0.104875654 -0.09080259 0.0609919 -0.012063943 -0.07714392 0.08822574 -0.020689666 -0.03623512
-0.06878133 0.022896517 -0.02647755 -0.015182247 -0.035898354 -0.03358314 -0.037320726 -0.024500854
-0.062479127 0.046915144 -0.040148363 0.023380851 0.009306581 0.034887314 -0.07895284 0.086444154
0.045774635 0.04275844 0.020109532 0.100864604 -0.06542752 0.0827058 0.042917646 0.09085681
-0.035843365 -0.08922208 0.08958398 -0.09926963 -0.04054065 -0.032042418 -0.06535975 0.07098158
-0.032694504 -0.06548948 -0.08814437 -0.045024484 0.09499426 0.059654772 -0.00039234984 -0.026752431
0.10358116 0.063617684 0.038218137 0.06755537 -0.036947668 -0.07916491 -0.080568284 -0.09176772
0.01976474 -0.0028676037 0.06570736 0.05154408 0.06898247 -0.050907403 0.10727375 0.09372015
0.10239361 0.074090816 -0.0067767752 -0.105433755 -0.055190463 -0.035920117 -0.048655313 0.080702536
-0.028356701 0.09467482 -0.035688087 -0.0073541417 -0.09943637 -0.024551617 0.038683478 0.04682537
0.035583843 -0.08473692 -0.10553371 0.103852496 0.07808146 0.042887557 0.062915824 0.07408837
0.10413835 -0.0646679 -0.08294704 -0.10787487 -0.027714737 0.06569796 0.0648055 0.014173522
0.007234422 0.04065852 -0.0025540884 0.051561832 -0.0004614869 0.029405719 -0.05930834 0.070833616
-0.017383331 -0.021674212 0.08905046 0.07437801 -0.081115365 -0.058029633 -0.010913051 0.04431262
0.08644169 0.05930856 -0.08481753 0.05384232 -0.10142585 -0.05630948 -0.09566685 0.08754991
0.059606723 0.05188568 -0.044451606 -0.06637476 -0.021786937 -0.018858096 -0.036032636 0.07643286
0.050356027 -0.09298137 0.10738484 0.062793 -0.010397723 -0.00085315143 -0.026698291 -0.083389044
0.049061727 -0.031518504 -0.09456407 0.052647054 0.04610412 -0.0872063 0.05331364 -0.06986863
-0.013028332 0.04844768 0.016937064 -0.019402103 0.026789902 -0.10336273 0.026391022 0.058381278
-0.038760956 0.10078167 0.06544809 -0.08521552 -0.04465939 -0.030512493 0.07570508 0.021203468
-0.059578203 -0.08612331 -0.0030364315 -0.0050362726 0.07278542 0.0628574 0.0014634504 -0.057323743
-0.097582646 -0.09336209 -0.045921467 -0.080736816 0.09586548 -0.059494235 0.034088727 -0.056502838
-0.10247686 0.07653933 -0.04719327 0.06315723 -0.011336149 -0.008529251 -0.10750712 0.07311998
-0.07896877 0.005979081 -0.039202336 0.037895042 0.01748301 0.022342775 -0.0064798235 0.06024732
-0.062466417 0.02513965 0.080280565 -0.060392745 0.025051674 -0.10838552 -0.09874525 0.06306089
-0.07794649 -0.094967216 -0.03678227 -0.07818027 0.061981395 -0.008194053 -0.071995445 -0.0063994504
-0.09292668 -0.10664145 0.027132962 0.10096502 0.06680296 0.042929284 -0.08200207 -0.08415033
-0.0152959805 0.011208968 -0.10217486 -0.02942462 0.041185033 -0.0455984 0.10636847 0.0143655585
0.0042272513 -0.040434014 0.026714364 0.018865647 0.047570724 0.046157286 -0.007190977 -0.06888512
0.02045518 0.07429077 -0.046804268 -0.07619483 0.056720696 -0.008854106 0.039236445 -0.06516957
00000000: 6598 be3d 9030 bf3d c1ca 8cbd 38f3 3e3c
00000010: 9c2e 30bc 0dbf d4bd b40c 933b 35a0 3cbd
00000020: 7fca ab3d fb88 98bd 8088 b5bc b91d 6fbd
00000030: 7434 ab3d 156e cf3b 650f 9a3d f188 b3bd
00000040: 0cc9 d63d b5f6 b9bd a4d2 793d d8a7 45bc
00000050: a2fd 9dbd b2af b43d 607d a9bc 476b 14bd
00000060: 3add 8cbd 7a91 bb3c 72e7 d8bc f6be 78bc
00000070: 270a 13bd 798e 09bd 9edd 18bd 04b6 c8bc
00000080: 1dea 7fbd 182a 403d 9c72 24bd 3389 bf3c
00000090: a17a 183c 00e6 0e3d 07b2 a1bd a209 b13d
000000a0: 2f7e 3b3d 7923 2f3d bfbc a43c 1a92 ce3d
000000b0: ddfe 85bd a961 a93d 6aca 2f3d 2313 ba3d
000000c0: 7ed0 12bd 11ba b6bd ce77 b73d e04d cbbd
000000d0: f40d 26bd e93e 03bd 55db 85bd ca5e 913d
000000e0: acea 05bd 591f 86bd 0985 b4bd 986b 38bd
000000f0: 5a8c c23d 9058 743d 4eb4 cdb9 ea27 dbbc
00000100: 5c22 d43d fd49 823d 9f8a 1c3d 785a 8a3d
00000110: 7056 17bd 3621 a2bd fc00 a5bd b7f0 bbbd
00000120: aae9 a13c 68ee 3bbb 9591 863d e31f 533d
00000130: ae46 8d3d 4884 50bd 57b2 db3d 5af0 bf3d
00000140: beb3 d13d edbc 973d b60f debb a7ed d7bd
00000150: 650f 62bd f920 13bd cb4a 47bd 5f47 a53d
00000160: 504c e8bc dfe4 c13d ac2d 12bd 03fb f0bb
00000170: 4ca5 cbbd 7920 c9bc 9172 1e3d f6cb 3f3d
00000180: 5dc0 113d 8d8a adbd 0f22 d8bd 9eb0 d43d
00000190: 2ce9 9f3d ddaa 2f3d 03da 803d a5bb 973d
000001a0: 7d46 d53d 9b70 84bd 23e0 a9bd 80ed dcbd
000001b0: 040a e3bc a78c 863d bfb8 843d 0f38 683c
000001c0: bb0e ed3b 8c89 263d 7e62 27bb 8032 533d
000001d0: b9f3 f1b9 43e4 f03c 4ded 72bd 3711 913d
000001e0: 7d67 8ebc 1e8e b1bc 1660 b63d 8053 983d
000001f0: d01f a6bd 7bb0 6dbd a7cc 32bc 2681 353d
00000200: 5708 b13d 88ed 723d d0b4 adbd c489 5c3d
00000210: 5bb8 cfbd c5a4 66bd fbec c3bd 5e4d b33d
00000220: 2e26 743d 1486 543d e312 36bd 7def 87bd
00000230: 857a b2bc 4b7c 9abc f596 13bd d588 9c3d
00000240: 1f42 4e3d 046d bebd 95ec db3d 9e99 803d
00000250: 365b 2abc 06a6 5fba 60b6 dabc e0c7 aabd
00000260: f3f4 483d 8c19 01bd cfaa c1bd 70a4 573d
00000270: acd7 3c3d 3799 b2bd 675f 5a3d 4917 8fbd
00000280: c974 55bc 1371 463d 99bf 8a3c 29f1 9ebc
00000290: 7f76 db3c d7af d3bd fc31 d83c 3521 6f3d
000002a0: cfc3 1ebd 9f66 ce3d a609 863d 7985 aebd
000002b0: c4ec 36bd 56f5 f9bc 440b 9b3d e5b2 ad3c
000002c0: 4608 74bd 6b61 b0bd defe 46bb 5107 a5bb
000002d0: 8610 953d 61bb 803d 3fd1 bf3a 4dcc 6abd
000002e0: 69d9 c7bd a034 bfbd 2618 3cbd 5859 a5bd
000002f0: 1f55 c43d 3ab0 73bd 9fa0 0b3d 856f 67bd
00000300: 63df d1bd a7c0 9c3d bb4d 41bd 9458 813d
00000310: 41bb 39bc 46be 0bbc b12c dcbd eebf 953d
00000320: 61ba a1bd 2bec c33b a192 20bd d537 1b3d
00000330: 8838 8f3c 3208 b73c b354 d4bb e5c5 763d
00000340: c9dc 7fbd abf1 cd3c 236a a43d 625e 77bd
00000350: 2b39 cd3c 3af9 ddbd f33a cabd 1126 813d
00000360: 69a2 9fbd 2c7e c2bd 01a9 16bd fa1c a0bd
00000370: 34e0 7d3d 5940 06bc 5972 93bd 7bb2 d1bb
00000380: 5850 bebd d566 dabd f245 de3c c0c6 ce3d
00000390: fecf 883d 9ed6 2f3d b4f0 a7bd 0257 acbd
000003a0: fe9b 7abc d2a5 373c 0e41 d1bd e70b f1bc
000003b0: a3b1 283d 63c5 3abd b6d7 d93d 855d 6b3c
000003c0: c184 8a3b 239e 25bd 15d8 da3c 218c 9a3c
000003d0: 85d9 423d 6c0f 3d3d 4aa2 ebbb a413 8dbd
000003e0: 9f91 a73c c225 983d d5b5 3fbd 090c 9cbd
000003f0: f653 683d d010 11bc 65b6 203d a077 85bd

fc2.weight f4 [256, 256]
-0.016026601 0.044701234 0.047331586 -0.026206136 -0.046472564 0.012002438 -0.0052546635 0.039370954
0.0032766983 0.026859835 -0.041786954 -0.05333393 0.041516744 0.035685897 -0.048610263 0.02308692
-0.058773093 0.049069993 0.011803143 -0.001588963 -0.049190924 -0.046018302 0.061250605 0.0007934496
-0.024348088 0.009458557 0.050343886 0.026851736 0.022959404 0.030157 -0.010408714 0.003773652
-0.0011105612 -0.0070509687 -0.056112394 0.04006756 0.019892216 -0.015686452 0.01066348 -0.006581858
0.053606182 0.030905858 0.010567479 0.055596128 0.008547954 0.0009690821 -0.043273717 -0.026628338
0.04810483 0.00011834502 0.035839736 0.0067584813 -0.050813958 -0.032674387 -0.01731757 -0.035271034
0.05185931 0.05257319 0.05096952 0.031751074 -0.013068251 -0.018493637 0.008017652 -0.013375081
-0.02071961 -0.030304536 0.031773947 -0.045630224 -0.02899985 -0.032385252 -0.008568652 -0.037061326
0.03167484 -0.055411123 -0.05634944 0.020036012 -0.02044873 0.05413916 -0.04941605 -0.026205897
0.0019967407 -0.061055735 -0.032413885 -0.046210267 -0.01901418 -0.02802644 0.053087108 -0.037845373
-0.014211625 0.05876244 -0.0041418895 -0.01796247 -0.027006507 -0.01113686 -0.017272957 -0.061326057
-0.032995246 0.013688907 -0.04958786 0.02666317 -0.04260966 0.05204682 -0.015180595 0.018402427
0.059872344 0.056553468 -0.04984279 -0.046859913 -0.037941903 -0.023698092 0.055191413 -0.0018933788
0.012289874 -0.016803615 -0.03186804 -0.0065150335 -0.046688855 0.0055933446 -0.0039338693 0.036233127
0.021686919 -0.039116353 0.021681756 0.015544467 -0.012977287 0.056644842 0.02000352 -0.04932625
-0.050355323 0.041740127 -0.04828015 0.024719782 -0.0125333 -0.057930954 0.052922517 -0.030548498
0.013953634 -0.04581342 0.052779652 0.0016988143 -0.042171806 0.008520722 -0.049161248 -0.0127918795
-0.044249743 -0.030857645 -0.014322452 -0.026717551 -0.002346404 -0.018086158 -0.0559322 -0.046210177
0.028427832 -0.037585214 -0.038519748 -0.0408333 0.004133001 -0.016777508 -0.054457247 -0.050073043
-0.009378411 -0.05346246 -0.060598426 -0.023987763 -0.01718232 0.008404143 -0.034259558 -0.042048715
0.06062492 0.056360915 -0.049561925 0.041729867 0.03785935 -0.060114823 -0.012961984 -0.02269987
0.014549464 -0.03967841 -0.010407053 0.00303597 -0.025549524 0.0066029727 0.037539117 0.017384395
0.0057251155 -0.046034932 0.018200442 -0.038630202 -0.04584705 -0.03328321 0.0016098395 0.023727313
-0.029916398 -0.04405705 -0.0446307 -0.028033271 -0.06168612 0.027787372 -0.0033543706 -0.018254973
0.014737353 -0.0049952716 -0.022663571 0.034052566 -0.0125698 0.028493315 0.047242694 -0.026329726
0.015448429 -0.032532938 0.031058952 -0.0055896044 0.01823306 0.00902424 0.05302321 0.05780068
0.014858484 0.008277908 0.05511915 -0.056998216 -0.021129273 0.039781637 0.006426081 -0.04643418
-0.04859618 0.028243817 -0.005106248 -0.022698894 0.04246606 -0.003245294 0.0353603 0.043268174
0.06106519 -0.02205471 -0.054045707 0.03969629 0.02752763 -0.051125824 -0.02506297 0.04183431
0.005606368 -0.014223076 0.05062349 0.05901134 -0.025033973 -0.034022853 -0.017118089 -0.0099755
-0.043770425 -0.0085498765 0.038952224 -0.040002108 -0.031196378 -0.0013123825 -0.0031022727 0.015996173
00000000: 384a 83bc a418 373d c4de 413d 40ae d6bc
00000010: 045a 3ebd e0a5 443c 502f acbb 7043 213d
00000020: e0bd 563b 2809 dc3c cc28 2bbd ae74 5abd
00000030: 760d 2a3d 602b 123d 8e1b 47bd c820 bd3c
00000040: 0ebc 70bd 9efd 483d f861 413c c044 d0ba
00000050: 6c7c 49bd b07d 3cbd eae1 7a3d 80ff 4f3a
00000060: a475 c7bc 10f8 1a3c 6435 4e3d 2cf8 db3c
00000070: 5c15 bc3c d00b f73c 5089 2abc 604f 773b
00000080: 4090 91ba d00b e7bb 1cd6 65bd e21d 243d
00000090: 00f5 a23c e080 80bc e0b5 2e3c a0ac d7bb
000000a0: 2892 5b3d 482e fd3c 3823 2d3c c4b8 633d
000000b0: b80c 0c3c 000a 7e3a c83f 31bd ac23 dabc
000000c0: 9209 453d 0030 f838 b0cc 123d 4076 dd3b
000000d0: 4c22 50bd 94d5 05bd 94dd 8dbc 5c78 10bd
000000e0: 6e6a 543d fc56 573d 6ac5 503d 6a0d 023d
000000f0: 381c 56bc f87f 97bc 785c 033c 2823 5bbc
00000100: 2cbc a9bc 3841 f8bc 6625 023d c2e6 3abd
00000110: 1891 edbc 66a6 04bd 8863 0cbc 9ecd 17bd
00000120: 7abd 013d c6f6 62bd acce 66bd 9022 a43c
00000130: 1884 a7bc 06c1 5d3d 7c68 4abd c0ad d6bc
00000140: c0db 023b 9415 7abd 6cc4 04bd fa46 3dbd
00000150: a0c3 9bbc b497 e5bc de71 593d c003 1bbd
00000160: e0d7 68bc e2b0 703d b0b8 87bb 0826 93bc
00000170: c03c ddbc 6077 36bc 0480 8dbc 0831 7bbd
00000180: 0626 07bd 7047 603c a41c 4bbd b86c da3c
00000190: 7887 2ebd 0c2f 553d 08b8 78bc b0c0 963c
000001a0: b43c 753d 9ca4 673d f427 4cbd 2ef0 3fbd
000001b0: f868 1bbd 8022 c2bc 6410 623d 402b f8ba
000001c0: 785b 493c bca7 89bc 1088 02bd 107c d5bb
000001d0: d03c 3fbd 6048 b73b b0e7 80bb 3069 143d
000001e0: c4a8 b13c 7838 20bd f09d b13c 38ae 7e3c
000001f0: b09e 54bc 6c04 683d 6cde a33c 520a 4abd
00000200: 6241 4ebd b2f7 2a3d 68c1 45bd 2481 ca3c
00000210: 7858 4dbc 0249 6dbd 48c5 583d d840 fabc
00000220: c89d 643c daa6 3bbd 7a2f 583d c0aa de3a
00000230: 58bc 2cbd 809a 0b3c 4e5d 49bd 0895 51bc
00000240: 383f 35bd 2cc9 fcbc b8a8 6abc c4de dabc
00000250: 20c6 19bb 6c29 94bc 2a19 65bd e246 3dbd
00000260: 7ce1 e83c f4f2 19bd e2c6 1dbd d240 27bd
00000270: 206e 873b fc70 89bc 900e 5fbd 6419 4dbd
00000280: e8a7 19bc 74fb 5abd 0e36 78bd fc81 c4bc
00000290: f0c1 8cbc 88b1 093c c053 0cbd 463b 2cbd
000002a0: d651 783d b4da 663d 7201 4bbd f0ec 2a3d
000002b0: 6812 1b3d f63a 76bd 805e 54bc 14f5 b9bc
000002c0: e060 6e3c d485 22bd 5882 2abc 20f7 463b
000002d0: 3c4d d1bc c05d d83b 9ec2 193d b869 8e3c
000002e0: c099 bb3b 208f 3cbd 1819 953c b43a 1ebd
000002f0: 1eca 3bbd fa53 08bd 4001 d33a c85f c23c
00000300: 3c13 f5bc 2a75 34bd aece 36bd 08a6 e5bc
00000310: 96aa 7cbd 58a2 e33c 00d5 5bbb 748b 95bc
00000320: f074 713c 60af a3bb f4a8 b9bc b47a 0b3d
00000330: 90f1 4dbc d06a e93c 8e81 413d 70b1 d7bc
00000340: 681b 7d3c 4241 05bd 586f fe3c 0029 b7bb
00000350: 805d 953c 68da 133c de2e 593d 68c0 6c3d
00000360: 0071 733c 10a0 073c 9ec4 613d f676 69bd
00000370: 4c17 adbc 12f2 223d e091 d23b c431 3ebd
00000380: ca0c 47bd 945f e73c 5052 a7bb 08f3 b9bc
00000390: e4f0 2d3d 00af 54bb f6d5 103d f839 313d
000003a0: 7e1f 7a3d 14ac b4bc 085f 5dbd 9498 223d
000003b0: a081 e13c 5069 51bd dc50 cdbc 745a 2b3d
000003c0: a0b5 b73b e807 69bc 945a 4f3d e0b5 713d
000003d0: 0c14 cdbc 8c5b 0bbd 3c3b 8cbc 4870 23bc
000003e0: 9e48 33bd c814 0cbc 5e8c 1f3d 40d9 23bd
000003f0: 8c8f ffbc 4004 acba 804f 4bbb 680a 833c

fc2.bias f4 [256]
-0.030073881 0.0034127608 -0.024066314 -0.034951724 0.029208168 -0.011021465 -0.0319049 0.046143286
-0.014102437 -0.0135192275 0.005128078 -0.055650137 0.018124826 -0.029756024 -0.041605495 -0.01144471
-0.03726168 -0.04275416 0.04732448 -0.05809544 0.02392026 0.009932265 0.029312506 0.0037692562
0.03953761 -0.02440001 0.016390339 0.036638856 0.053781547 0.0025426075 0.01706744 -0.0024479926
0.059262678 -0.031746313 -0.024193078 0.062233895 -0.00041987002 -0.02227842 0.03366147 0.01594086
-0.041317157 -0.003544651 -0.044693194 0.04094009 -0.01602932 -0.045388676 0.021568991 -0.005023822
0.006028965 0.0016062409 0.052613415 0.034462646 -0.00042068213 0.03686805 -0.034450434 0.019423142
0.02174265 -0.020268723 -0.060392 0.044350564 0.058683544 0.008376107 -0.03138277 0.052423216
0.025706567 -0.035852194 -0.036710158 -0.05858762 0.050219104 0.048560783 0.053792007 -0.033050656
-0.016897686 0.0093644485 0.023185164 0.04817538 0.04561743 -0.020488195 -0.058959864 0.022472732
-0.015104972 0.039196208 0.061818883 0.04172998 0.06186176 0.01640363 0.02943483 -0.05079969
-0.012017205 -0.056407087 -0.03871344 -0.059242003 0.055167153 0.008088231 0.0020098016 -0.040003873
0.021429695 0.0033753365 -0.0459861 -0.007666379 0.020213135 0.05972027 -0.03054475 -0.0572178
-0.04027904 0.054017603 -0.045148373 0.006504841 -0.020796522 0.02591689 0.013602197 -0.021709993
-0.011489816 -0.05363646 0.006706096 0.01261951 -0.03287203 -0.010537028 0.03248886 0.02261433
0.014360838 0.04648128 0.03584601 0.02039387 -0.01842323 -0.05460754 -0.0042001754 -0.022553273
-0.001243554 0.023253024 -0.04404679 0.054446667 -0.02131442 -0.060939416 -0.06122782 -0.044234887
0.0023211166 0.041082464 0.005387053 0.027095318 0.0052386597 -0.0105743855 0.016132936 0.060937136
-0.018241495 -0.014946967 -0.007041879 0.021692686 0.004223913 0.04795237 -0.05720398 -0.022954173
0.026349597 -0.058880687 0.04592122 -0.019753858 -0.007286884 0.020495713 -0.029618442 0.031249799
-0.032968633 0.03824012 -0.006790459 -0.06081365 0.017790884 -0.0030000433 -0.018226504 -0.017795816
-0.005007237 0.007554412 0.05985058 0.059738025 0.014855266 0.011435352 0.028492168 -0.03487239
-0.045557193 -0.032991014 -0.022000112 0.016019002 -0.017410263 -0.05185681 0.036591828 -0.055334546
-0.0003271848 0.027738117 -0.059272543 0.036989495 0.041542232 -0.017881438 0.056037903 0.0372582
0.007039018 -0.03865745 -0.038819626 -0.048082873 -0.0203396 0.052659452 0.000990957 -0.026488215
0.009265445 -0.02164197 -0.031644367 -0.043689102 0.008347154 -0.05943077 0.05657047 0.032595865
-0.044023044 0.051679194 0.004199922 -0.002267249 0.03946229 0.0015960559 0.04148121 -0.025215827
0.009909034 0.021452986 0.053802907 0.036503777 -0.029260002 0.02997142 0.031654254 0.055266924
0.011701383 0.040617533 0.05655496 0.011868328 0.0029620975 0.057291195 0.0077332407 -0.02453722
-0.02600424 -0.040384457 0.03551256 -0.033405922 0.033178985 -0.04186175 0.008385301 0.051139593
0.035929233 -0.011495307 -0.026915878 -0.050186694 0.032654703 6.916374e-05 -0.028373048 -0.011467859
0.029882595 0.025675096 -0.045082934 0.018962093 -0.04432539 0.045882404 0.005572565 0.011002764
00000000: 805d f6bc a0a8 5f3b b826 c5bc 8a29 0fbd
00000010: f845 ef3c 6093 34bc b6ae 02bd be00 3d3d
00000020: e80d 67bc c07f 5dbc 7009 a83b 66f1 63bd
00000030: 847a 943c e8c2 f3bc 866a 2abd 9882 3bbc
00000040: b49f 18bd fc1e 2fbd 50d7 413d 7cf5 6dbd
00000050: 6cf4 c33c f0ba 223c c820 f03c a005 773b
00000060: 30f2 213d 88e2 c7bc 0845 863c a012 163d
00000070: 0a4a 5c3d e0a1 263b 04d1 8b3c 806e 20bb
00000080: 6cbd 723d 6c08 02bd 9030 c6bc f8e8 7e3d
00000090: 0022 dcb9 3c81 b6bc 9ce0 093d 6896 823c
000000a0: 2e3c 29bd 604d 68bb 3610 37bd ccb0 273d
000000b0: ec4f 83bc 7ae9 39bd 74b1 b03c e09e a4bb
000000c0: a08e c53b 8088 d23a 2a81 573d b428 0d3d
000000d0: 008f dcb9 f402 173d e61b 0dbd 481d 9f3c
000000e0: a41d b23c 980a a6bc 9a5d 77bd f0a8 353d
000000f0: 285e 703d f03b 093c 388b 00bd bab9 563d
00000100: 9496 d23c c0d9 12bd 645d 16bd 92f9 6fbd
00000110: 8cb2 4d3d ace7 463d 0255 5c3d 2060 07bd
00000120: 046d 8abc 586d 193c d0ee bd3c 8c53 453d
00000130: 58d9 3a3d dcd6 a7bc e67f 71bd bc18 b83c
00000140: d87a 77bc 348c 203d cc35 7d3d 0eed 2a3d
00000150: c262 7d3d e860 863c 5021 f13c 5613 50bd
00000160: d0e3 44bc 1e0b 67bd fc91 1ebd bea7 72bd
00000170: f4f6 613d 8084 043c e0b6 033b 1adb 23bd
00000180: 548d af3c c034 5d3b ec5b 3cbd 4036 fbbb
00000190: 0496 a53c 3e9d 743d fc38 fabc 365d 6abd
000001a0: a2fb 24bd 9041 5d3d 80ed 38bd 9026 d53b
000001b0: 785d aabc a84f d43c c0db 5e3c 28d9 b1bc
000001c0: c83f 3cbc e8b1 5bbd d0be db3b 10c2 4e3c
000001d0: d2a4 06bd 80a3 2cbc 0a13 053d b041 b93c
000001e0: b849 6b3c 2863 3e3d 44d3 123d 0c11 a73c
000001f0: 50ec 96bc 28ac 5fbd a0a1 89bb a4c1 b8bc
00000200: c0fe a2ba 207d be3c 686a 34bd 7803 5f3d
00000210: 949b aebc 9c9b 79bd 06ca 7abd a42f 35bd
00000220: e01d 183b 1646 283d e085 b03b 00f7 dd3c
00000230: 10a9 ab3b 3040 2dbc 3829 843c 3899 793d
00000240: 306f 95bc 20e4 74bc 90bf e6bb dcb4 b13c
00000250: c068 8a3b b469 443d b84e 6abd 640a bcbc
00000260: 1cdb d73c e02c 71bd e417 3c3d d8d2 a1bc
00000270: d0c6 eebb a0e6 a73c 60a2 f2bc 94ff ff3c
00000280: 1e0a 07bd aca1 1c3d 8082 debb bc17 79bd
00000290: 30be 913c 609c 44bb c04f 95bc 88c8 91bc
000002a0: c013 a4bb 008b f73b e225 753d dcaf 743d
000002b0: 8063 733c 585b 3b3c 6868 e93c 5ad6 0ebd
000002c0: 2e9a 3abd 9621 07bd 9439 b4bc 483a 833c
000002d0: f89f 8ebc ce67 54bd 50e1 153d 7aa6 62bd
000002e0: 008a abb9 0c3b e33c c4c7 72bd 4c82 173d
000002f0: 3028 2a3d 187c 92bc 0088 653d 0e9c 183d
00000300: 90a7 e63b 4657 1ebd 5401 1fbd 8cf2 44bd
00000310: 3c9f a6bc 70b1 573d 00e3 813a d0fd d8bc
00000320: 18ce 173c 804a b1bc 869d 01bd 58f3 32bd
00000330: 80c2 083c ae6d 73bd 70b6 673d 3e83 053d
00000340: 8251 34bd 90ad 533d 809f 893b 2096 14bb
00000350: 36a3 213d c032 d13a 34e8 293d 6c91 cebc
00000360: 8059 223c 2cbe af3c 7060 5c3d fc84 153d
00000370: acb2 efbc a086 f53c e4a7 013d 925f 623d
00000380: 28b7 3f3c 925e 263d 2ca6 673d 6073 423c
00000390: c01f 423b 2caa 6a3d 2067 fd3b 4802 c9bc
000003a0: d806 d5bc 2c6a 25bd 9e75 113d a6d4 08bd
000003b0: b0e6 073d 3a77 2bbd 8062 093c c077 513d
000003c0: 882a 133d d056 3cbc b07e dcbc 9090 4dbd
000003d0: f0c0 053d 000c 9138 986e e8bc b0e3 3bbc
000003e0: 58cc f43c 9454 d23c e2a8 38bd 6456 9b3c
000003f0: 8a8e 35bd 30ef 3b3d 109a b63b f044 343c

fc3.weight f4 [256, 256]
0.023707055 0.0014051199 -0.050489977 0.05695848 -0.024342611 -0.040687203 0.012726083 0.05570852
0.056243293 0.05200035 -0.04043614 0.013195105 -0.0028315187 -0.007606566 -0.023016207 0.013177983
-0.02060619 -0.061436072 -0.061192736 -0.038331486 0.058844104 -0.011071697 0.037313722 0.009907313
-0.051883765 0.032178186 0.011353329 0.00791242 0.006748095 0.010778695 0.021213897 0.042747803
-0.02695138 -0.029320158 0.056400083 0.049925774 0.053698257 -0.043361507 0.035786577 -0.013047352
-0.034822114 -0.016017117 -0.049541205 0.02442304 -0.032686792 0.057370387 0.018976629 -0.0365626
-0.057701528 -0.059090123 0.025048412 -0.030895248 -0.007281877 -0.034042835 0.03238876 0.04478681
-0.032579906 -0.051847056 -0.038958393 -0.017900683 0.027508125 -0.027932845 0.016742945 -0.06035506
0.028654069 -0.0026346296 -0.042714916 0.052870944 0.010839373 -0.02717527 0.01778292 0.006413907
0.044766054 -0.009061374 0.024195895 0.029698178 -0.045294188 0.01477965 -0.041398466 -0.024079114
-0.030660644 -0.0073476285 -0.017138377 -0.04968171 0.03810995 0.02218809 0.021938033 -0.018197685
0.056763165 -0.021728195 -0.025690109 0.016447276 0.043747388 0.011276022 0.042137012 0.050671898
0.051823907 -0.041776977 0.045331784 -0.043275453 -0.025163837 0.014575489 -0.050281346 -0.039247714
0.018359601 -0.056717277 -0.015586033 -0.047968842 -0.013363078 -0.013998926 0.03993836 -0.0051786453
0.053306617 -0.0129214525 0.0053565577 0.008607708 0.0031224042 -0.0022396818 -0.054953456 0.046108134
0.031782404 0.04409031 0.02587822 0.033595003 0.0004722327 0.0035004094 0.057596743 -0.003096655
-0.033936337 -0.04661934 -0.05212649 -0.040679716 0.042971842 -0.055090986 0.05549244 0.05301425
-0.052246757 -0.02135823 0.0024252012 0.053909153 -0.04231248 0.009128109 0.060757995 -0.0033207238
0.038213097 0.021527939 -0.034159303 0.041650765 -0.048407935 -0.041254036 -0.036653623 0.039183103
-0.0064430386 -0.048667118 -0.005109206 0.009827033 -0.055601925 0.011621743 -0.013925239 -0.035456173
0.02729956 -0.0145621 -0.027316302 0.013997987 -0.026857182 -0.016888097 0.059628807 -0.018633768
-0.047233827 -0.06040413 -0.031735733 0.019364983 -0.025998242 0.024552643 0.042291082 -0.04482194
0.04602932 -0.034198508 -0.011612564 0.05712556 0.049893767 0.06021598 -0.038405046 0.039602138
-0.002051048 0.011345707 -0.029629767 -0.029239021 -0.017562553 -0.022056662 -0.017109856 -0.015048318
-0.018823475 -0.010532074 0.04899305 -0.048643976 -0.023562081 -0.009259053 0.02102501 0.050564118
-0.0021708533 -0.01684983 -0.05472794 0.0083728805 0.043899782 0.060827307 0.03352038 0.061586864
0.019847155 0.043951117 0.012580633 -0.035999306 -0.047208466 0.019248389 0.04139088 -0.0029978156
-0.042911753 0.028071791 0.053751566 0.005998358 -0.051445454 0.052861497 -0.030706905 0.0013149232
-0.005895175 0.048046023 -0.03027752 -0.050098084 0.025008462 -0.033634886 0.0148894265 -0.03008423
-0.007471025 -0.007041812 0.043771 0.023041576 -0.04365363 -0.017563477 -0.009906404 -0.056433924
-0.023403801 -0.018036142 -0.017185457 0.03982632 0.009489857 -0.019947179 -0.0409605 0.009581491
0.02761861 -0.024666995 0.013319559 -0.04062648 0.059385203 -0.043241218 -0.033627108 0.04750391
00000000: 4c35 c23c 002c b83a 94ce 4ebd 4c4d 693d
00000010: 286a c7bc a0a7 26bd 1081 503c 9e2e 643d
00000020: 5e5f 663d 52fe 543d 5ea0 25bd 4830 583c
00000030: 0091 39bb 8040 f9bb 7c8c bcbc 78e8 573c
00000040: 50ce a8bc 64a4 7bbd 3ca5 7abd 7a01 1dbd
00000050: 8406 713d 1066 35bc 46d6 183d 4852 223c
00000060: 1284 54bd 46cd 033d 5003 3a3c 18a3 013c
00000070: 201f dd3b 2099 303c c4c8 ad3c 5218 2f3d
00000080: 24c9 dcbc d430 f0bc c603 673d f87e 4c3d
00000090: b4f2 5b3d d69b 31bd f294 123d 90c4 55bc
000000a0: a2a1 0ebd 5436 83bc b8eb 4abd d412 c83c
000000b0: 96e2 05bd 36fd 6a3d e074 9b3c aac2 15bd
000000c0: 7058 6cbd 7c08 72bd 5432 cd3c 0818 fdbc
000000d0: d09c eebb 8070 0bbd 14aa 043d 6072 373d
000000e0: 8272 05bd 945d 54bd d692 1fbd 74a4 92bc
000000f0: b858 e13c 6cd3 e4bc 8028 893c de36 77bd
00000100: f0bb ea3c c0a9 2cbb d6f5 2ebd 348f 583d
00000110: a097 313c ac9e debc 7cad 913c c02b d23b
00000120: 9c5c 373d 2876 14bc 7836 c63c 9849 f33c
00000130: 6686 39bd 5826 723c 7091 29bd 9041 c5bc
00000140: 082c fbbc 60c4 f0bb c865 8cbc 0c7f 4bbd
00000150: 2e19 1c3d ccc3 b53c 64b7 b33c 5013 95bc
00000160: 7e80 683d 54ff b1bc 1074 d2bc 70bc 863c
00000170: 7630 333d 10bf 383c dc97 2c3d 568d 4f3d
00000180: 4e45 543d 561e 2bbd d2ad 393d 9a41 31bd
00000190: 6424 cebc 08ce 6e3c d0f3 4dbd 36c2 20bd
000001a0: e066 963c 6050 68bd 905c 7fbc fa7a 44bd
000001b0: d0f0 5abc c05b 65bc 6896 233d a0b1 a9bb
000001c0: 0a58 5a3d 80b4 53bc 1086 af3b 5807 0d3c
000001d0: 40a1 4c3b a0c7 12bb e016 61bd e2db 3c3d
000001e0: 442e 023d 0a98 343d 90fe d33c ea9a 093d
000001f0: 0096 f739 2067 653b 90ea 6b3d 40f1 4abb
00000200: d400 0bbd ecf3 3ebd 9682 55bd c69f 26bd
00000210: 3e03 303d 16a7 61bd 0a4c 633d 7825 593d
00000220: b200 56bd 74f7 aebc 20f0 1e3b d8cf 5c3d
00000230: da4f 2dbd 108e 153c 60dd 783d 80a0 59bb
00000240: 5685 1c3d 5c5b b03c a0ea 0bbd fe99 2a3d
00000250: 6647 46bd fef9 28bd 1c22 16bd 767e 203d
00000260: 2020 d3bb 2c57 47bd 206b a7bb 9001 213c
00000270: d8be 63bd 2069 3e3c b026 64bc 7e3a 11bd
00000280: 54a3 df3c e095 6ebc 70c6 dfbc d057 653c
00000290: 9803 dcbc e858 8abc 563d 743d d8a5 98bc
000002a0: 4278 41bd 526a 77bd 54fd 01bd 50a3 9e3c
000002b0: 44fa d4bc a022 c93c 6a39 2d3d 3697 37bd
000002c0: 3e89 3c3d bc13 0cbd a042 3ebc 7efc 693d
000002d0: 685d 4c3d 08a5 763d 9c4e 1dbd da35 223d
000002e0: e06a 06bb 58e3 393c 20ba f2bc ac86 efbc
000002f0: 58df 8fbc 2cb0 b4bc f829 8cbc 388d 76bc
00000300: b033 9abc b88e 2cbc f0ac 483d e83e 47bd
00000310: 4405 c1bc 48b3 17bc a43c ac3c 521c 4f3d
00000320: e044 0ebb a808 8abc 682a 60bd 682e 093c
00000330: 42d0 333d 0e26 793d aa4c 093d 8242 7c3d
00000340: 8096 a23c 1606 343d 001f 4e3c 0274 13bd
00000350: aa5d 41bd ccae 9d3c 7c89 293d 0077 44bb
00000360: 3cc4 2fbd d0f6 e53c 9a2a 5c3d e08d c43b
00000370: 78b8 52bd 4c85 583d 0c8d fbbc 8059 ac3a
00000380: 502c c1bb e8cb 443d 9008 f8bc a633 4dbd
00000390: 8cde cc3c bcc4 09bd c8f2 733c 3473 f6bc
000003a0: 80cf f4bb 00bf e6bb 3849 333d b0c1 bc3c
000003b0: 26ce 32bd 48e1 8fbc 784e 22bc 4227 67bd
000003c0: 54b9 bfbc 88c0 93bc 84c8 8cbc ec20 233d
000003d0: 587b 1b3c 4468 a3bc 32c6 27bd b0fb 1c3c
000003e0: 6c40 e23c 7012 cabc 483a 5a3c f467 26bd
000003f0: e63d 733d b41d 31bd 94bc 09bd 7693 423d

fc3.bias f4 [256]
-0.05495423 0.05165247 -0.050234184 -8.879602e-05 -0.03104636 -0.03631513 0.006138459 0.010883443
-0.007261783 -0.031599894 -0.037089266 0.061488695 0.054792427 0.0043030083 -0.046403326 -0.0569107
0.013281971 0.0010941401 -0.00035116822 0.034657843 -0.05470685 0.026470348 -0.05637098 0.038678966
0.040356115 -0.0054431707 -0.042593986 0.034222446 -0.04465034 -0.050289728 -0.049838558 -0.044582322
-0.0046495274 -0.011704184 -0.013257511 0.057910122 0.045632742 -0.03082835 -0.016525961 0.022661783
-0.0062794685 0.0017652288 0.004321955 0.03430766 -0.0027940571 0.036310904 -0.017259158 -0.046645023
0.045602195 -0.05632662 0.04335577 0.038138337 0.02622842 0.0523836 0.027953476 -0.03204465
0.014813326 -0.057456173 -0.030805513 0.051968127 0.009316258 -0.02851054 -0.0043214336 0.047764607
-0.006579675 0.061179824 -0.045712583 -0.009503469 0.031241804 0.024937108 0.011890613 0.018173784
0.009401396 -0.009004682 -0.04697834 0.004313685 -0.025378928 0.05636408 -0.018048815 -0.01261878
-0.0057267323 0.016109109 -0.040277556 0.053329498 -0.05153253 -0.018578097 0.04724983 -0.060875162
3.091991e-05 0.020253994 0.020247169 -0.048687927 -0.023042217 0.024667315 -0.049560405 -0.010530725
-0.013899758 -0.028995581 0.0601841 -0.037267365 -0.03875736 0.015626244 0.010505408 -0.005286649
-0.019203022 0.030842736 0.05722057 -0.008872323 0.017700367 -0.054139413 -0.0203963 -0.04826001
0.012144767 -0.027136102 0.06037747 -0.041143738 0.043098815 0.020635188 -0.042703375 0.005564198
0.01964882 0.057882316 -0.007761635 -0.04111678 -0.03605303 -0.023053639 0.03279715 -0.029659837
-0.0069815367 -0.03659253 0.0195309 0.058974847 0.03323757 0.034430817 0.058029734 -0.047858186
0.047898255 0.021916993 -0.038181573 0.021317206 0.026625998 0.017408073 -0.012038231 -0.0143105015
-0.026960291 -0.04435984 -0.027322896 -0.045364432 0.05070319 0.0405678 0.024569206 0.040570803
-0.050925754 0.043747745 -0.002955936 -0.02536884 -0.054503918 0.018294893 0.0022720098 -0.05052565
-0.027934633 0.015412785 -0.02922903 0.056325033 0.051763356 0.020047508 -0.041055664 0.062180154
0.011347689 -0.03100723 0.034585632 -0.03499323 0.042537726 -0.009376794 0.011586241 0.02684854
0.026881143 0.06144484 0.016046211 0.00018756837 0.0099246055 0.022588737 0.059141673 -0.027781337
-0.013858125 0.03881912 -0.00651671 -0.04232859 -0.05656611 -0.004922606 -0.030502744 -0.01511693
0.0050755814 -0.014944889 -0.020909354 0.03261052 0.03479115 0.058267713 -0.036725737 -0.058267534
-0.04601025 0.022638552 0.047337525 -0.029689707 0.008514725 -0.038505964 0.012469895 0.00824637
-0.043966666 0.031734988 -0.034003764 0.0008862689 -0.007078044 -0.028290898 0.057877958 0.061356723
0.0030482188 0.04824374 -0.019393213 -0.031895295 0.044999845 -0.02965308 0.01633352 0.041611083
-0.009713411 -0.060142107 -0.036521465 0.0028803498 0.040567033 0.032326035 -0.047331214 -0.014593855
-0.0066251233 0.01861658 0.004589185 -0.008317761 0.0041344166 -0.049395166 0.059770018 -0.043599114
0.059122235 -0.017513737 0.008338891 -0.053446934 -0.03622947 -0.06039373 0.055567056 0.030530721
-0.047109365 -0.0035018697 0.027756162 -0.046439193 -0.048990272 -0.037591346 -0.026260994 0.052625567
00000000: b017 61bd 8a91 533d 5cc2 4dbd 0038 bab8
00000010: f054 febc 2cbf 14bd 2025 c93b 7850 323c
00000020: 40f4 edbb e46e 01bd eaea 17bd 92db 7b3d
00000030: 066e 603d 4000 8d3b 6a11 3ebd 321b 69bd
00000040: a09c 593c 4069 8f3a 001d b8b9 62f5 0d3d
00000050: 4a14 60bd 58d8 d83c 42e5 66bd d66d 1e3d
00000060: 744c 253d a05c b2bb 0877 2ebd d62c 0c3d
00000070: 46e3 36bd 9afc 4dbd 8423 4cbd f49b 36bd
00000080: 105b 98bb e8c2 3fbc 0836 59bc 2a33 6d3d
00000090: 66e9 3a3d bc8b fcbc 7461 87bc 34a5 b93c
000000a0: 00c4 cdbb 405f e73a 309f 8d3b 3086 0c3d
000000b0: 801c 37bb beba 143d 1463 8dbc da0e 3fbd
000000c0: 5ec9 3a3d beb6 66bd d295 313d f236 1c3d
000000d0: fcdc d63c 3090 563d b0fe e43c 4041 03bd
000000e0: 98b3 723c 2a57 6bbd d85b fcbc 88dc 543d
000000f0: 38a3 183c f08e e9bc d09a 8dbb d2a4 433d
00000100: 509a d7bb b297 7a3d 1e3d 3bbd 70b4 1bbc
00000110: d0ee ff3c e848 cc3c d8d0 423c 30e1 943c
00000120: 5008 1a3c 6088 13bc 5c6c 40bd d059 8d3b
00000130: 78e7 cfbc 06de 663d 1cdb 93bc 00bf 4ebc
00000140: 50a7 bbbb 40f7 833c 14fa 24bd 0870 5a3d
00000150: c613 53bd 1831 98bc 0a89 413d 3c58 79bd
00000160: 00b0 0138 b4eb a53c 64dd a53c fe6c 47bd
00000170: 08c3 bcbc 1c13 ca3c daff 4abd 1089 2cbc
00000180: d0bb 63bc 2488 edbc 9a83 763d aaa5 18bd
00000190: 0ac0 1ebd 9c02 803c e01e 2c3c a03b adbb
000001a0: a84f 9dbc e8a9 fc3c 1e60 6a3d 385d 11bc
000001b0: 5c00 913c 4ac1 5dbd 2416 a7bc 4aac 45bd
000001c0: d8fa 463c 884c debc 5e4e 773d 5686 28bd
000001d0: 6288 303d 200b a93c bce9 2ebd e053 b63b
000001e0: 90f6 a03c 0216 6d3d 5055 febb 126a 28bd
000001f0: 58ac 13bd fcda bcbc 4e56 063d 30f9 f2bc
00000200: 60c5 e4bb 0ce2 15bd 44ff 9f3c 9c8f 713d
00000210: 1e24 083d 5407 0d3d 96b0 6d3d f206 44bd
00000220: f630 443d 448b b33c 4864 1cbd 6ca1 ae3c
00000230: c41e da3c 609b 8e3c 003c 45bc 9876 6abc
00000240: d4db dcbc aab2 35bd 44d4 dfbc 0ed0 39bd
00000250: 26ae 4f3d 6c2a 263d 5c45 c93c 922d 263d
00000260: 8697 50bd d630 333d 60b8 41bb 50d2 cfbc
00000270: 803f 5fbd 2cdf 953c 00e6 143b fcf3 4ebd
00000280: 2cd7 e4bc e885 7c3c b871 efbc 14b5 663d
00000290: d005 543d ac3a a43c fc29 28bd 9eb0 7e3d
000002a0: a8eb 393c e002 febc aaa9 0d3d 1055 0fbd
000002b0: 0a3c 2e3d 20a1 19bc 38d4 3d3c 78f1 db3c
000002c0: d835 dc3c 96ad 7b3d 5873 833c 00ae 4439
000002d0: d09a 223c 040c b93c 8a3e 723d b095 e3bc
000002e0: 300d 63bc cc00 1f3d 208a d5bb be60 2dbd
000002f0: deb1 67bd d04d a1bb e4e0 f9bc 00ad 77bc
00000300: 1051 a63b 68db 74bc 184a abbc 9c92 053d
00000310: 2a81 0e3d 20aa 6e3d ba6d 16bd f0a9 6ebd
00000320: 3e75 3cbd 7c74 b93c fee4 413d d437 f3bc
00000330: 5881 0b3c 6eb8 1dbd 884e 4c3c c81b 073c
00000340: 6416 34bd 8cfc 013d 8847 0bbd 8054 683a
00000350: f0ee e7bb 50c2 e7bc 7011 6d3d 3051 7b3d
00000360: a0c4 473b 3a9b 453d 84de 9ebc a4a4 02bd
00000370: c251 383d 04eb f2bc e0cd 853c 6270 2a3d
00000380: 0025 1fbc 9257 76bd 8897 15bd 40c4 3c3b
00000390: 9e29 263d 4e68 043d 60de 41bd 101b 6fbc
000003a0: 9017 d9bb cc81 983c e060 963b 3847 08bc
000003b0: 007a 873b 9652 4abd 68d1 743d fc94 32bd
000003c0: 282a 723d f878 8fbc d89f 083c 2ceb 5abd
000003d0: 5a65 14bd 6a5f 77bd 489a 633d 901b fa3c
000003e0: c0f5 40bd a07f 65bb e460 e33c 0637 3ebd
000003f0: 06aa 48bd 62f9 19bd 4c21 d7bc e88d 573d

output.weight f4 [4, 256]
-0.029046126 0.04777798 0.020132676 -0.052006975 -0.051030166 0.030237727 -0.05816266 -0.061238818
-0.027028173 0.031487323 0.04648155 0.019748323 0.008932531 0.020974107 0.032167338 0.05688668
-0.041803055 -0.0370804 -0.012773596 0.01989793 -0.056415826 0.0025591925 0.05045429 -0.023274392
-0.04151655 -0.04122331 0.06192769 -0.06228277 -0.021107674 0.0052349865 -0.035943165 0.060094804
0.023259126 -0.05465132 0.026733428 0.058049656 0.0531952 0.019728899 0.044012427 -0.05913958
-0.061793648 0.0051299036 -0.023304418 0.0208098 0.045185722 -0.005316496 -0.038052104 -0.03661944
0.040997483 0.037896708 -0.041990027 -0.045062892 -0.0015350282 0.047495633 -0.013055049 0.042081393
0.04315128 0.034422077 0.020289414 0.047679387 -0.013791479 0.041869663 -0.022981092 0.05820301
0.022104502 -0.020683445 0.041207746 -0.03528347 -0.0603064 0.046787508 0.04124572 -0.053617835
0.010625802 0.026639111 -0.0029330626 0.05365833 -0.00036354363 0.025905967 -0.03561966 -0.013365604
-0.056787923 -0.038548835 0.032870702 0.04071986 0.05470264 0.053518906 -0.019616522 0.03125152
0.014084578 3.1434e-05 -0.061347395 -0.00029688329 0.0046938434 0.03554374 -0.034399882 -0.05204823
-0.037775367 -0.008781984 0.016372815 0.030206375 -0.010225542 0.06009899 -0.009543799 0.006535776
-0.042680897 0.027449317 0.023962684 -0.0035491437 0.016142681 0.027695686 -0.05638694 0.036245063
-0.022892192 0.030361801 0.009020917 -0.0149476975 0.052779347 0.03376829 0.0320787 -0.015137136
0.034635417 0.038578503 -0.025565408 -0.0039980337 0.031354867 0.009566918 0.04668808 0.037548877
-0.007686697 -0.011791058 -0.012798697 0.011529528 0.048421264 -0.046578787 -0.023496129 -0.01959034
0.053828336 -0.029972091 -0.029076837 -0.018036917 -0.040542006 0.0027779192 0.059393674 0.0110007
-0.0153046325 0.01503735 0.016047046 0.024381526 -0.057370596 -0.04080428 -0.040603593 0.031469896
0.03857491 0.054757103 0.020520724 0.012181126 0.015856184 -0.05242966 -0.043234244 0.050618827
0.03700819 0.061487734 0.054040805 -0.034972183 -0.011458054 -0.010279842 0.04627069 -0.062284544
0.032547213 0.05218818 0.036939755 0.048558548 0.036930375 -0.025475487 0.021124564 0.024501108
0.031569302 -0.030470297 -0.019881524 0.0037004352 0.028142385 -0.06096039 0.022120155 -0.0030476898
0.02010303 -0.048519872 0.0139192045 0.019999705 -0.021065436 -0.060669012 0.039729692 0.007545203
0.011506371 -0.038829915 -0.036635607 -0.011404842 -0.023837447 0.026067592 0.022370473 0.04868257
-0.03609652 -0.0055602044 0.051486656 -0.032678254 -0.00856366 -0.042840935 0.025324456 -0.045832925
-0.013872214 -0.038817212 -0.029341996 -0.033381775 0.03743253 -0.033829384 -0.005023487 -0.032537214
0.01801131 0.05202876 -0.036175482 -0.030271806 -0.007592745 0.036022738 0.04575254 0.01978241
0.053662576 -0.048830107 0.04873324 0.017455384 -0.05226101 -0.026434042 0.014604501 -0.0304071
0.01881697 0.0009859502 9.7975135e-05 -0.04503522 -0.00990402 0.043408692 0.0304057 0.021859951
0.018390834 -0.038876005 -0.03535997 0.038867243 -0.04273933 -0.02072706 0.032905884 -0.024610981
-0.019554354 -0.043266058 -0.014273249 -0.0023230538 -0.01381138 0.03029307 0.041622818 -0.020367883
00000000: 24f2 edbc d8b2 433d 48ed a43c 4405 55bd
00000010: 0205 51bd 1cb5 f73c f83b 6ebd 8ed5 7abd
00000020: 306a ddbc daf8 003d 7063 3e3d 3cc7 a13c
00000030: c059 123c e4d1 ab3c e6c1 033d 0202 693d
00000040: ae39 2bbd 9ee1 17bd 5848 51bc fc00 a33c
00000050: 4814 67bd 20b8 273b 28a9 4e3d f0a9 bebc
00000060: 420d 2abd c6d9 28bd e4a7 7d3d 381c 7fbd
00000070: 00ea acbc 408a ab3b 2439 13bd f825 763d
00000080: ec89 be3c 10da 5fbd 1000 db3c 7ac5 6d3d
00000090: 36e3 593d 809e a13c 6046 343d 583c 72bd
000000a0: 561b 7dbd c018 a83b e8e8 bebc 5079 aa3c
000000b0: aa14 393d 0036 aebb 86dc 1bbd 44fe 15bd
000000c0: faec 273d 9439 1b3d bcfd 2bbd de93 38bd
000000d0: 0033 c9ba c88a 423d d8e4 55bc 8a5d 2c3d
000000e0: 66bf 303d 2afe 0c3d fc35 a63c 764b 433d
000000f0: a8f5 61bc 867f 2b3d d842 bcbc 4866 6e3d
00000100: 8014 b53c 5470 a9bc 74c9 283d 6685 10bd
00000110: d803 77bd 42a4 3f3d 46f1 283d 609e 5bbd
00000120: d817 2e3c 443a da3c a038 40bb d6c8 5b3d
00000130: 009a beb9 c038 d43c ece5 11bd 68fb 5abc
00000140: 749a 68bd 62e5 1dbd 6ea3 063d dec9 263d
00000150: e00f 603d a436 5b3d d4b2 a0bc 9801 003d
00000160: 00c3 663c 00d8 0338 6847 7bbd 00a7 9bb9
00000170: d0ce 993b 5096 113d e4e6 0cbd 8630 55bd
00000180: 58ba 1abd 50e2 0fbc 4820 863c 5c73 f73c
00000190: 0889 27bc 5c2a 763d 985d 1cbc 102a d63b
000001a0: 2ad2 2ebd 64dd e03c 644d c43c c098 68bb
000001b0: a83d 843c 10e2 e23c fef5 66bd b475 143d
000001c0: 6888 bbbc 50b9 f83c 78cc 133c 30e7 74bc
000001d0: 282f 583d 9e50 0a3d f464 033d c001 78bc
000001e0: dedd 0d3d 7e04 1e3d 8c6e d1bc f001 83bb
000001f0: f66d 003d 90be 1c3c 003c 3f3d dacc 193d
00000200: b0e0 fbbb 482f 41bc a0b1 51bc 58e6 3c3c
00000210: 6055 463d 66c9 3ebd f47a c0bc ec7b a0bc
00000220: 1a7b 5c3d 0888 f5bc 8c32 eebc 28c2 93bc
00000230: 600f 26bd c00d 363b c846 733d 483c 343c
00000240: 48c0 7abc 385f 763c 1875 833c c4bb c73c
00000250: 6efd 6abd 6422 27bd f44f 26bd 94e6 003d
00000260: ba00 1e3d fc48 603d 141b a83c 5893 473c
00000270: d4e4 813c 7cc0 56bd 6416 31bd b055 4f3d
00000280: e695 173d 90da 7b3d e459 5d3d fe3e 0fbd
00000290: 90ba 3bbc c86c 28bc 5686 3d3d 141e 7fbd
000002a0: 3a50 053d 46c3 553d 244e 173d 54e5 463d
000002b0: 4e44 173d f8b1 d0bc 6c0d ad3c 8cb6 c83c
000002c0: d04e 013d d89c f9bc 94de a2bc 0083 723b
000002d0: dc8a e63c 9ab1 79bd 5435 b53c c0bb 47bb
000002e0: 1caf a43c c6bc 46bd 600d 643c 6cd6 a33c
000002f0: 6c91 acbc 1280 78bd 9abb 223d c03d f73b
00000300: 3885 3c3c 1e0c 1fbd 380f 16bd 60db 3abc
00000310: c046 c3bc b48b d53c 4842 b73c 6067 473d
00000320: f2d9 13bd 6032 b6bb ace3 523d a2d9 05bd
00000330: 984e 0cbc fa79 2fbd 3c75 cf3c 4ebb 3bbd
00000340: 4848 63bc ccfe 1ebd a05e f0bc 54bb 08bd
00000350: da52 193d ae90 0abd 109c a4bb be45 05bd
00000360: 748c 933c 1c1c 553d be2c 14bd 94fc f7bc
00000370: 90cc f8bb 948c 133d 0467 3b3d b80e a23c
00000380: 4acd 5b3d 1402 48bd 829c 473d 98fe 8e3c
00000390: a40f 56bd 348c d8bc b847 6f3c 5018 f9bc
000003a0: 0c26 9a3c 003b 813a 0078 cd38 da76 38bd
000003b0: 7844 22bc 50cd 313d 6015 f93c a413 b33c
000003c0: 60a8 963c 723c 1fbd 9ed5 10bd 4233 1f3d
000003d0: 700f 2fbd cccb a9bc 52c8 063d f89c c9bc
000003e0: 7430 a0bc c037 31bd 58da 69bc 603e 18bb
000003f0: 2049 62bc 2c29 f83c b07c 2a3d 8cda a6bc

output.bias f4 [4]
-0.050675407 -0.018012322 -0.032987475 -0.055255778
00000000: 0491 4fbd 948e 93bc e01d 07bd e253 62bd
