fetch_sticky_mittens_step_4_blocks/networks/ours_10k_block_4_uber_level_0_seed_250/network_pick_n_reach_goal_1.pth (torch, 612343 bytes, 8 tensors)

fc1.weight f4 [256, 75]
000000 b3 74 97 3d f6 22 a9 3d 74 9e 82 3d a1 da 38 bc
       0.073953055 0.082586214 0.06377879 -0.011282594
000010 fe d3 4b 3c 2b bf 96 3d 68 2d de 3d 34 7d 9b bd
       0.01244068 0.07360681 0.10848504 -0.0759224
000020 c2 1b c0 bd 2b bc df 3d 89 65 c7 3d 55 7a aa bd
       -0.093802944 0.10924562 0.09736163 -0.08324114
000030 af bc 9e 3a c1 be b2 3d f2 bd 48 3c 4e 1d 80 3d
       0.0012110675 0.0872779 0.012252318 0.062555894
000040 cb 2f 81 3d 71 8a a2 3c 21 6b c7 bd 4d c0 65 bd
       0.06307944 0.019841405 -0.0973723 -0.056091595
000050 14 ac 66 bd 76 76 9a bd 78 13 8c 3d bf e8 f4 bc
       -0.05631645 -0.07542126 0.06839651 -0.029896138
000060 77 39 c1 3d b8 66 45 3c 40 45 67 bd e1 f5 d4 bd
       0.09434789 0.012048416 -0.056462526 -0.1039846
000070 2b e3 9c bc d1 9b be 3d ce d6 29 bc 7b 63 d1 bc
       -0.01915129 0.09307063 -0.010366155 -0.025560131
000080 ea 59 ca 3d 04 1b 03 bd 8c dd cb 3d 8a 41 76 3d
       0.09880431 -0.032008186 0.09954366 0.060121097
000090 ef 46 09 bd 6e a1 ee 3c 80 ba 9f bd 34 9a d4 bc
       -0.033514913 0.02912971 -0.07799244 -0.025952436
0000a0 42 6f 32 bd f5 cc 52 3d 72 29 9d 3d ee 57 e6 bd
       -0.043563135 0.051464994 0.07673921 -0.1124724
0000b0 98 4a de 3d 61 0f d4 bc 5c 59 96 bd 78 a5 d2 3c
       0.108540714 -0.02588624 -0.07341263 0.025713667
0000c0 91 d8 2e 3d 8b 1d 80 bd 00 71 b2 3d 27 15 b3 bd
       0.042687003 -0.06255635 0.08712959 -0.08744269
0000d0 9c 86 25 3d 68 cb b1 bb 68 34 11 3c 1f 47 23 bd
       0.040411577 -0.0054258592 0.008862592 -0.03986275
0000e0 0e 5a cb 3b b4 37 90 bd 3c d2 b4 bd ee ca cb 3c
       0.0062058037 -0.070418745 -0.088291615 0.024877038
0000f0 04 e5 ba 3b bd a5 d1 bd e2 0d 2b 3c 65 96 a2 3d
       0.0057035703 -0.1023669 0.010440322 0.07938842
000100 b0 60 62 bd c3 51 88 3d 33 be 99 3d d6 7f bc 3d
       -0.05526799 0.0665622 0.07506981 0.0920407
000110 ce 78 45 bd 93 74 de 3d 66 fd dc bc b0 f3 d8 3d
       -0.04821091 0.108620785 -0.026976299 0.10593355
000120 a3 10 f6 3c 8e d2 71 3d a3 db c8 3d 69 59 8e 3d
       0.03003723 0.05903869 0.098075174 0.069506474
000130 ab 0f b1 bd 1e 01 a3 bd 0b 75 2e ba b0 a7 da 3d
       -0.086455666 -0.079591975 -0.0006655014 0.10676515
000140 46 11 58 3d de 3b bc 3d 7d 8f c2 3c 28 44 b8 3d
       0.05275085 0.09191106 0.023750061 0.08997375
000150 7a 02 ca 3c 4a 1f e9 bd 2c 62 8e 3c a0 08 fb 3c
       0.024659384 -0.11382921 0.017380796 0.030643761
000160 32 cc 51 3d 92 ab 71 bd 14 17 de 3d f8 89 17 bd
       0.051220126 -0.059001513 0.108442456 -0.03699681
000170 ed b6 68 bd 3b 18 a6 3d e9 ea a4 3c 37 de aa bd
       -0.056815077 0.0811009 0.020131545 -0.08343165
000180 09 b9 8e 3c 61 04 3c 3d ed 80 d5 3d a7 aa 1f 3d
       0.017422216 0.045902614 0.10424981 0.038981106
000190 ca 34 8f bd 38 08 5e bd 2f 4b 9e bd 02 c1 f9 3c
       -0.069924906 -0.054207057 -0.07729184 0.030487541
0001a0 ed f4 6f bd 61 80 46 3d 13 77 2b bc 62 64 5d bd
       -0.05858319 0.048462275 -0.010465401 -0.05405081
0001b0 fc ff 9a bd 2c 87 e0 3d 4a 44 db bd f8 63 81 3b
       -0.075683564 0.10963282 -0.107063845 0.003948685
0001c0 ee e2 e4 bd b8 e8 fd bc bc 35 d7 3d f3 17 e2 3d
       -0.11176096 -0.030994758 0.10508296 0.11039724
0001d0 95 9f ce 3d 8b ad 4a 3d ac 07 8b 3d b1 8c 98 3c
       0.100890316 0.04948191 0.06788573 0.018621774
0001e0 b2 da c9 3d 7b 8a 42 3d ec a1 5a 3d 9e 72 11 3d
       0.09856166 0.047495347 0.053377077 0.035509698
0001f0 42 52 4d 3c f0 4c eb bd cb f1 a0 3b cf a7 15 bc
       0.012531819 -0.11489284 0.0049116365 -0.009134247
000200 43 e8 35 3c c4 b4 bf bc 73 1d 7d 3d 32 e9 15 bd
       0.011102739 -0.023401625 0.061795663 -0.036599346
000210 ff ab 55 bd 4f fb 4b 3d d7 88 e2 bd 8d 32 dd bd
       -0.05216598 0.049800213 -0.110612564 -0.108006574
000220 0d 8c b1 3d f4 ed bb 3d 94 15 c3 bd f0 2b 47 bc
       0.08669291 0.09176245 -0.095256 -0.012156472
000230 de 5c 89 bd ee cb d1 3d 47 38 b1 3d 4c 66 8d bd
       -0.06707166 0.102439746 0.08653312 -0.06904277
000240 20 87 7a 3d 80 77 e9 3d b3 7b bd bb 95 c0 c8 3d
       0.06116402 0.11399746 -0.0057825684 0.09802357
000250 6b 37 c0 bd e7 32 c7 3d 1f ed 19 3d 84 06 e6 3d
       -0.0938557 0.09726506 0.037579652 0.112317115
000260 50 1c c0 bc 3e dd 74 3d 43 ad 80 bd a9 cd a4 3d
       -0.023451 0.059781305 -0.06283047 0.08047039
000270 8f 2e 17 bd aa 3d 9e 3d 04 53 89 bd 23 9a 25 ba
       -0.036909636 0.07726605 -0.06705287 -0.00063172186
000280 fb 93 0a bd ab 9f a9 bd f3 4d cd bd 89 7e 13 bc
       -0.03383253 -0.082824074 -0.10024633 -0.009002336
000290 50 14 f3 bb 0a 7c 30 3d a7 a9 e4 bd 10 37 39 3d
       -0.007418193 0.043087043 -0.11165171 0.045218527
0002a0 2d a0 bc bd 28 57 46 3d cb b4 85 bd 98 70 ec bd
       -0.092102386 0.048422962 -0.06528624 -0.11544913
0002b0 ed 44 55 3d 7b ab 8c bd b2 ed 6f 3c b9 49 c2 bd
       0.052067686 -0.06868645 0.014644073 -0.09486718
0002c0 d5 16 9b 3d 5a 2a 8b 3d 69 32 31 bd 46 8a c6 bd
       0.07572714 0.06795187 -0.043260965 -0.09694342
0002d0 42 cf e9 3c dc 2f c9 3c 12 4b 81 3d c7 24 96 bc
       0.028541211 0.024558954 0.06313147 -0.018328084
0002e0 70 07 c9 bd 3d b8 89 ba 3b b6 5f bd 5c 99 2e 3c
       -0.09815872 -0.0010507178 -0.054617148 0.010656681
0002f0 24 bd a9 3c 40 5a 2b 3d 32 e8 56 bd d2 80 1b bd
       0.020720072 0.041834116 -0.052467532 -0.03796465
000300 a4 80 bb 3d cc b0 07 3d 3c 02 6b 3d f9 4a 01 3d
       0.091553956 0.03312759 0.057375178 0.03156564
000310 99 d1 b7 3d b9 3a b1 3d b0 21 11 3d 93 9d 89 bd
       0.089755245 0.086537786 0.035432518 -0.06719508
000320 7e fe c1 bd b9 2f df 3d a7 99 e9 bc 33 0a ce bd
       -0.09472369 0.10897774 -0.02851565 -0.10060539
000330 89 9a 3b bc ca a4 e1 bc 36 88 d2 bd 47 46 c2 3c
       -0.011450418 -0.027544398 -0.102798864 0.023715151
000340 12 cb 9a bc ef df 2b 3d 78 dd 20 3d db 72 72 bd
       -0.01889566 0.041961607 0.03927371 -0.059191566
000350 87 8b ce 3d 95 5b cc bc 04 d5 41 3d 3e 04 cd 3d
       0.100852065 -0.024946013 0.04732229 0.10010575
000360 b5 1b 84 bc a1 65 c5 bd 58 34 e6 bd ba 8e 78 3d
       -0.016126493 -0.09638525 -0.112404525 0.06068299
000370 b5 80 d9 bd 73 66 85 bd 44 67 5e 3d a6 4f 28 3c
       -0.10620252 -0.06513681 0.0542977 0.010272896
000380 6c fb 91 bb a9 5b c1 3d 30 46 83 bd 28 96 6f bd
       -0.0044550207 0.09441311 -0.064098716 -0.05849281
000390 01 e9 0c bd 3f 88 f2 3b c3 cb bb 3d 7d 26 d9 3c
       -0.034401897 0.0074014957 0.09169724 0.02650761
0003a0 07 03 97 bd b5 1f bf bd 28 0f 15 3d 47 9b 8a 3d
       -0.07373624 -0.093322195 0.036391407 0.06767898
0003b0 d5 38 d9 bd 09 c4 12 bd ef b1 ab bd 88 29 45 3d
       -0.10606543 -0.035831485 -0.083835475 0.04813531
0003c0 fe 40 5d bd 78 89 cc bd 67 21 7e 3d 48 db 0a bc
       -0.05401706 -0.099871576 0.062043574 -0.008475132
0003d0 7b b5 cb bd f7 79 c3 3d d6 d6 e9 bd 24 8e 3f bd
       -0.09946724 0.09544747 -0.1141793 -0.046766415
0003e0 34 29 9c bc c1 bb de bd 49 b4 63 bd c1 db 7e 3d
       -0.019062616 -0.10875655 -0.055591855 0.062221292
0003f0 e0 41 cc bd c0 05 28 3b 88 1a 98 bd 52 58 96 bd
       -0.09973502 0.0025638193 -0.074269354 -0.073410645

fc1.bias f4 [256]
000000 63 fe 28 3d e3 b9 26 3b 41 1b a3 3d 8e 96 21 3d
       0.041258227 0.0025440387 0.07964183 0.03945022
000010 66 9b 73 bd 9a 8e ad bd f5 a7 8a bd 8d cc 81 bd
       -0.05947437 -0.08474465 -0.067703165 -0.06337843
000020 eb 07 d8 3d 70 95 85 3d 34 65 0e 3b 3c dd 22 3d
       0.10548385 0.065226436 0.0021727802 0.039761767
000030 03 5d d1 3d ab 9a dd 3c a8 cd ba 3d f5 04 59 bd
       0.10222819 0.02705129 0.09121257 -0.052983243
000040 09 69 90 bc 04 77 9f 3d 9d 82 cb 3d b9 a6 d2 3d
       -0.01762821 0.07786372 0.09937022 0.10285706
000050 69 6e 05 bc 48 46 e9 3c 44 d6 cb 3d 90 83 3e bd
       -0.008144 0.028475896 0.09952977 -0.046512187
000060 f9 e9 29 bc 71 2e 40 bd 2d 77 9f 3d a0 04 1e bc
       -0.010370725 -0.04691929 0.07786403 -0.009644657
000070 70 7d dd bd d8 b8 8c bd 4f 4a 05 bd 54 b5 03 3d
       -0.10814941 -0.06871194 -0.03254157 0.03215535
000080 47 ee 68 3d 95 b3 9b bd 3e e0 20 bc 95 44 e3 3d
       0.056867864 -0.07602612 -0.0098190885 0.11097065
000090 75 10 0b 3d 5b f3 da bc 07 1c 12 bd c9 11 23 bd
       0.03395124 -0.026727369 -0.03567126 -0.039811883
0000a0 4f 04 bb 3b ea bf bd 3d 91 fd cf bd 2c a4 f8 ba
       0.0057073007 0.0926512 -0.10155786 -0.0018969825
0000b0 1e e0 e1 bd 1a c0 bd bd d2 c0 f4 3a f6 78 77 bd
       -0.11029075 -0.09265156 0.0018673188 -0.06041809
0000c0 4b 48 76 3d 64 dc 86 bc a7 c6 10 bc 6c 65 99 bd
       0.060127538 -0.016462512 -0.008836425 -0.07490048
0000d0 36 ab 61 bd 86 85 03 bd 71 72 44 ba 37 0d 22 3c
       -0.05509492 -0.03210976 -0.000749386 0.009890846
0000e0 89 2a fe bc 9c 41 4a bd 5b 2d dc 3d 70 1e d8 3b
       -0.031026142 -0.049378976 0.10750838 0.0065954253
0000f0 99 3d 13 3d 48 a7 2b bc 38 4d 48 3d b5 ad c9 bd
       0.035947416 -0.010476895 0.048901767 -0.09847585
000100 03 d1 21 3d 48 39 59 bc f5 76 e7 3d 4c e0 26 bd
       0.03950597 -0.013258286 0.11301986 -0.04074125
000110 d8 04 0e 3c 70 f4 78 bd 34 81 ea 3d 91 d3 85 bd
       0.008668147 -0.06077999 0.11450425 -0.06534494
000120 4d 2b cd 3d 11 14 88 3d 69 7a 35 3d ab be 2a bc
       0.100180246 0.06644452 0.044306193 -0.010421435
000130 93 2e 49 bd 35 6f 6c 3c 20 bc ea bd 27 12 8e 3d
       -0.049116682 0.014430811 -0.11461663 0.06937056
000140 b3 e4 6c bc d4 7d ac bb e3 3e 57 bd 65 5f 24 3d
       -0.014458823 -0.0052640233 -0.052550208 0.040130038
000150 ca 07 e5 3d 40 6c 0d 3d 26 35 50 3c 0b 4e 52 3d
       0.11183126 0.034527063 0.012707984 0.05134396
000160 34 04 99 bd 85 be c0 bd d6 d1 52 bd 32 36 da 3d
       -0.07471505 -0.09411339 -0.051469646 0.10654868
000170 ec 6d 17 3d 48 0c b9 39 48 16 62 bd f0 dc c3 3c
       0.036970064 0.000352951 -0.05519703 0.023909062
000180 83 5d d6 bd 36 fe 7d 3d 55 90 67 bd eb bf ed 3b
       -0.10467055 0.062010013 -0.05653413 0.0072555444
000190 42 84 51 3d 74 ae 1d bd 43 7f c2 3c 67 51 e4 3d
       0.05115152 -0.03849645 0.023742324 0.11148339
0001a0 6e 22 a0 3d 5e ef 5c bd 05 81 a6 3d be dc db bd
       0.07819067 -0.053939216 0.08130077 -0.107354626
0001b0 87 09 b3 3c 6f a9 76 bc 8c 0e 3e bd b0 76 87 bc
       0.021855129 -0.015055045 -0.04640059 -0.016536087
0001c0 95 55 b7 bd 8e d1 d9 bc ac f7 bc 3d b7 7f da bd
       -0.0895187 -0.026589181 0.09226927 -0.10668891
0001d0 8b 74 63 bb e3 8c bc bd 2a 2d e8 bd a0 fc e6 bd
       -0.0034706916 -0.092065595 -0.11336739 -0.11278653
0001e0 e0 cd 93 bd c5 a3 14 bc e6 ca 3c bd db cd cc 3d
       -0.07217002 -0.009072249 -0.046091937 0.10000201
0001f0 22 74 98 3d 15 7c a4 bd 86 9b eb bd f0 47 82 bd
       0.074440256 -0.08031479 -0.11504273 -0.06361377
000200 d1 e8 16 bb 73 2d 7f bc 61 df 98 bd e4 26 8c bd
       -0.0023026953 -0.015574801 -0.07464481 -0.06843355
000210 20 6c e7 bd a3 32 42 bd b6 a7 c3 3d 11 1a be 3c
       -0.1129992 -0.047411572 0.09553473 0.023205789
000220 d0 48 e7 bd 3f 6a ca bd 30 95 82 bc 4d 88 47 bd
       -0.11293185 -0.09883546 -0.015940279 -0.04871397
000230 95 dd 71 3d 6e e3 1c bc e5 ab 6e 3d 80 ab 8a bd
       0.059049208 -0.009575708 0.0582694 -0.06770992
000240 0a 9a 42 3d a4 d3 89 3d dc 98 b6 bd e2 4a e0 3d
       0.047510184 0.0672982 -0.08915874 0.10951783
000250 72 57 d0 bc d3 24 81 3d 62 1e 91 bd 67 44 5b 3d
       -0.025432322 0.06305852 -0.07085873 0.05353203
000260 f2 ac a2 3d e3 1e 94 3d 0b ab 80 3d a6 8e d7 3c
       0.07943143 0.07232454 0.06282624 0.026313137
000270 bf 16 82 3c 41 6c d9 bd 94 fd 96 3d 85 d1 89 3d
       0.015879987 -0.10616351 0.07372585 0.06729416
000280 d9 17 d8 bd aa 00 01 bb 0e 11 2c bd 4f 9b 10 3d
       -0.105514236 -0.0019684234 -0.042008452 0.035304364
000290 b2 55 24 3d ca 72 d7 bd 8f 53 5b bd fb 7f 44 3d
       0.040120788 -0.10519941 -0.053546485 0.047973614
0002a0 5b b3 c7 3c 7b 57 57 3c 72 8f 47 3d 8f e0 94 3d
       0.024377516 0.013143416 0.048720784 0.07269394
0002b0 5a 56 76 3c 55 19 0b bd 5e 15 b7 bd b0 e5 28 3d
       0.015035236 -0.033959705 -0.08939622 0.041234672
0002c0 a9 f7 3b 3d 27 b4 aa bd cc 21 59 bd 21 d7 b0 bd
       0.045890484 -0.083351426 -0.053010747 -0.086347826
0002d0 6c 81 b5 bd 05 f5 ca bd 66 93 ba bd 14 ea b1 3d
       -0.08862576 -0.09910015 -0.09110145 0.08687225
0002e0 82 6e dd 3d 7c c3 71 bb b2 35 81 bc 1f 3d 93 ba
       0.10812093 -0.00368902 -0.015772674 -0.0011233425
0002f0 a0 29 5c 3b b7 48 aa bd 8e 10 e1 bd 44 2d e3 3d
       0.0033594146 -0.083146505 -0.10989486 0.11092618
000300 ec fe de 3c b7 f5 36 3c c3 8e e6 bd 1b 8c 39 bc
       0.027221166 0.011166981 -0.112576984 -0.011324908
000310 5b ba a7 3d 57 0d e2 3d 55 63 d7 3d 54 b5 b9 3a
       0.08189841 0.110377006 0.10516993 0.001416842
000320 50 f2 02 3d c6 01 66 3d b7 d1 ca bc 58 8d 8e bd
       0.03196937 0.056154035 -0.024758203 -0.06960553
000330 08 d9 b9 3d 0b 36 d0 3d 6a 30 b5 bd a9 7f 3f 3d
       0.090745986 0.10166558 -0.08847125 0.046752606
000340 55 33 3b 3d 74 9c d4 bc 30 f1 be bc d0 17 97 3c
       0.04570325 -0.025953509 -0.023308367 0.018443972
000350 be a7 d4 bc a7 dc 73 bb 3e 82 91 bd ae c2 dc 3d
       -0.025958892 -0.0037210376 -0.0710492 0.1077932
000360 f7 46 c7 bd a5 c1 1a bd 3f 13 d4 b9 1b 39 e4 3d
       -0.09730332 -0.03778233 -0.0004045013 0.111437045
000370 f3 8c 9c 3d fc d1 42 3d 1b b5 d5 3d 3c a5 53 bd
       0.076440714 0.047563538 0.10434934 -0.05167125
000380 7e df 96 3c 0d c1 8a bd 51 17 4f 3d 88 41 9f bc
       0.018417116 -0.06775103 0.050559346 -0.019440427
000390 00 3d 94 bd 99 f8 de bc de 26 b0 bb 86 f0 a0 3c
       -0.07238197 -0.02721815 -0.005375727 0.01964594
0003a0 01 e5 e3 bd 2a eb bf 3d 74 85 a0 bd 4d 52 52 3b
       -0.111276634 0.09371026 -0.07837954 0.0032092512
0003b0 41 23 9d bd 77 70 3e bd ad ef 8a bd be 12 d6 3d
       -0.0767274 -0.046493974 -0.06783996 0.104527935
0003c0 95 2a 6e 3d 4b 31 24 bd 71 cd e8 3b 12 80 bb bd
       0.05814608 -0.040086072 0.0071045686 -0.09155287
0003d0 61 9b a9 3d 5c da a8 3c 60 ec 59 3c 77 d2 b9 bd
       0.08281589 0.020611934 0.013300985 -0.09073346
0003e0 78 0b bf 3d a2 45 5a 3c ea c7 3b bd 6c 41 ea bd
       0.09328359 0.013322266 -0.04584495 -0.114382595
0003f0 57 5b 94 3d 41 b6 a8 3d f8 75 56 3d 91 87 9e bc
       0.07243984 0.08237887 0.052358598 -0.019351752

fc2.weight f4 [256, 256]
000000 86 1b 31 3d 60 0c c4 bb 00 e2 4e 39 d0 4e c1 bb
       0.04323914 -0.0059829205 0.00019729882 -0.0058992878
000010 86 1c 30 bd 04 b8 89 bc cc 5e fb 3c 42 03 16 3d
       -0.042995952 -0.016811378 0.030684851 0.0366242
000020 80 d7 04 ba d4 72 6e bd 1c e3 c1 bc 7a 4a 3a bd
       -0.00050675124 -0.058214977 -0.023667865 -0.045481183
000030 10 39 40 bc b0 2b a7 bc 50 dd ba bc c6 31 08 bd
       -0.011732355 -0.020406574 -0.022810608 -0.033250593
000040 68 8c ed bc b8 f9 2b 3d d4 c2 f6 3c 84 6f 79 3d
       -0.028997615 0.041986197 0.030122198 0.060897365
000050 34 42 a1 3c 00 1a 13 3b c0 ef ba bc 68 5d 6e 3c
       0.019684888 0.0022445917 -0.0228194 0.014548637
000060 30 c4 c3 bb 64 a7 82 3c b4 b3 69 3d 8e c3 54 bd
       -0.005974315 0.015948959 0.057056144 -0.051944308
000070 e0 c0 09 bc 06 60 1f 3d 9c 8f b8 bc 84 50 b4 bc
       -0.008407801 0.038909934 -0.022529416 -0.02201105
000080 d4 e5 05 bd 70 ab 26 3d 90 b1 d5 3b ac b7 8f bc
       -0.032689884 0.04069084 0.0065214112 -0.017543636
000090 58 8e 4a bc b8 e0 e2 3c b0 bc 7a 3d 80 5b 79 bb
       -0.012363039 0.027695045 0.061215103 -0.0038048923
0000a0 48 1b 0c bd 00 8f e5 3a fc ff fb bc a8 09 37 bd
       -0.034205705 0.0017513931 -0.030761711 -0.044686943
0000b0 d2 bb 71 bd e8 09 7d 3d 00 3e 08 ba e6 55 7c bd
       -0.05901701 0.061777025 -0.0005197227 -0.061605357
0000c0 d6 bf 0d bd 70 03 ea bc d8 6b b0 bc 0c da 77 bd
       -0.034606777 -0.028566092 -0.021535799 -0.06051068
0000d0 ba 85 25 bd 42 ff 08 bd f8 56 55 bd 04 00 a6 bc
       -0.040410735 -0.033446558 -0.052084893 -0.02026368
0000e0 d4 79 3a 3d ce b0 3f bd 00 68 9c 3a 50 b2 72 3c
       0.04552634 -0.046799473 0.001193285 0.014813021
0000f0 80 e9 cf bc 48 f9 1c 3c ba 70 3b 3d ac 10 69 bd
       -0.025379896 0.009580918 0.0457618 -0.056900665
000100 68 83 9d 3c f4 62 bf bc 5e 66 6a 3d b0 60 69 3c
       0.019227698 -0.023362614 0.05722653 0.0142442435
000110 b0 88 f8 bc d0 96 d6 bc dc a2 d4 3c 80 76 65 3d
       -0.030338615 -0.02619496 0.025956564 0.056021214
000120 c8 e0 02 3c 1e 02 51 3d 28 81 dd bc 3e 46 4d 3d
       0.007988162 0.05102741 -0.027039126 0.050115816
000130 80 de 97 bb b8 49 8d bc 30 13 ea bc 2c f4 c8 bc
       -0.0046346784 -0.017247066 -0.028573602 -0.024530493
000140 24 4a 6c bd 8e ad 40 3d 6c aa dd bc 38 de d5 3c
       -0.057687894 0.047040515 -0.027058803 0.026106939
000150 ee 15 7b bd 00 c8 47 3c b0 1e 05 bd 00 2f 0e 3c
       -0.06130021 0.01219368 -0.03249997 0.008678198
000160 4c dd 39 3d aa e3 07 bd a0 10 93 bc a0 cb b7 3b
       0.04537706 -0.0331761 -0.017952263 0.005608991
000170 a2 c5 49 bd 34 de 82 bc c0 f2 eb 3a 92 d3 55 3d
       -0.049260743 -0.015975095 0.0018001422 0.052203722
000180 98 0d 21 3d f6 5f 18 3d 04 28 2a 3d 2c 21 f3 bc
       0.039319605 0.03720089 0.041542068 -0.029678904
000190 20 2c 2f bb c0 1c 1d bb b8 a1 37 3d d4 bb e0 bc
       -0.0026729181 -0.0023973435 0.04483196 -0.027433313
0001a0 a8 3f d6 bc ec 4e 80 bc ac c6 d5 3c 18 90 1e bc
       -0.0261534 -0.015662633 0.02609571 -0.009677909
0001b0 a0 55 5b 3d 78 32 23 bd 4e 1c 71 bd 54 75 33 3d
       0.053548455 -0.039843053 -0.058864884 0.043813065
0001c0 d0 f1 47 bc 48 3a 39 bc 48 81 35 bd 04 47 fa bc
       -0.012203649 -0.011305399 -0.044312745 -0.030551441
0001d0 4c 9e 5c bd de 7f 6c 3d 6c f0 fa 3c 50 a3 4e 3c
       -0.0538619 0.05773913 0.03063222 0.012612179
0001e0 e8 66 ff 3c fa 2e 08 bd d0 47 47 3c be b2 0c 3d
       0.031177 -0.033247925 0.0121631175 0.03435015
0001f0 00 10 4b bc 00 cc 53 3c a0 4c 8e bb 28 2a 7e 3d
       -0.012393951 0.012927055 -0.0043426305 0.062051922
000200 62 cb 1c bd ac e1 57 3d 5c 60 d4 bc 7c e4 03 3d
       -0.0382799 0.05270545 -0.025924854 0.03220032
000210 54 f3 27 bd da 95 31 3d 20 e7 10 bd f0 aa ff bb
       -0.04100354 0.0433558 -0.035376668 -0.0078023598
000220 06 5c 4b bd 88 d2 c5 bc 9c af cb 3c e4 44 d8 3c
       -0.049648307 -0.02414824 0.02486401 0.026400037
000230 8c 5d 21 bd cc 93 21 3d 08 6b 0b 3d 90 e9 de bb
       -0.039395854 0.03944759 0.03403762 -0.006802745
000240 54 28 bf bc a4 e8 2c bd cc 19 d1 bc 80 70 b7 3a
       -0.02333466 -0.04221405 -0.025524996 0.001399532
000250 c0 ff 11 3d e8 1c 97 bc 54 b3 d2 3c d8 a7 10 3d
       0.035644293 -0.0184464 0.025720276 0.03531632
000260 dc 3b 67 3d 2e 94 32 3d 7c 2d 81 3c 6e 01 6d bd
       0.05645357 0.043598346 0.015768759 -0.05786269
000270 00 77 9c bc d8 bd 2f bd c0 47 d3 3a ec 5c dc 3c
       -0.019099712 -0.04290566 0.0016119406 0.026899777
000280 d0 76 3c bc b2 f1 40 3d 84 95 a7 3c b0 4e 90 bc
       -0.0115029365 0.0471055 0.020457037 -0.017615646
000290 a8 d7 3f bd 00 16 18 3c 72 89 4f 3d b8 d9 b9 bc
       -0.046836525 0.009282589 0.050668187 -0.022686824
0002a0 62 cd 4a 3d 24 d0 1c bd 84 1c 72 3d 98 33 28 3c
       0.049512275 -0.038284436 0.059109226 0.010266207
0002b0 94 99 e2 3c 20 07 ca bc f0 f7 78 bc ac 62 23 bd
       0.027661122 -0.0246616 -0.015195832 -0.039889023
0002c0 00 1f ad 39 76 73 65 3d 3c 11 b8 bc fe 7d 56 3d
       0.00033020228 0.056018315 -0.022469155 0.05236625
0002d0 dc 7c c9 bc 0e 62 43 bd d0 b2 42 3c 00 53 01 3a
       -0.02459567 -0.047700934 0.011883453 0.00049333274
0002e0 f2 5f 47 bd 34 25 80 bc ac 6d 70 bd a4 96 ee 3c
       -0.048675485 -0.01564274 -0.05869834 0.029124565
0002f0 da 6d 36 3d 0e 2c 02 3d 40 26 cd bc 10 42 57 3d
       0.044538356 0.031780295 -0.025042653 0.052553236
000300 9c ee 56 bd 3e a0 0d 3d 80 3a 5f bd f0 a6 c0 bb
       -0.05247365 0.034576647 -0.05449915 -0.0058792755
000310 90 9f 43 3d 60 ca 50 bc 3c 48 5e bd 36 7c 13 bd
       0.047759593 -0.012743562 -0.054268107 -0.03600713
000320 be d3 7c 3d f2 ff 7a 3d 64 20 8e 3c b4 e8 f3 3c
       0.06172537 0.061279245 0.01734943 0.029774047
000330 32 6d 2c 3d a0 f8 82 3b 90 ba 34 3d ca ec 4f bd
       0.042096324 0.0039969236 0.044123232 -0.05076293
000340 78 60 53 bc 9a 2d 0a bd 40 4d bc ba 40 d8 10 bc
       -0.012901418 -0.033734895 -0.0014366284 -0.0088406205
000350 10 c1 0a 3d c0 ee 94 bc 40 88 fa 3c 10 fd 27 bd
       0.033875525 -0.018180251 0.030582547 -0.041012824
000360 5c b9 72 3d 9c fa 49 bd e0 82 3a 3b d4 00 c5 bc
       0.059258804 -0.049311265 0.0028459355 -0.024048246
000370 be 8f 12 bd ec 0a 24 bd 46 44 60 bd e8 0f 0d bc
       -0.035781614 -0.04004948 -0.05475261 -0.008609749
000380 da f2 43 bd 00 7d a6 bb 7c 4f 46 3d 8c 69 63 3d
       -0.047839023 -0.005080819 0.048415646 0.05552058
000390 de 4a 3e 3d ce 7d 57 3d a8 9e f9 bc e4 4a d4 3c
       0.046458118 0.05261021 -0.030471161 0.025914617
0003a0 c6 03 59 3d 88 d4 28 bc 04 bb bb 3c ea 3b 4a bd
       0.052982114 -0.010304578 0.022916324 -0.049373545
0003b0 0c 42 5b bd 08 f9 48 3c 20 96 0d 3c 1e fd 00 3d
       -0.053529784 0.012266405 0.00864175 0.03149139
0003c0 28 e2 1b bd 68 0c 31 bd 2a 56 7a 3d 96 1e 08 3d
       -0.038057476 -0.043224722 0.06111733 0.033232294
0003d0 f0 6a 12 3d 18 8e c2 bc 14 17 1d bd d6 2d 4c 3d
       0.035746515 -0.023749396 -0.038352087 0.0498484
0003e0 68 a7 37 bd 2e c7 08 3d c8 20 97 bc c4 f8 ee bc
       -0.044837385 0.033393078 -0.018448249 -0.029171355
0003f0 5c 33 7b 3d da fc 2e bd 42 0b 3e bd 38 ce 60 3d
       0.061328277 -0.042721607 -0.046397455 0.054884166

fc2.bias f4 [256]
000000 00 68 1a 3d 94 81 e2 3c 58 bd bd 3c c0 a8 c3 3b
       0.03769684 0.027649678 0.023161575 0.0059710443
000010 ae dc 0b 3d 2c 34 c7 bc 2e e2 5b bd 7a a9 2c bd
       0.034146003 -0.02431687 -0.0536825 -0.042153813
000020 6c 2e e9 bc 80 4c a0 3a b0 6b dc 3b 0c 3a 78 bd
       -0.028464518 0.001222983 0.0067267045 -0.060602233
000030 28 07 52 3c 30 a6 6b 3d aa 99 03 bd 5e 76 2f 3d
       0.012819089 0.057531536 -0.032128967 0.042837493
000040 2c 2b 40 bd c6 86 61 bd 54 12 c2 bc c0 84 20 3b
       -0.046916172 -0.05506017 -0.02369038 0.0024493188
000050 e8 70 79 bc b0 a2 e8 3b 1e 8a 7d 3d 40 3d 94 3b
       -0.015224673 0.007099472 0.061899297 0.004523903
000060 80 8d e5 3b e6 c9 45 3d 2a 6c 57 bd 00 61 b0 3b
       0.0070053935 0.04828825 -0.052593388 0.005382657
000070 94 b0 c0 3c 24 00 39 bd 9c 05 13 bd 9e 50 1a 3d
       0.023521699 -0.04516615 -0.03589402 0.03767454
000080 b8 fd 16 3d 18 ac ea 3c b4 31 b0 3c f8 70 94 3c
       0.03686306 0.028646514 0.021508075 0.018120274
000090 88 a2 56 bc 60 7b 41 bc b6 cf 73 bd e8 ad 0d bd
       -0.013100274 -0.0118092 -0.05952426 -0.034589678
0000a0 ca f0 71 3d 5e 6d 60 bd 68 8e 76 bc 40 8e 8e bc
       0.059067525 -0.0547918 -0.015048601 -0.017401814
0000b0 a0 17 e7 bb e0 33 5a bc 88 dd a4 3c 86 2f 08 bd
       -0.007052377 -0.013318032 0.020125166 -0.033248447
0000c0 84 e9 d5 bc 0a 4d 5f bd 42 bc 1a 3d 6e 6c 01 bd
       -0.026112325 -0.05451683 0.037777193 -0.031597547
0000d0 7e 17 63 bd 52 dd 36 bd 10 58 f1 3b 14 91 c5 3c
       -0.055442326 -0.04464466 0.007365234 0.02411703
0000e0 06 77 74 3d 74 5b ba 3c bc 45 52 3d 28 cf 2e 3c
       0.059683822 0.022748686 0.051336035 0.010669507
0000f0 c0 53 56 3b c4 42 e4 bc f6 d0 17 bd a8 ae 50 bc
       0.0032703727 -0.027863868 -0.037064515 -0.012736954
000100 c8 59 aa bc 84 d2 2e bd b0 5f 0c bc 54 9d 82 3c
       -0.020794764 -0.042681232 -0.008567736 0.01594416
000110 f0 32 29 bc d0 0f 09 bd 2a a4 1f bd 28 fe 84 bc
       -0.010327086 -0.033462346 -0.03897492 -0.016234472
000120 e8 8b bd 3c 78 bd 29 3d 30 a0 fb 3b a0 ec 1a 3d
       0.023138002 0.041440457 0.007679008 0.03782332
000130 80 6e 68 3d 80 dd 7c 3d 32 82 56 3d c8 73 dd 3c
       0.056746006 0.061734676 0.052370258 0.027032748
000140 9e 87 46 3d 90 40 f7 3b 14 d9 6e 3d 50 1c 48 bd
       0.04846918 0.0075455382 0.05831249 -0.048855126
000150 6c bc f2 3c a0 41 a7 bc c6 e2 4c bd e4 31 ef 3c
       0.029630862 -0.020417035 -0.050020956 0.029198594
000160 98 94 aa 3c 60 fd bb bb ac 36 1a 3d f8 24 31 3d
       0.020822808 -0.0057369918 0.037649795 0.043248147
000170 88 71 32 bd 40 13 0a 3b b2 e9 29 3d 00 a4 f7 b9
       -0.043565303 0.0021068603 0.041482635 -0.000472337
000180 68 21 2e 3c 58 6c a2 3c 1c 97 3e bd 08 f0 77 bd
       0.010628082 0.019827053 -0.046530828 -0.060531646
000190 40 f0 11 3c d0 06 3f 3c 4e cb 2f bd 20 c2 ba bb
       0.008907378 0.011659339 -0.042918496 -0.005699411
0001a0 68 83 86 bc 00 20 3d 3c ba 5a 07 3d ac f6 1a 3d
       -0.016420081 0.011543274 0.033045508 0.0378329
0001b0 70 3f df bc 70 b2 cd 3c 40 d3 b7 bc 34 dd 66 bd
       -0.027251929 0.0251095 -0.022439599 -0.0563633
0001c0 12 c0 14 bd 60 5e b6 bb 20 9a 3a bb b6 61 07 bd
       -0.036315985 -0.0055654496 -0.0028473213 -0.03305217
0001d0 e0 15 0e 3c 22 81 6d bd a0 20 6a bb a4 ba c1 bc
       0.008672208 -0.05798448 -0.0035725012 -0.023648567
0001e0 98 77 a1 3c 4e b9 6e bd 5e cc 74 bd c0 b0 ce 3b
       0.019710347 -0.05828219 -0.059765212 0.0063076913
0001f0 de 6c 34 bd a0 87 62 3d 08 58 f9 bc 00 8b 8e 3c
       -0.044049136 0.055305123 -0.030437484 0.017400265
000200 1e 9b 77 bd f8 e2 64 bd 8a f5 63 3d 80 6a 1f bc
       -0.060450666 -0.055880517 0.055654086 -0.009729981
000210 c2 ea 7d 3d 08 f4 3c bd 2c 52 fe 3c c8 be 57 3d
       0.06199146 -0.046131164 0.031045042 0.052672178
000220 7a 22 18 bd 24 1f 33 3d 02 60 75 bd a2 ce 4d bd
       -0.037142254 0.04373087 -0.059906013 -0.05024589
000230 b8 2d 8c bc e8 fa f3 3c 7c b1 70 3d d6 7b 75 bd
       -0.017111644 0.029782727 0.058763012 -0.059932552
000240 c0 42 de 3c 9e 03 20 3d 00 38 7e bb ac 0b 51 bd
       0.027131438 0.03906595 -0.0038790703 -0.05103652
000250 40 4c 47 3c ea 61 25 3d a8 b8 d8 bc e6 20 28 3d
       0.0121641755 0.04037658 -0.026455238 0.041047
000260 d8 d5 27 3c 1c 6b 96 bc fc c8 35 bd be 36 0d bd
       0.010243855 -0.01836162 -0.044381127 -0.034476034
000270 c4 40 2e 3d fc bb 78 3d 00 a6 8b ba c6 d7 7d 3d
       0.042542234 0.06072615 -0.001065433 0.061973356
000280 40 cf 2d bc e0 92 96 3c 68 5c a7 bc 4e 67 55 3d
       -0.010608494 0.018380582 -0.020429805 0.052100472
000290 60 ab 56 3d 7a c2 1b bd 44 5c 27 3d 10 36 dd bc
       0.05240953 -0.038027264 0.040859476 -0.027003318
0002a0 04 8f cf 3c 3e bd 77 3d 98 bf 92 bc 00 bf 33 3b
       0.02533675 0.06048321 -0.017913625 0.0027427077
0002b0 70 a1 d3 bb c6 dc 70 3d f4 5d 9a bc 1a 2a 48 bd
       -0.006458454 0.058804296 -0.018843628 -0.048868276
0002c0 c0 43 0e bd 6c 88 ec bc 50 80 d3 3c dc 52 36 3d
       -0.03473258 -0.028873645 0.02581802 0.044512615
0002d0 10 43 e8 bc 8a d8 4e bd 3c 1a 76 bd e8 77 57 3c
       -0.02835229 -0.050499476 -0.060083613 0.0131511465
0002e0 7c f2 4d 3d 08 d4 b5 3c 48 d5 6f 3d ba 97 6c 3d
       0.05028008 0.022195831 0.05855301 0.057761885
0002f0 44 27 80 bc 9c 4d 6a 3d d0 39 89 bc 28 90 b9 bc
       -0.015643723 0.05720292 -0.0167512 -0.022651747
000300 5e df 14 bd 54 26 ab bc 4c fe 1f 3d c0 69 ca 3a
       -0.036345832 -0.0208923 0.039060876 0.0015442893
000310 6e 67 65 bd c4 5e d5 3c 8e 77 33 bd 08 ac 55 3d
       -0.05600684 0.026046164 -0.043815188 0.052166015
000320 dc fc aa 3c 74 27 13 bd e0 01 5c bd b0 7a 63 bd
       0.020872526 -0.035926297 -0.053712726 -0.055536926
000330 8a 0e 47 bd 40 04 b3 bc fa 07 4c 3d f0 66 ba 3c
       -0.04859785 -0.021852612 0.049812295 0.022754163
000340 58 b1 6f bd 26 62 71 bd 68 2d 07 3d 9c d1 54 bd
       -0.058518738 -0.058931492 0.033002287 -0.05195771
000350 be 80 50 bd 6a 09 05 bd 90 80 2a 3c 4a c1 31 3d
       -0.050904028 -0.03247968 0.010406628 0.043397225
000360 ae 51 62 3d fc f6 23 bd 40 b2 47 bd 90 4e 4d 3c
       0.055253677 -0.040030465 -0.048753977 0.012530938
000370 02 2f 73 bd 90 c6 24 bc 28 c7 7c 3d f0 b1 39 3c
       -0.059371002 -0.010057107 0.061713368 0.0113339275
000380 c0 f7 e7 bb a6 93 46 3d 40 bd c2 ba 00 60 fd ba
       -0.0070790946 0.048480652 -0.0014857426 -0.0019330978
000390 b6 af 74 bd f8 f2 67 bd 70 fd 80 bc 18 82 13 3d
       -0.059737884 -0.056628197 -0.015745848 0.03601274
0003a0 de 5f 4c 3d 64 7b 15 3d 74 85 55 bd 12 8d 3b bd
       0.049896114 0.036494628 -0.052129224 -0.045788832
0003b0 56 69 5f 3d 9c 85 5d bd b0 af fd 3c f0 4e 4e bd
       0.054543816 -0.054082498 0.030967563 -0.05036825
0003c0 68 d1 4a 3d d6 b3 78 3d 92 49 5e 3d 00 d9 33 3d
       0.04951611 0.06071838 0.05426938 0.04390812
0003d0 a2 15 7d 3d c4 07 ac bc 64 9c 38 bd b2 bb 2d 3d
       0.06178821 -0.020999797 -0.04507102 0.04241533
0003e0 60 82 0b 3c 22 ae 58 3d ce 5c 21 bd b0 30 a5 3b
       0.008514971 0.05290044 -0.039395146 0.0050412044
0003f0 c0 f2 e3 3b 46 60 0c bd 02 29 73 bd ee 4f 76 3d
       0.0069564283 -0.0342715 -0.05936528 0.06013482

fc3.weight f4 [256, 256]
000000 18 85 2d bd 28 13 66 bc 3a b2 48 bd 42 32 0b 3d
       -0.042363256 -0.014042653 -0.048998095 0.033983476
000010 d4 59 d6 3c 3a 2f 48 3d 3c d7 4a bd 8a 09 5f bd
       0.02616588 0.048873164 -0.04952167 -0.054452457
000020 f0 41 1e 3d 28 ac 94 3c 0c a2 46 3d e0 8e 23 bd
       0.0386371 0.018148497 0.048494384 -0.039931178
000030 88 b1 ed bc ba 7b 4c 3d 70 8e 6c bd 80 09 22 3b
       -0.029015318 0.049922682 -0.057753026 0.00247249
000040 04 17 78 bd 2c 78 7e bd 3c 5a ca 3c 00 9b 0c 3b
       -0.060568824 -0.062126324 0.02470123 0.0021454692
000050 58 3a aa 3c 02 d1 07 3d d4 c8 a7 bc d4 34 e6 bc
       0.020779774 0.03315831 -0.020481504 -0.028101362
000060 d4 ad 71 bd 60 60 8a 3c 20 a6 30 bb 94 5a d9 bc
       -0.059003666 0.016891658 -0.0026954487 -0.026532449
000070 f8 ab e7 3c 96 ee 77 3d 1a 8c 37 3d 00 21 5d 3d
       0.028280243 0.060530268 0.044811346 0.05398655
000080 8a 53 32 bd 0c a9 c9 bc 20 d2 3b bb 28 ff 03 bd
       -0.0435367 -0.02461674 -0.002865918 -0.032225758
000090 34 67 34 3d 10 1b 9a 3b dc ec 97 3c ae a9 4a bd
       0.044043735 0.004702933 0.01854556 -0.049478225
0000a0 b6 55 4d bd 5a f6 1b bd 80 8c a1 3b 8c 4f 41 3d
       -0.05013057 -0.038076736 0.004930079 0.047195002
0000b0 86 89 38 bd 20 82 cc 3c a4 94 a1 3c ea e0 56 bd
       -0.045053028 0.024964392 0.019724198 -0.05246059
0000c0 24 14 5b bd ee ec 6e 3d e4 90 ac 3c f0 96 2f bd
       -0.053486004 0.058331423 0.021065183 -0.042868555
0000d0 5a da 57 bd 3a fe 0e 3d c8 a8 3f bc c0 7d 06 bd
       -0.05269847 0.034910418 -0.011697955 -0.03283477
0000e0 40 32 65 3b b0 44 23 3d 30 e9 90 bc f0 1c 24 bd
       0.0034972578 0.039860427 -0.017689317 -0.04006666
0000f0 14 07 ce bc c4 3d d7 bc a4 e1 1d bd e2 67 7b bd
       -0.02514986 -0.02627457 -0.038545266 -0.061378367
000100 08 f3 60 bd e2 c4 13 bd 58 ae 2f 3c 58 d2 34 3c
       -0.054919273 -0.036076434 0.010722719 0.011036478
000110 58 49 3b 3d 60 34 4a bb 20 07 0c 3b 58 f7 91 3c
       0.045724243 -0.0030853972 0.0021366552 0.017818138
000120 f4 52 22 bd 78 f7 82 3c 42 fc 30 bd 6c 2f fa bc
       -0.03962989 0.015987143 -0.04320932 -0.03054019
000130 e0 bf 35 3b 24 c6 8a bc 00 cd d1 39 e0 55 25 bb
       0.0027732775 -0.016940184 0.00040016323 -0.0025228187
000140 0c 9f 7b bd 50 5e b9 3c 5c 4b 65 bd cc 16 16 bd
       -0.061430976 0.02262798 -0.05598007 -0.036642835
000150 24 1d 96 3c 96 18 68 3d 8e c9 1b 3d d8 1b 21 bd
       0.018324442 0.056664072 0.038034014 -0.039333194
000160 80 d9 0a 3c d8 8b e8 3c 10 0e 14 bc b8 b6 30 3d
       0.008474708 0.028386995 -0.009036556 0.043143004
000170 de 97 3d bd 64 e5 78 bd 40 06 ef bc d2 49 38 3d
       -0.04628741 -0.06076564 -0.029177785 0.044992276
000180 9c 4e b2 3c ae b7 54 bd 8c 3b 4a 3d 92 ab 27 bd
       0.021766 -0.051932983 0.049373195 -0.040935107
000190 20 2d 76 3c ec 55 6b 3d 90 e0 7a bd 14 40 3d 3d
       0.015025407 0.05745499 -0.061249316 0.046203688
0001a0 1a 0d 25 3d 90 7a 16 3d 3c 8d fe 3c aa 93 62 3d
       0.040295698 0.03673798 0.031073205 0.055316605
0001b0 d6 b6 7e 3d 10 2f cf 3b 70 76 33 3d e0 a9 69 bd
       0.062186085 0.006322749 0.043814123 -0.05704677
0001c0 a0 48 b8 bc dc 44 8e 3c 00 20 b7 38 76 16 45 bd
       -0.022495568 0.01736682 8.7320805e-05 -0.048117124
0001d0 98 60 50 bd 82 e2 6d bd d6 5a 4e 3d 88 90 2c 3d
       -0.05087337 -0.058077343 0.050379597 0.042130023
0001e0 08 92 e0 bc ec 56 58 bd 14 ae 27 3d 30 b9 07 3c
       -0.027413383 -0.05281727 0.0409375 0.008283898
0001f0 a0 2e 2b 3b ac b8 6f bd 1e fc 5e bd bc 16 94 3c
       0.002612032 -0.058525726 -0.054439656 0.018077247
000200 c0 8b b9 3b 40 5b 42 3b 14 c1 75 bd 90 f3 a3 3b
       0.0056624115 0.002965644 -0.059998587 0.0050034
000210 a4 dc 3b bd c8 ba 9a bc 5c da a2 bc ea f1 20 3d
       -0.045864716 -0.018887892 -0.019879512 0.039293207
000220 52 cd 47 bd 54 8e 53 3d 56 60 7d bd 30 23 db bb
       -0.048779793 0.051649407 -0.06185945 -0.0066875443
000230 80 04 dd 3b b2 a7 3f bd ee b0 77 3d c6 5d 43 bd
       0.006744921 -0.046790786 0.060471468 -0.04769685
000240 64 ff 4a 3d 74 04 9b 3c c0 a5 cf 3b 00 0a fb b9
       0.049559966 0.018923022 0.0063368976 -0.000478819
000250 c6 6b 2d bd 60 f6 8f bb 4a 21 12 bd 64 dd 6f bd
       -0.04233911 -0.004393384 -0.03567628 -0.058560744
000260 02 ba 09 3d c0 c3 45 3d 46 d5 4f bd 76 91 42 bd
       0.033624656 0.048282385 -0.050740503 -0.047502004
000270 68 50 21 3c b2 ba 30 3d 00 b2 20 b9 20 f0 ae 3b
       0.0098458305 0.043146797 -0.00015325099 0.0053386837
000280 c0 a2 1c bb a0 39 2f bc ae bf 4b bd 52 29 68 bd
       -0.0023900717 -0.010694891 -0.049743347 -0.05668003
000290 d4 57 02 3d 72 65 79 3d 8e eb 6b bd 34 2e e5 3c
       0.03182204 0.06088776 -0.05759769 0.027976133
0002a0 dc dd 7d bd e0 88 bf 3c bc 5e 18 3d 1e 2d 16 bd
       -0.06197916 0.023380697 0.03719972 -0.03666412
0002b0 50 92 0d 3d f2 1d 52 bd 74 a8 6e bd 98 93 5c bc
       0.034563363 -0.05129809 -0.05826612 -0.0134629235
0002c0 bc 83 bf 3c 58 4c a4 3c 78 ec 45 bd 80 38 c0 bc
       0.023378246 0.020055935 -0.048321217 -0.023464441
0002d0 18 cd c6 bc 90 ff 54 bd b0 d4 83 bb de 07 26 bd
       -0.024267718 -0.052001536 -0.004023157 -0.040534846
0002e0 60 4f 49 3b c0 be 0f 3b 08 97 1a 3c ac 78 aa 3c
       0.0030717477 0.0021933764 0.009435423 0.020809494
0002f0 42 1f 05 3d 24 ff 03 3d a0 88 78 3b ae 29 17 3d
       0.032500513 0.032225743 0.0037923232 0.036904983
000300 32 51 3d bd 6e 85 69 3d 76 7e 7f 3d 12 e1 3d bd
       -0.046220012 0.057012014 0.062376462 -0.046357222
000310 b4 4a 8c bc 58 b2 f8 bc d8 85 3b 3c 62 9b 1c 3d
       -0.017125465 -0.030358478 0.011445485 0.038234122
000320 f4 36 ab bc 66 19 26 3d 3e d6 7f 3d 80 4a 11 3d
       -0.020900227 0.040551566 0.062460177 0.03547144
000330 c0 84 fe 3b f0 96 ee 3b e0 75 3e 3d e8 03 47 3c
       0.00776729 0.0072811767 0.046499133 0.012146927
000340 f6 a3 44 bd 0c 1d 0c bd cc 47 f9 bc 4c 9c f1 3c
       -0.048007928 -0.03420739 -0.030429743 0.029493473
000350 44 44 f7 bc 26 34 04 bd c6 e8 31 bd 8a 8e 66 bd
       -0.030183919 -0.032276295 -0.04343488 -0.05628828
000360 64 b2 37 3d 44 1a d4 3c 64 7e 27 bd e8 29 5a bc
       0.04484786 0.02589143 -0.04089202 -0.013315655
000370 0c a6 63 bd 80 a0 f7 ba 2c d1 8a 3c e0 99 f5 3b
       -0.055578277 -0.0018892437 0.016945444 0.00749515
000380 30 d0 57 bd 10 dc 1b bc 30 85 24 bd cc bd 94 bc
       -0.052688777 -0.009512916 -0.04016608 -0.018156908
000390 f0 6d 6b 3c a0 1e 97 bb 6c be 45 3d c0 13 ff 3a
       0.014369473 -0.004611805 0.048277304 0.0019460842
0003a0 70 46 06 3d 34 56 89 3c 40 34 f4 bc 08 e0 e6 bc
       0.03278202 0.016764738 -0.029810071 -0.028182998
0003b0 f8 d5 10 bd 4a 7c 69 3d ec 29 a0 3c a0 eb 5d bc
       -0.035360307 0.057003297 0.01955124 -0.013544947
0003c0 30 6c 59 bc 68 1e 18 bc e4 0b 45 bd 8e 8c 16 bd
       -0.013270423 -0.009284593 -0.048107043 -0.036755137
0003d0 34 7a c1 bc 4c 8f 01 bd 40 e5 30 bc a8 20 58 bc
       -0.023617841 -0.0316308 -0.010796845 -0.01319138
0003e0 24 0e e0 bc e8 fa 2a bc 52 b7 75 3d ac da af bc
       -0.027350493 -0.010435797 0.05998928 -0.021466576
0003f0 28 78 22 bc f8 3e 03 bc 4e ae 38 3d 80 e8 da 3b
       -0.009916343 -0.008010618 0.045088105 0.006680548

fc3.bias f4 [256]
000000 88 8d 3b 3d 66 b9 4d 3d 94 b5 33 bd 02 45 37 3d
       0.04578927 0.050225638 -0.04387434 0.044743545
000010 58 96 41 3c dc 0f 44 bd be 05 26 bd 30 a9 4f bd
       0.01181563 -0.047866687 -0.04053282 -0.05069846
000020 28 d9 0d bd 80 17 62 bc 48 ab b4 3c fa 05 74 bd
       -0.034630924 -0.013799548 0.02205433 -0.059576012
000030 b0 53 56 3c c0 06 ff bb 88 38 82 3c e0 5e 32 bc
       0.013081476 -0.007782787 0.015896097 -0.010886878
000040 20 1e 51 3b 00 00 aa bc ee 7a 28 bd 0e 1c 41 3d
       0.0031908825 -0.020751953 -0.04113286 0.047145896
000050 00 5c ab b8 e4 40 36 3d a0 c3 78 bd 6c f4 30 bd
       -8.171052e-05 0.04449548 -0.060733438 -0.04320185
000060 30 0f 93 3b 14 ad b1 bc 6a 9d 1d bd 60 8c e5 3b
       0.0044878945 -0.021688975 -0.0384802 0.0070052594
000070 14 56 a4 bc 90 23 34 bd ea 44 4b 3d 20 9b 56 bc
       -0.020060576 -0.043979228 0.04962627 -0.013098508
000080 00 d8 40 bc 94 9a cf 3c e8 91 25 3d b0 90 9b bc
       -0.011770248 0.025342263 0.04042235 -0.01898989
000090 bc dc 43 bd 40 40 3a 3c e8 3b 70 3d 40 2f 19 bb
       -0.04781793 0.011367857 0.05865088 -0.002337411
0000a0 a0 2d 3f bb da 28 11 3d 1c 34 4c bd bc 40 65 3d
       -0.0029171482 0.03543935 -0.049854383 0.05596994
0000b0 7c 80 bf 3c 7a 37 64 3d 88 12 05 bd cc 37 09 3d
       0.023376696 0.05571697 -0.032488376 0.033500478
0000c0 12 35 09 3d 70 8b 49 bd 2e 73 35 bd 10 c4 b3 bb
       0.033497877 -0.049205244 -0.044299297 -0.005486019
0000d0 c2 b8 27 bd 00 78 ba 3b 8c c8 73 bd 4c 47 63 3d
       -0.040947683 0.0056905746 -0.05951743 0.055487916
0000e0 c4 d8 b1 3c c2 4d 0a 3d 30 97 f5 3c a4 c9 31 bd
       0.021709807 0.033765562 0.029979318 -0.04340519
0000f0 d0 1e 45 bc 80 97 38 3d 20 fe dc 3c 94 7f ec bc
       -0.012031272 0.045066357 0.026976645 -0.028869428
000100 84 bb 61 3d 50 3b ab bc c8 4e 0c bd ca 7f 61 bd
       0.05511047 -0.020902306 -0.03425482 -0.05505351
000110 ec 75 47 3d 30 b4 0b 3c ce 01 2f bd 78 ab b0 3c
       0.048696443 0.008526847 -0.04272633 0.021566138
000120 ce e5 40 bd d0 b6 f5 bb c0 48 60 bc d0 96 ef bb
       -0.04709416 -0.0074985996 -0.01368922 -0.0073116794
000130 54 5f 52 3d 0e e4 1e 3d dc 0c 38 3d 20 72 7d bb
       0.051360443 0.03879171 0.04493414 -0.003867276
000140 58 68 92 bc 00 a0 9b 3c 08 ad dc bc 4a 06 37 3d
       -0.01787202 0.018997192 -0.026937976 0.044683732
000150 c4 91 ad bc a8 22 3e 3c b0 aa 08 3d 00 63 f7 bc
       -0.02118767 0.011604942 0.033365905 -0.030198574
000160 4c 8b bb bc 50 a0 3d 3d 58 9d 86 3c 80 be ca 3b
       -0.02289357 0.046295464 0.01643245 0.00618726
000170 10 6a ec 3c 78 ea 14 bd a4 35 0b bd 04 14 59 bd
       0.028859168 -0.03635642 -0.033986703 -0.052997604
000180 0e bd 28 bd d4 fc c2 3c 8a b8 01 bd 80 73 e6 3b
       -0.04119592 0.023802198 -0.03167013 0.0070328116
000190 e0 82 90 bc 30 79 87 bb 1c 5b 84 bc f8 9b 08 3c
       -0.017640531 -0.0041343197 -0.016156726 0.008337967
0001a0 70 b8 b3 3b a0 40 5f 3d a4 81 a1 3c a4 aa f5 bc
       0.005484633 0.05450499 0.019715138 -0.029988594
0001b0 34 b8 c3 bc 38 4b 82 bc 3e 7b 02 bd 18 29 1c bc
       -0.023891546 -0.015905008 -0.031855814 -0.009531282
0001c0 3e 0e 11 bd a0 9b 01 3d 00 fb da bc b0 bf 9a bb
       -0.035413973 0.031642556 -0.026731014 -0.004722558
0001d0 16 2e 63 bd 30 59 58 3c 02 0a 22 bd 9c 08 de bc
       -0.055463873 0.013204858 -0.039560325 -0.027103715
0001e0 fc 98 d9 3c e8 44 61 bc e0 6a 9a bc 60 f5 95 bb
       0.026562206 -0.013749339 -0.01884979 -0.00457637
0001f0 30 29 46 3c 50 37 20 bd c8 a9 4b bd 38 d9 7e 3c
       0.012094781 -0.03911525 -0.049722463 0.015554719
000200 2a 87 5d 3d c0 c2 c2 bc e4 5c 2f 3d 60 a8 d8 bb
       0.05408398 -0.023774505 0.042813197 -0.0066118687
000210 28 90 fc 3c 1e 7a 36 3d 88 31 73 3d 98 1b 37 bd
       0.030830458 0.044550054 0.05937341 -0.04470405
000220 a2 8f 10 bd 86 4b 5c bd 9c 34 55 3d ae 81 67 bd
       -0.03529323 -0.053782962 0.052052125 -0.056520157
000230 e0 bc 2e 3c 00 67 5e 3b 64 51 ff 3c 98 39 b4 3c
       0.0106651485 0.0033935905 0.03116674 0.02200012
000240 80 40 e2 ba da 63 03 bd 68 d8 34 3d 90 d1 a6 3c
       -0.0017261654 -0.032077648 0.044151694 0.020363599
000250 ce ed 51 3d e8 0a 48 3c 50 f8 4b 3c d0 54 9b bb
       0.05125218 0.0122096315 0.012449339 -0.004740335
000260 b8 95 28 bd 8a d4 7e 3d fc 74 e5 3c 50 38 4e bd
       -0.041158408 0.06221441 0.028009884 -0.050346673
000270 c4 2a 27 3d 6e 8e 4d bd c8 a0 48 bc ec fe 56 3d
       0.04081227 -0.05018466 -0.0122453645 0.052489206
000280 12 0c 4b bd 90 da 0a 3c a8 a6 9b bc 52 b6 43 bd
       -0.049572058 0.008474961 -0.019000366 -0.047781296
000290 2c 65 ed 3c 60 68 10 3b 2a 3f 35 bd 04 a5 9d 3c
       0.028978907 0.0022034869 -0.04424969 0.019243725
0002a0 8e 6e 3e 3d b8 76 bb bc 98 c0 94 bc 82 3d 3f 3d
       0.046492152 -0.022883758 -0.018158242 0.046689518
0002b0 f8 9d 18 bc d0 d0 3c 3c 88 62 f2 bc ac 41 1a 3d
       -0.009315006 0.011524394 -0.029587999 0.037660286
0002c0 90 35 00 3d 98 8b 10 bd 4e a9 29 3d 04 eb 2c 3d
       0.03130108 -0.035289377 0.041421227 0.042216316
0002d0 e4 d8 82 bc 6c b0 6a 3d b8 21 37 3d 84 cc 76 3d
       -0.015972562 0.057297155 0.04470989 0.060253635
0002e0 a6 36 0e 3d 3c e0 cd 3c 4c 10 be 3c 88 ac e2 3c
       0.034720086 0.025131337 0.02320113 0.02767016
0002f0 00 97 ef bc be 19 0c bd 9c 11 de bc 96 b8 43 bd
       -0.029246807 -0.034204237 -0.027108006 -0.047783457
000300 32 ea 45 bd ae dc 29 3d 0c b6 5f 3d 32 10 1d bd
       -0.04831905 0.041470222 0.054616973 -0.038345523
000310 ca a4 2e bd c4 28 a3 bc 10 4c 45 3d d6 fb 14 bd
       -0.042637624 -0.0199169 0.048168242 -0.036372982
000320 60 06 72 bb 74 43 54 3d 18 eb b1 bc 80 95 91 bb
       -0.003693007 0.05182214 -0.021718547 -0.0044428706
000330 00 f4 fa b9 30 23 31 3c 08 15 1c 3c 10 df b2 3c
       -0.0004786551 0.010811612 0.009526499 0.02183488
000340 80 05 9e 3b 4c b1 ae bc d2 1a 05 bd f8 2b 91 3c
       0.004822433 -0.021324776 -0.03249628 0.017721161
000350 ec 71 dd 3c 1e 6e 04 3d 10 34 bc 3c b0 08 1c bd
       0.027031861 0.03233158 0.022974044 -0.038094223
000360 74 45 b0 bc 14 30 ea bc 42 0b 39 bd 4e dc 7c bd
       -0.021517493 -0.028587379 -0.045176752 -0.061733536
000370 e4 0d d5 bc 30 e6 af 3b cc 81 0f 3d ee f2 3e 3d
       -0.0260076 0.0053680167 0.035035893 0.046618395
000380 f0 a5 3b bc 78 06 05 3c f4 39 2a bd ca 32 1c bd
       -0.011453137 0.008119218 -0.041559175 -0.038134374
000390 68 18 7d bd d4 19 90 bc 1e 1c 7c bd 8e 7e 56 bd
       -0.061790854 -0.01759044 -0.061550252 -0.052366786
0003a0 f0 2f e0 3b ea 7b 75 bd cc e1 ec bc 70 09 fd 3c
       0.006841652 -0.059932627 -0.028916262 0.03088829
0003b0 0a 77 67 3d 64 35 60 bd 02 46 73 bd 46 b4 60 3d
       0.05651001 -0.054738417 -0.059392937 0.054859422
0003c0 26 87 6e bd 00 65 90 3b d2 56 41 3d 04 f3 9f 3c
       -0.058234356 0.0044065714 0.04720194 0.019525059
0003d0 70 21 ba bb d8 f8 46 bc 20 34 a9 bb 48 27 7c bc
       -0.0056802556 -0.01214429 -0.0051636845 -0.015390225
0003e0 40 fa 65 bb f8 66 a5 bc 10 07 c6 bc 44 1e 75 bd
       -0.0035091788 -0.0201907 -0.02417329 -0.059843317
0003f0 ec e3 a3 3c 3c 0a ec bc a6 e5 1e 3d d4 18 da bc
       0.020006143 -0.028813474 0.03879323 -0.026623167

output.weight f4 [4, 256]
000000 78 04 e7 bc b0 bd 14 bc 98 db 19 3c 6c 9f df 3c
       -0.028200373 -0.009078428 0.009390734 0.027297698
000010 08 1a d0 bc ec 00 6f bd 10 e3 52 3c 42 32 09 3d
       -0.025403038 -0.05835049 0.012871519 0.033495195
000020 fc 94 55 3d aa 45 66 bd 7e 78 15 3d 10 d8 64 bc
       0.052144036 -0.05621878 0.036491863 -0.013967529
000030 e0 91 53 bc 70 f9 8e bb f8 c9 a8 3c 82 3a 4a 3d
       -0.012913197 -0.0043632314 0.020604119 0.049372204
000040 82 48 69 bd c8 a2 51 bd b0 4d 78 3c 22 7e 13 3d
       -0.056953914 -0.05118063 0.015155241 0.03600896
000050 22 ff 17 3d 62 93 7f bd 64 01 9b 3c ce 2f 4a 3d
       0.037108548 -0.062396415 0.018921562 0.049361996
000060 e2 0f 4d bd 40 e9 39 3c e2 00 7a bd 50 41 92 3c
       -0.050063975 0.011347115 -0.061036 0.017853409
000070 64 19 aa bc c0 30 1e bb 20 09 1d 3b 00 c0 55 bd
       -0.02076406 -0.0024137944 0.0023961738 -0.05218506
000080 be 33 6e 3d 94 5f 63 bd 10 8e 8d 3b 30 7b ed 3c
       0.058154814 -0.055511072 0.0043199137 0.028989404
000090 70 80 24 bd 00 f5 e5 bb c4 35 18 3d 10 51 84 3b
       -0.04016155 -0.0070177317 0.03716065 0.0040379837
0000a0 4c 4e 92 bc ac 7a 41 bd 26 d4 53 bd 24 82 41 3d
       -0.0178596 -0.04723613 -0.051715992 0.047243252
0000b0 a8 00 24 3c b8 6f 2b 3d 74 95 4d bd a8 2b 78 3d
       0.010009922 0.04185459 -0.050191358 0.06058851
0000c0 a6 64 65 bd c2 4b 35 bd c0 fc 6f 3d 20 ff 33 3c
       -0.05600419 -0.0442617 0.05859065 0.0109861195
0000d0 86 20 57 3d a0 99 b8 3c 62 77 35 bd bc e7 45 bd
       0.05252125 0.022534192 -0.044303305 -0.048316702
0000e0 9a 91 44 3d ce 8a 4a 3d 40 7c b7 3a e8 c4 75 3d
       0.04799042 0.04944878 0.0013998821 0.060002238
0000f0 80 c6 30 ba 82 20 79 bd ac ff 00 bd ca 94 33 3d
       -0.0006743446 -0.060822017 -0.031493828 0.04384307
000100 80 0f ec 3b 16 b9 67 bd 40 aa 24 3d 08 e2 14 3c
       0.007203996 -0.056572996 0.040201426 0.009087093
000110 c6 23 10 3d 58 b0 50 bc 7c 1c 5a bd 26 d9 1f bd
       0.035190366 -0.012737356 -0.05324982 -0.03902545
000120 40 c4 fd ba a2 d4 25 3d dc 5c df 3c ce dd 4b bd
       -0.0019360855 0.040485986 0.027265958 -0.049772076
000130 08 5b c7 bc 14 60 53 3d 54 1d 1d 3d a8 f6 9d 3c
       -0.0243354 0.0516053 0.038358048 0.019282654
000140 e0 74 2c bc d0 8b 78 bc 80 7f e2 3a 28 87 53 bc
       -0.010525912 -0.015170053 0.001728043 -0.012910642
000150 e6 4c 5b 3d 20 ac 44 bb c8 fd 75 3c 28 9b 6a bc
       0.053540133 -0.003000982 0.015014119 -0.014319219
000160 6c e3 1c bd a0 49 34 bb 20 53 e7 3c 14 5d 18 3d
       -0.038302824 -0.0027509704 0.02823788 0.03719814
000170 8c 8b 45 3d 18 4c 02 3c 50 a9 d8 3b 74 ef 0f bd
       0.048228785 0.0079527125 0.0066119805 -0.03514047
000180 8a 36 26 3d 20 4a a4 3b e0 87 71 bc 20 c7 aa bb
       0.040579356 0.005013719 -0.014741868 -0.005211726
000190 94 f8 de bc dc 5d 1a bd 44 8d 25 bd 9c 8b bb 3c
       -0.02721814 -0.037687168 -0.040417925 0.02289372
0001a0 52 fb 18 bd 0e fb 7d 3d 30 63 5c bd 36 97 17 bd
       -0.037349053 0.062007003 -0.05380553 -0.03700944
0001b0 b0 35 36 bc 40 f0 b7 3c f0 85 80 bb 50 25 87 3b
       -0.011121199 0.022453427 -0.0039222166 0.004124321
0001c0 d6 95 70 3d 3c 89 6b 3d 20 75 16 3c a0 bb 90 bc
       0.058736645 0.057503924 0.009183198 -0.017667592
0001d0 ca 32 70 bd bc a4 79 3d d4 79 d0 bc 70 0f 57 bc
       -0.058642186 0.06094812 -0.025448717 -0.013126239
0001e0 0c 17 43 3d 24 7d f2 3c e8 3a 43 3d dc 6f 11 3d
       0.0476294 0.029600687 0.0476636 0.035507068
0001f0 d8 7f 36 bd 3a 1c 43 3d de 03 0c bd e0 5e 3a 3d
       -0.044555515 0.04763434 -0.034183376 0.045500636
000200 f0 f0 0d 3d 80 a8 25 3a 18 37 20 3c fe dc 24 3d
       0.034653604 0.0006319359 0.00977876 0.040249817
000210 00 ea fd bc 30 1a d4 3c f6 1c 20 3d 18 5c ff 3c
       -0.030995369 0.025891393 0.03909012 0.031171843
000220 40 5d a8 3a a4 42 17 3d 00 4a e9 3a 40 a6 b6 bb
       0.0012845173 0.036928788 0.0017798543 -0.0055740178
000230 66 5c 1b bd f8 92 46 3c f8 a8 e0 3c 8c 74 47 bd
       -0.037929915 0.012120001 0.02742432 -0.048695132
000240 e8 a4 81 bc 8e 60 7c 3d 60 97 e6 bb f8 1d 63 bc
       -0.015825704 0.06161552 -0.0070370883 -0.013862126
000250 1e 9d 08 bd 00 83 a4 3c 5c 3b 3c bd d0 a3 30 bd
       -0.033352964 0.020081997 -0.045955047 -0.043124974
000260 a8 d3 6d 3c 08 85 6f 3d 06 e8 1d 3d 00 34 36 bd
       0.014515795 0.058476478 0.038551353 -0.044483185
000270 90 ef 6e 3d 28 aa d3 3c 0c bf 07 bd a2 37 75 3d
       0.058333933 0.025837973 -0.03314118 0.05986751
000280 b0 71 6e 3c 40 b4 7f bd 28 44 3c bd f4 59 8f 3c
       0.014553472 -0.06242776 -0.045963436 0.017498948
000290 b8 dd 5f bd 76 2c 5f 3d 52 7b 25 3d ae 7a 4a 3d
       -0.054654807 0.05448576 0.04040081 0.049433403
0002a0 e8 37 1b 3d d0 75 36 3d 94 70 b5 bc 20 0e f2 bb
       0.037895113 0.04454595 -0.022148408 -0.0073869377
0002b0 76 df 7b 3d ca f5 34 bd 80 32 ea 3b 58 3c 5f 3c
       0.061492406 -0.044179715 0.0071471334 0.013625227
0002c0 40 de fb 3a 80 26 e0 3b d8 e1 15 bd e8 1a 0b bc
       0.0019216016 0.006840527 -0.036592335 -0.008490302
0002d0 26 b9 3e 3d ac 87 15 bd dc 9f 4e 3d 98 e0 8c 3c
       0.04656329 -0.03650634 0.050445423 0.017196938
0002e0 9c 5c 4e bd 9c 01 fd 3c 70 6b 52 3d 00 ef 55 3d
       -0.050381288 0.030884556 0.05137199 0.05222988
0002f0 1c c6 52 bd 06 59 5b 3d e4 61 14 bd 60 d6 c8 bb
       -0.051458463 0.053551696 -0.03622617 -0.006129071
000300 d0 b2 02 3c 2e 1c 64 bd 68 f2 9a bc 48 ae 2a 3d
       0.007977203 -0.055690937 -0.018914416 0.041670114
000310 f4 65 b2 bc 24 71 21 bd 70 b9 1b bc 80 16 cb 3b
       -0.02177713 -0.03941454 -0.009504661 0.0061977506
000320 00 dd a8 ba 6c 48 ad bc 20 20 e1 3c 2c 83 12 3d
       -0.0012883246 -0.021152698 0.027481139 0.035769626
000330 f0 87 16 3d a2 8b 5e 3d c2 5b 20 3d 22 52 3a 3d
       0.036750734 0.054332383 0.039150007 0.045488484
000340 70 0e 24 bc 2c 0d b9 3c 94 6d 66 bd e8 05 b2 bc
       -0.010013208 0.022589289 -0.056256846 -0.021731332
000350 78 a6 93 bc 2c ea 09 bd 04 72 e4 bc 80 c5 b2 3b
       -0.018023714 -0.03367059 -0.027886398 0.0054556727
000360 cc dd 65 3d e4 ea 23 bd 30 c0 05 bd f2 f4 31 3d
       0.056119725 -0.04001893 -0.032653987 0.04344649
000370 c2 9c 4f 3d 60 d6 6f 3b ce 6a 76 bd 88 b5 86 3c
       0.050686605 0.0036596283 -0.06016045 0.016443983
000380 66 ec 40 bd d6 66 75 bd 72 d2 72 bd a6 c5 5c 3d
       -0.047100447 -0.059912525 -0.059282728 0.05389943
000390 28 39 68 bd 82 0a 5f 3d c8 d4 40 bc 88 37 25 3c
       -0.056695133 0.05445338 -0.011769481 0.01008404
0003a0 00 30 2f 3d 96 c3 67 3d 94 af 57 bd 66 5f 3d 3d
       0.042770386 0.05658301 -0.05265768 0.046233557
0003b0 f0 6c f4 3b c0 c9 36 bb 54 56 dc bc 48 10 3c bc
       0.0074592754 -0.0027891248 -0.026896633 -0.011478491
0003c0 7c 0b 29 bd f6 b4 06 3d dc 2e 38 3d 08 24 27 bc
       -0.041270718 0.03288742 0.044966564 -0.010201462
0003d0 6e da 6e bd 80 da c8 ba 58 4c bd 3c 90 cf 42 bd
       -0.05831378 -0.0015323907 0.023107693 -0.04756123
0003e0 3a 3d 57 bd 2c fc 6f 3d 00 1e 3d ba 40 9d 67 bd
       -0.052548625 0.0585901 -0.0007214248 -0.05654645
0003f0 38 9f cf bc ba d0 42 3d e8 ee 95 bc 90 30 70 bc
       -0.025344476 0.04756234 -0.018302396 -0.014660016

output.bias f4 [4]
000000 a0 08 41 3d 48 fa f7 3c dc fd 16 bd 54 40 db bc
       0.047127366 0.03027071 -0.036863193 -0.026764072
