fetch_sticky_mittens_step_4_blocks/networks/ours_10k_block_4_uber_level_0_seed_250/network_release_and_lift_0.pth (torch, 610423 bytes, 8 tensors)

fc1.weight f4 [256, 73]
-0.005497354 0.050124455 0.053338893 -0.029760243 0.06956812 -0.035006076 0.10435651 0.044773687
-0.113595955 0.08721355 -0.010046071 0.05841091 0.09066939 -0.10892112 0.09868838 0.010504351
-0.042087752 -0.08852758 0.0011646899 0.10251793 0.07356988 -0.10424803 -0.020560328 0.101774566
0.0188567 0.0012147092 0.023962926 -0.07494173 0.07417722 0.028219327 0.03724213 -0.02848519
-0.047554176 -0.0696641 0.04774256 -0.07032608 -0.026860392 -0.061073344 -0.008144095 0.0041148397
0.049635734 -0.05576361 -0.035629444 -0.022682684 0.08869815 -0.08600496 -0.11490307 -0.06764235
0.045890477 0.11093461 0.10542988 0.023628961 -0.11046628 0.0040482446 0.019330397 -0.027274024
-0.039977998 -0.08832973 0.021100914 -0.013996914 0.084207736 -0.061705835 0.072829865 -0.023788465
0.04088114 0.06925822 -0.026712107 0.08166854 -0.029932331 -0.033035457 0.06857521 0.01576552
-0.06089145 0.030945554 -0.055961944 0.07167443 -0.015768869 0.05312549 0.0833361 -0.11312743
-0.055156317 -0.019804444 -0.07648041 0.04457615 0.011829913 -0.115043364 -0.009268574 0.057362303
0.020093957 -0.09035191 -0.07395128 -0.045646884 -0.11381537 -0.040317014 0.03087804 0.016845115
-0.07268401 0.009026179 -0.10618718 -0.068768576 0.11218114 -0.0101011135 -0.067704454 -0.00195833
0.10606151 -0.019278523 0.08808205 0.10861912 0.10911886 -0.06692137 -0.10819694 -0.039686352
-0.023512041 -0.029578695 0.07023581 0.09702779 -0.026047427 0.019230234 -0.06886772 -0.030205088
-0.037761062 0.039445326 -0.102118894 0.030776773 0.09175871 -0.070901744 -0.020221816 0.05899953
-0.038712334 0.10489553 0.08944981 0.050990455 0.061974462 0.032775704 -0.070742406 0.08270463
-0.08878959 -0.055759158 -0.09094303 0.10686267 0.0067514507 -0.017077882 -0.068706505 0.005208651
-0.06512868 -0.012013721 -0.049689617 0.04552921 0.07591028 -0.047741767 0.005699859 -0.027690895
0.055388194 -0.06715455 -0.11228125 -0.054602407 -0.0021509007 0.029167574 0.046475753 -0.03517743
0.11007882 0.10229181 0.022882035 -0.042353727 0.086256504 -0.02143287 0.023784323 0.0963639
-0.094974965 -0.10131718 0.114014246 -0.107910454 0.020292945 -0.066783905 -0.09384759 -0.10693971
-0.04271084 0.045779977 -0.010692988 -0.10762415 -0.06404741 -0.05570406 -0.06144883 -0.042976495
-0.09227229 0.0445651 -0.090324715 -0.007524846 -0.09753929 -0.04642388 -0.037222918 -0.102500945
0.0031875216 0.11050289 -0.020498868 -0.035527226 -0.092869535 -0.07958821 0.08760584 0.05998944
0.011080222 0.103522174 0.032376792 0.06580861 0.061254516 -0.0029965274 0.087195806 0.10136562
-0.07401177 -0.0782976 0.063245036 -0.026517302 0.054967247 -0.115577824 0.08612239 0.07549723
0.10404356 -0.055875007 0.07906889 0.06974949 0.03332656 0.063240625 0.040998824 -0.044570636
-0.023974786 0.08704583 -0.054236185 -0.023788773 0.08842807 0.09609967 -0.013974214 -0.060412575
-0.070962004 0.10074559 0.11327428 0.03374361 0.02359863 0.012861385 0.064020604 0.06608219
0.0736621 -0.0472721 0.061552316 0.013021377 0.06945731 -0.005784927 -0.11015157 -0.10204714
0.047975287 0.0038875272 -0.05802889 -0.08093944 -0.09209212 0.07508636 0.07600974 0.04065716
00000000: 2623 b4bb 4d4f 4d3d e279 5a3d c1cb f3bc
00000010: bb79 8e3d 8862 0fbd deb8 d53d 9d64 373d
00000020: ffa4 e8bd 059d b23d 4798 24bc 4740 6f3d
00000030: e0b0 b93d 0912 dfbd 221d ca3d 711a 2c3c
00000040: 3564 2cbd f34d b5bd 82a8 983a ecf4 d13d
00000050: ceab 963d fe7f d5bd 226e a8bc 2f6f d03d
00000060: 5e79 9a3c e136 9f3a e64d c43c 0d7b 99bd
00000070: 3aea 973d 382c e73c 348b 183d c659 e9bc
00000080: 2bc8 42bd 0dac 8ebd b48d 433d 1f07 90bd
00000090: 530a dcbc 0b28 7abd cf6e 05bc c7d5 863b
000000a0: d74e 4b3d 6268 64bd 2ef0 11bd 09d1 b9bc
000000b0: 60a7 b53d 5e23 b0bd 4d52 ebbd 1388 8abd
000000c0: a7f7 3b3d af31 e33d 9feb d73d 8691 c13c
000000d0: 253c e2bd 23a7 843b c85a 9e3c c66d dfbc
000000e0: f8bf 23bd 38e6 b4bd d3db ac3c 5053 65bc
000000f0: 1b75 ac3d 42bf 7cbd d327 953d 07e0 c2bc
00000100: fb72 273d 41d7 8d3d 59d3 dabc d641 a73d
00000110: a634 f5bc 3050 07bd 2971 8c3d b126 813c
00000120: 5069 79bd 8881 fd3c 5a38 65bd 0bca 923d
00000130: b72d 81bc 1d9a 593d 1eac aa3d 5baf e7bd
00000140: 97eb 61bd ee3c a2bc c3a1 9cbd 7b95 363d
00000150: 40d2 413c db9b ebbd 38db 17bc bcf4 6a3d
00000160: 159c a43c 6c0a b9bd c573 97bd 3af8 3abd
00000170: 0818 e9bd 7423 25bd f1f3 fc3c c4fe 893c
00000180: 5bdb 94bd 8ae2 133c aa78 d9bd 8ad6 8cbd
00000190: 3abf e53d 247f 25bc a2a8 8abd 5357 00bb
000001a0: c736 d93d feed 9dbc 5d64 b43d b473 de3d
000001b0: b579 df3d 120e 89bd 5b96 ddbd 288e 22bd
000001c0: 539c c0bc 054f f2bc cbd7 8f3d 82b6 c63d
000001d0: 6a61 d5bc b988 9d3c 850a 8dbd a970 f7bc
000001e0: 58ab 1abd 6c91 213d b623 d1bd 921f fc3c
000001f0: feeb bb3d ef34 91bd 39a8 a5bc 7ea9 713d
00000200: d390 1ebd 78d3 d63d 7631 b73d 5edb 503d
00000210: efd8 7d3d d13f 063d 65e1 90bd 0c61 a93d
00000220: 51d7 b5bd b763 64bd 5740 babd d1da da3d
00000230: 463b dd3b eae6 8bbc ffb5 8cbd 55ad aa3b
00000240: 2f62 85bd 33d5 44bc 5787 4bbd d67c 3a3d
00000250: d976 9b3d df8c 43bd e2c5 ba3b 04d8 e2bc
00000260: bbde 623d 5388 89bd b6f3 e5bd c6a6 5fbd
00000270: 20f6 0cbb d6f0 ee3c 5c5d 3e3d 3516 10bd
00000280: 0171 e13d 5e7e d13d 1b73 bb3c 1a7b 2dbd
00000290: 40a7 b03d fc93 afbc 57d7 c23c 705a c53d
000002a0: 3c82 c2bd 627f cfbd 4d80 e93d 2800 ddbd
000002b0: 643d a63c 00c6 88bd 2a33 c0bd 3503 dbbd
000002c0: 90f1 2ebd c983 3b3d a431 2fbc 0d6a dcbd
000002d0: 4a2b 83bd f129 64bd c5b1 7bbd 1f08 30bd
000002e0: 41f9 bcbd e589 363d 2afc b8bd fc92 f6bb
000002f0: aec2 c7bd f726 3ebd 0f77 18bd 04ec d1bd
00000300: bde5 503b 574f e23d 3eed a7bc ff84 11bd
00000310: 6232 bebd 25ff a2bd b16a b33d 7db7 753d
00000320: d289 353c 6f03 d43d 879d 043d aac6 863d
00000330: 04e6 7a3d 6361 44bb b793 b23d c798 cf3d
00000340: 7c93 97bd 7e5a a0bd 9d86 813d d03a d9bc
00000350: 5625 613d 11b4 ecbd f060 b03d 4b9e 9a3d
00000360: ca14 d53d 31dd 64bd dfee a13d d2d8 8e3d
00000370: 6e81 083d 4d84 813d 62ee 273d b38f 36bd
00000380: c566 c4bc 1645 b23d c326 5ebd ace0 c2bc
00000390: c719 b53d e7cf c43d 1af4 64bc 2d73 77bd
000003a0: 8754 91bd b453 ce3d 59fc e73d bd36 0a3d
000003b0: ea51 c13c 8fb8 523c 3c1d 833d 1956 873d
000003c0: 28dc 963d 64a0 41bd 481e 7c3d 9d57 553c
000003d0: a23f 8e3d 7c8f bdbb 2597 e1bd 17fe d0bd
000003e0: bc81 443d e2c5 7e3b b4af 6dbd 94c3 a5bd
000003f0: cb9a bcbd e1c6 993d ffaa 9b3d 1f88 263d

fc1.bias f4 [256]
-0.08982584 0.07456665 -0.106206834 0.10463009 0.044333097 -0.07952114 0.0055117114 -0.06498949
0.073200025 0.0212761 -0.07670669 -0.038894273 -0.04035506 0.038275387 -0.049623735 -0.11075591
0.099086426 0.057101335 -0.024026172 -0.10281285 0.033627078 0.038608767 -0.058841396 0.013654774
0.09770971 0.06299851 -0.07520692 -0.04795384 -0.009307613 0.07585435 -0.11681901 0.041665737
-0.0668375 0.051713355 0.021524467 0.051655453 0.048454314 0.023778085 -0.09901375 -0.09309153
0.072117805 -0.097886845 0.09667162 0.050465062 -0.044458963 -0.10511145 -0.02347889 0.02801191
-0.010323822 -0.020000167 -0.03454767 -0.06635733 0.11468171 -0.0030759582 0.025749516 -0.07294203
-0.099359855 -0.05528503 0.0097000655 0.040025145 0.053351842 0.10333375 -0.10243294 0.066293254
0.07320392 0.04854806 -0.03916251 0.017467042 -0.050041538 0.070066765 -0.022748748 0.07490251
-0.06112663 0.06780054 0.01517338 0.095820665 -0.109351285 -0.063310474 -0.08391411 0.11525168
0.03617237 -0.032183368 0.050811823 -0.09603585 -0.09300865 0.08551285 -0.10800445 -0.025476413
-0.067193955 -0.06565743 0.11101676 -0.027532088 0.07391553 -0.033178665 0.060594555 -0.0777188
-0.037483186 -0.048886657 -0.0054127607 -0.00094753486 0.036453374 0.049203612 0.07467607 -0.04474528
0.07820247 0.0027202421 -0.0966881 -0.06682571 0.07882419 0.0055636 -0.089195386 0.014588468
0.0064787795 0.011159165 0.114156075 -0.00033195532 0.10033398 0.0357981 0.07128759 0.028662888
0.0810347 -0.07143353 -0.0490229 -0.008537288 -0.028062321 0.07038185 -0.07638737 0.02254062
-0.017288785 0.07997165 0.07211912 0.09939747 -0.039740767 0.06344524 -0.05031362 0.11490035
-0.06448797 0.061535757 0.012598257 -0.11119143 -0.012787967 0.02213639 0.03216343 0.07868488
-0.026597152 -0.025834152 0.017371941 -0.05357289 -0.02641072 -0.061504476 0.014645254 0.04622214
0.027113363 0.053768698 -0.10194173 -0.031858154 0.101093814 -0.11561933 -0.044090785 -0.068660185
-0.042299036 0.07416076 -0.048544824 -0.0686769 -0.06420536 -0.107290976 0.08267621 -0.027688006
0.1068423 -0.116084695 0.09590629 0.083957024 0.018409902 -0.044375442 -0.09789661 0.041309405
-0.03134667 -0.100627735 -0.04861909 -0.030204933 0.11267565 0.10623625 0.06912897 -0.08486014
-0.06779998 -0.046811365 0.057800744 -0.059992146 -0.041060496 -0.056125995 -0.038042538 -0.101304695
-0.019395709 -0.0042283842 -0.06730196 0.034859423 0.055828124 0.08029904 -0.002721149 -0.07632821
0.04327389 0.047720168 -0.0942434 0.004157673 0.045327235 -0.096078545 -0.016098047 -0.02075724
-0.10379593 0.036994334 -0.039261963 -0.032147426 -0.09191218 -0.0026980438 0.0067237276 -0.0065479693
-0.096295685 -0.08211969 0.008090211 0.064657785 -0.033538524 0.008553626 -0.05158448 -0.019276373
0.085884675 0.098296404 -0.01958168 0.032491215 -0.0452707 -0.03787593 -0.07903786 0.10975031
0.020463025 0.010196436 0.023653643 -0.01834727 0.10991583 -0.096923456 -0.015860926 -0.09265189
0.0022434331 -0.1149394 -0.025925387 -0.038734324 -0.08974388 0.07065733 0.08666672 -0.10123796
0.07233131 -0.03924931 -0.079439074 0.034078117 0.0040031923 -0.03616732 -0.106461704 -0.09198568
00000000: 9cf6 b7bd 66b6 983d f882 d9bd 4d48 d63d
00000010: 9f96 353d fbdb a2bd 969b b43b 3619 85bd
00000020: e5e9 953d 374b ae3c 6618 9dbd 9a4f 1fbd
00000030: 594b 25bd a7c6 1c3d 4242 4bbd ffd3 e2bd
00000040: d3ed ca3d 17e3 693d 89d2 c4bc 8b8f d2bd
00000050: 8cbc 093d 3a24 1e3d ad03 71bd 46b8 5f3c
00000060: 071c c83d 5d05 813d 1606 9abd 3f6b 44bd
00000070: f57e 18bc 8759 9b3d ce3e efbd b1a9 2a3d
00000080: 19e2 88bd 62d1 533d 1454 b03c ab94 533d
00000090: 0878 463d 42ca c23c b9c7 cabd c6a6 bebd
000000a0: 80b2 933d e678 c8bd c5fb c53d 74b4 4e3d
000000b0: 9a1a 36bd ac44 d7bd cd56 c0bc 3c79 e53c
000000c0: 3f25 29bc 64d7 a3bc dc81 0dbd 5ae6 87bd
000000d0: 3fde ea3d 0496 49bb a6f0 d23c a262 95bd
000000e0: 2e7d cbbd 8e72 62bd 06ed 1e3c 68f1 233d
000000f0: 7687 5a3d a5a0 d33d 5cc8 d1bd c2c4 873d
00000100: f0eb 953d 55da 463d de68 20bd 0b17 8f3c
00000110: 5bf8 4cbd 2a7f 8f3d 955b babc 7d66 993d
00000120: eb5f 7abd 02db 8a3d c599 783c a03d c43d
00000130: 91f3 dfbd eca8 81bd 29db abbd 1309 ec3d
00000140: 7b29 143d b5d2 03bd 0f20 503d 72ae c4bd
00000150: 527b bebd 5c21 af3d 7031 ddbd e9b3 d0bc
00000160: fc9c 89bd 6777 86bd c15c e33d f98a e1bc
00000170: 0761 973d 5ae6 07bd ff31 783d 092b 9fbd
00000180: f887 19bd 603d 48bd 875d b1bb fd63 78ba
00000190: 2250 153d ba89 493d c4ef 983d d446 37bd
000001a0: 9e28 a03d 1746 323b 6904 c6bd ebdb 88bd
000001b0: 946e a13d dc4e b63b 12ac b6bd 7804 6f3c
000001c0: f14b d43b eed4 363c a9ca e93d 4a0a aeb9
000001d0: e77b cd3d 07a1 123d 3aff 913d 6fce ea3c
000001e0: 85f5 a53d be4b 92bd 3dcc 48bd fbdf 0bbc
000001f0: f4e2 e5bc 5c24 903d fb70 9cbd 1ba7 b83c
00000200: 36a1 8dbc 2dc8 a33d 30b3 933d e790 cb3d
00000210: 37c7 22bd 94ef 813d a815 4ebd e050 eb3d
00000220: 4512 84bd eb0c 7c3d eb68 4e3c 55b8 e3bd
00000230: 9f84 51bc 6057 b53c cdbd 033d 8a25 a13d
00000240: 45e2 d9bc 25a2 d3bc 9a4f 8e3c 3f6f 5bbd
00000250: 4b5b d8bc 1eec 7bbd a6f2 6f3c 6d53 3d3d
00000260: d81c de3c 913c 5c3d d3c6 d0bd b27d 02bd
00000270: 460a cf3d d4c9 ecbd 8a98 34bd b69d 8cbd
00000280: c141 2dbd 99e1 973d f0d6 46bd 79a6 8cbd
00000290: 1a7e 83bd 5fbb dbbd 2552 a93d f5d1 e2bc
000002a0: 23d0 da3d d0bd edbd 846a c43d a9f1 ab3d
000002b0: 5dd0 963c 06c3 35bd 057e c8bd 0d34 293d
000002c0: 5e65 00bd ea15 cebd d024 47bd 5670 f7bc
000002d0: 7ec2 e63d 6492 d93d 7d93 8d3d 27cb adbd
000002e0: b7da 8abd 46bd 3fbd 79c0 6c3d 53ba 75bd
000002f0: 0d2f 28bd 5fe4 65bd 7ed2 1bbd d678 cfbd
00000300: c0e3 9ebc 428e 8abb 9cd5 89bd c1c8 0e3d
00000310: 08ac 643d d373 a43d 4e55 32bb f751 9cbd
00000320: f63f 313d 3976 433d af02 c1bd 173d 883b
00000330: 0da9 393d d4c4 c4bd 0de0 83bc 160b aabc
00000340: f692 d4bd 5f87 173d 27d1 20bd 05ad 03bd
00000350: 743c bcbd aad1 30bb b752 dc3b 5990 d6bb
00000360: ac36 c5bd 5e2e a8bd ce8c 043c 4d6b 843d
00000370: b15f 09bd 8224 0c3c 3f4a 53bd 7ce9 9dbc
00000380: 4ee4 af3d a04f c93d c269 a0bc 8215 053d
00000390: c56d 39bd cb23 1bbd 9ade a1bd c5c4 e03d
000003a0: 13a2 a73c f40e 273c 49c5 c13c 044d 96bc
000003b0: 8d1b e13d ce7f c6bd c6ee 81bc 46c0 bdbd
000003c0: 9006 133b 5965 ebbd 7a61 d4bc e2a7 1ebd
000003d0: a4cb b7bd cab4 903d 527e b13d d955 cfbd
000003e0: 7022 943d e2c3 20bd f4b0 a2bd 7f95 0b3d
000003f0: 362d 833b 2f24 14bd 9808 dabd fd62 bcbd

fc2.weight f4 [256, 256]
0.0243183 0.025656186 -0.03284601 0.04974685 -0.011857703 -0.01746022 -0.0133619085 -0.035423726
0.042379983 0.022090472 -0.058116086 -0.0015060678 0.03885313 -0.032367937 -0.0288098 0.0014451742
-0.059815362 -0.05950383 0.034554347 0.0076075494 -0.0426346 0.03143517 -0.033881232 -0.03664814
-0.041128777 -0.009318754 0.013039589 0.060185805 0.017677367 0.061839312 0.034910314 -0.04821551
-0.040222406 -0.020317458 -0.04781574 -0.036674112 -0.025436863 0.002550818 -0.024503365 -0.00018754601
-0.029224418 0.03991101 -0.00856062 0.04894884 -0.054589555 0.06130161 0.023432873 0.01612129
0.00086102635 -0.027530804 0.054325774 0.027770042 0.03354059 0.039318793 0.0036316589 -0.05136554
0.04015088 -0.039396383 -0.029801302 0.05551511 0.0007639751 0.025764324 0.011296779 0.021758318
0.00018009543 0.039917566 -0.025842145 -0.0599941 0.026967429 -0.017181247 -0.027183056 0.043056533
-0.05014372 0.029621832 -0.017034605 0.02393531 0.016671576 -0.009207554 0.03275796 -0.0066183507
0.015226424 0.013438664 0.032322407 -0.014742583 -0.017183468 0.01222349 0.050673746 0.028963268
0.035483606 -0.031100333 -0.029888973 -0.043229952 0.037527576 -0.0027452037 -0.030152977 -0.009915866
-0.038747765 -0.031144023 -0.041172042 0.03929063 -0.021921784 -0.03515002 0.01105465 0.00409282
0.016167648 0.033946425 0.057901442 -0.043173514 -0.012007587 -0.055837497 -0.042566985 0.016995832
0.051649183 0.04227864 0.028894037 -0.062100627 0.004594974 0.05542952 -0.05389449 -0.005598873
0.018135846 0.011166103 -0.005765289 0.027101278 -0.03988553 0.03591477 -0.059327327 0.034295373
0.015805684 0.038361706 0.037334166 0.03237597 -0.050571017 0.00313247 0.03262008 0.027150631
-0.02605053 -0.00032199174 -0.00038133562 0.028316729 -0.0127870515 -0.05234904 -0.052846715 0.023411773
-0.011862576 0.05299253 0.027170986 0.02068054 -0.05421055 -0.03230249 0.015928738 -0.025396906
-0.0023140088 -0.00082103163 0.015606955 -0.051181324 0.043777302 -0.013143636 0.00943955 0.05108311
0.024047129 0.04701402 -0.027479552 -0.010462806 -0.04365123 0.049582727 -0.05470238 -0.052089475
0.05130112 0.013901867 0.049862973 -0.027036868 -0.048732653 -0.021564424 -0.033263803 -0.060517468
-0.05027464 0.0076424256 -0.037632875 -0.02327291 -0.02308444 0.0013015047 0.0042557493 0.054664917
0.014280096 -0.021907426 -0.03555733 -0.028976597 -0.009617701 -0.034425408 -0.041567028 -0.006029777
0.0045136437 0.021080814 0.020871408 -0.029004619 0.044455126 0.0038782284 -0.0007584989 0.047839396
-0.022569023 -0.004299447 -0.03954284 0.052216716 0.029831588 0.061835222 -0.052604638 -0.02558422
0.018232226 0.013673425 0.038666807 0.0187845 0.049433768 0.06029185 0.03646244 -0.054459088
-0.05142325 0.038849875 0.04212317 -0.021359697 0.030629776 -0.005363114 0.052995898 -0.023462184
-0.02628927 0.0313135 -0.05709981 0.037509188 0.014141373 -0.0025150925 -0.040596142 0.03135015
-0.003480062 0.027378708 0.047137365 -0.009998545 -0.055526532 -0.03274995 0.029410228 0.011381507
-0.032731436 0.05208142 0.036888406 -0.017970271 -0.027759172 0.021933429 0.022720717 -0.05087533
-0.058213726 -0.023760527 0.052158304 -0.05854945 0.03003499 -0.01818242 -0.0028944463 0.041178584
00000000: 2c37 c73c ec2c d23c 8a89 06bd 5ac3 4b3d
00000010: d046 42bc bc08 8fbc e8eb 5abc 7818 11bd
00000020: a296 2d3d 14f7 b43c 220b 6ebd 4067 c5ba
00000030: 7624 1f3d 3e94 04bd 8802 ecbc 006c bd3a
00000040: f400 75bd 4aba 73bd dc88 0d3d c048 f93b
00000050: 9ea1 2ebd 2ac2 003d 0cc7 0abd 5c1c 16bd
00000060: a676 28bd b0ad 18bc 00a4 553c 6485 763d
00000070: 20d0 903c 384b 7d3d 1efe 0e3d a07d 45bd
00000080: 40c0 24bd cc70 a6bc 70da 43bd 9837 16bd
00000090: f860 d0bc a02b 273b 48bb c8bc 00a8 44b9
000000a0: 0c68 efbc ba79 233d d841 0cbc 947e 483d
000000b0: 4c99 5fbd 6617 7b3d 4cf6 bf3c cc10 843c
000000c0: 80b6 613a 4888 e1bc b484 5e3d 007e e33c
000000d0: dc61 093d be0c 213d 2001 6e3b ac64 52bd
000000e0: 4075 243d 1a5e 21bd dc21 f4bc d063 633d
000000f0: 8045 483a b40f d33c 2016 393c 803e b23c
00000100: 00d8 3c39 9a80 233d e8b2 d3bc 60bc 75bd
00000110: ccea dc3c b0bf 8cbc 00af debc 0c5c 303d
00000120: 8063 4dbd 7ca9 f23c 288c 8bbc fc13 c43c
00000130: d492 883c 48db 16bc 362d 063d c0de d8bb
00000140: 4078 793c d82d 5c3c 8064 043d e08a 71bc
00000150: 58c4 8cbc 0845 483c 468f 4f3d 6044 ed3c
00000160: 4257 113d 20c6 febc b8d9 f4bc e411 31bd
00000170: 84b6 193d e0e8 33bb 6003 f7bc 2876 22bc
00000180: fab5 1ebd c021 ffbc 04a4 28bd 36ef 203d
00000190: 5095 b3bc 78f9 0fbd 901e 353c 101d 863b
000001a0: 0472 843c 680b 0b3d 102a 6d3d b6d6 30bd
000001b0: 78bb 44bc dcb5 64bd b85a 2ebd d83a 8b3c
000001c0: 188e 533d 5e2c 2d3d 30b3 ec3c 3a5d 7ebd
000001d0: 7091 963b 100a 633d 78c0 5cbd c076 b7bb
000001e0: a091 943c 08f2 363c c0ea bcbb 8003 de3c
000001f0: 025f 23bd 5e1b 133d 3601 73bd 4e79 0c3d
00000200: ec7a 813c 2a21 1d3d b6eb 183d aa9c 043d
00000210: 8e23 4fbd 204a 4d3b a29c 053d 006b de3c
00000220: ec67 d5bc 00d1 a8b9 00ee c7b9 7cf8 e73c
00000230: c880 51bc f26b 56bd cc75 58bd 0cca bf3c
00000240: 405b 42bc b20e 593d b095 de3c 3c6a a93c
00000250: e20b 5ebd 9e4f 04bd fc7c 823c 2c0d d0bc
00000260: a0a6 17bb 803a 57ba 50b4 7f3c 82a3 51bd
00000270: d44f 333d 6858 57bc 58a8 1a3c 863c 513d
00000280: 7cfe c43c c691 403d cc1c e1bc 306c 2bbc
00000290: a2cb 32bd 4217 4b3d 9a0f 60bd c65b 55bd
000002a0: 2021 523d a8c4 633c 1e3d 4c3d 6c7c ddbc
000002b0: e49b 47bd e0a7 b0bc a03f 08bd 2ae1 77bd
000002c0: c8ec 4dbd 506d fa3b ee24 1abd d4a6 bebc
000002d0: 941b bdbc 4097 aa3a d073 8b3b 52e8 5f3d
000002e0: 10f7 693c 3477 b3bc 90a4 11bd 5460 edbc
000002f0: 9093 1dbc a801 0dbd 3042 2abd 7095 c5bb
00000300: 30e7 933b acb1 ac3c 84fa aa3c 189b edbc
00000310: 9416 363d e029 7e3b 00d6 46ba 3ef3 433d
00000320: ace2 b8bc 60e2 8cbb acf7 21bd 32e1 553d
00000330: 6061 f43c ee46 7d3d f677 57bd 0096 d1bc
00000340: c05b 953c 8006 603c 1661 1e3d f4e1 993c
00000350: 107b 4a3d 96f4 763d a459 153d 7e10 5fbd
00000360: 30a1 52bd 0c21 1f3d 5889 2c3d 88fa aebc
00000370: 4ceb fa3c 10bd afbb 3a12 593d c433 c0bc
00000380: 985c d7bc 9642 003d 7ee1 69bd 3ca3 193d
00000390: 38b1 673c 40d4 24bb 2448 26bd 0469 003d
000003a0: c011 64bb 5049 e03c 1c13 413d f0d0 23bc
000003b0: ca6f 63bd d024 06bd b8ed f03c 8079 3a3c
000003c0: 6611 06bd 5453 553d 4c18 173d 6436 93bc
000003d0: 3467 e3bc bcad b33c cc20 ba3c a662 50bd
000003e0: 8471 6ebd 70a5 c2bc f2a3 553d 8cd1 6fbd
000003f0: f00b f63c 4cf3 94bc c0b0 3dbb e0aa 283d

fc2.bias f4 [256]
0.014535435 0.035550028 0.049189918 0.05651913 -0.019200072 0.040264726 0.054755166 0.022960797
0.04024362 -0.008363366 0.03334807 -0.0040496215 -0.06066604 -0.024598897 0.055720486 0.02777543
-0.055731907 -0.0066027194 -0.025748253 0.0052405 0.047675215 -0.050921254 -0.02049274 -0.03949506
0.0064202845 -0.05478695 0.03842277 0.052201077 0.036991946 -0.021088019 0.04086034 -0.005102314
-0.005546987 0.012868024 0.016674995 -0.043381795 -0.036129147 -0.0021058246 0.01714553 -0.048482813
-0.020612463 -0.018114015 -0.02699545 0.045634866 0.026682056 0.030433841 -0.035445362 0.031979814
0.026810043 -0.049853005 -0.05619657 -0.0013272315 0.022168405 -0.054596245 -0.06181673 0.027815461
0.03460391 0.04642669 0.020189315 0.034449704 0.016775697 0.0047668964 0.008556478 -0.011815757
-0.05568251 -0.032611787 -0.0396156 -0.04631108 -0.016499601 -0.059974596 0.027733944 0.057244822
-0.042824246 -0.03872113 0.012261435 0.014023505 0.037118293 0.048165224 -0.01404155 0.044406064
0.038118847 -0.050915897 -0.017482266 -0.0007106513 -0.037809983 -0.013601571 0.030926667 -0.028783187
-0.06140914 -0.0108057335 -0.053318456 0.0548013 -0.053572983 -0.036988087 0.06218289 -0.01697728
-0.05058462 -0.014349051 -0.046834342 -0.05948072 -0.037896246 0.056983277 -0.033934936 -0.056553274
-0.008906029 -0.0010883287 -0.01306805 -0.030799426 -0.0075254664 0.027455054 0.0015681162 0.018232934
-0.015235059 -0.053452007 0.028482363 0.051067673 -0.0052068457 0.006224774 0.0127808675 0.049280368
-0.060959466 -0.033158027 -0.021304116 0.050189197 -0.060600042 -0.009675272 -0.013569675 0.060529225
-0.0006368831 -0.011238508 0.02043201 -0.052319817 0.022113286 0.043190524 -0.008692458 0.040474147
-0.0008793548 0.040427424 0.009965487 0.014861472 0.05147524 -0.043055966 -0.051158264 0.010914043
0.051122084 0.03274756 0.013558254 0.033416934 0.018160962 0.038169034 -0.035137765 0.005614072
-0.04298842 0.03341326 0.00834325 0.058180846 -0.027531616 -0.04556933 -0.061165385 0.0062576905
-0.015706137 -0.019702889 -0.01578752 0.043288954 0.01835566 0.012844533 0.05576668 0.036649793
-0.048910946 -0.030226208 -0.014258549 0.039852336 0.050157726 0.04366923 0.049227566 0.025384389
0.0059312508 0.019118354 -0.010425121 0.032261327 0.049886763 0.0135564655 -0.010902151 0.0021438748
-0.037531093 -0.037668675 0.017326608 0.02505733 -0.0076312125 -0.04216309 -0.026533782 -0.013790615
0.016794577 0.010280356 -0.0077304766 0.008818358 -0.01727017 0.038539447 -0.042013638 -0.028490521
0.047608905 -0.055150792 -0.047702804 0.02780725 -0.04639274 -0.010733716 -0.021960907 -0.060109645
0.04431337 0.008962162 0.060355984 0.05122401 0.04423009 -0.019201465 -0.0028367937 -0.048616327
0.01728461 -0.041425906 0.037332073 -0.022938289 -0.03729385 -0.033366077 0.0023450032 0.008063681
-0.00047823787 -0.042492718 0.05617588 -0.036616094 0.019242346 -0.020122498 -0.05918368 -0.03196536
0.016938537 0.0073400736 -0.043397367 0.04104995 -0.04074751 0.058703147 -0.03892917 -0.0053704157
0.045334898 -0.008190088 0.020730898 0.048994444 0.034393303 -0.036260024 -0.04176513 0.034140803
-0.0614781 -0.024959505 -0.011987343 0.035572052 -0.027049996 -0.059251465 -0.04497789 -0.045500547
00000000: 0826 6e3c e89c 113d 5e7b 493d 9a80 673d
00000010: 7849 9dbc a0ec 243d f446 603d 4818 bc3c
00000020: 7ed6 243d 8006 09bc fc97 083d b0b2 84bb
00000030: f47c 78bd a083 c9bc 2a3b 643d 4c89 e33c
00000040: 2447 64bd a05b d8bb 00ee d2bc 80b8 ab3b
00000050: 1647 433d ce92 50bd 64e0 a7bc 92c5 21bd
00000060: 4061 d23b 4868 60bd 3261 1d3d ccd0 553d
00000070: de84 173d c8c0 acbc 2c5d 273d 5031 a7bb
00000080: 80c3 b5bb 68d4 523c 009a 883c 1cb1 31bd
00000090: 28fc 13bd e001 0abb c874 8c3c ea95 46bd
000000a0: 78db a8bc d863 94bc 9025 ddbc a0eb 3a3d
000000b0: 5494 da3c 6450 f93c 282f 11bd 44fd 023d
000000c0: bca0 db3c aa32 4cbd 602e 66bd 80f6 adba
000000d0: 849a b53c 50a0 5fbd 8a33 7dbd 40dd e33c
000000e0: d4bc 0d3d ea29 3e3d 1064 a53c 221b 0d3d
000000f0: 306d 893c a033 9c3b 7830 0c3c e096 41bc
00000100: 5813 64bd f093 05bd f843 22bd b0b0 3dbd
00000110: 2c2a 87bc eca7 75bd 4c32 e33c 8c79 6a3d
00000120: 7a68 2fbd 0c9a 1ebd 30e4 483c d8c2 653c
00000130: 5a09 183d e648 453d 880e 66bc 22e3 353d
00000140: 8222 1c3d 308d 50bd f836 8fbc 004b 3aba
00000150: a4de 1abd 20d9 5ebc ec59 fd3c b8ca ebbc
00000160: 2688 7bbd 880a 31bc 7464 5abd 5477 603d
00000170: 586f 5bbd d280 17bd 7cb3 7e3d f013 8bbc
00000180: d231 4fbd 4818 6bbc 5ed5 3fbd 0ea2 73bd
00000190: 1839 1bbd 4c67 693d 5cff 0abd 68a4 67bd
000001a0: 98ea 11bc 40a6 8eba 601b 56bc 144f fcbc
000001b0: 3098 f6bb 6ce9 e03c 4089 cd3a 3c5d 953c
000001c0: 789c 79bc 7ef0 5abd d853 e93c 562c 513d
000001d0: 309e aabb 30f9 cb3b d866 513c 36da 493d
000001e0: a2b0 79bd b6d0 07bd f885 aebc 3093 4d3d
000001f0: c037 78bd 0885 1ebc 5853 5ebc 7eed 773d
00000200: 80f4 26ba b821 38bc 0861 a73c 4e4d 56bd
00000210: ec26 b53c 8ce8 303d d06a 0ebc 38c8 253d
00000220: 8084 66ba 3a97 253d 4846 233c 887d 733c
00000230: b4d7 523d 745b 30bd 548b 51bd d0d0 323c
00000240: 6465 513d 4e22 063d 7023 5e3c 32e0 083d
00000250: 4cc6 943c 2257 1c3d 9eec 0fbd 40f6 b73b
00000260: a014 30bd 58dc 083d 20b2 083c 0a4f 6e3d
00000270: fc89 e1bc e8a6 3abd 8e88 7abd 500d cd3b
00000280: 28aa 80bc f467 a1bc d454 81bc c24f 313d
00000290: 9c5e 963c e071 523c 9a6b 643d 181e 163d
000002a0: d856 48bd f49c f7bc b09c 69bc 343c 233d
000002b0: 3072 4d3d 82de 323d d8a2 493d ecf2 cf3c
000002c0: f05a c23b 189e 9c3c 20ce 2abc 7424 043d
000002d0: 1056 4c3d f01b 5e3c f09e 32bc 4080 0c3b
000002e0: 34ba 19bd 784a 1abd 88f0 8d3c 0845 cd3c
000002f0: 400f fabb 34b3 2cbd 605d d9bc 08f2 61bc
00000300: c894 893c f06e 283c f04f fdbb e07a 103c
00000310: 2c7a 8dbc 8adb 1d3d 7e16 2cbd f464 e9bc
00000320: 8e01 433d cce5 61bd 0464 43bd 08cc e33c
00000330: 5006 3ebd 78dc 2fbc 5ce7 b3bc 8835 76bd
00000340: f081 353d 08d6 123c d637 773d 44d0 513d
00000350: 9c2a 353d 644c 9dbc 80e9 39bb ea21 47bd
00000360: 7498 8d3c 36ae 29bd 84e9 183d 14e9 bbbc
00000370: 70c1 18bd deaa 08bd a0ae 193b 881d 043c
00000380: 00bc fab9 d80c 2ebd ae18 663d c2fa 15bd
00000390: 20a2 9d3c f0d7 a4bc 966a 72bd 1cee 02bd
000003a0: b0c2 8a3c 0085 f03b 70c1 31bd fe23 283d
000003b0: dce6 26bd b672 703d 3274 1fbd 50fa afbb
000003c0: 16b1 393d b82f 06bc d8d3 a93c 66ae 483d
000003d0: fedf 0c3d 6485 14bd ea11 2bbd 3ad7 0b3d
000003e0: 76d0 7bbd e077 ccbc 9066 44bc 00b4 113d
000003f0: f497 ddbc aab1 72bd bc3a 38bd c85e 3abd

fc3.weight f4 [256, 256]
0.024901904 -0.019354105 -0.027319476 -0.014630057 0.0030441657 0.036431402 0.04947234 -0.037412502
-0.04404722 0.034795374 -0.041766755 0.05172874 -0.02919276 -0.047879197 0.021317892 0.039024994
-0.031044059 -0.0038674027 0.053456537 0.0074747726 0.0014199987 -0.050191514 0.02776222 0.025079004
0.0015980527 -0.02735082 0.033199936 0.005429417 0.048411004 -0.01100003 0.05779767 -0.009099923
-0.021051683 -0.033000894 -0.025591083 0.030977525 0.04461728 -0.042057693 -0.015243769 0.010315113
-0.0072803423 0.053191878 0.02818001 -0.009360865 -0.027778722 0.02966626 0.036410607 -0.019191146
0.0123977065 -0.03791154 0.047116004 0.0069265217 0.013615102 -0.037264653 -0.030062646 0.02424527
-0.001190938 -0.04213129 -0.053526215 0.038865834 0.014155291 -0.040416718 0.00017334521 -0.053787746
-0.014149249 0.00078988075 -0.035624236 -0.01752381 -0.048118815 0.03190743 -0.008122519 0.028207108
0.047511846 -0.0050018653 0.032283902 0.04310231 -0.0044917464 0.057130307 -0.05774863 -0.046410315
-0.044522367 0.013685681 0.058608957 -0.042055577 -0.004543036 0.0038552135 0.061539903 0.005956717
0.012517996 0.052893534 -0.044125415 0.030810088 -0.04994663 0.049301073 0.016516834 -0.04240051
-0.0012414455 0.004423164 -0.04682324 0.019581608 -0.007108286 -0.030619636 0.03107991 0.013464101
-0.015540376 0.009579182 -0.06199772 0.014501296 -0.02097264 0.030917615 -0.016940422 -0.030203082
-0.018118031 -0.023962647 0.019007891 -0.002028212 -0.03646116 0.055264696 0.02839861 0.06053923
0.028924257 -0.02603224 0.056755558 0.03567756 -0.014054611 0.018691339 -0.007890575 0.018294446
0.016256504 -0.020848364 -0.04587602 -0.041786566 0.049592316 -0.0049789324 0.06197667 -0.035963893
0.027867362 -0.038575254 -0.038240574 -0.014087774 -0.010464609 0.058019772 0.019874953 -0.04601364
-0.022935592 0.003784582 -0.032412253 -0.056729376 0.055092365 0.007462956 0.050453223 0.013666853
-0.059577674 0.060753107 0.029084638 0.010640413 0.056647293 -0.032938994 -0.046237618 -0.018569306
-0.046562277 0.05768373 0.04647605 -0.014219888 0.00787805 0.009309851 -0.042012796 -0.023139477
0.061221592 -0.02657213 -0.027802847 -0.02600041 0.03496611 0.027572393 0.008459769 0.033101022
0.02114994 0.05526612 0.038505897 -0.023184232 -0.025875166 -0.014748827 0.053326905 0.040675804
0.014857084 -0.03999102 0.019684859 -0.0064897835 0.01915031 0.035306208 0.010383047 -0.03991247
0.028125323 -0.049709536 0.00524199 0.047136374 -0.022892848 0.013559341 -0.03451 -0.040013403
-0.04872916 0.04815252 0.029229857 0.044142075 0.027654834 -0.022566125 0.0085129365 -0.009780072
-0.020345822 0.032427125 -0.034024082 0.024169572 0.040241897 0.018558241 0.020464107 -0.0017947853
0.041629426 -0.041181937 0.052863017 -0.021687366 -0.01548098 -0.059186667 -0.017171018 -0.04304813
-0.02324199 0.020997912 -0.060917884 -0.039067104 -0.035283506 -0.056348242 -0.0381513 0.013462007
-0.03808236 0.043839693 -0.009844452 -0.025631942 0.020953216 0.03906803 -0.0138738975 -0.012712799
0.022256851 -0.031266138 0.058710746 -0.02631373 -0.035559162 -0.06189745 0.009478867 -0.040180773
0.041080885 0.05995833 0.049342558 -0.03156659 -0.046637453 0.047763072 -0.027831234 0.004388958
00000000: 14ff cb3c 808c 9ebc 18cd dfbc e8b2 6fbc
00000010: a080 473b 1839 153d 82a3 4a3d da3d 19bd
00000020: dc6a 34bd 9885 0e3d 9e13 2bbd 84e1 533d
00000030: a825 efbc fa1c 44bd dca2 ae3c acd8 1f3d
00000040: 1c50 febc 4074 7dbb 3ef5 5a3d f0ee f43b
00000050: 401f ba3a 9e95 4dbd 986d e33c 7c72 cd3c
00000060: c075 d13a d40e e0bc a8fc 073d 40e9 b13b
00000070: 9e4a 463d 7839 34bc 40bd 6c3d d817 15bc
00000080: 9474 acbc f22b 07bd 64a4 d1bc 94c4 fd3c
00000090: 9cc0 363d b044 2cbd 00c1 79bc b800 293c
000000a0: f08f eebb badf 593d c4d9 e63c 505e 19bc
000000b0: 3490 e3bc a806 f33c 4a23 153d c036 9dbc
000000c0: c01f 4b3c 2249 1bbd b6fc 403d e0f7 e23b
000000d0: e011 5f3c d2a2 18bd f045 f6bc 049e c63c
000000e0: 4019 9cba dc91 2cbd 4e3e 5bbd c831 1f3d
000000f0: 98eb 673c 008c 25bd 00c4 3539 8a50 5cbd
00000100: 40d2 67bc 0010 4f3a b8ea 11bd 188e 8fbc
00000110: 3c18 45bd 5eb1 023d 5014 05bc 9812 e73c
00000120: c89b 423d b0e6 a3bb 203c 043d 0c8c 303d
00000130: 802f 93bb 7801 6a3d d489 6cbd be18 3ebd
00000140: 165d 36bd e839 603c f20f 703d 7842 2cbd
00000150: c0dd 94bb c0a7 7c3b 4411 7c3d 9030 c33b
00000160: 4818 4d3c e4a6 583d dabc 34bd 7065 fc3c
00000170: d694 4cbd ecef 493d 504e 873c 28ac 2dbd
00000180: 00b8 a2ba 30f0 903b bac9 3fbd 9c69 a03c
00000190: a0ec e8bb 08d6 fabc 4c9b fe3c 8898 5c3c
000001a0: 109d 7ebc 00f2 1c3c 52f1 7dbd d896 6d3c
000001b0: d0ce abbc f046 fd3c a4c6 8abc 746c f7bc
000001c0: 446c 94bc 504d c4bc 70b6 9b3c c0eb 04bb
000001d0: 4c58 15bd 3c5d 623d 34a4 e83c fcf7 773d
000001e0: 90f2 ec3c 9041 d5bc 8478 683d a222 123d
000001f0: 5045 66bc 941e 993c 7847 01bc 3cde 953c
00000200: 5c2c 853c 30ca aabc 7ee8 3bbd 6428 2bbd
00000210: 5021 4b3d 5026 a3bb 40db 7d3d e04e 13bd
00000220: 184a e43c 1601 1ebd 26a2 1cbd 68d0 66bc
00000230: c073 2bbc 24a6 6d3d ccd0 a23c cc78 3cbd
00000240: 6ce3 bbbc c006 783b b6c2 04bd 105d 68bd
00000250: 88a8 613d d08b f43b 0aa8 4e3d f0ea 5f3c
00000260: b807 74bd 40d8 783d e842 ee3c 2055 2e3c
00000270: fe06 683d 0aeb 06bd a863 3dbd a81e 98bc
00000280: 16b8 3ebd c645 6c3d ac5d 3e3d 88fa 68bc
00000290: f012 013c 5888 183c 9c15 2cbd 008f bdbc
000002a0: 7ec3 7a3d ccad d9bc ccc2 e3bc d0fe d4bc
000002b0: a038 0f3d 80df e13c d89a 0a3c f094 073d
000002c0: a442 ad3c ba5e 623d 5cb8 1d3d dcec bdbc
000002d0: 28f8 d3bc 10a5 71bc 506d 5a3d ac9b 263d
000002e0: 206b 733c a0cd 23bd 2442 a13c 40a8 d4bb
000002f0: 1ce1 9c3c 3e9d 103d a81d 2a3c 427b 23bd
00000300: 1467 e63c 3a9c 4bbd 00c5 ab3b 1212 413d
00000310: c889 bbbc 0028 5e3c 5c5a 0dbd 18e5 23bd
00000320: 3a98 47bd 943b 453d 7473 ef3c 52ce 343d
00000330: 648c e23c 98dc b8bc d879 0b3c 983c 20bc
00000340: 48ac a6bc 4ed2 043d d65c 0bbd 44ff c53c
00000350: b0d4 243d 7407 983c 58a4 a73c 003f ebba
00000360: 9e83 2a3d 64ae 28bd e486 583d b4a9 b1bc
00000370: f0a3 7dbc b86d 72bd 3caa 8cbc 3c53 30bd
00000380: fc65 bebc d003 ac3c 0885 79bd d404 20bd
00000390: 7085 10bd 6acd 66bd 8a44 1cbd c08f 5c3c
000003a0: 40fc 1bbd 4091 333d a04a 21bc 14fa d1bc
000003b0: 14a6 ab3c cc05 203d 584f 63bc 5849 50bc
000003c0: 0054 b63c ec10 00bd ae7a 703d e48f d7bc
000003d0: 7ca6 11bd 2e88 7dbd 404d 1b3c 9894 24bd
000003e0: 6e44 283d de96 753d 6c1b 4a3d f84b 01bd
000003f0: ea06 3fbd 36a3 433d 54fe e3bc 40d1 8f3b

fc3.bias f4 [256]
-0.0035192668 -0.05081427 -0.034794495 -0.035815515 -0.051126614 -0.018298768 0.0057668313 -0.012544528
-0.053959817 0.02585166 0.0025381148 -0.047301322 0.029333487 -0.025016584 -0.05341857 0.04026535
-0.059285924 -0.008957498 -0.03631381 0.008679524 0.005874142 -0.018532708 0.019983746 -0.037570573
0.013005473 0.023525074 0.043278746 -0.045006223 0.0066155493 0.010494351 -0.037810467 -0.046845317
0.059139676 0.049842007 -0.022072457 -0.026221722 0.00016108155 -0.050358213 -0.06232752 -0.02623158
0.021549001 0.031028554 0.0019339174 0.0052880496 0.009602055 -0.04422123 0.029690884 -0.002887547
0.03634525 -0.05217968 -0.017006584 0.049145885 -0.0494826 -0.043932796 0.020276666 0.05838208
-0.03690955 -0.04736401 -0.023288794 0.058389492 -0.038402118 0.053236514 0.03249073 -0.012169324
0.03975375 0.019431092 0.043173417 0.05326104 -0.042817846 0.05496124 0.04954011 -0.056378983
-0.013020851 0.043790944 -0.015388064 -0.019312344 0.021934047 -0.03717415 0.02041597 -0.016773693
-0.0247771 0.048310727 -0.036999367 0.050508022 0.054331064 0.04781188 -0.059932858 -0.026865803
-0.05470518 -0.058721833 -0.05112292 0.00795196 -0.023792692 -0.051328197 0.027259298 -0.03074959
-0.061420374 -0.048574097 0.05292041 0.047422543 0.047322683 0.057175927 -0.051862538 -0.007540524
-0.031247213 0.06095998 0.03882131 -0.06058359 -0.03414628 0.0012569427 0.038770005 0.0019860342
-0.033204943 0.015436292 -0.038416862 0.0448528 -0.02728644 -0.019504853 -0.028223 -0.0052027553
-0.02660387 -0.02709087 -0.012790218 -0.004398614 0.04718093 -0.021966018 -0.04758723 -0.00414823
-0.033605747 -0.005463727 -0.00737001 0.028366752 0.016011558 0.029912174 0.05691752 0.013607666
-0.040219538 -0.0482855 -0.03504245 0.045028977 0.051692195 -0.027675942 -0.029321998 0.0056393147
-0.017030105 -0.017769799 -0.036898375 0.032687224 -0.018852875 -0.026582718 -0.05323612 0.021194048
0.016347922 0.02643276 0.0040256307 -0.037191086 -0.020087793 -0.049018137 -0.03699498 -0.015948154
0.044863105 -0.034714967 0.015573539 0.039629877 -0.0037860721 -0.019426621 -0.03046856 0.026164442
-0.016685799 -0.011022471 -0.025487632 -0.0004517585 -0.036142267 0.059386298 0.057752393 0.019416124
0.01914671 0.049920477 0.02529741 -0.0059861317 -0.026304126 -0.01261574 -0.0073317066 -0.008960426
0.036724232 -0.05218418 0.050651856 0.036241144 0.042277 0.01034984 -0.029522046 -0.030697592
-0.04254485 -0.018448189 -0.044551075 -0.048249803 -0.042039663 -0.01822108 -0.03396149 0.008592866
-0.045402326 0.020616002 -0.03488174 0.024935864 -0.060738012 -0.055579774 -0.032446288 -0.020758823
0.044687845 -0.012663901 0.055375688 -0.0345416 -0.019193277 0.020567335 0.032426678 -0.04345756
0.05966623 0.0034986287 0.009984426 -0.041557528 0.045752503 0.020641118 -0.030073859 0.0307284
0.023644976 -0.030738972 -0.05882159 0.03332766 -0.0027289093 0.05893729 0.053551383 -0.0015792698
0.05612269 0.05353906 0.0467477 0.029532984 -0.011477962 0.021724373 -0.03430058 0.028377004
-0.0042932928 0.033134863 -0.021695226 0.03768143 0.011346325 0.021691903 0.013355039 -0.057366446
0.056756727 0.05987773 0.019068934 -0.037768632 -0.0049937293 0.0017834157 -0.01245936 -0.023251384
00000000: 80a3 66bb a022 50bd ac84 0ebd 4ab3 12bd
00000010: 246a 51bd 4ce7 95bc b0f7 bc3b 9087 4dbc
00000020: f804 5dbd dcc6 d33c 8056 263b 08bf 41bd
00000030: c84c f03c 94ef ccbc 6ecd 5abd 48ed 243d
00000040: ccd5 72bd 78c2 12bc cabd 14bd 9034 0e3c
00000050: e07b c03b e8d1 97bc f4b4 a33c 9ae3 19bd
00000060: e814 553c a8b7 c03c 0e45 313d 7258 38bd
00000070: 40c7 d83b 80f0 2b3c 26df 1abd e0e0 3fbd
00000080: 723c 723d 2227 4c3d 4cd1 b4bc f0ce d6bc
00000090: 00e8 2839 6a44 4ebd 244b 7fbd 9ce3 d6bc
000000a0: 8887 b03c 982f fe3c 807b fd3a 6047 ad3b
000000b0: f051 1d3c 5221 35bd 4c3a f33c 003d 3dbb
000000c0: c2de 143d 5cba 55bd 6451 8bbc 324d 493d
000000d0: 44ae 4abd e0f2 33bd 401b a63c 0c22 6f3d
000000e0: 782e 17bd c400 42bd 24c8 bebc d229 6f3d
000000f0: 8a4b 1dbd 880e 5a3d 0015 053d d861 47bc
00000100: d4d4 223d f42d 9f3c 9cd6 303d 4028 5a3d
00000110: c461 2fbd 0a1f 613d 92ea 4a3d a6ed 66bd
00000120: 6855 55bc 225e 333d 381e 7cbc ec34 9ebc
00000130: 08af b33c ec43 18bd 643f a73c fc68 89bc
00000140: 58f9 cabc 78e1 453d a68c 17bd 80e1 4e3d
00000150: 408a 5e3d 64d6 433d 287c 75bd ac15 dcbc
00000160: 8a12 60bd 4e86 70bd 4466 51bd f048 023c
00000170: e4e8 c2bc 843d 52bd e44e df3c 90e6 fbbc
00000180: ee93 7bbd a2f5 46bd 12c3 583d 243e 423d
00000190: 6ed5 413d 4e31 6a3d d06d 54bd 8016 f7bb
000001a0: 28fa ffbc 2cb1 793d 1803 1f3d 8026 78bd
000001b0: f8dc 0bbd 00c0 a43a 4ccd 1e3d 2028 023b
000001c0: e801 08bd 80e8 7c3c 005b 1dbd 92b7 373d
000001d0: d087 dfbc a4c8 9fbc ec33 e7bc e07b aabb
000001e0: 5cf0 d9bc aced ddbc 108e 51bc 4022 90bb
000001f0: ca40 413d 14f2 b3bc d4ea 42bd e0ed 87bb
00000200: 2ea6 09bd 1009 b3bb 2080 f1bb 6461 e83c
00000210: ac2a 833c 600a f53c 5822 693d b0f2 5e3c
00000220: 3ebd 24bd 04c7 45bd ac88 0fbd 4e70 383d
00000230: 32bb 533d a8b8 e2bc b034 f0bc 00ca b83b
00000240: b882 8bbc f891 91bc c022 17bd 0ae3 053d
00000250: 5871 9abc 00c4 d9bc 1e0e 5abd 249f ad3c
00000260: 14ec 853c 8489 d83c 70e9 833b ae55 18bd
00000270: 288f a4bc 3ec7 48bd 0c88 17bd b4a5 82bc
00000280: 60c2 373d 4831 0ebd 2828 7f3c f052 223d
00000290: c01f 78bb 9424 9fbc 3499 f9bc d056 d63c
000002a0: a8b0 88bc 9897 34bc 70cb d0bc 00da ecb9
000002b0: ea09 14bd 0c3f 733d c68d 6c3d 900e 9f3c
000002c0: 90d9 9c3c 6a79 4c3d 843c cf3c 5027 c4bb
000002d0: c07b d7bc 40b2 4ebc d03e f0bb c0ce 12bc
000002e0: 266c 163d 14bf 55bd 5278 4f3d 9871 143d
000002f0: a62a 2d3d 6092 293c 38d8 f1bc 8479 fbbc
00000300: 8243 2ebd a820 97bc 307b 36bd 96a1 45bd
00000310: c831 2cbd 6044 95bc 341b 0bbd 18c9 0c3c
00000320: caf7 39bd e4e2 a83c 28e0 0ebd 4c46 cc3c
00000330: 6cc8 78bd 9ea7 63bd 66e6 04bd 680e aabc
00000340: 9a0a 373d 407c 4fbc 9ed1 623d 7e7b 0dbd
00000350: 383b 9dbc d47c a83c d6d1 043d 8e00 32bd
00000360: 9464 743d 4049 653b b895 233c 3a38 2abd
00000370: fa66 3b3d 9017 a93c 745d f6bc 20ba fb3c
00000380: 1cb3 c13c 4cd0 fbbc e8ee 70bd 9682 083d
00000390: 80d7 32bb 3a68 713d b258 5b3d 80ff ceba
000003a0: e8e0 653d c64b 5b3d 847a 3f3d 28ef f13c
000003b0: 100e 3cbc 50f7 b13c c47e 0cbd e476 e83c
000003c0: c0ae 8cbb 6cb8 073d 30ba b1bc d857 1a3d
000003d0: f0e5 393c 38b3 b13c 18cf 5a3c 14f9 6abd
000003e0: be79 683d 5a42 753d 7436 9c3c 48b3 1abd
000003f0: 70a2 a3bb 80c1 e93a 5822 4cbc b079 bebc

output.weight f4 [4, 256]
0.026189767 -0.034502618 0.0030642226 -0.059594132 0.05482185 0.046523623 0.026481882 0.044994257
-0.05831419 -0.008297168 0.028318644 0.0520344 0.03304357 0.061387368 -0.05858861 0.047637403
-0.03306739 -0.03082887 0.06032022 0.0053876564 0.028317265 0.057715118 0.038789347 0.005870685
-0.056536257 -0.02969864 0.016550608 0.055236638 0.017120257 -0.016976997 -0.03821323 -0.059160315
-0.022555627 0.033706926 -0.04199826 0.051521078 -0.03143145 0.033919536 0.034479477 -0.00977809
0.0395234 0.04000155 -0.050746262 -0.019904278 -0.014768973 0.039152615 0.025369212 -0.009551704
-0.0031351373 0.01712931 -0.0034010932 0.012967549 -0.007446304 0.020771094 0.0339932 -0.018108778
-0.02007807 -0.02035816 0.041109703 -0.025376037 -0.010495149 0.053041928 -0.025655985 -0.009235561
0.010851562 -0.037108503 0.060493335 0.04906305 0.034717232 -0.06164293 0.0076780245 -0.028991096
0.03520611 -0.056038603 0.02612757 -0.06002494 0.03572488 -0.038871102 0.019805647 0.0051704347
0.002711296 0.050788924 -0.04422728 -0.014794305 0.007795997 0.008814625 0.04048284 0.006325625
0.021367125 0.012906522 -0.05679945 0.0017929226 -0.04207772 0.017740816 0.009657986 -0.02189622
-0.055479154 -0.03255803 0.045774832 -0.049343616 0.019437432 0.00966949 -0.05142226 -0.053242177
0.050947674 0.0068643764 -0.054294027 0.0154000595 -0.061041847 0.026356705 -0.04206056 -0.006134346
0.008975588 0.03844507 -0.014020063 -0.009560719 -0.0076179504 -0.055053316 0.056956694 0.040004805
-0.061020926 0.036236487 -0.031583644 0.042018756 0.004780233 -0.0055830553 -0.009355687 -0.028778464
-0.028122991 -0.040257953 0.04889346 -0.037227914 -0.002689749 0.032600895 0.03524194 0.05517427
0.053410158 -0.03878083 0.0015751347 -0.02157738 -0.030866966 0.03981989 0.04214704 0.022053696
0.061871126 -0.033885375 -0.0128515065 -0.030282676 -0.030545734 0.019548602 0.0052813664 0.0017762333
0.0443125 0.0066939816 0.06189806 0.03233049 -0.0007603094 0.011053897 -0.042712227 0.06228087
-0.0486667 0.034651466 -0.051672593 0.030287117 0.030083962 -0.016191117 0.0008297041 0.03244856
-0.057719246 0.013424121 -0.037011936 0.041283645 0.028287217 -0.05799415 -0.032664694 0.012159996
0.03641901 0.016814053 0.052791424 -0.0020538047 0.015343472 0.019254066 -0.009279095 0.0341006
-0.0034920275 0.008129351 0.020856865 -0.01911714 0.022320881 -0.00195501 0.020679504 0.062406354
-0.021528818 0.0085611865 -0.006153032 0.013410509 -0.053228334 -0.05303195 0.012487605 -0.046587408
0.05377032 0.0030663833 -0.008681573 -0.006810367 -0.056188375 0.004925601 -0.0009939149 -0.035897464
-0.05113949 -0.05521459 -0.016112797 0.056973852 -0.019443333 0.03329455 0.01154007 0.019417785
-0.049099416 0.023597099 0.040362366 -0.00038439035 -0.06219942 -0.05050511 0.00082504004 0.054630555
0.01803863 0.05429311 0.00028976053 0.034423254 0.015166633 -0.046102084 0.009824365 0.0020644516
0.0054895654 -0.030663423 -0.036044195 -0.06079217 0.022743955 0.05666826 -0.025934435 0.0146924555
-0.052210063 0.014812224 -0.037162907 -0.020916976 0.04094287 0.028781414 -0.055299826 -0.003594242
0.04086092 0.025314145 0.054032072 0.059732586 -0.016998969 -0.031971127 0.05773527 -0.0574212
00000000: ec8b d63c 9e52 0dbd 20d1 483b fa18 74bd
00000010: e08c 603d 8e8f 3e3d 88f0 d83c e64b 383d
00000020: dcda 6ebd d8f0 07bc 80fc e73c 0622 553d
00000030: b258 073d 5271 7b3d 9cfa 6fbd 701f 433d
00000040: ac71 07bd d48c fcbc 5612 773d f08a b03b
00000050: 9cf9 e73c b066 6c3d 94e1 1e3d e05e c03b
00000060: 9092 67bd 904a f3bc 2495 873c d03f 623d
00000070: c83f 8c3c 5813 8bbc 7a85 1cbd 1652 72bd
00000080: 94c6 b8bc 4610 0a3d 5e06 2cbd c407 533d
00000090: 44be 00bd 36ef 0a3d 5a3a 0d3d 4834 20bc
000000a0: 4ae3 213d aad8 233d 50db 4fbd 4c0e a3bc
000000b0: 90f9 71bc 7e5e 203d 18d3 cf3c c07e 1cbc
000000c0: e076 4dbb c452 8c3c e0e4 5ebb d875 543c
000000d0: 2000 f4bb 2428 aa3c 743c 0b3d dc58 94bc
000000e0: c47a a4bc 28c6 a6bc a662 283d 68e1 cfbc
000000f0: d8f3 2bbc 7e42 593d 802c d2bc c050 17bc
00000100: c0ca 313c 16ff 17bd dcc7 773d 56f6 483d
00000110: a833 0e3d 4c7d 7cbd f097 fb3b bc7e edbc
00000120: 4834 103d bc88 65bd 7c09 d63c b6dc 75bd
00000130: 4054 123d 4e37 1fbd 743f a23c c06c a93b
00000140: 00b0 313b 0c08 503d aa27 35bd d063 72bc
00000150: 9075 ff3b 386b 103c 56d1 253d 3047 cf3b
00000160: 1c0a af3c e075 533c 8aa6 68bd 8000 eb3a
00000170: b059 2cbd 3055 913c 883c 1e3c b45f b3bc
00000180: 1c3e 63bd 925b 05bd 647e 3b3d 881c 4abd
00000190: 403b 9f3c c86c 1e3c 26a0 52bd 7814 5abd
000001a0: 82ae 503d 90ee e03b 6a63 5ebd 8850 7c3c
000001b0: 0407 7abd 04ea d73c b247 2cbd a002 c9bb
000001c0: 580e 133c 9478 1d3d 68b4 65bc 90a4 1cbc
000001d0: 00a0 f9bb 967f 61bd 6c4b 693d 14dc 233d
000001e0: 14f1 79bd b66c 143d da5d 01bd dc1b 2c3d
000001f0: 80a3 9c3b 10f2 b6bb 9848 19bc d0c0 ebbc
00000200: 3062 e6bc 86e5 24bd 8244 483d 4c7c 18bd
00000210: 8046 30bb 8488 053d da59 103d 6afe 613d
00000220: 9cc4 5a3d a6d8 1ebd c074 ce3a 0cc3 b0bc
00000230: b8dc fcbc 2e1a 233d 60a2 2c3d f4a9 b43c
00000240: 946c 7d3d 64cb 0abd 208f 52bc 6013 f8bc
00000250: 0c3b fabc 6424 a03c 500f ad3b 80d0 e83a
00000260: 0681 353d 3059 db3b d288 7d3d fa6c 043d
00000270: 804f 47ba 681b 353c 04f3 2ebd 3a1a 7f3d
00000280: bc56 47bd b2ee 0d3d a4a6 53bd b01c f83c
00000290: a472 f63c 3ca3 84bc 8080 593a c8e8 043d
000002a0: 046b 6cbd d8f0 5b3c d499 17bd 0a19 293d
000002b0: 98ba e73c 468b 6dbd 6acb 05bd b83a 473c
000002c0: 1a2c 153d a0bd 893c d23b 583d 2099 06bb
000002d0: 3063 7b3c b4ba 9d3c 5807 18bc 12ad 0b3d
000002e0: 80da 64bb f830 053c 04dc aa3c 8c9b 9cbc
000002f0: 48da b63c a01f 00bb 1068 a93c ce9d 7f3d
00000300: 345d b0bc 3844 0c3c 609f c9bb c0b7 5b3c
00000310: f405 5abd 0838 59bd d098 4c3c 70d2 3ebd
00000320: 443e 5c3d 60f5 483b 283d 0ebc 8029 dfbb
00000330: c825 66bd f066 a13b 4046 82ba 3809 13bd
00000340: a477 51bd b228 62bd fcfe 83bc 6a5d 693d
00000350: a047 9fbc de5f 083d 9012 3d3c 0c12 9f3c
00000360: 781c 49bd b44e c13c 0253 253d 0088 c9b9
00000370: d2c4 7ebd 72de 4ebd 8047 583a 4ac4 5f3d
00000380: c0c5 933c 7462 5e3d 00eb 9739 66ff 0c3d
00000390: 787d 783c 8ad5 3cbd 60f6 203c c04b 073b
000003a0: d0e1 b33b dc31 fbbc 14a3 13bd 3601 79bd
000003b0: 8851 ba3c fa1c 683d 7474 d4bc a0b8 703c
000003c0: 38da 55bd f8ae 723c 2238 18bd 145a abbc
000003d0: b6b3 273d 00c7 eb3c 1282 62bd 608d 6bbb
000003e0: c85d 273d 9c5f cf3c bc50 5d3d 28aa 743d
000003f0: 6c41 8bbc 28f4 02bd d27b 6c3d 7e32 6bbd

output.bias f4 [4]
-0.040231943 -0.0273666 0.03645669 0.02211044
00000000: 40ca 24bd ec2f e0bc 9c53 153d f420 b53c
