fetch_sticky_mittens_step_4_blocks/networks/ours_10k_block_4_uber_level_0_seed_250/network_reach_object_3.pth (torch, 622647 bytes, 8 tensors)

fc1.weight f4 [256, 85]
0	0xbd49ddec	-0.049283907
1	0xbcc1ed29	-0.023672657
2	0xbdd654a4	-0.10465363
3	0xbd1328fc	-0.035927758
4	0x3d539900	0.051659584
5	0xbdb6bb7a	-0.08922477
6	0xbcaf5c67	-0.021406366
7	0x3d1e4d72	0.038648076
8	0x3d684b53	0.05671246
9	0x3db80793	0.0898582
10	0x3d7ffa2a	0.062494434
11	0x3d42db79	0.047572587
12	0x3d2313c8	0.039813787
13	0xbd5b0296	-0.053469263
14	0x3da56624	0.080761224
15	0xbcca6f55	-0.02471129
16	0xbdd84216	-0.1055948
17	0x3dca9ea6	0.09893541
18	0xbc1c8bd8	-0.009554826
19	0x3cc3ea68	0.023915485
20	0x3d59dc9e	0.053188913
21	0xbd9bb09b	-0.07602044
22	0xbc46bd15	-0.012130042
23	0x3dd71376	0.10501759
24	0xbdb68673	-0.08912363
25	0x3d29513a	0.04133723
26	0x3cbb07ba	0.022830833
27	0x3d269f83	0.040679466
28	0x3c797ae1	0.0152270505
29	0xbd81e4c7	-0.06342464
30	0x3c4ffbf5	0.012694349
31	0x3db7e4a6	0.08979158
32	0xbc7398e4	-0.014867995
33	0x3d9c8db7	0.076442175
34	0xbda168f1	-0.07881344
35	0x3ae6c0c5	0.0017605057
36	0xbda2c363	-0.07947423
37	0xbd0502b5	-0.032473285
38	0x3dcace48	0.09902626
39	0xbc4e6f3e	-0.012599764
40	0xbcb83f0e	-0.022491004
41	0xbd6df798	-0.058097452
42	0xbda09bf7	-0.07842248
43	0x3daba0bb	0.08380266
44	0x3da37263	0.07980802
45	0xbd9bf92c	-0.07615885
46	0x3db28491	0.08716691
47	0xbce69624	-0.028147765
48	0x3d60774b	0.054801267
49	0xbdcf9a68	-0.101368725
50	0xbdc3fb9e	-0.095694765
51	0xbd136812	-0.03598792
52	0x3db785eb	0.0896109
53	0xbd7bd474	-0.061481908
54	0x3bf03888	0.007330958
55	0x3d8e3571	0.06943787
56	0xbd713b40	-0.058894396
57	0x3db35cad	0.08757911
58	0xbceeb3d2	-0.02913848
59	0xbd902b29	-0.07039482
60	0x3d81a995	0.06331173
61	0xbd889a5b	-0.06670066
62	0x3d273423	0.040821206
63	0x3d4f2398	0.050571054
64	0xbd9ce910	-0.07661641
65	0xbd289a43	-0.04116274
66	0x3dc3c021	0.0955813
67	0xbccd4ac4	-0.025060065
68	0x3d3f8fc6	0.046767972
69	0xbbdfd5a4	-0.006830888
70	0x3c9e9147	0.019356383
71	0x3d03a507	0.032139804
72	0xbd374d20	-0.044751287
73	0x3cbbfcc7	0.022947682
74	0xbdbc61ed	-0.09198365
75	0x3dae8265	0.085209645
76	0xbd07029f	-0.032961484
77	0x3c886b80	0.016652822
78	0x3d843f27	0.06457358
79	0xbc454f2d	-0.012042803
80	0xbcb2d1f8	-0.021828637
81	0x3da355f2	0.07975377
82	0x3d2cb2eb	0.042162817
83	0xbdd579a0	-0.10423589
84	0x3daa18df	0.08305525
85	0xbd8f3f12	-0.069944516
86	0x3dc449e0	0.09584403
87	0x3d87a479	0.066231675
88	0x3dcd103e	0.100128636
89	0x3d9006b5	0.07032529
90	0x3d367d7b	0.04455326
91	0x3d83f01b	0.06442281
92	0x3da67d21	0.08129335
93	0xbafc9e71	-0.0019273293
94	0x3d5db171	0.0541243
95	0xbcb948fc	-0.02261781
96	0xbc80e9b6	-0.015736442
97	0xbd6c0ea2	-0.057631142
98	0x3db7be02	0.08971788
99	0x3dabdf31	0.0839218
100	0xbdb65e08	-0.08904654
101	0x3db818dd	0.08989117
102	0xbd01d71a	-0.031699277
103	0xbcb7a408	-0.022417083
104	0xbd2166fa	-0.039404847
105	0x3d6634b6	0.056202613
106	0xbcfc33fc	-0.030786507
107	0x3dd1019d	0.10205386
108	0x3c2133d2	0.009839015
109	0x3dc9cb92	0.09853281
110	0x3d4b8f94	0.049697474
111	0x3d68b4c4	0.056813017
112	0x3c15ef07	0.009151227
113	0xbd84703f	-0.06466722
114	0x3d415bb9	0.047206614
115	0x3db89203	0.090122245
116	0xbd5f30b4	-0.054489806
117	0xbda6fe64	-0.0815399
118	0x3cd9619b	0.0265358
119	0x3d19a255	0.037508328
120	0x3d885d09	0.0665837
121	0x3d879e5f	0.06622004
122	0xbdcfce21	-0.10146738
123	0x3d9a9353	0.07547631
124	0xbccea87d	-0.025226826
125	0x3bbaf07d	0.005704938
126	0xbddb7106	-0.10714917
127	0xbd0158c1	-0.031578783
128	0x3d9547ff	0.07289123
129	0xbd88a281	-0.0667162
130	0x3dcb4db0	0.09926927
131	0x3d55414a	0.052064218
132	0xbd511c9f	-0.051052686
133	0xbd341ab6	-0.043970786
134	0x3dced7b0	0.10099733
135	0xbd3893cb	-0.04506282
136	0xbd3947a1	-0.045234326
137	0xbcb57e9a	-0.022155095
138	0xbc2ff829	-0.010740318
139	0xbc57e93b	-0.013178165
140	0xbcfabf45	-0.030608783
141	0x3d19c34b	0.03753976
142	0xbd262669	-0.040563975
143	0x3d2c69de	0.04209315
144	0x3d1dcd36	0.038525783
145	0xbd194131	-0.037415687
146	0xbd999bde	-0.075004324
147	0x3dcd8601	0.10035325
148	0x3ca900db	0.02063029
149	0xbd175504	-0.03694631
150	0xbdcd98f5	-0.1003894
151	0xbd8d0347	-0.06885391
152	0x3c22e2eb	0.009941797
153	0xbd866154	-0.065615326
154	0xbdb40a5d	-0.08791039
155	0x3d81ede3	0.063442014
156	0xbda58123	-0.080812715
157	0x3d031c48	0.032009393
158	0x3dbb13a6	0.09134607
159	0x3c8f23f3	0.017473197
160	0x3ac5ab5f	0.001508098
161	0x3d88d200	0.06680679
162	0xbbe952d4	-0.0071204696
163	0x3d45901b	0.048233133
164	0xbda87bf9	-0.08226771
165	0xbd054955	-0.032540638
166	0xbc7db9dd	-0.015486208
167	0xbccab0d8	-0.024742529
168	0xbbed1008	-0.007234577
169	0x3d291db2	0.041288085
170	0xbd86dc8d	-0.065850355
171	0xbd5b4e11	-0.053541247
172	0xbd123248	-0.035692483
173	0xbd1658b6	-0.036705695
174	0xbd10d58d	-0.035359908
175	0x3d03ca69	0.032175455
176	0xbd8f6574	-0.070017725
177	0xbd6da365	-0.058017153
178	0x3cd6a336	0.026200872
179	0xbd2acd7e	-0.04169988
180	0xbd895dbd	-0.06707332
181	0x3c8d1249	0.017220633
182	0xbd9d9f90	-0.0769645
183	0x3d274a97	0.04084262
184	0xbdcd3f5d	-0.10021851
185	0x3be5335a	0.006994647
186	0x3c886fc9	0.016654866
187	0xbdd740a3	-0.10510375
188	0x3dc23841	0.09483386
189	0xbdbf8f7a	-0.09353538
190	0x3d93795d	0.072008826
191	0xbdb2c44a	-0.087288454
192	0xbd4ed50d	-0.05049615
193	0x3da0b3bd	0.07846782
194	0x3d8d1724	0.06889179
195	0xbd846a88	-0.06465632
196	0x3d9e2e06	0.07723622
197	0xbd859afc	-0.065237015
198	0x3dc62225	0.09674481
199	0xbdc355aa	-0.095378235
200	0x3dd68d72	0.10476197
201	0x3dc544f7	0.096322946
202	0x3d77e134	0.060517505
203	0x3d303da5	0.04302754
204	0xbcf050c6	-0.02933539
205	0x3b703d86	0.0036657765
206	0x3cafb993	0.021450793
207	0xbd60ff45	-0.054930944
208	0x3cb091e2	0.021553937
209	0x3d466f3b	0.04844592
210	0xbdb9356d	-0.09043393
211	0xbd101dbb	-0.035184603
212	0x3cc4f433	0.024042225
213	0xbdadc4b4	-0.08484784
214	0x3d5f6595	0.054540236
215	0xbdaf596d	-0.085619785
216	0xbdc43920	-0.09581208
217	0x3dd88470	0.105721354
218	0x3d6b8e1a	0.057508565
219	0xbd17cb30	-0.03705901
220	0x3dd6cc57	0.104881935
221	0xbd8f5603	-0.06998827
222	0x3c994bb9	0.018712865
223	0xbd926cf4	-0.071496874
224	0xbd0dc0b6	-0.03460761
225	0xbc84d79f	-0.016216097
226	0xbd961799	-0.0732872
227	0x3b85fff9	0.004089352
228	0xbd4b196b	-0.049584787
229	0x3d453c4a	0.0481532
230	0xbcb510f8	-0.022102818
231	0xbdc4962c	-0.095989555
232	0x3ce8c33f	0.028413413
233	0x3d9ed6a9	0.07755787
234	0x3d059d49	0.032620702
235	0xbd50b6fd	-0.05095576
236	0x3c03e276	0.008049598
237	0x3b5f6220	0.0034085587
238	0x3d34929f	0.04408514
239	0xbc7b9725	-0.01535586
240	0xbbdfe90e	-0.006833202
241	0xbd0c82e5	-0.03430452
242	0xbd809ef9	-0.06280322
243	0x3d8d72f8	0.06906694
244	0xbdd3832c	-0.103277534
245	0x3c8b0d96	0.016974252
246	0x3d6f499c	0.05841981
247	0x3cfa6515	0.030565778
248	0x3d27d2ee	0.040972643
249	0x3db065ef	0.08613192
250	0x3c73d14b	0.014881442
251	0xbd5e8f9b	-0.05433617
252	0xbdc1907e	-0.09451388
253	0x3d582925	0.052773613
254	0xbd47425c	-0.04864727
255	0x3dbe29dc	0.09285328

fc1.bias f4 [256]
0	0x3cb141d7	0.02163784
1	0xbda57ef4	-0.08080855
2	0x3d152c35	0.036419112
3	0xbdcc2d1c	-0.099695414
4	0x3afa6072	0.0019102229
5	0x3d0adc27	0.03390136
6	0x3db44f1c	0.088041514
7	0x3da2e4fc	0.079538316
8	0xbd4f8bcd	-0.050670434
9	0xbc85be23	-0.016326016
10	0xbd5e6f53	-0.054305386
11	0xbd0a5132	-0.03376884
12	0xbca659eb	-0.020306548
13	0x3dd85273	0.10562601
14	0xbd9e015f	-0.07715105
15	0xbd50bda9	-0.050962124
16	0xb92f7bb2	-0.0001673538
17	0xbc6abe9f	-0.014327674
18	0xbdb2eafd	-0.08736227
19	0x3d33a414	0.04385765
20	0xbd8e2224	-0.069401056
21	0x3d48486c	0.048897192
22	0x3dbe4b72	0.09291734
23	0x3d6ab597	0.057302084
24	0xbd636532	-0.05551643
25	0xbd8115c5	-0.0630298
26	0x3dbcc7e1	0.092178114
27	0xbd916f57	-0.071013145
28	0x3b1311cd	0.002244103
29	0x3d563114	0.0522929
30	0x3dc3190f	0.09526264
31	0xbdd99c2f	-0.10625493
32	0xbdcb3f1b	-0.09924146
33	0x3cb88a0f	0.022526769
34	0x3cc14627	0.023593022
35	0xbdaa4461	-0.083138235
36	0x3d111afc	0.035426125
37	0x3d71b258	0.059007972
38	0x3c5ddad6	0.013540944
39	0x3d21dba5	0.03951611
40	0x3d6a1c5b	0.057155948
41	0x3d17d63d	0.037069548
42	0x3d0f07f0	0.03491968
43	0x3d9302ed	0.071782924
44	0x3c90c09b	0.017669966
45	0xbd015262	-0.031572707
46	0xbcdc4201	-0.026886942
47	0xbd7c8e7c	-0.06165932
48	0x3dc03b38	0.09386295
49	0xbbfba5bb	-0.0076796687
50	0x3cd902f1	0.02649066
51	0xbd343663	-0.04399718
52	0x3d083f2e	0.033263378
53	0x3d32c5ee	0.04364579
54	0x3d9641a1	0.073367365
55	0x3db73a02	0.08946611
56	0xbd84ef55	-0.064909615
57	0x3da80431	0.082039244
58	0x3b974829	0.0046167565
59	0xbdbcfd18	-0.09227961
60	0xbdab3d22	-0.083612695
61	0x3cfecf05	0.031104574
62	0x3ca8b63b	0.020594707
63	0x3dcd5b6c	0.10027203
64	0xbd577e7d	-0.052610863
65	0xbd93229b	-0.07184335
66	0x3c452c40	0.012034476
67	0x3befdb5c	0.007319851
68	0xbd2b7718	-0.041861624
69	0x3ddc8ddb	0.10769244
70	0xbd16a613	-0.036779474
71	0xbd49ac65	-0.049236674
72	0xbc9d58ae	-0.019207325
73	0xbd8349fe	-0.06410597
74	0x3cce8753	0.025211012
75	0xbdcf254d	-0.101145364
76	0x3dd8871e	0.105726466
77	0xbb687845	-0.0035472077
78	0x3d83ea4a	0.064411715
79	0x3d28d645	0.04121997
80	0x3d2221fc	0.03958319
81	0x3da02114	0.07818809
82	0xbd39413b	-0.045228224
83	0xbdb7b111	-0.089693196
84	0x3c5dc3bc	0.013535436
85	0x3dd48900	0.10377693
86	0x3ce7e4f9	0.028307425
87	0x3daf64da	0.08564158
88	0xbd9df88b	-0.077134214
89	0xbdd76d18	-0.10518855
90	0xbdbf7fd5	-0.09350554
91	0x3d22fc37	0.039791312
92	0xbd50eda5	-0.051007885
93	0xbdc7a371	-0.09747971
94	0x3cfafb2b	0.030637344
95	0x3da02118	0.07818812
96	0x3db99b39	0.090628095
97	0xbd998ebe	-0.07497929
98	0xbcaeaf83	-0.021323925
99	0x3db7ea96	0.089802906
100	0xbd9773d7	-0.073951416
101	0xbdbabbd6	-0.09117858
102	0x3da211a2	0.079135194
103	0x3d2247ad	0.039619137
104	0xbdc9624c	-0.09833202
105	0xbddc9380	-0.10770321
106	0x3da330d9	0.07968301
107	0x3d8d60f5	0.06903259
108	0x3d9352f3	0.07193556
109	0xbd91ecbe	-0.07125233
110	0x3ddaf0ef	0.10690486
111	0xbd1c506b	-0.03816263
112	0xbd383835	-0.04497548
113	0xbd81bb65	-0.06334571
114	0x3dc4794d	0.09593449
115	0xbdc5ad8d	-0.09652243
116	0x3d495a79	0.049158547
117	0x3d9a245a	0.07526465
118	0x3cf7550a	0.030191917
119	0xbd862167	-0.0654934
120	0xbd58ca5a	-0.052927352
121	0xbc9224a4	-0.017839737
122	0x3dd58d5d	0.104273535
123	0xbd232e26	-0.039838932
124	0x3cc9a737	0.024615867
125	0x3c8be1b7	0.017075403
126	0xbdd7084f	-0.104996316
127	0x3dc19a06	0.09453206
128	0xbd690dfb	-0.0568981
129	0xbd119f11	-0.03555209
130	0x3bed1171	0.007234745
131	0xbc8aa6ec	-0.016925298
132	0x3db7f22b	0.08981737
133	0xbd324c2d	-0.043529678
134	0x3d976483	0.07392218
135	0x3dadb548	0.08481842
136	0xbd88b37d	-0.0667486
137	0x3dc6cf85	0.0970755
138	0x3dd10d81	0.10207654
139	0x3db39e51	0.08770431
140	0xbda505bd	-0.08057735
141	0x3d68eb4f	0.056865033
142	0xbd044293	-0.032290053
143	0xbd9441cd	-0.07239113
144	0xb9e7f079	-0.0004423892
145	0xbce85d4a	-0.028364796
146	0xbdc08156	-0.09399669
147	0xbd5c5d06	-0.05379965
148	0xbcd405e6	-0.025881719
149	0xbd438b9f	-0.047740575
150	0x3dc0c152	0.09411873
151	0x3db9f4f0	0.09079921
152	0x3db21ebc	0.08697268
153	0xbd0e69eb	-0.03476898
154	0xbd8588e4	-0.065202504
155	0x3d11d744	0.035605684
156	0xbce0d186	-0.027443659
157	0x3d5ea317	0.054354753
158	0xbd3c070a	-0.04590515
159	0x3d80a747	0.062819056
160	0x3cc5ea4e	0.024159577
161	0x3ca7bee7	0.020476772
162	0xbda44a3f	-0.08021974
163	0xbcf7be94	-0.030242242
164	0x3ddb2876	0.10701077
165	0x3d53fbaa	0.051753677
166	0xbd38053b	-0.044926863
167	0x3b8e921e	0.0043509146
168	0xbd667d20	-0.056271672
169	0x3cabc0be	0.02096593
170	0x3c1c652d	0.009545607
171	0x3c1cb6d9	0.009565079
172	0xbc111823	-0.008855852
173	0xbc467974	-0.012113918
174	0xbd13d063	-0.036087405
175	0xbcf72737	-0.030170066
176	0x3dc27829	0.09495575
177	0x3d102b81	0.03519774
178	0xbd1d7570	-0.038442075
179	0xbd89aef0	-0.0672282
180	0x3dd32920	0.10310578
181	0xbcfeac11	-0.031087907
182	0xbcc4cc26	-0.024023127
183	0xbc97b8f0	-0.018520802
184	0x3d854979	0.065081544
185	0x3d3c48f2	0.045968004
186	0xbdc61b09	-0.09673125
187	0x3d5c89e0	0.053842425
188	0x3d07b1b3	0.03312845
189	0xbbcc733f	-0.0062393243
190	0xbcfde6a1	-0.030993761
191	0xbdc11097	-0.094269924
192	0x3d8d9e86	0.069150016
193	0xbd5f8a1b	-0.054575067
194	0xbcc0f202	-0.023552898
195	0x3d9f13d6	0.07767455
196	0x3d796a83	0.060892593
197	0xbc2993bf	-0.010350167
198	0x3d914ab5	0.07094327
199	0xbd3194d4	-0.043354824
200	0x3c7b9c75	0.0153571265
201	0xbd8ea4dc	-0.06965038
202	0xbbeb16b1	-0.007174336
203	0xbd897eec	-0.067136616
204	0x3dad5f03	0.08465388
205	0xbd9e5f50	-0.07733023
206	0xbcaed1ad	-0.021340216
207	0xbd7eea9f	-0.06223547
208	0xbbe4aa5c	-0.006978316
209	0x3daebd8e	0.085322484
210	0xbc9a23ec	-0.018815957
211	0x3dce033a	0.10059209
212	0x3d11d208	0.035600692
213	0x3c899dea	0.016798932
214	0xbb7cc887	-0.0038571672
215	0xbd89a8f3	-0.06721678
216	0x3d482d33	0.04887123
217	0x3d099ed6	0.033598743
218	0x3d7ec1fa	0.06219671
219	0x3c36b864	0.011152361
220	0xbc970a95	-0.018437663
221	0x3c27f531	0.010251329
222	0x3c861c34	0.01637087
223	0xbdb8b465	-0.090187825
224	0x3c148451	0.00906475
225	0xbd3237a6	-0.0435101
226	0x3d845c5e	0.0646293
227	0x3dce8a5a	0.10084982
228	0xbdaab8ca	-0.08336027
229	0x3d98d2dc	0.07462093
230	0x3cf99bb7	0.030469758
231	0xbd7e1b78	-0.062037915
232	0xbcdd5f83	-0.027023083
233	0xbd8d11d0	-0.06888163
234	0xbdb128f8	-0.08650392
235	0xbd8f4741	-0.069960125
236	0xbc99dfac	-0.018783413
237	0x3d6cf227	0.057848122
238	0x3d63c028	0.055603176
239	0xbc924e0c	-0.017859481
240	0xbd0b6e06	-0.034040473
241	0x3d96aef6	0.0735759
242	0xbd74619f	-0.05966341
243	0x3c36fc2e	0.011168523
244	0x3c559f08	0.013038404
245	0x3cd723b7	0.026262147
246	0x3caba2e3	0.020951694
247	0xbd93b65d	-0.072125174
248	0xbc7389fa	-0.014864439
249	0x3b8c27dd	0.004277213
250	0x3d99217a	0.07477088
251	0xbdb61837	-0.08891337
252	0x3dc81777	0.097701006
253	0x3d8bbb5e	0.06822847
254	0xbd124fb4	-0.035720542
255	0xbd62f7ff	-0.05541229

fc2.weight f4 [256, 256]
0	0x3bba05f0	0.0056769773
1	0x3a7ef780	0.00097262114
2	0xbb5f4760	-0.0034069642
3	0x3d03df8e	0.03219562
4	0x3c96c048	0.018402234
5	0xbd31c668	-0.043402106
6	0xbc30bdd0	-0.010787442
7	0x3d223146	0.039597772
8	0xbc8697bc	-0.016429774
9	0xbce52ab8	-0.027974471
10	0xbd25d292	-0.04048402
11	0x3d1533e4	0.03642644
12	0x3d3420b0	0.043976486
13	0x3d47e606	0.04880335
14	0x3d78ceba	0.060744025
15	0xbd5d36ec	-0.054007456
16	0x3d738702	0.059454925
17	0x3d72a182	0.059236057
18	0xbd7f3d76	-0.062314473
19	0xbd6afd38	-0.057370394
20	0x3b659380	0.0035030544
21	0x3d440e6c	0.047865316
22	0xbcdb90d4	-0.026802458
23	0xbd67c162	-0.05658091
24	0x3b622940	0.003450945
25	0xbcc39158	-0.023873016
26	0xbce77ebc	-0.028258674
27	0xbb7bb6e0	-0.0038408563
28	0x3d4e8788	0.05042222
29	0x3d0a4ba8	0.033763558
30	0xbce4aa78	-0.027913317
31	0x3d3bbaa6	0.0458323
32	0x3d7c87f0	0.061653078
33	0xbcd8a138	-0.026444063
34	0xbab39bc0	-0.0013703033
35	0x3cb7a474	0.022417285
36	0xbc6898a8	-0.014196552
37	0x3d2a4560	0.041570067
38	0xbd494dae	-0.049146347
39	0x3d75ba16	0.05999192
40	0x3c716c58	0.014735304
41	0x3c893214	0.016747512
42	0x3c686660	0.014184564
43	0x3d5a5b50	0.05330974
44	0xbd5a3748	-0.053275377
45	0x3d75c554	0.06000264
46	0x3c060b28	0.008181371
47	0xbd73f6b8	-0.05956146
48	0xbd665042	-0.056228884
49	0x3b35ae20	0.0027722195
50	0xbcadb314	-0.021203555
51	0x3c5138e8	0.012769915
52	0xbd383d84	-0.04498054
53	0xbd6db1f0	-0.058031023
54	0x3b843d80	0.0040356517
55	0xbcb5af54	-0.02217833
56	0xbca76f50	-0.02043882
57	0xbccfbe04	-0.025359161
58	0x3d5cef9e	0.053939454
59	0x3b0841c0	0.0020791143
60	0x3d4f6ae8	0.050639063
61	0x3cea9090	0.028633386
62	0xbcde8724	-0.02716405
63	0x3ca68940	0.020329118
64	0xbd1d25fa	-0.038366295
65	0xbd1dae6e	-0.038496427
66	0x3c203458	0.009778105
67	0xbbff6e00	-0.0077950954
68	0xbd7b18ec	-0.061303064
69	0x3cc92a7c	0.024556391
70	0xbc9aeee0	-0.018912733
71	0x3d6ac044	0.057312265
72	0x3ceed474	0.02915404
73	0x3c7d3978	0.015455596
74	0x3c500750	0.012697056
75	0x3d6a4ef0	0.057204187
76	0xbd6e6b4c	-0.058207795
77	0x3d753c54	0.059871987
78	0xbb1a7020	-0.0023565367
79	0xbd27883a	-0.0409014
80	0xbd2303d0	-0.039798558
81	0xbd028330	-0.03186339
82	0xbd27dcd2	-0.040982075
83	0xbc087ae8	-0.008330084
84	0x3d5c08c4	0.053719297
85	0xbd1d56ac	-0.038412735
86	0xbced3e54	-0.028960384
87	0x3d1ee588	0.038793117
88	0xbd0c900a	-0.034317054
89	0xbcc55c64	-0.024091907
90	0x3b135b20	0.0022484735
91	0xbd3baba2	-0.04581798
92	0x3d75cffe	0.06001281
93	0x3d69da94	0.057093218
94	0x3d006a24	0.031351224
95	0x3c5f5ab8	0.013632469
96	0xbd76ae22	-0.06022466
97	0x3c5d5170	0.013508186
98	0x3d7e37b4	0.06206484
99	0x3d63a126	0.055573605
100	0x3d289532	0.04115791
101	0xbd6a657e	-0.057225697
102	0x3b91b620	0.00444676
103	0x3d1d708e	0.03843742
104	0xbd14b1c8	-0.036302358
105	0xbd3707f4	-0.04468532
106	0x3d47c78e	0.048774295
107	0xbd2b3424	-0.041797772
108	0x3d37f500	0.044911385
109	0x3d756468	0.059910208
110	0x3cafc620	0.021456778
111	0xbcf85818	-0.030315444
112	0xbc734a20	-0.014849216
113	0xbd69f79a	-0.057120897
114	0xbcf2060c	-0.029543899
115	0x3cbbdfa0	0.022933781
116	0xbcc64c5c	-0.024206333
117	0xbbe24320	-0.0069049746
118	0xbcf44300	-0.029817104
119	0x3c815dc0	0.015791774
120	0x3d4690a0	0.04847777
121	0xbc659c18	-0.014014266
122	0x3c312b38	0.010813527
123	0xbd254e7e	-0.04035806
124	0xbca502d8	-0.020142958
125	0x3cdf4864	0.027256198
126	0xbcf3302c	-0.029686056
127	0xbd11043c	-0.03540443
128	0xbcb7b38c	-0.022424482
129	0x3d0e332c	0.03471677
130	0xbcf708c4	-0.030155547
131	0x3be8b210	0.007101305
132	0x3d3b6982	0.045754917
133	0x3c8e9e8c	0.017409585
134	0xbd06f700	-0.0329504
135	0xbc307218	-0.01076939
136	0x39a0d100	0.00030673295
137	0x3d2a4f8e	0.041579776
138	0x3d388c16	0.04505547
139	0xbd3577f4	-0.04430385
140	0xbc535ac8	-0.012900062
141	0xbd6e35a8	-0.05815664
142	0xbd3245ae	-0.043523483
143	0xbbdce490	-0.006741114
144	0x3c36e160	0.011162132
145	0xbd376620	-0.04477513
146	0xba137d00	-0.00056262314
147	0x3bede8b0	0.0072604045
148	0x3d775c4e	0.060390763
149	0xbd2806b6	-0.041022025
150	0xbcd9e828	-0.026599959
151	0x3d59f50c	0.05321221
152	0xbd06fc3c	-0.032955393
153	0x3a1b2080	0.00059176236
154	0xbd1872ec	-0.037218973
155	0x3ca7cd94	0.02048377
156	0x3c001390	0.007817164
157	0xbd5a3810	-0.05327612
158	0xbd729126	-0.059220456
159	0xbc456898	-0.012048863
160	0xbd12b244	-0.03581454
161	0xbd5d1ba0	-0.053981423
162	0xbd244d42	-0.04011274
163	0x3d4f16b4	0.05055876
164	0x3d7b827a	0.06140373
165	0x3ba5f6d0	0.0050648227
166	0xbc2ef6b8	-0.0106789395
167	0xbd4f40c2	-0.050598867
168	0xbc7696e8	-0.015050627
169	0xbcf137bc	-0.029445522
170	0xbd675648	-0.05647877
171	0x3d3ecfe0	0.046584964
172	0xbba94010	-0.0051651075
173	0x3cc46c48	0.023977414
174	0x3d07c5c6	0.033147596
175	0x3c959900	0.018261433
176	0x3bb2f1b0	0.0054609403
177	0xbd229eae	-0.03970211
178	0xbd1197e6	-0.035545252
179	0xbb2dc3e0	-0.0026514456
180	0x3d3cb3ee	0.04607003
181	0xbc706c00	-0.014674187
182	0xbd3ab5e6	-0.045583628
183	0xbcfbf404	-0.030756004
184	0x3d0367b4	0.03208132
185	0xbc49d390	-0.012318507
186	0xbd15652a	-0.03647343
187	0x3b932b00	0.00449121
188	0xbc9f2428	-0.01942642
189	0xbd647728	-0.0557777
190	0x3c9f75f4	0.019465424
191	0xbd7bc50c	-0.061467215
192	0xbc89811c	-0.016785197
193	0xbd44b1a0	-0.04802096
194	0xbd38fae6	-0.04516115
195	0x3cad2e04	0.021140106
196	0x3d355dc4	0.044278875
197	0xbc1e6bd0	-0.009669259
198	0xbd2e96c8	-0.042624265
199	0xbd4eb83a	-0.05046866
200	0xbcecd764	-0.0289113
201	0x3d13240e	0.035923056
202	0x3c7f0a38	0.015566401
203	0xbcab70c8	-0.020927802
204	0xbd5f474e	-0.05451136
205	0xbaf9b4c0	-0.001905106
206	0xbcceedb8	-0.025259838
207	0xbca104f4	-0.019655682
208	0xbd16667e	-0.036718838
209	0x3d4f99a8	0.050683647
210	0x3d1eed6c	0.038800642
211	0xbd00a966	-0.03141155
212	0x3cdbd60c	0.026835464
213	0x3d16d68e	0.03682571
214	0x3d00ff10	0.031493247
215	0x3d65f8c8	0.05614546
216	0x3d2310b8	0.039810866
217	0x3c7f4f90	0.015582934
218	0xbcf37234	-0.029717542
219	0xbca87b00	-0.020566463
220	0xbd1251f4	-0.035722688
221	0xbd43f064	-0.047836676
222	0x3c2f4f10	0.010700002
223	0xb8075800	-3.2268465e-05
224	0xbbea41f0	-0.0071489736
225	0xbd731056	-0.05934175
226	0xbd44ce60	-0.048048377
227	0x3ce52044	0.027969487
228	0xbcbbe8a0	-0.022938073
229	0xbbcd8de0	-0.0062730163
230	0xbd0338e8	-0.032036692
231	0xbd328870	-0.04358715
232	0x3d7d2bee	0.061809473
233	0x3cea154c	0.028574608
234	0x3d6cf97a	0.057855107
235	0xbd2ca59a	-0.042150117
236	0x3d07d466	0.033161543
237	0xbc87f9b4	-0.01659856
238	0xbd7f9e16	-0.062406622
239	0x3c926db8	0.017874584
240	0xbd4152e2	-0.047198184
241	0xbd2ada92	-0.04171235
242	0x3cba6a8c	0.022755884
243	0xbd6bd830	-0.05757922
244	0xbbd8ed00	-0.0066200495
245	0x3b448e60	0.0029992089
246	0xbd581f94	-0.05276449
247	0xbcba5f90	-0.022750646
248	0x3ce56404	0.028001793
249	0x3caf2ea0	0.021384537
250	0x3d5c2ae8	0.053751856
251	0x3d44ab70	0.048015058
252	0xbd4cbb12	-0.04998309
253	0x3d70b99c	0.05877076
254	0x3c2e2ba0	0.010630518
255	0xbd22a41a	-0.03970728

fc2.bias f4 [256]
0	0x3d043142	0.03227354
1	0x3d1cf24a	0.038317002
2	0xbd55d750	-0.05220729
3	0x3d5bcdb0	0.053662956
4	0xbcd65380	-0.026162863
5	0x3c94ae9c	0.018149666
6	0x3c938c24	0.01801116
7	0x3b71c960	0.003689371
8	0xbd22373e	-0.039603464
9	0xbbd6f730	-0.0065602288
10	0xbd2c890e	-0.042122893
11	0x3d2b377c	0.04180096
12	0xbcd82e10	-0.026389152
13	0x3cbbf490	0.022943765
14	0xbc36c6c8	-0.011155792
15	0xbcc537a0	-0.024074376
16	0x3d117410	0.035511076
17	0xbbe77d60	-0.0070645064
18	0x3d1914fe	0.037373535
19	0xbc93bce4	-0.018034406
20	0xbd1daa14	-0.038492277
21	0xbd5a3c10	-0.053279936
22	0xbbb80fa0	-0.005617097
23	0xbcbaf508	-0.022821918
24	0x3d1993f4	0.037494615
25	0xbb5ea660	-0.003397368
26	0x3d41dda0	0.0473305
27	0xbd100e8e	-0.03517013
28	0xbd0f2fea	-0.034957804
29	0xbd2de8e2	-0.042458422
30	0x3c32c590	0.01091136
31	0xbb355920	-0.002767153
32	0xbd506a8a	-0.050882854
33	0x3c9b3240	0.01894486
34	0xbd0200d8	-0.031739086
35	0x3ca25a10	0.019818336
36	0xbcc6b308	-0.02425529
37	0x3d74e57e	0.059789173
38	0x3d41feae	0.047362022
39	0xbd1116a2	-0.035421975
40	0x3cad3d2c	0.021147333
41	0xba588b00	-0.00082604587
42	0xbd75be52	-0.059995957
43	0x3d5a398c	0.053277537
44	0x3d765314	0.060137823
45	0x3d38c85c	0.045112953
46	0x3d44f45a	0.048084594
47	0xbc629c38	-0.013831191
48	0x3d3e9b60	0.046534896
49	0xbd5a3198	-0.053269953
50	0xbcaf6470	-0.021410197
51	0xbc902c3c	-0.017599218
52	0x3b9c3d00	0.004768014
53	0x3cd3aecc	0.025840186
54	0xbd4d1ef8	-0.050078362
55	0xbd479442	-0.048725374
56	0xbd34fd24	-0.044186726
57	0x3d6f9ae0	0.05849731
58	0xbcbaaa44	-0.022786267
59	0x3c753170	0.0149654
60	0xbd508a9e	-0.050913446
61	0x3d5c6ba6	0.0538136
62	0xbc894eb4	-0.016761161
63	0x3d5ff2b0	0.054674804
64	0xbd3ddf76	-0.046355687
65	0x3d4a8718	0.04944524
66	0xbcd6084c	-0.026127003
67	0xbc7a2618	-0.015267871
68	0x3c22dea8	0.009940781
69	0xbc6c0838	-0.014406256
70	0x3d561762	0.052268393
71	0x3d732faa	0.059371628
72	0xbcac6d98	-0.021048352
73	0x3d305236	0.043047152
74	0x3d4399a4	0.047753945
75	0xbcd63fe0	-0.026153505
76	0x3cdafd8c	0.026732229
77	0xbd2763a4	-0.04086651
78	0xbd3bb568	-0.0458273
79	0xbd0dda14	-0.034631804
80	0xbb1a98a0	-0.0023589507
81	0x3d386ca6	0.04502549
82	0xbd0f7714	-0.03502567
83	0xbd376f7e	-0.04478406
84	0x3cd81020	0.026374876
85	0xbc50d028	-0.012744941
86	0x3c513f00	0.012771368
87	0xbb360bc0	-0.0027778
88	0x3d67328e	0.056444697
89	0xbd5ce78e	-0.053931765
90	0x3c9a9e68	0.018874362
91	0xbd4ea6a6	-0.050451897
92	0xbd385abc	-0.045008406
93	0xbd041efc	-0.03225611
94	0x3d1bfbe2	0.03808201
95	0x3cfebc54	0.031095661
96	0x3d0be14c	0.034150407
97	0xbd662ea4	-0.056196824
98	0xbd082d50	-0.03324634
99	0x3bfd7120	0.007734433
100	0xbd1783fc	-0.036991104
101	0x3d417a4e	0.04723578
102	0xbd753c60	-0.05987203
103	0xbadd0a00	-0.0016863942
104	0x3d0b2024	0.0339662
105	0x3d00c066	0.031433485
106	0xbd116ee2	-0.035506137
107	0xbd2c0646	-0.04199817
108	0x3d59c298	0.053164095
109	0xbcded800	-0.027202606
110	0x3cbbce90	0.022925645
111	0x3cb571f0	0.022149056
112	0x3cb5a6b8	0.022174224
113	0xbc8fc04c	-0.017547749
114	0x3c2c5140	0.010517418
115	0xbd013880	-0.031548023
116	0x3d5a08c2	0.05323101
117	0x3ca3f800	0.020015717
118	0x3d371908	0.044701606
119	0xbcd6e438	-0.02623187
120	0xbd31826e	-0.043337278
121	0xbcf35ae0	-0.029706419
122	0xbd435046	-0.047683977
123	0x3d276028	0.040863186
124	0x3c8eede8	0.017447427
125	0xbd7cf3a6	-0.0617558
126	0x3d59f4ce	0.05321198
127	0xbb1df600	-0.0024102926
128	0xbb320320	-0.0027162507
129	0x3c83bc64	0.016081043
130	0x3cb80890	0.02246502
131	0xbcd91d90	-0.026503354
132	0x3d4edc0e	0.05050283
133	0xbca82968	-0.020527557
134	0xbc8b14f0	-0.016977757
135	0xbccdf644	-0.025141843
136	0xbcae6204	-0.021286972
137	0x3d5eb9c6	0.054376386
138	0xbd2b4a2e	-0.04181879
139	0xbc4a1c60	-0.012335867
140	0x3d6c209e	0.057648294
141	0x3be6acb0	0.007039629
142	0x3c8f6db8	0.017508373
143	0x3a5c1180	0.00083949417
144	0x3c523470	0.012829885
145	0x3c2669e8	0.010157086
146	0xbd228324	-0.039675847
147	0xbb8160b0	-0.0039482936
148	0xbb00fe60	-0.001968287
149	0x3d1b7744	0.037955537
150	0xbcf7b1ec	-0.030236207
151	0x3d165eb6	0.036711417
152	0xbc83247c	-0.016008608
153	0xbcf46290	-0.029832155
154	0xbb3eaa00	-0.0029093027
155	0xbd387db6	-0.045041762
156	0x3ca472a8	0.020074204
157	0x3ceef8fc	0.02917146
158	0x3d5e4714	0.054267004
159	0x3c5a0a40	0.013308108
160	0xbc3a4f60	-0.011371464
161	0x3cc83bb0	0.024442524
162	0x3d3dbe08	0.046323806
163	0xbc1745e0	-0.009232968
164	0xbd743608	-0.05962184
165	0x3cc88380	0.024476767
166	0x3c4b4750	0.012407139
167	0x3d08c48e	0.033390574
168	0xbd451434	-0.04811497
169	0x3d1cf91a	0.0383235
170	0x3d013c12	0.03155143
171	0x3d2f9ae4	0.042872325
172	0xbcf6b7f4	-0.030117013
173	0x3d5a0bd4	0.053233936
174	0x3d26a022	0.04068006
175	0x3ac0b5c0	0.0014702603
176	0xbd630880	-0.055428028
177	0x3d46a8a4	0.048500672
178	0x39b83a00	0.00035138428
179	0x3c8a7e88	0.016906038
180	0xbd15912c	-0.0365154
181	0xbd3c0f32	-0.04591293
182	0xbc69f490	-0.0142795
183	0xbd54cdac	-0.051953956
184	0xbc001c28	-0.007819213
185	0xbc0a94a0	-0.0084582865
186	0x3cddd754	0.027080216
187	0xbd72ec44	-0.05930735
188	0x3d048d3c	0.032361254
189	0x3d199bde	0.037502162
190	0x3d6716a2	0.05641807
191	0x3c91175c	0.017711334
192	0xbd66388e	-0.05620628
193	0xbd7e4c14	-0.062084273
194	0xbd63d028	-0.055618435
195	0x3d34a84a	0.044105805
196	0x3b350400	0.0027620792
197	0x3d5f7b16	0.054560743
198	0x3cd24f58	0.0256726
199	0xbd1b1f9e	-0.03787195
200	0x3cb8f814	0.02257923
201	0xbd64c42c	-0.055851147
202	0x3d424b92	0.04743535
203	0x3cccfcd8	0.025022909
204	0xba409b80	-0.000734739
205	0xbd1fc05a	-0.0390018
206	0x3c027af8	0.007963888
207	0x3c9b1184	0.01892925
208	0x3cbacf90	0.022804052
209	0xbd28fba2	-0.0412556
210	0xbc84c1dc	-0.01620572
211	0x3d72725a	0.059191085
212	0xbd65de26	-0.05612006
213	0xbd6df17c	-0.058091626
214	0x3c0ab060	0.008464903
215	0x3cda6838	0.026661023
216	0x3c1ca590	0.009560958
217	0x3a3f0d80	0.00072880834
218	0xbd2a719c	-0.041612253
219	0xbd047f84	-0.03234817
220	0x3c8dc610	0.017306358
221	0xbc95f138	-0.018303499
222	0xbd1d1bd4	-0.038356617
223	0xbcd85684	-0.026408441
224	0x3b0bd400	0.0021336079
225	0x3d2ad97a	0.041711308
226	0x3d367be0	0.04455173
227	0x3ad24080	0.0016040951
228	0x3d2c9fa6	0.04214444
229	0x3cc543e0	0.024080217
230	0xbc626350	-0.013817623
231	0xbd3c9558	-0.046040863
232	0x3d208720	0.039191365
233	0xbbb03bc0	-0.0053782165
234	0x3bb74a40	0.005593568
235	0xbd0eafec	-0.03483574
236	0xbd5c29ac	-0.05375068
237	0xbd108900	-0.035286903
238	0x3d480994	0.04883726
239	0x3d6de81a	0.058082677
240	0x3b92dcb0	0.0044818744
241	0x3d405f72	0.046966024
242	0xbc6c1700	-0.0144097805
243	0x3bd3e680	0.0064666867
244	0xbd644f14	-0.055739477
245	0x3d32069c	0.043463334
246	0xbbb5a0a0	-0.0055428296
247	0xbbb694e0	-0.0055719465
248	0x3cdfd460	0.027322948
249	0x3d3c698a	0.045999087
250	0xbd2c48d4	-0.04206164
251	0xbbb97db0	-0.005660735
252	0x3c8c9ce8	0.017164662
253	0xbd71d87a	-0.05904434
254	0x3d5ba324	0.05362238
255	0xbccae1c8	-0.024765864

fc3.weight f4 [256, 256]
0	0x3c027308	0.007961996
1	0x3d7b4cd2	0.06135256
2	0xbd5e4e42	-0.05427385
3	0xbd42d5b6	-0.047567092
4	0x3ae0a0c0	0.0017137751
5	0xbcf19f94	-0.029495038
6	0x3d4661b8	0.048433036
7	0x3b451640	0.0030073076
8	0x3d7cc0a0	0.06170714
9	0x3d73dd86	0.059537433
10	0xbd0ceb4a	-0.034404077
11	0x3c105b10	0.0088107735
12	0xbc0a7f80	-0.00845325
13	0xbc619f00	-0.013770819
14	0xbbc93dc0	-0.0061413944
15	0xbce66068	-0.028122142
16	0xbd6a1692	-0.05715043
17	0x3b80a790	0.003926225
18	0x3d5c41fe	0.053773873
19	0x3b680540	0.003540352
20	0xbd6475cc	-0.055776402
21	0x3d1fe1f6	0.039033853
22	0x3c862eac	0.016379677
23	0xbd0fd230	-0.03511256
24	0x3d561850	0.05226928
25	0xbcc70870	-0.024296016
26	0xbd120e3c	-0.035658106
27	0x3d0b635e	0.03403031
28	0xbd44fb1a	-0.04809103
29	0xbd48545e	-0.048908584
30	0x3d1fee06	0.039045356
31	0xbade0500	-0.0016938746
32	0x3d1c7ed6	0.038206898
33	0x3d20bac0	0.0392406
34	0xbcdf7830	-0.02727899
35	0x3a712480	0.00091988593
36	0x3b46ade0	0.003031604
37	0xbc2502b0	-0.0100714415
38	0x3c99c230	0.018769354
39	0x3d358b14	0.04432209
40	0xbd44516c	-0.047929212
41	0x3d2496d4	0.040182903
42	0x3d59e3fe	0.053195946
43	0xbcef32bc	-0.029198997
44	0xbd7f9e66	-0.06240692
45	0xbd62af50	-0.055342972
46	0xbd3bb298	-0.045824617
47	0xbd732626	-0.059362553
48	0xbc6b91d8	-0.014378034
49	0x3c76a4a0	0.015053898
50	0x3d66a9b8	0.0563142
51	0xbd70e2d8	-0.058810085
52	0x3d451832	0.048118778
53	0xbc6047b0	-0.013688967
54	0x3d4f9a60	0.050684333
55	0xbd52aa1a	-0.051431753
56	0x3ca9a8b4	0.020710327
57	0x3d05e086	0.032684825
58	0xbd0b1aba	-0.033961035
59	0x3c03b9f0	0.008039936
60	0x3d443a2c	0.04790704
61	0x39bf6700	0.000365071
62	0x3d7bb0bc	0.061447844
63	0x3c99c32c	0.018769823
64	0xbd238844	-0.039924875
65	0x3d608be0	0.054820895
66	0x3cc4fbac	0.024045788
67	0xbd100288	-0.035158664
68	0xbd29b0e2	-0.041428454
69	0xbb8a4180	-0.004219234
70	0x3c135350	0.008992031
71	0x3bbf4280	0.005836785
72	0x3d0a9bc2	0.03383995
73	0x3c17a830	0.009256408
74	0x3cf8be78	0.03036426
75	0xbd1c0204	-0.03808786
76	0xbb41aae0	-0.0029551312
77	0xbca03938	-0.019558534
78	0xbd442bc0	-0.047893286
79	0x3ba05cc0	0.004893869
80	0x3d474358	0.04864821
81	0x38a40800	7.8216195e-05
82	0x3d0309c2	0.031991728
83	0x3ceabec8	0.028655425
84	0x3d519e9a	0.051176645
85	0xbce04444	-0.027376302
86	0xbd279038	-0.040909022
87	0xbcd65f08	-0.026168361
88	0xbd52c1e2	-0.051454432
89	0x3cab9cb0	0.020948738
90	0xbb084700	-0.0020794272
91	0x3d616c62	0.055035003
92	0xbd2985ba	-0.041387297
93	0xbd2ab33a	-0.04167483
94	0x3b94d070	0.0045414492
95	0x3c92da44	0.017926343
96	0x3c8e5a78	0.017377123
97	0x3cbf0d1c	0.02332168
98	0xbd6c4d88	-0.057691127
99	0x3d030266	0.03198471
100	0x3d726d0a	0.05918602
101	0x3cc844d4	0.024446882
102	0x3badad00	0.005300164
103	0x3ca30bec	0.019903146
104	0x3d41752c	0.047230884
105	0x3c45bb70	0.012068614
106	0x3d7ee9ae	0.062234573
107	0xbacf0dc0	-0.0015796944
108	0xbbab94b0	-0.005236231
109	0x3d7a92ac	0.061175033
110	0x3d1e567a	0.03865669
111	0xbcba0f9c	-0.022712521
112	0x3c37fac8	0.0112292245
113	0x3cb375e8	0.021906808
114	0xbd391852	-0.04518921
115	0xbd580ebe	-0.052748434
116	0xbd24e06e	-0.040253095
117	0x385c3800	5.250424e-05
118	0x3d7f3c0c	0.062313125
119	0xbba8ce40	-0.00515154
120	0x3be772a0	0.007063225
121	0x3b00fde0	0.0019682571
122	0xbc7b6f18	-0.015346311
123	0xbcebeba4	-0.028798886
124	0xbcfc8dbc	-0.030829303
125	0xbcf9d4c8	-0.03049697
126	0x3d0d8e3e	0.03455948
127	0xbd6c8ce6	-0.05775156
128	0x3d45a84a	0.048256196
129	0xba94bc80	-0.0011347681
130	0xbd16ad6c	-0.03678648
131	0x3d585860	0.052818656
132	0xbc71f410	-0.014767662
133	0xbcdb8d14	-0.02680067
134	0xbc701d50	-0.014655426
135	0x3d740f42	0.059584863
136	0xb9de2a00	-0.00042374432
137	0x3d724192	0.059144564
138	0xbcdec4e0	-0.027193487
139	0x3d2dd538	0.04243967
140	0x3cbf63dc	0.023363046
141	0xbcdc2b00	-0.026875973
142	0x3cdc16ec	0.026866399
143	0xbd04bf28	-0.032408863
144	0x3c32cf40	0.01091367
145	0x3d395c52	0.04525406
146	0xbd10e598	-0.035375208
147	0xbc15b7c8	-0.009138055
148	0xbd287590	-0.04112774
149	0x3d684cb8	0.05671379
150	0x3c062770	0.008188114
151	0x3d01aa3c	0.03165649
152	0x3d673bdc	0.05645357
153	0x3d54c328	0.051943928
154	0xbd09aa50	-0.03360969
155	0xbcdc8770	-0.02692005
156	0x3d225994	0.03963621
157	0xbd68b236	-0.05681058
158	0x3d117dd6	0.035520397
159	0xbc3ce048	-0.011528082
160	0xbd31689a	-0.043312646
161	0xbd1d29a6	-0.038369797
162	0x3d5bc1b2	0.05365152
163	0xbcea6844	-0.02861417
164	0xbc1d3680	-0.009595513
165	0x3c9f8268	0.019471362
166	0x3d05e2f6	0.03268715
167	0xbb095160	-0.0020953044
168	0x3d00618c	0.031343028
169	0xbc8bf47c	-0.017084353
170	0xbcff96fc	-0.031199925
171	0x3cafd92c	0.02146586
172	0x3c4dd710	0.012563482
173	0x3d33f03e	0.043930285
174	0xbd5a9fee	-0.053375177
175	0x3d6012da	0.05470548
176	0xbc8229a0	-0.015888989
177	0x3d2a2eaa	0.04154841
178	0xbc357558	-0.01107534
179	0x3cbc9060	0.023018062
180	0x3d6d7e7a	0.057981946
181	0xba9d2d40	-0.0011991635
182	0x3b83f1b0	0.004026614
183	0xbc6de818	-0.0145206675
184	0xbd58b5e6	-0.052907847
185	0xbd791afe	-0.060816757
186	0x3d0d869c	0.0345522
187	0xbd114b1e	-0.035472028
188	0x3bd1c0e0	0.0064011663
189	0x3d1c0cd2	0.038098164
190	0x3d6fda56	0.05855783
191	0x3d4aac7a	0.049480893
192	0x3d4739ac	0.048638985
193	0x3d688b8c	0.056773707
194	0x3d7b0cde	0.061291568
195	0x3ce759f0	0.028241128
196	0xbd602a7a	-0.05472801
197	0xbcb8ba18	-0.022549674
198	0xbd712d62	-0.05888117
199	0xbc32ba88	-0.01090873
200	0xbd08ebd6	-0.033428036
201	0xbcf3df98	-0.029769704
202	0x3d18468e	0.03717666
203	0x3cf9ae60	0.030478656
204	0x3c5855e8	0.013204075
205	0xbd74a994	-0.059732035
206	0xbd112bb2	-0.03544206
207	0x3ba0a870	0.004902892
208	0xbce84c54	-0.028356709
209	0xbcfd9ed4	-0.030959524
210	0x3aadb280	0.001325205
211	0xbc6315f0	-0.013860211
212	0xbd61ade2	-0.05509747
213	0x3cc87998	0.024472043
214	0xbc2984a8	-0.010346569
215	0xbb1d91c0	-0.0024043173
216	0xbcff0124	-0.031128474
217	0x3d69ab2c	0.057048008
218	0xbd4d4c00	-0.050121307
219	0xbcb30990	-0.021855146
220	0xbd2df0ca	-0.042465962
221	0xbca0463c	-0.01956474
222	0x3d3b2a1c	0.045694456
223	0xbd41d67e	-0.047323696
224	0xbd1104cc	-0.035404965
225	0x3ce30c9c	0.027715974
226	0x3d2e4a10	0.0425511
227	0xbd4e0be2	-0.0503043
228	0x3ce8fc28	0.02844055
229	0x3b30c400	0.0026972294
230	0x3c061140	0.008182824
231	0x3c49d510	0.012318864
232	0xbd72eae2	-0.059306033
233	0x3ccdc94c	0.0251204
234	0x3c92a3e8	0.017900422
235	0x3cdc70bc	0.026909225
236	0x3bcb6330	0.0062068924
237	0x3d405cc4	0.04696347
238	0xbb0598c0	-0.0020385236
239	0x3c4d84a8	0.012543835
240	0xbc4665d8	-0.012109242
241	0x3d12d820	0.035850644
242	0xbd5e51aa	-0.0542771
243	0xbc137ad8	-0.009001456
244	0xbd4b94f4	-0.0497026
245	0xbc916c90	-0.017751962
246	0x3d7c8a4a	0.06165532
247	0x3d67c400	0.056583405
248	0x3c7398a8	0.014867939
249	0xbd23a8d6	-0.039955936
250	0x3d784b26	0.060618542
251	0x3c20aa78	0.009806268
252	0x3d558862	0.052132018
253	0x3d30b5fe	0.04314231
254	0x3ca6a534	0.020342447
255	0xbc016858	-0.007898413

fc3.bias f4 [256]
0	0x3d3de01a	0.046356298
1	0xbd1bc6d0	-0.0380314
2	0xbcd70c20	-0.026250899
3	0xbd62cde8	-0.05537215
4	0xbcefcfa8	-0.029273823
5	0xbc32aaa8	-0.010904945
6	0x3c3427e8	0.0109958425
7	0x3cf1b914	0.029507197
8	0x3cbf2254	0.023331799
9	0xbd0a3578	-0.033742398
10	0x3d543330	0.05180663
11	0x3c951b2c	0.018201433
12	0xb94ec600	-0.00019719452
13	0x3d76faec	0.06029789
14	0xbc44b190	-0.012005225
15	0x3ba8ab40	0.0051473677
16	0x3c0b9e48	0.008521624
17	0x3d0a785c	0.03380619
18	0xbd0972ae	-0.033556633
19	0x3d3066d0	0.0430668
20	0x3d4f049a	0.050541498
21	0x3ba80950	0.0051280633
22	0xbc8b1c88	-0.016981378
23	0xbb194c60	-0.002339147
24	0xbd532a18	-0.051553816
25	0xbd08eb22	-0.033427365
26	0x3c5a2c20	0.013316184
27	0xbcb6b924	-0.022305079
28	0x3bb58de0	0.0055405945
29	0x3d51b130	0.05119437
30	0x3c9fe270	0.019517154
31	0x3c1958b0	0.009359524
32	0xbb372280	-0.0027944148
33	0x3d3cdf4a	0.046111383
34	0x3cd3aa08	0.025837913
35	0xbcb257d0	-0.021770388
36	0xbd017516	-0.031605802
37	0x3d3686c2	0.04456211
38	0x3d3b8e6c	0.04579012
39	0xbd36db32	-0.044642635
40	0x3bd084d0	0.0063634887
41	0x3cfe0cbc	0.031011932
42	0xbd43feac	-0.047850296
43	0xbd6e03c2	-0.058109052
44	0x3d596628	0.05307594
45	0xbd64b03e	-0.05583214
46	0xbd6783d8	-0.05652222
47	0xbd0c7ef4	-0.03430076
48	0xbd7df7e2	-0.062003978
49	0xbc134fa8	-0.0089911595
50	0x3d402454	0.046909645
51	0xbd492a8e	-0.04911285
52	0xbbdd3c90	-0.0067516044
53	0xbce612d8	-0.028085157
54	0xbbb76c20	-0.0055976063
55	0xbb42bf60	-0.002971612
56	0x3d04d350	0.032428086
57	0xbd7d4730	-0.061835468
58	0xbd486c2e	-0.048931293
59	0x3d5c3e7a	0.05377052
60	0x3d1814f6	0.037129365
61	0xbc057f78	-0.008148067
62	0x3afc1a80	0.0019233972
63	0x3d49345a	0.049122192
64	0xbc5adb10	-0.013357893
65	0xbd57729a	-0.052599527
66	0x39402a00	0.00018326193
67	0x3ce62ebc	0.028098457
68	0x3d03418c	0.032044932
69	0xbd556134	-0.052094653
70	0x3cc39168	0.023873046
71	0x3d34f57e	0.044179432
72	0x3cd4e00c	0.02598574
73	0x3cfc43dc	0.030794077
74	0x3d149278	0.036272496
75	0xbd0e3f4c	-0.034728333
76	0xbd12bcbc	-0.035824522
77	0x3be52880	0.0069933534
78	0xbd2a3f9a	-0.04156456
79	0xbd5e373c	-0.054251894
80	0x3cab2058	0.020889446
81	0xbd7b3cd0	-0.061337292
82	0x3cd01e7c	0.025405161
83	0x3ccf28d0	0.025288016
84	0x3d4fdc3e	0.05074715
85	0x3cc86a28	0.024464682
86	0xbc890dbc	-0.016730182
87	0x3d3b6adc	0.045756206
88	0xbc732640	-0.0148406625
89	0x3baf9b10	0.005359061
90	0x3c9ab5ac	0.018885456
91	0xbd506bde	-0.05088412
92	0xbd15b5ce	-0.036550336
93	0x3d402a5e	0.046915404
94	0xbbb51d00	-0.0055271387
95	0x3d5fd93c	0.05465053
96	0x3d6690d0	0.056290448
97	0xbc4963d0	-0.012291864
98	0x3d1f35ca	0.038869657
99	0xbd31d682	-0.04341746
100	0xbcac19f4	-0.02100847
101	0xbd6da2b2	-0.058016486
102	0xbd771364	-0.060321227
103	0xbcd073bc	-0.025445811
104	0xbcf78094	-0.030212678
105	0xba81b980	-0.0009897202
106	0xbd309cf0	-0.043118417
107	0x3c66b980	0.014082313
108	0xbd5abda2	-0.053403504
109	0xbd16d1ce	-0.03682118
110	0xbd2fff94	-0.042968348
111	0xbba4ab80	-0.005025327
112	0x3b178a20	0.00231231
113	0xbcfdcf1c	-0.030982547
114	0x3d5a7176	0.05333086
115	0xbd341bee	-0.04397195
116	0xbd46cc9e	-0.048534982
117	0xbba5ce60	-0.005060002
118	0x3d182b0e	0.037150435
119	0x3ce8fc84	0.028440721
120	0xbcc627a0	-0.024188817
121	0x3c8dcee4	0.017310567
122	0xbcef005c	-0.029174976
123	0xbd739252	-0.059465714
124	0x3cee17bc	0.029064052
125	0x3d3f9514	0.04677303
126	0x3a11cc00	0.00055617094
127	0x3d6004e4	0.054692164
128	0x3bd84590	0.0066000894
129	0x3cb93ce8	0.02261205
130	0x3d6c027c	0.057619557
131	0x3d0bfe98	0.034178346
132	0x3d72f60e	0.059316687
133	0xbd0e9b88	-0.034816295
134	0x3d1850ce	0.037186436
135	0x3c6229c0	0.013803899
136	0xbd1781e4	-0.036989108
137	0x3b3208a0	0.0027165785
138	0x3a9b3180	0.0011840314
139	0x3d1d295a	0.038369514
140	0x3d54027e	0.05176019
141	0x3c7fd358	0.015614353
142	0x3d07dfd2	0.033172436
143	0x39d16900	0.00039941818
144	0xbd398aa8	-0.04529825
145	0x3d07ba6a	0.033136763
146	0xbc84cc78	-0.01621078
147	0xbbbbea10	-0.0057346895
148	0xbcb210cc	-0.021736525
149	0xbd3bdf16	-0.04586705
150	0xbca55650	-0.020182759
151	0x3beeb870	0.0072851703
152	0xbd067042	-0.0328219
153	0x3d21ff56	0.039550148
154	0xbd235ca0	-0.039883256
155	0xbd4d1db0	-0.05007714
156	0x3d6a2658	0.057165474
157	0xbd687ac6	-0.05675771
158	0x3c8acea0	0.01694423
159	0x3c86b50c	0.016443752
160	0x3cd9dfd4	0.026595987
161	0xbd12e156	-0.03585943
162	0xbd22824c	-0.039675042
163	0xbc0f32a8	-0.008740105
164	0x3b391260	0.0028239712
165	0xbd38bd0a	-0.045102157
166	0xbd3c3060	-0.04594457
167	0xbd7be160	-0.06149423
168	0xbd735d42	-0.05941511
169	0x3be5b230	0.007009767
170	0xba0cc380	-0.0005369708
171	0x3d37fdbe	0.04491972
172	0x3c78bc28	0.015181579
173	0xbc012ed0	-0.007884696
174	0xbccaaeac	-0.024741493
175	0x3cff730c	0.031182788
176	0x3d0d9e3e	0.03457474
177	0x3c3a1710	0.011358038
178	0xbac44500	-0.0014974177
179	0x3c93f1a4	0.01805956
180	0x3d026792	0.031837054
181	0x3c638e68	0.013888933
182	0x3d478744	0.048712984
183	0xbafe5300	-0.0019403398
184	0xbd4023a2	-0.046908982
185	0xbccb36a8	-0.024806336
186	0x3c048da8	0.008090414
187	0xbd14cb3a	-0.036326624
188	0x3c55bd88	0.013045676
189	0x3d767154	0.060166672
190	0xbb812470	-0.0039411113
191	0x3d624194	0.05523832
192	0xbc2c1ad8	-0.010504447
193	0xbc4b1e50	-0.012397364
194	0xbd74a2d2	-0.05972559
195	0x3d496930	0.04917258
196	0x3cc17f90	0.023620397
197	0xbd76731e	-0.060168378
198	0xbcc7a534	-0.024370767
199	0xbcef2370	-0.029191703
200	0xbd66d8e4	-0.056359187
201	0x3d0cf6fa	0.034415223
202	0x3d743954	0.059624985
203	0xbd795300	-0.06087017
204	0x3c265d10	0.010154024
205	0xbd3f63e2	-0.046726115
206	0x3d0f5b32	0.03499908
207	0xbc2c1618	-0.010503314
208	0x39cce400	0.00039079785
209	0xbd14a1b4	-0.036287025
210	0xbd6be07a	-0.057587124
211	0x3cf25f74	0.029586531
212	0x3d449902	0.047997482
213	0xbd20e232	-0.039278217
214	0x3c5b26a0	0.013375908
215	0xbd23d222	-0.03999532
216	0x3c73a978	0.0148719475
217	0xbb4a9a40	-0.0030914694
218	0x3b9ce1b0	0.0047876462
219	0xbd0222ba	-0.0317714
220	0xbc124710	-0.008928075
221	0xbd46b022	-0.048507817
222	0x3cea3690	0.02859047
223	0x3d45a226	0.04825034
224	0xbce54114	-0.027985133
225	0xbd093c04	-0.0335045
226	0xbd6a7478	-0.05723998
227	0xbc22c9c8	-0.009935804
228	0xbc694890	-0.014238492
229	0xbced9e38	-0.029006109
230	0x3d619d88	0.055081874
231	0xb9e17100	-0.00042999536
232	0xbd72ed4c	-0.059308335
233	0xbca03814	-0.01955799
234	0xbd3547ca	-0.044257917
235	0x3b59bfa0	0.003322579
236	0xbd6f93b2	-0.058490463
237	0x3c65dd48	0.014029808
238	0x3d0d8636	0.03455182
239	0xbd302e50	-0.043012917
240	0xbc0c3678	-0.008557908
241	0xbcae3b6c	-0.021268569
242	0x3d3a29b0	0.045449913
243	0xbcba5040	-0.022743344
244	0x3cb0f344	0.021600373
245	0x3d2b9426	0.041889332
246	0x3c138cc8	0.009005733
247	0xbd3224be	-0.04349207
248	0xbd6beb06	-0.057597183
249	0x3cf562b8	0.0299543
250	0xbccaac3c	-0.02474033
251	0x3d6204e8	0.05518046
252	0xbc0be840	-0.008539259
253	0xbcd45e94	-0.025924005
254	0xbd002c9e	-0.03129255
255	0x3cb9ac74	0.02266524

output.weight f4 [4, 256]
0	0x3c074798	0.008256815
1	0xbce0c6c8	-0.027438536
2	0x3c85da64	0.016339488
3	0x3ba0f700	0.004912257
4	0xbc8ddc88	-0.017317072
5	0x3d1bafd6	0.038009487
6	0xbd2d422a	-0.042299427
7	0x3c2856b8	0.010274582
8	0x3d2c07ea	0.041999735
9	0x3d46738c	0.048450038
10	0x3d336986	0.043801807
11	0x3b03a3e0	0.002008669
12	0x3cb98ecc	0.022651099
13	0x3d5a3a42	0.053278215
14	0x3d15aa8c	0.0365396
15	0xbd542c44	-0.051800027
16	0xbcf38fe8	-0.029731706
17	0xbd68d4e8	-0.05684367
18	0x3d77643e	0.060398333
19	0x3d30112a	0.04298512
20	0xbd0bf9e4	-0.03417386
21	0xbd258378	-0.04040858
22	0x3c1fd848	0.009756155
23	0x3d309552	0.043111153
24	0xbcd73f50	-0.026275307
25	0xbd058b78	-0.03260371
26	0xbd4f7516	-0.05064877
27	0x3d20d9c6	0.039270185
28	0x3d5a520c	0.053300902
29	0x3d3ce43c	0.0461161
30	0x3cb99190	0.022652417
31	0xbc460a08	-0.012087353
32	0x3d427fe2	0.04748524
33	0xbd004316	-0.031313978
34	0xbca614e4	-0.020273633
35	0xbd04c192	-0.032411166
36	0x3d783a96	0.060602747
37	0x3d6a8bd6	0.057262264
38	0xbcad68c0	-0.021168113
39	0xbc864ae8	-0.01639314
40	0xbc47d400	-0.012196541
41	0xbc8d5388	-0.017251745
42	0xbd1bf1b4	-0.038072303
43	0x3d0caf6a	0.034346975
44	0x3cd704d4	0.02624742
45	0xbc8f5a2c	-0.017499052
46	0x3cf9dc24	0.030500479
47	0x3d2cb5f0	0.042165697
48	0x39e81000	0.0004426241
49	0x3d038aa6	0.032114647
50	0xb9ffa900	-0.00048763305
51	0x3bcbf240	0.006223947
52	0xbccac6f8	-0.024753079
53	0x3d790ad6	0.06080135
54	0x3cc935b8	0.024561748
55	0xbbb16e50	-0.0054147616
56	0xbd2ab984	-0.041680828
57	0xbb94aab0	-0.004536949
58	0xbca98254	-0.020692028
59	0xbd15a516	-0.03653439
60	0xbd2152e0	-0.039385676
61	0x3d54c1ba	0.051942565
62	0xbd79c262	-0.060976394
63	0xbc976000	-0.018478394
64	0x3cd2e7d8	0.025745317
65	0x3c99d758	0.018779442
66	0xbce2bbe8	-0.027677491
67	0xbd1e96b2	-0.038717933
68	0xbd6a9906	-0.05727484
69	0xbd67e190	-0.056611598
70	0x3c993640	0.018702626
71	0x3aa26140	0.0012388602
72	0x3bf4ed60	0.0074745864
73	0x3d718eda	0.058974124
74	0xbd62702c	-0.055282757
75	0xbd0d66ee	-0.03452199
76	0xbd33f574	-0.043935254
77	0xbd124baa	-0.03571669
78	0x3aae0100	0.0013275445
79	0xbcad77c8	-0.02117528
80	0xbc46e000	-0.012138367
81	0x3d260c10	0.040538847
82	0xbce1adf4	-0.027548768
83	0xbd2396cc	-0.039938733
84	0x3c932158	0.017960235
85	0x3c4c0a70	0.01245366
86	0xbc64a0c0	-0.013954341
87	0xbcc19780	-0.023631811
88	0xbd72bebc	-0.05926393
89	0x3d66dcb4	0.056362823
90	0xbc3dea98	-0.011591576
91	0xbb5b1f00	-0.0033435225
92	0xbce24fb4	-0.027625896
93	0xbcd753a8	-0.026285008
94	0x3caab0dc	0.020836286
95	0x3cffb47c	0.031213991
96	0x3cfa0c5c	0.030523472
97	0x3c219778	0.009862773
98	0x3d088706	0.033331893
99	0xbc9a2c58	-0.018819973
100	0x3d3b2b8a	0.04569582
101	0x3c800b5c	0.015630417
102	0x3d56943e	0.05238747
103	0x3c3c0b20	0.011477262
104	0xbd554064	-0.05206336
105	0x3d44f522	0.04808534
106	0x3d25ce4e	0.04047995
107	0xbca5ac04	-0.020223625
108	0xbb46c560	-0.0030330047
109	0xbd156282	-0.036470897
110	0xbb97d760	-0.004633829
111	0xbd419762	-0.04726351
112	0xbd657b04	-0.05602552
113	0x3cf701f4	0.030152299
114	0x3d7c0418	0.06152734
115	0x3d39896c	0.04529707
116	0x3bd9bbf0	0.0066447183
117	0xbbd29eb0	-0.0064276084
118	0xbc93d1e0	-0.018044412
119	0x3cb00080	0.021484613
120	0xbcd28a14	-0.025700606
121	0xbafd5640	-0.0019328073
122	0x3a813180	0.0009856671
123	0x3d21ff80	0.039550304
124	0xbd0ee4d4	-0.034886196
125	0x3c067000	0.008205414
126	0xbc7d5408	-0.015461929
127	0xbd7515b0	-0.059835136
128	0xbd3d51f8	-0.04622075
129	0xbc20f9b0	-0.009825155
130	0xbcd34530	-0.025789827
131	0xbd102d76	-0.035199605
132	0xbd28311e	-0.041062467
133	0xbd2a3976	-0.041558705
134	0xbc115a98	-0.008871697
135	0x3d056c30	0.03257388
136	0x3ce5a4ec	0.028032742
137	0x3cad9998	0.021191403
138	0xbd1f4318	-0.038882345
139	0x3cc4e914	0.024036922
140	0x3c697a48	0.0142503455
141	0xbd5431e0	-0.051805377
142	0x3d272b1c	0.040812597
143	0x3d1d32f4	0.03837867
144	0x3d3d8b28	0.046275288
145	0x3cdeaaac	0.027180992
146	0xbd6730fc	-0.0564432
147	0x3d36f586	0.044667743
148	0xbc5d09c8	-0.013491102
149	0x3cdd2db0	0.026999325
150	0xbd1d7e5e	-0.03845059
151	0xbcad46e4	-0.021151967
152	0xbce11f2c	-0.027480684
153	0xbcffd694	-0.031230249
154	0xbc8de60c	-0.017321609
155	0xbcadcf50	-0.021217018
156	0xbd336a20	-0.04380238
157	0x3d4549b8	0.048166007
158	0xbca5d2d0	-0.020242125
159	0xbd6a669c	-0.057226762
160	0xbd321502	-0.043477066
161	0x3d53fd50	0.05175525
162	0xbc2ed450	-0.010670736
163	0x3d53f032	0.05174274
164	0xbcfaf1b0	-0.030632824
165	0x3bca60c0	0.0061760843
166	0x3d643b84	0.05572082
167	0x3c32b0f8	0.01090645
168	0xbc9dd3b4	-0.019265987
169	0x3d411c84	0.047146335
170	0xbcda6e88	-0.026664034
171	0x3d7ff192	0.06248624
172	0x3d3b935e	0.045794837
173	0xbd062caa	-0.03275744
174	0x3bff1ea0	0.007785633
175	0x3ce0a714	0.027423419
176	0xbcf1db40	-0.029523492
177	0x3d47b1c6	0.048753522
178	0xbcb0908c	-0.0215533
179	0x3c471850	0.012151793
180	0xbd13c872	-0.03607983
181	0x3d3ee34a	0.04660348
182	0xbd0abe06	-0.033872627
183	0x3ca76690	0.020434648
184	0x3d2e0042	0.042480715
185	0x3c29b4e8	0.010358073
186	0xbd04c9b6	-0.03241893
187	0x3ceeed70	0.029165953
188	0x3cd7ccf4	0.026342846
189	0xbc982f84	-0.018577345
190	0xbd0da8b2	-0.03458471
191	0x3d650456	0.05591234
192	0x3cb15da8	0.021651104
193	0xbd178fd4	-0.0370024
194	0x3d7e445e	0.06207692
195	0xbce13d1c	-0.02749496
196	0x3d2621fe	0.04055976
197	0x3d758acc	0.05994682
198	0xbcc4aebc	-0.024009101
199	0x3d5cbefe	0.05389308
200	0x3c9c4dc4	0.01908005
201	0xbd5ade46	-0.053434633
202	0xbcf1680c	-0.029468559
203	0x3cfa1398	0.030526921
204	0x3caabf5c	0.0208432
205	0xbd1bbf10	-0.03802401
206	0x3d4d0cfc	0.05006121
207	0xbd0abd10	-0.03387171
208	0xbc377188	-0.011196502
209	0x3c934d9c	0.017981343
210	0xbc024640	-0.007951319
211	0x3d19dfe2	0.037567027
212	0x3a794680	0.00095091015
213	0xbd106306	-0.035250686
214	0xbc903350	-0.017602593
215	0x3d6e66ea	0.058203615
216	0xbd1a46aa	-0.037665047
217	0xbcbd7e18	-0.023131415
218	0x3cae72c4	0.021294959
219	0x3d3a02a0	0.04541266
220	0x3c93d840	0.018047452
221	0xbcb851ec	-0.0225
222	0x3cfcd12c	0.03086146
223	0xbd7869ac	-0.06064765
224	0xbc0f9680	-0.008763909
225	0x3c090548	0.008363076
226	0x3d795eb0	0.060881317
227	0x3cb51b8c	0.022107862
228	0xbd7a08be	-0.061043493
229	0x3d2a005e	0.041504256
230	0x3c582188	0.013191588
231	0xb98d7800	-0.00026983023
232	0xbbba0e60	-0.005677983
233	0xbd280bea	-0.041026987
234	0x3d7ff900	0.062493324
235	0xbd49ff16	-0.049315535
236	0xbd321a24	-0.04348196
237	0x3d29efc0	0.04148841
238	0xba716980	-0.0009209141
239	0x3bd67af0	0.006545417
240	0x3cd2f0c8	0.02574958
241	0x3caf2f6c	0.021384917
242	0xbd37d314	-0.044879034
243	0xbd3916e2	-0.04518784
244	0xbd7ac9d4	-0.061227635
245	0x3cb33698	0.021876618
246	0xbd7cf9f2	-0.061761804
247	0xbd408d06	-0.04700949
248	0xbd0e74a8	-0.03477922
249	0x3c9ba978	0.019001707
250	0x3d1ffa2c	0.039056942
251	0x3d33a466	0.043857954
252	0x3d74b14e	0.059739403
253	0x3d0464aa	0.032322563
254	0xbd1aaeb2	-0.03776426
255	0xbca66c8c	-0.020315431

output.bias f4 [4]
0	0x3cf4b01c	0.029869132
1	0x3ac37940	0.0014913455
2	0xbd1862b2	-0.0372035
3	0x3b9de930	0.004819058
