fetch_sticky_mittens_step_4_blocks/networks/ours_10k_block_4_uber_level_0_seed_250/network_pick_n_reach_goal_0.pth (torch, 612471 bytes, 8 tensors)

fc1.weight f4 [256, 75]
00000000: b991 4d3d c69f de3c 931e c9bd aa90 9f3d
00000010: 0968 b4bd 2e13 b03d 1967 11bd 6cb3 49bd
00000020: 0e2e adbd 9921 a83d 98ba 9d3d 64dd e43b
00000030: 3586 e0bd 77a5 703c 1af4 8f3d 15cd be3d
00000040: f7b4 b63c 3a0a 9d3d 7768 54bb fdeb 673c
00000050: 3221 b4ba ed14 67bb 824c a7bd 4e4d 7abd
00000060: 7fec acbd 18e9 a4bd bedb d63d c05b eabd
00000070: 35f8 4b3d ea81 cbbd 8ea3 85bc 4084 f73c
00000080: 156d a33c 2e09 0c3d 450e 673d d24d a23c
00000090: 766e c2bc 2c38 a43d 2629 943d ba1d 4a3c
000000a0: 7a9a f7bb 6d34 ccbd 98e0 00bd bb88 6a39
000000b0: e221 a23c 5177 c7bd 8286 24bd 8587 0bbd
000000c0: a329 17bd cd8f 163d e861 81bd 81ce 9d3d
000000d0: 25b3 90bd a967 ebbd e1fe ae3d ceb6 a4bd
000000e0: d611 c63d 54ee 873d b813 c93d 31ae 823d
000000f0: 4d62 d93d cc93 b23d f1ca 4c3d 3237 793d
00000100: d0e6 c7bd 17ee e6bd 85ec 76bc ed87 c1bc
00000110: 3722 27bd f56f 6cbd f093 413c 6a12 b43d
00000120: bc54 673d 39e2 ea3b dd3f 53bd 5fb3 32bd
00000130: aab0 8ebd e9e2 a03d ebf8 7cbd 7250 223d
00000140: 0065 bd3d 5978 d7bd a943 c23d d27d c43d
00000150: 600a 21bd 78af 1c3d d3b5 733d c9c5 873d
00000160: 5ee8 b93c 4891 a3bd 5bb4 a8bd 697a 2f3c
00000170: 7d3b 7cbc 7f85 c3ba 2ee3 dcbd 0cc9 0cbd
00000180: 700d de3d dc9c ac3c ff04 88bd 4427 cd3d
00000190: e4f7 c53d 7f6c c63d f569 703d 297e 533d
000001a0: 4fcd d1bd e52d 213c e63a a93d e430 a13d
000001b0: 57f6 ebbd 02e3 543d 0583 da3d 117b 96bd
000001c0: c470 09bd 0e24 d2bc 4e7d 5ebd ea5d 0ebd
000001d0: 3756 dfbc e602 123d a557 8d3d 3d0c c53d
000001e0: e50a 123b ded6 80bc 7ac8 a83d 5078 893d
000001f0: 4784 a03d aaf7 6c3d af9f 9fbd 0095 2ebd
00000200: bbaa 9abd 53e9 cc3d 03e0 15bd d978 a4bd
00000210: 8a62 bebd 058e 843c cbf5 d1bd 7965 a83b
00000220: d8e3 d73d a079 9dbd bfcc fd3c d46e 963d
00000230: 05de 2abc bc10 dfbd c904 e5bd 6bb9 5b3d
00000240: 03ee cdbd 6a94 043d 8216 0e3c 7a50 c4bd
00000250: f0f4 8d3c 03c2 7bbd 0b9d c83d a7f3 b5bd
00000260: 1d94 97bc a239 3ebd a984 203d 7271 fa3c
00000270: e021 2a3d 8c03 263d d02a ef3c e665 5dbc
00000280: 5f10 8b3c 2e07 4fbd c445 d1bd 59b5 7d3d
00000290: 1439 873d 9565 c9bc 4267 d2bc 4797 433c
000002a0: 3209 f4bc 7485 a0bd 8b35 d43d c461 adba
000002b0: 8952 0fbd 6fec 8ebd eb92 12bb 8e9a e1bd
000002c0: f33b 8ebd 9e1c babc e9e5 babd d55a 56bd
000002d0: f468 f33c 0702 d9bd c112 80bd 1a82 d5bd
000002e0: 6eb7 85bd 18d3 1a3d 9523 06bd d79c e93d
000002f0: cf6d be3c 8154 5ebd 65b3 7abd d3e1 77bd
00000300: 9071 b7bd 9ed5 21bc ba12 683a c929 a53b
00000310: 6c33 88bc 00df cfbd 1768 d13d 120d 40bb
00000320: 645e 4e3d 443d dd3d f3a4 483c e037 c93d
00000330: 964d 873d c2dd 173d d6da b13d 43e2 fa3c
00000340: eb55 453d 93b7 2dbd 17fb 6abd 3af4 e53d
00000350: 89e9 c4bd 14b8 8fbd 3670 7d3d 4401 993d
00000360: a78b bebd 4b8b f7bc c869 75bd 15ae b23d
00000370: e55c de3d f033 a3bd 293b 623a de3b 76bd
00000380: 3098 cdbd 2fea 44bc 1982 fcbc 3119 ba3d
00000390: 0602 8f3d 2466 2c3d cb93 5e3d 7ddf dfbd
000003a0: c2dc 5ebd 6cf2 bbbd 63a8 bcbd 6e64 f93c
000003b0: 9a7f e53d e704 0e3c 470e cb3c 423f 9dbc
000003c0: ddcf ea3b cd9b 7d3d 8f90 cd3d dcfc 133c
000003d0: f305 51bd 01df 423d 53eb a6bd 7506 37bd
000003e0: 625e 74bc 2f51 583c 22ef 9cbd b621 bf3d
000003f0: ecdb 98bd 1046 89bd cc9c 5a3d fd81 4d3d
0.0501878 0.027175795 -0.09820285 0.07791264 -0.08808906 0.08597408 -0.035498712 -0.049243376
-0.0845605 0.08209533 0.077016056 0.0069843996 -0.10963098 0.014687887 0.070289806 0.0931646
0.022303088 0.07667966 -0.0032410899 0.014155385 -0.0013742803 -0.0035260275 -0.081688896 -0.06110888
-0.084435456 -0.080522716 0.10491131 -0.11443281 0.049797256 -0.099368885 -0.01631334 0.030214429
0.019949475 0.034188442 0.056410093 0.019812498 -0.023734313 0.080185264 0.07234411 0.012336189
-0.007556257 -0.09970937 -0.03146419 0.00022366915 0.019791547 -0.09739555 -0.04016734 -0.03406479
-0.036904942 0.036758233 -0.06317502 0.07705403 -0.07065419 -0.11494381 0.08544708 -0.0804268
0.09671371 0.06637254 0.09818214 0.063808806 0.106144525 0.08719596 0.049998228 0.060843654
-0.09760821 -0.11275881 -0.015071039 -0.023624385 -0.040804114 -0.057723958 0.011815056 0.08792575
0.056477293 0.007168081 -0.051574577 -0.043628093 -0.0696729 0.0785578 -0.061760824 0.0396275
0.0924778 -0.10521001 0.094855614 0.09594311 -0.039316535 0.038253278 0.059499573 0.066295214
0.02269381 -0.079866946 -0.08237525 0.010710337 -0.0153950425 -0.0014917104 -0.107855186 -0.03437142
0.10842407 0.02107089 -0.06641578 0.10017255 0.09666422 0.09688663 0.0586948 0.051633988
-0.10244238 0.009837602 0.08263187 0.07870653 -0.11521595 0.051974304 0.10669521 -0.07347692
-0.033554807 -0.025651958 -0.05431872 -0.034757532 -0.02726279 0.035647295 0.069014825 0.09621475
0.0022284326 -0.015727457 0.08241363 0.06712401 0.0783773 0.05785338 -0.07794129 -0.042622566
-0.075520955 0.100054406 -0.036590587 -0.08030862 -0.092961386 0.016181001 -0.102519594 0.0051390496
0.105415046 -0.07689214 0.03098142 0.073453575 -0.01042891 -0.10891864 -0.11182553 0.053643625
-0.10055163 0.0323681 0.0086723585 -0.09585662 0.01732871 -0.06146432 0.097955786 -0.088843636
-0.018503243 -0.04644168 0.039189015 0.030571673 0.041536212 0.040530726 0.02919522 -0.013513064
0.01697558 -0.050543956 -0.10218385 0.061940525 0.06602684 -0.02458457 -0.025684003 0.011937923
-0.02978954 -0.07837954 0.10361775 -0.0013227989 -0.03499082 -0.0697869 -0.0022365402 -0.11015807
-0.06945028 -0.022718724 -0.09125883 -0.052332718 0.029713131 -0.1059609 -0.06253577 -0.104252055
-0.06529127 0.03779897 -0.032748777 0.11406868 0.02324572 -0.054279808 -0.06120624 -0.060518097
-0.08957207 -0.00987759 0.0008852888 0.0050403816 -0.016626082 -0.10149956 0.10224932 -0.0029304666
0.050382987 0.10802701 0.012246358 0.098251104 0.06606595 0.03707672 0.08684318 0.030625468
0.04817764 -0.0424114 -0.057368364 0.11228223 -0.09614856 -0.07017532 0.06187459 0.074709445
-0.0930398 -0.030217787 -0.059915334 0.0872461 0.10857562 -0.07968891 0.00086300314 -0.060115688
-0.10038793 -0.012018724 -0.030823754 0.09086836 0.06982808 0.042089596 0.054340165 -0.10931299
-0.05440975 -0.09177098 -0.09211805 0.030443396 0.11205979 0.008668161 0.024787081 -0.019195203
0.0071658925 0.06191616 0.10037338 0.009032454 -0.051031064 0.047575954 -0.08150353 -0.044683892
-0.014915081 0.013202949 -0.076627985 0.09332602 -0.07463822 -0.067028165 0.05337219 0.050172795

fc1.bias f4 [256]
00000000: f11e d83d 3c2f 8bbd aa01 cbbd 6e95 d5bd
00000010: cb0b e53d 6398 ddbc e4ee ebbd 1f0a df3d
00000020: 1640 cabd 9d54 8b3c 6f04 e03c 6d96 3fbd
00000030: e557 593d 40e7 d4bc 15a9 e83d 1ba9 e53d
00000040: 02c4 b0bd ff9b 9a3d 629f 5f3d c154 34bc
00000050: d633 abbd 68e1 b83d 4efa 8d3c 7aa2 d5bd
00000060: cbab bcbc a06e 1ebb 4dbf dabd 560a 863d
00000070: f08a 82bc 23e2 d0bd 3b58 713d e278 bd3d
00000080: c3eb 293d a54a 04bd 4177 503d 969a 423d
00000090: 469a 5ebd 6cff 6f3c a8b5 093d b336 623d
000000a0: 7037 9ebd 8cc2 cfbb 4a79 e9bd b4a2 413d
000000b0: 74ee e53d 23e7 173d 29cd ad3d d299 eabc
000000c0: 9cca 7dbc 6921 ba3d 48d3 90bd 270e 7cbd
000000d0: 12b4 e7bc d774 61bd ca10 d63d 4504 5dbc
000000e0: a780 1ebd 6381 73bd de99 a13d c62f e9bd
000000f0: 496b 87bd b0d4 a7bd 6844 7cbd d85a aabd
00000100: 9355 48bd 9d06 ea3d 838f 7b3d 81c4 86bd
00000110: 49cf bdbd 28b2 113d e3a3 e33d f38c bcbd
00000120: ac23 dcbd 79e7 cfbd 7095 50bd 730e a13d
00000130: 5ce3 e63d 29c4 b7bd 264c cebd cf75 433d
00000140: b9f8 4cbd c487 1abd 1b9d f6bc fcc3 4c3d
00000150: c8ba ca3d e811 a63c 2b42 d5bd 1c22 6f3d
00000160: 1424 93bd badc 323d c116 233d c214 503d
00000170: e5f8 3ebd 7724 e4bd 505e 793b f162 523d
00000180: d31e a2bb 0252 8dbc 198a cb3d a546 41bd
00000190: 10c7 723d 6a08 7a3d 00fd 233d cd19 a43d
000001a0: e7d3 eabc 2090 9cbd 381a 9d3b 342b 1abb
000001b0: 8470 cb3c c33b 32bc 043f b9bd 7fcd 903c
000001c0: a97e a0bd 20d2 98bd 46e1 bbbd 586b 6abc
000001d0: b465 d13d d20e 613c 8617 a63d 03fe 54bd
000001e0: c13d 6dbd dcaa 59bd 9ba4 c73c 41c1 90bc
000001f0: 03ea d53d 816a e1bc 9670 9a3d 8225 a73c
00000200: 39a9 473d 0c03 acbd a1d7 ae3c de7a 983d
00000210: 8a05 61bd a849 79bd 500a 77bd 490d a73d
00000220: 494b ca3d 0fcc c73d 4bec 70bd d756 1e3c
00000230: e23c f93c 996a b73c 1b5a 92bc 4a07 603d
00000240: a2a4 d1ba 0a4d 633d 1787 853d 4fe8 b03c
00000250: 888d fcbc 356f bdbd c666 9b3d acee c4bd
00000260: 5386 5abd 7d9b 583b d293 2dbd ca82 99bd
00000270: 4e16 b93d 6f5f d7bd 9801 c83d f68f eb3d
00000280: b39a 7fbd a241 37bb 0787 60bc 9c8e b5bd
00000290: 0da6 7c3d 89c2 c83d ae80 e0bd cfed b73d
000002a0: 240d 54bd 8eaa 963d 37d9 6a3d b82c c73d
000002b0: 58d2 11bd 0e65 37bd fe56 b9bd 9964 a13c
000002c0: ddf2 15bd cbce f4bc ecf3 37bb 9942 793c
000002d0: 3f63 cf3d 20a2 823d b8d8 8a3d 79f6 8dbd
000002e0: 8307 bebd b1dc b4bd b87f b1bd 6f8a a53d
000002f0: 8d94 cd3d 1210 68bd df37 c1bd c726 b33d
00000300: f985 393d 0dd5 9d3b 0d89 90bd eee8 2a3c
00000310: 018f ab3d cb1f 4e3d 8abd 86bd 0fb9 23bd
00000320: b937 44bd 0651 183c cb02 8b3d f5d4 e5bb
00000330: 4196 433d 0594 6abd c70e ddbd aab1 d9bd
00000340: f084 d3bd 406e 963d c3c5 7dbb 4060 283d
00000350: 2c11 abbd 2385 653d 1a4b 94bd f7e4 793d
00000360: fe77 c1bc ed5f dc3c 685d 553d 2e8a 3b3d
00000370: 40ba b5bc 0a97 7d3d 85ff 7a3d 4283 c83c
00000380: b0fd fabc 30ee f93c 6477 09bd ba9c aa3d
00000390: 2a48 0dbc 19ca babd 9e33 bd3c 37c6 3abd
000003a0: fb97 7c3c bd23 a7bd 8ed3 6abc 401c 97bd
000003b0: 654b a43d 6e38 5ebd 6813 4a3d a12a 85bd
000003c0: 64aa cf3d a556 a8bd 68b2 c6bb 284d 95bd
000003d0: 96e6 09bd 48a0 953d 17f7 ad3d 40f2 30bd
000003e0: 835a 57bd dad1 c83d f562 34bc 0de3 6dbd
000003f0: 1d1a 29bd 955c 28bc f99c adbd a8f7 b53d
0.105527766 -0.067961186 -0.09912427 -0.10428892 0.1118389 -0.027050203 -0.11520174 0.10890602
-0.09875505 0.01700812 0.027345864 -0.046774317 0.05306234 -0.025989175 0.11360375 0.11213895
-0.086311355 0.07549285 0.05459536 -0.011006535 -0.08359496 0.09027368 0.017331269 -0.104313806
-0.023031136 -0.0024174824 -0.10681019 0.0654494 -0.015935391 -0.10199382 0.058922034 0.09251572
0.041484606 -0.03229775 0.05089498 0.047510706 -0.054346345 0.0146483 0.033620507 0.055227946
-0.077254176 -0.0063403305 -0.11400087 0.047274306 0.11227122 0.037085664 0.08486397 -0.0286378
-0.0154902 0.09088404 -0.07071549 -0.061536934 -0.028284106 -0.055043068 0.10452421 -0.0134897875
-0.03869691 -0.059449565 0.07890676 -0.11386065 -0.0661226 -0.08194864 -0.061588675 -0.08318108
-0.048909735 0.11427043 0.06141616 -0.06580449 -0.09268052 0.035570294 0.11115243 -0.092065714
-0.10748991 -0.10151572 -0.050923765 0.07864084 0.11273834 -0.089729615 -0.10073118 0.047719773
-0.050041888 -0.037727132 -0.03010421 0.049991593 0.09898907 0.02027221 -0.10413011 0.05838214
-0.07184616 0.043667533 0.03981662 0.050801046 -0.046624083 -0.111397676 0.00380506 0.05136389
-0.004947522 -0.017251018 0.099384494 -0.047186513 0.059271872 0.06104318 0.0400362 0.080127336
-0.028665496 -0.07644677 0.0047943853 -0.0023524286 0.024833925 -0.010878506 -0.090452224 0.017676113
-0.078366585 -0.07461953 -0.09173827 -0.014307819 0.102244765 0.013736444 0.081099555 -0.052000057
-0.05792022 -0.05314146 0.024370482 -0.017670276 0.10445025 -0.027516605 0.07541005 0.020403627
0.048745368 -0.08399019 0.021343054 0.0744531 -0.054936923 -0.06086126 -0.06031257 0.08156831
0.09877641 0.09755718 -0.058819097 0.009664259 0.030424539 0.022389697 -0.017865231 0.05469445
-0.0015994499 0.055493392 0.06519907 0.021595148 -0.030829206 -0.09249727 0.07587962 -0.096158355
-0.053350758 0.0033051663 -0.0423773 -0.07495649 0.090374574 -0.105162494 0.09765929 0.11502068
-0.062403392 -0.0027962704 -0.013704068 -0.08865091 0.061681796 0.0980273 -0.10962044 0.08980905
-0.051770344 0.073567495 0.05733606 0.09725326 -0.03560099 -0.044774108 -0.090497956 0.019701289
-0.036608566 -0.029883763 -0.0028068973 0.015213632 0.101263516 0.06378579 0.06779617 -0.069317766
-0.092787765 -0.08831156 -0.086669385 0.08083045 0.100380994 -0.05665595 -0.09434485 0.087476306
0.045293782 0.0048166574 -0.0705739 0.010431511 0.08376885 0.05032329 -0.065791205 -0.039971408
-0.047904704 0.009296661 0.06787642 -0.007013912 0.047750715 -0.05727007 -0.10793834 -0.1062959
-0.1032809 0.07345247 -0.0038722611 0.041107416 -0.08352885 0.056035172 -0.07240887 0.061009374
-0.023616787 0.02690121 0.052091032 0.045786075 -0.022183537 0.06191162 0.06127884 0.024476651
-0.030638546 0.030509084 -0.033561125 0.083306745 -0.008623162 -0.09120578 0.023095902 -0.04559919
0.015417094 -0.081611134 -0.014332665 -0.07378435 0.08022193 -0.054253034 0.049334913 -0.065022714
0.10139921 -0.08219651 -0.006063748 -0.07290107 -0.03366717 0.07305962 0.08494394 -0.043199778
-0.052576553 0.09805651 -0.011009921 -0.05807786 -0.04128467 -0.0102759795 -0.08477206 0.08885127

fc2.weight f4 [256, 256]
00000000: 4e06 2cbd b42a b4bc 96ed 0bbd 9888 2c3c
00000010: ceb1 503d f6e2 063d 3c94 aebc 7a6a 62bd
00000020: 247f b63c c80b 46bd 7c03 12bd 5e50 173d
00000030: 7ccf 863c 48fa b3bc ac65 b43c 80a6 063a
00000040: 98b8 633d c4cc 59bd b435 81bc 264c 363d
00000050: 0084 2239 22f1 7f3d f00c 56bc c05d d5ba
00000060: 9497 0cbd 00dc 53ba 0248 3a3d 6c81 ef3c
00000070: 0000 2636 5cc5 1cbd 3eb0 5b3d 90ff 7fbd
00000080: a2b8 71bd bce1 f23c 506f c2bc e07e e4bc
00000090: b668 41bd 4026 52bc 76b6 483d 7cf7 8d3c
000000a0: e60a 1ebd 668a 36bd b034 d03c b02c f93b
000000b0: 60c4 20bb 7c90 3fbd 889f 9e3c 70fd 49bc
000000c0: ca22 533d beb3 79bd e837 463c 228c 62bd
000000d0: 8c7e e2bc daf3 083d e8b8 623d dac6 0a3d
000000e0: b01a d9bb 2e04 10bd 7609 40bd f8b9 1bbc
000000f0: f8a1 8f3c 8426 3bbd 04b7 30bd 8020 25bd
00000100: 6ec9 083d a408 7abd 00fc c6bb ba97 2ebd
00000110: b8d6 2e3c f0a3 16bd 4033 0b3d 4822 b3bc
00000120: 0491 ab3c 4c1b 18bd 683e 2cbd e0c0 5abd
00000130: 2efb 4dbd a0b8 513c 5ce1 4cbd 94cf ffbc
00000140: 968f 4fbd 6037 af3c 1696 6ebd 80fd e7bc
00000150: 3021 a93b 1ccb 7ebd 9e7f 6bbd c45c e8bc
00000160: 0064 d2ba c0ba 4d3d 10e1 1dbd 2c3c 8dbc
00000170: 609f 9bbb e09d 763d 48c9 a5bc 38eb aabc
00000180: 901d 29bc 02e3 46bd 201b 753c 9e1d 503d
00000190: d657 69bd a81b edbc c45d 02bd 8e54 0f3d
000001a0: a016 52bb 7421 603d 3816 61bc 244b 38bd
000001b0: c222 103d 8469 3d3d 1230 47bd d8a2 61bc
000001c0: 7219 53bd dee4 683d a896 573d 6cea 76bd
000001d0: b2a0 47bd 40a6 2dbc a0b5 123b d601 3dbd
000001e0: 2873 f73c 9e69 3abd 88f5 7bbc 08c1 603d
000001f0: 9a3c 5a3d d44e 88bc 9001 49bd d069 cbbb
00000200: 3082 7e3c 106d 0e3d 1885 15bd 1af8 4e3d
00000210: 9853 62bd 407c b5bc 9826 273d 20f3 c63c
00000220: 9201 7bbd 7033 a83c 5858 1ebd 2837 50bd
00000230: 74e5 70bd 68ea 46bd 6045 a3bb 687c 133c
00000240: 301d 32bc 5890 78bc 24be 5d3d 9ccf cd3c
00000250: 00a2 2639 56a1 12bd 78da bdbc e8d7 cdbc
00000260: c0e5 7abd 0461 00bd 64f0 2e3d 20d6 37bc
00000270: e2ac 163d a010 ef3c 0899 663c 8069 1cba
00000280: 649c 303d a871 073d 14d2 ce3c 5066 35bc
00000290: 0045 61bc c831 783d a8b3 ce3c 167f 3c3d
000002a0: 780e 2a3c 04ae febc 9644 2abd b86a 21bd
000002b0: 1007 f2bb cc33 e6bc 0465 adbc 54ad 03bd
000002c0: 5ad5 46bd f014 e53c 8029 c5ba a84d 4cbd
000002d0: 5004 b33c 3689 283d 90cd 3abd 887e 0dbd
000002e0: b052 16bc 4490 aa3c 3e0b 08bd e640 73bd
000002f0: 88cf fdbc 6011 853b a02d 1f3c b055 ff3b
00000300: 5035 6dbd 5c72 58bd 9c00 1ebd dc9e 9b3c
00000310: a4f0 ebbc 60fc 55bc 1631 543d 00a3 62ba
00000320: f2b6 70bd 74ff 47bd 3419 183d ceae 693d
00000330: 04ab d7bc 6020 993b c8c8 4a3c 90d0 95bb
00000340: fa13 21bd 2cce bfbc 8a55 7bbd 301c 613d
00000350: 0c77 17bd a032 223c 780d 35bc 8805 3c3d
00000360: 409e f6bc 8017 743a 44c5 013d 207b 1e3b
00000370: 189b 363d 04ae 683d d6fb 1b3d 5e42 103d
00000380: f6de 60bd 880f 6bbd 6823 6c3d 2835 453c
00000390: 4234 413d 604a 0fbb 908e ae3b 4cf5 343d
000003a0: 7c12 2d3d 50f4 983b fe5f 05bd 8867 383c
000003b0: b401 f3bc 3e82 0b3d 0837 da3c 80db 80bc
000003c0: 80b7 27ba 76c1 153d 8865 eb3c a44f 0d3d
000003d0: fc3b b7bc fc19 1c3d 62f9 69bd e2cf 6fbd
000003e0: e4e7 f43c 0cfc 893c daf3 473d c048 103c
000003f0: 2845 293d 0028 2138 ec6b 67bd e0d2 54bc
-0.0419982 -0.021993019 -0.034162126 0.010530613 0.050950818 0.03293129 -0.021310918 -0.055277325
0.022277422 -0.04835108 -0.035647854 0.03694188 0.016456358 -0.02196993 0.022021137 0.0005136505
0.055595964 -0.053173795 -0.015772678 0.044506215 0.00015498698 0.06248582 -0.013064608 -0.001627855
-0.034324244 -0.0008081794 0.04547883 0.029236518 2.4735928e-06 -0.038274154 0.053634875 -0.062499583
-0.05901397 0.029648654 -0.023734719 -0.02789253 -0.047219 -0.012826502 0.049002133 0.017329924
-0.038584612 -0.04456558 0.025415748 0.007604204 -0.002453111 -0.04676865 0.01936318 -0.012328491
0.05154685 -0.06096243 0.01209829 -0.055309422 -0.027648233 0.03343568 0.05535212 0.033881046
-0.006625496 -0.035160236 -0.046884023 -0.009504788 0.017533287 -0.04569103 -0.043143287 -0.040314198
0.033395223 -0.061043397 -0.006072521 -0.042625166 0.01067131 -0.036777437 0.033984423 -0.021866933
0.020943172 -0.037135407 -0.042051703 -0.053406596 -0.05028837 0.012800366 -0.050019607 -0.03122691
-0.050674044 0.02138871 -0.0582486 -0.02831912 0.005161427 -0.06220542 -0.057494752 -0.028364547
-0.0016051531 0.050226927 -0.038544714 -0.017240606 -0.0047492236 0.060209155 -0.02023758 -0.020864114
-0.01032199 -0.048556335 0.01496008 0.050809495 -0.056968533 -0.028943852 -0.031827703 0.034992747
-0.0032056943 0.054719403 -0.0137382075 -0.044993535 0.035189398 0.046243206 -0.048629828 -0.013771735
-0.05153794 0.05685889 0.05263391 -0.060282156 -0.048737235 -0.010598719 0.002238609 -0.04614433
0.030206278 -0.04551088 -0.015378363 0.05487159 0.05328045 -0.01663915 -0.049073756 -0.006207682
0.015533969 0.03477198 -0.03650388 0.050529577 -0.055255502 -0.022153974 0.04080829 0.024285853
-0.061280794 0.02053234 -0.03865847 -0.05083385 -0.058812574 -0.04856339 -0.0049826354 0.009001829
-0.010871217 -0.015171133 0.05413641 0.02512341 0.00015891343 -0.035798393 -0.023175463 -0.025127366
-0.061254263 -0.03134252 0.042709723 -0.011220485 0.036785968 0.029182732 0.014074571 -0.00059666485
0.043117896 0.033067375 0.025246657 -0.0110717565 -0.013749361 0.06059435 0.025232151 0.046019636
0.010379426 -0.031088836 -0.041569315 -0.039408416 -0.007386096 -0.02810087 -0.021166332 -0.03214772
-0.04854331 0.027964085 -0.0015042275 -0.049878746 0.021852642 0.04114648 -0.045606196 -0.034544498
-0.009174988 0.020820744 -0.033213846 -0.059388064 -0.030982748 0.004060909 0.009715468 0.007792197
-0.05791217 -0.052843437 -0.0385748 0.018996648 -0.02880127 -0.013060659 0.051804624 -0.0008645505
-0.05876822 -0.048827603 0.03713341 0.057051472 -0.026326664 0.004673049 0.012376972 -0.0045719817
-0.03932569 -0.02341374 -0.061360873 0.054958522 -0.036978766 0.009899765 -0.0110505745 0.045903713
-0.030104756 0.0009311363 0.031682268 0.0024182275 0.044581503 0.05680658 0.038081966 0.035219543
-0.054900132 -0.05738786 0.057650954 0.012036599 0.047168978 -0.00218644 0.0053270534 0.044179246
0.042253956 0.004667796 -0.03256225 0.0112551525 -0.029663898 0.034059756 0.02663757 -0.015729666
-0.0006397888 0.03656145 0.028734937 0.03449978 -0.02236747 0.038110718 -0.057122596 -0.058547862
0.02989573 0.016843818 0.04881654 0.008806407 0.04132572 3.8422644e-05 -0.056499407 -0.01298973

fc2.bias f4 [256]
00000000: 6409 97bc a0e9 3b3c 4412 313d 02e6 1d3d
00000010: 0c43 183d e8ad 78bc 94d4 d13c c456 79bd
00000020: a4b1 b63c e658 2abd 8035 ab3b f0bf 6d3d
00000030: b89a 68bc e87e 4fbd f080 1f3c b09b b1bc
00000040: 50cb babb 4cbd e3bc 044e 8bbc 5055 c7bc
00000050: 106c b43b c0a3 1e3b 10fb df3c b662 5b3d
00000060: f09d 073d 2031 7fbb 948b 2b3d 1837 7a3c
00000070: e868 11bc e0e6 183d d81a 843c 7859 09bd
00000080: 4697 42bd d4c3 4d3d 3ce2 1d3d 36ca 573d
00000090: acb2 a33c 0059 9c3c dca6 113d 8853 55bc
000000a0: ecc3 723d 0094 22bc 84bb 58bd 7884 cbbc
000000b0: 7079 913b a0c1 c0bc 24e5 873c c0b0 283b
000000c0: a826 8cbc f054 6abc 146b e7bc e006 343c
000000d0: 8066 c5bc 7e8a 06bd 1888 9f3c f299 023d
000000e0: ec87 f03c c0fc 2f3d 1885 263c 0032 7d3c
000000f0: 4e7a 403d 6881 a23c 8859 043d c2f7 5abd
00000100: 60e0 e5bb 3c84 693d 34fe 7dbd 16f3 263d
00000110: 8618 403d 8ca2 73bd 7cd8 9d3c 5222 6abd
00000120: b256 1fbd 2804 dcbc dc20 523d b050 15bd
00000130: 80bf 203d 88bb 0e3c 982d 8dbc 3cbc 7fbd
00000140: f28a 1dbd 1c40 49bd a8b1 253c dec4 7dbd
00000150: 647b 653d 3a25 17bd cc73 63bd e0de 663d
00000160: 1038 3dbc 308e d6bc 184a b83c 308f 8f3c
00000170: d67e 46bd c8ac 15bc 84f6 f93c 30dc a43b
00000180: 003c 7b3d 322a 133d 5c45 723d 5006 763c
00000190: 74ef cfbc 786e 333d c400 333d 8a85 7ebd
000001a0: 60b7 0e3c 30af 37bd 4289 173d a20f 743d
000001b0: c048 683c 4072 df3c 927c 143d 6a47 453d
000001c0: 68c7 223d fe22 3c3d 308d fbbc 34a3 043d
000001d0: 0ef9 5ebd 5aa1 4dbd 660e 273d d067 29bd
000001e0: b0cd 273c b8f6 f2bc 60ba 0dbb 8440 933c
000001f0: 489d 7c3c 0847 243c b817 a0bc 8eaa 713d
00000200: 7c86 be3c a883 ae3c 46cf 333d f42d 27bd
00000210: 1ed1 1bbd 26b7 3f3d 403d 083b b0ac 703c
00000220: 3aea 453d 0064 6bbc 8091 f2bb 5806 543d
00000230: 7c32 3cbd ba67 5bbd 2ea7 6bbd 58e2 2abd
00000240: a61f 36bd 844f 4fbd 84e1 b73c d069 ab3c
00000250: 30e2 6ebd b49b ecbc 1ccd c03c 7ced 08bd
00000260: 4c35 c5bc 926f 3f3d 7e34 693d 18b5 ebbc
00000270: 00e1 f639 a0a8 0cbc 98ef ae3c 308d e63b
00000280: 0c3f f5bc 8035 463d 264c 65bd a0da 2fbb
00000290: de2b 05bd 3e1f 3c3d c016 b73c 349e e93c
000002a0: 04d7 56bd 901d bb3c d882 ea3c 149b aabc
000002b0: fa2c 4d3d 8471 e5bc 36df 3e3d 8432 7dbd
000002c0: b4c6 01bd 9eeb 2e3d ee7c 0c3d 06e6 4e3d
000002d0: 6808 0bbc 60ba d43c 40c7 ecba f003 8c3b
000002e0: c08b c63c 80f7 593d 7cd4 8c3c 8692 27bd
000002f0: da46 79bd 18ed c93c e619 0ebd f0e2 843c
00000300: d02c 5bbd 28e5 033d 2087 85bc 5e5c 583d
00000310: 8e24 30bd a019 c8bc 2049 ad3c 0ea1 6f3d
00000320: d608 4e3d 74bb 443d 246d 8bbc 003e 54bc
00000330: b0f9 a6bc 68c7 24bd c0bb e53c 96fa 033d
00000340: f4f9 30bd 1068 02bc c09d 52bc 30ba fbbb
00000350: dc51 2f3d 4c7e 3e3d 9296 483d a0b5 c4bc
00000360: 963d 73bd ee48 1e3d 508b 643c c846 4bbc
00000370: 8a61 633d f40f 15bd d635 5ebd f2da 5bbd
00000380: faf2 53bd 3057 9cbc 98a7 93bc 2091 dc3c
00000390: 6039 eebc 945f f9bc 30a8 11bc 5016 61bd
000003a0: d0f7 3abc c872 0dbd 747a d2bc 40c5 09bb
000003b0: c2b4 04bd 803e 643b 64fa 5fbd 00a8 51b8
000003c0: e85c 14bd e0a6 16bd 146d 543d 5e93 073d
000003d0: 9846 943c 9899 893c 40f7 97bc b285 24bd
000003e0: 1495 09bd 70d1 ffbb 1448 e5bc 5839 cc3c
000003f0: 06bf 073d 7081 bc3c 886b 9bbc a0f8 12bc
-0.018437095 0.011469275 0.04323031 0.03854943 0.037173316 -0.015178181 0.02561406 -0.06087376
0.022301503 -0.041588686 0.0052248836 0.058044374 -0.014197044 -0.050658137 0.009735331 -0.021680683
-0.0057005063 -0.027800225 -0.017004974 -0.024332672 0.005506046 0.002420649 0.027341396 0.053560935
0.033109605 -0.0038939193 0.04188116 0.015271924 -0.008875109 0.037329555 0.016126081 -0.03353259
-0.047507547 0.050235584 0.038545832 0.052683078 0.019982658 0.019085407 0.03555952 -0.013020404
0.059268877 -0.009922981 -0.052913204 -0.02484344 0.0044395253 -0.023529828 0.016588755 0.0025740117
-0.017108276 -0.014302477 -0.028249301 0.010987967 -0.024096727 -0.03284692 0.019474074 0.031885095
0.029361688 0.04296565 0.010163568 0.015453815 0.04699164 0.019837096 0.032311946 -0.053458937
-0.007015273 0.057010874 -0.062010005 0.04075917 0.046898387 -0.05948119 0.019268267 -0.057161637
-0.03890104 -0.02685745 0.05130087 -0.036453903 0.03924513 0.008711703 -0.017233655 -0.062435374
-0.038462587 -0.049133405 0.010113157 -0.061955325 0.056025878 -0.036900736 -0.055530354 0.056364894
-0.011549011 -0.026190847 0.022496268 0.017524332 -0.048460804 -0.009135433 0.030513056 0.005031131
0.061336517 0.035928912 0.059148178 0.015016153 -0.025382735 0.043806523 0.043701902 -0.06213907
0.008710712 -0.044844806 0.036996134 0.05958522 0.014177501 0.027276158 0.036251612 0.04816381
0.03974095 0.04593181 -0.030706972 0.032382205 -0.054436736 -0.050202705 0.040785216 -0.04135877
0.010241911 -0.02965866 -0.002162598 0.0179751 0.015418358 0.010026701 -0.01954256 0.059000544
0.023257487 0.021303013 0.043898843 -0.04081531 -0.038041227 0.046805523 0.002078846 0.014689609
0.04831908 -0.014367104 -0.007402599 0.051763862 -0.045946583 -0.05356572 -0.05753248 -0.041719764
-0.044463776 -0.05061294 0.022446401 0.020924479 -0.058321178 -0.028882839 0.023535304 -0.033429608
-0.024073265 0.04673726 0.056934826 -0.028772876 0.00047088414 -0.008585125 0.021354482 0.007035874
-0.02993729 0.048390865 -0.055980824 -0.0026833192 -0.032512538 0.045928232 0.022349715 0.02851782
-0.05245115 0.022841245 0.028626844 -0.0208259 0.05009172 -0.02800823 0.04659959 -0.061815754
-0.03168364 0.04270517 0.03429883 0.050512336 -0.008485891 0.025967777 -0.0018064752 0.0042729303
0.02423656 0.05321455 0.017191164 -0.04091122 -0.060858585 0.024649188 -0.034692667 0.016221493
-0.053509533 0.032200962 -0.016299784 0.052822463 -0.04300361 -0.024426281 0.021153033 0.058503203
0.050301395 0.04803033 -0.017019816 -0.012954235 -0.020382732 -0.04022923 0.028043628 0.0322214
-0.043207124 -0.007959381 -0.012854993 -0.0076821074 0.042802677 0.046507165 0.04897172 -0.024012387
-0.059384905 0.03864377 0.01394923 -0.012407012 0.055512942 -0.036392167 -0.05425056 -0.0536756
-0.051745392 -0.019084543 -0.01802425 0.02692467 -0.029080093 -0.030441083 -0.008890197 -0.05495292
-0.011411622 -0.034533292 -0.025693156 -0.0021022111 -0.032398947 0.0034827292 -0.05468215 -4.9985945e-05
-0.036221415 -0.03678024 0.051861838 0.033099525 0.018100068 0.016796872 -0.018550515 -0.040166564
-0.033589438 -0.0078069493 -0.027988471 0.024929687 0.03314116 0.02301094 -0.018972173 -0.00897041

fc3.weight f4 [256, 256]
00000000: 2051 5a3d 0064 b039 80e9 083b 6a24 1fbd
00000010: b834 203c 44ff 523d 6c11 fdbc 00fe 5c3d
00000020: 6cc4 6dbd 9af2 033d 70a7 eabb 0092 503a
00000030: e057 0a3b c862 5abd 24f9 5cbd 2012 a6bb
00000040: 2603 39bd e00b 1e3c 6413 d4bc 1023 463c
00000050: 2675 5abd 08bd 72bd 8afb 163d 422f 01bd
00000060: 5497 c1bc 0041 a639 541e 693d c080 4ebd
00000070: 14ce 6f3d f22d 103d 96e7 543d e098 0b3b
00000080: a2df 15bd 4021 0ebd 300a be3b b4ad 5bbd
00000090: 6060 4b3d 3039 a0bc 7896 9bbc 94de 04bd
000000a0: 0842 5a3d 0c8d ccbc f877 43bd dcf2 d73c
000000b0: 44f3 173d 50d6 edbc 248c c03c 04d1 4c3d
000000c0: 70b8 2abc 28d7 fb3c 7202 403d a0cd 66bc
000000d0: 2818 1f3c 5cf7 df3c 7677 153d 80e6 7abb
000000e0: d6af 193d 70b1 babc d008 273c 5048 d63b
000000f0: c891 b73c 36b8 59bd 30fb debb c62f 19bd
00000100: 809c 39bc 60c0 61bd a879 c53c bcbe bcbc
00000110: 06de 55bd f283 5abd 66f5 313d 3c9b f0bc
00000120: b6a7 21bd 6471 a43c 2c36 fbbc f8e2 593c
00000130: c4cc 223d dcae b43c 746b 0e3d f49d f7bc
00000140: 7802 153d b0b3 b8bc cec1 333d d283 32bd
00000150: 0007 5c3a 4897 7abc 464b 2bbd a0bb 313b
00000160: 00c1 12bc e607 583d 10b7 b33b 946b 8bbc
00000170: f0f7 b53c ecb8 4bbd f889 513d 88a5 e4bc
00000180: 186f 253d 5055 acbc bc0f e13c 78ea 25bd
00000190: d868 313c ac32 6ebd 9462 51bd 4853 373c
000001a0: 000e 5bbc 9091 a93c c0c0 483b 64a5 91bc
000001b0: 6028 40bc 0230 1dbd 9032 9dbb 3a90 1e3d
000001c0: 0020 0637 e0c4 83bc 9ebd 223d 4e50 38bd
000001d0: d2c0 74bd d083 b23b b430 22bd 4abd 21bd
000001e0: 9403 04bd 307c f3bc 0869 233d 905c f0bc
000001f0: 0cb1 77bd d011 63bd 40ef 793d 90d2 7bbc
00000200: a02e 9c3b ee82 263d 7c15 ae3c ec29 053d
00000210: b0d9 a63c 1493 6dbd 8000 cf3c 10e6 5e3c
00000220: b677 053d 400a 7abb 009a 9639 7812 8fbc
00000230: 78fd 55bc eef9 77bd 3a96 30bd c405 f0bc
00000240: 8e42 3c3d 3c2a 7c3d ec1c 41bd 7c28 663d
00000250: 8ec7 2e3d b84c 0dbc d6e6 1fbd 3212 053d
00000260: 3611 2abd b8f5 9fbc b060 233c 0abb 653d
00000270: 98c2 33bc e0f6 75bc 0803 4dbd 14b1 6f3d
00000280: b84e 6a3c 2078 37bd dc71 433d 0071 cd3b
00000290: 5038 99bc 0025 ddb9 9031 debb 2805 59bc
000002a0: 16d6 60bd 4467 003d 9c55 b63c 923f 7fbd
000002b0: 30cd 08bd 9c25 92bc 10e7 ea3c 180c e13c
000002c0: d0d9 81bb 4897 c5bc 84d7 bdbc ccb3 81bc
000002d0: 5618 5cbd d214 583d 10d5 173c 7c47 7cbd
000002e0: e411 31bd 5a10 4ebd 12fd 473d 2c0a 193d
000002f0: fe02 173d 1cbc efbc a055 6ebc 3af9 133d
00000300: 762c 7fbd 6eb5 31bd 3c50 20bd 00c0 1937
00000310: 6ad9 0f3d 54ea f23c e46c c63c 9475 343d
00000320: 482e 96bc 0423 aa3c 90cd 613c 7c4f da3c
00000330: c03f f73a b453 9dbc 1cfe 43bd 807a 06bb
00000340: 2681 2abd a4b0 a1bc b652 763d 208f 8d3c
00000350: b882 143d 2ea2 5abd d011 e3bc b893 18bc
00000360: d806 cfbc 16bc 3e3d dc3e b43c 309b 46bd
00000370: b03b d8bc 4ea4 1abd 6a84 503d 4461 9a3c
00000380: 5894 ee3c a22d 29bd 2057 833b d0ec c53b
00000390: 1c8e 10bd 60d9 ab3b 5ced 533d 6e96 3f3d
000003a0: 28ff e33c a890 43bc 7c71 2abd 98e2 373c
000003b0: 78a9 10bd be19 43bd 32bf 74bd 1073 913b
000003c0: e027 28bc 9026 2cbc 6012 73bd 20e2 6b3d
000003d0: e094 713c 36eb 063d 1812 273d 50b7 aebb
000003e0: a470 79bd e0a0 17bc d094 173c c6e3 79bd
000003f0: 601d 3abb c024 883c 047b 4f3d 6cd3 f3bc
0.053300023 0.00033643842 0.002089113 -0.038853087 0.009778194 0.05151297 -0.030892096 0.05395317
-0.05804865 0.032213785 -0.0071610734 0.0007956326 0.0021109506 -0.05331686 -0.053948537 -0.0050680786
-0.04516902 0.009646386 -0.025888152 0.0120933205 -0.053334378 -0.059262305 0.03686098 -0.03153921
-0.02363173 0.00031710416 0.05691369 -0.050415754 0.05854614 0.035200067 0.05197867 0.0021300837
-0.036590226 -0.03469968 0.0057995543 -0.053632453 0.049652457 -0.01955852 -0.018992648 -0.03243883
0.05328563 -0.0249696 -0.047721833 0.026360922 0.03709723 -0.029032856 0.023504324 0.05000402
-0.01041995 0.030742243 0.046877332 -0.014087111 0.009710349 0.02733963 0.03649088 -0.0038284361
0.037521206 -0.022789687 0.010194972 0.006539382 0.022408381 -0.053154193 -0.006804846 -0.037399076
-0.011328816 -0.055115104 0.024105862 -0.023040168 -0.05221369 -0.05334849 0.04344692 -0.029370897
-0.039466582 0.0200736 -0.03066548 0.0132987425 0.03974606 0.022056036 0.034770444 -0.030226685
0.036379308 -0.02254662 0.043886 -0.043582745 0.0008393377 -0.015294857 -0.041819833 0.002711989
-0.008957148 0.052741908 0.0054844692 -0.01701907 0.022212952 -0.049736902 0.051156968 -0.027910963
0.04038915 -0.021036774 0.027473323 -0.04050681 0.010828219 -0.058153793 -0.051119402 0.011189289
-0.013370037 0.020699292 0.0030632466 -0.01777906 -0.011728376 -0.038375862 -0.0047972873 0.038711764
7.994473e-06 -0.016085088 0.039731614 -0.04499846 -0.0597542 0.005447842 -0.03959723 -0.03948716
-0.032229975 -0.029722303 0.039895087 -0.029341012 -0.06047158 -0.05543691 0.061019182 -0.015370026
0.0047663003 0.040652208 0.021250479 0.032510683 0.020367473 -0.058001593 0.025268793 0.013604656
0.03258487 -0.0038153082 0.00028724968 -0.017464861 -0.01306092 -0.060541086 -0.043112017 -0.029299624
0.04596191 0.061563715 -0.047146723 0.056190953 0.04267078 -0.008624248 -0.0390385 0.032488056
-0.04152032 -0.019526348 0.009971783 0.056086577 -0.010971688 -0.015012473 -0.05005172 0.058518484
0.014300995 -0.044792295 0.047716007 0.006269574 -0.01870361 -0.00042179972 -0.0067808107 -0.013245858
-0.05489167 0.03134848 0.022257619 -0.062316485 -0.033398807 -0.0178402 0.028674632 0.027471587
-0.003962733 -0.024119988 -0.023174055 -0.015832804 -0.053734146 0.05275423 0.009267107 -0.06159161
-0.043229952 -0.050308563 0.04882533 0.037363216 0.036868088 -0.029264502 -0.014546782 0.036126353
-0.06229826 -0.043385915 -0.039139017 9.164214e-06 0.03511945 0.029652752 0.024221845 0.044057444
-0.018332615 0.02076865 0.01378192 0.02664923 0.0018863603 -0.019204952 -0.04784976 -0.0020519793
-0.04162707 -0.01973755 0.060137473 0.017280161 0.036257476 -0.053377323 -0.027718455 -0.009312563
-0.025271818 0.04656609 0.02200263 -0.048487842 -0.026395649 -0.03775435 0.05090753 0.018845208
0.02912347 -0.041303284 0.004008189 0.006040193 -0.035291776 0.005244419 0.051740035 0.04677432
0.027831629 -0.011936344 -0.041612133 0.011223458 -0.035317868 -0.04763197 -0.05975265 0.0044387653
-0.010263413 -0.010507241 -0.059343696 0.057588696 0.014744967 0.03293916 0.04078874 -0.005331911
-0.060898438 -0.009254664 0.009251788 -0.061008237 -0.0028398857 0.016619086 0.050654426 -0.0297639

fc3.bias f4 [256]
00000000: ec24 d63c d0aa 11bd 40b0 70bb c03b 8bba
00000010: b266 553d 0070 743a 247b aebc 6419 69bd
00000020: bc54 ae3c c0c4 df3c c0fa 93bc 2451 04bd
00000030: e85c 313c 7880 9e3c 9079 98bb ce6c 3d3d
00000040: ee84 4a3d 76ac 3abd a8f7 6abc a627 6dbd
00000050: 525c 0bbd 880c 92bc c67f 64bd e488 3b3d
00000060: 2072 9e3b e05b d23b 00da 1eba 02e0 2d3d
00000070: ca77 5dbd 0052 c239 08ce adbc b8a6 a13c
00000080: c814 1cbc 9acd 363d f836 36bd ecf5 e83c
00000090: 9ab7 4e3d d0be ce3c 00d2 f039 f4a5 d53c
000000a0: b0d1 df3c 209a 413b 607c 773c 9c41 7cbd
000000b0: 5a0b 233d 7acb 22bd 085e 5f3d 0085 e639
000000c0: 7c29 2f3d 7809 f1bc b8de 1f3d 4840 d5bc
000000d0: 44cf d7bc ec64 7ebd 8416 45bd 74fe 3d3d
000000e0: a8ca bfbc 8ca3 b3bc 80a5 073c f082 173d
000000f0: 6063 3fbd 38cb 41bd 968f 4e3d fa98 4e3d
00000100: 808a 03bc ccef 35bd e0a5 4dbc ac96 09bd
00000110: ce5e 463d 20cf 3abc e4ff ac3c c022 0cbb
00000120: 3eff 62bd 60fb 673b d8d0 52bd d8f1 31bc
00000130: e4c7 54bd b0ec 7e3c 8049 413c e4e7 2ebd
00000140: 4c98 0fbd ece2 d83c 9061 973c 88ee 323c
00000150: d439 7f3d 2024 013b 2cf7 c2bc 9a33 55bd
00000160: be65 523d e875 703d 90a7 02bd c27c 403d
00000170: 8e0e 013d 0c99 b6bc 74f3 5c3d ac8d 79bd
00000180: b88d b5bc 60bc c5bb ac79 c83c 7e5c 163d
00000190: 4c33 423d 24d0 b93c 3889 06bc 6ed7 623d
000001a0: e087 c1bb 84d8 3e3d 00e9 563d 384d 473c
000001b0: a0d7 b53b 92b9 24bd 544e 7a3d 14ea ec3c
000001c0: d065 ea3c 585b 1d3d 969a 0abd 9861 1fbd
000001d0: 10f3 57bc 681a 833c 381c a43c 2c83 07bd
000001e0: e824 443c b4db 81bc e448 9cbc f68a 5bbd
000001f0: 50aa 67bc 78af fd3c 885d 0ebc dc81 0ebd
00000200: e8b8 08bc 38ea e4bc 344d 28bd c6f6 373d
00000210: a63a 40bd f86f 1cbc b6bd 663d 48c2 f3bc
00000220: 3ca2 b8bc 64e1 10bd 5ece 00bd 6c9a c33c
00000230: f038 62bd f0ed 0ebc 709a e1bb 78a6 5ebc
00000240: 0cde 6c3d 10a9 e33c 80e9 b23c 6858 343d
00000250: 7013 46bd ce68 1abd 3043 d43b b220 243d
00000260: b0f5 013c 1872 fabc d08a c83b b027 d1bc
00000270: 7600 313d 0057 6e3d f293 063d 6c08 29bd
00000280: 6072 13bb f007 a73b 2016 c23c 5ccb d2bc
00000290: 309a 44bd 3a23 583d e010 2dbc 6cb2 673d
000002a0: 5a52 32bd 30ac 8cbb 446f 973c 8c2c fdbc
000002b0: a887 d4bc c030 1fbd ae2a 2dbd ac59 31bd
000002c0: 4080 c63b ccef a0bc f4e5 30bd c833 d73c
000002d0: 4ce4 75bd 107e 97bc 30d0 b63c 5ae5 01bd
000002e0: a865 07bc 8c3c cc3c 287d 76bd 7a87 653d
000002f0: 3043 cf3b 3003 6b3c 0ad4 153d c619 41bd
00000300: dc74 90bc b079 54bc e42a 203d c489 fabc
00000310: 38ab 363d 9c1a 533d 2487 3a3d 58af 163d
00000320: 5c39 9fbc dc56 09bd 1cd7 503d 7846 1a3c
00000330: 460f 713d 0057 57bb 0003 f43b 302c 6ebd
00000340: a88f 30bc 5aa1 45bd 4c59 1c3d 00ad 0abc
00000350: 420c 2abd 5cef 993c 8083 423a 5ef2 2f3d
00000360: f89d 4e3d dcbc 1fbd 18b8 5fbd 801c 073b
00000370: 685a 413c 1eb6 74bd 50e6 1dbc 74cf 0a3d
00000380: dc67 cebc 5491 073d ec0f 07bd 402f 1b3d
00000390: f825 5a3d cc0a 103d 5806 513c 68ae 613c
000003a0: da8c 14bd 38a7 133d 4a09 433d c00c 73bb
000003b0: a0f1 64bd a060 6bbc 1060 503d 98c9 a83c
000003c0: 5afe 483d 30e4 29bd 805c c03a 207d 1f3c
000003d0: 3c8c 943c a869 243d d20d 2a3d 1492 a9bc
000003e0: 30e4 d43b 285f 903c 0065 d4b9 88b5 2bbd
000003f0: 5a32 543d 6cb4 1ebd 58c8 4dbc cc69 a2bc
0.026140653 -0.03556329 -0.0036726147 -0.0010622665 0.05209989 0.00093245506 -0.021298952 -0.05690898
0.021280639 0.027315497 -0.018063903 -0.032303944 0.010825373 0.019348368 -0.0046531633 0.046246342
0.049443178 -0.045574628 -0.014341272 -0.05789914 -0.03402359 -0.017828241 -0.055785917 0.045784846
0.004835382 0.0064196438 -0.0006059706 0.04244996 -0.054069318 0.00037063658 -0.021216407 0.019732818
-0.009526439 0.04462967 -0.044486016 0.028437577 0.050468065 0.02523747 0.0004593283 0.02608011
0.027321666 0.0029541329 0.015105337 -0.061586007 0.039805748 -0.03974483 0.054533035 0.0004396811
0.042764172 -0.02942346 0.03903076 -0.026031628 -0.02634395 -0.062107965 -0.048117176 0.046385244
-0.023412064 -0.021928571 0.008279204 0.036990106 -0.04672563 -0.047312945 0.050429903 0.05043886
-0.008028626 -0.04441814 -0.012551755 -0.033590958 0.048430257 -0.0114019215 0.021118112 -0.0021383017
-0.0554192 0.0035397634 -0.0514687 -0.010860883 -0.051948443 0.01555936 0.011797309 -0.042701617
-0.03505735 0.026475392 0.018479139 0.010921128 0.06231101 0.001970537 -0.023799501 -0.052051164
0.05136656 0.058706194 -0.03189808 0.04699398 0.03150802 -0.022289775 0.053943112 -0.060926124
-0.022162303 -0.006034419 0.02447208 0.0367093 0.0474122 0.022682257 -0.008211426 0.05538123
-0.00590609 0.046593204 0.0524683 0.0121644065 0.005549386 -0.040216036 0.061109856 0.02892021
0.028613001 0.03841719 -0.03383883 -0.038911432 -0.013180509 0.016003802 0.020032987 -0.03308408
0.01197169 -0.015851833 -0.019077726 -0.05359932 -0.014139727 0.03096746 -0.008689292 -0.034791812
-0.008344866 -0.027943715 -0.04108925 0.044913076 -0.04693093 -0.00954818 0.056333266 -0.029755726
-0.022538297 -0.0353712 -0.031446807 0.023877345 -0.05523008 -0.008723721 -0.0068848655 -0.013589494
0.057828948 0.027790576 0.021839857 0.044029623 -0.04835838 -0.037697606 0.006477736 0.040070243
0.007932112 -0.030571982 0.0061200634 -0.02553162 0.04321333 0.05818844 0.032855935 -0.041267797
-0.0022498593 0.005097382 0.02369219 -0.025731735 -0.047998607 0.05276797 -0.010563105 0.05656664
-0.043535568 -0.0042929873 0.018485673 -0.03090503 -0.025943592 -0.03886485 -0.04227703 -0.04329841
0.006057769 -0.019645594 -0.04318805 0.026269808 -0.060032174 -0.018492728 0.022316068 -0.031712867
-0.008263983 0.024931215 -0.060177952 0.056037404 0.006325148 0.014344022 0.03657917 -0.04714372
-0.017633848 -0.012968466 0.039103404 -0.03058327 0.04459688 0.05153905 0.045539036 0.036788315
-0.01943653 -0.0335301 0.050986394 0.009416215 0.058852457 -0.0032858253 0.0074466467 -0.05814761
-0.010776438 -0.04824958 0.038171098 -0.008464098 -0.041515596 0.018790893 0.0007420108 0.04295575
0.05044362 -0.03899847 -0.054618925 0.0020616353 0.01180134 -0.059743993 -0.00963743 0.03388925
-0.025196008 0.03309758 -0.03297417 0.037886858 0.053258866 0.035166547 0.01275786 0.013774492
-0.03626714 0.036048144 0.04761628 -0.0037086457 -0.055894494 -0.014366299 0.050872862 0.02060394
0.049070694 -0.041477382 0.0014676005 0.009734422 0.018133275 0.040139824 0.041517086 -0.020699538
0.0064969286 0.017623499 -0.00040511042 -0.04192117 0.05180583 -0.038746282 -0.012559973 -0.019825839

output.weight f4 [4, 256]
00000000: 6616 703d d8d2 553c c0c6 533b 902e 0fbc
00000010: e818 67bc e664 073d b49f b9bc 5cba c73c
00000020: 3492 eabc 4c9a ce3c 049a a13c cec5 2cbd
00000030: 3c19 823c f84d cd3c d021 cfbc 1481 70bd
00000040: 04a7 71bd daed 5cbd a0b2 623b c846 ad3c
00000050: c05e f43a acbb c3bc d8f5 9dbc 28e7 efbc
00000060: 64f1 843c b05c 70bc d80b fd3c b4f0 b63c
00000070: 40bc d73b 0c49 403d c8cd 713d c607 43bd
00000080: 18bf 62bc 04e3 67bd d08a b73c 7486 703d
00000090: 32d7 473d 48a2 7c3d 8618 45bd a4b5 7ebd
000000a0: e89f a9bc 6092 67bc 848c 6a3d b2cd 4bbd
000000b0: 084a 51bc 00c4 f9b9 00ad 01bb bc14 053d
000000c0: 1027 eabb c0b8 8dbc 1e84 10bd 8c58 953c
000000d0: a0fa 5b3d 40f7 bc3c 5a4b 5ebd 50cb 5abc
000000e0: f021 233c 0830 643d 40de ffbc b466 24bd
000000f0: 60c6 e53b e887 7a3d 986b fcbc 08c1 b7bc
00000100: 80ce 403c 34c8 99bc e413 113d 00cd cf3a
00000110: 2a0d 75bd 92ae 03bd fab3 2fbd 620f 4bbd
00000120: 7c67 08bd e815 c3bc 70e3 143d d075 d23c
00000130: 4402 42bd ca1d 41bd 004d 363a 8250 263d
00000140: 5011 e4bb 540d 1b3d fac8 763d f407 edbc
00000150: 0878 5dbc 2049 203b e613 013d 387f 7ebc
00000160: 9803 a23c 8437 ac3c 4050 f5bb 1cb3 e5bc
00000170: 585e 6f3c b85e 07bc 94e0 5bbd 60c3 43bc
00000180: 9082 dbbc 28a5 75bd 98ed 36bc 6acd 19bd
00000190: 60e8 f7bc 0a88 2f3d 586e babc 003c ecb9
000001a0: 6cde 3ebd a865 47bc d8f2 94bc 2ce5 0b3d
000001b0: f81c 09bc 8c38 9dbc daa7 543d a2b8 143d
000001c0: e8f2 48bd 4093 eebc 66a7 3a3d 341c cebc
000001d0: 500c a93c c4e2 28bd 503d 313c 006c 08ba
000001e0: 82ef 55bd 8af8 16bd 063d 013d 9cce 8bbc
000001f0: 8037 31bb d485 053d 3209 763d 006b 62bb
00000200: 78c7 27bd 7cea a3bc e870 b83c 00c5 b93c
00000210: 72bb 4dbd ba09 69bd bc1e 8d3c 52f6 77bd
00000220: 565c 54bd 1c1d 943c ac68 a4bc 2c00 b4bc
00000230: 14bc 4c3d 8828 003c c03a afbc a04e 573d
00000240: 8642 69bd 044a 72bd 669b 653d b497 0dbd
00000250: 20ee 203c 1017 c1bb 66fa 17bd 5ae2 7bbd
00000260: 141b bcbc 1ab8 6fbd 34d0 6ebd bca9 5b3d
00000270: 2ced 103d 2845 773c a0be 763b 8458 ce3c
00000280: 7098 aabc f0ec 1e3d 8029 b03a f04a 75bd
00000290: c0fb 213d 807c 283b 4032 523d 16ba 0bbd
000002a0: 7872 333c 408f cf3b 9ceb 363d 8812 91bc
000002b0: 60c1 453b 1abb 4a3d 0873 1ebc f46d b63c
000002c0: d061 92bc bea4 533d 48c0 67bc 960a 04bd
000002d0: 5851 d3bc 4c34 97bc 6afd 143d f06f e73c
000002e0: ccb9 543d e0b4 23bc 5041 55bc 4065 bdbc
000002f0: 44d3 62bd 30b5 e43b 8078 6d3d 3c4a 19bd
00000300: 7ad4 41bd f45d 333d 0cbf c3bc 6439 493d
00000310: e0c3 7b3d 385d 2a3c 5091 6cbc 2816 4b3c
00000320: c4c8 e83c 8018 d33b e079 14bb 28c2 4cbc
00000330: 88d5 cfbc 5c95 9dbc 8037 c8ba 8037 7d3a
00000340: e076 61bd 6c55 203d 389d 14bc 88ce 40bc
00000350: 1cb1 81bc 8890 423c 9431 9a3c 0014 60ba
00000360: a06c 02bd dc58 6b3d 52c4 763d 0cd6 573d
00000370: 3072 d9bc 2c2f 1abd b23d 223d 0e1b 4bbd
00000380: cc1a 5a3d 28bc 0dbc e472 803c f067 3cbd
00000390: d8d1 123d 1897 c8bc 2cbc 9ebc ec67 be3c
000003a0: 1a24 2b3d 2454 c9bc 708c b23b 7a6a 703d
000003b0: 2efa 42bd b2ac 1a3d d0df 8d3c c412 7c3d
000003c0: dcd9 b53c c6d9 7cbd b00d b7bc 8081 373d
000003d0: 38e6 653d 98be 2ebd c66e 5d3d 72e1 78bd
000003e0: d481 a23c b0b7 a13b ec5a c13c a03b d0bb
000003f0: 80af e23b 868f 71bd 209a 04bb 5aa5 4bbd
0.05861511 0.013050757 0.003231451 -0.008739129 -0.014105059 0.03305521 -0.02265916 0.024380855
-0.028634168 0.025220059 0.01972676 -0.04218083 0.015881173 0.025061592 -0.025284678 -0.05871685
-0.05899717 -0.05393777 0.0034591332 0.021151915 0.001864396 -0.0238932 -0.019282266 -0.029285029
0.016228385 -0.014670536 0.030889437 0.022331573 0.0065837204 0.046944663 0.05903414 -0.047614835
-0.013839506 -0.056612983 0.022405058 0.058721974 0.04878921 0.0616782 -0.04811909 -0.062184945
-0.020706132 -0.01413402 0.057262912 -0.049756713 -0.012773998 -0.00047639012 -0.0019786954 0.032490477
-0.00714577 -0.01730001 -0.035282247 0.018230699 0.05370581 0.023067117 -0.05427108 -0.013354138
0.009956822 0.05570987 -0.031233907 -0.040137008 0.0070121735 0.061164767 -0.030813023 -0.022430912
0.011767983 -0.018772222 0.03541936 0.0015853941 -0.059827007 -0.032148905 -0.04289625 -0.049575217
-0.033301815 -0.023814157 0.036349714 0.025690943 -0.047365442 -0.04714755 0.0006954223 0.040604122
-0.0069600716 0.037854508 0.06025026 -0.028934456 -0.013517387 0.0024457648 0.031513117 -0.015533261
0.019777104 0.021022566 -0.007486373 -0.028039508 0.014609896 -0.008262329 -0.05368097 -0.0119484365
-0.026795655 -0.05997196 -0.011165045 -0.037549414 -0.030262172 0.042854346 -0.022757694 -0.0004505813
-0.046598837 -0.012170233 -0.018182203 0.034154102 -0.008368723 -0.019192003 0.05191789 0.036308892
-0.04905978 -0.029122949 0.0455698 -0.025159933 0.020635754 -0.041231886 0.010817841 -0.00052040815
-0.052230366 -0.03685812 0.031552337 -0.017066292 -0.0027041137 0.03259833 0.060067363 -0.003454864
-0.040961713 -0.020009272 0.022514775 0.022676945 -0.05022759 -0.05689404 0.01722657 -0.060537644
-0.05184587 0.018080287 -0.020069443 -0.021972738 0.049984053 0.007822163 -0.021390319 0.052565217
-0.056948207 -0.059152618 0.056056403 -0.034568503 0.009822398 -0.005892642 -0.037104033 -0.061495163
-0.02296213 -0.058525182 -0.058304027 0.05362867 0.035382435 0.015092172 0.0037650242 0.025188692
-0.020824641 0.03880018 0.0013440102 -0.05988592 0.039546728 0.0025708973 0.051317453 -0.034113012
0.010952584 0.0063342154 0.04465829 -0.017709032 0.0030175075 0.04949484 -0.00967098 0.022269227
-0.017868906 0.051670782 -0.0141449645 -0.032236658 -0.025795624 -0.018457554 0.036374487 0.028251618
0.051935002 -0.009991854 -0.01301606 -0.023119569 -0.05537726 0.006979607 0.057976246 -0.03742431
-0.047321774 0.043790773 -0.02389481 0.049126998 0.061466098 0.010398202 -0.014438942 0.012395419
0.028416045 0.0064421296 -0.002265565 -0.012497462 -0.025370374 -0.01923626 -0.0015275329 0.0009659454
-0.05504501 0.039143965 -0.009070687 -0.011767991 -0.015831523 0.011875279 0.018822469 -0.0008547902
-0.031841874 0.05745779 0.06024582 0.052694365 -0.026543707 -0.037642643 0.03960962 -0.04958635
0.05324821 -0.008650817 0.015679784 -0.04599756 0.035844654 -0.02448611 -0.019376837 0.023242913
0.041782476 -0.024576254 0.0054488704 0.058695294 -0.04760187 0.03776235 0.017318636 0.061541334
0.02219861 -0.061731122 -0.022345394 0.044801235 0.056127757 -0.042662233 0.05406072 -0.060761876
0.019837297 0.0049352273 0.023602925 -0.006354764 0.006917894 -0.058974765 -0.0020233467 -0.04971824

output.bias f4 [4]
00000000: 18c5 213d c07a 39bd 4e27 2ebd 90eb 39bd
0.039494604 -0.04528308 -0.042517953 -0.045390666
