fetch_sticky_mittens_step_4_blocks/networks/ours_10k_block_4_uber_level_0_seed_250/network_release_and_lift_3.pth (torch, 622647 bytes, 8 tensors)

fc1.weight f4 [256, 85]
0	0x3c7f2057	0.015571675
1	0xbbcc2b02	-0.006230713
2	0x3d175c14	0.036953047
3	0x3d3a0762	0.045417197
4	0xbd77eb28	-0.060526997
5	0x3d9b4ba4	0.07582787
6	0x3c1492e8	0.009068228
7	0xbd4434aa	-0.047901787
8	0xbdc02317	-0.09381693
9	0x3d91ca76	0.071186945
10	0xbd47011e	-0.04858505
11	0xbd97a9bc	-0.07405421
12	0xbc318368	-0.010834552
13	0xbd90469c	-0.07044718
14	0xbd88735a	-0.066626266
15	0x3c36dab8	0.011160545
16	0xbca77215	-0.02044014
17	0x3ab27eab	0.0013618072
18	0x3dd19ad4	0.10234609
19	0x3c80bc0d	0.01571467
20	0x3ce5ae3e	0.028037187
21	0xbce768d6	-0.028248232
22	0xbcd33e4c	-0.025786541
23	0xbaf9039f	-0.0018998272
24	0xbcb0414b	-0.02151551
25	0xbc3cf903	-0.011533978
26	0xbd606a63	-0.05478896
27	0x3d9dae90	0.07699311
28	0xbd9b09f8	-0.07570261
29	0xbc698df1	-0.014255033
30	0x3db6e943	0.0893121
31	0x3dd53fa8	0.10412532
32	0x3cafd0fa	0.021461952
33	0x3c503e8e	0.012710227
34	0xbd5d4092	-0.054016657
35	0xbc551160	-0.013004631
36	0xbd686360	-0.056735396
37	0xbd91d9dc	-0.071216315
38	0xbdb4028f	-0.087895505
39	0x3d60c3f7	0.054874387
40	0xbdd31311	-0.10306371
41	0xbcfc0d2e	-0.030768003
42	0xbd4de197	-0.050263967
43	0x3dd492c3	0.10379555
44	0x3d89a657	0.0672118
45	0xbb84c054	-0.0040512476
46	0xbd35b3c3	-0.044360887
47	0x3bab78db	0.005232913
48	0xbaa3bd0a	-0.0012492251
49	0xbc01c52a	-0.007920543
50	0xbda5899c	-0.080828875
51	0x3d839b99	0.06426162
52	0xbd3635ef	-0.04448503
53	0xbc78ac86	-0.015177852
54	0xbc0517dc	-0.008123364
55	0xbcd5bf99	-0.026092337
56	0x3cd86185	0.026413688
57	0x3d6184d8	0.05505833
58	0x3c39a504	0.011330847
59	0xbdcb99c3	-0.09941437
60	0x39ae8c34	0.00033292326
61	0x3d8afe90	0.06786835
62	0x3d588448	0.05286053
63	0xbd5c139b	-0.053729635
64	0x3d1649a9	0.03669134
65	0x3d7538bc	0.05986856
66	0xbd93a4d7	-0.07209175
67	0x3ddd4395	0.10803906
68	0x3b01c336	0.0019800193
69	0x3dbdd68c	0.09269437
70	0xbd99c0a6	-0.07507448
71	0xbd8bf4ec	-0.068338245
72	0xbda71c22	-0.08159663
73	0x3dc692d2	0.096959725
74	0xbc58bf20	-0.0132291615
75	0x3d3988ca	0.045296468
76	0xbdc3ab82	-0.09554197
77	0xbbe4c0ec	-0.006981006
78	0xbd8f426d	-0.069950916
79	0xbd8423ca	-0.06452139
80	0xbdc74557	-0.097300224
81	0xbd9fd1da	-0.07803698
82	0xbdcc7ccc	-0.099847406
83	0xbdc1b173	-0.09457674
84	0x3d1446af	0.03620022
85	0xbdbcab62	-0.09212376
86	0xbc068283	-0.008209827
87	0xbdc65906	-0.096849486
88	0xbdb14627	-0.086559586
89	0xbd326127	-0.043549683
90	0xbc89ce1a	-0.01682191
91	0xbbb0e070	-0.005397849
92	0x3d503dd2	0.050840206
93	0x3d56ae12	0.0524121
94	0xbcff98a8	-0.031200722
95	0xbc579ea9	-0.013160386
96	0x3c876d03	0.016531473
97	0x3dc61fdc	0.096740454
98	0xbd3067d3	-0.043067764
99	0x3d270aa2	0.040781625
100	0xbdce6439	-0.1007771
101	0x3d3ebe0f	0.046567973
102	0x3cf72c03	0.030172354
103	0x3c3a3990	0.011366263
104	0x3bfbad6f	0.007680587
105	0x3d8f81ab	0.07007154
106	0xbd5f9001	-0.054580692
107	0xbd27871d	-0.04090034
108	0xbd90cc28	-0.0707019
109	0xbd167248	-0.03673008
110	0x3d81aa86	0.06331353
111	0x3d9a6080	0.07537937
112	0x3d9b28c5	0.075761355
113	0x3ca7cadd	0.020482475
114	0x3c7a4624	0.015275512
115	0xbd890d16	-0.06691949
116	0x3dc9ffb2	0.09863223
117	0xbd9014a7	-0.07035189
118	0x3d29ca2b	0.041452568
119	0x3d5682cf	0.052370843
120	0xbd16d1f6	-0.036821328
121	0xbdb94060	-0.09045482
122	0xbdc54e38	-0.0963406
123	0x3d800566	0.0625103
124	0x3db2fde4	0.08739832
125	0xbdce8cfa	-0.10085483
126	0x3d46bdec	0.048520967
127	0xbdac6503	-0.08417704
128	0x3d640823	0.055671822
129	0x3be32c05	0.006932738
130	0xbda24d64	-0.07924917
131	0xbd96664c	-0.0734373
132	0xbd6edf6c	-0.05831854
133	0xbdd543d7	-0.1041333
134	0x3c237969	0.009977677
135	0xbd86e3e5	-0.06586436
136	0x3d82a9c1	0.06380034
137	0x3db3f6b5	0.0878729
138	0xbd99c938	-0.075090826
139	0xbd0b4c58	-0.034008354
140	0x3db56e91	0.088589795
141	0xbdc132b2	-0.094334975
142	0xbdd7d6a6	-0.10538988
143	0xbc6e63b1	-0.0145501355
144	0xbdc11287	-0.09427362
145	0x3ce5acea	0.028036553
146	0x3d430edb	0.04762159
147	0xbd16a4b8	-0.03677818
148	0xbd887dda	-0.06664629
149	0xbd7377c5	-0.059440393
150	0xbd447fdf	-0.04797351
151	0x3dd8674c	0.10566577
152	0x3db69e66	0.08916931
153	0xbcc18c85	-0.023626575
154	0x3d794fa4	0.060866967
155	0xbdd5d79e	-0.10441516
156	0x3d74d01f	0.059768792
157	0xbdc9fcff	-0.09862708
158	0xbd961c41	-0.07329608
159	0xbdcfa224	-0.10138348
160	0x3da45daf	0.08025681
161	0xbd01f0e0	-0.031723857
162	0xbd9a3a48	-0.075306475
163	0xbdd61ff8	-0.10455316
164	0xbc278a68	-0.01022587
165	0xbce35536	-0.027750593
166	0x3d9d79bf	0.07689237
167	0x3db70618	0.08936709
168	0xbd9d923f	-0.0769391
169	0x3d9d1ffc	0.07672116
170	0xbdb3dbd1	-0.08782161
171	0x3bbcb7ef	0.0057592313
172	0xbd807372	-0.062720194
173	0xbdcfbdaa	-0.101435974
174	0xbdbd19c0	-0.09233427
175	0x3d89423f	0.067020886
176	0xbd04005f	-0.032226916
177	0x3d9b77e5	0.075912274
178	0xbdd65973	-0.1046628
179	0xbdb4de27	-0.08831435
180	0xbc1631ad	-0.009167117
181	0x3d087610	0.03331572
182	0x3d46d01e	0.04853832
183	0x3c8c0342	0.017091397
184	0xbd2821b0	-0.041047752
185	0xbd803cc2	-0.06261589
186	0xbd925948	-0.07145935
187	0x3c5412dd	0.0129439505
188	0xbd34fcd2	-0.04418642
189	0xbcd83a8e	-0.026395109
190	0xbc40cad3	-0.011767107
191	0xbd885898	-0.06657523
192	0xbd54ad7b	-0.051923256
193	0x3dd3e731	0.10346831
194	0x3d126143	0.035737287
195	0x3d6dc648	0.058050424
196	0xbdd6480a	-0.10462959
197	0xbda9c4a4	-0.08289459
198	0x3d85c77c	0.06532189
199	0x3c2caa91	0.010538713
200	0x3daed26a	0.08536227
201	0xbc5a2ed2	-0.013316827
202	0x3ddda43d	0.108223416
203	0xbd269795	-0.040671904
204	0x3d22be87	0.039732482
205	0x3d927a3f	0.07152223
206	0xbc56dd60	-0.013114303
207	0xbdd313e5	-0.10306529
208	0xbd98fc83	-0.07470038
209	0x3d22b19e	0.03972017
210	0x3ce85b1f	0.028363762
211	0x3d2476b8	0.04015228
212	0x3dad6b7c	0.08467767
213	0xbd508bc8	-0.050914556
214	0xbd7e0e73	-0.0620255
215	0x3db4f259	0.08835287
216	0xbddccae5	-0.107808866
217	0x3d9401ba	0.07226892
218	0xbd24455a	-0.0401052
219	0xbd97418c	-0.07385549
220	0xbca3bf90	-0.019988805
221	0x3d4a9bd8	0.04946503
222	0x3da821e3	0.082095884
223	0x3d9d7d7a	0.076899484
224	0xbcc334b3	-0.02382884
225	0x3db53219	0.08847446
226	0xba3da5e8	-0.00072345
227	0x3d80fb1d	0.06297896
228	0xbb6b0231	-0.003585946
229	0xbd790d46	-0.060803674
230	0xbd5c3f32	-0.053771205
231	0xbd0b6311	-0.034030024
232	0xbd820673	-0.06348886
233	0xbd5c10db	-0.053727012
234	0xbb768610	-0.0037616529
235	0x3d9d9d32	0.07695998
236	0x3cc2b096	0.023765843
237	0x3d242b03	0.04008008
238	0x3d442a7e	0.047892086
239	0x3da135fe	0.07871626
240	0x3d325685	0.043539543
241	0x3cbf4a51	0.023350867
242	0x3c2c121e	0.010502366
243	0x3d3c26af	0.04593533
244	0xbd5356f9	-0.051596615
245	0xbd96571e	-0.07340835
246	0x3cb8cfdb	0.02256005
247	0x3d806977	0.06270116
248	0x3c7bd110	0.015369669
249	0x3dcc1522	0.09964968
250	0x3c7bea2c	0.015375655
251	0x3dd88995	0.10573117
252	0x3d2ccd01	0.042187694
253	0xbc2b39e4	-0.010450814
254	0x3d90c45e	0.07068704
255	0xbd87fe2c	-0.06640276

fc1.bias f4 [256]
0	0xbd454f30	-0.048171222
1	0xbb873a86	-0.0041268496
2	0xbd28c194	-0.041200235
3	0xbc904dd9	-0.017615246
4	0xbd748858	-0.05970034
5	0x3bda4a5f	0.0066616978
6	0x3da98ea6	0.08279161
7	0xbdd4c7bc	-0.10389659
8	0x3dcd3051	0.10018981
9	0x3c97e4c9	0.01854171
10	0xbcd71884	-0.026256807
11	0xbd8d156e	-0.06888853
12	0xbdc5ff44	-0.09667829
13	0x3c7c7687	0.0154091185
14	0x3d7040f7	0.058655705
15	0x3d5f2cf3	0.054486226
16	0x3d0ed238	0.03486845
17	0xbd6dbd47	-0.058041837
18	0x3d82e12d	0.06390605
19	0xbd001c02	-0.03127671
20	0x3c3af3b0	0.011410639
21	0xbd10b7d2	-0.035331555
22	0xbdd845ce	-0.10560189
23	0xbc9fdc65	-0.019514272
24	0x3d8bcb69	0.06825907
25	0x3b0453dc	0.0020191586
26	0x3d0ddf45	0.034636755
27	0xbdc4eec1	-0.09615851
28	0x3dd02250	0.101627946
29	0xbd7889b1	-0.060678188
30	0x3c23ed78	0.010005347
31	0xbd77229b	-0.060335737
32	0x3d5ceb55	0.053935368
33	0xbd4d38bc	-0.050102934
34	0xbd36e991	-0.04465634
35	0xbd4280d9	-0.04748616
36	0xbc8c99eb	-0.017163238
37	0x3aa4b7d0	0.0012566987
38	0x3dba65ca	0.09101446
39	0xbd82e81a	-0.06391926
40	0xbd74c371	-0.0597567
41	0x3dadda27	0.08488875
42	0xbc5262ca	-0.012840936
43	0xbc9bb1db	-0.019005707
44	0xbd0ba32c	-0.03409116
45	0xbd3a8817	-0.04553994
46	0xbd67b1c4	-0.056566015
47	0x3cfaa667	0.030596925
48	0x3da1f3be	0.07907818
49	0xbda044a6	-0.07825594
50	0x3d8a5a57	0.06755512
51	0xbd723519	-0.05913267
52	0xbdc9daca	-0.09856184
53	0x3dc20abb	0.09474703
54	0xbd2a97b9	-0.0416486
55	0x3b94b5c7	0.004538271
56	0xbd60eb1b	-0.054911714
57	0xbdbf2221	-0.093326814
58	0xbd830591	-0.06397546
59	0xbda70282	-0.08154775
60	0x3d549dfb	0.051908474
61	0x3cee4047	0.029083384
62	0xbc8a2c85	-0.016866932
63	0x3dd1592c	0.10222086
64	0x3c7b9803	0.015356067
65	0x3d928435	0.07154123
66	0xbc48d469	-0.012257674
67	0xbdb29c7d	-0.08721254
68	0xbdc2ad8d	-0.095057584
69	0xbbd05555	-0.0063578286
70	0xbcf17b4c	-0.029477738
71	0xbdc97ec5	-0.098386325
72	0xbd20145c	-0.039081916
73	0xbd9425ed	-0.07233796
74	0x3be448be	0.0069666794
75	0x3dcdffcf	0.10058557
76	0x3d4fde08	0.050748855
77	0x3cfcd274	0.03086207
78	0xbd2f73c7	-0.042835023
79	0x3dbd84a6	0.09253816
80	0xbcaf7e61	-0.021422567
81	0x3d408ef4	0.04701133
82	0xbdbbcf20	-0.09170365
83	0x3d0816b2	0.03322477
84	0x3c41287c	0.011789437
85	0xbd913435	-0.07090036
86	0xbdcde166	-0.10052757
87	0x3d22f457	0.039783802
88	0xbd61ed45	-0.05515792
89	0xbdd7fae1	-0.10545898
90	0xbd905adb	-0.07048579
91	0x3db96e1b	0.09054204
92	0xbddc0f8c	-0.10745153
93	0xbd14ab3b	-0.03629611
94	0xbd9d71bf	-0.07687711
95	0x3d9d2b6e	0.07674299
96	0xbcc21f45	-0.023696551
97	0x3cd38170	0.025818557
98	0xbdb4f780	-0.088362694
99	0x3dca520f	0.09878933
100	0x3d50fed6	0.05102428
101	0x3dd00ecf	0.101590745
102	0x3d852f10	0.06503117
103	0x3d71c987	0.059030082
104	0x3c9fda7f	0.019513367
105	0xbce9bf74	-0.028533675
106	0x3d7469e4	0.059671298
107	0x3d07ff40	0.03320241
108	0x3d623714	0.055228308
109	0x3dcced21	0.10006166
110	0xbbe30305	-0.00692785
111	0x3c97243c	0.018449895
112	0x3d05b684	0.032644764
113	0x3dca26b7	0.098706655
114	0xbd3a9edb	-0.045561653
115	0xbd897f4d	-0.06713734
116	0xbd88b93b	-0.06675955
117	0xbdc434e8	-0.095804036
118	0x3c4c0a86	0.012453681
119	0x3d636bf6	0.05552288
120	0xbd872894	-0.065995365
121	0xbd6d53c8	-0.05794123
122	0xbdcc8f4c	-0.09988269
123	0xbcb46048	-0.022018567
124	0xbc1d2684	-0.009591702
125	0x3c25ef45	0.010127847
126	0xbd967550	-0.07346594
127	0xbda92480	-0.08258915
128	0x3d6fb920	0.05852616
129	0xbdd92bdb	-0.10604068
130	0xbddc6c28	-0.10762817
131	0xbba84be9	-0.0051360023
132	0xbda5081e	-0.08058189
133	0x3d8ef1ae	0.069796905
134	0x3cfd707c	0.030937426
135	0x3d47dd15	0.048794825
136	0xbd44e766	-0.04807224
137	0xbdc6534d	-0.09683857
138	0xbda97f2d	-0.0827621
139	0xbd1d1ff4	-0.03836055
140	0x3dd79b2d	0.10527644
141	0xbd9c4efb	-0.07632252
142	0xbd13d5f6	-0.03609272
143	0x3d8f3473	0.06992426
144	0x3d103f12	0.0352164
145	0x3d937df1	0.07201756
146	0x3dd6bb2b	0.10484918
147	0xbd9e4446	-0.07727866
148	0xbdaf60a4	-0.085633546
149	0x3cd42aea	0.02589937
150	0x3d82c2a9	0.06384785
151	0x3c024a17	0.007952235
152	0x3d67a71c	0.056555852
153	0xbd4d79b8	-0.05016491
154	0x3c1e5514	0.009663839
155	0xbd2b4203	-0.041811
156	0xbda111d5	-0.07864729
157	0x3d87f09a	0.06637688
158	0xbddb9b54	-0.10722986
159	0x3db65548	0.08902985
160	0xbdaca8f9	-0.084306665
161	0xbc4f9e06	-0.012671953
162	0x3d4dd334	0.050250247
163	0xbd2817b9	-0.04103825
164	0x3d3d1ce3	0.046170127
165	0x3d97046d	0.07373891
166	0xbdd59118	-0.10428065
167	0x3d03948b	0.032124083
168	0xbb34dcc5	-0.002759741
169	0x3d9b9538	0.075968206
170	0x3d967d79	0.07348151
171	0xbd1c4157	-0.03814825
172	0xbdca76f4	-0.0988597
173	0xbd31f82b	-0.043449562
174	0xbd907ebb	-0.07055422
175	0x3dd140be	0.10217427
176	0xbcb21715	-0.021739522
177	0xbd221f68	-0.039580733
178	0x3d950f7b	0.07278343
179	0xbd409cc8	-0.04702452
180	0xbd825c1f	-0.06365227
181	0x3dc98bc9	0.09841115
182	0x3d7436d1	0.05962259
183	0xbcd908db	-0.02649348
184	0xbd88e5ff	-0.06684493
185	0x3ccc2b1e	0.024922904
186	0x3dbaacd8	0.091149986
187	0x3b7281d0	0.0037003644
188	0x3da905d3	0.08253064
189	0xbdb011ea	-0.08597167
190	0xbd6f4e96	-0.058424555
191	0xbca0a5fa	-0.019610394
192	0x3ce9eedb	0.028556278
193	0x3ccbd7d1	0.024883183
194	0xbcdf20a3	-0.027237242
195	0x3d9684d3	0.07349553
196	0xbdb8fa62	-0.09032132
197	0x3d481fc0	0.048858404
198	0x3d867b4c	0.06566486
199	0x3d1e5280	0.038652897
200	0x3dc4e064	0.096131116
201	0xbcc96a42	-0.0245868
202	0x3d8837c0	0.066512585
203	0xbd63e5ac	-0.055638954
204	0x3bdc5790	0.0067243055
205	0x3db7c2eb	0.089727245
206	0x3ca2502a	0.019813616
207	0x3d63cefd	0.05561732
208	0xbc34fcb7	-0.01104658
209	0xbd3f303f	-0.04667687
210	0xbd42f4ef	-0.047596868
211	0xbdd12165	-0.102114476
212	0xbdc21232	-0.09476127
213	0x3d55fdd1	0.05224401
214	0xbcf196af	-0.029490797
215	0x3c20ec58	0.009821974
216	0xbc1d1b3c	-0.009589013
217	0xbdb16530	-0.08661878
218	0x3c1ccd31	0.009570406
219	0xbd53860f	-0.05164152
220	0x3d13a6f8	0.036047906
221	0xbc931f32	-0.017959211
222	0x3d613a8f	0.054987486
223	0x3dc93f7e	0.09826563
224	0x3bcac660	0.006188199
225	0xbdbc052d	-0.09180675
226	0xbd76a599	-0.06021652
227	0x3d02a897	0.03189906
228	0x3d38131a	0.04494009
229	0x3cb49062	0.022041503
230	0x3d81b449	0.06333215
231	0x3d8f77ec	0.07005295
232	0xbd1e0abd	-0.03858446
233	0xbd34a75d	-0.044104923
234	0x3d5fd74f	0.054648694
235	0xbc9d1f08	-0.019179836
236	0xbd285481	-0.041096214
237	0x3dbbbb2b	0.09166559
238	0xbd493abc	-0.04912828
239	0xbdbf43c3	-0.093390964
240	0x3d48280f	0.048866328
241	0xbd222d32	-0.039593883
242	0xbd1a3c3b	-0.037655097
243	0x3dcc729c	0.099827975
244	0x3d10582e	0.035240345
245	0xbc4b792e	-0.012419028
246	0x3d13619b	0.035981756
247	0xbd88384a	-0.06651361
248	0x3d98fb32	0.07469787
249	0x3dc3288b	0.09529217
250	0xbd4365ee	-0.04770463
251	0xbce4a311	-0.027909787
252	0x3d0d2fe5	0.034469504
253	0x3c915b4d	0.01774373
254	0xbd907b75	-0.070547976
255	0x3dd7beb8	0.105344236

fc2.weight f4 [256, 256]
0	0xbd6948f4	-0.05695434
1	0xbb1f6160	-0.0024319515
2	0x3d522d04	0.05131246
3	0x3d52fe68	0.051512152
4	0x3d7623c0	0.060092688
5	0xbd7a3c5c	-0.06109272
6	0x3bad4930	0.0052882656
7	0x3d462c6e	0.048382215
8	0xbd54ca60	-0.051950812
9	0xbd20ebec	-0.039287493
10	0xbc6ba5b8	-0.014382772
11	0x3d5887ec	0.052864
12	0xbcedc410	-0.029024154
13	0x3d06a7f2	0.03287501
14	0x3d729988	0.05922845
15	0xbd1c9c58	-0.03823504
16	0xbc56b150	-0.013103798
17	0xbbc56f70	-0.0060252473
18	0xbd76a548	-0.06021622
19	0x3ced0124	0.028931208
20	0xbd2e53e0	-0.04256046
21	0x3c377ea8	0.011199631
22	0xbd0f406c	-0.034973547
23	0xbcea4be8	-0.028600648
24	0xbd56d69c	-0.05245076
25	0x3d74fc1e	0.05981075
26	0x3cbb04bc	0.022829406
27	0xbd0a65be	-0.033788435
28	0x3d4ef94e	0.050530724
29	0xbc7e7c38	-0.015532546
30	0x3d1acae8	0.037791163
31	0xbc5ef250	-0.0136075765
32	0xba7e5580	-0.00097020715
33	0xbce278a0	-0.02764541
34	0x3ca80140	0.020508409
35	0xbc9d1158	-0.01917331
36	0x3d2c89ba	0.042123534
37	0xbce67930	-0.028133959
38	0xbcf635f8	-0.030055031
39	0x3c4fdcc0	0.012686908
40	0xbd523f14	-0.051329687
41	0xbd736596	-0.05942305
42	0xbcf1792c	-0.029476725
43	0xbc82d3e0	-0.01597017
44	0xbc936dbc	-0.017996661
45	0xbc10f290	-0.008846894
46	0xbd24d0bc	-0.040238127
47	0x3cd7c714	0.026340045
48	0xbc0c6e88	-0.008571275
49	0xbd1f2424	-0.038852826
50	0xbd5168ce	-0.05112534
51	0xbd6a2cd0	-0.057171643
52	0xbd4bf05a	-0.049789764
53	0xbd203678	-0.039114445
54	0xbd62bbe4	-0.055354968
55	0xbd2f330e	-0.0427733
56	0xbd332c08	-0.043743163
57	0xbd3bf5a4	-0.045888558
58	0xbb7500c0	-0.003738448
59	0xbc95cbdc	-0.018285684
60	0xbd065f92	-0.032805987
61	0x3d5ea6fc	0.054358467
62	0xbd7074a2	-0.05870498
63	0xbd6b7b6a	-0.057490744
64	0xbc8aa7b8	-0.016925678
65	0xbd490f24	-0.049086705
66	0x3cf00a98	0.029301926
67	0xb9847f00	-0.00025271624
68	0x3cb5cb50	0.022191674
69	0x3ca75fd0	0.02043143
70	0xbd05c79a	-0.032661058
71	0xbc8d0ae8	-0.017217115
72	0x3cc2baf4	0.023770787
73	0xbd2fb5e2	-0.042898066
74	0x3d155eea	0.03646747
75	0x3d52edc0	0.051496267
76	0xbd4adb92	-0.049525805
77	0x3cf9df98	0.030502126
78	0xbcebbd30	-0.028776735
79	0xbc84db40	-0.016217828
80	0x3d286e98	0.041121095
81	0x3ab93440	0.0014129952
82	0x3be033c0	0.0068421066
83	0x3d2a3cf8	0.04156205
84	0x3d0e72dc	0.034777507
85	0x3d3739ba	0.044732787
86	0x3c85a738	0.016315088
87	0xbd51e014	-0.05123909
88	0xbd71a4c6	-0.05899503
89	0x3c3d27c0	0.011545122
90	0x3baf1350	0.0053428784
91	0xbd209a6a	-0.03920976
92	0xbd08d6b4	-0.03340788
93	0xbcfb40a0	-0.030670464
94	0xbcb35c90	-0.021894723
95	0x3cd645e8	0.02615638
96	0xbc8675e0	-0.016413629
97	0xbd36c590	-0.044622004
98	0xbd58ae9c	-0.052900895
99	0xbc4b9a70	-0.0124269575
100	0x3d77a2d2	0.060458012
101	0xbbbcdbd0	-0.0057635084
102	0x3cb93c34	0.022611715
103	0xbd72a8a0	-0.059242845
104	0x3cc5f58c	0.024164937
105	0xbd36b026	-0.044601582
106	0xbcb29d80	-0.021803617
107	0x3cac2330	0.021012872
108	0xbc70cb98	-0.014696978
109	0xba442400	-0.0007482171
110	0xbd356ba2	-0.0442921
111	0x3d245674	0.04012151
112	0xbc2925e0	-0.0103239715
113	0xbd2c1d3c	-0.042020068
114	0x3ccb2244	0.024796613
115	0xbd3b7840	-0.045768976
116	0xbd3f1bfe	-0.046657555
117	0x3d5539be	0.05205702
118	0x3b7c2de0	0.0038479492
119	0xbd02c672	-0.031927533
120	0xbadb40c0	-0.0016727671
121	0xbce0110c	-0.027351879
122	0x3d2d8d5c	0.04237114
123	0xbd138e06	-0.036024116
124	0x3ce7ac1c	0.02828031
125	0xbc9749c4	-0.018467791
126	0xba8cad00	-0.001073271
127	0x3c9e3494	0.01931218
128	0xbd71334a	-0.058886804
129	0xbc6b3d98	-0.014357947
130	0xbc8987b8	-0.016788349
131	0xbd45922a	-0.048235096
132	0x3d6cb8bc	0.057793364
133	0x3d1f9ae4	0.038966075
134	0xbc758a00	-0.014986515
135	0x3d2d771a	0.042349912
136	0x3c82de8c	0.01597526
137	0x3d734460	0.05939138
138	0xbbddc0a0	-0.0067673475
139	0x3c7e8a80	0.015535951
140	0xbc32ac68	-0.010905363
141	0xbd746c24	-0.059673443
142	0xbc3d2f28	-0.011546887
143	0x3d29473e	0.041327707
144	0x3d705502	0.05867482
145	0xbd60d190	-0.054887354
146	0xbc061dc8	-0.008185811
147	0x3d4c0b2a	0.049815334
148	0x3c4c0eb8	0.012454681
149	0xbcbfa79c	-0.023395352
150	0x3b918b10	0.0044416264
151	0x3b856000	0.004070282
152	0x3d0fc8d4	0.035103634
153	0xbbeb77a0	-0.0071858913
154	0xbb54d6a0	-0.003247656
155	0xbd2f5ac0	-0.042811155
156	0x3ce13fbc	0.027496211
157	0xbcd689e8	-0.026188806
158	0x3cee1bf0	0.029066056
159	0xbd48c616	-0.049017034
160	0x3d5ffd50	0.054684937
161	0x3d4a415a	0.04937873
162	0xbbf47460	-0.007460162
163	0x3d7575ba	0.059926726
164	0xbd02e8f8	-0.031960458
165	0x39dead00	0.00042472035
166	0x3d08f3d0	0.033435643
167	0xbcd34ccc	-0.025793456
168	0xbb851fb0	-0.0040626153
169	0xbc3029c8	-0.010752149
170	0xbc2d7948	-0.010587998
171	0xbd6efec2	-0.058348425
172	0x3d742a30	0.059610546
173	0xbb305160	-0.0026903972
174	0x3b99d440	0.0046944916
175	0xbc9ec8a4	-0.019382782
176	0x3d3d1332	0.046160884
177	0x3c9a1880	0.01881051
178	0xbd0a6c66	-0.033794783
179	0xbd27ce6e	-0.04096835
180	0xbd31d9a6	-0.043420456
181	0xbb5e8640	-0.003395453
182	0xbd40a8ac	-0.047035858
183	0xbcd91f64	-0.026504226
184	0xbd4a290e	-0.04935556
185	0x3d62ac48	0.05534008
186	0x3cc69ff4	0.024246193
187	0xbd6232aa	-0.0552241
188	0x3b95bbd0	0.004569508
189	0x3cddc778	0.027072653
190	0x3d686e8e	0.05674606
191	0xbd5bdde6	-0.053678416
192	0xbbf036a0	-0.0073307306
193	0xbd64d856	-0.055870377
194	0xbceb8690	-0.028750688
195	0x3d2a1db4	0.041532233
196	0xbcfbf878	-0.030758128
197	0x3d036a06	0.032083534
198	0x3d1b5484	0.037922397
199	0xbcbc1b68	-0.022962287
200	0x3d4e8610	0.05042082
201	0x3d32a9f6	0.04361912
202	0x3c9e87b4	0.019351818
203	0xbc3ccfb0	-0.011524126
204	0xbd1206c8	-0.035651
205	0x3d64a084	0.055817142
206	0x3ca62f40	0.020286202
207	0xbaebe080	-0.0017995983
208	0x3cae2dfc	0.021262161
209	0x3d12a412	0.035801
210	0xbd587f08	-0.05285552
211	0x3d12f6f2	0.035880037
212	0xbace1040	-0.0015721396
213	0x3d0824da	0.03323827
214	0xbcfa2c18	-0.030538604
215	0x3b31e5c0	0.0027144998
216	0xbd211d5a	-0.039334632
217	0xbd1340b2	-0.03595037
218	0x3cc6bf00	0.024260998
219	0xbbe8ea40	-0.007108003
220	0xbb9db330	-0.0048126206
221	0x3983dc00	0.0002515018
222	0xbc1ad650	-0.00945051
223	0x3c9a30ec	0.018822156
224	0x3d666f10	0.05625826
225	0xbd7f46ec	-0.062323496
226	0x3b6dfa40	0.003631249
227	0x3d702c8e	0.05863624
228	0x3bdda9d0	0.006764628
229	0xbd7d329a	-0.061815836
230	0x3c76bda0	0.015059859
231	0x3d5e31de	0.054246776
232	0xbcf86218	-0.030320212
233	0x3ca353a0	0.019937336
234	0x3c6f79c0	0.01461643
235	0xbbd2e840	-0.0064363778
236	0x3c831318	0.016000316
237	0xbd4283ac	-0.047488853
238	0xbd604d32	-0.05476112
239	0x3d7649ee	0.0601291
240	0x3c786cf8	0.015162699
241	0x3d6b409e	0.05743467
242	0x3d3d03b6	0.046146117
243	0x3d3340a8	0.043762833
244	0x3d39a93a	0.045327403
245	0xb9aa1b00	-0.00032445043
246	0x3d06ef72	0.032943197
247	0xbcfc1000	-0.030769348
248	0xbd28658a	-0.04111246
249	0xbd3c17d0	-0.045921147
250	0xbc426878	-0.011865728
251	0xbcfa0194	-0.03051833
252	0xbd7228f6	-0.059121095
253	0xbcd42bb0	-0.025899738
254	0xbd42484e	-0.047432236
255	0x3d1abffc	0.037780747

fc2.bias f4 [256]
0	0xbbd1c7d0	-0.0064019933
1	0x3d6b78fe	0.057488434
2	0xbd6b3956	-0.057427727
3	0x3d31dc06	0.04342272
4	0x3bb2a210	0.0054514483
5	0xbd3cdcda	-0.046109058
6	0x3c368420	0.0111398995
7	0xbcceadac	-0.025229298
8	0xbd25f17a	-0.040513493
9	0x3be036a0	0.0068424493
10	0x3b6ad820	0.0035834387
11	0x3d45f37a	0.0483279
12	0xbcfc5440	-0.030801892
13	0x3d6fbc28	0.05852905
14	0x3ce4ca50	0.027928501
15	0x3d522946	0.051308893
16	0x3c7e2e38	0.015513949
17	0xbd5da3da	-0.05411134
18	0xbd7328f2	-0.05936522
19	0x3c0b0580	0.008485198
20	0xbd2c325c	-0.042040214
21	0xbd07dc62	-0.033169158
22	0xbcce0ccc	-0.025152586
23	0xbd6e0f16	-0.058119856
24	0xbb585c60	-0.0033014044
25	0x3d3f714a	0.0467389
26	0x3c8e5ec8	0.01737918
27	0x3d361662	0.04445494
28	0xbcab48dc	-0.020908765
29	0x3d592e2c	0.05302255
30	0xbd6c820c	-0.05774121
31	0x3cb3f1a8	0.021965817
32	0xbc8fa264	-0.017533489
33	0x3cfd23f0	0.030900925
34	0x3d0201de	0.031740062
35	0xbccf8e90	-0.025336534
36	0x3c922f2c	0.017844759
37	0x3cdfe5f4	0.02733133
38	0xbd5a40be	-0.0532844
39	0x3d1d65dc	0.03842722
40	0xbcd98f1c	-0.026557498
41	0x3cff8fd4	0.031196512
42	0xbd277502	-0.04088307
43	0xbbc6a2e0	-0.0060618967
44	0xbd6ab554	-0.057301834
45	0x3cc41898	0.023937508
46	0xbd289392	-0.04115636
47	0xbcf18d64	-0.029486366
48	0xbb403dc0	-0.002933368
49	0x3c267f40	0.010162175
50	0xbd533ed8	-0.051573604
51	0x3bed0510	0.0072332695
52	0xbce85b58	-0.028363869
53	0x3d38678a	0.045020618
54	0xbd7dbfc2	-0.061950453
55	0x3cd421a8	0.025894955
56	0x3c8c8754	0.017154373
57	0x3c7bbcb8	0.015364818
58	0x3d3011fa	0.042985894
59	0x3d5ce7ac	0.053931877
60	0xbc3efa50	-0.011656359
61	0x3d55cfd4	0.052200153
62	0xbd0aea7a	-0.03391502
63	0xbd042f2c	-0.03227155
64	0x3d3941ec	0.045228884
65	0xbc909b94	-0.01765231
66	0xbc121c60	-0.008917898
67	0x3c4a2598	0.012338065
68	0x3d1bf1bc	0.038072333
69	0x3d1e4dde	0.03864848
70	0x3d57ec88	0.05271581
71	0x3d124b28	0.035716206
72	0x3a99fe80	0.001174882
73	0xbcbcad34	-0.023031808
74	0xbd4cd384	-0.050006405
75	0x3d10994c	0.035302445
76	0x3bf9ad80	0.0076195598
77	0xbcb69258	-0.022286579
78	0xbd3fe6d6	-0.046851
79	0xbd1047b2	-0.035224624
80	0xbd6a1650	-0.057150185
81	0xbce21410	-0.027597457
82	0x3c3553b0	0.011067316
83	0x3d008f7c	0.031386837
84	0xbbd85050	-0.006601371
85	0xbcca6094	-0.024704255
86	0x3c554130	0.01301603
87	0xbc2fb1a8	-0.010723509
88	0x3d13a34e	0.03604441
89	0xbd79c6fe	-0.06098079
90	0xbd4e8dc6	-0.050428174
91	0xbd6c46f8	-0.05768487
92	0xbd48036c	-0.04883139
93	0x3cf5fec8	0.030028716
94	0xbd3c9942	-0.046044596
95	0x3c9bd7e4	0.019023843
96	0xbc086958	-0.008325897
97	0x3d109738	0.035300463
98	0x3d330420	0.043705106
99	0xbd5a4f6a	-0.05329839
100	0x3d7a64cc	0.061131284
101	0xbc959944	-0.01826156
102	0x3ce85ca0	0.02836448
103	0x3d7b2d44	0.061322466
104	0x3d722b94	0.05912359
105	0xbd7b8544	-0.06140639
106	0xbbc01e00	-0.0058629513
107	0xbd086894	-0.03330286
108	0xbc868400	-0.016420364
109	0x3aa6bcc0	0.0012721047
110	0xbb629e20	-0.0034579113
111	0x3d5fc0f6	0.05462738
112	0xb959c800	-0.00020769238
113	0x3d126f12	0.035750456
114	0xbca802a8	-0.02050908
115	0x3d6b3e48	0.057432443
116	0x3c98b830	0.018642515
117	0x3cc91088	0.024544016
118	0x3cdaea10	0.026722938
119	0xbc904810	-0.017612487
120	0x3cd1d93c	0.02561628
121	0x3bfae790	0.007656999
122	0x3d34fd32	0.04418678
123	0xbd13cfee	-0.03608697
124	0x3d5e6484	0.054295078
125	0x3cbc2838	0.022968397
126	0x3d6c7ac8	0.05773428
127	0xbcc99d50	-0.024611145
128	0x3a796980	0.0009514317
129	0x3d68b6ec	0.056815073
130	0xbd35e3e2	-0.04440678
131	0xbd22015c	-0.039552078
132	0xbc0812d8	-0.008305274
133	0x3ccd9618	0.025095984
134	0x3ca183b4	0.019716121
135	0xbacc6bc0	-0.0015596077
136	0x3c6c9420	0.014439613
137	0x3d4e59ee	0.050378732
138	0x3c8b92d4	0.017037787
139	0x3d3e7c70	0.04650539
140	0xbcccc670	-0.024996966
141	0x3cc0f6a0	0.0235551
142	0x3d3257c8	0.043540746
143	0xbd7200be	-0.05908274
144	0x3d10beea	0.03533832
145	0xbd6cc38e	-0.057803683
146	0xbd419d48	-0.047269136
147	0x3d0bd7d8	0.03414139
148	0x3ce11518	0.027475879
149	0xbd246a18	-0.04014024
150	0x3cf6ca6c	0.03012582
151	0xbaaf5e00	-0.0013379455
152	0xbcf15b2c	-0.02946242
153	0xbc8b267c	-0.016986124
154	0xbae86780	-0.0017731041
155	0x3afdca80	0.0019362718
156	0xbcd1816c	-0.025574408
157	0x3cefd4a4	0.0292762
158	0xbc56a518	-0.013100885
159	0xbd7441f6	-0.059633218
160	0xbd26c9f2	-0.040719934
161	0xbce03048	-0.027366772
162	0xb8baa800	-8.9004636e-05
163	0xbce2f8cc	-0.027706526
164	0x3cb7f3a4	0.022455044
165	0xbd1cdb7e	-0.03829526
166	0xbd0d8d50	-0.034558594
167	0x3bd66370	0.0065426156
168	0x3d5165f0	0.051122606
169	0x3bacbe90	0.0052717403
170	0x3d6b4b4a	0.057444848
171	0x3c848abc	0.016179435
172	0xbb9b21c0	-0.004734248
173	0xbb7a6460	-0.00382068
174	0xbc7c98a0	-0.015417248
175	0x3d223420	0.03960049
176	0x3d21a784	0.039466396
177	0x3d35bd5e	0.044370048
178	0x3d553d98	0.052060694
179	0xbd7deca4	-0.061993256
180	0x3c9ffe40	0.019530416
181	0xbb043820	-0.0020175055
182	0xbd7ad1ca	-0.061235227
183	0xbd465dc4	-0.048429266
184	0x3ce187c0	0.027530551
185	0xbd6cb636	-0.057790957
186	0xbc2e52b8	-0.010639839
187	0xbb278fe0	-0.0025567934
188	0x3cbbca7c	0.0229237
189	0xbbee70c0	-0.0072766244
190	0x3ca7fd8c	0.020506643
191	0xbd05cb38	-0.032664508
192	0x3d2bd810	0.0419541
193	0xbb9d1020	-0.004793182
194	0xbce79004	-0.028266914
195	0x3d1d5c64	0.03841819
196	0xbc729080	-0.014804959
197	0xbcff22dc	-0.031144552
198	0xbd1b0176	-0.03784319
199	0xbc53d490	-0.012929097
200	0xbd3a02b8	-0.04541275
201	0xbba32070	-0.004978232
202	0x3c027588	0.007962592
203	0xbd33f30a	-0.043932952
204	0x3d4d5606	0.050130866
205	0xbd082c9a	-0.03324566
206	0x3c8624f0	0.016375035
207	0x3d5d4284	0.054018512
208	0x3c23d338	0.009999089
209	0x3d623d0a	0.055233993
210	0xbc8309a0	-0.0159958
211	0x3bbc16c0	0.0057400167
212	0xbc9e2824	-0.01930625
213	0x3b053b20	0.002032943
214	0x3cae1850	0.021251827
215	0x3d30a2f2	0.043124147
216	0xbc9c5e58	-0.019087955
217	0x3c3ae8d0	0.011408046
218	0x3d2cbafa	0.042170502
219	0xbd36ac4e	-0.044597916
220	0x3d07fbe4	0.033199206
221	0xbd39cd9c	-0.0453621
222	0xbd36dcfc	-0.04464434
223	0xbb1ba940	-0.0023752004
224	0x3d733c4c	0.059383675
225	0xbc8d74c4	-0.017267592
226	0xbbca1760	-0.0061673373
227	0x3cb23b5c	0.02175682
228	0xbd764760	-0.060126662
229	0xbca3aac0	-0.01997888
230	0xbcde7ce4	-0.027159162
231	0xbd752682	-0.059851177
232	0x3cb10274	0.021607615
233	0xbd487034	-0.04893513
234	0x3c8b2348	0.016984597
235	0xbd4c8528	-0.049931675
236	0xbca107c4	-0.019657023
237	0xbc9e2bcc	-0.019307993
238	0x3d5881fe	0.052858345
239	0xbcf5b350	-0.02999273
240	0x3d033d46	0.032040857
241	0x3b07b9c0	0.002071008
242	0xbd2ddd5e	-0.04244744
243	0xbcc2b8e8	-0.02376981
244	0x3d51e638	0.051244944
245	0x3c5ed8c8	0.013601489
246	0x3d6a33d2	0.057178326
247	0x3d55c4fc	0.052189812
248	0x3c85f5c8	0.01635255
249	0xbd4ed716	-0.05049809
250	0x3c75c428	0.015000381
251	0xbd34e0e6	-0.044159792
252	0x3b7feda0	0.0039051548
253	0xbcb57068	-0.022148326
254	0xbd6d635c	-0.057956085
255	0x39b30700	0.00034146756

fc3.weight f4 [256, 256]
0	0xbc0b21b8	-0.008491926
1	0x3ca7f224	0.020501204
2	0xbd3c1e6c	-0.04592745
3	0x3d099aa6	0.03359475
4	0xbd193bf6	-0.0374107
5	0x3d6ab912	0.057305403
6	0xbc2e2410	-0.010628715
7	0xbb97e0f0	-0.004634969
8	0x3a059c80	0.00050968677
9	0xbbf02cf0	-0.0073295757
10	0xbd11065c	-0.035406455
11	0xbd023d14	-0.03179653
12	0xbd705712	-0.058676787
13	0x3d1c3a0e	0.038141303
14	0x3bfd86f0	0.007737033
15	0xbcc06654	-0.023486294
16	0x3d4294e4	0.047505274
17	0x3c878650	0.016543537
18	0x3d7c4c30	0.061596096
19	0xbd7b9fca	-0.061431684
20	0xbd7cd0ca	-0.061722554
21	0x3d798a54	0.060922936
22	0x3d232dfa	0.03983877
23	0x3d4dca2e	0.05024164
24	0x3d00527a	0.031328656
25	0x3cb591f4	0.022164322
26	0xbd7eefee	-0.062240534
27	0x3cc57e94	0.024108209
28	0x3d63f854	0.055656746
29	0xbaded980	-0.0017002076
30	0x3d68063e	0.056646578
31	0x3d63ed72	0.055646367
32	0xbb63f440	-0.0034783036
33	0xbcaf8604	-0.021426208
34	0x3ce25b70	0.027631491
35	0xbc8c4f28	-0.017127588
36	0xbd107c14	-0.03527458
37	0x3d779896	0.06044825
38	0x3c84f2ec	0.016229115
39	0xbc5f6968	-0.013635971
40	0xbd0bd8c2	-0.034142263
41	0x3d0f28f6	0.034951173
42	0xbc1b2b08	-0.009470709
43	0xbcae0774	-0.021243788
44	0xbcbb3c74	-0.022855975
45	0xbd0f6f32	-0.035018153
46	0xbc7ff048	-0.015621252
47	0xbc981244	-0.018563397
48	0xbd7e2e14	-0.062055662
49	0xba411980	-0.00073661655
50	0xb79ea000	-1.8909574e-05
51	0x3d124c02	0.035717018
52	0xbcceca7c	-0.025243036
53	0x3d014c12	0.031566687
54	0x3d4cd044	0.050003305
55	0x3cc1b2b8	0.02364479
56	0xbc7db8c0	-0.015485942
57	0xbccc3a68	-0.024930194
58	0x3ba21de0	0.004947409
59	0xbd484022	-0.048889287
60	0x3cbb5348	0.02286686
61	0x3d6446d8	0.055731624
62	0x3be635e0	0.0070254654
63	0xbd158a40	-0.0365088
64	0x3b8cc810	0.0042963102
65	0x3c041d10	0.00806357
66	0xbc322c70	-0.010874853
67	0x3cd44ef4	0.025916554
68	0x3d02de6a	0.03195039
69	0x3d636d2c	0.055524036
70	0x3d14ef0e	0.036360793
71	0xbd0f25ca	-0.034948148
72	0x3cd35414	0.025796928
73	0x3d1ff9be	0.039056532
74	0x3c274d40	0.010211289
75	0xbd099c38	-0.033596247
76	0x3c70f5e8	0.014707066
77	0x3d53cb84	0.05170776
78	0x3caa9810	0.020824462
79	0xbcbdc578	-0.02316545
80	0x3ceaf0c0	0.028679252
81	0x3d61d214	0.055131987
82	0xbd493e1c	-0.049131498
83	0xbd5ba2e0	-0.053622127
84	0x3d667a68	0.05626908
85	0xbd5f2330	-0.054476917
86	0xbd391630	-0.045187175
87	0xbcd85610	-0.026408225
88	0x3d757814	0.05992897
89	0x3d2bf54e	0.041981988
90	0xbc9154d8	-0.017740652
91	0xbd211a0a	-0.039331473
92	0xbca58e38	-0.020209417
93	0x3b8604d0	0.004089929
94	0xbc7d94a0	-0.0154773295
95	0xbd02f74e	-0.03197413
96	0xbcb6a900	-0.022297382
97	0x3d205656	0.039144836
98	0xbd1651d4	-0.03669913
99	0xbd0d177a	-0.034446217
100	0xbd25551a	-0.040364362
101	0x3d0877c8	0.033317357
102	0xbd0cc79e	-0.034370057
103	0xbba636a0	-0.00507243
104	0xbc8d995c	-0.017285042
105	0xbc835508	-0.016031757
106	0x3cff8c4c	0.031194828
107	0xbcdba658	-0.026812717
108	0x3ce550a4	0.027992554
109	0x3d672af4	0.056437448
110	0x3cbdc7b8	0.023166522
111	0xbd49ea0e	-0.049295478
112	0xbb8b2330	-0.004246138
113	0x3d7f7672	0.062368818
114	0x3c75f370	0.015011653
115	0xbc98eb2c	-0.018666826
116	0xbd5962fc	-0.053072914
117	0xbd54bee6	-0.051939867
118	0xbd5fd76c	-0.0546488
119	0xbd6839aa	-0.056695618
120	0xbcbc63f4	-0.02299688
121	0xbc545d10	-0.012961641
122	0x3d1a18a6	0.037621163
123	0x3d4bfd5a	0.04980216
124	0xbc49e4c0	-0.012322605
125	0xbccb3a08	-0.024807945
126	0x3d2cd5a8	0.042195946
127	0x3cd6dcac	0.026228271
128	0x3c875c40	0.01652348
129	0xbcbdc0a0	-0.02316314
130	0x3c5180c8	0.0127870515
131	0x3ca5e774	0.020251967
132	0x3c13fc98	0.009032391
133	0x3d256166	0.04037609
134	0x3d18cf00	0.037306786
135	0x3cc5a148	0.024124756
136	0xbce62aac	-0.02809652
137	0x3c9c8090	0.019104272
138	0xbce14da0	-0.027502835
139	0xbb703ac0	-0.0036656111
140	0x3cf2729c	0.029595666
141	0xbb9a41d0	-0.0047075525
142	0x3ca30080	0.0198977
143	0x3d43085c	0.047615394
144	0xbcbd6bf8	-0.023122773
145	0x3d61ec04	0.055156723
146	0xbd238f52	-0.039931603
147	0x3c8e1fd4	0.017349161
148	0x3d78eb96	0.060771547
149	0x3d3aa904	0.045571342
150	0x3d61f630	0.055166423
151	0xbc4f9780	-0.012670398
152	0xbd0dea22	-0.034647115
153	0xbcb0a520	-0.021563113
154	0xbce9a538	-0.028521165
155	0x3ccf0508	0.025270954
156	0xbd57a236	-0.05264493
157	0x3c85a514	0.016314067
158	0x3b9d9940	0.0048095286
159	0xbc71d750	-0.014760807
160	0x3ce0be58	0.027434513
161	0x3c9a0c1c	0.018804602
162	0xbc851d8c	-0.01624944
163	0xbc31b4a8	-0.010846294
164	0x3bff7b40	0.007796675
165	0xb8a66000	-7.933378e-05
166	0xbca40a60	-0.020024478
167	0xbcad69c0	-0.02116859
168	0x3d054f22	0.03254617
169	0xbd0a189a	-0.033714868
170	0xbd6c65f8	-0.057714432
171	0xbc4744f8	-0.0121624395
172	0x3d00957a	0.031392552
173	0xbd6475e8	-0.055776507
174	0x3d09b464	0.0336193
175	0xbd31f2ee	-0.043444566
176	0xbd4dbc62	-0.050228484
177	0x3d41739a	0.047229387
178	0x3b015700	0.0019735694
179	0x3d6007ac	0.054694816
180	0x3cd383a8	0.025819615
181	0x3d08ed46	0.033429407
182	0xbac7e180	-0.0015249699
183	0x3c4531d0	0.012035802
184	0x3d1014cc	0.035176083
185	0xbd1d2650	-0.038366616
186	0xbd7dce0e	-0.061964087
187	0xbd7198a2	-0.058983453
188	0xbd191420	-0.03737271
189	0xbc5f86c8	-0.013642974
190	0x3d1b5686	0.037924312
191	0xbcc9ccc4	-0.024633773
192	0xbcb45a5c	-0.022015743
193	0x3caaf300	0.020867825
194	0xbd054aca	-0.032542028
195	0x3d48e91e	0.049050443
196	0xbc40c8d0	-0.011766627
197	0x3d4da296	0.050203882
198	0x3d5846bc	0.052801833
199	0x3cf38404	0.029726036
200	0x3d779f80	0.060454845
201	0x3d19cc42	0.03754831
202	0xbd3e89aa	-0.046518005
203	0x3d78e79a	0.060767747
204	0x3d42bbfa	0.04754255
205	0x3bf20860	0.0073862523
206	0xbd09e3fe	-0.033664696
207	0xbd3d43e4	-0.046207324
208	0xbd404e10	-0.046949446
209	0x3d69af36	0.05705186
210	0x3d3e2938	0.046426028
211	0x3d69ec36	0.057110034
212	0xbd235b26	-0.039881848
213	0x3d297894	0.041374758
214	0xbd41fbca	-0.047359265
215	0x3d759144	0.05995299
216	0x3d1cfdb4	0.038327888
217	0xbd7f0a86	-0.062265895
218	0xbc87e380	-0.016587973
219	0x3d66edc4	0.056379095
220	0xbcef8ecc	-0.029242896
221	0x3c3d6120	0.011558801
222	0xbc2190f8	-0.009861223
223	0x3d06d43e	0.032917254
224	0x3c1ba760	0.0095003545
225	0x3ccfd47c	0.025369875
226	0xbd2224b0	-0.03958577
227	0xbca1e8cc	-0.019764327
228	0xbd3d5e88	-0.04623273
229	0x3c545820	0.012960464
230	0xbc3b9288	-0.01144851
231	0xbcd6507c	-0.026161425
232	0xbc77a628	-0.015115298
233	0xbcfc523c	-0.030800931
234	0xbd78a4be	-0.060703985
235	0x3d420882	0.047371395
236	0xbc300160	-0.010742515
237	0xbd5e77d8	-0.05431351
238	0xbba79830	-0.0051145777
239	0xbd4ea86e	-0.050453596
240	0xbc9466cc	-0.018115424
241	0xbcaa96f8	-0.02082394
242	0xbd50b0d0	-0.05094987
243	0x3cbe7880	0.023250818
244	0xbd2fa0f6	-0.042878114
245	0xbd355798	-0.04427299
246	0xbd2b11c0	-0.041764975
247	0xbd1f0662	-0.038824446
248	0x3ce15a54	0.027508892
249	0x3d73c7c2	0.059516676
250	0x3cb805b0	0.02246365
251	0x3d07cab0	0.033152282
252	0x3d5a7b74	0.05334039
253	0xbc210df8	-0.009829991
254	0xbd5308fe	-0.051522247
255	0x3be766c0	0.0070618093

fc3.bias f4 [256]
0	0xbc452e20	-0.012034923
1	0x3cee5378	0.029092535
2	0x3c5834d0	0.013196185
3	0xbc199eb0	-0.009376213
4	0x3cfd917c	0.030953161
5	0x3d07efd4	0.033187702
6	0x3cfa15fc	0.030528061
7	0x3c4753d8	0.012165986
8	0xbcd0bd80	-0.025480986
9	0xbc45ae58	-0.012065493
10	0xbd313da4	-0.043271676
11	0x3c8bd01c	0.017067008
12	0xbc6a09d8	-0.0142845735
13	0x3d36fe16	0.04467591
14	0xbd2220a8	-0.039581925
15	0x3d008cac	0.031384155
16	0x3ca3f9cc	0.020016573
17	0x3d57037e	0.052493565
18	0xbc56b838	-0.013105445
19	0x3d35da76	0.044397794
20	0xbd164610	-0.03668791
21	0xbd027668	-0.031851202
22	0xbd6fcfa6	-0.05854764
23	0xbd08ae5c	-0.033369407
24	0x3cadefc8	0.0212325
25	0x3d335718	0.04378423
26	0xbc4b07e0	-0.012392014
27	0xbd6ff9e6	-0.05858793
28	0x3d6c4f3e	0.05769276
29	0xbd10ea6e	-0.03537982
30	0xbd019a5e	-0.031641357
31	0xbd071d58	-0.03298697
32	0x3cd6c234	0.02621565
33	0x3d50dd4e	0.050992303
34	0xbd26e266	-0.040743254
35	0xbd0eb90c	-0.034844443
36	0x3bc66b80	0.0060552955
37	0xbbbef900	-0.005828023
38	0x3c307b88	0.01077164
39	0x3cc68530	0.02423343
40	0x3d5d7106	0.054062866
41	0xbcd252b0	-0.025674194
42	0xbccceb60	-0.02501458
43	0x3c576658	0.013146959
44	0xbd5ab1d2	-0.05339224
45	0x3d056c26	0.03257384
46	0xbc5331f0	-0.012890324
47	0x3d18b568	0.037282377
48	0xbc8cf790	-0.01720789
49	0xbc945b14	-0.018109836
50	0x3bff78b0	0.0077963695
51	0xbc445f38	-0.011985593
52	0xbc34afe0	-0.01102826
53	0xbd489ea8	-0.04897943
54	0xbcdb8074	-0.02679465
55	0xbcd99380	-0.026559591
56	0x3c63d178	0.013904922
57	0x3b7b2520	0.0038321689
58	0x3d14bc70	0.03631252
59	0x3d3320a2	0.043732293
60	0x3ab1ae80	0.0013556033
61	0xbcdfddd4	-0.027327456
62	0x3d2a76e4	0.04161729
63	0x3d5dcb9a	0.054149248
64	0x3d7d5b2c	0.061854526
65	0xbd3e4684	-0.046453968
66	0xbce753d0	-0.028238207
67	0x3cc540ac	0.02407869
68	0x3cde60a8	0.027145699
69	0xbd192e66	-0.037397765
70	0xbd068e20	-0.032850385
71	0xbd425296	-0.04744204
72	0xbbc2cc10	-0.0059447363
73	0x3d65b650	0.05608207
74	0xbd6fb88e	-0.058525614
75	0xbc8bf8e4	-0.017086454
76	0xbd06215c	-0.032746658
77	0x3d2a5142	0.0415814
78	0xbd32263c	-0.043493494
79	0xbd6451e4	-0.05574216
80	0xbc61f190	-0.013790503
81	0x3bbc7680	0.005751431
82	0xbc37ba18	-0.011213802
83	0x3be331b0	0.0069334134
84	0xbd640ab0	-0.055674255
85	0x3d1545fc	0.036443695
86	0x3d23e3d0	0.04001218
87	0x3d17d150	0.03706485
88	0xbc3dd4a8	-0.011586346
89	0x3c834cdc	0.01602786
90	0x3c5f6508	0.013634928
91	0x3d606720	0.054785848
92	0x3b91f600	0.0044543743
93	0x3c0c4fc8	0.008563943
94	0x3d7e7486	0.062122844
95	0x3d674c40	0.056469202
96	0xbd0e0222	-0.034670003
97	0xbd110a1a	-0.035410024
98	0xbc9192c4	-0.017770179
99	0xbc066990	-0.008203879
100	0xbd1c6bfe	-0.038188927
101	0xbd18005e	-0.037109725
102	0x3cc174f8	0.023615345
103	0xbd2242e8	-0.039614588
104	0x3c0006f0	0.007814154
105	0x3d4064b0	0.046971023
106	0xbbe7ea80	-0.007077515
107	0xbd0fd122	-0.035111554
108	0xbd763838	-0.060112208
109	0x3d38ee0a	0.045148887
110	0xbc481e20	-0.012214214
111	0x3d26ea4a	0.04075078
112	0x3d3a6634	0.045507625
113	0x3ce4db40	0.027936578
114	0xbc2ea468	-0.010659315
115	0x3c9d0620	0.01916796
116	0x3cda6160	0.02665776
117	0x3d0b4c80	0.034008503
118	0xbc8af334	-0.016961671
119	0x3d34db8c	0.04415469
120	0xbd626c70	-0.055279195
121	0x3d3805b2	0.044927306
122	0xbc32baf0	-0.010908827
123	0xbd305e34	-0.04305859
124	0x3d685dc4	0.056730047
125	0x3cee650c	0.029100917
126	0x3cb3de44	0.02195657
127	0x3ce2e5a0	0.027697384
128	0x3d4dd4f4	0.050251916
129	0x3cf1a99c	0.029499821
130	0xbd1c5658	-0.03816828
131	0x3c86a578	0.016436324
132	0x3ccd1fb4	0.025039531
133	0x3d6e8064	0.05822791
134	0xbca3a01c	-0.019973807
135	0x3cfa9094	0.030586518
136	0x3c611bc8	0.013739534
137	0x3d7f85e0	0.062383533
138	0xbd1b0b08	-0.037852317
139	0x3d352648	0.04422596
140	0xbd05a574	-0.03262849
141	0xbd5ff854	-0.054680184
142	0xbca1ca90	-0.01974991
143	0xbd5b8c5e	-0.05360066
144	0x3cd2aa08	0.025715843
145	0x3d0813aa	0.033221878
146	0x3d361d2a	0.044461407
147	0x3d312368	0.043246657
148	0xbd490bc8	-0.0490835
149	0xbd590a82	-0.052988537
150	0xbd35c62c	-0.044378445
151	0x3bcf3400	0.0063233376
152	0x3aaf7680	0.0013386756
153	0x3d722394	0.05911596
154	0xbc1ea9e8	-0.0096840635
155	0x3d396c8c	0.045269534
156	0xbd60767c	-0.054800496
157	0x3d724d28	0.059155613
158	0xbcbdb5f4	-0.023158051
159	0xbc1b8ef0	-0.009494528
160	0x3cf15f80	0.029464483
161	0x3cd43230	0.025902838
162	0x3c496748	0.012292691
163	0x3aa8ff00	0.0012893379
164	0x3b3329c0	0.0027338117
165	0x3b7013a0	0.003663279
166	0x3d5e8be0	0.054332614
167	0x3a9462c0	0.0011320934
168	0xbc95af70	-0.018272132
169	0xbcdd798c	-0.027035497
170	0xbd1c9996	-0.03823241
171	0x3c2ecb48	0.010668583
172	0xbd5df05a	-0.054184295
173	0xba762b00	-0.0009390563
174	0xbb9561a0	-0.004558757
175	0x3d251aa8	0.040308625
176	0xbc2ca358	-0.010536991
177	0x3d075f98	0.03305015
178	0xbd10b5da	-0.035329677
179	0x3ccb7a1c	0.0248385
180	0x3d056f60	0.03257692
181	0x3c2f0d50	0.010684326
182	0x380ee800	3.4071505e-05
183	0x3cce5a78	0.025189623
184	0x3d65d08c	0.05610709
185	0x3d47d536	0.04878732
186	0x3bb27ef0	0.005447261
187	0xbc8f0314	-0.017457522
188	0xbd670c2c	-0.056408092
189	0x3c52ea20	0.012873203
190	0x3cf2b3b0	0.029626697
191	0x3c945364	0.01810617
192	0x3ccddbb0	0.02512917
193	0xbd5b22f0	-0.053500116
194	0x3b511ea0	0.0031909123
195	0xbcd03600	-0.025416374
196	0x3c822730	0.015887827
197	0x3d474466	0.048649214
198	0x3d7f825a	0.062380172
199	0x3d134416	0.035953604
200	0xbce44340	-0.027864099
201	0x3d50cc9a	0.050976373
202	0x3c3d7bc0	0.011565149
203	0x3d6121e8	0.054963976
204	0x3d1b1efa	0.03787134
205	0xbd19ffe0	-0.037597537
206	0xbbcf2f20	-0.0063227564
207	0x3d76b7dc	0.060233936
208	0x3a215000	0.00061535835
209	0x3cae4f0c	0.021277927
210	0x3c904f14	0.017615832
211	0xbc688bf0	-0.01419352
212	0x3d6995ec	0.057027742
213	0xbbc28d00	-0.0059372187
214	0xbbfe9170	-0.0077688023
215	0xbd28025e	-0.041017883
216	0x3bc66750	0.0060547963
217	0xbce31100	-0.027718067
218	0xbb1ff6e0	-0.0024408624
219	0x3b91ce30	0.0044496283
220	0xbcd2a2a8	-0.025712326
221	0xba012200	-0.0004926026
222	0xbd0248d2	-0.031807728
223	0x3d4a58a8	0.049400955
224	0x3cd7fbb0	0.026365131
225	0x3cd0d978	0.025494322
226	0xbd694cce	-0.056958012
227	0xbcf7d800	-0.030254364
228	0xbc1229c0	-0.008921087
229	0x3d267106	0.04063513
230	0xbd77061c	-0.06030856
231	0xbb59ea60	-0.003325127
232	0xbc647710	-0.013944402
233	0xbd3abcf8	-0.04559037
234	0x3d37f57e	0.044911854
235	0x3bdb8890	0.006699629
236	0xbd495076	-0.049149
237	0xbd78c65e	-0.060736053
238	0x3d4ab6b8	0.04949066
239	0x3d490156	0.04907354
240	0x3d7e82e6	0.062136553
241	0xbc95d2b0	-0.01828894
242	0xbc99501c	-0.018714957
243	0x3d25c198	0.04046783
244	0xbd5c1b6c	-0.05373709
245	0xbce2f424	-0.027704306
246	0xbb663800	-0.0035128593
247	0xbb6f35c0	-0.0036500543
248	0xbc6be650	-0.0143981725
249	0xbd15c88c	-0.03656821
250	0x3d689a64	0.056787863
251	0x3d702ba0	0.058635354
252	0xbbc50b80	-0.006013334
253	0xbd241806	-0.040061973
254	0x3d255730	0.04036635
255	0xbc188fd0	-0.009311631

output.weight f4 [4, 256]
0	0xbd650a6c	-0.055918142
1	0x3bdb8300	0.006698966
2	0xbd3dc8ce	-0.04633408
3	0x3d59982e	0.053123645
4	0xbd3d24dc	-0.04617773
5	0x3cbb6100	0.022873402
6	0x3c453238	0.012035899
7	0xbcd2268c	-0.025653146
8	0xbd35c164	-0.044373885
9	0x3d66416a	0.056214727
10	0x3d6eba44	0.058283105
11	0xbbf1fa50	-0.007384576
12	0xbd65bc24	-0.056087628
13	0x3cfd7b10	0.03094247
14	0xbcb7575c	-0.022380523
15	0xbc18c580	-0.009324431
16	0xbb075800	-0.0020651817
17	0x3d1079c6	0.035272382
18	0xbd3c4da6	-0.04597249
19	0xbd42a2fa	-0.047518708
20	0xbd1e3d48	-0.03863266
21	0xbc7784e8	-0.015107371
22	0xbbf3d120	-0.007440701
23	0x3bf2cc90	0.0074096397
24	0xbce2cc24	-0.027685232
25	0x3d389098	0.04505977
26	0x3b240a00	0.0025030375
27	0x3c807bec	0.01568409
28	0xbc68bdc8	-0.014205404
29	0x3c9ea228	0.019364432
30	0xbcc0abd4	-0.023519434
31	0x3b8393b0	0.0040154085
32	0xbc487e18	-0.012237094
33	0xbcd90f98	-0.026496693
34	0x3ce17864	0.027523227
35	0xbc943ea4	-0.018096276
36	0x3d516f54	0.05113156
37	0x3ccfd5a0	0.025370419
38	0xbd023dc0	-0.03179717
39	0x3d7a51c2	0.061113127
40	0x3d715b6e	0.058925085
41	0xbd52e7b8	-0.051490515
42	0x3ce7033c	0.028199784
43	0x3d322462	0.04349173
44	0xbc1296d8	-0.008947097
45	0x3c59e760	0.013299793
46	0xbd0ddd0a	-0.034634627
47	0xbc9c6000	-0.019088745
48	0x3d518c78	0.051159352
49	0xbcc8106c	-0.024421893
50	0xbd009752	-0.03139431
51	0x3bb2d860	0.005457923
52	0x3c9d247c	0.019182436
53	0xbd4981c6	-0.049196027
54	0xbd472782	-0.048621662
55	0xbb81dff0	-0.003963463
56	0xbd158144	-0.03650023
57	0xbd683776	-0.056693517
58	0xbd1736b6	-0.03691741
59	0xbb8c0450	-0.004272975
60	0x3d1616ce	0.036642842
61	0xba817440	-0.0009876564
62	0xbd544f96	-0.05183371
63	0x3ca74f0c	0.020423435
64	0x3d21b60c	0.039480254
65	0x3d071d4a	0.032986917
66	0x3d4bd57a	0.049764134
67	0x3d12c0be	0.035828345
68	0x3cd5ee30	0.026114553
69	0x3d21ebfa	0.039531685
70	0x3d40a37c	0.04703091
71	0xbd6a7aac	-0.057245895
72	0xbd1c1546	-0.038106225
73	0xbca244dc	-0.019808225
74	0xbcc7f984	-0.02441097
75	0xbd58a15e	-0.052888267
76	0xbc0b5190	-0.008503333
77	0xbcc427ac	-0.023944698
78	0xbd570814	-0.05249794
79	0x3cfe7940	0.031063676
80	0xbd4b8eba	-0.04969666
81	0x3ceea89c	0.029133134
82	0xbd634b44	-0.0554917
83	0x3d3ff802	0.046867378
84	0xbc66aac0	-0.014078796
85	0xbd7decfe	-0.06199359
86	0xbc5b08e8	-0.013368823
87	0xbd035250	-0.03206092
88	0xbd76014a	-0.060059823
89	0xbc5e9168	-0.013584472
90	0xbd6a6c1c	-0.057232007
91	0x3ca20f8c	0.019782804
92	0x3d3bd69c	0.045858964
93	0xbd2c621e	-0.04208576
94	0x3c813e10	0.015776664
95	0x3c292400	0.0103235245
96	0xbd2a5b64	-0.041591063
97	0xbcc014cc	-0.023447417
98	0xbcf15038	-0.029457197
99	0xbd69da08	-0.057092696
100	0x3beeedf0	0.007291548
101	0xbb2bf420	-0.002623804
102	0x3d03be4e	0.03216391
103	0x3c7e5640	0.015523493
104	0x3d60faa2	0.054926522
105	0xbcdbcca8	-0.026830986
106	0xbd38e5d4	-0.045141056
107	0xbd2e2438	-0.04251501
108	0x3d06b714	0.03288944
109	0x3d3afa12	0.045648642
110	0xbced84b8	-0.02899395
111	0xbcd2d448	-0.02573599
112	0x3d520c52	0.05128128
113	0x3d4a6aa8	0.04941812
114	0xbd6d484c	-0.057930276
115	0x3d70dcc8	0.058804303
116	0xbd39742e	-0.045276813
117	0xbd4df59c	-0.05028306
118	0xbc92f7b0	-0.017940372
119	0xbd682004	-0.056671157
120	0x3d263870	0.040581167
121	0xbc9d311c	-0.019188456
122	0xbd73d1b0	-0.059526145
123	0xbd349dca	-0.044095792
124	0x3c219560	0.009862274
125	0x3c627bb0	0.013823435
126	0x3c712fb8	0.01472085
127	0xbd3669c2	-0.044534452
128	0xbcf250c0	-0.02957952
129	0x3a138e80	0.0005628839
130	0xbc0ef6d8	-0.008725844
131	0x3d26648c	0.040623233
132	0x3d5f345a	0.054493286
133	0x3d78831a	0.060671903
134	0x3c0e2ca8	0.008677639
135	0x3c9e6670	0.019335955
136	0xbcdb70f8	-0.026787266
137	0x3c834814	0.01602558
138	0x3d1f88c6	0.038948797
139	0x3d60b8c6	0.054863714
140	0xbcbf0da4	-0.023321934
141	0xbd7ae6c0	-0.061255217
142	0x3d7684e0	0.060185313
143	0xbd0554ca	-0.032551564
144	0x3cfa1954	0.030529656
145	0x3cddb9ec	0.027066194
146	0xbc6564e0	-0.014001101
147	0xbd10a9fa	-0.035318352
148	0xbd0863ec	-0.033298418
149	0xbd6b78d4	-0.057488278
150	0xbd0255a6	-0.031819962
151	0x3d5c4aa6	0.053782128
152	0x3c7eae50	0.015544489
153	0x3d2b35b0	0.041799247
154	0xbcaee7e4	-0.021350808
155	0x3d14d7d2	0.036338635
156	0x3d2f8f82	0.04286147
157	0xbd7b0c34	-0.061290935
158	0xbc333ec8	-0.010940261
159	0x3c072160	0.008247703
160	0xbcc20408	-0.023683563
161	0xbd3d4958	-0.046212524
162	0x3d26adbe	0.040693037
163	0x3b1aa140	0.0023594648
164	0xbd418b84	-0.047252193
165	0x3d6c39ca	0.0576723
166	0x3ce59850	0.02802673
167	0xbc4cee60	-0.012508005
168	0x3d318dd4	0.04334815
169	0xbd7e3944	-0.06206633
170	0x3d6dd3b8	0.05806324
171	0xbcb3b984	-0.021939047
172	0x3b3f3e00	0.0029181242
173	0xbd3b9888	-0.045799762
174	0xbd7064c4	-0.058689848
175	0xba123e80	-0.0005578771
176	0xbd4ec9b6	-0.050485335
177	0xbbf31630	-0.0074184164
178	0x3d741ba8	0.059596688
179	0xbd7eff7c	-0.062255368
180	0x3d51ed9a	0.051251985
181	0x3d5df34e	0.05418711
182	0xbd066ef2	-0.03282065
183	0xbd1c2536	-0.038121425
184	0x3d714cb6	0.058911048
185	0xbc9a0d18	-0.018805072
186	0x3c3e3d40	0.011611283
187	0x3b891400	0.0041832924
188	0x3c287678	0.010282151
189	0xbca263d4	-0.019822992
190	0xbd447ca4	-0.04797043
191	0xbcdf1494	-0.027231492
192	0x3cb6a7a4	0.022296734
193	0x3d6c3b2a	0.05767361
194	0xbcd6d6ac	-0.02622541
195	0xbd04c5d6	-0.032415234
196	0x3d021b94	0.03176458
197	0x3cc912a0	0.024545014
198	0xbb42bac0	-0.0029713362
199	0xbd34e63a	-0.044164874
200	0xbb05d200	-0.002041936
201	0x3d7dff48	0.062011033
202	0x3d75e00a	0.060028113
203	0xbcb48634	-0.02203665
204	0xbd788726	-0.060675763
205	0xbcc4b3b0	-0.024011463
206	0x3be21270	0.0068991706
207	0xbd0ddb78	-0.03463313
208	0xbd4ed6e4	-0.050497904
209	0xbb97c350	-0.0046314374
210	0xbcf76778	-0.030200705
211	0xbcb5b88c	-0.022182725
212	0xbd600b16	-0.054698072
213	0x3bf232e0	0.0073913187
214	0xbcdccfb0	-0.026954502
215	0x3ccdc714	0.025119342
216	0x3d1a04d2	0.037602253
217	0x3cab0380	0.020875692
218	0x3d5834d6	0.052784763
219	0x3ce9aeb4	0.028525688
220	0xbd6dd71a	-0.058066465
221	0x3d31b46a	0.043384947
222	0xbd4971e8	-0.049180895
223	0xbd73e4d8	-0.059544414
224	0xbd127466	-0.035755537
225	0x3cc8247c	0.02443146
226	0x3cc258e4	0.023724027
227	0xbd750f2e	-0.05982893
228	0x3d08d920	0.03341019
229	0x3d407cbe	0.046993963
230	0xba24f400	-0.00062924623
231	0x3d696234	0.05697842
232	0xbc783780	-0.015149951
233	0x3d40563e	0.046957247
234	0x3d4bb3c8	0.049732
235	0xbc30fc50	-0.0108023435
236	0x3d344b2c	0.044017002
237	0xbd4e746a	-0.05040399
238	0x3ceb301c	0.028709464
239	0x3d5e966c	0.054342672
240	0x3bd8e610	0.0066192225
241	0x3b5f9c40	0.0034120232
242	0x3d29763e	0.04137253
243	0xbd43f95c	-0.04784523
244	0xbd139448	-0.036030084
245	0xbd2cdd38	-0.04220316
246	0x3d0127fc	0.031532273
247	0xbcbee4d0	-0.023302466
248	0x3d202520	0.039097905
249	0xbd078c4a	-0.033092774
250	0xbcb4f49c	-0.022089295
251	0xbce547e0	-0.027988374
252	0x3d017a2e	0.03161066
253	0x3d1c7e0c	0.038206145
254	0xbc203498	-0.009778164
255	0x3d2880aa	0.04113833

output.bias f4 [4]
0	0x3cddf848	0.027095929
1	0xbd023cfa	-0.031796433
2	0x3d427c48	0.047481805
3	0x3d7c8e8c	0.06165938
