fetch_sticky_mittens_step_4_blocks/networks/ours_10k_block_4_uber_level_0_seed_250/network_release_and_lift_2.pth (torch, 610295 bytes, 8 tensors)

fc1.weight f4 [256, 73]
-0.0978282 -0.113273405 -0.027897613 0.078120835 0.1068561 0.032898303 0.027059715 0.11416147
0.0988239 0.008523558 -0.07404299 -0.10181522 0.091994524 0.08012026 -0.08055549 -0.05259721
-0.066693045 -0.022684483 0.10414865 0.03509003 -0.054289777 -0.101455055 -0.08406454 -0.057805024
-0.014608935 -0.09268217 -0.062155493 -0.048096742 -0.048185144 0.010829358 -0.04613505 0.013535132
-0.016924866 0.0015733973 0.10594579 0.038144223 0.1092311 0.07523243 -0.045527004 0.0019121056
0.02193563 0.016482783 -0.0641154 0.047771845 -0.07774163 0.10683641 0.04838136 -0.043926526
0.022985896 0.049777016 -0.08359312 -0.055651598 0.0189147 -0.025180748 0.06649622 0.114917345
-0.008743322 0.06287739 0.01349234 0.08358373 -0.07408978 0.096950635 0.07450699 0.07326823
0.02089149 0.041953698 -0.018358124 0.06953441 0.03205262 -0.041974306 -0.08472251 0.041494776
-0.08877953 -0.05835249 -0.01627947 -0.095036775 0.031026492 -0.08972754 -0.06297895 -0.034579217
0.02440558 0.09503884 -0.05439865 0.10487462 0.017436834 -0.10972696 -0.048007976 -0.060722668
0.100138135 -0.082477205 0.10601372 -0.026322206 -0.0010710694 -0.0014667871 0.09860115 0.07162116
-0.047470544 -0.037585303 -0.10136095 0.108553976 -0.07853042 -0.08140141 0.11513444 0.083076864
0.094113715 -0.094875105 -0.0011260557 -0.022980956 -0.057764955 0.045037847 0.045859978 -0.028881758
0.037027303 -0.014030889 -0.03617724 0.000321491 -0.046007607 -0.0861162 0.09116189 -0.07956783
0.10194096 0.00509353 0.045948047 -0.047828995 -0.07725258 0.0773508 0.09293896 0.041436207
-0.07071544 -0.060135785 0.03339028 0.054045234 -0.072248556 -0.017788254 0.088316254 -0.043283768
0.029463615 0.020475777 -0.038021676 0.016216991 0.055395894 0.04271874 -0.056988254 0.1163112
0.012517584 0.10812678 -0.06453972 0.0013561725 0.029847376 0.058681976 0.0824552 -0.09193775
0.0908263 0.016590161 0.018619817 0.040503334 0.00251983 -0.116617985 0.016389247 -0.025600728
-0.11436564 0.08785481 -0.057210054 0.06569783 0.06406327 -0.061858866 -0.03273594 -0.059979156
0.082992606 -0.0933524 0.08814679 0.09651739 0.06361117 0.0049838084 -0.09259132 0.05965856
-0.07821219 -0.062052093 -0.012328459 -0.116719306 -0.013797283 -0.080210574 0.032371685 0.09722295
0.07962047 -0.025404166 -0.009267304 0.019521086 -0.07486912 0.002248149 0.06960684 -0.08166776
-0.045246534 0.10658275 0.012946578 -0.06396498 -0.0045731757 -0.038094703 -0.09827183 0.09738561
0.02374054 0.005862 0.08690296 -0.03628741 -0.0074931043 0.00386032 -0.106351785 -0.03149984
-0.07552427 0.0843327 -0.058966044 0.103082 0.0047663325 0.030920664 -0.058638025 0.033706803
-0.08590482 -0.109483935 -0.028671635 -0.08265525 -0.018093755 -0.103999265 -0.091389135 -0.048971947
-0.032802604 -0.028209755 0.02380938 0.06538823 -0.09370043 0.03323154 0.07912544 -0.09645318
-0.115114614 -0.104125015 -0.10432148 -0.011705639 0.06021942 0.023196898 0.048386462 0.064062074
0.050053593 -0.057241447 0.01181522 0.021629374 -0.04699061 -0.0730276 -0.00950536 0.10290338
-0.043234333 0.11354254 -0.10493868 0.066743836 -0.031961106 -0.022262814 0.01703216 0.055959165
00000000: 275a c8bd e3fb e7bd 8989 e4bc d1fd 9f3d
00000010: 5fd7 da3d 5fc0 063d 56ac dd3c 7dcd e93d
00000020: 2f64 ca3d 65a6 0b3c daa3 97bd 8084 d0bd
00000030: a067 bc3d 1716 a43d 47fa a4bd 2c70 57bd
00000040: 5d96 88bd cfd4 b9bc e34b d53d 90ba 0f3d
00000050: f55e 5ebd abc7 cfbd 082a acbd f6c4 6cbd
00000060: 515a 6fbc 26d0 bdbd c296 7ebd 1701 45bd
00000070: c95d 45bd 9f6d 313c 1bf8 3cbd 75c2 5d3c
00000080: 04a6 8abc 743a ce3a 1bfa d83d 1e3d 1c3d
00000090: 8eb4 df3d 7613 9a3d 867a 3abd 9e9f fa3a
000000a0: 5ab2 b33c e706 873c ef4e 83bd 69ac 433d
000000b0: 0137 9fbd 0ccd da3d 882b 463d 4dec 33bd
000000c0: eb4c bc3c fce2 4b3d df32 abbd eef2 63bd
000000d0: 00f3 9a3c db47 cebc 2c2f 883d c959 eb3d
000000e0: 2740 0fbc dcc5 803d fa0e 5d3c f22d ab3d
000000f0: 62bc 97bd 0e8e c63d 1f97 983d a70d 963d
00000100: a124 ab3c a4d7 2b3d c763 96bc 0f68 8e3d
00000110: 9c49 033d 40ed 2bbd ff82 adbd 6df6 293d
00000120: 0bd2 b5bd 0503 6fbd 865c 85bc a4a2 c2bd
00000130: 452b fe3c 13c3 b7bd 1cfb 80bd f0a2 0dbd
00000140: 36ee c73c b9a3 c23d 1ed1 5ebd 81c8 d63d
00000150: b1d7 8e3c 87b8 e0bd 03a4 44bd 55b8 78bd
00000160: 3915 cd3d cfe9 a8bd b91d d93d aba1 d7bc
00000170: 2063 8cba 3541 c0ba 66ef c93d 1dae 923d
00000180: 7970 42bd 0cf3 19bd 5496 cfbd 8c51 de3d
00000190: 8fd4 a0bd c8b5 a6bd 9bcb eb3d 3424 aa3d
000001a0: b1be c03d e14d c2bd 2998 93ba 8f42 bcbc
000001b0: f29a 6cbd 9b79 383d acd7 3b3d 7099 ecbc
000001c0: f1a9 173d d0e1 65bc 962e 14bd cb8d a839
000001d0: 7972 3cbd b15d b0bd 16b3 ba3d 75f4 a2bd
000001e0: 6cc6 d03d a0e7 a63b 0534 3c3d 56e8 43bd
000001f0: 9a36 9ebd 196a 9e3d c856 be3d 03b9 293d
00000200: 42d3 90bd f150 76bd 3fc4 083d 895e 5d3d
00000210: 0df7 93bd acb8 91bc 27df b43d 524a 31bd
00000220: ae5d f13c d1bc a73c 9ebc 1bbd 7fd9 843c
00000230: cee6 623d d8f9 2e3d 846c 69bd 9134 ee3d
00000240: 8d16 4d3c 9371 dd3d 672d 84bd 99c1 b13a
00000250: 7c82 f43c 835c 703d 46de a83d dc49 bcbd
00000260: 2403 ba3d 17e8 873c 9688 983c d3e6 253d
00000270: bb23 253b 69d5 eebd be42 863c 9eb8 d1bc
00000280: 8838 eabd 39ed b33d 1755 6abd 958c 863d
00000290: 9b33 833d b95f 7dbd 1f16 06bd b4ac 75bd
000002a0: 07f8 a93d 8b2f bfbd 4e86 b43d e9aa c53d
000002b0: 9346 823d 374f a33b 85a0 bdbd 895c 743d
000002c0: b62d a0bd 562a 7ebd 4efd 49bc 880a efbd
000002d0: 000e 62bc 7145 a4bd 2c98 043d d31c c73d
000002e0: 0f10 a33d 661c d0bc e4d5 17bc afea 9f3c
000002f0: fb54 99bd ae55 133b 088e 8e3d 6d41 a7bd
00000300: 6e54 39bd 0f48 da3d e21d 543c 1200 83bd
00000310: 94da 95bb 3109 1cbd be42 c9bd 1b72 c73d
00000320: 857b c23c 0516 c03b 2efa b13d 1ba2 14bd
00000330: b788 f5bb 6cfd 7c3b f7ce d9bd fa05 01bd
00000340: 78ac 9abd 9fb6 ac3d 6186 71bd a81c d33d
00000350: e52e 9c3b 554d fd3c 6d2e 70bd 2510 0a3d
00000360: deee afbd 1d39 e0bd c7e0 eabc 2847 a9bd
00000370: 5b39 94bc 91fd d4bd 3a2a bbbd cf96 48bd
00000380: 065c 06bd 2518 e7bc e40b c33c 44ea 853d
00000390: 03e6 bfbd cc1d 083d 850c a23d 3f89 c5bd
000003a0: 36c1 ebbd 7f3f d5bd 80a6 d5bd 02c9 3fbc
000003b0: a3a8 763d 6c07 be3c e230 463d fa32 833d
000003c0: ff04 4d3d 0276 6abd a094 413c 1630 b13c
000003d0: 3a79 40bd 7f8f 95bd 5fbc 1bbc 02bf d23d
000003e0: 7c16 31bd fe88 e83d 17ea d6bd feb0 883d
000003f0: a6e9 02bd 8160 b6bc 0787 8b3c 7035 653d

fc1.bias f4 [256]
0.0908527 0.11319224 -0.05844865 0.07733321 0.10591879 0.077584185 0.097047746 0.06497527
0.04492744 0.042997506 0.02255499 0.078137055 -0.03788005 0.015944919 0.088287555 -0.06695092
-0.0180572 -0.0056260093 -0.047158208 -0.045171957 0.03359573 0.03816466 -0.014619121 0.021224393
0.07021833 -0.0032963643 0.0049024383 0.10223968 -0.03855982 -0.053728152 0.038158424 -0.002403425
-0.08152226 -0.049691807 0.09913575 -0.0061609857 0.10089911 -0.025009984 -0.014862311 0.06704469
0.05034655 -0.004507083 0.041475996 -0.10686445 0.039201576 0.0016808447 0.066117175 0.103429556
0.0018737923 -0.10405606 0.035858665 -0.027724616 -0.030973598 -0.08089413 -0.09793904 0.0290355
-0.10071848 0.051797725 0.10200528 0.07304747 0.050866738 0.0143460445 0.062332563 0.05785263
0.058591884 0.09600792 -0.017661551 0.09554044 -0.020387026 0.10807277 0.034800686 -0.009462833
-0.009138343 0.06252727 0.11176604 0.014072787 0.016290186 0.058602348 0.028706167 0.071170904
0.03595541 -0.0004792228 -0.08502143 0.008452694 -0.057483494 0.110940784 0.038551535 0.102146715
0.046001706 0.09008674 0.04194364 0.09844964 0.014239644 -0.07483378 -0.05619795 0.10129974
-0.03321011 -0.053289834 0.078824095 0.07948022 -0.058831114 -0.07919862 0.08539388 0.111387126
-0.10245286 0.06066069 0.11248299 0.009879759 0.060522743 0.0707173 -0.062369928 -0.049405646
0.08107869 0.046833895 -0.07805488 0.007936693 0.00531162 -0.027224032 0.059737153 -0.09533347
0.05220441 -0.022355458 -0.049732506 0.04506024 0.012085018 0.11078582 0.049852178 0.10971921
0.03184148 0.07667163 0.01196846 -0.021454664 -0.0024955526 0.026714422 -0.078649916 -0.058519
0.059097186 0.077266656 -0.09374501 -0.04179912 0.07981077 -0.10920585 -0.06311447 0.070655555
0.017671151 0.10787942 -0.07863048 0.06289783 0.074982695 0.0901413 0.060861103 0.012469769
-0.00669779 -0.10769991 -0.1111207 -0.006100265 0.11356587 0.04234498 0.0056178053 0.07467753
-0.01070235 -0.09336458 0.078023 0.07696802 0.02411198 0.015770892 -0.06408783 0.035087097
-0.02234643 -0.042483263 0.09362326 -0.08270035 0.0920646 0.09752146 0.084374174 -0.08826607
-0.052309528 -0.052091982 -0.009486036 0.09642593 0.06863751 -0.012364736 -0.085326105 0.08825431
-0.08566186 0.031274218 0.07106206 -0.116534494 -0.06007508 -0.11371621 0.047046226 0.00048093896
0.09619694 0.047349174 0.1002435 0.050366156 0.07258192 -0.079403065 0.055667672 0.04190912
-0.0688563 -0.062393438 0.06259844 -0.035596516 0.019595452 -0.029432906 -0.05675772 0.09851465
-0.08455045 0.06474676 0.08873148 -0.030258832 0.045341816 -0.031078506 0.051980585 0.060433853
0.008039187 -0.0916995 -0.10263364 -0.10525696 0.09030016 0.039968483 0.023290658 -0.010757113
0.013233593 0.057693142 -0.028649367 0.070654914 -0.07179019 -0.052779138 0.11418438 0.082741484
-0.06399233 0.07129494 0.11208582 -0.064182095 0.06474521 0.11396088 0.01371156 0.009560123
0.09655078 0.023535425 0.071812935 -0.064587325 -0.0026441736 0.09646451 -0.07902801 -0.09889827
0.018264867 -0.10391894 0.0062190276 -0.078150906 0.009521475 0.06485224 -0.110972196 -0.08802317
00000000: fb10 ba3d 55d1 e73d da67 6fbd e060 9e3d
00000010: f3eb d83d 75e4 9e3d f8c0 c63d c111 853d
00000020: d605 383d 271e 303d 3ec5 b83c 5206 a03d
00000030: 1c28 1bbd eb9e 823c 1bd0 b43d 901d 89bd
00000040: b1ec 93bc 635a b8bb f728 41bd 3b06 39bd
00000050: ad9b 093d 8c52 1c3d 0a85 6fbc c7de ad3c
00000060: a1ce 8f3d d107 58bb a2a4 a03b 0a63 d13d
00000070: e7f0 1dbd 0d12 5cbd 024c 1c3d c882 1dbb
00000080: 25f5 a6bd a389 4bbd af07 cb3d 18e2 c9bb
00000090: 31a4 ce3d bde1 ccbc 0d81 73bc ba4e 893d
000000a0: 2f38 4e3d 27b0 93bb bce2 293d c0db dabd
000000b0: d591 203d ca4f dc3a 7168 873d e0d2 d33d
000000c0: 099a f53a 581b d5bd 89e0 123d bc1e e3bc
000000d0: 58bc fdbc d2ab a5bd 4394 c8bd dbdb ed3c
000000e0: 7e45 cebd da29 543d 25e8 d03d e999 953d
000000f0: a459 503d ac0b 6b3c 6e50 7f3d e1f6 6c3d
00000100: 0bfe 6f3d cd9f c43d f5ae 90bc b5aa c33d
00000110: b102 a7bc 4255 dd3d 2a8b 0e3d 000a 1bbc
00000120: fdb8 15bc 4c0e 803d 98e5 e43d 8c91 663c
00000130: ff72 853c 0409 703d 3229 eb3c 0dc2 913d
00000140: fb45 133d 3240 fbb9 b71f aebd 2b7d 0a3c
00000150: d073 6bbd ec34 e33d 37e8 1d3d 4c32 d13d
00000160: 496c 3c3d 667f b83d 18cd 2b3d f79f c93d
00000170: 654d 693c 7442 99bd d22f 66bd 3d76 cf3d
00000180: 5307 08bd 7146 5abd 876e a13d 87c6 a23d
00000190: e5f8 70bd e332 a2bd fde2 ae3d ef1e e43d
000001a0: ced2 d1bd 5877 783d 7b5d e63d b6de 213c
000001b0: b2e6 773d 3bd4 903d 9c77 7fbd 935d 4abd
000001c0: 960c a63d e6d4 3f3d 3ddb 9fbd e708 023c
000001d0: 190d ae3b ef04 dfbc f2ae 743d 323e c3bd
000001e0: 4bd4 553d cb22 b7bc 50b4 4bbd 1691 383d
000001f0: 3d00 463c ade3 e23d cc31 4c3d 77b4 e03d
00000200: 366c 023d 0406 9d3d 5c17 443c b1c1 afbc
00000210: 6d8c 23bb 34d8 da3c 3513 a1bd 9eb1 6fbd
00000220: e40f 723d fb3d 9e3d 62fd bfbd 8e35 2bbd
00000230: d473 a33d 51a7 dfbd 2942 81bd dcb3 903d
00000240: 17c3 903c e3ef dc3d 0409 a1bd 94d0 803d
00000250: 8790 993d 009c b83d 7e49 793d 014e 4c3c
00000260: 2379 dbbb c591 dcbd 4093 e3bd bbe4 c7bb
00000270: 3995 e83d ee71 2d3d 9115 b83b 88f0 983d
00000280: e958 2fbc ee35 bfbd 86ca 9f3d 69a1 9d3d
00000290: 7d86 c53c f531 813c 7b40 83bd 7db7 0f3d
000002a0: dc0f b7bc ee02 2ebd 8dbd bf3d cd5e a9bd
000002b0: 5d8c bc3d 55b9 c73d 5ecc ac3d d7c4 b4bd
000002c0: 8442 56bd 675e 55bd 526b 1bbc f57a c53d
000002d0: d391 8c3d 7695 4abc 74bf aebd adbe b43d
000002e0: 7c6f afbd 6519 003d fc88 913d a3a9 eebd
000002f0: 4911 76bd 0be4 e8bd 8bb3 403d 8926 fc39
00000300: e702 c53d 35f1 413d 774c cd3d be4c 4e3d
00000310: d4a5 943d 139e a2bd c903 643d e6a8 2b3d
00000320: 8804 8dbd 4390 7fbd 9c33 803d a7cd 11bd
00000330: a486 a03c 471d f1bc c87a 68bd 0cc2 c93d
00000340: c928 adbd f399 843d dab8 b53d 5fe1 f7bc
00000350: 57b8 393d 5a98 febc 98e9 543d 7d89 773d
00000360: cbb6 033c f3cc bbbd 9631 d2bd f690 d7bd
00000370: 4aef b83d feb5 233d 0dcc be3c 9a3e 30bc
00000380: b6d1 583c a54f 6c3d 14b2 eabc 86b3 903d
00000390: bc06 93bd f02e 58bd 80d9 e93d 5e74 a93d
000003a0: 690e 83bd 1503 923d 408d e53d e771 83bd
000003b0: 2399 843d 5264 e93d 73a6 603c 10a2 1c3c
000003c0: 6abc c53d 5dcd c03c a912 933d 5c46 84bd
000003d0: df49 2dbb 2f8f c53d 70d9 a1bd 2d8b cabd
000003e0: 34a0 953c 74d3 d4bd fcc8 cb3b 950d a0bd
000003f0: f6ff 1b3c 40d1 843d 6445 e3bd 7e45 b4bd

fc2.weight f4 [256, 256]
-0.004339494 0.028924651 0.009682775 0.060557336 0.045043625 -0.031588264 0.0375233 -0.0112825185
0.060470216 -0.044478737 -0.014165953 -0.026698261 0.050170414 -0.03390585 0.0588916 0.04981392
-0.018456012 0.028064035 -0.046708822 0.02926752 0.010524251 -0.035671808 -0.0033133328 -0.034638725
-0.036733814 0.06225194 -0.028608851 -0.012725063 0.04092832 0.04414852 0.0525444 -0.033449605
0.058411025 -0.026920915 0.00034811348 -0.054794185 -0.05901128 -0.026195116 -0.028448954 -0.03265009
0.012242384 -0.034685448 0.030420803 -0.051658332 0.024348468 -0.018306665 -0.01189512 -0.033180796
-0.010982208 -0.013875604 0.054488406 0.0471956 0.0010547265 0.022083499 -0.027706705 0.012873083
-0.03662338 -0.05367121 0.05670262 0.028355815 0.008741535 -0.060518004 0.0026481524 -0.0073441043
0.019838788 -0.0275409 0.031286947 -0.029684901 -0.0565134 -0.020395234 -0.057275847 0.044864595
0.057063036 -0.06233202 0.05221536 0.036223352 -0.046664074 -0.015619166 -0.00039622188 0.048387535
0.03922148 0.060454234 0.008678719 -0.0073304847 0.030290745 0.052161463 -0.015449114 -0.0044068694
0.061581142 0.016005844 -0.008909091 0.052663125 0.008597724 0.012517035 -0.005642198 -0.016378812
0.036926836 0.0008874908 0.004710488 -0.058429375 -0.03165137 0.061646454 -0.057919815 0.046389855
-0.01656238 -0.008468784 -0.0020176396 0.002979353 0.032509312 -0.061776787 0.04673481 0.02405566
0.009809874 0.004248716 0.056103952 -0.008439079 0.007987924 0.024907403 0.042384468 -0.044062264
0.009835683 -0.04092648 -0.00522615 -0.053127825 -0.05268441 0.060419835 0.03867972 -0.041492708
-0.022721767 0.0020907447 -0.045638345 0.057449684 0.04311163 -0.042463914 -0.04460801 0.045885786
-0.028831989 0.061193608 0.032830983 -0.054427557 0.0008069873 -0.035669208 -0.041806437 0.0072742105
0.023330435 -0.0023270473 0.059443906 0.0505844 -0.060469083 0.0071851164 0.037989438 -0.009418316
0.05432482 0.057327993 0.001871258 -0.0571936 0.02272436 -0.04321132 -0.014549054 0.05603052
0.017828792 -0.005983576 0.046602786 0.011675134 -0.025391243 0.054706953 -0.046755508 0.03988675
0.04450979 -0.061135374 -0.019494332 0.05801309 0.04889658 0.059004568 0.021591872 -0.04116212
0.022073306 -0.062143773 0.061281137 -0.012795694 -0.04789409 0.023443155 0.045194134 0.008993544
0.051473968 -0.033836395 -0.002964221 0.0520422 5.6765974e-05 -0.06230536 0.042766348 0.038922638
-0.061737537 -0.027114764 0.01928451 0.016055383 -0.023528315 0.029065698 -0.0040062293 -0.03662926
0.013778277 -0.025986403 -0.03989379 -0.05954556 0.045000695 -0.0221299 0.008375756 0.008790977
-0.02468051 -0.044378594 0.04864099 0.02251853 -0.056345195 0.057951897 0.027320921 -0.035032883
-0.023162961 0.026561536 0.056425236 -0.015450336 -0.016150944 -0.051204026 -0.016385138 0.0067074224
-0.058296017 0.031987518 -0.00984402 0.011752479 0.005799584 -0.0032204613 0.05133374 0.029141434
-0.061544046 0.0014146939 -0.050120436 0.031834565 0.042791404 0.03052862 -0.036529325 0.03949114
-0.052620932 -0.0528514 -0.056806564 -0.016778797 0.013966814 -0.046709746 0.0008186698 -0.056486398
0.039739087 0.006113909 0.03717605 -0.046457805 0.012930706 0.031505346 -0.010791808 0.004917994
00000000: 5032 8ebb 64f3 ec3c 80a4 1e3c f80a 783d
00000010: aa7f 383d b262 01bd 08b2 193d 50da 38bc
00000020: 9eaf 773d 562f 36bd 5018 68bc 50b6 dabc
00000030: 7e7f 4d3d dce0 0abd 5238 713d ae09 4c3d
00000040: 1031 97bc 8ce6 e53c c051 3fbd 70c2 ef3c
00000050: e86d 2c3c 9a1c 12bd 8024 59bb 56e1 0dbd
00000060: 3276 16bd e4fb 7e3d 1c5d eabc c87c 50bc
00000070: 74a4 273d 14d5 343d cc38 573d 7402 09bd
00000080: 6640 6f3d 4089 dcbc 0083 b639 de6f 60bd
00000090: d0b5 71bd 2497 d6bc c80d e9bc 1abc 05bd
000000a0: 4894 483c 5412 0ebd 0c35 f93c b097 53bd
000000b0: 7076 c73c dcf7 95bc c0e3 42bc 96e8 07bd
000000c0: b8ee 33bc 8056 63bc 3c2f 5f3d 2c50 413d
000000d0: c03e 8a3a 74e8 b43c 2cf9 e2bc a0e9 523c
000000e0: 6602 16bd 58d6 5bbd 0241 683d 744a e83c
000000f0: a838 0f3c bae1 77bd a08c 2d3b d0a6 f0bb
00000100: f484 a23c 749d e1bc be26 003d c02d f3bc
00000110: 987a 67bd e813 a7bc 149a 6abd f0c3 373d
00000120: eeba 693d dc4f 7fbd c6df 553d f05e 143d
00000130: d422 3fbd 88e7 7fbc 00bc cfb9 0232 463d
00000140: b4a6 203d dc9e 773d 3031 0e3c 9034 f0bb
00000150: 4c24 f83c 42a7 553d 481e 7dbc 8067 90bb
00000160: 823c 7c3d b01e 833c 70f7 11bc 4ab5 573d
00000170: 78dd 0c3c 4014 4d3c 30e2 b8bb dc2c 86bc
00000180: 9840 173d 80a6 683a 705a 9a3b a453 6fbd
00000190: dea4 01bd fe80 7c3d 543d 6dbd 4a03 3e3d
000001a0: d4ad 87bc a8c0 0abc 603a 04bb 4041 433b
000001b0: 7c28 053d a809 7dbd 006d 3f3d 6010 c53c
000001c0: 98b9 203c d038 8b3b 42cd 653d 1044 0abc
000001d0: c8df 023c 9c0a cc3c 569b 2d3d a27a 34bd
000001e0: d825 213c 86a2 27bd 2040 abbb 909c 59bd
000001f0: 9ccb 57bd ca7a 773d a06e 1e3d 42f4 29bd
00000200: 0023 babc e004 093b 46ef 3abd 5c50 6b3d
00000210: d295 303d a4ee 2dbd e4b6 36bd bcf2 3b3d
00000220: 1031 ecbc 26a6 7a3d c879 063d 6eef 5ebd
00000230: 008c 533a e019 12bd 3a3d 2bbd 805c ee3b
00000240: 781f bf3c 6081 18bb 747b 733d 9631 4f3d
00000250: 6eae 77bd 2071 eb3b d09a 1b3d 484f 1abc
00000260: b483 5e3d c2d0 6a3d 0045 f53a d643 6abd
00000270: 7028 ba3c 5afe 30bd 285f 6ebc 4280 653d
00000280: b00d 923c e011 c4bb 90e2 3e3d 1049 3f3c
00000290: 4c01 d0bc 6614 603d b482 3fbd 4a60 233d
000002a0: e64f 363d 1669 7abd 94b2 9fbc 229f 6d3d
000002b0: c847 483d c6ae 713d 70e1 b03c 9c99 28bd
000002c0: 14d3 b43c 788a 7ebd ee01 7b3d 08a5 51bc
000002d0: 982c 44bd dc0b c03c 7c1d 393d a859 133c
000002e0: 5ed6 523d 0898 0abd 6043 42bb 342a 553d
000002f0: 0018 6e38 e833 7fbd c42b 2f3d 586d 1f3d
00000300: 80e0 7cbd c81f debc 8cfa 9d3c 9486 833c
00000310: 74be c0bc 301b ee3c b046 83bb 9008 16bd
00000320: 48be 613c 70e1 d4bc ac67 23bd 0ce6 73bd
00000330: a652 383d c449 b5bc 783a 093c 0808 103c
00000340: c82e cabc 54c6 35bd c63b 473d c878 b83c
00000350: 38ca 66bd f85e 6d3d 20d0 df3c a47e 0fbd
00000360: 40c0 bdbc 9497 d93c 261e 673d 6823 7dbc
00000370: fc4e 84bc 50bb 51bd 203a 86bc f0c9 db3b
00000380: cec7 6ebd 5805 033d d048 21bc 788d 403c
00000390: 700a be3b 600e 53bb 5443 523d 04ba ee3c
000003a0: 9c15 7cbd 406d b93a 164b 4dbd f664 023d
000003b0: 0a46 2f3d 2817 fa3c c69f 15bd 76c1 213d
000003c0: 0c89 57bd b67a 58bd 00ae 68bd b073 89bc
000003d0: 10d5 643c b852 3fbd 009c 563a 485e 67bd
000003e0: 74c5 223d 3057 c83b ea45 183d 8a4a 3ebd
000003f0: 50db 533c c00b 013d 20d0 30bc 2027 a13b

fc2.bias f4 [256]
0.030522056 0.047422826 0.006427489 0.038203396 -0.042676277 0.018675089 0.057080023 -0.05087378
-0.023157507 -0.018540509 0.0027972534 -0.01639238 -0.03626585 -0.018618762 0.024458043 0.048323877
-0.006996192 0.02790206 -0.0599629 0.018704489 -0.0585858 0.0011853725 0.026937276 0.026723377
0.059823006 -0.0306542 -0.021435633 -0.04410346 0.0060606226 -0.045954913 0.0019257516 -0.0018070489
0.037316956 0.061424196 0.051699862 -0.061091527 0.04968825 -0.0227205 0.05183193 -0.002323553
0.014072217 -0.032762453 -0.053720847 0.021756582 0.052825868 0.02191563 0.041099094 -0.041632578
-0.01398018 -0.04124605 -0.042160846 -0.007888459 0.010010518 -0.03698071 0.03523428 -0.05832109
-0.013920508 -0.020563044 0.0020470247 0.051132225 -0.05175904 0.035495594 -0.032654025 0.043088093
-0.03223703 -0.005465694 0.020901874 0.053384557 -0.052048407 0.009264424 0.023179762 -0.0012010187
-0.0092800185 0.011181705 -0.057996765 -0.05126752 0.040351056 0.018067986 0.020580567 -0.038481176
-0.042892285 -0.053276718 0.009551503 0.042743452 0.049904503 0.055107854 -0.019670911 -0.029809989
-0.044843353 0.0352536 -0.01472877 -0.025455475 0.06060952 -0.038459025 0.04733993 -0.009515487
-0.06040065 -0.04783448 -0.023717292 -0.0147506595 0.00036646426 -0.015618205 0.03990727 0.023048319
0.007224761 -0.027528413 0.05521918 0.035773546 0.015699707 -0.030360512 -0.061104245 -0.047217533
0.059346713 -0.034440897 0.045797437 0.0036485046 -0.026560172 -0.021245778 0.036797203 0.008803949
0.010590635 0.03393545 0.0147995725 0.0032382905 -0.009734131 0.038321666 0.050677463 0.058854245
0.012609579 -0.050597087 0.060043663 -0.032864057 0.061320864 -0.0027493685 0.026406795 0.019618474
-0.009331755 -0.006297186 -0.039837316 -0.048313014 0.058629736 0.009737939 -0.04854115 0.0324947
-0.032556288 0.011469305 0.056451127 0.010105558 0.041512623 0.056711487 0.036431246 0.019558184
0.043451317 -0.017826885 0.011064082 -0.045032144 -0.050772257 -0.015014589 0.0430075 0.05246012
0.04119114 0.04955952 -0.027651064 -0.032128602 0.055329368 -0.03775876 -0.02646242 -0.031643517
0.01410795 0.016197726 -0.044892967 -0.009574965 -0.0074681044 -0.05183384 -0.011600964 0.02506338
0.03707228 0.010589369 0.029711254 0.032375425 -0.0304166 0.062492706 -0.023835965 0.026594311
-0.03939558 -0.055661693 0.02764918 -0.027519949 0.024663806 -0.0009543076 -0.031195037 0.007190831
0.041690648 0.0002085194 -0.029743351 0.0059828907 0.03253959 0.019103117 -0.05790226 0.038979508
-0.04719375 0.037553243 0.060730986 -0.016306445 0.062471226 -0.032690957 0.012751386 -0.05700907
-0.03731139 -0.015727624 0.0060808063 0.019012265 -0.058722787 0.03053809 0.024450354 -0.04421866
0.04842093 -0.028876014 -0.025822043 0.015866473 -0.060324825 0.045063198 0.04087933 -0.05761119
0.019215956 -0.019503132 -0.031043656 0.015229322 -0.03306976 0.04326751 0.02025991 -0.001210466
0.03238205 -0.011798039 -0.03603545 -0.053655237 -0.06214097 0.034776278 -0.023418896 -0.029806726
-0.014624536 -0.021041863 0.059816383 -0.06193927 -0.051956877 -0.037552297 -0.03885915 -0.021544322
0.028760552 0.007663384 -0.050100528 0.04336168 -0.006428458 -0.018249169 -0.020131774 -0.006839685
00000000: 6409 fa3c 703e 423d b09d d23b 2a7b 1c3d
00000010: 52cd 2ebd 80fc 983c becc 693d 0661 50bd
00000020: d0b4 bdbc 44e2 97bc 2052 373b 5049 86bc
00000030: 808b 14bd 6086 98bc 3c5c c83c 42ef 453d
00000040: 5040 e5bb dc92 e43c a89b 75bd 283a 993c
00000050: aaf7 6fbd 805e 9b3a 90ab dc3c fcea da3c
00000060: f808 753d 841e fbbc c899 afbc d4a5 34bd
00000070: 3098 c63b 383b 3cbd 8069 fc3a 80da ecba
00000080: aad9 183d f097 7b3d 3cc3 533d 1c3b 7abd
00000090: e885 4b3d 5820 babc b84d 543d c046 18bb
000000a0: 288f 663c ec31 06bd 640a 5cbd dc3a b23c
000000b0: f05f 583d 6888 b33c 8657 283d ec86 2abd
000000c0: 200d 65bc 9ef1 28bd dab0 2cbd 983e 01bc
000000d0: 2803 243c 1679 17bd d251 103d 18e2 6ebd
000000e0: d812 64bc d473 a8bc 6027 063b 0670 513d
000000f0: 4a01 54bd d463 113d 3ac0 05bd 247d 303d
00000100: fa0a 04bd 9019 b3bb 683a ab3c c4a9 5a3d
00000110: b630 55bd d0c9 173c 7ce3 bd3c 806b 9dba
00000120: 380b 18bc 7833 373c 048e 6dbd e4fd 51bd
00000130: 2647 253d 5003 943c 9498 a83c 709e 1dbd
00000140: d2af 2fbd b038 5abd e87d 1c3c c213 2f3d
00000150: aa68 4c3d c6b8 613d e424 a1bc 1434 f4bc
00000160: aaad 37bd 1466 103d f050 71bc 0088 d0bc
00000170: b041 783d 3687 1dbd 84e7 413d d8e6 1bbc
00000180: ac66 77bd 16ee 43bd c44a c2bc c0ac 71bc
00000190: 0022 c039 80e3 7fbc ce75 233d d4cf bc3c
000001a0: b0bd ec3b 4483 e1bc 822d 623d 4887 123d
000001b0: ac9c 803c 9cb6 f8bc 7248 7abd 2c67 41bd
000001c0: 8a15 733d e611 0dbd 1896 3b3d c01b 6f3b
000001d0: b894 d9bc a00b aebc aab8 163d 703e 103c
000001e0: 5884 2d3c e6ff 0a3d e879 723c 8039 543b
000001f0: e87b 1fbc 2ef7 1c3d 2c93 4f3d 2611 713d
00000200: 6898 4e3c e43e 4fbd 58f0 753d 769c 06bd
00000210: 962b 7b3d c02e 34bb 1053 d83c ecb6 a03c
00000220: 38e4 18bc a058 cebb 742c 23bd dee3 45bd
00000230: bc25 703d e08b 1f3c 16d3 46bd 2a19 053d
00000240: be59 05bd c0e9 3b3c 4c39 673d c891 253c
00000250: 2409 2a3d 4e4a 683d ee38 153d 7c38 a03c
00000260: 02fa 313d b009 92bc 2046 353c a073 38bd
00000270: 92f6 4fbd c0ff 75bc a228 303d 6ce0 563d
00000280: 0ab8 283d ecfe 4a3d 7c84 e2bc 4899 03bd
00000290: 0ca1 623d eea8 1abd b8c7 d8bc a29c 01bd
000002a0: 0825 673c 18b1 843c b0e1 37bd 50e0 1cbc
000002b0: 00b7 f4bb b84f 54bd f811 3ebc b851 cd3c
000002c0: 1ad9 173d 087f 2d3c 0465 f33c 189c 043d
000002d0: 3c2c f9bc 5af8 7f3d a443 c3bc 50dc d93c
000002e0: 425d 21bd 84fd 63bd 8880 e23c 8471 e1bc
000002f0: c00b ca3c 802a 7aba bc8c ffbc 10a1 eb3b
00000300: d0c3 2a3d 00a6 5a39 54a8 f3bc 200c c43b
00000310: 3c48 053d 247e 9c3c ec2a 6dbd faa8 1f3d
00000320: 3c4e 41bd 6ed1 193d 0ec1 783d 1895 85bc
00000330: d4e1 7f3d f4e6 05bd 30eb 503c 5882 69bd
00000340: d4d3 18bd 38d7 80bc 8041 c73b 9cbf 9b3c
00000350: 4e87 70bd 042b fa3c 1c4c c83c a01e 35bd
00000360: 0655 463d 648d ecbc c088 d3bc 68fa 813c
00000370: 2a17 77bd 3094 383d 1671 273d b6f9 6bbd
00000380: c86a 9d3c 08c5 9fbc 444f febc 6884 793c
00000390: 2874 07bd 4639 313d 1cf8 a53c 80a8 9eba
000003a0: 0aa3 043d 904c 41bc e899 13bd 98c5 5bbd
000003b0: 8887 7ebd 9271 0e3d fcd8 bfbc 3c2d f4bc
000003c0: c09b 6fbc fc5f acbc 0602 753d 08b4 7dbd
000003d0: bcd0 54bd 70d0 19bd c62a 1fbd b87d b0bc
000003e0: 409b eb3c 201d fb3b 3636 4dbd 049c 313d
000003f0: d0a5 d2bb 487f 95bc 64eb a4bc 701f e0bb

fc3.weight f4 [256, 256]
-0.021476068 0.045657575 0.05868145 0.012880847 0.025661081 -0.0012409166 -0.027781993 0.054110862
0.044495128 -0.01869879 0.04463213 0.01940336 0.031406574 0.0044015273 -0.03189145 0.062169015
0.010584898 0.023138925 0.023375973 -0.03671836 0.010205582 0.054923207 -0.006055467 -0.04638365
0.040336356 0.004411161 0.008917734 -0.04928726 0.050297827 -0.044347793 -0.03404934 -0.0032047927
0.046045408 -0.03708519 0.03662596 -0.039498456 -0.025004067 -0.061199218 -0.05858372 0.0058432445
0.013291016 -0.05547218 -0.04915554 -0.050800487 -0.040059336 -0.010737218 -0.008378245 0.040614747
0.046982735 0.018625885 -0.041633114 -0.03900493 -0.016753651 0.059593447 0.044656582 0.00844685
-0.025950767 0.00016569346 -0.043233298 0.041830435 -0.05966641 0.04580094 0.059985608 0.018634021
-0.030478887 -0.01979483 0.01079917 0.046988666 -0.020045735 0.01685007 -0.051819935 -0.027531259
0.053267263 0.008949406 -0.02642487 -0.03804738 -0.050063334 -0.044155903 0.03345757 -0.033238433
0.0038288534 0.02482976 0.014382213 0.024194248 -0.023653388 0.0025454536 0.0024265125 0.06137967
-0.016788483 -0.05853405 -0.03059595 0.044631563 -0.04914122 -0.046244927 0.04912679 -0.018126614
0.013610527 0.022375032 0.008408144 0.015519798 0.048985973 0.013258517 0.0006544739 0.033908866
-0.0014182925 0.031848222 -0.027348615 -0.023229904 0.050447524 0.056817822 -0.047725454 -0.0490895
-0.030708946 -0.05402922 0.015761018 0.06092255 0.04630658 -0.057941236 0.04727263 -0.032686755
0.0032364726 -0.038031243 0.049839564 0.04720193 -0.026178978 0.016239122 0.0031024516 0.011059135
7.2441995e-05 -0.044133157 -0.04916217 0.056346446 0.01155059 -0.0048736557 -0.052390732 0.052710086
0.040302582 -0.039249316 -0.060699344 -0.0418453 -0.05866857 0.04425416 -0.06036683 0.000327833
-0.000981912 -0.0012839735 -0.0014243871 -0.034230225 0.059046887 -0.024660423 0.012178622 0.027202755
-0.05094503 0.016344108 -0.035757937 0.037385352 -0.008988 0.00886789 -0.044702984 0.04502049
0.04754906 -0.0036178753 0.032187484 0.051079825 0.05638522 0.017483726 0.059412032 0.040528513
-0.039726734 0.058492646 0.040839106 -0.012220465 0.0104039535 -0.022890985 0.045758843 -0.019568332
0.033100016 0.023969807 0.028078943 -0.00030522794 -0.062091447 -0.00109981 0.049335994 -0.06081786
0.05027491 0.0006719753 0.020210154 -0.03416384 -0.044849604 -0.034447923 0.0025231242 0.046732783
-0.0059084445 -0.02105128 -0.009883203 -0.033875994 -0.017112456 -0.029283464 0.022607587 -0.00025473535
-0.055326708 -0.0090244785 -0.03760846 0.04029444 0.031482264 -0.03149686 0.024167381 0.062417082
-0.019161485 -0.032279775 -0.027261443 -0.010069646 0.036102235 -0.055147238 0.018029414 -0.054149322
0.029106438 0.01639796 -0.05182319 -0.030931778 -0.035847798 0.021920078 0.046775438 -0.025797315
-0.03613165 -0.032689862 -0.0035954118 -0.023809902 -0.036711045 0.0399876 -0.045817077 0.038650095
0.048167497 0.053378433 0.02218023 0.026520558 0.025980674 -0.046218142 0.020930737 0.039729454
0.020565823 -0.035639487 0.013717927 -0.010813326 -0.04259853 0.0010945126 -0.053790405 0.060619734
0.059553772 -0.046461865 -0.006853558 -0.062399387 -0.027005233 0.050711565 -0.013317481 -0.028358392
00000000: 94ee afbc 7003 3b3d f65b 703d 300a 533c
00000010: 3037 d23c 40a6 a2ba 1097 e3bc 5aa3 5d3d
00000020: 8640 363d 342e 99bc 2ed0 363d ccf3 9e3c
00000030: 2ea4 003d b03a 903b 9ca0 02bd f0a4 7e3d
00000040: 486c 2d3c d88d bd3c f87e bf3c fe65 16bd
00000050: 5035 273c 28f7 603d f06c c6bb c8fc 3dbd
00000060: bc37 253d 808b 903b b01b 123c 70e1 49bd
00000070: 1805 4e3d 08a6 35bd 5277 0bbd 8007 52bb
00000080: 1c9a 3c3d a4e6 17bd 1a05 163d 22c9 21bd
00000090: 54d5 ccbc 08ac 7abd 7cf5 6fbd b078 bf3b
000000a0: 90c2 593c cc36 63bd 5257 49bd 2c14 50bd
000000b0: 4215 24bd 28eb 2fbc e844 09bc a65b 263d
000000c0: f870 403d 5095 983c 7c87 2abd a2c3 1fbd
000000d0: f43e 89bc 4218 743d d2e9 363d a864 0a3c
000000e0: b496 d4bc 00be 2d39 6615 31bd 6456 2b3d
000000f0: c464 74bd c499 3b3d 78b3 753d 60a6 983c
00000100: dcae f9bc c428 a2bc 00ef 303c 3077 403d
00000110: f436 a4bc 2809 8a3c 2441 54bd 3c89 e1bc
00000120: c62e 5a3d 88a0 123c f878 d8bc 92d7 1bbd
00000130: 360f 4dbd d2dc 34bd ce0a 093d 0625 08bd
00000140: 80ed 7a3b c867 cb3c 60a3 6b3c 0433 c63c
00000150: c0c4 c1bc a0d1 263b 2006 1f3b 4069 7b3d
00000160: 0088 89bc 66c1 6fbd 5ca4 fabc 96cf 363d
00000170: 4e48 49bd 526b 3dbd 2c39 493d 447e 94bc
00000180: b0fe 5e3c d84b b73c 50c2 093c c046 7e3c
00000190: 84a5 483d 403a 593c 0091 2b3a 06e4 0a3d
000001a0: 00e6 b9ba 4873 023d 340a e0bc a44c bebc
000001b0: 10a2 4e3d ceb9 683d c47b 43bd 1212 49bd
000001c0: 5491 fbbc be4d 5dbd 401d 813c ec89 793d
000001d0: f8ab 3d3d ca53 6dbd f2a0 413d 8ce2 05bd
000001e0: 001b 543b a6c6 1bbd 9224 4c3d d056 413d
000001f0: 4c75 d6bc e807 853c 8052 4b3b 6031 353c
00000200: 00ec 9738 f8c4 34bd 465e 49bd 88cb 663d
00000210: b03e 3d3c 30b3 9fbb aa97 56bd 88e6 573d
00000220: 5214 253d e4c3 20bd e09f 78bd fa65 2bbd
00000230: 744e 70bd da43 353d 3643 77bd 00e1 ab39
00000240: 80b3 80ba 004b a8ba 80b2 baba fe34 0cbd
00000250: 26db 713d a804 cabc d888 473c 50d8 de3c
00000260: bcab 50bd 14e4 853c ea76 12bd 6221 193d
00000270: 6842 13bc a04a 113c 7a1a 37bd 6867 383d
00000280: cec2 423d e019 6dbb 06d7 033d 1439 513d
00000290: 30f4 663d 083a 8f3c 085a 733d 3a01 263d
000002a0: 80b8 22bd fc95 6f3d e846 273d 5838 48bc
000002b0: 5875 2a3c e085 bbbc a06d 3b3d c44d a0bc
000002c0: e293 073d 545c c43c d005 e63c 0007 a0b9
000002d0: 9a53 7ebd 8027 90ba 8a14 4a3d 261c 79bd
000002e0: 10ed 4d3d 8027 303a c48f a53c 62ef 0bbd
000002f0: 38b4 37bd 4419 0dbd 005b 253b e06a 3f3d
00000300: a09b c1bb bc73 acbc 28ed 21bc 8ec1 0abd
00000310: 6c2f 8cbc e0e3 efbc 8c33 b93c 008e 85b9
00000320: 429e 62bd 68db 13bc 540b 1abd c80b 253d
00000330: 8cf3 003d da02 01bd acfa c53c 0ea9 7f3d
00000340: 8cf8 9cbc cc37 04bd 6453 dfbc 28fb 24bc
00000350: f0df 133d 12e2 61bd 6cb2 933c aecb 5dbd
00000360: a070 ee3c 0455 863c 8e44 54bd a464 fdbc
00000370: 24d5 12bd bc91 b33c 9a97 3f3d e454 d3bc
00000380: c8fe 13bd cee5 05bd 00a1 6bbb fc0c c3bc
00000390: 525e 16bd 0aca 233d b0aa 3bbd 904f 1e3d
000003a0: 484b 453d 58a3 5a3d 50b3 b53c a441 d93c
000003b0: 6cd5 d43c 3c4f 3dbd f076 ab3c 5abb 223d
000003c0: a879 a83c b6fa 11bd 28c1 603c 602a 31bc
000003d0: cc7b 2ebd c075 8f3a 5453 5cbd 664c 783d
000003e0: a8ee 733d cc4e 3ebd d093 e0bb 8096 7fbd
000003f0: 143a ddbc eeb6 4f3d 9031 5abc dc4f e8bc

fc3.bias f4 [256]
-0.017111957 0.060753673 -0.013893105 -0.021746747 0.011993416 -0.032260925 -0.024766698 0.05390898
0.050316907 0.007866815 0.021703593 -0.057693787 -0.022606261 0.052354515 -0.041832387 -0.051908642
-0.0072247386 -0.05108107 0.054249913 -0.058416247 0.049328536 0.04217632 0.0115662515 -0.025626838
0.013768487 -0.02116765 -0.053069398 -0.026461221 0.014632888 -0.00863795 0.06135103 -0.055516765
0.05412516 -0.05216665 -0.011594415 0.054890968 0.011671215 0.041263677 -0.0049961805 0.0011035651
0.022595584 0.034964927 0.05156842 -0.026942916 -0.0025806203 -0.05072181 0.030304067 0.009498894
-0.016465485 0.05243382 0.011536196 0.0056747645 0.030877419 -0.0057735443 -0.011335492 0.06000398
0.023526803 -0.01688812 -0.057486176 0.032159165 -0.032133467 -0.02484417 0.003867805 -0.024991803
0.051637918 -0.032856457 0.0511221 -0.035928346 0.018003829 0.013265051 0.03984122 0.056413844
-0.049118437 0.0075348914 -0.039183564 0.042785503 -0.052275106 -0.04945559 0.057001427 0.027527168
-0.06036932 -0.039962582 -0.014362134 -0.0042381287 0.019463152 0.0078082457 0.033328325 -0.0359597
0.012876138 -0.027191155 -0.00588046 0.045646742 0.00772281 0.017293416 0.017136753 -0.024615489
-0.0007709712 0.031028569 -0.048386373 0.009663805 -0.036072984 0.015476897 -0.009635195 -0.014681727
0.03216604 -0.05074081 -0.008595124 0.039334334 0.00316298 0.053261682 -0.057251826 -0.02353514
-0.0024692565 -0.044436738 -0.032077715 -0.015487455 -0.026616424 -0.033778057 -0.025590256 -0.003669463
0.06163021 -0.0044237226 -0.016051084 0.044603154 -0.03197269 0.036351718 0.01745645 -0.019998573
0.02232629 0.0048253685 0.0336593 -0.015102819 -0.023650639 0.031552933 -0.05317738 -0.02936998
-0.0266347 -0.026266336 0.056701005 0.036285922 -0.047215745 0.061708122 -0.06167701 0.043245204
-0.023064047 -0.008880533 0.028440155 -0.021248229 0.012521349 0.0045176297 0.0030080155 -0.018409476
-0.0070202276 -0.06100948 -0.049241856 0.033808388 0.056141764 0.028051093 -0.04085836 0.048069775
-0.034662783 0.061352693 0.050326556 -0.059744917 0.03177595 -0.050348908 0.015693486 -0.005669005
-0.009982519 0.017477438 0.00689514 0.037522532 0.061352104 0.03734365 0.04091765 -0.05091141
-0.05105742 0.042684317 -0.01291991 -0.004736446 0.016874582 -0.045511574 -0.038333483 -0.00792814
-0.01965782 -0.008842133 -0.019917771 -0.0074188784 -0.03613375 0.0046012327 0.052157253 0.055523425
0.061369367 -0.005371265 0.04237082 0.058905587 -0.012194566 0.002002962 0.01453352 0.019085497
-0.0126599 -0.035544008 0.04791996 -0.02387932 0.05494558 0.0042510256 0.05956786 0.020593755
-0.053084925 -0.004302576 0.049548008 -0.0107071325 -0.030482888 0.055188395 -0.021562412 -0.024764627
-0.010584399 0.02557224 -0.016929284 0.056431986 0.05911362 -0.02851957 0.052100234 0.051421933
0.03586664 0.054282017 -0.053343356 -0.061237104 -0.034113556 -0.03949943 -0.0067025125 -0.030192636
-0.019473381 0.060155183 -0.00816831 -0.04357765 0.029183157 0.0014080182 0.03423757 -0.026235923
-0.04538519 0.050999455 -0.032372974 0.03530334 0.053566106 0.02330459 -0.037751786 -0.0014074221
0.06145881 0.0079576075 0.0058299825 0.008918636 0.060233913 -0.014486656 0.03117787 0.045598626
00000000: 602e 8cbc d8d8 783d e89f 63bc 3c26 b2bc
00000010: 0880 443c 0824 04bd 88e3 cabc aacf 5c3d
00000020: 1a19 4e3d d0e3 003c bccb b13c 5250 6cbd
00000030: c430 b9bc b071 563d 7058 2bbd 289e 54bd
00000040: 80bd ecbb 623a 51bd 2835 5e3d e045 6fbd
00000050: b80c 4a3d 14c1 2c3d 6080 3d3c 60ef d1bc
00000060: 3895 613c c867 adbc 4c5f 59bd 34c5 d8bc
00000070: c8be 6f3c 3086 0dbc 384b 7b3d 8c65 63bd
00000080: 58b2 5d3d b2ac 55bd 80f6 3dbc 5ad5 603d
00000090: a038 3f3c 1a04 293d 00b7 a3bb 80a5 903a
000000a0: 601a b93c 6237 0f3d 6839 533d 64b7 dcbc
000000b0: a01f 29bb acc1 4fbd 3c40 f83c 40a1 1b3c
000000c0: a0e2 86bc d8c4 563d 5002 3d3c 60f3 b93b
000000d0: a4f2 fc3c 0030 bdbb 80b8 39bc bcc6 753d
000000e0: 48bb c03c f458 8abc a076 6bbd 54b9 033d
000000f0: 629e 03bd 0086 cbbc 007b 7d3b 9cbb ccbc
00000100: 4882 533d 7e94 06bd 6865 513d 9a29 13bd
00000110: c47c 933c a855 593c 8c30 233d 3412 673d
00000120: 6a30 49bd 40e7 f63b f27e 20bd da3f 2f3d
00000130: 6c1e 56bd f291 4abd 547a 693d a880 e13c
00000140: d245 77bd ceaf 23bd 284f 6bbc 00e0 8abb
00000150: 3071 9f3c 50dc ff3b 4883 083d 7a4a 13bd
00000160: 70f6 523c fcbf debc e0b0 c0bb 14f8 3a3d
00000170: a00f fd3b ecaa 8d3c 6062 8c3c 6ca6 c9bc
00000180: 001b 4aba a02f fe3c ca30 46bd f054 1e3c
00000190: 44c1 13bd d092 7d3c f0dc 1dbc a08b 70bc
000001a0: 8ac0 033d 98d5 4fbd 90d2 0cbc 0a1d 213d
000001b0: 004a 4f3b ec28 5a3d e480 6abd c4cc c0bc
000001c0: 40d3 21bb 4c03 36bd ec63 03bd 18bf 7dbc
000001d0: b00a dabc dc5a 0abd a8a2 d1bc 607b 70bb
000001e0: f66f 7c3d e0f4 90bb 907d 83bc ccb1 363d
000001f0: ccf5 02bd 8ae5 143d d400 8f3c 0cd4 a3bc
00000200: a0e5 b63c 201e 9e3b 56de 093d d071 77bc
00000210: fcbe c1bc a63d 013d 86d0 59bd 5099 f0bc
00000220: 0431 dabc 802c d7bc 503f 683d 8ca0 143d
00000230: 4c65 41bd a8c1 7c3d 08a1 7cbd e221 313d
00000240: d0f0 bcbc a87f 11bc 54fb e83c c410 aebc
00000250: 5826 4d3c a008 943b 2022 453b 78cf 96bc
00000260: f009 e6bb 14e5 79bd d4b1 49bd aa7a 0a3d
00000270: e8f4 653d 68cb e53c 185b 27bd d0e4 443d
00000280: 90fa 0dbd f64c 7b3d 3823 4e3d 16b7 74bd
00000290: 8027 023d a83a 4ebd a08f 803c 10c3 b9bb
000002a0: b88d 23bc d82c 8f3c a0f0 e13b 3ab1 193d
000002b0: 584c 7b3d a8f5 183d 4499 273d 7c88 50bd
000002c0: 9621 51bd c0d5 2e3d 08ae 53bc 3034 9bbb
000002d0: 903c 8a3c 586a 3abd 9203 1dbd 08e5 01bc
000002e0: 7009 a1bc 98de 10bc 982a a3bc 101a f3bb
000002f0: fc00 14bd f0c5 963b d8a2 553d 886c 633d
00000300: 725e 7b3d 7001 b0bb 068d 2d3d fc46 713d
00000310: b8cb 47bc 2044 033b 001e 6e3c 3059 9c3c
00000320: 786b 4fbc 9896 11bd b847 443d 909e c3bc
00000330: 9e0e 613d 304c 8b3b 6efd 733d 3cb4 a83c
00000340: 946f 59bd a0fc 8cbb daf2 4a3d f86c 2fbc
00000350: 40b7 f9bc 3a0d 623d a8a3 b0bc 30df cabc
00000360: 306a 2dbc e07c d13c 48af 8abc 3a25 673d
00000370: 2021 723d e0a1 e9bc 0e67 553d ce9f 523d
00000380: e6e8 123d d256 5e3d 907e 5abd c2d3 7abd
00000390: a8ba 0bbd 28ca 21bd c0a0 dbbb 8c56 f7bc
000003a0: a486 9fbc 4865 763d 60d4 05bc 7a7e 32bd
000003b0: 8411 ef3c 408d b83a b23c 0c3d b8ec d6bc
000003c0: d2e5 39bd cee4 503d 8699 04bd 3c9a 103d
000003d0: 2268 5b3d 44e9 be3c 9ea1 1abd 4079 b8ba
000003e0: 3cbc 7b3d a060 023c 7009 bf3b 781f 123c
000003f0: d6b7 763d 7059 6dbc bc68 ff3c a0c5 3a3d

output.weight f4 [4, 256]
-0.046852395 -0.05775407 -0.0020438284 -0.039149843 0.0069393665 0.0013361946 0.019745544 -0.009953052
-0.050745256 -0.031900503 0.012588091 -0.053213693 -0.031617157 0.04084654 -0.057699725 -0.04082162
-0.016830206 0.013558179 0.0059000924 0.034195557 0.019383617 0.018303536 0.0006665662 0.02526541
0.03304133 0.031103142 0.03671524 -0.03536445 0.0055625066 0.04610327 0.0479915 -0.05667775
-0.008449353 0.035850026 -0.024506018 0.0323295 0.008845702 0.06088335 0.049047507 0.0032005906
0.025985226 -0.015424356 -0.031294413 0.018684536 0.035779335 0.042714216 0.034344323 -0.0010769963
-0.006096542 0.02252435 -0.039746508 0.0067187995 0.013758473 0.032164246 0.047468014 -0.03616961
-0.012694895 -0.046228074 -0.050422773 -0.05630458 -0.028061807 -0.027088493 0.021195292 0.051207505
0.044823132 0.035075434 0.027432382 0.045795403 -0.039725237 0.015420154 -0.011847392 -0.039544106
-0.057773836 0.021831013 0.0087304115 0.03934002 0.041302755 -0.0048956424 -0.011143155 -0.048126094
0.014344782 0.03635273 -0.04026998 -0.045120597 0.029410832 0.05921702 -0.04692649 -0.03251008
0.041361168 0.061498314 -0.034390867 0.039032638 0.022186361 -0.055604592 -0.050006874 0.037818573
0.020408504 -0.016153939 -0.0027452633 0.047503665 -0.021170981 0.027213812 0.03869777 0.0072177276
-0.047798567 -0.048115186 -0.060705908 -0.019498438 0.013744704 -0.028329998 -0.060253933 -0.030594364
0.026927337 -0.0007677898 0.060961626 0.045605898 -0.054063454 0.037223496 0.048632726 -0.03336037
0.016670853 0.032815702 0.0075739995 0.05069632 -0.02027297 0.038849533 0.0052864626 0.02614189
0.0476363 -0.047733635 0.035838038 0.059664495 0.05446268 0.060098074 0.01690197 0.04444194
-0.0067109764 -0.0005099401 -0.0062299 0.022884853 -0.030965835 -0.056140736 -0.019386575 0.04521957
0.036702417 -0.0055646747 -0.01698555 -0.0075118095 0.0032018945 -0.019427575 0.02044899 0.024360083
-0.023522526 -0.028398141 0.036795594 0.015447363 0.0076182038 0.028322406 -0.006431952 0.026525743
0.055164494 0.021409117 -0.013995968 -0.0033209398 -0.05354833 3.5263598e-05 -0.040430263 0.057640113
-0.019743592 0.059049092 -0.027451046 -0.05691856 -0.03379398 -0.031969205 0.006278217 -0.000441581
0.040400274 0.05086197 0.035827607 0.036210865 0.049081013 -0.018227816 -0.059062786 -0.039446026
-0.027144544 -0.018633246 0.0060896724 0.051136024 0.060735807 0.05106791 -0.034256928 -0.029169954
0.032696724 -0.020519972 0.03282211 -0.022643529 -0.0068746135 0.04941781 0.0487784 -0.054747142
0.05113159 0.014672823 -0.055987604 0.021536082 -0.0058775097 -0.004934892 0.05733151 -0.028693445
-0.009043857 -0.04518886 -0.042163417 -0.007834464 0.009376757 -0.019231193 0.015560627 0.018653974
-0.047942393 -0.046832077 -0.031525403 -0.056368597 -0.0017138869 0.03217733 0.040731758 0.021978468
0.061592236 -0.05386953 -0.051564865 -0.03579527 -0.01312051 0.01988253 0.05012077 0.057150565
-0.014106922 -0.028026558 0.05337897 -0.05913622 -0.027852058 -0.058158427 0.029151142 -0.04917963
-0.038135804 -0.057118915 -0.0021729097 0.039774008 0.0027838498 0.014909759 -0.007127136 0.027013168
0.017059922 -0.045897685 0.03164614 0.0006012246 0.023244098 -0.013268165 0.041266955 -0.012487575
00000000: 4ce8 3fbd 888f 6cbd c0f1 05bb 965b 20bd
00000010: a063 e33b 4023 af3a 68c1 a13c 2012 23bc
00000020: 42da 4fbd 1aaa 02bd 483e 4e3c 9af6 59bd
00000030: fe80 01bd b44e 273d 8c56 6cbd 9234 27bd
00000040: 80df 89bc 2023 5e3c 9055 c13b a410 0c3d
00000050: 64ca 9e3c 4cf1 953c 80bc 2e3a 68f9 ce3c
00000060: 5856 073d 04cc fe3c b862 163d 50da 10bd
00000070: b045 b63b c8d6 3c3d bc92 443d ee26 68bd
00000080: 286f 0abc 7ad7 123d d8c0 c8bc f06b 043d
00000090: 90ed 103c d260 793d 0ae6 483d 00c1 513b
000000a0: f8de d43c 70b6 7cbc 922e 00bd 5010 993c
000000b0: 5a8d 123d 1af5 2e3d a2ac 0c3d 002a 8dba
000000c0: 80c5 c7bb fc84 b83c 3ccd 22bd 6029 dc3b
000000d0: 386b 613c a8be 033d d26d 423d 9626 14bd
000000e0: 40fe 4fbc a659 3dbd 1c88 4ebd a29f 66bd
000000f0: e0e1 e5bc b0e8 ddbc c0a1 ad3c f6be 513d
00000100: 7698 373d 42ab 0f3d e0b9 e03c f693 3b3d
00000110: eeb6 22bd d0a4 7c3c 901b 42bc 00f9 21bd
00000120: 42a4 6cbd f4d6 b23c 000a 0f3c 0023 213d
00000130: 142d 293d a06b a0bb c891 36bc de1f 45bd
00000140: 6006 6b3c 9ae6 143d 22f2 24bd 60d0 38bd
00000150: fcee f03c 8c8d 723d fe35 40bd 4a29 05bd
00000160: 546a 293d a8e5 7b3d 70dd 0cbd b0e0 1f3d
00000170: 2cc0 b53c a4c1 63bd 02d4 4cbd a6e7 1a3d
00000180: bc2f a73c 4455 84bc e0e9 33bb 3493 423d
00000190: c46e adbc 80ef de3c 8e81 1e3d b082 ec3b
000001a0: 6ec8 43bd 6e14 45bd c2a6 78bd 30bb 9fbc
000001b0: 7831 613c 5014 e8bc d4cc 76bd 08a1 fabc
000001c0: b896 dc3c 8045 49ba e6b2 793d 40cd 3a3d
000001d0: a471 5dbd aa77 183d 1c33 473d e2a4 08bd
000001e0: 5091 883c c269 063d 502f f83b f2a6 4f3d
000001f0: 8013 a6bc b020 1f3d 103a ad3b 8427 d63c
00000200: 481e 433d 5884 43bd e8ca 123d c262 743d
00000210: 4214 5f3d 6629 763d 0076 8a3c c008 363d
00000220: c0e7 dbbb 80ad 05ba 3024 ccbb 0479 bb3c
00000230: 10ac fdbc d4f3 65bd 98d0 9ebc 2838 393d
00000240: 4655 163d e057 b6bb 4825 8bbc a025 f6bb
00000250: e0d6 513b 9426 9fbc a484 a73c cc8e c73c
00000260: 50b2 c0bc 38a3 e8bc fab6 163d f016 7d3c
00000270: 20a2 f93b 6404 e83c 20c3 d2bb 844c d93c
00000280: 2af4 613d 2c62 af3c 584f 65bc 20a4 59bb
00000290: 7e55 5bbd 00e8 1338 349a 25bd 0a18 6c3d
000002a0: 50bd a1bc 76dd 713d 04e1 e0bc 7023 69bd
000002b0: 8e6b 0abd 24f2 02bd 80b9 cd3b 0084 e7b9
000002c0: c27a 253d a454 503d f8bf 123d d851 143d
000002d0: 2c09 493d 8052 95bc d2eb 71bd 2892 21bd
000002e0: 3c5e debc c0a4 98bc e08b c73b 0274 513d
000002f0: 1cc6 783d 962c 513d fe50 0cbd d4f5 eebc
00000300: 00ed 053d 8019 a8bc 7a70 063d ec7e b9bc
00000310: 7044 e1bb 546a 4a3d dccb 473d 8a3e 60bd
00000320: 5c6f 513d 4866 703c 4253 65bd 706c b03c
00000330: 2098 c0bb e0b4 a1bb 72d4 6a3d 840e ebbc
00000340: b02c 14bc f417 39bd 8cb3 2cbd 205c 00bc
00000350: f8a0 193c bc8a 9dbc 00f2 7e3c 38d0 983c
00000360: 3e5f 44bd fed2 3fbd c820 01bd c2e2 66bd
00000370: 80a4 e0ba 60cc 033d 58d6 263d 300c b43c
00000380: 2448 7c3d 4ca6 5cbd ae35 53bd 109e 12bd
00000390: 68f7 56bc b0e0 a23c 704b 4d3d b616 6a3d
000003a0: b820 67bc f497 e5bc e8a3 5a3d d238 72bd
000003b0: 002a e4bc 8837 6ebd 60ce ee3c 9470 49bd
000003c0: 4a34 1cbd 86f5 69bd 6067 0ebb 12ea 223d
000003d0: 4071 363b 1048 743c c08a e9bb b84a dd3c
000003e0: 40c1 8b3c 36ff 3bbd 629f 013d 809b 1d3a
000003f0: 686a be3c b862 59bc 8a07 293d b098 4cbc

output.bias f4 [4]
-0.016405188 0.010353923 0.013615057 0.006582558
00000000: 2c64 86bc 80a3 293c b011 5f3c 80b2 d73b
