fetch_sticky_mittens_step_4_blocks/networks/ours_10k_block_4_uber_level_0_seed_150/network_reach_object_2.pth (torch, 612535 bytes, 8 tensors)

fc1.weight f4 [256, 75]
000000 9a 7e 10 bc ce a2 9b bd 23 52 a6 bc 07 83 2a 3d
       -0.008819247 -0.07599412 -0.020302838 0.041628864
000010 0a aa ba bc 95 9d ea 3d 85 3e e0 bd f1 b2 c8 bd
       -0.022786159 0.11455838 -0.10949425 -0.09799755
000020 c8 90 35 bd 67 b7 ea bd a8 e4 52 bd aa 6b da bd
       -0.044327527 -0.114607625 -0.051487595 -0.106650665
000030 1c 9e 06 3d 9b d7 c5 3d 3d 90 8d 3d 1a 55 16 bd
       0.03286563 0.09660264 0.06912277 -0.036702253
000040 ac 65 6f 3d 6e f9 0b 3d a4 90 6f 3d 94 28 19 3d
       0.05844657 0.03417342 0.05848755 0.037392214
000050 7c 0d 29 bb 01 19 1e 3c 2e 53 ca bd 09 ac 75 bc
       -0.002579539 0.009649516 -0.098791465 -0.01499463
000060 d3 10 83 3a b5 9c 25 bd c5 2d 11 3d db f9 91 bd
       0.0009999521 -0.04043265 0.03544404 -0.07127734
000070 a1 69 97 3d 10 c9 4c 3d 7c 30 10 3d 2e bb ce bd
       0.07393194 0.049996436 0.03520249 -0.100942954
000080 48 2d da 3d 8c fc b8 bd ab 0b cf bd 76 11 7b 3d
       0.10653168 -0.090325445 -0.10109647 0.06129595
000090 78 ec 38 3c 84 a8 5b 3d 05 6e e6 bd f7 40 91 bc
       0.011286847 0.053627506 -0.11251453 -0.017731173
0000a0 ff f8 de 3d e5 98 dc bd 28 82 b4 3d 44 9a 0c 3d
       0.10887336 -0.1077135 0.08813888 0.034326807
0000b0 07 08 60 3d 75 23 a4 bd 2c 7c 39 3d 7e 66 82 3d
       0.054695155 -0.080145754 0.045284435 0.06367205
0000c0 39 a1 2b bd 64 0d 4e 3d 7a ed e6 bd 81 36 9f bd
       -0.0419018 0.05030574 -0.11275764 -0.07774068
0000d0 fe 94 31 bd f9 81 e9 bd 08 6e a1 3d 86 07 78 bd
       -0.04335498 -0.114017434 0.07882315 -0.06055405
0000e0 ee 03 94 bc d4 c8 67 ba 3a 58 b9 bd ea f0 07 bd
       -0.01806828 -0.00088418764 -0.09050031 -0.033188738
0000f0 84 c7 0c bd 98 09 44 3c 80 e7 a8 bd 18 54 b8 bd
       -0.03436996 0.011965178 -0.0824728 -0.090004146
000100 01 39 fc bc d5 b5 35 bd 15 04 11 3b e4 31 aa 3d
       -0.0307889 -0.04436286 0.0022127677 0.08310297
000110 68 7e 21 3d 74 a9 0b bc 1b 8e 7d 3b 4a 5a d9 bd
       0.03942719 -0.0085242875 0.0038689438 -0.106129244
000120 d8 67 93 3d 3f c9 8a bd 89 aa b4 3d 23 52 a4 bd
       0.07197541 -0.06776666 0.088215895 -0.08023479
000130 c5 0d 7f 3d 32 87 88 bc 2f a7 9b 3c ed db 7f 3b
       0.06226899 -0.016666029 0.019000618 0.0039040998
000140 94 8b ce 3d a2 58 b0 3b 2b 64 0c 3d 6d 48 be 3b
       0.10085216 0.0053816596 0.034275215 0.0058069737
000150 ae 34 d3 3c c7 ee b4 3d d3 6f be bd 50 a5 78 bd
       0.025781956 0.08834606 -0.092986725 -0.06070453
000160 25 51 b9 bd dc f8 b6 3c bf 2d 69 bd 65 31 a9 3b
       -0.0904868 0.022335462 -0.056928392 0.005163359
000170 79 a3 8a 3d 1d 27 88 bd 15 fe 91 3d 93 70 4a 3d
       0.06769461 -0.06648085 0.071285404 0.049423765
000180 c3 ed 93 bd 36 ba 56 3b 7d 0a d8 bc ec ec 22 bd
       -0.07223084 0.00327648 -0.026372189 -0.039776728
000190 45 2c 97 bd 9f 85 2c bc 09 ca 50 bd 17 2b a3 bd
       -0.073814906 -0.010529905 -0.050973926 -0.07967203
0001a0 56 4e a1 3d ed 1c 33 bb 88 92 11 3d 71 f0 c9 bd
       0.078762695 -0.0027330474 0.035540134 -0.09860314
0001b0 4d 76 1a bd 9e a1 86 bd b1 2d a7 3d e3 fb 90 3c
       -0.037710477 -0.06573795 0.08163012 0.017698234
0001c0 f8 2c 81 bd 6c e3 88 bd a2 e2 97 bc 33 29 a8 bd
       -0.06307405 -0.06684002 -0.018540684 -0.08210983
0001d0 4e 8f d2 bd f3 7b 87 bd 46 e8 2d 3d ed 3b f1 bc
       -0.102812394 -0.06615438 0.04245784 -0.02944752
0001e0 01 24 9b 3d 0c 81 30 3b fe 96 38 3d 82 5d af 3d
       0.075752266 0.0026932387 0.045065872 0.08562757
0001f0 56 c0 c8 3d 72 d5 c5 bd fb e2 d6 bd 51 8c c1 3b
       0.0980231 -0.09659852 -0.10492512 0.0059066196
000200 f7 bb c0 bd a1 96 d2 bd 55 46 a6 bc 7d 18 a7 bc
       -0.094108514 -0.102826364 -0.020297209 -0.02039742
000210 11 c8 2f bc 53 95 e1 bd 7a ca 20 3c 99 74 ab bd
       -0.010728852 -0.110148095 0.009813899 -0.083718486
000220 ff 4a 3e bd 1f 8a af bd c5 8c 75 bd e8 5d 98 3d
       -0.04645824 -0.085712664 -0.0599487 0.07439786
000230 fd 8b 9f bd 69 fa f4 bc 61 5b e6 3d 37 87 96 bd
       -0.077903725 -0.029904561 0.11247898 -0.07350009
000240 e7 eb 7a 3d 8a f1 ba bd 13 35 d6 bc 3f f5 86 3d
       0.06126013 -0.09128101 -0.026148355 0.06589746
000250 30 f5 60 bd 48 3b a7 bd 15 c2 cb bd 32 54 80 3d
       -0.05492133 -0.08165604 -0.099491276 0.06266059
000260 a9 ed ca bc e7 f5 6c 3c 74 99 9f 3d e3 da ff bb
       -0.024771528 0.014462925 0.07792941 -0.0078080758
000270 6f 43 eb 3d 8c 5d 1a ba a9 d2 ae bd 66 38 a5 bd
       0.11487471 -0.00058885734 -0.08536274 -0.08067398
000280 8e ec b4 3d d6 ae b4 bd a4 41 ba 3d 8c 2f 01 3c
       0.08834182 -0.0882241 0.09094551 0.007884871
000290 81 c3 87 bc 5b 90 9a 39 03 0c b3 bc 37 09 bb bc
       -0.016572716 0.00029480722 -0.021856314 -0.022831542
0002a0 b4 d4 e8 bd 06 50 3d bd a7 74 48 3d d1 9a b8 3d
       -0.11368695 -0.046218894 0.048939373 0.09013904
0002b0 b0 be 9a bd 20 47 ab bd 58 04 82 3d d5 53 07 bd
       -0.07555902 -0.083631754 0.06348485 -0.033038933
0002c0 e0 26 7d 3b da 5c a2 bd 28 fc d2 3b 34 58 af bd
       0.0038627908 -0.07927866 0.006438751 -0.08561745
0002d0 79 2f 8b 3d 62 59 1d 3c cc 78 cc 3c 1e 04 50 bd
       0.06796164 0.00960383 0.024959944 -0.050785176
0002e0 55 42 58 bd 07 c3 9b 3d 0b 3d bc bd c7 9f a1 bc
       -0.052797634 0.07605558 -0.091913305 -0.019729508
0002f0 db 94 9d bd 87 ac e0 bd 3b 58 6c bd 99 40 bb 3d
       -0.076944076 -0.10970407 -0.05770133 0.091431804
000300 ec 29 94 3d 33 2f 82 3c ab c5 a5 3c 96 8a f2 bc
       0.072345585 0.015891647 0.020235857 -0.029607099
000310 70 ee 5e bd ae ec 90 bd 67 c9 3f 3b bc 7b 72 bd
       -0.05442661 -0.07076393 0.0029264332 -0.059200034
000320 6f 76 b0 bd f5 06 52 3c 3d 88 e4 bd 7a 1d dd bd
       -0.086163394 0.0128190415 -0.11158798 -0.10796638
000330 31 0c a1 bd c6 b4 59 bb 28 41 95 3c 90 8f 5a 3d
       -0.078636535 -0.0033219322 0.018219545 0.053359568
000340 0c 21 e8 bb ae 14 c4 bd 47 12 28 3d b8 69 87 bd
       -0.0070840176 -0.09574257 0.041033056 -0.06611961
000350 47 29 b2 bd 96 03 cf bd ad 18 83 bc 0a 0e a6 bc
       -0.08699279 -0.10108106 -0.016002977 -0.020270366
000360 cc a2 8e bd e1 a9 7b bc 71 14 ad bd f8 15 c7 3c
       -0.06964645 -0.0153603265 -0.084511645 0.024302468
000370 80 8b d4 bd 10 dd 67 3d 8c 59 6f bc 0e ac 19 3d
       -0.1037817 0.056607306 -0.014608752 0.0375176
000380 96 a5 a4 bd 60 ce 4c bd 85 d7 dd 3b e6 23 db bd
       -0.080393955 -0.050001502 0.0067700767 -0.107002065
000390 c7 ee 11 bc 46 29 aa 3d 6b 98 03 bd 38 68 1d 3d
       -0.008907027 0.083086535 -0.03212778 0.03842947
0003a0 2d 8b f7 3c 26 67 be bd 9f 07 a0 3c 5f 28 56 3d
       0.030217731 -0.09297018 0.019534884 0.052284595
0003b0 a2 13 83 3d 4d 8f 9f bd fc 11 dc 3c c0 dd cb bc
       0.06400229 -0.07791004 0.026864044 -0.024886012
0003c0 dc fe c6 bd 93 9d d6 3b ac b5 3b 3c 52 87 d3 3d
       -0.09716579 0.006549546 0.011456888 0.10328545
0003d0 e7 83 c0 bd 92 b7 d6 bd dc d5 7b bd c1 37 61 bc
       -0.094001584 -0.10484232 -0.06148325 -0.013746203
0003e0 dc e6 98 bd e9 77 4e bd 6e bd ac bd 19 ab 25 3d
       -0.07465908 -0.050407324 -0.08434568 0.040446375
0003f0 fd 3a 39 3d 80 fa c6 bd 77 db e5 3d 3c 40 5f bd
       0.04522227 -0.09715748 0.112235 -0.054504618

fc1.bias f4 [256]
000000 b8 28 84 bd 4f b6 df bd 7a 27 38 bc 6d d9 b2 bd
       -0.06453079 -0.109234445 -0.011239881 -0.08732877
000010 49 19 88 3d 42 94 9d bd b3 1f 19 bd 5f f9 e3 3d
       0.06645448 -0.076942936 -0.037383746 0.11131548
000020 49 71 e2 3c 68 f5 85 bd 3c e2 bb bd f7 2f ea 3c
       0.02764191 -0.06540948 -0.0917401 0.028587325
000030 a5 6d de bd 5e be 47 3d 9d 8a 6d 3d a7 e7 eb bd
       -0.10860757 0.048765533 0.05799352 -0.115187936
000040 37 cd a4 bd e4 57 5a 3d 98 fd 40 3c 97 1e 73 3c
       -0.08046954 0.053306475 0.011779211 0.014838836
000050 b7 3b 4b 3d 3f b2 dd 3d 5e e4 9e 3d e2 6f a2 bc
       0.049617495 0.10825013 0.07758401 -0.01982874
000060 d4 c8 b0 3d b6 2e d5 3d 56 48 e7 3c b1 1d 60 3d
       0.08632055 0.104093 0.028232735 0.054715816
000070 c5 f1 9e bd 74 28 d3 3d 1e 9d 87 bd 9e fd ba bd
       -0.07760958 0.1031045 -0.066217646 -0.09130405
000080 27 3b 65 bd 15 ac 7d 3d 27 a2 e2 bd 36 72 ce bd
       -0.055964615 0.06193169 -0.11066084 -0.10080378
000090 1c 72 df 3d 77 e9 8a bd b6 a3 e7 3d a6 81 8f 3d
       0.109104365 -0.06782811 0.11310522 0.0700715
0000a0 c1 08 b1 bc fb ee 90 bc db c0 c5 3d dc fa 06 bd
       -0.02161062 -0.01769208 0.09655925 -0.032954082
0000b0 b6 c5 a8 bd 60 67 e3 bd f1 e2 c3 bc de e0 8a bd
       -0.08240835 -0.111037016 -0.023911925 -0.06781171
0000c0 ed f1 cf 3d 6c 1c 06 3d a7 cc 26 bc 26 27 dd 3d
       0.101535656 0.03274195 -0.010180629 0.107984826
0000d0 53 7b 33 bd db 0c 26 3c 2b c3 4e bd 9a c6 de bd
       -0.043818783 0.010134901 -0.050479095 -0.10877724
0000e0 0b 78 c3 3c 85 6b c1 3d 6c 70 cd 3d b5 1b 08 bd
       0.023860952 0.09444336 0.100312084 -0.03322955
0000f0 fd 0b c7 3d a1 c9 c1 3a 70 a6 9c 3d ea 5f 60 3d
       0.097190835 0.0014784822 0.07648933 0.05477897
000100 e1 1a 0b 3d f1 c9 cf 3d 48 43 99 3c 4e 12 33 3d
       0.03396118 0.10145939 0.01870884 0.04371863
000110 1e 4a 07 bd 64 7c 8b 3d 60 2c c3 bd e7 4d d5 bb
       -0.033029668 0.06810835 -0.09529948 -0.006509531
000120 ba da fa bc cb d2 d5 3d 77 35 d5 3d 8c 0b b4 3d
       -0.030621875 0.10440596 0.10410588 0.08791265
000130 16 93 c5 3d 66 65 ec 3d 43 a7 4b 3d 8b 34 50 bd
       0.09647195 0.11542778 0.04972006 -0.05083136
000140 5b cf 01 3b 9a fc 30 bc 2c 6e af bd 92 1d c7 bd
       0.0019807431 -0.010802412 -0.085659355 -0.09722437
000150 55 c4 99 bd c4 f1 43 bd f1 3a d6 bd 34 b1 d6 3b
       -0.075081505 -0.047837988 -0.10460461 0.006551886
000160 67 9a c3 bd 64 3b 12 3b a2 8a 12 3d fb 04 7e bd
       -0.09550934 0.0022313232 0.03577674 -0.06201647
000170 fe e8 d3 3d a1 c1 10 3c e0 4f 66 bc d7 ad 66 3d
       0.10347174 0.008835227 -0.01405713 0.05631813
000180 ee 95 ea 3d 4f 5d bd 3d 0a ff ab bc b8 9d dd 3d
       0.11454378 0.09246313 -0.020995636 0.10821098
000190 50 a3 cc 3d d1 c6 0a bd d8 a8 80 3d 2a 4c 16 bd
       0.09992087 -0.033881012 0.062822044 -0.03669373
0001a0 a5 41 2a 3d 3f cf ca bd 21 9d 80 3c 59 63 ea 3c
       0.04156651 -0.0990281 0.015699925 0.028611826
0001b0 42 c5 b9 bd 43 56 e4 3c f9 9e 11 bd 84 83 c2 bd
       -0.09070827 0.027873164 -0.035552 -0.09497741
0001c0 8d 4f 6d bd ec 37 50 3c 01 17 d5 bd b2 71 65 bd
       -0.057937194 0.012708645 -0.10404778 -0.05601663
0001d0 a5 10 b8 bc ef f6 b3 bc e2 22 ff 3c 00 63 a7 bd
       -0.022468874 -0.021968333 0.031144563 -0.081731796
0001e0 93 3b 5e bc e7 af b7 bd dc 54 e9 3d dc d5 09 3d
       -0.013564008 -0.089690976 0.11393139 0.033651218
0001f0 e7 b3 81 bd db f8 19 3a b9 97 dd 3c 57 61 91 bd
       -0.06333142 0.0005873569 0.027049886 -0.07098644
000200 b9 63 6a 3d 5c 68 81 bc 94 17 d4 3c 70 df ba bd
       0.05722401 -0.015796833 0.02589015 -0.091246486
000210 1b 53 1c 3d 69 16 a4 bd 12 04 db 3d 0d c4 0c 3d
       0.038165193 -0.08012087 0.10694136 0.034366656
000220 8a b0 47 3d fc d0 66 bd 1a 96 55 bd bc 77 ac bc
       0.048752345 -0.056351647 -0.0521451 -0.021053188
000230 12 31 c4 3d 3f f2 c8 3d ac 78 93 bd 35 5b 74 bb
       0.09579672 0.0981183 -0.07200751 -0.003728581
000240 d0 f7 91 3d ae 59 c4 bd 00 7c b3 3d b6 e0 af 3d
       0.071273446 -0.095874175 0.087638855 0.08587782
000250 da 7e 54 3d dc 68 43 3c 3e 25 9c bd 48 32 95 3d
       0.051878788 0.011926856 -0.07624291 0.07284981
000260 ed 87 01 3d 76 f7 ab bd 09 6b c9 3d 59 e7 0a 3c
       0.03162377 -0.08396809 0.098348685 0.008478009
000270 f4 68 c1 3c bf f1 e9 3d a1 b2 f0 3b 60 7c 7e 3c
       0.023609616 0.114230625 0.007345513 0.015532583
000280 14 27 af 3d 12 34 5d bc ad c2 63 bd 38 6f eb bd
       0.085523754 -0.013501184 -0.05560558 -0.11495823
000290 2c 45 9e 3d 9e 17 ad 3d 74 02 3d bc 74 66 bc 3d
       0.07728037 0.0845177 -0.011536229 0.09199229
0002a0 93 9c dc bc 49 0c ce 3d c9 fd 3f 3d e1 52 8b 3c
       -0.02693013 0.10060937 0.046872888 0.017007293
0002b0 1c 43 5e 3d 8b 1f 6e 3d a1 fe a4 3d a9 d5 b9 39
       0.05426322 0.05813555 0.08056379 0.0003544514
0002c0 e8 e8 1f bb 0d e6 3b bd 72 bd 6f bd 4e a7 a1 bd
       -0.0024400298 -0.04587369 -0.05853028 -0.07893239
0002d0 62 fe d1 bc bc ee aa 3d 00 ae 8e bd 62 f9 03 3b
       -0.025633994 0.08346316 -0.069667816 0.0020137657
0002e0 6f 5f 34 bc f3 eb 24 bd 4f 92 89 bd e4 3e 9f bd
       -0.011009081 -0.04026408 -0.06717359 -0.07775667
0002f0 a5 a2 59 3d ca 0c dd bd 84 56 15 3b 29 e3 b5 bd
       0.053133626 -0.10793455 0.0022787163 -0.08881218
000300 c1 e4 89 3c 2a b4 8b 3d d9 05 84 3d 65 13 f1 3b
       0.016832711 0.06821473 0.06446428 0.0073570483
000310 b4 be af 3d 2b aa 84 bc 84 23 b0 3a 9b 25 5a 3d
       0.085812956 -0.016194424 0.0013438319 0.05325852
000320 92 48 a0 3d 98 62 30 3d 0d 20 59 bd f3 ba 94 bd
       0.07826342 0.043062776 -0.05300908 -0.0726222
000330 36 70 e2 bd 43 89 44 bd 3b 0e 02 bc 5a 50 07 bd
       -0.11056559 -0.047982465 -0.007937963 -0.033035614
000340 35 43 8d 3d b2 57 5d bd 64 9d ed 3c 0f af 0a 3c
       0.06897584 -0.05403871 0.029005714 0.008464589
000350 c9 7e c5 bd 05 d3 39 bd dc cf a0 bd f8 ed b8 bd
       -0.09643323 -0.04536726 -0.07852146 -0.09029764
000360 8e 96 4e 3d 79 16 47 bd 47 3e cb 3d 91 4d 51 3c
       0.05043655 -0.048605416 0.09923988 0.012774841
000370 71 86 da 3c 6c 97 16 bd b2 c6 15 3d 9b 7e 72 bd
       0.026675435 -0.0367655 0.036566444 -0.05920277
000380 35 b1 8a 3d e4 51 a2 bc 70 6b 2c 3d 3e ab 89 bd
       0.06772081 -0.01981444 0.042094648 -0.06722115
000390 ff 7f 3e bd 9f 72 99 bc 86 4d aa 3d fe eb 89 bd
       -0.046508785 -0.018731413 0.08315568 -0.06734465
0003a0 9c 12 cd 3d bf 2a 4f bd 77 51 ce 3d f0 d2 a9 3c
       0.10013315 -0.050577875 0.10074132 0.020730466
0003b0 c5 ab cc 3d ea 08 e8 bc 4e 11 eb bd 3a bc a3 bd
       0.099937 -0.028324563 -0.1147791 -0.07994886
0003c0 78 d1 4a bd 88 91 bd bd 6f c5 30 3d 19 e5 00 bd
       -0.04951617 -0.092562735 0.043157037 -0.031468485
0003d0 04 65 04 3d d9 80 a5 3b 08 4d ff bc aa 02 d8 bd
       0.0323229 0.00505076 -0.031164661 -0.10547383
0003e0 6f 78 34 bc 1b 30 c3 3c 78 d1 68 3d c5 5b 61 bd
       -0.011015042 0.02382665 0.05684039 -0.05501916
0003f0 d4 57 75 3d 36 3b 00 3c 1d 16 d6 3d 89 3a 23 3b
       0.059898213 0.007826617 0.104534365 0.0024906716

fc2.weight f4 [256, 256]
000000 b8 2a 6d bc 7c 24 0b 3d d4 12 c8 bc 40 fd ca 3a
       -0.014475517 0.03397034 -0.02442304 0.0015486851
000010 dc 54 40 3d a4 f3 d3 bc ac 07 a8 bc f8 fb 19 bc
       0.04695593 -0.025873013 -0.02051147 -0.009398453
000020 1c 6b ea 3c f2 87 6c 3d 1e 23 5a 3d 40 2c 32 bb
       0.028615527 0.057746835 0.053256147 -0.002718702
000030 00 9d 44 bd 2c c6 d8 3c 9e 0f 5d bd 28 96 13 3c
       -0.04800129 0.026461683 -0.05396997 0.009007968
000040 c0 b5 c0 ba 68 2c 27 bd e0 db d1 3c 10 66 ae 3c
       -0.0014702603 -0.040813833 0.02561754 0.021288902
000050 c0 41 8e bb e0 0c 87 bc b4 1c ce bc 38 53 73 bd
       -0.004341334 -0.016485631 -0.025160171 -0.059405535
000060 10 94 c0 3b ee 53 72 bd 20 5d 32 bc 18 1e 11 bd
       0.0058770254 -0.059162073 -0.010886461 -0.03542909
000070 60 99 27 3c a4 ba 07 bd d4 c8 5b 3d 40 9a f4 3a
       0.010229439 -0.03313698 0.05365832 0.0018661693
000080 dc 42 bd bc 50 49 e3 bb b0 f9 b0 bc 3e a1 6e bd
       -0.02310317 -0.0069362298 -0.021603435 -0.05825924
000090 90 50 de 3c 5e 64 45 3d 30 41 d3 bb cc 54 61 3d
       0.027138025 0.04819142 -0.00644698 0.05501251
0000a0 0a 40 1f 3d f0 0c c4 3c 24 15 52 bd c4 db c0 3c
       0.03887943 0.02393195 -0.051289693 0.023542292
0000b0 00 ca 6e 3b 50 72 69 3d fc ec 3d 3d 9e 60 6d 3d
       0.003643632 0.056993783 0.046368584 0.05795347
0000c0 7e a5 0b 3d 38 2e 9b 3c 00 e8 a2 3c 3c fa 82 bc
       0.034093373 0.018942937 0.019886017 -0.015988462
0000d0 94 f7 cb 3c dc 78 46 3d b8 0d 25 bc e8 22 47 bd
       0.024898328 0.048455104 -0.010074072 -0.048617274
0000e0 3a 24 79 bd d0 98 33 3d c8 bd 1d 3c ec 8e c3 3c
       -0.060825564 0.043846905 0.009627767 0.023871861
0000f0 b0 93 98 bc 90 90 25 3c 80 6a 5a ba fc 18 74 bd
       -0.01862511 0.010105267 -0.000833191 -0.05959414
000100 c8 47 88 3c 60 24 d1 bc 5c aa 1e bd 58 65 9c bc
       0.01663579 -0.02553004 -0.038736686 -0.019091293
000110 80 ae 46 ba f4 20 a1 bc 06 5f 03 3d 60 c4 b4 3b
       -0.0007579103 -0.019669034 0.032073043 0.005516574
000120 40 98 06 bc ac 53 3c bd 4c 05 52 3d 90 cd 64 bd
       -0.00821501 -0.045978233 0.051274583 -0.055860102
000130 60 ed 92 bc 68 cc 01 bd f8 bd 62 3c 94 84 9e bc
       -0.017935455 -0.031689078 0.013839237 -0.019350328
000140 a0 f8 31 bc 74 11 0e 3d 38 b7 12 3c 98 b0 5e bc
       -0.0108624995 0.034684613 0.008954816 -0.013591908
000150 70 4a 9b bc 88 7e 09 bd b0 0c c6 bc b0 e9 85 3c
       -0.018956393 -0.033567935 -0.024175972 0.016346782
000160 58 c7 81 bc e0 af 1e 3c 16 63 03 bd 3a 5b 40 bd
       -0.015842125 0.009685487 -0.032076918 -0.046962
000170 08 eb 3c 3d 30 64 d0 3c 0c f2 73 bd 18 6d f0 bc
       0.04612258 0.025438398 -0.059557006 -0.029348895
000180 a6 cf 13 3d 10 91 91 bc 7e fa 3a 3d c0 fa 2d bd
       0.0360867 -0.017769367 0.045649044 -0.042475462
000190 66 93 19 bd b0 ef 29 bc 48 0c ac bc 98 19 bf bc
       -0.037494086 -0.010372087 -0.02100195 -0.023327634
0001a0 82 d2 58 bd 32 c8 7c 3d 5a 1b 09 3d c0 91 28 3d
       -0.05293513 0.06171436 0.03347335 0.041154623
0001b0 f0 27 2a 3d f0 44 aa bb 18 a2 3a bd 4c 07 e8 3c
       0.041541994 -0.0051962063 -0.04556474 0.028323792
0001c0 a0 5d 2b bd 00 6d 95 bb 0e 0b 58 3d a8 51 3d bd
       -0.041837335 -0.004560113 0.052744918 -0.04622045
0001d0 40 05 2a 3d 94 a1 93 3c 00 be 03 b9 a8 02 11 bc
       0.041508913 0.018021382 -0.00012563914 -0.008850731
0001e0 68 dc 80 3c e0 f5 81 3b 78 b0 d4 bc dc 13 c2 bc
       0.015730098 0.003966078 -0.025963053 -0.02369111
0001f0 74 99 48 3d 44 88 aa bc 54 b7 cf 3c 8c d8 8e bc
       0.04897447 -0.02081693 0.025355972 -0.017437242
000200 e8 71 13 bc d4 25 a3 3c 80 7a 3a bd 60 e8 e2 3c
       -0.008999325 0.019915499 -0.04552698 0.027698696
000210 f8 a2 1a 3d f8 d4 1c bc e0 88 3b bc 5a 71 60 bd
       0.037753075 -0.00957226 -0.011446208 -0.0547956
000220 60 d4 7c 3d 40 94 1e 3b 28 97 a6 bc 60 55 94 3b
       0.061725974 0.002419725 -0.020335749 0.004526779
000230 c4 8b 90 bc d0 22 01 bd 46 61 06 3d 92 4e 34 3d
       -0.01764477 -0.03152734 0.03280761 0.044020243
000240 c8 40 06 3c 8e 54 1f bd 10 11 73 bd f8 e2 39 3c
       0.008194156 -0.038898997 -0.059342444 0.0113456175
000250 c4 50 0e bd a0 23 60 3c c0 14 a0 bb fc 33 98 bc
       -0.034744993 0.013680369 -0.004885286 -0.018579476
000260 d6 c7 2f 3d 8a 8f 6c bd 68 3c a2 bc 86 72 3b bd
       0.042915188 -0.057754077 -0.019804195 -0.045763515
000270 f0 97 a4 3b 7e c9 3b bd f8 6d 5f 3d 96 de 53 bd
       0.005022995 -0.045846455 0.054548234 -0.051725946
000280 78 b2 57 bd d0 01 c9 3b fc 75 8f 3c ac 18 b8 3c
       -0.052660435 0.0061342493 0.017512314 0.022472702
000290 e0 12 72 bc bc 8a 55 bd 4c 13 7d 3d 00 a1 13 bb
       -0.014775008 -0.05213426 0.06178598 -0.0022526383
0002a0 94 1e fe bc 28 fc 48 3c 40 aa ce ba 44 0f 68 bd
       -0.03102044 0.01226715 -0.0015767291 -0.056655183
0002b0 90 ae dd bb dc ef 9f 3c 04 32 64 3d 94 bc 1e 3d
       -0.0067651942 0.019523554 0.05571176 0.03875406
0002c0 c8 e5 78 bd e4 6a 0a bd 40 7d 18 3d 30 86 86 bb
       -0.06076601 -0.033793345 0.037228823 -0.004105352
0002d0 20 cf 03 3b 00 58 63 bb e0 cb 79 bd c0 28 1f 3c
       0.002011247 -0.0034689903 -0.060985446 0.009714305
0002e0 b8 d2 b1 3c d0 ac de bb 70 f8 48 3d 28 26 47 bd
       0.021706924 -0.006795503 0.049065053 -0.048620373
0002f0 08 14 9f bc 6e ac 04 3d 70 3f 6a bc 20 58 36 3d
       -0.019418731 0.032391004 -0.014297351 0.044517636
000300 76 25 19 bd c8 38 fd bc d0 9b ef bb 90 c8 d0 bb
       -0.03738924 -0.030910864 -0.0073122755 -0.006371565
000310 fe f0 6b bd 58 20 38 bc b0 bd 7a bc 58 d2 63 bc
       -0.057602875 -0.01123818 -0.015304014 -0.01390513
000320 80 10 bc 3b 30 83 9b 3c 68 75 38 bc a8 a7 a2 3c
       0.0057392716 0.018983454 -0.011258461 0.019855335
000330 10 a9 f2 bc 5e 35 4d 3d 54 aa 4e bd 66 87 0a bd
       -0.02962163 0.050099723 -0.050455406 -0.033820532
000340 d0 90 ae 3b c8 a3 9f bc 38 13 f9 bc ac ec 10 3d
       0.0053273216 -0.019487277 -0.030404672 0.035381958
000350 9a 9e 2a 3d e0 24 39 3b f4 56 ef bc c2 af 64 bd
       0.04165516 0.002825074 -0.029216267 -0.05583168
000360 58 b4 e4 bc ca db 35 bd 36 f4 31 bd 78 c6 36 3c
       -0.027918026 -0.04439906 -0.04344579 0.011155717
000370 64 c0 97 bc 30 cc ff bc 18 66 ee bc e0 c4 c0 3b
       -0.018524356 -0.031225294 -0.029101416 0.0058828443
000380 24 58 04 3d 2e 06 32 bd 40 0d ce bb de 8f 1c bd
       0.03231062 -0.043462925 -0.0062882006 -0.03822314
000390 7c b1 b4 bc 76 78 02 3d cc 46 f6 bc d8 44 bc bc
       -0.022057287 0.03185316 -0.030063055 -0.022982046
0003a0 f4 c6 aa 3c 56 26 32 bd a2 a6 52 bd f8 af 00 3d
       0.020846821 -0.04349359 -0.051428445 0.031417817
0003b0 9c f4 b3 bc 3a 93 25 bd 36 47 13 bd 12 8b 20 bd
       -0.021967225 -0.04042361 -0.035956584 -0.039195128
0003c0 b0 1c 09 bd bc 93 66 3d b0 43 81 bc 2e 0d 6e bd
       -0.033474624 0.056293234 -0.015779346 -0.058118038
0003d0 66 cc 3d bd 7a a4 76 3d 7c 09 74 bd f0 b1 1d 3c
       -0.046337508 0.06021545 -0.059579358 0.009624943
0003e0 a0 62 5e bd 2a 5e 14 bd a8 e9 ec 3c ea b2 68 bd
       -0.054293275 -0.036222614 0.02892001 -0.05681125
0003f0 4a 1e 06 bd 18 a8 36 3d 50 65 64 3c b0 9b 70 bd
       -0.03274373 0.0445939 0.01394017 -0.058742225

fc2.bias f4 [256]
000000 66 92 43 3d 4c 68 01 3d 00 a1 6e bd 62 2b 2a bd
       0.04774704 0.031593606 -0.05825901 -0.04154528
000010 3e 75 77 3d 3a 2e 4d bd d4 25 84 bc b8 e3 0c bd
       0.060414545 -0.050092913 -0.01613132 -0.034396857
000020 1a d3 4d bd b8 3b 96 3c 68 30 f6 3c 2c 6b b1 3c
       -0.05025015 0.018339023 0.030052379 0.021657549
000030 a0 b3 26 3d fc 17 f3 bc 00 21 f1 bc 20 13 65 3d
       0.040698647 -0.029674523 -0.029434681 0.055926442
000040 c0 f1 8d bc d0 fb 8b 3b 32 83 50 bd d0 b6 56 bc
       -0.01732719 0.0042719617 -0.050906368 -0.013105109
000050 e8 51 3f bd 00 a0 ad 3c 9a cf 38 bd 00 17 94 3c
       -0.04670897 0.021194458 -0.04511986 0.018077374
000060 90 4f cd bc b6 15 3d 3d 84 8e c1 3c d8 82 b9 bc
       -0.025062352 0.046163283 0.023627527 -0.022645399
000070 10 04 18 bc d2 c2 35 3d ac 6c 89 bc c8 9c bf bc
       -0.009278312 0.04437525 -0.016775452 -0.023390189
000080 62 fa 28 3d b0 f7 35 3d d0 a9 af 3c 70 be 65 bc
       0.04125441 0.044425666 0.021443278 -0.014022455
000090 4c 57 05 3d 10 8e 39 3d e0 9a 16 3d e0 26 fa 3b
       0.032553956 0.045301497 0.036768794 0.007634029
0000a0 8c 7e 12 bd 38 fb 35 3d fe 1b 4c 3d 44 dc 03 3d
       -0.035765216 0.044429034 0.049831383 0.032192484
0000b0 48 5b 82 bc 24 11 d5 bc 20 a4 85 bc 18 c8 40 bc
       -0.015912667 -0.02600915 -0.016313612 -0.011766456
0000c0 b4 bc 43 bd 68 96 06 bd 74 77 01 3d e6 cb 26 bd
       -0.047787383 -0.032858282 0.03160806 -0.040721796
0000d0 90 4a 9e bc f8 f5 3b bc 80 dd 4a bb 3c 71 7e bd
       -0.019322664 -0.011472218 -0.0030954778 -0.062119707
0000e0 b0 4e 72 3d 00 dc de 3c f8 57 8d bc 1e ab 71 3d
       0.059157073 0.027204514 -0.01725386 0.05900108
0000f0 94 29 01 bd 14 e3 55 3d b0 41 75 bd 0e c9 46 3d
       -0.031533793 0.05221851 -0.059877098 0.048531584
000100 8c af 05 bd dc 6a f8 3c 46 58 52 3d 20 24 39 3c
       -0.032638118 0.030324392 0.051353715 0.011300117
000110 70 be c5 bb a8 3c 36 bc 68 e3 54 bc ce 8d 45 3d
       -0.006034665 -0.01112286 -0.012993671 0.04823094
000120 10 60 c8 bb 62 c6 14 bd e2 02 3c 3d 84 33 23 3d
       -0.006114967 -0.036322005 0.045901187 0.03984405
000130 ec cc f2 3c 40 02 9b 3c 3a c5 42 3d 10 35 3f 3d
       0.02963873 0.018921971 0.04755137 0.046681464
000140 40 d8 c4 ba ec dc 06 bd 10 e1 94 3c fe b0 38 bd
       -0.0015018061 -0.03292553 0.018173724 -0.045090668
000150 0a df 03 bd e4 ff 42 bd e2 1a 4d 3d 6c bf a4 bc
       -0.03219513 -0.047607318 0.050074466 -0.020110808
000160 78 fd fc bc 18 26 f7 bc 60 ec 6f bb e6 c8 4e 3d
       -0.030882582 -0.030169532 -0.0036609396 0.05048456
000170 ee 14 7b bd 82 9e 40 3d d4 c6 30 3d 98 aa 99 3c
       -0.061299257 0.047026165 0.043158367 0.018758103
000180 e0 e9 ca 3b 64 9e 28 bd 56 c6 54 3d e6 65 37 3d
       0.006192431 -0.041166678 0.05194696 0.044774912
000190 c0 ad 69 bd 30 ed 49 bc 02 62 04 bd bc 81 96 bc
       -0.057050467 -0.012324616 -0.03232003 -0.018372409
0001a0 30 48 19 3d f8 ae ad bc 50 1e 37 bc 80 fd d1 bb
       0.03742236 -0.021201596 -0.011176661 -0.0064083934
0001b0 06 7b 3c bd 38 90 34 3c 6e d3 73 3d c0 20 69 bc
       -0.04601576 0.011020713 0.059527807 -0.014229
0001c0 fc be 2c 3d 1a 7b 64 3d 70 07 20 bd ca 28 21 3d
       0.042174324 0.05578146 -0.039069593 0.03934554
0001d0 d2 3c 32 bd 88 d6 43 3c c6 8e 4d bd f0 10 b3 3c
       -0.043515034 0.011953004 -0.050184987 0.021858662
0001e0 d0 34 94 bb 48 ed 2d 3d 60 ec f1 bb b0 b9 6d 3c
       -0.0045228973 0.042462617 -0.0073829144 0.014509603
0001f0 c0 76 85 ba 6c 4b 68 bd a0 4e 06 bd c6 ce 0f bd
       -0.0010182485 -0.056712553 -0.032789826 -0.035109304
000200 d8 cb 4f bc dc 24 bd bc 78 0e 7b bc b4 18 7d bd
       -0.0126828775 -0.023088865 -0.015323274 -0.061791137
000210 c8 cb 1d 3c 3c ff 8a 3c 50 84 50 bd 40 6f a1 bb
       0.009631105 0.016967408 -0.050907433 -0.004926592
000220 f0 ae bf 3b 34 87 b4 3c 66 a6 32 3d 02 17 44 3d
       0.0058497116 0.022037126 0.04361572 0.047873504
000230 28 ad a6 bc 20 2f 7a 3d 26 30 77 3d 5c c0 d4 bc
       -0.02034624 0.0610801 0.060348652 -0.02597063
000240 d4 68 bd 3c 00 f5 61 3a 48 61 70 bd ec c0 bc 3c
       0.023121275 0.00086195767 -0.058686525 0.023041211
000250 d8 31 0c 3d d0 12 18 bd a0 02 06 3d 00 c9 3e bb
       0.034227222 -0.037127316 0.032717347 -0.0029111505
000260 54 81 85 3c 38 54 5a bd 98 51 3a 3c 92 b7 7c bd
       0.01629702 -0.053302974 0.0113719925 -0.061698504
000270 40 bd b7 ba a0 d3 05 bc 6c 1c 45 bd 84 cd 59 bd
       -0.0014018193 -0.008168131 -0.04812281 -0.05317451
000280 14 6d e8 bc f0 27 e0 bb f4 39 3a bd 88 93 81 bc
       -0.028372325 -0.0068406984 -0.045465425 -0.015817419
000290 30 a0 c0 3b ec 27 ab 3c a4 d8 b4 bc b8 08 3d 3c
       0.005878471 0.02089306 -0.022075959 0.011537723
0002a0 7e 6d 44 3d 82 93 7a bd 68 06 8d 3c c0 f7 32 3c
       0.047955982 -0.06117583 0.017214969 0.010923326
0002b0 e8 cf 87 bc 6e 7c 7f bd 3c f9 4b bd 98 f6 f3 3c
       -0.01657863 -0.062374525 -0.049798235 0.029780671
0002c0 00 61 72 3d 18 0b 2c 3c 2a 9e 53 bd 4e 96 70 bd
       0.059174538 0.010500692 -0.05166451 -0.05873709
0002d0 14 91 9e 3c 94 90 f6 3c dc 29 37 3d 50 c3 29 3d
       0.019356288 0.030098237 0.044717655 0.04144603
0002e0 0a 0f 2c bd b2 ba 61 bd 60 f0 2b bc 3e 91 10 3d
       -0.04200653 -0.055109687 -0.010494322 0.035294764
0002f0 e8 83 c0 bc 60 bb 28 bc 00 aa 34 bd b0 7f 54 bc
       -0.023500398 -0.01029858 -0.044107437 -0.012969896
000300 b2 c3 65 3d b4 14 0f 3d 50 61 72 3d b8 27 18 3c
       0.056094833 0.034931853 0.059174836 0.009286813
000310 e2 27 0f bd 0c de 35 3d e8 5a c4 bc 7a 89 61 bd
       -0.034950145 0.044401214 -0.023969129 -0.05506275
000320 1a d3 50 bd 70 9f 43 bd da 5f 4c bd 50 81 5c 3d
       -0.050982572 -0.047759473 -0.0498961 0.05383426
000330 b8 81 7e 3c 82 cc 77 3d 2a fe 17 3d 6c cd 4d 3d
       0.015533857 0.06049777 0.037107624 0.050244734
000340 4a 15 0f 3d 4c a6 6f 3d fa a7 28 bd 40 8c 92 bb
       0.034932412 0.058508202 -0.04117582 -0.0044722855
000350 d4 9b 2c 3d 34 c7 59 bd e8 6d 79 3c 8a 0c 25 bd
       0.042140797 -0.05316849 0.015223958 -0.04029516
000360 92 8a 02 bd 50 37 6f bc 3a 80 28 bd 64 ae fe 3c
       -0.031870432 -0.01460059 -0.04113791 0.031089015
000370 70 0d 99 bc 6e 6e 30 bd e0 ce e8 3b 48 f5 a4 bc
       -0.018683165 -0.043074064 0.0071047395 -0.02013649
000380 9e f1 15 bd 80 70 39 3d 84 d0 56 3d 00 b2 4d 3b
       -0.036607377 0.045273304 0.05244495 0.0031386614
000390 e4 12 fa 3c 3e fa 38 3d a0 31 6e 3d f8 ef b6 bc
       0.030526586 0.045160525 0.058152795 -0.022331223
0003a0 32 59 01 3d fa bc 28 3d 80 68 53 3a 18 52 9e bc
       0.031579204 0.041195847 0.0008064583 -0.019326255
0003b0 60 1c f1 3c 54 75 df bc 8e 90 71 bd 30 33 f3 3c
       0.029432476 -0.027277626 -0.05897575 0.029687494
0003c0 f6 f5 05 bd 08 3a c5 3c a4 49 63 3d 5c ce bb 3c
       -0.03270527 0.024075523 0.05549015 0.022925548
0003d0 28 6c 4c 3c 5c b9 5e bd 6a b1 7c bd 64 8b 72 3d
       0.012476958 -0.05437599 -0.061692633 0.059214965
0003e0 82 b2 17 3d 44 2e e0 bc a0 42 31 bb e0 0f f8 3b
       0.037035473 -0.027365811 -0.0027047768 0.007570252
0003f0 5a 07 73 bd 94 14 77 3d 64 fe 93 3c 62 ec 47 3d
       -0.059333183 0.06032236 0.018065639 0.048809417

fc3.weight f4 [256, 256]
000000 ca 04 6f bd 20 21 2e bb 04 96 dc 3c f4 72 c7 bc
       -0.058354177 -0.0026570037 0.026927002 -0.024346806
000010 9c b5 7d 3d f8 9f 0f bd 62 05 6c bd f0 c0 83 3c
       0.061940774 -0.035064667 -0.05762232 0.01608321
000020 1e 96 14 3d cc 95 30 3d 68 ec 0f 3d 80 fe 95 3b
       0.036275975 0.043111607 0.035137564 0.004577458
000030 bc 21 3e bd 02 e8 34 3d ee 2e 6d bd 98 6c ff bc
       -0.04641889 0.044166572 -0.057906084 -0.031179711
000040 28 69 5a bd 58 06 01 bd b4 20 dd 3c d6 30 3f bd
       -0.05332294 -0.03150019 0.026993133 -0.046677433
000050 ea 56 3e 3d 10 35 75 bd 24 a8 79 3d 00 46 21 bc
       0.046469606 -0.059865057 0.060951367 -0.009843349
000060 e4 84 de bc 28 54 c4 bc d6 f7 5a bd 30 b9 63 3d
       -0.027162977 -0.02396591 -0.05345901 0.05559653
000070 e8 06 76 3d b8 0c 54 bd 10 c5 42 3c 70 c0 5d 3d
       0.06006518 -0.051769942 0.011887804 0.0541386
000080 30 a1 c1 bb e4 75 71 3d f8 fd 55 3c 38 fa e1 3c
       -0.0059091076 0.05895032 0.013061039 0.027585134
000090 00 3f 13 3a 24 e3 f1 bc 6c 3b 28 bd 0a 85 49 bd
       0.0005616993 -0.029527254 -0.041072294 -0.04919914
0000a0 9a 04 72 3d c4 f5 77 bd 28 db eb bc a0 7c a6 3b
       0.05908642 -0.060537115 -0.028791025 0.0050807744
0000b0 66 d0 06 bd a4 e1 29 bd e0 13 09 bd 86 81 30 bd
       -0.032913588 -0.041474953 -0.03346622 -0.043092273
0000c0 58 89 0c 3d 64 1a b3 3c 28 ff 6a bc 68 61 28 bc
       0.03431067 0.02186317 -0.014343061 -0.01027713
0000d0 2c f8 24 3d 48 15 cc 3c a0 b2 38 3c b4 e2 51 bd
       0.040275738 0.024912491 0.011273056 -0.05124159
0000e0 d8 97 f4 bc 32 28 64 bd fc 49 47 bd 6e eb 43 3d
       -0.029857561 -0.055702396 -0.04865454 0.047831945
0000f0 62 76 15 3d 64 af c9 3c 16 fb 1d 3d de ef 5c bd
       0.03648985 0.024619766 0.038569532 -0.053939693
000100 18 0a ad bc 40 3d 6a 3b 0c 40 8c 3c c8 28 1c bd
       -0.021122977 0.0035742074 0.017120384 -0.03812483
000110 f4 98 ec bc b0 e3 9f bb 60 e4 26 3c 64 f4 d2 3c
       -0.028881527 -0.0048794374 0.010186285 0.0257513
000120 40 1a 7c bd 00 30 07 3a e2 9b 52 3d 18 5c 5e 3d
       -0.06154847 0.0005156994 0.051418193 0.054287046
000130 70 37 f3 3c 26 e4 47 3d 40 48 61 3c 94 6f 2e bd
       0.02968952 0.048801564 0.013750136 -0.042586878
000140 e4 ba d5 bc d8 4a 2b 3d fc d9 d4 bc 26 92 57 3d
       -0.026090093 0.041819423 -0.02598285 0.052629612
000150 0c 4f de bc 84 cb 83 bc c6 dd 14 3d 64 ae d1 3c
       -0.027137302 -0.016088255 0.036344312 0.025595851
000160 62 b1 6d 3d 02 e0 5d 3d da 52 23 3d d0 b1 c5 bb
       0.058030494 0.05416871 0.039873935 -0.00603316
000170 c2 6d 4b 3d 74 2d 67 3d 9c 89 7c bd 70 f1 89 bb
       0.04966522 0.05643983 -0.061654672 -0.00420969
000180 c8 c6 7a 3d 9c 62 f5 3c d8 9f d3 3c 5c 3c 14 3d
       0.06122473 0.029954247 0.025833055 0.036190376
000190 2a 27 76 3d 00 b7 ed 3a 54 ff 00 3d 30 e0 f2 3b
       0.060095944 0.0018136203 0.0314935 0.007411979
0001a0 7a 4e 11 3d de 2b 4c 3d a0 02 f5 3c 1c 30 b2 bc
       0.03547523 0.049846523 0.029908478 -0.021751456
0001b0 dc d3 97 3c a0 0a 6e 3b 00 3a 21 bd d8 bb 15 3d
       0.01853364 0.003632225 -0.039361954 0.036556095
0001c0 70 38 1c bc 9e 46 06 3d 68 60 5c 3d 80 1e 5c bd
       -0.00953494 0.03278219 0.053802878 -0.053740025
0001d0 d0 6b 3c 3c 48 d8 5f 3c 38 1e 57 bc 44 9c d8 bc
       0.011500314 0.013662405 -0.013129763 -0.0264417
0001e0 10 74 9f 3b 0c 82 74 bd 00 d5 f2 bb 68 71 1b 3d
       0.0048661307 -0.059694335 -0.0074106455 0.03794995
0001f0 70 98 2d bd fc 31 3b bd c2 7f 64 3d 98 01 6f bd
       -0.042381704 -0.045701966 0.0557859 -0.05835113
000200 32 ce 2d 3d d8 dc 25 bc 80 4a 47 3a 04 10 d1 3c
       0.04243297 -0.010123454 0.0007602349 0.025520332
000210 fe a7 68 bd 64 8f 5f 3d 78 1f 4a 3c 76 05 2e bd
       -0.056800835 0.054580107 0.012336604 -0.042485677
000220 c6 99 7e bd 84 1a bd 3c e0 86 18 3d 02 3b 4d 3d
       -0.06215837 0.023083933 0.037238 0.050105102
000230 a4 37 8b 3c bc 23 e1 bc 7c 78 15 3d b0 78 47 3c
       0.016994305 -0.02748286 0.036491856 0.01217477
000240 d0 88 c7 bc 16 c7 51 bd f0 15 47 bc 7a 3b 67 bd
       -0.02435723 -0.051215254 -0.012151226 -0.056453206
000250 bc 60 3a 3d 96 2d 32 3d 14 ed 2e bd 40 b6 13 3b
       0.04550241 0.043500505 -0.042706564 0.002253905
000260 2e c6 59 3d 90 83 3d bc 06 06 00 bd 44 8e d8 3c
       0.053167515 -0.0115670115 -0.031255744 0.026435025
000270 20 3f bf 3b e2 83 50 3d 2c 3b 87 3c 12 73 62 bd
       0.0058363825 0.050907023 0.016507708 -0.05528552
000280 00 dc 01 3d 20 74 5a bb 58 67 f4 bc c0 2a 5b bb
       0.03170395 -0.0033333376 -0.029834434 -0.003344223
000290 14 0d 46 bd 48 99 c1 bc aa 05 75 3d 70 57 f4 bc
       -0.048352316 -0.02363266 0.059819855 -0.02982685
0002a0 00 4c 4c ba a0 c4 f9 3c a0 d8 54 bc 08 dc 62 3c
       -0.00077933073 0.030489266 -0.012991101 0.013846405
0002b0 28 3e f6 3c 48 92 2b 3d 1a 4a 01 bd bc c2 15 3d
       0.030058935 0.04188755 -0.03156481 0.036562666
0002c0 a6 fd 0c bd 70 c0 ce 3b 60 9b 9d 3b 34 94 f6 bc
       -0.034421586 0.0063095614 0.004809782 -0.030099966
0002d0 0e 94 09 bd c0 ff c7 bb 64 5e 04 3d c8 35 0e bd
       -0.03358846 -0.006103486 0.03231658 -0.03471926
0002e0 00 c9 f0 ba 40 3a 1c bb 60 2e 9f 3b d8 b1 6b 3d
       -0.001837045 -0.002383843 0.0048578233 0.057542652
0002f0 90 43 09 bc aa 98 04 3d 18 30 7c bd 94 f1 5d 3d
       -0.008377925 0.032372154 -0.061569303 0.054185465
000300 0a ea 1e bd c0 64 f1 bc 80 15 0d bc 0c 36 2b 3d
       -0.038797416 -0.029466987 -0.008611083 0.04179959
000310 94 9c a7 3c c0 ea fd 3a 10 c1 90 bc 3c 20 fa 3c
       0.020460404 0.0019372329 -0.017670184 0.030532949
000320 2a 8f 47 bd 42 d2 2d bd f8 b8 c6 3c 9c 61 23 bd
       -0.048720516 -0.042436846 0.024258122 -0.03988801
000330 d6 86 48 bd e8 bd 5a 3c b8 dc 87 3c 38 6a 7a 3c
       -0.048956715 0.013350941 0.01658474 0.015284114
000340 c0 2b eb ba 80 d3 4c 3a fc 4d a6 3c 90 50 54 bd
       -0.0017942116 0.00078134984 0.020300858 -0.051834643
000350 8c b9 ce 3c d2 98 12 bd 08 ec 3f bc 84 70 7c bd
       0.02523496 -0.035790272 -0.011713989 -0.06163074
000360 20 cc 91 3b 84 71 35 bd c4 7a aa 3c 46 1e 3c bd
       0.0044493824 -0.04429771 0.020810492 -0.04592731
000370 00 11 61 bb 88 40 e4 bc 50 19 59 3d 98 6c c6 bc
       -0.0034342408 -0.027862802 0.053002656 -0.024221703
000380 0e 65 22 bd f4 a9 ef 3c f4 a6 a4 bc 20 13 33 bb
       -0.039647155 0.029255845 -0.02009914 -0.0027324632
000390 3c 78 5b bd 70 e0 2d bd 2c 00 ab 3c 6e 5f 71 bd
       -0.05358146 -0.04245037 0.020874105 -0.0589289
0003a0 00 ae f1 3b 00 6a 8f 3b e8 b5 4c 3c a6 80 35 bd
       0.0073754787 0.00437665 0.012494542 -0.04431214
0003b0 72 ff 5e bd 4e 97 15 3d 94 36 54 3d c8 2b dd bc
       -0.05444283 0.03652125 0.051809862 -0.026998416
0003c0 e4 3c 96 3c 66 8c 72 3d 12 51 08 3d da e4 0b bd
       0.018339582 0.059215926 0.03328044 -0.034153797
0003d0 e4 bd 20 3d 8c 8f b4 3c fe 67 05 3d 04 12 69 3d
       0.039243594 0.022041105 0.032569878 0.056901947
0003e0 64 1f be bc 04 33 86 bc 66 2b 79 3d 16 3f 55 bd
       -0.023208328 -0.016381748 0.060832404 -0.052062117
0003f0 d6 69 09 3d e2 39 43 bd 26 5a 01 bd 40 5a ce bc
       0.0335482 -0.047662623 -0.031580113 -0.025189519

fc3.bias f4 [256]
000000 4a 74 7a bd 60 06 15 3d 80 6c 89 3c c8 28 5a 3d
       -0.06114606 0.036383033 0.01677537 0.05326155
000010 f8 a6 31 3c 38 27 3d 3c 34 52 2c 3d 62 a9 4e bd
       0.010843031 0.011544995 0.042070583 -0.050454505
000020 40 d9 d6 ba 08 dd 20 3c ba 37 65 3d e4 c1 6d bd
       -0.001639165 0.009818323 0.055961348 -0.058046237
000030 48 e4 8b bc c0 d2 b5 bb a8 d6 6d 3c ca ff 0d bd
       -0.017076626 -0.005548805 0.01451651 -0.034667768
000040 68 1c 7a bd 38 2e 23 3d c8 31 78 3c 80 5f 30 3d
       -0.061062247 0.039839 0.0151485875 0.043059826
000050 1e ed 16 bd c6 8a 27 3d ec 45 11 3d 6c b3 81 3c
       -0.036847226 0.04090383 0.035467073 0.015832625
000060 50 f2 8a bc 52 01 72 bd 6a 67 76 3d 06 0f 2e 3d
       -0.016961247 -0.05908329 0.060157217 0.042494796
000070 8a 6b 38 bd 70 99 fb 3b 58 11 64 3d cc 46 7d bd
       -0.045024432 0.0076782033 0.055680603 -0.061835095
000080 a8 17 7d 3d cc d0 4a 3d 02 d3 15 3d d0 60 9a 3b
       0.06179014 0.04951553 0.036578186 0.004711248
000090 48 5a ef 3c f4 dc 39 3d 8a 78 34 3d 34 7d c8 bc
       0.029217854 0.045376733 0.044060268 -0.024473764
0000a0 d0 5c e4 3b 10 29 6b bd b6 49 22 3d 3a 0d 5e bd
       0.006969072 -0.057412207 0.039621077 -0.054211833
0000b0 2e 29 70 3d 48 e4 e1 bc e0 2d 7d 3c 64 c2 fb bc
       0.058633022 -0.027574673 0.015452832 -0.030732341
0000c0 aa 5f 34 3d 88 61 ca bc 24 e2 31 bd 4c d5 04 bd
       0.044036545 -0.02470471 -0.043428555 -0.03242998
0000d0 30 a9 15 bc d0 88 c1 bc 3e ab 04 3d d4 cc 83 3c
       -0.009134576 -0.023624808 0.03238987 0.01608888
0000e0 c8 7b 13 3c cc b4 d4 3c 56 6d 78 bd c0 d5 8c bc
       0.00900168 0.025965117 -0.060651146 -0.017191768
0000f0 16 e7 75 3d f6 2d 39 bd 06 5f 54 3d 2a 75 50 bd
       0.060034834 -0.045209847 0.051848434 -0.050892986
000100 02 a9 48 bd 94 30 f3 bc 60 1c 9e 3c a4 f7 a5 3c
       -0.048989303 -0.02968625 0.01930064 0.020259686
000110 8e 2a 79 bd f8 ca 32 bc 7c 7f 1e bd 78 46 97 bc
       -0.0608316 -0.010912649 -0.038695797 -0.01846622
000120 c4 bf e5 3c 52 78 79 3d 9c 64 b5 3c a8 be 2b bd
       0.028045543 0.060905762 0.0221427 -0.04192987
000130 5c 33 e4 bc 00 53 10 bb cc a5 07 3d f0 fa ae 3b
       -0.027856521 -0.0022022128 0.0331171 0.0053399727
000140 4e ec 32 bd 50 12 48 3c 60 95 cd 3c d0 77 38 bd
       -0.04368239 0.012211397 0.025095642 -0.045036137
000150 06 01 67 bd b8 92 7d bd 70 c3 67 3d 4a 81 47 bd
       -0.05639746 -0.0619075 0.056582868 -0.048707284
000160 8a 6f 5e bd 80 fa 83 bc 20 7c 8d 3c 7e 9c 76 bd
       -0.05430559 -0.016110659 0.017271101 -0.060207836
000170 b0 15 30 3d 58 5c 19 bc aa e2 3a bd 80 b5 ae 3b
       0.042989433 -0.009360395 -0.04562632 0.005331695
000180 e0 b1 37 bb 10 ae 79 3c 40 c9 cf bb 84 87 19 3d
       -0.0028029606 0.015239254 -0.0063411295 0.037482753
000190 7e 2b 38 3d ec 88 7c 3d 30 76 c5 3b c0 c4 6e 3c
       0.044963352 0.061654016 0.006026052 0.014573276
0001a0 48 d7 7c 3c 2c b1 bb 3c 20 6d c8 3c 00 ce ae ba
       0.015432186 0.02291163 0.024466097 -0.0013336539
0001b0 00 e5 d5 3a 9e 24 5c bd de 8f 09 bd aa de 30 3d
       0.0016318858 -0.05374586 -0.033584468 0.0431811
0001c0 74 68 6a 3d 4e 41 77 bd f0 1a 47 bd 16 2d 2d 3d
       0.05722852 -0.060365014 -0.048609674 0.042279325
0001d0 ac a8 74 bd 40 06 d7 bc f0 a4 53 bc c6 99 1a 3d
       -0.05973117 -0.026248097 -0.012917742 0.037744306
0001e0 98 b4 2a 3c 0c 79 f4 3c f8 56 2d 3c c8 be 96 bc
       0.0104190335 0.029842876 0.010579817 -0.018401518
0001f0 54 dc 0f 3d a0 b5 4f bc 60 0b 15 bc 84 c2 b5 3c
       0.03512223 -0.01267758 -0.00909695 0.022187479
000200 00 ae ad bb 88 7c a7 3c 28 21 94 bc 8e 0b 77 3d
       -0.0053002834 0.020445123 -0.018082216 0.060313754
000210 96 a6 24 3d 28 4f 94 bc ee 31 36 bd 60 ba 58 bb
       0.04019793 -0.01810415 -0.04448121 -0.0033070073
000220 40 af 5e bd 7c a9 35 bd 78 8c 74 bc 4c 18 de bc
       -0.05436635 -0.044351086 -0.0149260685 -0.027111195
000230 e4 7b 7f bd 80 d8 e0 3a 5a 50 56 bd f8 db de bc
       -0.06237401 0.0017154366 -0.052322723 -0.027204499
000240 f8 7f 4b 3d 0c 64 97 3c 24 26 1f bd d4 bd 79 3d
       0.049682587 0.018480323 -0.038854733 0.06097205
000250 04 c2 f8 3c e8 73 a4 bc 40 02 0d bd d2 83 29 3d
       0.030365951 -0.0200748 -0.034425974 0.04138548
000260 50 3e 1b bc bc bf c9 3c 0c 43 00 bd 10 15 ea bb
       -0.009475306 0.024627559 -0.03131394 -0.007143624
000270 7a d4 50 3d 40 d0 60 3c a0 f2 6a bc 00 9c 06 3c
       0.050983883 0.013721526 -0.014340073 0.008215904
000280 5a a9 52 3d e6 2d 7f 3d c8 d9 f0 3c 60 c1 70 3c
       0.051431037 0.06229963 0.029400721 0.014694542
000290 e2 45 3e bd a0 7a c0 3c 1a 2f 24 bd 42 08 3f 3d
       -0.046453364 0.023495972 -0.040083982 0.046638735
0002a0 08 1a 07 3d 60 72 b4 bc 48 2e ec 3c 70 84 23 3d
       0.03298381 -0.022027194 0.028830662 0.039921224
0002b0 b8 5c 51 bd d2 e2 09 bd 50 46 1e 3c d8 ac 8b bc
       -0.051113814 -0.03366358 0.0096603185 -0.017050192
0002c0 9e 00 3e bd 84 0d 1f bd c0 cb af 3c 16 d4 7e 3d
       -0.046387307 -0.03883125 0.02145946 0.06221398
0002d0 60 59 c9 3b 80 ad 26 bb b6 ee 5c 3d 48 cc cb 3c
       0.0061446875 -0.0025433004 0.05393859 0.024877682
0002e0 80 89 19 3c 82 5e 1d 3d 6a c9 1c 3d 9e 6c 67 bd
       0.009371161 0.038420208 0.03827802 -0.05650007
0002f0 b4 bf 9a bc 00 6e ef 3a 00 81 25 bc 58 7a 39 3d
       -0.01889024 0.0018267035 -0.010101557 0.04528269
000300 e8 f6 5a 3d 08 eb 7b bc 1c b2 42 3d ec a3 fb bc
       0.053458124 -0.01537586 0.04753314 -0.030717812
000310 78 1e 38 3c 86 89 71 bd 38 74 9f bc 86 8a 30 bd
       0.011237733 -0.058969043 -0.019464597 -0.043100856
000320 c0 aa 88 bc 18 51 7d 3c a0 ad 77 3b 90 f0 14 bd
       -0.016682982 0.015461229 0.0037792698 -0.03636223
000330 60 b2 6f bd dc 31 cd bc a6 d5 6d 3d 90 67 23 bc
       -0.05851972 -0.025048189 0.05806508 -0.009973422
000340 10 30 32 bc 64 54 6b bd 6e ca 49 bd a0 73 b9 bb
       -0.010875717 -0.057453528 -0.049265318 -0.0056595355
000350 e2 bb 3e bd 58 89 ab bc 8c ad e5 3c 54 03 2b 3d
       -0.046565898 -0.020939514 0.028036855 0.04175122
000360 58 a7 cd 3c 40 84 e3 3c 40 82 58 3c 00 6c 0b bb
       0.02510421 0.027773023 0.013214648 -0.002127409
000370 e0 b5 1d bc d0 7c 36 bd 80 fe 0b 3c d4 7b ea bc
       -0.009625882 -0.044552624 0.008544564 -0.028623499
000380 68 07 12 bd 6c 78 9f bc 48 45 5b 3d 76 32 64 3d
       -0.035651594 -0.019466601 0.05353287 0.055712186
000390 00 1f da ba 14 5e b3 3c 04 6a ef bc 70 3c 85 3b
       -0.0016641319 0.021895446 -0.029225357 0.0040660426
0003a0 00 37 a2 39 c0 e9 8e 3a 34 c2 19 bd e6 c6 6e bd
       0.00030940026 0.0010903403 -0.037538722 -0.058295153
0003b0 e2 7e 34 3d 98 1b a8 3c 10 76 a0 3b ce d0 6f 3d
       0.044066317 0.02052097 0.0048968866 0.05854874
0003c0 4c 45 b8 bc 0c c9 2e bd 32 7e 1f bd 62 5f 12 3d
       -0.02249398 -0.042672202 -0.03893871 0.035735495
0003d0 4a 59 28 bd 0e a4 2f bd f4 ac 11 bd 38 fe f6 3c
       -0.041100778 -0.042881064 -0.03556533 0.030150518
0003e0 00 16 27 bc 7c f7 a2 bc 68 e4 d2 bc 40 86 79 bb
       -0.010198116 -0.0198934 -0.025743678 -0.0038074404
0003f0 88 17 5a bd 70 33 02 bc 32 d8 1a 3d c6 86 27 3d
       -0.053245097 -0.007946834 0.037803836 0.040900014

output.weight f4 [4, 256]
000000 34 ad 72 bd 30 24 8e 3b 28 7a 35 3c 54 a6 89 bc
       -0.05924721 0.00433781 0.011076488 -0.016802944
000010 80 cc e4 3c 00 5b 55 3d da 67 42 3d e8 47 c8 bc
       0.027929544 0.052088737 0.04746232 -0.02444835
000020 1e fc 4f bd 00 e3 1b bd e0 31 a2 3b a8 ee 5c 3c
       -0.050777547 -0.03805828 0.004949793 0.013484634
000030 78 df b7 bc 66 2e 2c bd dc e4 3b bd fc 11 24 bd
       -0.022445425 -0.042036436 -0.045872554 -0.040056214
000040 70 93 81 bb 4c 7e 08 3d 40 91 37 3b c0 3f db bc
       -0.0039543435 0.03332357 0.002801016 -0.026763797
000050 1c c8 83 3c fc 58 0a 3d b0 c1 00 3d 90 2d d0 bc
       0.01608663 0.03377627 0.031434715 -0.02541235
000060 10 a8 04 bd 84 46 e3 3c 40 44 d5 bb 6c c6 7d 3d
       -0.03238684 0.027743585 -0.00650838 0.061956808
000070 48 bb 95 bc 60 15 83 bb d6 80 40 3d 70 92 8e bc
       -0.01827778 -0.004000351 0.046997868 -0.017403811
000080 c0 ed 80 3a e0 68 de 3b c8 b5 a3 3c 48 d8 6a 3c
       0.000983648 0.0067874044 0.019984141 0.014333792
000090 b4 b6 18 3d 22 5d 46 3d 70 cc 34 bc b6 48 18 bd
       0.037283614 0.048428662 -0.01103507 -0.037178718
0000a0 92 d1 31 bd c4 ce cd bc 7e ce 59 bd 60 d6 50 3b
       -0.043412752 -0.025123008 -0.053175442 0.0031866059
0000b0 0c 98 89 3c dc 10 3f 3d 2e 4a 09 3d 0e ee 0a bd
       0.016796134 0.046646938 0.03351801 -0.033918433
0000c0 98 df 01 bc ee 7d 76 3d d2 82 4e 3d 30 d8 e8 3b
       -0.007926844 0.06017869 0.05041773 0.0071058497
0000d0 58 2b c8 bc 82 b6 02 bd 6c 1a 53 bd 8c be c2 3c
       -0.02443473 -0.031912334 -0.05153887 0.0237725
0000e0 54 81 ef bc 70 e8 d5 bb f8 6f 84 3c fa d1 56 3d
       -0.029236473 -0.006527953 0.016166672 0.052446343
0000f0 c0 41 41 3b 40 e4 75 bd 0e a1 3e 3d a8 2b e7 bc
       0.0029488653 -0.06003213 0.046540312 -0.02821906
000100 00 66 60 39 08 23 3f 3c 88 ba 2a 3d 1c d4 ac 3c
       0.00021400303 0.011666067 0.041681796 0.021097235
000110 b8 50 be 3c e8 e3 0a bd 80 ea 5c ba 80 5c 57 bb
       0.02323185 -0.033908755 -0.0008427277 -0.003286153
000120 a6 cc 06 3d e0 c8 ea 3c 0a bc 03 3d b0 fb 1c 3c
       0.03291001 0.028660238 0.03216175 0.009581491
000130 28 62 7a bc 00 bb 47 3b 7c b2 ac bc c0 00 9b ba
       -0.015282191 0.003047645 -0.021081202 -0.0011825785
000140 30 a9 a5 bc b0 ec 88 bb 90 e2 9c 3c 20 7f 49 bc
       -0.020222276 -0.004178606 0.019151002 -0.012298375
000150 60 47 09 3c 28 16 92 bc 50 d4 77 bd 18 0c 42 3c
       0.0083788335 -0.01783283 -0.06050521 0.011843704
000160 f0 f8 b3 3c bc ea 68 3d 74 e5 9d 3c 3c 34 cc 3c
       0.021969289 0.056864485 0.01927445 0.024927251
000170 78 a6 04 bd be 36 0c bd e0 ac 02 bb e8 0f a5 bc
       -0.03238532 -0.034231894 -0.0019939467 -0.020149186
000180 30 21 43 3d 3a da 27 bd 68 27 60 bc 76 5d 35 bd
       0.047639072 -0.0409796 -0.01368127 -0.044278584
000190 80 33 c2 3b ec 1d ad 3c 64 8a a6 bc 22 51 49 3d
       0.0059265494 0.021132432 -0.020329662 0.04914964
0001a0 be f0 61 bd c0 96 e7 3c 54 c3 87 bc a6 6f 0c bd
       -0.05516123 0.028270125 -0.016572632 -0.034286164
0001b0 d0 f3 75 bd cc 20 e6 bc 86 7f 09 3d b8 eb 9d bc
       -0.06004697 -0.02809181 0.03356888 -0.019277439
0001c0 2c 60 de bc 10 e9 d1 3b 60 44 6e bc 40 ff 67 3b
       -0.027145468 0.006405957 -0.014542669 0.0035399944
0001d0 f2 c9 5d 3d c0 ed 47 bc 42 b0 11 bd 2a 90 1f 3d
       0.05414767 -0.01220268 -0.035568483 0.038955845
0001e0 84 2c 3a 3d 4c e7 15 bd f4 ab cd 3c a2 a5 3f 3d
       0.04545261 -0.036597535 0.025106408 0.04678882
0001f0 a8 d7 1d bc 7a 66 07 3d f0 0d 14 bd 14 f0 81 3c
       -0.009633936 0.033056714 -0.036146104 0.015861548
000200 78 ca 51 3c 80 c0 d4 ba 02 4e 2a bd 9c 03 5a bd
       0.01280462 -0.0016231686 -0.0415783 -0.0532261
000210 14 2e 0b 3d be a3 21 3d c0 e3 be ba 50 7f 2b bd
       0.03397949 0.039462797 -0.0014563724 -0.04186946
000220 20 36 05 3d b2 b4 21 bd 88 86 7a bd 60 e4 39 3c
       0.03252232 -0.039478965 -0.061163455 0.011345953
000230 00 0b c9 3c 80 fb 9e ba 00 13 83 39 b4 93 39 bd
       0.024541378 -0.0012129396 0.00025000423 -0.045306876
000240 18 08 b9 3c 72 9b 0b bd 40 e0 ab 3a 50 85 69 bd
       0.022586867 -0.03408379 0.0013113096 -0.057011902
000250 92 37 3b 3d fa 28 66 3d 6c 20 13 3d a8 14 78 bc
       0.045707293 0.056191422 0.03591959 -0.015141644
000260 d4 68 d7 3c 02 be 01 bd d0 5d 9b bb 48 8f 4c bd
       0.026295103 -0.031675346 -0.004741408 -0.04994133
000270 4e ae 1c 3d ec 35 c7 bc a0 93 cc 3b 74 d6 bb 3c
       0.038252167 -0.024317704 0.006243184 0.022929408
000280 7c f1 f0 3c 86 1f 0b 3d 78 76 d1 bc ea 32 5f bd
       0.029412024 0.03396561 -0.025569186 -0.054491915
000290 e0 11 1b 3c 00 46 7e 3c c0 fb 67 bd a8 ab 50 3c
       0.009464711 0.015519619 -0.056636572 0.012736239
0002a0 f0 ad b6 bc e0 48 c1 bb 2e 1b 32 3d a8 eb d1 bc
       -0.022299737 -0.00589858 0.04348295 -0.025625065
0002b0 a0 ba 7b 3b 40 ad f3 3c 1c a6 cc bc 00 a4 c1 b8
       0.0038410798 0.029745698 -0.02498155 -9.2335045e-05
0002c0 68 94 74 3c b8 b6 5a bc 70 ba f8 bb 24 e0 e8 3c
       0.014927961 -0.013349228 -0.0075905845 0.028427191
0002d0 ac 7f 6b 3d 18 53 c8 3c f0 0f 13 bd 60 84 24 bd
       0.057494804 0.024453685 -0.03590387 -0.040165305
0002e0 e6 b0 69 bd 7a cc 08 3d 50 68 78 3d 40 cd 22 bb
       -0.05705347 0.03339813 0.060646355 -0.0024841577
0002f0 6c f8 09 3d 6e ba 5c bd 9c bb 58 bd d0 52 6a 3d
       0.03368418 -0.05388873 -0.052913293 0.057207882
000300 68 39 1f bd 96 46 23 3d a0 e6 0a 3d 7c 35 da bc
       -0.038873106 0.039862238 0.033911347 -0.026636831
000310 ce b8 40 bd 34 87 e1 bc 5a b6 7b 3d 8a 44 2a 3d
       -0.047051243 -0.02753029 0.0614532 0.04156927
000320 c6 1d 2c 3d 86 7a 3c bd a8 91 27 bd 10 16 a7 3c
       0.04202058 -0.046015285 -0.040910393 0.020396262
000330 28 a9 b8 3c aa 6c 65 bd 54 e7 4a 3d 54 f4 bf 3c
       0.022541597 -0.056011833 0.049537018 0.023431934
000340 20 b3 4a bc 22 73 36 bd 9a 57 61 bd 08 d8 27 3d
       -0.012371808 -0.044543393 -0.055015184 0.040977508
000350 40 dc e7 3c 38 c4 b6 3c 00 cc f2 38 96 6a 3e 3d
       0.028303266 0.022310361 0.00011577457 0.046488367
000360 a8 c3 0c bd 30 51 74 3d 40 b2 15 bb 18 82 2c 3d
       -0.03436628 0.05964774 -0.002284184 0.042116255
000370 02 4a 50 3d 84 b8 f9 bc b8 70 2a bd 8a 9e 13 bd
       0.05085183 -0.030483492 -0.041611403 -0.036039867
000380 2c 33 d1 bc 48 75 4d bd ee 04 6e 3d 08 37 59 bc
       -0.025537096 -0.050160676 0.05811017 -0.013257749
000390 64 fd cc 3c 3e 2d 3e bd c4 a1 12 3d 82 75 0c bd
       0.02502317 -0.046429865 0.035798803 -0.03429175
0003a0 b4 dd d1 bc c2 f4 69 bd 00 c7 88 3a 0e 9b 6a 3d
       -0.025618412 -0.057118185 0.0010435283 0.057276778
0003b0 40 2f 02 3c 50 5d a6 bb 50 85 fb bc d2 a4 17 bd
       0.007945836 -0.0050770417 -0.030703217 -0.03702242
0003c0 c0 e0 43 bb 3a fb 2f bd cc eb 97 bc b0 62 35 bd
       -0.00298886 -0.042964198 -0.018545054 -0.04428357
0003d0 dc 45 df bc 06 7c 7b bd a0 f0 1f 3d 88 76 28 bd
       -0.027254991 -0.061397575 0.039047837 -0.041128665
0003e0 ec fc cd 3c b0 a4 4c bc 18 74 62 bc 54 36 2a bd
       0.025145017 -0.012490436 -0.013821624 -0.041555718
0003f0 00 a2 07 bc 0c e6 9d 3c 00 5d da 39 40 8a 20 bd
       -0.00827837 0.019274734 0.0004164949 -0.039194345

output.bias f4 [4]
000000 bc 37 0a bd f0 c4 b7 3b 94 0b a4 bc 8e ea 17 3d
       -0.03374456 0.0056081936 -0.020025052 0.037088923
