fetch_sticky_mittens_step_4_blocks/networks/ours_10k_block_4_uber_level_0_seed_150/network_pick_n_reach_goal_1.pth (torch, 612343 bytes, 8 tensors)

fc1.weight f4 [256, 75]
0.08329861 -0.09790904 0.046051826 0.108003244 0.049127296 -0.005992596 -0.05269956 -0.015210741
0.032203294 0.07450117 -0.054568913 0.021723205 0.07869924 -0.09897178 -0.10536319 -0.094268434
0.11333514 0.110184856 -0.067510165 -0.053933863 -0.06039655 0.083289914 0.06361363 0.08622905
-0.085882254 -0.076048546 -0.010195303 0.102246664 -0.06774107 0.06862418 -0.009131728 -0.016107263
0.020091172 -0.023068124 -0.027800675 0.10371951 -0.09018942 -0.054643743 -0.07429968 -0.072339855
-0.039069947 -0.0880645 -0.09433525 -0.0282684 0.029353311 -0.10830549 0.025292069 0.069919646
-0.10899491 0.1125264 0.03529473 0.008173525 0.0993561 -0.113586366 0.039034266 -0.07415733
0.020423573 -0.04055033 0.06308123 -0.07110349 0.061851963 -0.09792171 -0.057701014 -0.10908408
0.042460978 0.02819857 -0.021812843 -0.00464948 -0.10609213 -0.036287248 -0.039552882 -0.10199442
-0.031629056 -0.011146209 0.09664824 0.0884778 0.07120853 0.018310506 -0.03111289 0.09925407
0.08732181 0.11293914 -0.04345102 0.052961193 0.027673542 0.019994445 -0.0125029255 -0.07018727
0.076860964 -0.08675035 -0.0073077967 -0.05393119 -0.0619503 0.110839784 0.023653898 -0.09808817
-0.09151295 -0.008778089 -0.103258096 -0.04045923 -0.09502835 0.09824214 -0.11189436 -0.066052586
-0.047994398 0.018711386 0.09189199 0.00046289287 0.086540595 -0.02134779 0.012872904 -0.040787596
0.02590262 -0.042604674 0.03395039 -0.007158239 -0.11501699 0.07465781 -0.056542195 -0.0008079427
0.026887596 0.025269302 0.045623112 0.06261719 -0.07617335 0.08704829 0.115236014 0.038327716
0.025817854 -0.051565163 -0.1082585 -0.03641558 0.009135128 -0.08052103 -0.033714537 -0.0156143345
0.054016203 0.102079086 0.090115875 0.01165834 -0.091156624 -0.097076006 -0.040678617 0.09299821
-0.074469015 0.094237186 0.026591301 -0.026361039 0.051652048 -0.015094137 0.079365455 0.017757492
0.033117805 0.031444173 0.080547914 -0.01922287 -0.04936192 0.05433561 0.010139554 0.083945625
0.004165967 0.071905054 0.11450501 0.098426856 -0.060443956 0.012941014 -0.0260278 -0.015297957
-0.0014062016 -0.007005584 -0.056303002 0.081345454 0.08208805 -0.028624697 0.10742339 0.11303068
-0.031046791 0.04747675 -0.07590967 0.060976706 0.059725363 0.05736396 0.09373467 -0.10892397
-0.049634717 -0.023744995 -0.097219 -0.066916086 -0.061207026 0.035850577 0.021492982 -0.049890514
-0.09752834 -0.042968623 -0.07665999 -0.053266738 -0.1110366 0.065464735 0.087530635 0.07187841
0.11383403 0.10494221 -0.07895199 0.004729029 -0.00018325482 -0.10055707 -0.0007420354 -0.060945254
0.08776742 -0.0039676395 -0.011278629 0.07650936 -0.017242251 -0.044461872 0.012725204 0.06102333
0.10036804 0.08552546 -0.06493691 -0.05861507 0.034564365 0.009882986 0.11130802 -0.099794574
-0.013863317 -0.11164674 0.06753066 0.01950135 -0.11321606 0.0007869234 -0.08789212 0.0062514767
0.09451665 -0.09985533 -0.053846784 0.0354243 -0.0031248573 -0.004204358 -0.04734503 0.102275155
0.10286559 0.10009753 0.053382516 0.07548121 -0.076172225 -0.061695922 0.035989743 0.111389734
0.017660929 0.10298012 -0.020204226 0.1072417 -0.043761257 0.04575502 -3.1164192e-05 -0.10585554
00000000: 7698 aa3d 8984 c8bd d7a0 3c3d ce30 dd3d
00000010: b439 493d 8a5d c4bb 7edb 57bd 7936 79bc
00000020: 9ae7 033d 1294 983d a783 5fbd ddf4 b13c
00000030: 112d a13d b7b1 cabd a8c8 d7bd cf0f c1bd
00000040: 411c e83d 99a8 e13d c542 8abd c1e9 5cbd
00000050: 5f62 77bd e793 aa3d dd47 823d db98 b03d
00000060: 09e3 afbd 57bf 9bbd 330a 27bc b366 d13d
00000070: d5bb 8abd d68a 8c3d 3e9d 15bc 61f3 83bc
00000080: 3e96 a43c 5df9 bcbc 3ebe e3bc e56a d43d
00000090: 3bb5 b8bd 1ed2 5fbd 6e2a 98bd eb26 94bd
000000a0: cf07 20bd 295b b4bd d732 c1bd 2293 e7bc
000000b0: 5b76 f03c 45cf ddbd 5031 cf3c 0832 8f3d
000000c0: b938 dfbd 3e74 e63d 3591 103d 40ea 053c
000000d0: 367b cb3d f89f e8bd 65e2 1f3d ccdf 97bd
000000e0: 564f a73c 1a18 26bd bb30 813d b59e 91bd
000000f0: 7c58 7d3d 2d8b c8bd e657 6cbd 7967 dfbd
00000100: 90eb 2d3d b000 e73c d9b0 b2bc aa5a 98bb
00000110: d546 d9bd f0a1 14bd 3402 22bd 73e2 d0bd
00000120: 788d 01bd 979e 36bc 83ef c53d d933 b53d
00000130: c7d5 913d eaff 953c 76e0 febc b845 cb3d
00000140: c7d5 b23d a34c e73d b2f9 31bd d6ed 583d
00000150: a0b3 e23c 64cb a33c 12d9 4cbc 58be 8fbd
00000160: 4869 9d3d 2baa b1bd 3e76 efbb f4e6 5cbd
00000170: 99bf 7dbd f8ff e23d d2c5 c13c 73e2 c8bd
00000180: 246b bbbd f9d1 0fbc fb78 d3bd 94b8 25bd
00000190: 399e c2bd 2d33 c93d df28 e5bd 9446 87bd
000001a0: c695 44bd 9f48 993c de31 bc3d 6eb0 f239
000001b0: 323c b13d 8fe1 aebc dfe8 523c e510 27bd
000001c0: bb31 d43c 3d82 2ebd 900f 0b3d a98f eabb
000001d0: 078e ebbd 32e6 983d ca98 67bd 1ecc 53ba
000001e0: 6043 dc3c 9101 cf3c 4ddf 3a3d 713d 803d
000001f0: c600 9cbd 6046 b23d dc00 ec3d 86fd 1c3d
00000200: f77f d33c fe35 53bd a2b6 ddbd 8128 15bd
00000210: 81ab 153c 36e8 a4bd 4118 0abd 44d3 7fbc
00000220: 1840 5d3d d70e d13d ac8e b83d 9f02 3f3c
00000230: 53b0 babd c9cf c6bd 9f9e 26bd d875 be3d
00000240: 3683 98bd 6dff c03d 00d6 d93c 1bf3 d7bc
00000250: 1991 533d 664d 77bc 5b8a a23d 2978 913c
00000260: 89a6 073d 9bcb 003d 4ef6 a43d 4879 9dbc
00000270: ba2f 4abd 048f 5e3d 5f20 263c afeb ab3d
00000280: aa82 883b f542 933d 9a81 ea3d 0594 c93d
00000290: 1594 77bd 8c06 543c 4138 d5bc 48a4 7abc
000002a0: 4c50 b8ba 198f e5bb fa9d 66bd 7298 a63d
000002b0: c81d a83d 577e eabc cb00 dc3d a17c e73d
000002c0: d755 febc fb76 423d 8776 9bbd b6c2 793d
000002d0: 95a2 743d 79f6 6a3d f6f7 bf3d 8813 dfbd
000002e0: c64d 4bbd dd84 c2bc c11a c7bd 4d0b 89bd
000002f0: 38b4 7abd 0ed8 123d 0d12 b03c ff59 4cbd
00000300: f0bc c7bd deff 2fbd eaff 9cbd 392e 5abd
00000310: 2867 e3bd 6012 863d 4343 b33d fd34 933d
00000320: d121 e93d f1eb d63d 95b1 a1bd f8f5 9a3b
00000330: 1728 40b9 ddf0 cdbd 2785 42ba bba1 79bd
00000340: 68bf b33d f902 82bb 00ca 38bc f0b0 9c3d
00000350: 9f3f 8dbc a71d 36bd 607d 503c 99f3 793d
00000360: c28d cd3d f927 af3d a5fd 84bd 5b16 70bd
00000370: 5d93 0d3d 3fec 213c 76f5 e33d 1961 ccbd
00000380: f722 63bc 0ca7 e4bd 844d 8a3d 4cc1 9f3c
00000390: d2dd e7bd 8949 4e3a c900 b4bd 30d9 cc3b
000003a0: f291 c13d f480 ccbd 728e 5cbd 1219 113d
000003b0: 68ca 4cbb b6c4 89bb ddec 41bd a375 d13d
000003c0: 32ab d23d efff cc3d a0a7 5a3d e595 9a3d
000003d0: 2f00 9cbd ddb4 7cbd fb69 133d 4d20 e43d
000003e0: a7ad 903c 3ee7 d23d 5583 a5bc 89a1 db3d
000003f0: 013f 33bd 9e69 3b3d 4cb6 02b8 caca d8bd

fc1.bias f4 [256]
0.07576521 0.059090037 -0.07772767 0.09638405 -0.035593692 0.030426081 0.004914472 0.06658307
0.0041438467 -0.07017303 -0.044475682 -0.008074513 -0.029897776 0.080216564 0.0050257905 -0.07629761
0.051716756 -0.019458266 -0.044183254 -0.093296945 0.067720234 -0.034144957 -0.058052767 -0.05783657
-0.03498939 -0.090761855 -0.061426688 -0.06506311 -0.06674954 -0.004058379 -0.09332738 -0.061940704
-0.10794924 0.0029445344 0.06539283 0.079533264 0.061592214 -0.013309437 -0.048495036 0.096252196
0.09772598 -0.033361144 -0.08944487 0.07128911 -0.037926205 0.05667225 0.04787017 -0.07530998
-0.105964765 0.11349666 -0.10584378 -0.012560794 -0.11271805 -0.01771954 -0.012791139 -0.10054242
0.09309129 -0.048223726 0.0072734803 -0.037633035 -0.028564282 0.027256597 -0.058281075 -0.031414922
0.053904418 0.017305046 -0.016770273 0.065884955 0.08675383 0.061616745 0.012404408 0.06759476
0.094753355 0.0904105 0.0479248 -0.101339914 -0.049238943 -0.10880653 -0.07660412 -0.109014176
0.01924269 0.06854684 -0.07123057 0.054591063 0.07192126 -0.09068086 -0.09566226 -0.020635858
-0.05304476 -0.077618 0.06291102 0.11333328 -0.10435072 -0.04235401 -0.08491331 0.071700536
0.02914327 0.10280475 -0.015547574 0.11471868 -0.058561 0.102541454 -0.054498795 0.07302697
0.041984856 -0.06984604 -0.016301956 0.063247465 0.020316865 -0.027980214 -0.029651836 0.0896121
0.1111432 -0.06499621 0.040741567 0.09973256 0.011451602 -0.06994602 0.009802281 -0.08531781
0.09403483 0.105030514 0.06739978 0.008021187 -0.060408883 -0.076158226 0.05439352 -0.03458391
-0.051637553 -0.078256994 0.0051908614 0.0620217 -0.0024280953 0.0899353 0.022353921 0.08389573
0.08479204 0.08274136 0.012502099 -0.08562489 -0.047502104 -0.031965226 0.05021884 -0.034379736
0.004597916 -0.080345325 0.044486362 0.11233696 0.042170756 -6.2755105e-05 -0.05578082 0.08968961
-0.0608897 0.020005718 -0.014674453 0.028454477 -0.062288232 -0.0687315 0.108302064 -0.0029995535
-0.114385635 0.021128291 0.088590495 -0.03567105 0.048345644 0.09694258 0.046600036 -0.089251
-0.059557028 0.09841214 -0.01870833 -0.10589876 0.03064028 -0.10068489 -0.07115289 0.060500283
0.05840872 -0.0057392083 -0.08480443 -0.038885906 -0.042741194 0.07856255 0.078191265 -0.013663297
0.10153326 -0.039733134 -0.031933196 -0.047001563 -0.017833902 0.06615401 0.11051891 0.040694598
-0.0786586 0.010160532 0.059591237 0.09443363 0.019206077 0.070541695 0.11124473 0.08789171
0.11402414 -0.029237712 0.09446973 -0.045556873 0.05199481 -0.07069382 0.08977215 -0.044894785
-0.113301605 -0.0662204 0.06614521 0.051004317 0.00088658277 -0.10612958 -0.07609829 0.003485847
0.0067076795 -0.07470632 -0.04642453 0.0070267273 0.115396395 -0.02988836 -0.06048305 0.09987135
-0.057902202 0.062369335 0.088327594 0.11226263 -0.03281471 -0.010798379 -0.018461851 0.013127186
-0.104335114 -0.07266386 0.110005446 0.053899918 0.099816404 -0.02748401 0.11049185 -0.10754438
0.07196689 0.028016802 0.036492884 -0.04923125 0.0010372831 0.067803815 -0.00041368263 -0.08270465
0.001607241 0.04888105 0.055526923 -0.11041056 -0.07115045 0.048274297 0.09995907 0.05503861
00000000: ca2a 9b3d 6508 723d af2f 9fbd 0065 c53d
00000010: b1ca 11bd 1e40 f93c 9409 a13b b45c 883d
00000020: 1bc9 873b e1b6 8fbd 222c 36bd f64a 04bc
00000030: 2eec f4bc 9548 a43d 63af a43b ec41 9cbd
00000040: f3d4 533d f166 9fbc 80f9 34bd 7812 bfbd
00000050: e8b0 8a3d 95db 0bbd bdc8 6dbd 0ae6 6cbd
00000060: 0951 0fbd 5ae1 b9bd 8d9a 7bbd cf3f 85bd
00000070: fcb3 88bd 27fc 84bb 6d22 bfbd 89b5 7dbd
00000080: 7e14 ddbd 17f9 403b adec 853d 56e2 a23d
00000090: 1e48 7c3d d30f 5abc bba2 46bd df1f c53d
000000a0: 8f24 c83d b2a5 08bd df2e b7bd 0600 923d
000000b0: 8258 1bbd 2921 683d 8313 443d 1e3c 9abd
000000c0: 0e04 d9bd f070 e83d a0c4 d8bd cacb 4dbc
000000d0: b9d8 e6bd 9228 91bc ed91 51bc 2fe9 cdbd
000000e0: a5a6 be3d 3e86 45bd 6056 ee3b 1925 1abd
000000f0: a4ff e9bc 3a49 df3c 23b8 6ebd efac 00bd
00000100: e1ca 5c3d 50c3 8d3c d061 89bc b1ee 863d
00000110: feab b13d d761 7c3d dc3b 4b3c 1f6f 8a3d
00000120: 0c0e c23d 2429 b93d cc4c 443d 4d8b cfbd
00000130: c6ae 49bd f5d5 debd 9fe2 9cbd d342 dfbd
00000140: d9a2 9d3c 4962 8c3d 55e1 91bd e19a 5f3d
00000150: 744b 933d e3b6 b9bd 93ea c3bd 880c a9bc
00000160: 7645 59bd 30f6 9ebd 7ed7 803d 471b e83d
00000170: d5b5 d5bd 667b 2dbd 08e7 adbd bbd7 923d
00000180: debd ee3c 4c8b d23d 40bb 7ebc a1f1 ea3d
00000190: a9dd 6fbd 4101 d23d 213a 5fbd 2a8f 953d
000001a0: 50f8 2b3d 710b 8fbd ae8b 85bc e387 813d
000001b0: 8e6f a63c c336 e5bc 68e8 f2bc 8c86 b73d
000001c0: 0c9f e33d bc1c 85bd a1e0 263d 9640 cc3d
000001d0: 809f 3b3c dc3f 8fbd bf99 203c 1bbb aebd
000001e0: 5595 c03d 3d1a d73d e508 8a3d 4c6b 033c
000001f0: 4e6f 77bd d8f8 9bbd bdcb 5e3d dca7 0dbd
00000200: e681 53bd 3445 a0bd 1a18 aa3b 770a 7e3d
00000210: ae20 1fbb 0030 b83d 921f b73c 86d1 ab3d
00000220: 73a7 ad3d 4d74 a93d 9bd5 4c3c 1a5c afbd
00000230: 9191 42bd f8ed 02bd 45b2 4d3d c4d1 0cbd
00000240: 1daa 963b 178c a4bd 5537 363d ec10 e63d
00000250: 3ebb 2c3d 649b 83b8 6e7a 64bd 30af b73d
00000260: 7a67 79bd 08e3 a33c 1e6d 70bc 5d19 e93c
00000270: f221 7fbd 1ac3 8cbd 79cd dd3d 2894 44bb
00000280: 0443 eabd 3d15 ad3c ef6e b53d cf1b 12bd
00000290: 1506 463d d589 c63d aedf 3e3d 3ac9 b6bd
000002a0: 12f2 73bd 4e8c c93d 3642 99bc 73e1 d8bd
000002b0: 5301 fb3c e133 cebd 9bb8 91bd 25cf 773d
000002c0: fb3d 6f3d f80f bcbb f2ad adbd d446 1fbd
000002d0: 6411 2fbd 67e5 a03d be22 a03d 05dc 5fbc
000002e0: abf0 cf3d 36bf 22bd 62cc 02bd b684 40bd
000002f0: 6718 92bc c17b 873d bd57 e23d 61af 263d
00000300: c317 a1bd 5c78 263c f115 743d 6b66 c13d
00000310: 1056 9d3c 2a78 903d 47d4 e33d 9200 b43d
00000320: 7d85 e93d ed83 efbc 5979 c13d d899 3abd
00000330: 83f8 543d ecc7 90bd 76da b73d 98e3 37bd
00000340: ac0a e8bd 909e 87bd 2477 873d e7e9 503d
00000350: 9069 683a 775a d9bd 6cd9 9bbd cf72 643b
00000360: 18cc db3b a1ff 98bd a627 3ebd 7640 e63b
00000370: f254 ec3d 6fd8 f4bc 13bd 77bd 5a89 cc3d
00000380: dc2a 6dbd fd76 7f3d 19e5 b43d f3e9 e53d
00000390: b868 06bd afeb 30bc 4f3d 97bc 6913 573c
000003a0: a6ad d5bd cad0 94bd 894a e13d 29c6 5c3d
000003b0: 8b6c cc3d 2626 e1bc 8d49 e23d 3a40 dcbd
000003c0: 6063 933d 7e83 e53c 9079 153d b5a6 49bd
000003d0: 72f5 873a badc 8a3d 8be3 d8b9 0e61 a9bd
000003e0: 0faa d23a 7f37 483d 3370 633d ef1e e2bd
000003f0: 54b7 91bd 45bb 453d 57b7 cc3d 2a70 613d

fc2.weight f4 [256, 256]
-0.009412274 -0.057920866 -0.061014444 0.048636705 -0.00031433254 0.039873533 -0.00432913 0.042341046
0.012852676 -0.00028861314 0.025474235 0.039279476 -0.031583577 0.025579467 0.046603844 -0.04952606
-0.003215231 0.011853762 -0.034450024 -0.020805433 0.04808729 0.040157832 0.04453911 -0.0013930127
-0.017630018 -0.048929118 0.05268024 -0.0065550506 -0.013627455 0.03276778 -0.03288623 -0.0052218586
-0.035210043 0.058006264 -0.061556295 -0.039421886 -0.01906927 -0.0023002923 -0.0049990714 -0.009065419
0.029199354 0.026185632 -0.046808578 -0.02098728 -0.0474116 0.04591716 0.013614349 0.016550414
0.00027240068 -0.059572577 -0.020626687 0.057065353 0.026703827 0.03485091 -0.041543886 0.04632648
-0.037303798 0.039056867 0.046227627 0.061057948 -0.047694206 -0.0047702044 0.019737042 -0.029274374
0.028567366 0.045538865 -0.03738548 0.027730934 0.020836145 -0.05820079 -0.033625998 -0.039168008
-0.04363495 0.01921685 -0.05077684 -0.015763573 0.02659735 0.03095638 0.048242137 0.049310513
-0.021373175 -0.034856312 0.008918792 -0.047222488 0.05080045 -0.040108673 0.012016997 -0.003216073
-0.04804176 0.036168598 -0.0017963871 -0.05228187 -0.0286702 -0.041394673 -0.058865488 -0.056013122
0.04082387 0.016840026 0.05176805 -0.024738394 -0.023955122 -0.0087188855 -0.027577892 0.023932718
-0.0034840927 -0.04820022 0.031180888 0.036145583 0.02851601 0.012543961 0.059164047 0.04660652
0.0011219382 -0.02490022 0.056046195 -0.02741696 0.02989304 0.033553787 -0.038347147 0.014454998
-0.00026842207 0.058379084 -0.054825604 -0.03190963 -0.022564426 0.027163394 -0.009567805 -0.05109319
-0.060977995 0.019928865 -0.0004950389 0.03087926 -0.01911544 -0.013352573 -0.019907668 -0.012736216
-0.0074119642 0.055223726 -0.020428374 -0.005970791 -0.04622425 0.03001964 -0.010864198 -0.0034802407
0.046338677 0.05839663 -0.014986441 -0.026726477 -0.059099585 0.021275371 -0.026412927 -0.0019413233
0.001641579 0.008070335 -0.046846524 -0.062350914 -0.031652577 0.042479157 -0.052615568 0.041921362
-0.04393477 -0.014370866 -0.043589644 -0.035349138 -0.00016696751 -0.04128679 0.004221171 -0.023793988
-0.020924918 -0.011744477 -0.01513207 -0.024648756 0.05455909 0.018642068 0.0149684325 -0.0393269
-0.055819593 -0.023125283 0.01601126 0.06052868 0.032383814 0.05781801 0.041335456 -0.034123197
0.002273932 0.005341947 0.017182052 0.0022321641 0.019755326 0.031262025 -0.058242522 0.028037682
-0.018247813 0.015796877 0.027390942 -0.03887613 -0.013229981 -0.026671626 -0.034436963 -0.041061856
0.008615188 -0.021570198 0.01701849 -0.051382266 0.02105984 -0.04865063 -0.051964223 0.02293504
0.04405023 0.049078032 0.01795692 -0.019238323 -0.002999656 -0.021400675 -0.05432704 -0.016440138
0.04507882 -0.0025998354 0.050008938 0.018231198 0.03125993 -0.004925005 0.012478828 -0.056091197
0.042206056 -0.052952796 0.0104029775 0.004485287 -0.015861675 0.050679818 -0.026247576 -0.032659583
0.04685735 0.020930618 -0.0043799654 0.03415402 0.038184583 0.029636368 0.05726043 -0.0018875226
-0.059588723 0.042986482 0.0012316927 0.014643259 -0.0143694505 0.021395147 0.035631754 -0.057975814
-0.041456386 0.059471235 -0.009061411 0.06137207 0.0039333105 -0.010450721 -0.05658427 0.044087693
00000000: f035 1abc 6e3e 6dbd 48ea 79bd 4837 473d
00000010: 00cd a4b9 6e52 233d 60db 8dbb ce6d 2d3d
00000020: 0894 523c 0051 97b9 58af d03c 84e3 203d
00000030: c85d 01bd 088c d13c ace3 3e3d d6db 4abd
00000040: a0b6 52bb 4836 423c 781b 0dbd 2870 aabc
00000050: 2ef7 443d 8a7c 243d a46e 363d c095 b6ba
00000060: d46c 90bc e669 48bd 3cc7 573d c0cb d6bb
00000070: b045 5fbc 8237 063d b6b3 06bd 201c abbb
00000080: 6838 10bd fa97 6d3d 7422 7cbd d878 21bd
00000090: 2837 9cbc 80c0 16bb 40cf a3bb 2087 14bc
000000a0: 7c33 ef3c 4083 d63c 5aba 3fbd 84ed abbc
000000b0: aa32 42bd a213 3c3d b80e 5f3c bc94 873c
000000c0: 00d1 8e39 6002 74bd 4cf9 a8bc 5cbd 693d
000000d0: fcc1 da3c d4bf 0e3d ec29 2abd d6c0 3d3d
000000e0: decb 18bd 18fa 1f3d 2e59 3d3d e617 7a3d
000000f0: 005b 43bd 604f 9cbb 94af a13c d0d0 efbc
00000100: 1c06 ea3c f686 3a3d 8421 19bd fc2b e33c
00000110: 90b0 aa3c f463 6ebd 6abb 09bd a26e 20bd
00000120: 90ba 32bd a86c 9d3c 60fb 4fbd 9c22 81bc
00000130: b0e2 d93c 3c98 fd3c 8c99 453d d2f9 493d
00000140: cc16 afbc 7ec5 0ebd 2020 123c 5e6c 41bd
00000150: 2214 503d fe48 24bd f0e2 443c c0c4 52bb
00000160: 70c7 44bd 8625 143d c074 ebba 8425 56bd
00000170: c4dd eabc 768d 29bd f01c 71bd 046e 65bd
00000180: ee36 273d 18f4 893c bc0a 543d 2ca8 cabc
00000190: 883d c4bc a8d9 0ebc 08eb e1bc 8c0e c43c
000001a0: 6055 64bb 986d 45bd 106f ff3c 640d 143d
000001b0: 689a e93c 3085 4d3c 0056 723d 7ae6 3e3d
000001c0: 000e 933a 8cfb cbbc b290 653d 8899 e0bc
000001d0: 40e2 f43c b26f 093d e611 1dbd a8d4 6c3c
000001e0: 00bb 8cb9 e81e 6f3d d090 60bd acb3 02bd
000001f0: 08d9 b8bc c485 de3c 48c2 1cbc 1847 51bd
00000200: 10c4 79bd dc41 a33c 80c5 01ba 80f6 fc3c
00000210: fc97 9cbc c0c4 5abc 6815 a3bc 90ab 50bc
00000220: 10e0 f2bb 4632 623d 6859 a7bc a0a6 c3bb
00000230: a455 3dbd c0eb f53c c0ff 31bc c014 64bb
00000240: a0cd 3d3d 4e31 6f3d b089 75bc 7cf1 dabc
00000250: 6812 72bd b049 ae3c ec5f d8bc 0074 feba
00000260: 402a d73a 7039 043c 24e2 3fbd ac63 7fbd
00000270: 22a6 01bd a0fe 2d3d 6c83 57bd bcb5 2b3d
00000280: f2f4 33bd c873 6bbc 0e8b 32bd 42ca 10bd
00000290: 0014 2fb9 561c 29bd c051 8a3b 9ceb c2bc
000002a0: bc6a abbc e86b 40bc 80ec 77bc 30ec c9bc
000002b0: 5a79 5f3d 40b7 983c 283e 753c 3e15 21bd
000002c0: 16a3 64bd 3c71 bdbc 0c2a 833c ecec 773d
000002d0: e4a4 043d 94d2 6c3d 5e4f 293d c4c4 0bbd
000002e0: 4006 153b 800b af3b 60c1 8c3c 8049 123b
000002f0: ecd5 a13c 9c0c 003d b68f 6ebd 48af e53c
00000300: 707c 95bc 7468 813c f862 e03c 943c 1fbd
00000310: 90c2 58bc 747e dabc c60d 0dbd 7a30 28bd
00000320: b826 0d3c fcb3 b0bc 5c6a 8b3c 3676 52bd
00000330: b085 ac3c e245 47bd 70d8 54bd 44e2 bb3c
00000340: 046e 343d 0c06 493d 641a 933c b099 9dbc
00000350: e095 44bb 7850 afbc 0886 5ebd 78ad 86bc
00000360: 92a4 383d 0062 2abb 2cd6 4c3d 9859 953c
00000370: 6a0a 003d f061 a1bb 0074 4c3c e2bf 65bd
00000380: 42e0 2c3d 08e5 58bd 4071 2a3c 50f9 923b
00000390: 58f0 81bc a495 4f3d 2805 d7bc 0ec6 05bd
000003a0: 7eed 3f3d b076 ab3c d085 8fbb 16e5 0b3d
000003b0: 7067 1c3d f8c7 f23c ea89 6a3d c066 f7ba
000003c0: 4e13 74bd 9812 303d c070 a13a 48ea 6f3c
000003d0: d86d 6bbc e044 af3c 9af2 113d 0c78 6dbd
000003e0: 2cce 29bd 1c98 733d 5076 14bc 4861 7b3d
000003f0: 00e3 803b 8039 2bbc e8c4 67bd 4c95 343d

fc2.bias f4 [256]
0.0624495 0.057550266 -0.02859307 0.015716612 0.04432915 0.024449892 0.019486867 0.015621908
0.023858823 0.0017468333 0.059241667 0.017045252 -0.016078234 0.019805223 -0.0398703 0.05427456
-0.046229772 -0.017251022 -0.048399083 0.03135015 -0.005684212 -0.041212626 0.02945052 -0.016845383
-0.021217689 -0.006001435 -0.03507355 0.030340701 0.016320974 0.0013680011 0.0032824054 0.032052703
0.01107654 -0.011525184 -0.033513576 0.024264537 0.0025120452 0.057623662 0.05719462 -0.0009966269
0.061241336 0.004804887 0.026635036 0.04723867 -0.05294454 -0.011903562 0.046350434 -0.020010434
-0.0015447736 -0.029663175 -0.020246029 -0.020331904 -0.02544453 -0.024529338 0.04663527 -0.037848175
-0.043350585 0.019383483 0.00265833 0.013693497 -0.037280872 -0.034808084 0.024047598 -0.007371813
0.027881935 -0.05879458 -0.012136847 0.044423096 -0.037739925 0.061578564 -0.038875796 -0.0143019855
0.010900043 0.05933544 -0.009666681 -0.06085199 -0.022450365 -0.013151608 0.044264466 0.002813004
-0.027442299 -0.010243662 -0.047150224 0.061326213 -0.014707454 -0.055323727 -0.031221315 0.00639157
0.039977714 0.04914763 -0.045926273 0.0064024404 0.026833974 0.048274927 -0.04304775 -0.037279926
0.05799508 0.028301992 0.022078134 0.0061117336 -0.041874662 0.022717208 0.052777283 -0.040339194
0.057545558 -0.00938189 0.001621373 -0.018247068 -0.03455022 -0.031091884 -0.0052715093 -0.03459937
-0.057702668 -0.047501177 0.042961806 0.004334897 0.02297166 -0.012041286 0.0066819564 0.02820374
0.021492295 0.005178936 0.022745095 -0.022467382 0.020346545 -0.018123612 0.060976148 0.055682078
-0.01919593 -0.058759265 0.054381825 0.017263792 0.023197174 0.015419893 -0.017481126 0.046712875
-0.039508395 0.011953041 0.011646368 0.030947149 -0.040768474 -0.022041418 -0.032212563 0.056209765
0.056979537 0.030882105 0.039721243 -0.049384043 -0.040214583 -0.010559462 -0.002348572 0.04471942
-0.050858155 0.05796887 -0.03353154 0.0340864 0.04044678 0.030261733 -0.012268648 0.038598925
0.041861065 -0.021053493 0.03775596 -0.05683685 -0.05767508 -0.060611993 0.026496656 -0.058057256
-0.020715177 -0.05822072 0.014629245 -0.026892595 0.028528042 0.034163907 0.024155192 -0.04432732
-0.02378957 0.056595147 0.011129938 0.056950636 -0.029604807 0.025547042 -0.020507902 0.0040727854
-0.048268482 -0.024891242 0.0018889457 0.03394682 0.024752267 -0.022472322 -0.044209257 0.051128045
-0.018417224 -0.055224568 0.036883578 0.051185563 -0.043775067 0.020115256 0.044986643 0.02168753
0.015614234 -0.030929253 -0.023228742 -0.026961088 0.0028333813 -0.056222074 -0.041591577 0.034335613
-0.06181468 -0.044376127 0.031764 0.061321557 0.04574146 -0.031076975 -0.004410222 -0.0464139
0.016371839 0.05556073 -0.021989577 0.031538874 0.04784605 -0.0462355 0.03458304 0.025124595
-0.03057906 0.020243764 0.05469487 -0.0135984495 -0.054612406 0.02696199 -0.027923249 -0.025094219
-0.024003275 0.04369253 -0.0034023896 0.05697587 0.04759959 0.025020003 -0.01374875 -0.05221466
0.059174396 -0.04777935 -0.060397297 0.00450252 -0.04105953 -0.044601493 -0.059551686 -0.036065206
-0.04475501 -0.04135503 0.021214664 -0.0020544454 -0.05817967 -0.008822888 -0.03460478 -0.05955343
00000000: 0ccb 7f3d d4b9 6b3d 043c eabc 20c0 803c
00000010: 7c92 353d 244b c83c eca2 9f3c 08f3 7f3c
00000020: 9473 c33c 00f6 e43a 64a7 723d 7ca2 8b3c
00000030: 80b6 83bc 903e a23c 0a4f 23bd 004f 5e3d
00000040: 6e5b 3dbd 0452 8dbc 1e3e 46bd 0469 003d
00000050: a042 babb 92ce 28bd 3842 f13c 54ff 89bc
00000060: b8d0 adbc b0a7 c4bb 48a9 0fbd 108d f83c
00000070: 90b3 853c 804e b33a a01d 573b b249 033d
00000080: 607a 353c 20d4 3cbc 8845 09bd 6cc6 c63c
00000090: 20a1 243b ca06 6c3d e844 6a3d 40a1 82ba
000000a0: 32d8 7a3d 5072 9d3b b831 da3c 567d 413d
000000b0: 60dc 58bd 2807 43bc f4d9 3d3d ecec a3bc
000000c0: 007a caba 3000 f3bc 00db a5bc 188f a6bc
000000d0: 0c71 d0bc c0f1 c8bc a004 3f3d b006 1bbd
000000e0: 6290 31bd 1cca 9e3c 6037 2e3b b05a 603c
000000f0: d4b3 18bd ec92 0ebd 78ff c43c 408f f1bb
00000100: a868 e43c 96d2 70bd a0d9 46bc fef4 353d
00000110: 2e95 1abd ce39 7c3d 3a3c 1fbd e052 6abc
00000120: 1896 323c b809 733d 0061 1ebc f03f 79bd
00000130: d4e9 b7bc d879 57bc a84e 353d 605a 383b
00000140: acce e0bc 08d5 27bc 9820 41bd 3231 7b3d
00000150: 88f7 70bc 229b 62bd d8c3 ffbc 6070 d13b
00000160: acbf 233d 064f 493d 301d 3cbd 90cb d13b
00000170: ecd2 db3c eebb 453d d652 30bd d6b2 18bd
00000180: 408c 6d3d 94d9 e73c 34dd b43c f044 c83b
00000190: c484 2bbd 7019 ba3c fe2c 583d b63a 25bd
000001a0: e4b4 6b3d 80b6 19bc 4084 d43a e07a 95bc
000001b0: 8884 0dbd 68b4 febc a0bc acbb 12b8 0dbd
000001c0: a259 6cbd 9890 42bd b8f8 2f3d c00b 8e3b
000001d0: 102f bc3c d048 45bc 50f4 da3b 880b e73c
000001e0: 9c10 b03c 10b4 a93b ec53 ba3c 840d b8bc
000001f0: ccad a63c f877 94bc 20c2 793d e412 643d
00000200: c840 9dbc 8ead 70bd 7abf 5e3d cc6c 8d3c
00000210: 0008 be3c b8a3 7c3c 9434 8fbc 0056 3f3d
00000220: 8ed3 21bd b0d6 433c 68d0 3e3c e084 fd3c
00000230: d8fc 26bd 3490 b4bc 52f1 03bd 363c 663d
00000240: 6063 693d 78fc fc3c beb2 223d ec46 4abd
00000250: 0cb8 24bd 9801 2dbc 80ea 19bb b62b 373d
00000260: a450 50bd c470 6d3d 5e58 09bd 2e9e 0b3d
00000270: 86ab 253d 74e7 f73c 7002 49bc e819 1e3d
00000280: 8276 2b3d 6078 acbc fea5 1a3d c2cd 68bd
00000290: b43c 6cbd 4844 78bd 840f d93c 72cd 6dbd
000002a0: e0b2 a9bc da78 6ebd 80af 6f3c dc4d dcbc
000002b0: a4b3 e93c 74ef 0b3d 1ce1 c53c 9090 35bd
000002c0: 58e2 c2bc 50d0 673d 585a 363c 1245 693d
000002d0: c885 f2bc 0848 d13c 3000 a8bc 0075 853b
000002e0: 2cb5 45bd b8e8 cbbc 8096 f73a d20b 0b3d
000002f0: 44c5 ca3c e017 b8bc c414 35bd a46b 513d
00000300: b8df 96bc 2833 62bd 3c13 173d f4a7 513d
00000310: 7c4d 33bd c0c8 a43c ea43 383d 0caa b13c
00000320: d8d2 7f3c 585f fdbc 344a bebc 80dd dcbc
00000330: 40b0 393b 1e49 66bd ee5b 2abd 80a3 0c3d
00000340: 6431 7dbd bec3 35bd f81a 023d 502c 7b3d
00000350: 665b 3b3d 2495 febc a083 90bb 801c 3ebd
00000360: 3c1e 863c a693 633d 7c23 b4bc e82e 013d
00000370: 38fa 433d 7061 3dbd f2a6 0d3d 18d2 cd3c
00000380: f080 fabc 40d6 a53c ba07 603d 08cc 5ebc
00000390: 42b1 5fbd 64df dc3c 4cbf e4bc 6492 cdbc
000003a0: 84a2 c4bc f0f6 323d a0fa 5ebb 885f 693d
000003b0: caf7 423d c0f6 cc3c 7042 61bc 0adf 55bd
000003c0: da60 723d 48b4 43bd 2863 77bd e089 933b
000003d0: 0a2e 28bd 0eb0 36bd 78ec 73bd 1cb9 13bd
000003e0: 0851 37bd e463 29bd 60ca ad3c e0a3 06bb
000003f0: ce4d 6ebd e08d 10bc bebd 0dbd 4cee 73bd

fc3.weight f4 [256, 256]
0.035072178 -0.05705423 0.052988082 0.05435829 0.00916823 0.05068811 0.011782199 0.04152762
-0.034558736 -0.051425695 -0.015694402 -0.0223056 -0.04803291 0.055691183 0.018499143 -0.03986597
0.026538044 0.054594167 0.038036205 -0.05807375 -0.050136536 0.007485427 -0.041820496 -0.023781635
0.015510388 -0.047646202 0.029774785 0.03858597 0.042243324 -0.04353384 0.038943045 0.048501395
-0.047092035 -0.036236905 0.038183577 -0.009310104 0.057701237 0.053929128 0.036519878 -0.05919835
0.01090987 -0.023594916 0.002804391 -0.011781864 0.042861193 -0.05471363 -0.041490234 0.034734942
0.031966835 -0.044908047 0.026522331 -0.05901126 0.0413536 -0.0074736252 0.029160142 0.06024591
0.02829314 0.033451848 -0.012671709 -0.058320515 0.058386847 0.061135016 0.04486814 0.0077218935
-0.060346924 -0.041608483 0.02991148 0.01616282 0.051065393 -0.0284516 -0.051387273 0.023413941
0.045360394 0.038827524 -0.0235852 0.055666447 0.03644436 -0.028094381 -0.037013806 0.013305508
-0.025460422 -0.04422888 -0.04744897 0.054626226 -0.024161994 0.022215307 0.055930786 -0.008994475
-0.025993034 0.0023478866 0.03687959 0.020540707 -0.053048983 -0.018792406 -0.022273451 -0.012974985
-0.036396608 0.042304203 -0.0014940128 0.057977043 -0.0074239746 -0.050365224 -0.018234909 0.027188323
-0.035057135 0.0544333 0.009337865 0.05742252 -0.04786092 0.04513357 0.010725588 0.057163768
-0.035469882 -0.062421925 -0.009922013 -0.025477633 -0.008752905 0.035700597 0.020339802 -0.039092734
-0.002756372 0.0078093484 -0.021707028 0.017537214 0.0074460506 -0.000118725 0.031765692 0.032368034
0.05769957 -0.058649525 -0.028170206 -0.047721818 0.0036951005 0.015588686 -0.061241627 0.014416106
0.031836152 -0.014205292 0.049789354 -0.04999601 -0.010306507 -0.037224807 0.011377573 0.05238224
-0.062308453 0.045020357 -0.028422333 -0.025602289 0.01889462 -0.05802054 0.02181103 -0.023836263
-0.010349676 -0.0058071986 -0.03952901 0.0055985674 0.025555082 -0.044497535 0.011366144 0.046899483
0.048879027 0.03731425 -0.055950806 0.002309598 0.04778444 -0.035626665 -0.018454857 0.010312624
0.054749973 0.014794722 0.06208191 0.025773928 0.060510583 -0.03161925 -0.0066902637 0.035319373
-0.05312545 -0.005837634 0.044971682 0.06089785 0.01693467 0.014024191 -0.013868898 0.0014811978
0.0017079711 0.011947006 -0.04857745 0.004688695 -0.04277817 -0.0604136 -0.046313196 -0.00070302933
0.041810267 0.010871813 0.06082093 -0.022811547 -0.032685764 -0.013064183 -0.0028319433 -0.03139122
0.0146873 0.03524849 -0.03382483 -0.0333582 0.043263994 0.057735443 -0.0057695657 -0.043751985
0.052764237 0.04432059 0.041778177 0.023617461 0.015612759 -0.017851442 0.05540365 0.004304856
-0.026107132 0.0058585927 0.023260027 -0.056724153 -0.0578949 -0.016322255 -0.042593352 -0.013334118
0.017952867 -0.023951635 0.04983124 -0.028027438 -0.037269436 0.056318335 -0.035565026 0.02403839
0.034681626 -0.052416377 0.05680394 0.051268093 -0.02260279 -0.02214612 -0.009424344 0.0059702396
0.0018136129 -0.0041185096 -0.04694123 0.01071392 0.018355593 0.04165609 -0.033046134 0.003218688
-0.055829316 0.047140107 -0.028607607 0.0200774 -0.004704319 0.03872495 0.04609462 -0.035423532
00000000: d8a7 0f3d b2b1 69bd 080a 593d cca6 5e3d
00000010: 5836 163c 569e 4f3d 200a 413c de18 2a3d
00000020: 768d 0dbd c0a3 52bd 8c91 80bc 3cba b6bc
00000030: 28be 44bd 701c 643d 848b 973c 804a 23bd
00000040: 5066 d93c 229e 5f3d dacb 1b3d bede 6dbd
00000050: f85b 4dbd 5048 f53b f84b 2bbd b4d1 c2bc
00000060: 481f 7e3c aa28 43bd 40ea f33c 520c 1e3d
00000070: 5607 2d3d 8a50 32bd be82 1f3d 66a9 463d
00000080: 94e3 40bd 266d 14bd 6266 1c3d 6889 18bc
00000090: 2258 6c3d cae4 5c3d de95 153d f879 72bd
000000a0: 50bf 323c 204a c1bc e0c9 373b b808 41bc
000000b0: 388f 2f3d 661b 60bd aaf1 29bd 3a46 0e3d
000000c0: a8ef 023d 80f1 37bd 5c45 d93c cab5 71bd
000000d0: 6462 293d 50e5 f4bb 40e1 ee3c 6ac4 763d
000000e0: 04c7 e73c ce04 093d 009d 4fbc 7ee1 6ebd
000000f0: 0c27 6f3d b668 7a3d a8c7 373d f007 fd3b
00000100: 562e 77bd a86d 2abd ec08 f53c e467 843c
00000110: f229 513d 5413 e9bc 767b 52bd 98ce bf3c
00000120: d2cb 393d 9c09 1f3d c035 c1bc 8002 643d
00000130: ae46 153d 3026 e6bc ca9b 17bd 58ff 593c
00000140: 6092 d0bc 5829 35bd da59 42bd c0bf 5f3d
00000150: 60ef c5bc e0fc b53c ae17 653d 905d 13bc
00000160: 58ef d4bc 00df 193b 0e0f 173d fc44 a83c
00000170: e449 59bd 88f2 99bc d076 b6bc 0895 54bc
00000180: 9c14 15bd 2c47 2d3d c0d2 c3ba 5679 6d3d
00000190: d044 f3bb c44b 4ebd 6061 95bc 0cba de3c
000001a0: 1298 0fbd 74f5 5e3d d8fd 183c e033 6b3d
000001b0: d009 44bd fadd 383d 60ba 2f3c 8e24 6a3d
000001c0: de48 11bd 22ae 7fbd f08f 22bc 78b6 d0bc
000001d0: 5868 0fbc ca3a 123d a89f a63c b41f 20bd
000001e0: 40a4 34bb 90e5 ff3b f0d2 b1bc 34aa 8f3c
000001f0: 00fe f33b 00fc f8b8 be1c 023d 5894 043d
00000200: 6256 6c3d 7c3a 70bd 34c5 e6bc f477 43bd
00000210: 8029 723b b067 7f3c 80d8 7abd 8831 6c3c
00000220: a066 023d 50bd 68bc ecef 4b3d 9ec8 4cbd
00000230: a0dc 28bc 0a79 18bd 0069 3a3c c28e 563d
00000240: 2637 7fbd 4467 383d f4d5 e8bc e4bb d1bc
00000250: e4c8 9a3c f2a6 6dbd 0cad b23c 4444 c3bc
00000260: b091 29bc 504a bebb 2ce9 21bd 3074 b73b
00000270: e458 d13c 0c43 36bd 1039 3a3c ac19 403d
00000280: 6035 483d d4d6 183d ac2c 65bd a05c 173b
00000290: 9eb9 433d 44ed 11bd a42e 97bc 48f6 283c
000002a0: 8241 603d 9065 723c 9a49 7e3d d823 d33c
000002b0: f2d9 773d 3083 01bd 003a dbbb 0cab 103d
000002c0: 129a 59bd a049 bfbb 3a34 383d 0670 793d
000002d0: 94ba 8a3c b8c5 653c 603a 63bc c024 c23a
000002e0: 00de df3a 60bd 433c 26f9 46bd a0a3 993b
000002f0: 2a38 2fbd 4074 77bd e8b2 3dbd 804b 38ba
00000300: 3e41 2b3d b01f 323c 5e1f 793d 48df babc
00000310: 82e1 05bd 280b 56bc 2098 39bb 1494 00bd
00000320: 00a3 703c b860 103d e88b 0abd 9ca2 08bd
00000330: 9635 313d 007c 6c3d a00e bdbb 4835 33bd
00000340: 501f 583d 8289 353d 981f 2b3d 6879 c13c
00000350: a8cc 7f3c 303d 92bc f0ee 623d c00f 8d3b
00000360: a0de d5bc 70f9 bf3b d08b be3c 9657 68bd
00000370: 3423 6dbd 40b6 85bc 5e76 2ebd 5877 5abc
00000380: e411 933c 3836 c4bc d81b 4c3d cc99 e5bc
00000390: d6a7 18bd 0eae 663d a2ac 11bd 28ec c43c
000003a0: 520e 0e3d 8eb2 56bd 40ab 683d 7efe 513d
000003b0: 7c29 b9bc c86b b5bc 9068 1abc 00a2 c33b
000003c0: c0b6 ed3a 90f4 86bb 7245 40bd 7089 2f3c
000003d0: 785e 963c 949f 2a3d 625b 07bd a0f0 523b
000003e0: 48ad 64bd fc15 413d 805a eabc 5c79 a43c
000003f0: b026 9abb 0e9e 1e3d b6cd 3c3d 4418 11bd

fc3.bias f4 [256]
0.046191275 -0.045025386 0.04242044 0.04756563 -0.0030194148 0.011792727 -0.008310512 -0.033470392
-0.02452626 -0.047335982 -0.028130576 -0.013718531 0.046061046 -0.012360655 -0.041539215 0.01614742
-0.0039502606 0.060739107 0.047726117 0.061595216 -0.050962374 -0.051031157 0.02511134 0.042555504
-0.023167238 -0.022448316 0.053601667 0.038128294 0.018011212 -0.01036001 -0.055044368 -0.030286238
0.0025797412 -0.060835727 -0.00091757625 -0.03785938 0.02504135 0.047982924 -0.04408212 0.050515875
0.035407767 0.057115287 0.009958312 -0.04066264 0.025698073 0.0050736517 0.016855627 -0.0010170862
0.034363985 -0.05685357 -0.0044951066 -0.055556178 0.050377615 -0.016603254 0.0068651065 0.052960187
-0.0605926 0.039113402 -0.009123437 0.004455209 -0.0080237165 0.033854917 0.008905835 0.029728591
-0.044812962 -0.020435259 -0.050977923 0.004361987 -0.010008141 -0.049520016 -0.049733654 -0.0010633543
-0.0041985586 0.039068937 0.027209587 0.029985212 -0.010285877 0.030903116 -0.028711535 -0.0017848909
-0.043796293 0.04888363 -0.010254428 0.011680298 0.0068043396 -0.02623666 -0.0063712746 -0.025986686
-0.017562822 0.03997191 -0.03361146 -0.042929642 0.052136213 0.024919331 -0.03922207 0.03519869
0.017137334 -0.01946611 -0.052362278 0.0008380562 0.020970479 0.05952598 -0.059552357 0.05665411
-0.028883785 0.005692899 0.033087365 -0.017224044 0.0128812045 0.0033322573 -0.03815666 0.047394983
-0.0070933625 0.013907634 0.01035855 0.035565667 0.007522054 -0.036970302 0.04889089 0.036191277
0.007602446 -0.04715041 -0.00817962 -0.035045423 -0.02944211 0.050635763 0.03462527 0.059380256
-0.012424603 0.045843802 -0.00808356 -0.046199046 -0.04842595 -0.03053601 -0.04828944 -0.0582596
0.034720123 -0.04584574 0.042724177 -0.027154587 0.055846892 -0.008903444 0.014349185 0.048211843
0.02138161 0.007208623 -0.027401932 -0.014730543 -0.005278006 0.050889157 -0.022630587 -0.060668
-0.046770044 -0.04963141 -0.04198815 0.01706718 0.017501175 -0.04215665 0.02337078 0.04062418
-0.005429089 -0.02019377 0.034942828 0.017601147 -0.06162434 -0.00070507824 -0.021991216 0.049931914
0.026347399 -0.056200504 -0.030317716 -0.033991545 0.02886489 -0.035419308 -0.014290668 0.003549911
-0.05655908 0.05472678 -0.00052684546 -0.00012128055 -0.03539598 0.017946899 0.008624382 0.011946887
0.025066428 0.0606718 -0.055138312 0.02614773 -0.04960657 0.0012026131 0.048088036 0.040985815
0.027994782 -0.012919635 0.02196981 0.041004032 0.043704666 0.056189567 -0.021497212 -0.027853817
0.052542806 -0.03686872 0.028379746 -0.02849263 -0.047565885 -0.061121896 0.021973275 0.032928973
-0.05792939 0.029091649 0.04585126 0.061081678 0.056017302 -0.04868047 0.008126043 0.057062298
-0.043318465 -0.03442969 0.031770915 -0.021876946 -0.04905854 -0.0055026636 -0.034787297 -0.05528742
0.06154634 -0.051820412 0.019360647 0.051597975 0.054722294 -0.023906358 0.027329445 -0.05530917
0.0049853325 -0.0035111085 0.023027375 0.025127843 0.051744975 0.016274393 0.026936933 0.05308593
0.038754568 -0.015032016 -0.020295493 0.027983762 -0.0033931285 0.05526045 -0.060212545 0.03546164
0.056967527 0.001654163 -0.017371379 -0.044751175 0.013378173 0.04212168 0.028211772 0.0027047917
00000000: 1033 3d3d 8a6c 38bd 0ec1 2d3d 2ed4 423d
00000010: 60e1 45bb 4836 413c d028 08bc 4018 09bd
00000020: 4ceb c8bc 60e3 41bd 1872 e6bc b0c3 60bc
00000030: 82aa 3c3d 5884 4abc 0625 2abd 9847 843c
00000040: 3071 81bb 92c9 783d 767c 433d 444b 7c3d
00000050: ecbd 50bd 0c06 51bd 4cb6 cd3c ae4e 2e3d
00000060: 38c9 bdbc 88e5 b7bc 6c8d 5b3d 6a2c 1c3d
00000070: 408c 933c 08bd 29bc 3476 61bd d81a f8bc
00000080: e010 293b e22e 79bd 8089 70ba 7012 1bbd
00000090: 8423 cd3c be89 443d 748f 34bd bce9 4e3d
000000a0: bc07 113d b8f1 693d 3028 233c de8d 26bd
000000b0: c484 d23c e040 a63b d014 8a3c c04f 85ba
000000c0: 40c1 0c3d 4adf 68bd b04b 93bb e08e 63bd
000000d0: c258 4e3d 8c03 88bc b0f4 e03b c8ec 583d
000000e0: f22f 78bd 6035 203d 787a 15bc 00fd 913b
000000f0: e875 03bc 74ab 0a3d c8e9 113c 6089 f33c
00000100: cc8d 37bd d867 a7bc 3ace 50bd 00ef 8e3b
00000110: 30f9 23bc 80d5 4abd 84b5 4bbd 4060 8bba
00000120: 1094 89bb c006 203d a4e6 de3c 8ca3 f53c
00000130: 1886 28bc 8828 fd3c 7434 ebbc 00f3 e9ba
00000140: be63 33bd 343a 483d 3002 28bc b85e 3f3c
00000150: f0f6 de3b 44ee d6bc 20c6 d0bb 08e2 d4bc
00000160: e8df 8fbc 96b9 233d 2cac 09bd fed6 2fbd
00000170: c88c 553d a023 cc3c 52a7 20bd 802c 103d
00000180: 9863 8c3c 6477 9fbc d479 56bd 00b1 5b3a
00000190: 48ca ab3c 84d1 733d 2ced 73bd 240e 683d
000001a0: b09d ecbc 808b ba3b 9e86 073d 7019 8dbc
000001b0: b00b 533c 0062 5a3b 284a 1cbd 3e21 423d
000001c0: 706f e8bb d8dc 633c e8b6 293c 4ead 113d
000001d0: 907b f63b 2c6e 17bd d041 483d 4e3d 143d
000001e0: f01d f93b ca20 41bd d003 06bc ca8b 0fbd
000001f0: 9430 f1bc 7267 4f3d 3ad3 0d3d b638 733d
00000200: 9090 4bbc b6c6 3b3d e870 04bc 363b 3dbd
00000210: 4a5a 46bd a826 fabc 26cb 45bd 9ea1 6ebd
00000220: b036 0e3d bec8 3bbd 8cff 2e3d 4c73 debc
00000230: b6bf 643d c0df 11bc d818 6b3c c879 453d
00000240: 7c28 af3c 5036 ec3b 047a e0bc 6058 71bc
00000250: 20f3 acbb 2671 503d c863 b9bc 027f 78bd
00000260: f291 3fbd 4e4a 4bbd c4fb 2bbd 78d0 8b3c
00000270: a05e 8f3c 74ac 2cbd 1474 bf3c 8a65 263d
00000280: 80e6 b1bb 686d a5bc 3620 0f3d 4830 903c
00000290: ce69 7cbd 00d5 38ba ec26 b4bc 6885 4c3d
000002a0: 80d6 d73c 8032 66bd dc5c f8bc b83a 0bbd
000002b0: 1076 ec3c d613 11bd 6823 6abc a0a5 683b
000002c0: 7eaa 67bd 3029 603d 001c 0aba 0058 feb8
000002d0: 60fb 10bd 6005 933c 484d 0d3c e0bc 433c
000002e0: 1c58 cd3c fe82 783d b6d8 61bd c433 d63c
000002f0: 4230 4bbd 00a1 9d3a f6f7 443d bee0 273d
00000300: 5055 e53c e0ac 53bc 08fa b33c d8f3 273d
00000310: aa03 333d 0827 663d ec1a b0bc b02d e4bc
00000320: 2037 573d a803 17bd a47c e83c 6069 e9bc
00000330: 72d4 42bd f45a 7abd 4c01 b43c 88e0 063d
00000340: 5e47 6dbd 9c51 ee3c 88ce 3b3d c830 7a3d
00000350: 6672 653d 2c65 47bd 1823 053c 28ba 693d
00000360: b46e 31bd 2606 0dbd 3822 023d 4837 b3bc
00000370: 9cf1 48bd b04f b4bb 207d 0ebd 1075 62bd
00000380: 0418 7c3d a441 54bd 389a 9e3c 6658 533d
00000390: 7c24 603d 44d7 c3bc 00e2 df3c de8b 62bd
000003a0: 005c a33b a01a 66bb e8a3 bc3c e8d8 cd3c
000003b0: 8af2 533d e051 853c d8aa dc3c a270 593d
000003c0: 1cbd 1e3d d848 76bc bc42 a6bc 343e e53c
000003d0: 405f 5ebb c858 623d 6ea1 76bd 3a40 113d
000003e0: c856 693d 80d0 d83a 6c4e 8ebc 024d 37bd
000003f0: 2030 5b3c c887 2c3d 601c e73c e042 313b

output.weight f4 [4, 256]
0.041269414 -0.05813863 -0.004771523 -0.043861322 -0.008245386 0.013026215 0.054877974 0.015908554
0.060982496 -0.042845488 0.054287158 -0.0026948228 0.05016318 0.04927642 0.014119372 0.060659632
-0.017623283 -0.04794965 -0.0054221526 0.0050285235 0.015142381 -0.023050286 -0.051198214 0.052718215
-0.012896597 0.017029949 0.044046506 0.022419445 0.055868782 0.008045875 0.009399705 -0.05043213
0.007506937 -0.008415461 0.034026988 -0.013747357 -0.02133692 -0.017600484 0.0056118146 -0.042152002
-0.056840308 -0.028237768 -0.013668425 -0.04007846 -0.047026485 0.007726595 -0.044793695 -0.029174939
-0.027199969 0.038429387 0.014229529 -0.037007466 -0.012003459 0.008592039 0.036238126 0.05916854
-0.046867207 0.022404179 0.0050254017 -0.011315785 0.014395282 -0.033378765 0.016644895 -0.0072882175
-0.004053615 -0.055425048 0.060557865 -0.037720397 0.027561456 -0.007811673 0.04205288 0.014561936
-0.05298931 -0.019163601 0.006674543 -0.026349373 -0.038888976 0.033789083 -0.04566372 -0.04883848
-0.000959225 0.0070627183 -0.04951995 0.010379866 -0.05047117 -0.029791951 0.059306696 0.0049027875
0.053417914 -0.02214013 0.02150429 -0.010441482 0.03205753 -0.049678795 -0.015273899 0.002384156
0.031860426 -0.02543889 0.056103073 -0.02443926 0.041807957 0.005322553 -0.03685444 -0.051566094
0.058727846 -0.041645035 -0.0479242 -0.0204397 0.0025988743 0.044121817 -0.04418868 -0.03829906
0.04505401 -0.010707222 0.030578047 -0.046611503 0.018305145 0.040739156 0.02166158 0.016872883
0.02464167 0.017512739 -0.015490115 0.029058546 0.036556847 0.031755984 0.059986405 0.020586826
-0.006538227 0.014615439 0.009563528 0.02614633 -0.03699872 0.046420418 -0.045708172 0.04433368
0.009242207 -0.033639096 -0.052316956 0.020357452 -0.03697005 0.03877881 0.0015334636 0.05179745
0.02817808 -0.05255104 0.018127471 0.057426386 0.023789212 -0.04388001 -0.013125554 0.04142479
-0.02128052 0.030254722 -0.018571235 -0.0162097 -0.05967392 0.02885592 -0.05354666 -0.017913334
-0.0072321817 0.008674279 0.031673275 0.03563089 -0.00357382 -0.035627924 -0.0072783753 -0.039052926
0.0014804751 -0.045106553 0.039037682 -0.024517842 0.049034014 0.008430548 0.0023100227 -0.027443334
-0.0263398 0.039445378 -0.026695266 -0.05336938 -0.062392697 -0.008213341 -0.058658905 -0.01739809
0.014672771 0.0015156344 0.0072511584 -0.053134203 0.04333502 0.029114194 -0.00078324974 -0.01937534
0.05474186 -0.019947827 -0.05891172 0.0060474277 0.03783948 -0.04424172 -0.048666842 0.03409064
-0.015578911 -0.052982427 0.058889575 0.038191684 0.04067091 0.040823445 0.025439464 -0.02814819
-0.029072762 0.024564385 0.030027695 0.04250706 0.061463885 0.052046187 0.016686141 0.003716141
-0.061203867 -0.013767809 0.044217795 0.03410089 0.0357275 0.008862048 0.036851354 -0.0420409
-0.012764387 0.05572334 0.018366866 -0.034459926 0.011400618 0.021848112 0.0018393919 -0.034349218
-0.037840724 0.04856415 0.037512653 -0.050836213 0.051828273 0.060939886 -0.006109312 -0.0022500753
0.024746023 0.04716979 0.013210073 -0.009406567 -0.046191797 -0.003914669 0.009153776 -0.022231102
-0.02563306 -0.039890394 -0.004633583 0.03708347 0.006259203 -0.061323762 -0.023550317 -0.003293261
00000000: 1e0a 293d c622 6ebd 705a 9cbb eea7 33bd
00000010: a817 07bc e86b 553c bac7 603d a852 823c
00000020: c8c8 793d c07e 2fbd 365c 5e3d a09b 30bb
00000030: e877 4d3d 12d6 493d f054 673c 3c76 783d
00000040: b45e 90bc da66 44bd 50ac b1bb 50c6 a43b
00000050: c017 783c f4d3 bcbc 38b5 51bd 0eef 573d
00000060: 404c 53bc 6482 8b3c 1c6a 343d fca8 b73c
00000070: aad6 643d d8d2 033c 3801 1a3c ec91 4ebd
00000080: c0fc f53b 00e1 09bc e25f 0b3d 983c 61bc
00000090: c4ca aebc e42e 90bc 50e3 b73b 94a7 2cbd
000000a0: 62d1 68bd e452 e7bc 88f1 5fbc 5029 24bd
000000b0: d89e 40bd 602f fd3b 9879 37bd 4800 efbc
000000c0: 78d2 debc 2268 1d3d f822 693c 2495 17bd
000000d0: 28aa 44bc a0c5 0c3c 6e6e 143d b65a 723d
000000e0: d4f7 3fbd f888 b73c 20ac a43b d865 39bc
000000f0: 30da 6b3c 2cb8 08bd e05a 883c 00d2 eebb
00000100: 30d4 84bb 6005 63bd 860b 783d b480 1abd
00000110: 90c8 e13c 10f9 ffbb a43f 2c3d 3095 6e3c
00000120: 520b 59bd fcfc 9cbc 20b6 da3b a4da d7bc
00000130: 0c4a 1fbd 6c66 0a3d e209 3bbd dc0a 48bd
00000140: 8074 7bba 606e e73b 6ed5 4abd 5010 2a3c
00000150: dcba 4ebd 400e f4bc 94eb 723d 90a7 a03b
00000160: becc 5a3d 385f b5bc c429 b03c c012 2bbc
00000170: c24e 033d fe7b 4bbd 603f 7abc 803f 1c3b
00000180: 1480 023d 3865 d0bc 56cc 653d d834 c8bc
00000190: d23e 2b3d d068 ae3b aef4 16bd f836 53bd
000001a0: 9c8c 703d fc93 2abd 2a4c 44bd 2871 a7bc
000001b0: e051 2a3b 14b9 343d 30ff 34bd 7adf 1cbd
000001c0: 8e8a 383d 586d 2fbc d07e fa3c b4eb 3ebd
000001d0: acf4 953c 1ade 263d a073 b13c 0039 8a3c
000001e0: 54dd c93c e076 8f3c 40ca 7dbc 300c ee3c
000001f0: a2bc 153d 9012 023d 4eb4 753d b4a5 a83c
00000200: a03e d6bb 9875 6f3c 58b0 1c3c d430 d63c
00000210: f88b 17bd 5623 3e3d 7e38 3bbd 3c97 353d
00000220: a06c 173c 26c9 09bd 4e4a 56bd acc4 a63c
00000230: e86d 17bd 88d6 1e3d 80fe c83a 9029 543d
00000240: b8d5 e63c c23f 57bd 1080 943c ee37 6b3d
00000250: 98e1 c23c 86bb 33bd 900c 57bc 0aad 293d
00000260: 7c54 aebc c0d8 f73c b422 98bc 34ca 84bc
00000270: a46c 74bd 4063 ec3c be53 5bbd fcbe 92bc
00000280: f0fb ecbb 901e 0e3c d6bb 013d b2f1 113d
00000290: c036 6abb 96ee 11bd 707f eebb f6f5 1fbd
000002a0: 800c c23a a6c1 38bd fae5 1f3d a4d9 c8bc
000002b0: e4d7 483d 4820 0a3c c063 173b d8d0 e0bc
000002c0: 90c6 d7bc 7a91 213d 08b0 dabc da99 5abd
000002d0: 7c8f 7fbd 4091 06bc 5244 70bd 7086 8ebc
000002e0: 1066 703c 40a8 c63a 209b ed3b 40a3 59bd
000002f0: 1080 313d e480 ee3c 0053 4dba 08b9 9ebc
00000300: 0039 603d a069 a3bc 6a4d 71bd 8029 c63b
00000310: 92fd 1a3d ce36 35bd e256 47bd a0a2 0b3d
00000320: b03e 7fbc 1a04 59bd 3236 713d e26e 1c3d
00000330: 8a96 263d 7c36 273d 6c66 d03c 0897 e6bc
00000340: 002a eebc 403b c93c a4fc f53c e21b 2e3d
00000350: 8ec1 7b3d 622e 553d 60b1 883c 808a 733b
00000360: e8b0 7abd 6092 61bc b81d 353d 60ad 0b3d
00000370: 0057 123d 2032 113c 72f1 163d 1433 2cbd
00000380: b821 51bc 283e 643d 1c76 963c da25 0dbd
00000390: a8c9 3a3c d0fa b23c c017 f13a c4b1 0cbd
000003a0: e0fe 1abd 34eb 463d dea6 193d a239 50bd
000003b0: e249 543d 1a9c 793d a030 c8bb 0076 13bb
000003c0: 2cb8 ca3c 1c35 413d 106f 583c 001e 1abc
000003d0: 9c33 3dbd a046 80bb b8f9 153c 001e b6bc
000003e0: 6cfc d1bc 1c64 23bd 50d5 97bb d6e4 173d
000003f0: 001a cd3b a02e 7bbd 98ec c0bc c0d3 57bb

output.bias f4 [4]
1.4081597e-05 0.04498283 -0.0040053725 0.010900617
00000000: 0040 6c37 ea3f 383d 803f 83bb 8098 323c
