fetch_sticky_mittens_step_4_blocks/networks/ours_10k_block_4_uber_level_0_seed_150/network_reach_object_3.pth (torch, 622647 bytes, 8 tensors)

fc1.weight f4 [256, 85]
00000000: b8ec 45bc 629b adbc 5632 d1bd 7b81 d6bd
00000010: 86a1 bfbb 9482 4ebd a2b6 c6bd 71ff 5dbd
00000020: 4698 a13d ca96 303d df37 d7bd 0c28 c53c
00000030: 7845 c0bd ef3a 403d dfba c3bc bfa1 9cbd
00000040: 32ce 2c3b 32eb 013d e212 48bd fa86 2fbb
00000050: c8dd afbd 61ab ec3b df58 afbd dfad a5bd
00000060: 78a5 803d 5869 15bd c1e8 c13d 2932 653d
00000070: 3c91 7e3d 59c6 5fbc 08f3 2e3b 99e6 d53d
00000080: 521f cc3c 6c14 01bc 60bc c63c 0f15 b53d
00000090: 375a 883d 8330 113d 67f6 a83d a57f 4d3d
000000a0: 75cb 043d 3e7a 943d a120 70bd 214d dc3d
000000b0: d3f2 c43d 85a6 8cbd 456b 893d b147 183d
000000c0: bad2 873d 04a0 673d dac3 9fbd b00c cb3d
000000d0: f5e2 99bd a2a2 34bb 4c74 863d e88c 183b
000000e0: 7eca a2bd b924 823d 7e9b 453d 255b b33d
000000f0: caeb dd3d 7e83 b33d 7490 b7bb ef62 e93c
00000100: c87b 853c 0bae f33c d5b4 8f3c 2ac2 83bd
00000110: 3c2c b2bc e139 933c a14e 4f3c 0fef 31bc
00000120: b0f1 9a3d 7270 ddbd 6115 c73d 6ee1 98bd
00000130: 1381 033d d9c4 7ebd e71b 87bd 3004 7b3d
00000140: 4feb 32bd 012d dabc 3d04 813d 2b16 b9bb
00000150: 8162 47bd 3948 a43d 3e70 52bd 19a0 5f3d
00000160: d5b6 8f3d ab47 413d 685f 5b3d 6240 303d
00000170: 54d0 9fbb 29b7 dcbd 774a 8cbd 0ef5 07bd
00000180: 4040 9b3d d957 94bd 871d c63d ef58 ba3d
00000190: dc0e 763d b55c 103b 87ec 9e3d a941 babd
000001a0: 3ee9 95bd a31a c1bd 430d 3c3c 5dbe 07bc
000001b0: 0cb9 2abd cc54 3fbd 667a c1bd d897 e5bc
000001c0: 5681 cfbd cd2b e83c 7d59 c03d 3e42 4bbc
000001d0: d501 7cbd 0eeb c33d 1be5 b63d ab80 c4bd
000001e0: b28f 373d f18b 75bb cca5 dd3c 6526 8f3d
000001f0: df29 8cbd 9248 86bd c6c2 a73d 209a 1d3d
00000200: c40a d5bd 8f33 0dbb d7e3 81bd e492 3cbd
00000210: 476f 4fbd 356c 7ebd 12df b73d 5b07 7abd
00000220: a818 8ebd 6cd7 88bc 5cee d2bc dae2 10bd
00000230: 940c 353d 5bf6 54bd 71d2 3a3c 5ebc b83d
00000240: 2fb6 3fbc 0005 cf3d b599 c3bd f12a 2c3d
00000250: 4164 4a3d 1a8f 633c 3ff4 983c 98cf bebd
00000260: 6231 0fbd 9b2c cebd 1bd0 013d d7bb a73d
00000270: af42 67bd 6686 98bc e427 41bc 884d dd3c
00000280: 5bb9 96bd 11f0 923c 3970 9dbd db58 7bbd
00000290: 5e20 c0bd c1b8 b4bd 15ac a1bd c307 2fbd
000002a0: f789 d6bc 8400 263d 8509 9d3d cfe2 d2bd
000002b0: 1301 b53d 1058 34bc 2286 7fbd e19c 48bc
000002c0: aeaf a5bd 2857 98bd b012 6f3d ba07 dabd
000002d0: b11f 80bd b5c0 da3b 6018 90bb dea7 09bc
000002e0: 29e2 43bd eb17 863d 42a5 6e3c aab6 58bb
000002f0: 1d89 b2bd e15c 84bd 509f 09bd dc12 eebc
00000300: b4ca 753d 2a82 7d3d 9968 abbd c9b1 68bd
00000310: 77e3 393d d7c8 a93c 3e8f f43c ce35 073d
00000320: 0326 8a3d b147 a13d d465 0a3d 48a8 d8bd
00000330: cc70 8f3c 5912 853d d7d9 1ebd 4fc5 1d3d
00000340: ae4b 303d c25c 35bc d9e0 713d 7488 913d
00000350: 194f aebd 594d 9e3d 0388 c4bd 1f29 923d
00000360: 5919 0a3d 1fe1 c1bd 133f a1bd aab4 413d
00000370: bd6b bfbd 915d 2e3d 5212 24bd 1db6 6c3c
00000380: 6b74 833d 189f 24bd fb9a dcbd 7a2c 27bc
00000390: 4d32 ab3d d745 713d 28b0 6bbd e075 263c
000003a0: 7e1c 1fbd c9df 05bd 4ab5 64bd 0f93 27bd
000003b0: 9c3f 9abc 1a99 893d ba46 c93d a862 ad3c
000003c0: 0c47 d1bc b1b3 47bd 0fbc 9e3d 1bbf ab3d
000003d0: 7747 71bd 08cd bbbd 590a 813d 4a8a c73d
000003e0: de7f 8fbd 4e08 d2bd deff c4bd bd55 76bc
000003f0: d7c5 af3d bdab 87bd 17a3 66bd c458 bdbd
-0.012080364 -0.021192256 -0.10214679 -0.10473915 -0.0058481125 -0.050417498 -0.09702803 -0.054198686
0.07890372 0.043112554 -0.105087034 0.024066947 -0.0938825 0.046931203 -0.023892818 -0.07648038
0.002636802 0.03171844 -0.048846133 -0.0026783333 -0.08587223 0.0072225784 -0.08561873 -0.08089804
0.06281561 -0.036477417 0.094682224 0.05595604 0.062150225 -0.01365813 0.002669515 0.10444374
0.024917278 -0.007878404 0.024259746 0.08841907 0.06657832 0.035446655 0.082501225 0.05017056
0.032420594 0.07249878 -0.058624867 0.10756899 0.096166275 -0.068676986 0.06709913 0.037177745
0.0663199 0.056549087 -0.078010276 0.09914529 -0.07513992 -0.0027562757 0.065651506 0.0023277346
-0.079487786 0.063546605 0.048243992 0.08757619 0.10835989 0.087653145 -0.005601937 0.028489558
0.016294375 0.029746076 0.017542282 -0.06433518 -0.021749608 0.017971935 0.012653024 -0.010860219
0.075656295 -0.10812463 0.097208746 -0.07464872 0.032105517 -0.062199447 -0.06597119 0.06128329
-0.04368144 -0.026632788 0.062996365 -0.0056483946 -0.048677925 0.08021588 -0.051376574 0.05459604
0.07017294 0.04718749 0.053557783 0.04303015 -0.0048771296 -0.107771225 -0.068501405 -0.033192687
0.07580614 -0.07243318 0.09673601 0.09098994 0.060072765 0.0022027914 0.07759958 -0.09094555
-0.07319878 -0.09428909 0.011477771 -0.008285132 -0.04168038 -0.046711728 -0.09447174 -0.028026506
-0.10132091 0.028341198 0.093920685 -0.01240593 -0.061525185 0.095663175 0.08930417 -0.09594854
0.044814773 -0.0037467445 0.027056597 0.06989745 -0.06843924 -0.065568104 0.08191447 0.038477063
-0.10402444 -0.0021545624 -0.06342285 -0.046038523 -0.05064323 -0.062114913 0.08978094 -0.06104217
-0.069382966 -0.016704284 -0.025748424 -0.035372593 0.04420145 -0.051992755 0.011402712 0.09020303
-0.011701151 0.101083755 -0.09550802 0.04203314 0.049412016 0.013889099 0.018671153 -0.09316939
-0.034959204 -0.100671016 0.031692605 0.081901245 -0.05646008 -0.018618774 -0.011789296 0.027014509
-0.073595725 0.017936738 -0.076874204 -0.061364036 -0.093811736 -0.088243015 -0.0789415 -0.04273201
-0.026188834 0.040527835 0.07667831 -0.102971666 0.088380955 -0.011007324 -0.06238378 -0.012244434
-0.08090149 -0.07438499 0.05836743 -0.10646005 -0.06256045 0.0066758045 -0.004397437 -0.008401839
-0.047823105 0.06547531 0.014565768 -0.003306786 -0.087175585 -0.06463028 -0.033599198 -0.029061727
0.060007766 0.061891712 -0.0836956 -0.056810174 0.045382943 0.02072565 0.02985346 0.033010297
0.067455314 0.07875002 0.033788517 -0.10578972 0.01750984 0.0649764 -0.038781967 0.038518246
0.043040924 -0.0110694785 0.059052322 0.071061045 -0.085111804 0.07729597 -0.09596255 0.071367495
0.03371558 -0.094667666 -0.078733586 0.047291435 -0.09346721 0.0425697 -0.040056534 0.014447716
0.06418689 -0.040190786 -0.10771748 -0.010203475 0.083592035 0.058904495 -0.057541043 0.0101599395
-0.03884553 -0.03268412 -0.055836953 -0.04091173 -0.01882916 0.06718655 0.09827943 0.021165207
-0.025546573 -0.04875535 0.07750713 0.0838606 -0.058906045 -0.09169966 0.06300802 0.097431734
-0.070068106 -0.1025549 -0.09619115 -0.01503509 0.08582657 -0.06624553 -0.05630788 -0.09245446

fc1.bias f4 [256]
00000000: 79c7 a8bd 5956 b83d ad56 7e3d cd2e b33d
00000010: a6b1 63bc 920d 53ba 2da3 44bd 6eb4 4bbd
00000020: b6de 773d 3eb7 b7bd 721d 43bd 2517 8d3d
00000030: afd4 9dbd 187a 29ba a2af c63c 3b26 053c
00000040: 1d10 bdbc 4eff a8bd 3ecf 7d3d 63db c93d
00000050: f7e3 d63d dc50 90bc e270 afbd 9c78 a03d
00000060: a6fa 7ebd 2266 dd3d bfe4 62bd b6bf 16bb
00000070: 06ec 57bd c603 d73d 6f86 143d 3cbd c3bd
00000080: 968b 4a3d 6c59 da3c 038c 8c3d ff59 803c
00000090: 6631 cfbd c90e b1bd e116 4d3d b3ba 9c3b
000000a0: 8d05 22bd 832e c2bd acaf 2ebc ae07 3abd
000000b0: 813f ca3d da96 113d 8d4f 9a3c b885 91bd
000000c0: 40a2 2e3d 3426 30bc 2a7b c8bd 6d42 2f3a
000000d0: ac4d d03d 6673 943d 0585 be3d 7a51 573d
000000e0: f4be 513c 948f 873d b875 ddbc 97a1 81ba
000000f0: b9eb dc3d 966a af3d fdb0 a63c 1fd8 8c3c
00000100: 3689 143d bb6b b3bd 9dbb 953d 1610 c23d
00000110: d715 c43d 4c19 b33d 1d12 863d 65a5 e33c
00000120: 7fc7 49bd 2248 d4bd 12b8 87bc e8f1 243d
00000130: 5579 74bd 8fe4 483d f160 01bd c3de 46bb
00000140: 8095 d2bd 389e eb3c e4a8 c4bd 4805 873d
00000150: 5fb5 eabc 80e5 8abd 6692 a0bd 5acf 1f3b
00000160: f090 193d 341b 8f3d bee5 66bd e1fa 16bc
00000170: f350 75bd faa5 d0bc c71b d8bb 7967 b7bd
00000180: 5434 bd3d 9ae1 d03d 26a3 7fbb e5b8 613d
00000190: f520 23bc c1bb b63c 63a5 1cbc ed60 c63d
000001a0: 4f2a d13d 59f0 d43c 8fb1 a6bd 6f34 24bd
000001b0: 4f3f cf3c 8c6c 8a3d 1555 5fbd 8f42 96bd
000001c0: 4955 d7bb c761 a1bd cb97 5bbb fd27 da3d
000001d0: ef90 b03d 1ff0 edbb de8a 07bd c174 efbc
000001e0: a1ee 67bc 2259 3cbd 2ed2 16bd fec9 343d
000001f0: 99a0 b63d 941f c9bc 48dc b4bd cb1b 183d
00000200: 1d82 85bd 17aa 5fbd 9f06 bfbd e4d8 91bd
00000210: b0d5 5bbd 198e f83c 3576 783d 7839 82bc
00000220: ffa9 8fbd 2462 2d3b 7059 7dbd ee91 67bd
00000230: f192 b33d 8c50 36bd 1046 2abd 5094 d9bd
00000240: dc0d 7c3c aed3 d3bd 0c0a 9f3d c545 46bc
00000250: dba1 3b3d 157a 373d 5e7d 823d e81a 1abd
00000260: 4e71 833d b0e8 c13d ea3f 8abd f8ca 643d
00000270: d91f 8ebd 41ef 4dbd 9825 0d3d f2bd 28bd
00000280: f46a be3d 8c46 bb3d 3c16 59bd 26ca a7bd
00000290: e5b5 eb3c cff2 82bd dac3 5a3d f5e3 c3bd
000002a0: 831c d23d 1be4 143d 1d3f 13bd 64bc 1ebd
000002b0: 7186 a33d 79e6 a3bc d532 473d 2c43 52bc
000002c0: 0791 a8bc c6ae b53d 1ed5 b73d eaf3 84bd
000002d0: f08e a5bd 02e9 d7bd 93c1 903d f477 883d
000002e0: 63c4 d3bc de98 16bd 5fe4 3b3c 7641 343d
000002f0: 3016 62bc eacc db3d c777 9c3b 0a83 dd3d
00000300: 5829 97bd 70e7 a9bd f6d2 80bd 98e0 bd3d
00000310: 7a1a 903d aa1b 84bd ef8e 11bd 983e 823c
00000320: 5cb1 84bd cf31 25bd edc6 6c3c 56a5 6d3c
00000330: 5f58 b73d fa6a 673d 58aa 083d 83bb a03d
00000340: f3ed 973d de6a 293d b631 973c 6cea ba3d
00000350: 6106 2a3d 6fe6 f1bc 7b49 953c 65cd f4bc
00000360: 6830 ccbc f23f 273d 0c13 debd de5c c23d
00000370: c7c3 c8bd 3183 213d a337 a2bd be2a cd3c
00000380: 23c9 b9ba 522e bf3d b5e5 b7bc f2a1 a6bd
00000390: 2eab 42bd b3c4 c03c f5e1 10bc 9d74 ba3d
000003a0: 575b b3bd b3c6 ab3d 6b71 8dbd f17a dbbd
000003b0: d6b9 35bd dc63 54bd 8217 fb3c d5d1 8b3d
000003c0: 4740 debc 4a4d b23d efb1 5b3d d5ff db3d
000003d0: ec85 cc3d 9814 903d d6df 1cbd 40a7 bb3a
000003e0: 2a40 52bd 9e26 0c3c f10e 913c 009a cdbd
000003f0: 1e02 a5bd 12b8 a43d 4948 2fbc 83bd 7bbd
-0.082411714 0.090008445 0.06209438 0.08749161 -0.013897335 -0.00080510334 -0.04800718 -0.049732618
0.060515128 -0.089704975 -0.047635503 0.0688918 -0.07706582 -0.0006465032 0.02425367 0.008126791
-0.023078972 -0.082518205 0.06196522 0.09856298 0.104926996 -0.017616682 -0.085664526 0.078355044
-0.062250756 0.10810496 -0.05539393 -0.0023002452 -0.052715324 0.104987666 0.03626102 -0.09557578
0.049449526 0.026653968 0.068626426 0.015667913 -0.10116844 -0.08645398 0.050070647 0.0047829985
-0.039556075 -0.09481528 -0.010662001 -0.04541748 0.09875394 0.035544254 0.01883676 -0.07105583
0.042635202 -0.010751296 -0.09789117 0.00066856184 0.10171065 0.07248573 0.09302715 0.052567936
0.012801874 0.06619182 -0.027033672 -0.0009890076 0.10787148 0.085652515 0.020348066 0.017192898
0.036263667 -0.08760782 0.07311175 0.094757244 0.09574478 0.08745059 0.065464236 0.027788827
-0.04926252 -0.10365321 -0.016567264 0.040269762 -0.059686024 0.049046095 -0.03158659 -0.0030345179
-0.10282421 0.028761968 -0.09602526 0.06592804 -0.028650938 -0.06782055 -0.07840423 0.0024385066
0.03749174 0.069876105 -0.056371443 -0.009215088 -0.059891652 -0.025469769 -0.006595108 -0.08955283
0.092384964 0.1019928 -0.0039007156 0.05510797 -0.009956588 0.022306325 -0.009560916 0.09686456
0.10213148 0.025993513 -0.08139335 -0.040089067 0.025298743 0.06758985 -0.0545245 -0.07336914
-0.006571446 -0.07879978 -0.0033507224 0.106521584 0.08621394 -0.0072612907 -0.03309142 -0.029230477
-0.014156015 -0.04598344 -0.036821537 0.044137947 0.0891735 -0.02455119 -0.08831078 0.03713588
-0.06518958 -0.05460557 -0.09327435 -0.07121447 -0.053670585 0.030341195 0.060659606 -0.015896544
-0.07014846 0.0026456201 -0.061852872 -0.056535654 0.08768261 -0.04451041 -0.041570723 -0.106239915
0.015384164 -0.10343109 0.07765588 -0.012101595 0.045808654 0.04479416 0.06371568 -0.037623316
0.064180955 0.0946821 -0.06750472 0.05585763 -0.06939668 -0.050277 0.03445968 -0.04119677
0.092977434 0.09144315 -0.05299972 -0.08192854 0.028773258 -0.06393968 0.053409435 -0.09564964
0.102593444 0.03635035 -0.03594886 -0.038753882 0.07984627 -0.020007359 0.04863246 -0.012833398
-0.020576967 0.08871226 0.08976196 -0.064918354 -0.08083904 -0.105424896 0.07068171 0.06663504
-0.02585048 -0.03676688 0.011468022 0.04400774 -0.013799235 0.10732444 0.0047750208 0.10816009
-0.073809326 -0.08296096 -0.062902376 0.092713535 0.070363 -0.06450589 -0.035536703 0.015898988
-0.06479141 -0.040330704 0.0144517245 0.014504751 0.08952402 0.056498505 0.033365577 0.07848265
0.07418432 0.041361682 0.018456321 0.09126744 0.04150999 -0.029528825 0.018223515 -0.029883096
-0.024925426 0.040832467 -0.10843477 0.09490369 -0.098029666 0.039431754 -0.07920768 0.025044795
-0.0014174323 0.09335007 -0.0224484 -0.08136357 -0.04752653 0.023531293 -0.008842935 0.091042735
-0.08757656 0.08387508 -0.069063984 -0.107168086 -0.04436668 -0.051853046 0.030650858 0.06827132
-0.02713026 0.08706148 0.053636488 0.107421555 0.09986481 0.07035178 -0.038299404 0.0014316812
-0.051330723 0.008554129 0.01770732 -0.10039139 -0.080570444 0.08042921 -0.0106983865 -0.06146003

fc2.weight f4 [256, 256]
00000000: 1c42 85bc 005b 413d 069c 65bd 4a9e 53bd
00000010: c233 27bd 9418 d03c a4aa 7ebd d8d8 e4bc
00000020: 8835 a8bc c215 78bd 0a8b 42bd ea71 2ebd
00000030: 5035 823c 002c 5ab9 54e8 d73c 341e 233d
00000040: 4006 5e3c d885 483c c481 963c ecb0 e7bc
00000050: 9ab3 0abd 9c3f 643d b800 5ebc f85d cbbc
00000060: 86ce 56bd ae5c 613d 8043 28ba 8c39 9b3c
00000070: f05a 88bb 125c 783d 5ae7 253d 480d 4f3d
00000080: 9e6f 70bd 3a43 3f3d 3c36 b03c b2d9 0dbd
00000090: f65a 693d be0f 713d 6042 21bc 48db 12bd
000000a0: e893 bc3c 2ef3 5cbd 1453 1fbd 88b7 c1bc
000000b0: fcef c3bc a48f e43c 70c7 87bc b0f5 493c
000000c0: 6ef0 2ebd 78bf 6c3d e6d4 6f3d 088b 353c
000000d0: 20bd 293d 00f1 7bbb c088 4a3c f0c5 ddbb
000000e0: be04 173d 2667 373d 546e 9bbc 2007 f5bb
000000f0: 5613 2b3d e056 023b ba88 67bd 308a 2d3d
00000100: 8e89 543d 78b2 7a3d 5e96 50bd 64c4 a7bc
00000110: 1037 053d 2c87 923c acca 4abd 78cb 1dbc
00000120: 6410 4d3d d02c 8abc ecda df3c 004c e6b8
00000130: a020 59bb 5824 3dbc da9c 493d d84a e83c
00000140: d88d 2e3d 0049 67bd 2040 43bb 509b 97bb
00000150: a85b 35bc bc09 1f3d c219 473d 9838 acbc
00000160: c01c 46bc 8449 633d d8de 8d3c 9630 40bd
00000170: 18ae 583d d07a ee3b e4f7 863c 608f ecbc
00000180: 0092 05bc 6c3e 5a3d 18da 15bd d412 2bbd
00000190: 5024 1d3c 5e21 22bd d292 77bd 70fb 3bbd
000001a0: 4ade 793d aa58 493d f8b6 b7bc b0c2 753c
000001b0: 2479 e4bc acc7 2a3d a032 d1bc 0efa 0d3d
000001c0: 9000 183d 1ca7 3cbd 421b 2f3d 5ead 5ebd
000001d0: c0ed 79bc 0040 8abb 7e62 173d 9ee9 5b3d
000001e0: e8ef 733c ec70 cf3c 4041 9dba 28b9 673d
000001f0: 1e8a 0bbd 881f 1d3d 6aa8 37bd c6f1 09bd
00000200: f8a6 4e3c d8c5 49bd f43c acbc 18b5 8f3c
00000210: e011 603b 40fd 713d 3841 4a3c b4b5 313d
00000220: ac90 d63c a03a 1c3b ccad 543d 5c69 dabc
00000230: 207d 5abd 3c27 1f3d 0050 4d3a 58d0 bf3c
00000240: 40ad 8fbb 68f4 4ebc 7c83 993c 66ed 7f3d
00000250: 8213 71bd 70f4 513c 1ca2 793d 9870 51bc
00000260: 0408 c53c 903a 74bd 706e a83b 2cbc 1a3d
00000270: 2eb2 413d 8c39 1f3d f827 8a3c ca5e 72bd
00000280: f88f 52bd 94a9 65bd fcc2 f3bc 0848 d9bc
00000290: 7088 52bd 408d 2e3d c4b3 6d3d cca3 96bc
000002a0: e46c eabc 0e9b 6c3d 904d ebbc 9c6c d73c
000002b0: 38ff 2dbc 92df 093d 7028 c1bb b272 16bd
000002c0: 5c00 fbbc 427d 32bd e4cb 253d a20d 623d
000002d0: c89f 6abc 20b0 f53c c073 7d3b e0e2 76bd
000002e0: 002f 743d e4b8 dbbc f8c9 ef3c 906d fb3b
000002f0: 862a 54bd e831 4a3d d873 73bd 289f 4f3c
00000300: c87f 6b3d 38dd 833c 40a4 e1bb da15 513d
00000310: c0a1 843b 740d dfbc 94a3 dd3c be43 1fbd
00000320: a832 003c e056 ff3c ceec 6abd b4e8 513d
00000330: d464 533d 8866 a23c f02c 04bc 106e be3b
00000340: e29c 63bd 049f 33bd 1882 8b3c c00c 19bd
00000350: e044 993b f087 f13b 0040 27b9 98bc 2f3d
00000360: 0463 c23c 022f 39bd 7450 573d a421 d2bc
00000370: e000 6abd 580e 3cbc d025 90bb a014 e7bb
00000380: e416 df3c 000a d03c 54bd 09bd ce8c 22bd
00000390: e2e2 413d 6458 f33c 446a 4fbd e6ad 13bd
000003a0: face 18bd 0891 6fbd 3874 783d c0eb e3ba
000003b0: fefc 55bd 1885 28bc 183c 28bc 4eae 7abd
000003c0: 002b eab9 606a 983b 3a27 4f3d e8aa 32bc
000003d0: 40a8 953b 905c db3c 78c8 fc3c 246e edbc
000003e0: 5038 d9bc c83f 0c3c ccf5 733d 005d 48bb
000003f0: a485 df3c 2021 4f3c 700a 8e3b e03f 7dbc
-0.016266875 0.047205925 -0.056057 -0.051664628 -0.040820844 0.025402345 -0.062174454 -0.02793543
-0.020533338 -0.060567625 -0.04749588 -0.042589106 0.015894562 -0.00020806491 0.0263559 0.039823726
0.013551295 0.012238942 0.018372424 -0.028282605 -0.033862688 0.055724725 -0.013549976 -0.024825081
-0.05244305 0.055020027 -0.00064187497 0.018948339 -0.004161231 0.06063468 0.040503837 0.050549775
-0.058700196 0.04669497 0.021510236 -0.03463144 0.056971513 0.058852904 -0.009842485 -0.035853654
0.023019746 -0.05394285 -0.03889759 -0.023647085 -0.023918144 0.027900524 -0.016574591 0.012326643
-0.04270976 0.057799786 0.058552645 0.011080511 0.04144013 -0.0038443208 0.012361705 -0.0067679808
0.036869757 0.044776104 -0.018973507 -0.007477656 0.041766487 0.0019888207 -0.056526877 0.042368114
0.051888995 0.061205357 -0.05092465 -0.020479389 0.032523215 0.01788672 -0.04950969 -0.00963103
0.05006446 -0.016867071 0.02732607 -0.00010981411 -0.0033131018 -0.01154431 0.04922185 0.028356
0.04261574 -0.056466103 -0.002979286 -0.004626669 -0.011069216 0.038827643 0.04860855 -0.02102308
-0.0120918155 0.05549003 0.017318174 -0.046921335 0.052900404 0.007277824 0.016475625 -0.02887696
-0.008152485 0.053282186 -0.036584944 -0.041766003 0.009591177 -0.039582603 -0.060442753 -0.045894086
0.061003007 0.049156822 -0.022426113 0.01500003 -0.027889796 0.04169433 -0.025536835 0.0346623
0.03710991 -0.046057805 0.042750604 -0.054364555 -0.015254438 -0.004219055 0.036959164 0.05368959
0.014888741 0.0253224 -0.0011997595 0.056573063 -0.034067266 0.03836015 -0.044838347 -0.03367784
0.012613051 -0.049260944 -0.021025158 0.017542407 0.0034190342 0.05907941 0.012344651 0.043386176
0.026192032 0.0023838654 0.051923558 -0.026661567 -0.053341985 0.038855776 0.00078320503 0.023414776
-0.0043846667 -0.012631513 0.018739454 0.06248226 -0.058856495 0.012814626 0.060945615 -0.012783192
0.024051674 -0.059626162 0.0051401183 0.03777711 0.047289066 0.03887324 0.016864762 -0.05917243
-0.05140683 -0.056069925 -0.029756062 -0.026523605 -0.05139965 0.042615175 0.058032766 -0.018388651
-0.028616376 0.05776506 -0.028723508 0.026296906 -0.010619931 0.03366048 -0.005894713 -0.036730476
-0.03063982 -0.043576486 0.04047765 0.055188783 -0.014320321 0.02999121 0.0038673729 -0.06027496
0.059615135 -0.026821561 0.02927111 0.007672973 -0.051798366 0.049364 -0.05943665 0.012672223
0.05749491 0.016096696 -0.006886035 0.05104623 0.0040476024 -0.027228095 0.02705554 -0.038882963
0.007824577 0.031169355 -0.05735474 0.051247314 0.05160983 0.019824281 -0.008067355 0.0058114603
-0.055569537 -0.04385282 0.017029807 -0.037365675 0.0046774 0.0073709413 -0.00015950203 0.042904466
0.023728855 -0.045210846 0.05256696 -0.025650807 -0.05712974 -0.011478029 -0.004399039 -0.0070520192
0.027232595 0.025395393 -0.033627823 -0.039685063 0.047335513 0.029705234 -0.050638452 -0.036054514
-0.037306763 -0.058487922 0.06065771 -0.0017388985 -0.052243225 -0.010285638 -0.010268234 -0.061201386
-0.00044663996 0.0046513528 0.05057452 -0.010905005 0.004567176 0.026777536 0.03085731 -0.028983183
-0.02651611 0.0085601285 0.059560582 -0.003057301 0.027285405 0.012642175 0.0043347403 -0.0154571235

fc2.bias f4 [256]
00000000: f8e7 5ebd 38fb be3c 401d 4a3d 54bb 4ebd
00000010: 8020 303b c0ab bcbc f8aa ddbc 42f3 0fbd
00000020: 389a 5fbd 804a 39bb 8cc7 613d 7062 0a3c
00000030: a450 723d a8aa e73c 16e6 3abd f879 5f3c
00000040: f800 95bc a800 703c 4a93 443d c8d0 fcbc
00000050: 9e47 663d 90de e83b 5e85 02bd e46b 6fbd
00000060: e06a 893b 3086 9abc 30c4 3fbc 74df eabc
00000070: b69a 1abd d470 683d 448b d4bc 7a16 0bbd
00000080: dcd3 03bd 38d9 573c 7805 3a3d 00b4 6a3d
00000090: 3c44 c1bc 98f9 65bd 704d fe3c 148e 14bd
000000a0: 6492 51bd fa7b 4ebd e489 ddbc 00a7 303d
000000b0: ac8d bc3c 94b9 d7bc 9e1c 393d 90a3 463c
000000c0: aebc 2ebd c03a 31bb 142e d3bc 3a85 4d3d
000000d0: 729a 61bd 708f 013c 8032 c03a c419 fdbc
000000e0: 086b 54bd 5809 d4bc 7039 283c eec2 6c3d
000000f0: 8492 40bd 50a8 bd3b f011 34bc 1ecd 23bd
00000100: 3469 a73c 6049 db3b 3c03 95bc 0086 68bd
00000110: 700c 793c b6e8 213d d29b 613d a89d 76bd
00000120: 30e5 09bd 9ec8 32bd 205a 40bd 0cd3 aabc
00000130: 68eb 34bc 9254 153d 640c 49bd 900d b93c
00000140: 0a8c 67bd da73 60bd 027a 5dbd 1c1f 3cbd
00000150: 1c47 23bd b8bc 553d e48e ab3c c0de 1abc
00000160: 6434 53bd 2ad6 4cbd bcc0 a7bc 7a9a 1abd
00000170: 3841 ce3c 0452 b13c ecb1 3f3d 4cf7 d3bc
00000180: d838 ed3c deb0 343d ec01 fcbc f801 81bc
00000190: 8017 963b c478 5dbd 0016 b739 e46a 88bc
000001a0: 98d5 1a3c ae9b 063d e416 a13c f8cd 233c
000001b0: 2405 74bd ec71 5b3d 14d1 3dbd d0a9 1ebc
000001c0: d825 e2bc 509c a63c 9858 e03c 8838 3abd
000001d0: 0041 0bbc e0ef 1abd 2a7e 50bd e6c5 5abd
000001e0: a2a8 31bd ca95 563d 729b 02bd 9415 afbc
000001f0: 9009 873c d876 263d 02f7 7c3d 5620 67bd
00000200: 1611 7d3d 82a8 5ebd 3899 383c 285e 7cbd
00000210: 3806 89bc de1d 2c3d d8ef cc3c 9c6f 963c
00000220: 82ae 5e3d c411 26bd 6c6b a03c b0f2 a9bb
00000230: 74b9 0abd a033 423d c03a 513d 7832 d13c
00000240: 5040 2bbc 8c60 033d c4a1 34bd 0cc3 833c
00000250: e8e9 b4bc 524d 5e3d 9e37 403d 4004 5e3b
00000260: a2d4 4d3d 5ad0 563d d4c0 33bd d4db 8fbc
00000270: 4429 acbc 28d4 753d e025 46bb 0cc5 44bd
00000280: c87d 403c e044 223b 3054 2dbd 3494 513d
00000290: acf6 eebc 30f5 6a3d 048c 0bbd e03f 71bb
000002a0: f01f be3c 028e 3f3d 4465 dabc 1442 153d
000002b0: 20ad 9e3b 5e21 573d 0057 3a3b 7889 29bc
000002c0: f00f 023c feb0 11bd 0a12 073d 9078 e73b
000002d0: 3038 623c 70b9 f73c 34dd cb3c 90e4 02bc
000002e0: 70cd 7dbc cc8d e8bc 1c2c 59bd 14fd c3bc
000002f0: b21d 75bd dea4 483d 1e44 303d 5cdf f13c
00000300: f454 87bc 00ee 133a bc99 f0bc ecb5 0f3d
00000310: 80bd 43bc 10ff 2f3c e055 213c e0ca 2bbc
00000320: 9805 a43c f0cf ba3b 6041 e93b 80eb 58bb
00000330: 3c5f 89bc 546f b03c 006e 33ba fa04 4e3d
00000340: 4817 6a3d ecfe 083d 0857 79bd 48f2 f6bc
00000350: a805 283c 00c2 27ba 4a36 08bd d434 993c
00000360: 60d8 7dbc 489e ab3c e836 013c fe4a 483d
00000370: c224 3fbd 9022 583d 085f 7ebc 54f1 20bd
00000380: d864 133d 1893 7ebd 281a 45bc 2a76 363d
00000390: 8037 25ba 2a11 27bd 8472 f0bc 8e31 2e3d
000003a0: 48c9 e03c ac29 ae3c 761d 72bd 6cda 8abc
000003b0: c066 4fbb f6d9 003d 9e39 2cbd aa56 7dbd
000003c0: 0ab7 353d 7cf9 783d 4243 043d 0070 d7bb
000003d0: a6b8 6b3d 5aa2 773d 8060 71bc b0a2 193d
000003e0: cca7 1a3d 0844 54bd c08f ca3c 007e 43bc
000003f0: c02f 843c f863 1a3c 30a7 a43b 8086 9f3a
-0.05442044 0.02331315 0.0493443 -0.05047162 0.002687484 -0.023031116 -0.027059063 -0.035144098
-0.054590434 -0.0028273165 0.055121943 0.008446321 0.059158936 0.028279617 -0.045629583 0.013639919
-0.018188938 0.014648594 0.04799203 -0.030861273 0.056220643 0.0071066096 -0.03186547 -0.058452502
0.0041936487 -0.018862814 -0.01170449 -0.028671004 -0.0377452 0.056748226 -0.025945313 -0.033956982
-0.032184467 0.013174348 0.04541537 0.057300568 -0.023592107 -0.056146234 0.031042784 -0.03626831
-0.051165 -0.050411202 -0.02704329 0.043128014 0.023016773 -0.026333608 0.045193307 0.012123957
-0.042660408 -0.0027043074 -0.025778808 0.050175883 -0.05507893 0.007907733 0.0014663488 -0.030896075
-0.051859885 -0.025883362 0.0102676 0.057803087 -0.04701473 0.0057878867 -0.010990605 -0.039990537
0.020435907 0.0066920966 -0.018190019 -0.056768417 0.015200719 0.03952857 0.055080242 -0.060208946
-0.033665836 -0.043648355 -0.04696095 -0.020852588 -0.011042453 0.036457606 -0.049084082 0.022589475
-0.056530036 -0.054797985 -0.054071434 -0.045928106 -0.039862737 0.05218193 0.020942159 -0.009452522
-0.051563635 -0.05000893 -0.020477645 -0.037744977 0.025177583 0.021645553 0.04680054 -0.025874756
0.02895777 0.044113986 -0.030762635 -0.01574801 0.004580438 -0.05407025 0.0003492087 -0.016652532
0.009450339 0.03286331 0.019664235 0.009997837 -0.059575215 0.05357544 -0.04634197 -0.009684041
-0.027605936 0.020338207 0.027385995 -0.04546407 -0.008499384 -0.03782642 -0.05090157 -0.053411387
-0.04337371 0.052388944 -0.031886525 -0.021372594 0.016484052 0.040640682 0.061759003 -0.056427322
0.061783873 -0.05435992 0.011266999 -0.061613232 -0.016726598 0.04202067 0.02501671 0.018363766
0.054365642 -0.040544286 0.019582473 -0.0051864013 -0.033868268 0.047412515 0.05108142 0.02553676
-0.010452345 0.032074496 -0.044099584 0.016084217 -0.022084191 0.054272957 0.04692804 0.0033877045
0.05025161 0.052444793 -0.043885067 -0.017560877 -0.02101577 0.06001678 -0.0030234978 -0.04803948
0.011748739 0.002476029 -0.042316616 0.05116673 -0.029170357 0.057362735 -0.034069076 -0.0036811754
0.023208588 0.04676629 -0.026659615 0.03643997 0.0048424155 0.052522056 0.0028433204 -0.0103477165
0.00793837 -0.035569184 0.032976188 0.0070639327 0.013807341 0.03023979 0.024885751 -0.007989064
-0.015490875 -0.028387927 -0.05302058 -0.023924388 -0.059842773 0.048985355 0.04303371 0.029525451
-0.016520001 0.000564307 -0.029370181 0.035085604 -0.011947036 0.010741964 0.009847134 -0.010485381
0.020022199 0.0057010576 0.007118389 -0.0033099353 -0.016769044 0.02153746 -0.00068446994 0.050297715
0.05715111 0.033446237 -0.060874015 -0.030144826 0.010255255 -0.00063994527 -0.0332549 0.018701948
-0.015493482 0.020949498 0.007886626 0.048899643 -0.046665914 0.052767336 -0.015525587 -0.03929265
0.035984844 -0.062152 -0.012030162 0.044546284 -0.00063025206 -0.040787853 -0.02935148 0.042527728
0.027439728 0.021260105 -0.059110127 -0.016949855 -0.0031646937 0.031457864 -0.042047136 -0.061850227
0.044364013 0.0607848 0.032290705 -0.0065746307 0.05754914 0.060457565 -0.01473248 0.037508667
0.03775768 -0.051822692 0.024726748 -0.011931896 0.01613605 0.0094232485 0.005024813 0.0012170821

fc3.weight f4 [256, 256]
00000000: 982c c7bc f064 d03c c083 e73a 4403 d23c
00000010: 4485 aebc 9cd5 b83c d039 bcbb 6439 f43c
00000020: 7c7b 483d 589b 703c 286e 493d 1e91 6a3d
00000030: 6600 603d 981a d43c b06f 5ebc 3415 a13c
00000040: 60f0 61bb 64d3 e8bc 88b9 c33c 40a9 aabc
00000050: 0ef7 1d3d 1c52 3bbd da37 1fbd 7803 8d3c
00000060: 0ee7 41bd d83c fabc 7ce7 123d fa04 7a3d
00000070: f2e2 653d 429f 723d 70d4 c93b 5e05 6e3d
00000080: 8cf6 c2bc f823 c23c 4883 17bc c435 7ebd
00000090: 8e85 28bd fee4 0fbd 6cdd 4b3d cabb 593d
000000a0: 0627 4c3d 840f 60bd 3047 8fbc 0087 b53b
000000b0: aa2b 71bd 1089 483d 605d 85bb a82e 533d
000000c0: f678 5bbd 6e3c 7c3d 2c74 793d a032 c73c
000000d0: 8e7d 79bd 5a71 0abd d0d8 8c3c ce56 7dbd
000000e0: bcfb 113d 6813 28bd 8086 eb3a e06f 7abc
000000f0: e87b 6dbc f684 133d 8816 14bc 600b 5f3c
00000100: 50f9 db3c 2cc3 17bd ec7b bfbc 2044 7e3d
00000110: 4046 753c 88c2 2dbd 4a7e 70bd 0093 cd3b
00000120: 3038 cdbb 8801 483c a40f da3c da57 4c3d
00000130: 107a da3b d0f9 79bd f06b 783d e019 f4bc
00000140: 8864 2fbd 7c7a f33c b876 b4bc 6c9c f43c
00000150: 66ae 583d 8cc7 94bc 207f 9b3c f851 f6bc
00000160: dcf5 263d 689a f3bc 4c1f 5a3d 00f4 e139
00000170: c0be 57bb d00f 843c 4069 6cbc 0ef4 01bd
00000180: 04a9 753d 283a 013d d856 83bc 70d2 5c3c
00000190: 0c29 473d 38a4 223d 6041 79bd 2e4e 513d
000001a0: 98e4 9abc 4453 b03c 8422 1b3d 9026 c03b
000001b0: 7490 da3c 885c f33c b001 eabb 8a0f 11bd
000001c0: 8095 223c 6059 01bd 78ef aa3c 2806 033d
000001d0: 0427 ee3c 44a8 70bd e6fa 7e3d 00a5 62bc
000001e0: c059 12bd 9026 163c 28c2 cebc 502f 573c
000001f0: 0831 adbc faa5 0d3d e8d3 323c 3cf8 19bd
00000200: 3682 673d 3447 f3bc ce4a 433d 74df a43c
00000210: f660 733d d476 ce3c bcfa 393d cedb 6a3d
00000220: b86f 4abd 14b7 1c3d 56ad 7a3d d0f0 e7bc
00000230: 9002 c03b 50fe 04bc 049d d9bc 080c b5bc
00000240: ac1e 133d fab3 7b3d e8b5 11bc fcce 723d
00000250: 6041 1abc ac61 8e3c 084e f5bc 284f 44bd
00000260: c680 233d 5839 253d e04b 3f3c 1eba 50bd
00000270: 0614 1ebd ae6e 643d 90a0 63bc a839 6c3c
00000280: be1b 75bd c8dc 913c fccc fabc 4ac0 703d
00000290: 00b6 40bb a0ba 15bc 5c3d c93c a850 b33c
000002a0: 805f 373d 8491 7e3d b0cf a43c 78ad 343d
000002b0: 9289 7abd bafb 2c3d 46f8 0dbd b631 47bd
000002c0: d02f 943c 2e9c 4fbd f04a 7e3d 30ab 5f3c
000002d0: e471 553d 12ec 24bd 0459 a0bc e038 6abd
000002e0: 1021 0abd 1207 163d 10ec 88bb 4041 65bc
000002f0: 321e 39bd 90a4 bebc 40f0 bcba 4265 423d
00000300: 68a2 5fbc 8022 7abc b0bc 693d c01e d03c
00000310: 0060 89bc 5a40 0d3d 00d0 fdb7 ead8 24bd
00000320: 58c2 12bc ae64 74bd e04d 5cbd 3c23 683d
00000330: 4874 153c a059 c7bb acd3 c0bc f089 893c
00000340: 0e45 7bbd d4e7 e2bc beb2 6f3d a8e9 e03c
00000350: 58d9 6dbc 9cab 9f3c 3828 cf3c c261 113d
00000360: 1453 dbbc 4476 9f3c d8f4 cabc 38ce e4bc
00000370: 10c9 e6bc f082 2dbc 6085 723c f84e 583c
00000380: 2a56 63bd 40bb 54bd e0db a8bc 06df 493d
00000390: fcd7 70bd f48f 8bbc caa6 4c3d d4a8 ad3c
000003a0: e071 45bb d6a9 76bd 38d5 1abd 3a91 5abd
000003b0: b465 a23c e42b f53c 805e 4f3a e830 143d
000003c0: 8835 8c3c 6860 18bd 04d2 913c 3ad3 383d
000003d0: 4c7a 3f3d d65d 393d 828d 193d bc55 7d3d
000003e0: 4444 073d 707e 97bc 282f 16bd 4c37 dfbc
000003f0: 3e4e 6c3d 043d b2bc f0ea 7dbc a85d 123c
-0.024313256 0.025438756 0.0017663166 0.025636323 -0.02130378 0.022562794 -0.0057441965 0.029812522
0.04894589 0.014685474 0.04917732 0.0572673 0.05468788 0.025891587 -0.013576433 0.01966343
-0.003447555 -0.028421111 0.02389218 -0.020832658 0.038565688 -0.045732602 -0.038871624 0.017213568
-0.04733949 -0.03054659 0.035865292 0.061039902 0.056124635 0.05923391 0.0061593577 0.058110587
-0.023799203 0.023698792 -0.0092476085 -0.062062994 -0.041142993 -0.035130493 0.04977171 0.053157605
0.049841903 -0.054702297 -0.01749 0.005539775 -0.058879532 0.048958838 -0.004069969 0.051558167
-0.053582154 0.061581068 0.060901806 0.024316132 -0.060910754 -0.033799507 0.017193228 -0.06185036
0.035640463 -0.041034132 0.0017969161 -0.015285462 -0.014494874 0.036015473 -0.009038575 0.013613552
0.02685228 -0.037051365 -0.02337452 0.062076688 0.014970362 -0.042421848 -0.05871419 0.0062736273
-0.0062628016 0.012207396 0.026618786 0.04988847 0.006667383 -0.061029255 0.060649812 -0.029797494
-0.042820483 0.029721491 -0.022029266 0.029859744 0.052900694 -0.018161558 0.018981516 -0.030068383
0.040761814 -0.029736713 0.053252503 0.00043097138 -0.0032920092 0.016120821 -0.01442939 -0.03172689
0.05997564 0.031549603 -0.016032621 0.013477907 0.04862313 0.039707392 -0.060853362 0.05109995
-0.01890783 0.02152408 0.037874714 0.005863972 0.026680209 0.029707208 -0.0071413144 -0.03541521
0.009923339 -0.031579375 0.02086614 0.031988293 0.029071338 -0.05875422 0.062250994 -0.013833284
-0.035730124 0.009164467 -0.025239065 0.013133839 -0.021141544 0.034582116 0.01091478 -0.03759025
0.056520663 -0.029697038 0.04767876 0.020126082 0.05941864 0.025203146 0.045405135 0.05733853
-0.04942295 0.038260534 0.061200462 -0.02831307 0.0058596805 -0.008117273 -0.026564129 -0.022100464
0.035917923 0.061450936 -0.0088934675 0.059279427 -0.009415001 0.017380558 -0.029944435 -0.04792705
0.03991773 0.04033789 0.011675805 -0.050958745 -0.038593315 0.055769615 -0.013893262 0.014418043
-0.05984091 0.017805472 -0.030615322 0.05877713 -0.0029405355 -0.009138733 0.024565391 0.021889046
0.04476881 0.062150493 0.020118564 0.044110745 -0.061166354 0.042232253 -0.0346606 -0.048631392
0.018089205 -0.050686054 0.062083185 0.013651654 0.052110568 -0.040264197 -0.019573696 -0.057183146
-0.033722937 0.036627837 -0.0041785315 -0.013992608 -0.045194812 -0.023271829 -0.0014414862 0.04745985
-0.0136495605 -0.0152670145 0.057064712 0.025405288 -0.01676941 0.0344852 -3.0256808e-05 -0.040245928
-0.008957468 -0.059666328 -0.053785205 0.056674227 0.009121962 -0.006083682 -0.023538433 0.016789407
-0.061345153 -0.027698435 0.05852007 0.027455166 -0.014517151 0.01949101 0.025287732 0.03549362
-0.026773013 0.019465573 -0.024774954 -0.027930364 -0.028172046 -0.0105903 0.014802307 0.013202421
-0.055502094 -0.051936388 -0.020612657 0.049284957 -0.05879973 -0.017036416 0.04996375 0.021198668
-0.003012769 -0.060220562 -0.037800997 -0.053361155 0.019823886 0.029928155 0.0007910505 0.036179453
0.01711537 -0.037201315 0.017800339 0.045123316 0.04674749 0.045255505 0.037488468 0.06184934
0.033024088 -0.018492907 -0.036666065 -0.027248047 0.057691805 -0.02175761 -0.015497908 0.008933462

fc3.bias f4 [256]
00000000: 6e7b 07bd 12bf 01bd 040a 43bd e470 043d
00000010: 403a 52bd fa4c 65bd 206f edbc 6442 d53c
00000020: ece2 2bbd 10ac 11bd 2460 523d a818 d3bc
00000030: 6ee4 11bd de48 493d b46b 943c e899 843c
00000040: 5013 6d3d e46e 59bd 0c31 5cbd e81f f03c
00000050: dc86 143d 2013 85bb 825e 373d c02a d7bc
00000060: def6 663d 4837 293c 20e4 40bc 6ad0 6dbd
00000070: aaa7 593d 54d2 81bc 5c29 103d b86e c0bc
00000080: 8033 ecbb 58cf acbc 24b9 90bc 0a59 4fbd
00000090: 7026 10bc 1cf2 633d 00d4 2ebb 7237 713d
000000a0: 6637 5cbd 8c02 d1bc aa8c 0ebd 7812 2c3d
000000b0: 8046 613c 2440 f3bc 3889 293c d032 363c
000000c0: d8a6 6bbd 9c60 25bd 2c19 8bbc 1499 40bd
000000d0: f261 14bd d46d b6bc 8cea f53c 0868 1a3d
000000e0: 7c3b b5bc f861 383c 62b8 17bd 384e 23bd
000000f0: e0d6 323c b893 75bc ece5 373d 009c 473c
00000100: 482d ff3c e0a7 7a3b 2c43 8ebc 147a 073d
00000110: 1472 e9bc f034 bdbb 46f6 4d3d dc79 81bc
00000120: a85c 4abc 34a3 d23c 5280 35bd 7c52 6d3d
00000130: d4b4 513d 288a 03bd 3809 053d 1083 f23c
00000140: 0080 363c f465 803c 60ea e3bc 58a5 adbc
00000150: e4e6 873c 289e 19bd 70ff e53b cc52 e93c
00000160: aacb 24bd c847 75bc e0b1 e23c 68e0 7f3c
00000170: 14ac eb3c d8e4 4a3d 92c7 7a3d a0aa 7dbb
00000180: fa9c 40bd 2ca7 c83c c0eb 41bb c465 b0bc
00000190: 009e a3ba a0c7 fdbb 8c9b c83c 08f9 c0bc
000001a0: 00cf 9bb9 8efe 2abd 4cce 1cbd 8054 5ebc
000001b0: f8d8 613d 7c64 aa3c 6067 103b e454 cabc
000001c0: f039 17bc 72da 5e3d c42d 55bd a82c cebc
000001d0: 7cd9 dabc 8a26 5dbd 90a5 883b ee93 2a3d
000001e0: 6ea8 0d3d f4b4 cf3c d4d0 7dbd a8d0 103c
000001f0: 1058 523c 504b d23c 58b9 10bc 285c 7fbd
00000200: 2c52 f63c 8e5a 0b3d 900f 603d 501f 573d
00000210: 544d f0bc 001e c03c 48b9 28bc 60a7 80bc
00000220: d019 363c 5035 b1bc dcc9 3bbd f033 45bd
00000230: 3264 1a3d c899 0b3d 841b c33c a07a 87bc
00000240: 48c7 e7bc 3270 4c3d b87a 51bc 5083 68bd
00000250: 4037 3dbc 0c21 60bd 7e6b 65bd 6887 5e3c
00000260: 1eec 113d d035 583c 3ce4 343d 5063 88bc
00000270: 0ce3 7abd ca5d 2e3d 14d7 6ebd c8b9 3ebc
00000280: 40ac 6a3c cc4b 17bd 762f 013d d6fc 20bd
00000290: bcf9 f03c f8cb ef3c 08c5 053c e895 20bc
000002a0: e28d 06bd de8b 6a3d 64d6 da3c 0852 093c
000002b0: 02d2 5dbd 98c9 6ebd 4045 22bd f8bb 60bd
000002c0: f09e a1bb 0643 2bbd 6833 423d fc08 e2bc
000002d0: e87f 423c 68ae 12bc 5827 2dbc 5e7a 673d
000002e0: 80f8 3b3c 7cd6 0bbd 200e 7f3b aa5e 64bd
000002f0: 002c a138 4057 febb 4c99 433d 2e6f 4d3d
00000300: 781d c9bc c028 a8bb a050 8b3b 509b e7bc
00000310: 2e96 42bd 5674 5b3d f6ff 0e3d 681e 023d
00000320: 8058 443a eccb 0f3d 5828 913c a0a7 9e3c
00000330: fc47 21bd 8c81 79bd 0ec7 0c3d 04b7 7dbd
00000340: 88d9 9f3c d000 55bd 9eb6 35bd 58d1 543c
00000350: b4e0 d43c 2c19 da3c 8c88 fdbc 0098 40bd
00000360: 20f0 343d aee0 573d 7c42 78bd 903f e4bb
00000370: 4e25 64bd 04a1 893c 00da 6dbc b04c 133d
00000380: 0ccf 32bd 505a 09bc 40a3 ae3a 48fa 81bc
00000390: 8ca1 d9bc a817 af3c 58fd 69bc ece5 7dbd
000003a0: 142c 933c 5eb0 1c3d fe1a 43bd b03e 773c
000003b0: 3646 493d 66cf 733d b627 5dbd 2ca8 503d
000003c0: 8c51 36bd cc85 ca3c e06c 973b 409d 7a3c
000003d0: 885a e6bc d05d 1e3c 505b 3c3c c418 3abd
000003e0: 206b c43b a056 b13b 80fa 273b 78b5 7d3c
000003f0: dc94 2cbd 5424 bcbc 9439 de3c fea4 5d3d
-0.033076696 -0.03167636 -0.047616974 0.032334223 -0.051325083 -0.055981614 -0.028983653 0.026032634
-0.041964456 -0.035564482 0.051361218 -0.025768593 -0.03561824 0.049141757 0.018117763 0.01618667
0.057879746 -0.05308427 -0.053757712 0.02931209 0.036261424 -0.004061118 0.044767864 -0.026265502
0.056387775 0.0103281215 -0.011773139 -0.058060087 0.053138413 -0.015847363 0.035195693 -0.023490295
-0.0072082877 -0.021094963 -0.017666407 -0.050622024 -0.008798227 0.055650815 -0.0026676655 0.058890767
-0.05376377 -0.02551391 -0.034802116 0.0420098 0.013749719 -0.02969367 0.010347657 0.011120513
-0.05753216 -0.040375337 -0.016979776 -0.047020987 -0.03622622 -0.022269167 0.030019067 0.03769687
-0.02212309 0.011253826 -0.037041076 -0.039869517 0.010915488 -0.014988832 0.044897005 0.012183189
0.031149521 0.0038247034 -0.017366014 0.033075407 -0.02849678 -0.005774133 0.050283693 -0.015805177
-0.0123511925 0.025712587 -0.04431183 0.05793999 0.05119784 -0.032114178 0.032479495 0.029603511
0.011138916 0.015673615 -0.02782172 -0.021197006 0.01658959 -0.037504345 0.007018976 0.028481863
-0.04023329 -0.014970727 0.027672708 0.015617467 0.028768577 0.04953465 0.06122548 -0.0038706437
-0.047024705 0.024493776 -0.002958998 -0.0215329 -0.0012483001 -0.0077447444 0.024488233 -0.023556247
-0.0002971813 -0.04174667 -0.038282678 -0.013569951 0.05513856 0.020799868 0.0022034273 -0.024698682
-0.009230122 0.054407544 -0.0520456 -0.025167778 -0.026715033 -0.05399183 0.004170127 0.041644983
0.034584455 0.02535484 -0.061966732 0.00883881 0.012838379 0.025670677 -0.008833252 -0.062343746
0.03006848 0.034021907 0.05470234 0.052520096 -0.029333748 0.023451805 -0.010298081 -0.01570481
0.011114553 -0.021631867 -0.045846805 -0.048145235 0.03769321 0.034082204 0.023816831 -0.016537964
-0.028293267 0.049911685 -0.012785606 -0.056765854 -0.011548817 -0.054719016 -0.056010716 0.013582088
0.03562557 0.013196424 0.044162974 -0.016648918 -0.061251685 0.042569913 -0.058310583 -0.011640973
0.014323294 -0.03693752 0.031539403 -0.039303623 0.029415958 0.029272065 0.008164652 -0.009801365
-0.032850154 0.057262294 0.026713558 0.008381374 -0.054155357 -0.058297724 -0.039616823 -0.05486676
-0.004932277 -0.041811965 0.047412306 -0.027592175 0.011871316 -0.0089527145 -0.010568462 0.056513183
0.011472821 -0.034140095 0.0038918331 -0.05575434 7.685274e-05 -0.007761866 0.047753617 0.050154857
-0.024550185 -0.005131811 0.0042515546 -0.028272301 -0.047506504 0.053577743 0.034912072 0.03176728
0.0007489994 0.035106584 0.017719433 0.01936704 -0.03937529 -0.06091456 0.03436952 -0.061942115
0.019512907 -0.052002728 -0.04436361 0.012989365 0.025986053 0.026623331 -0.0309489 -0.04701996
0.044174314 0.052704506 -0.06061028 -0.006965585 -0.05569964 0.016800411 -0.014517307 0.035961807
-0.043654487 -0.008383349 0.0013323799 -0.015866414 -0.02656629 0.021373585 -0.014281593 -0.06198685
0.017965354 0.038254134 -0.047633164 0.015090629 0.049139224 0.059523962 -0.05399295 0.05094163
-0.044511363 0.024722002 0.004621133 0.01529628 -0.02811934 0.009665921 0.01149638 -0.045433775
0.0059942156 0.005411938 0.0025631487 0.01548516 -0.04213415 -0.022966541 0.027127065 0.054112427

output.weight f4 [4, 256]
00000000: 9049 3f3d b03f c0bb b895 4dbc daa7 30bd
00000010: 06d3 58bd 06ef 43bd 1a7b 3dbd 30a7 223d
00000020: 287f 5bbc 405c 4c3d f0d1 f13c da87 033d
00000030: 64ca dbbc b8e5 903c 5c4d 4dbd e411 9fbc
00000040: 0ebd 4c3d 8c81 38bd 4e66 6c3d 2c1c cbbc
00000050: 56d3 57bd 70a4 f03c 1012 f13b f060 793d
00000060: 18d5 313d 84f0 62bd 0600 5e3d 00e1 49bd
00000070: 84e5 8fbc c06d e2bb 38da 02bd 5445 3ebd
00000080: b07f f0bc 10ff 86bc 003c 8a3b 9cab 3dbd
00000090: b027 78bc 9afa 30bd 584f ad3c f8ad 11bd
000000a0: 882e 533d b8fe e2bc 600c b83c 607a 183c
000000b0: c0c2 1abd d0ec 22bd 302d 5e3c 4829 823c
000000c0: 00ac aeb8 8ac3 37bd c021 6fbd bc99 2a3d
000000d0: 480e 7fbd f657 32bd 4435 673d 4029 de3a
000000e0: 001b e4bb 9c38 bcbc d2b6 11bd a622 1cbd
000000f0: d428 a43c c0b9 5ebd 66a9 733d c299 0ebd
00000100: 800d e8bb 14dc 953c 00c0 b0ba ea0d 5f3d
00000110: c0aa 5dbb 2052 33bd bcf7 1dbd f06c 433c
00000120: 70a8 a43c a6b8 253d fa69 623d 8c2b 6fbd
00000130: e483 38bd 08ee bc3c a0cb 1abc e2da 0c3d
00000140: cec9 763d eeb8 573d a0c4 173c 4cfe 2fbd
00000150: c827 5e3d 4041 e73a 1068 2ebc c04e 6dbc
00000160: f636 4a3d d0dc 0d3d d6d0 4dbd 882e 323c
00000170: a23f 133d 004f 92bb e08c 143c 122b 543d
00000180: 20b9 eebb 8af4 5b3d 5044 7a3c 6c80 b5bc
00000190: 7073 e8bc b8cd 31bc d2a9 55bd 98e2 5e3d
000001a0: 40bc 823c 90e5 053d d88f 123d 9439 f73c
000001b0: a432 fa3c a65b 4ebd c40b 1dbd 400f e3ba
000001c0: 9818 833c a044 6dbd 24df bc3c 6a84 4c3d
000001d0: 009c e4b8 76ae 383d f825 ab3c 10a6 94bc
000001e0: 6cc4 5cbd 440a 21bd 60c9 3abb 408f 8b3b
000001f0: 08b2 28bd becd 74bd 782b 633c fc80 7ebd
00000200: e071 263d 5651 61bd 4264 633d b0e4 7d3c
00000210: 5429 2ebd 6c01 273d 22af 67bd 402d 48bc
00000220: 16d5 293d 48db 4a3c c409 ab3c c099 acba
00000230: cc08 e33c be60 38bd d895 60bc 365d 773d
00000240: 94d1 183d 70f5 78bd 5c39 73bd 14fb 6abd
00000250: 247e fbbc 008b 3bbc 24f2 edbc 2067 a6bc
00000260: 6c29 6cbd 90c1 1dbc 70ad e2bc d0d2 66bd
00000270: 0400 7f3d 46e0 16bd 0044 593d 866a 5b3d
00000280: 0c6e d23c 6ad6 25bd 7cac b2bc d613 733d
00000290: 7810 133c 184d 943c f87e abbc 9810 75bc
000002a0: 4470 483d d023 67bd 88fb e13c d0a8 12bc
000002b0: 9a8d 353d 100e 0c3d 5233 043d 90fc ebbc
000002c0: 4c7b ce3c 00a0 943a 9623 2d3d 401b 683b
000002d0: 647d 743d 6265 103d 4c5c 963c 0252 23bd
000002e0: 70da 893b 9462 563d 94f1 423d 80a5 67ba
000002f0: 204e 203c f64b 09bd 703a 06bc c056 7fbc
00000300: a4c8 853c e0be 0fbb 20c3 3f3c fe3a 3b3d
00000310: c0ce 473c 6e54 183d 8036 38bd 3aed 4dbd
00000320: 4283 1c3d 2885 e8bc fe90 623d b420 f33c
00000330: a028 5cbd aa31 74bd ea1a 70bd 8495 33bd
00000340: b8f4 7a3c f8ef 673c 84b1 e33c 689c a43c
00000350: d817 e9bc 1e4d 4fbd 463f 213d 8482 ff3c
00000360: 089c dfbc b03f 0c3d 26ed 3cbd 70ca edbc
00000370: 3e2e 1dbd 8032 f23a a0bc 20bd d0c0 373d
00000380: b01b 733c 22c7 5e3d c673 463d d077 51bc
00000390: b294 7cbd 621d 393d c06b 79bb 78d0 71bd
000003a0: 9cde ecbc 4800 e43c 7eb1 4dbd c025 80ba
000003b0: 986c 04bd d06b 71bc dce4 78bd 6658 2abd
000003c0: 883c 0e3c b651 2c3d e898 783d 802d 2ebb
000003d0: 108e 6dbd 7861 c83c 9c28 a43c 0871 1abc
000003e0: 3ebb 5abd 4a96 093d 50b7 00bc ec7c 373d
000003f0: c4bd f63c 367a 40bd 9c95 d0bc d01c df3b
0.046701014 -0.005866967 -0.012547903 -0.043128826 -0.052935623 -0.047835372 -0.046259977 0.039710224
-0.013397016 0.049892664 0.029519051 0.03211198 -0.026829906 0.017687663 -0.050122604 -0.01941771
0.049984984 -0.04504542 0.057714753 -0.024793707 -0.05269178 0.029375285 0.0073568895 0.060883462
0.043416113 -0.055405155 0.05419924 -0.049286842 -0.017565496 -0.006910056 -0.03194639 -0.046452835
-0.029357761 -0.016479045 0.0042185783 -0.046306238 -0.015146181 -0.043207742 0.021155998 -0.0355663
0.051558048 -0.02770935 0.022466838 0.00930652 -0.037783384 -0.039776623 0.013560578 0.015888825
-8.329004e-05 -0.044864215 -0.058381796 0.04165052 -0.06226948 -0.043540917 0.056447282 0.0016949549
-0.0069612265 -0.022976212 -0.03557474 -0.03811898 0.020039 -0.054376364 0.059487723 -0.034814604
-0.0070816875 0.018293418 -0.0013484955 0.05445663 -0.0033823699 -0.043779492 -0.038566336 0.011927828
0.020099849 0.040459298 0.05527685 -0.05839114 -0.045047656 0.02306272 -0.009447962 0.03438843
0.06025105 0.052666597 0.009263188 -0.042967126 0.054237157 0.0017643347 -0.010644928 -0.0144841075
0.04936882 0.03463441 -0.05024799 0.010875352 0.035949357 -0.004464984 0.00906679 0.051798888
-0.007285252 0.053700007 0.015275076 -0.022155963 -0.028375357 -0.01085227 -0.052163906 0.054415315
0.015958905 0.03268963 0.03578171 0.030178823 0.030541725 -0.05038037 -0.0383413 -0.001732327
0.016002938 -0.057926774 0.02305562 0.049930967 -0.000109009445 0.045088254 0.020892128 -0.018145591
-0.05389826 -0.03931643 -0.0028501377 0.00425902 -0.04118541 -0.059766524 0.013865344 -0.062134728
0.040635943 -0.05500921 0.055515535 0.015496418 -0.042519882 0.04077284 -0.056563504 -0.01221782
0.04146298 0.012381382 0.02087868 -0.001316838 0.027714156 -0.045014136 -0.0137076005 0.060391627
0.037309244 -0.060780942 -0.059380874 -0.057368353 -0.030699797 -0.011446714 -0.029046126 -0.020312846
-0.05765669 -0.009628668 -0.027670592 -0.05635339 0.062255874 -0.036834978 0.053043365 0.053568386
0.02568724 -0.040487684 -0.021810763 0.05934509 0.008976094 0.018103167 -0.020934567 -0.01495757
0.04893519 -0.056430638 0.02758576 -0.008951381 0.044324495 0.0341931 0.032275505 -0.028806955
0.025205277 0.0011339188 0.042270266 0.0035416633 0.059689894 0.035252936 0.018354557 -0.03987313
0.004206948 0.052340105 0.047593668 -0.0008836612 0.009784251 -0.033519708 -0.0081926435 -0.015584648
0.016331024 -0.0021933839 0.011704236 0.045710556 0.012195289 0.037189893 -0.04497385 -0.050275065
0.038211115 -0.028383806 0.055314057 0.02967868 -0.05374968 -0.059617676 -0.058619417 -0.04384376
0.015317135 0.014156334 0.027794607 0.020094112 -0.028453752 -0.050610654 0.039366983 0.031190164
-0.027296081 0.034240425 -0.0461246 -0.029027194 -0.038374178 0.0018478185 -0.039242387 0.044861615
0.014838144 0.054389127 0.048450254 -0.012784913 -0.061665244 0.045194037 -0.0038058609 -0.059036702
-0.028914742 0.027832165 -0.050218098 -0.0009776875 -0.032330126 -0.014735177 -0.060765132 -0.04158821
0.008681424 0.042070113 0.060692698 -0.0026577413 -0.05799681 0.02446054 0.020038895 -0.009426363
-0.053401224 0.033590592 -0.007856205 0.04479687 0.030119784 -0.04699155 -0.025461964 0.0068088546

output.bias f4 [4]
00000000: e889 dfbc 3022 1b3c b029 05bd 5ed4 13bd
-0.027287439 0.0094686 -0.03251046 -0.0360912
