fetch_sticky_mittens_step_4_blocks/networks/ours_10k_block_4_uber_level_0_seed_150/network_release_and_lift_0.pth (torch, 610423 bytes, 8 tensors)

fc1.weight f4 [256, 73]
000000 e9 85 e5 bd 48 dc c0 bd 58 69 b8 bd ee 68 90 bd
       -0.11207182 -0.09417015 -0.09004468 -0.07051264
000010 87 80 91 bd 40 78 3d bd da 37 d5 3d 73 91 db 3c
       -0.07104593 -0.046257257 0.104110435 0.026802754
000020 27 6b 51 3d 93 27 eb bd 19 35 ae 3c f0 1a 3e 3d
       0.05112758 -0.114821576 0.021265553 0.04641241
000030 0f c2 f8 3c a3 73 73 3d 10 e7 bb bd bf 95 ac 3b
       0.030365972 0.05943645 -0.09174931 0.0052668746
000040 61 5d cf bd b7 9c 9c bd 92 3b 5c 3d e0 8f bc bd
       -0.101252325 -0.076470785 0.05376775 -0.092071295
000050 36 99 cf 3d 70 ef a2 bd b1 cd df 3d 9d 18 25 bd
       0.101366445 -0.07955825 0.109279044 -0.040306676
000060 c5 7f f1 bc 36 6c c5 bd 1c 2c 6a 3d cc 29 82 bd
       -0.02947987 -0.0963978 0.057170972 -0.06355628
000070 17 db 1d bd ac 8c 85 bd cb 25 1c 3d 0b b7 3d 3d
       -0.03853902 -0.06520972 0.03812198 0.04631714
000080 bc f0 ba 3d d9 77 75 3d ba f4 93 3d b1 e5 3a 3d
       0.09127948 0.05992875 0.07224412 0.045629207
000090 72 41 e8 3d f8 4f 89 bd 88 92 5b bc 73 c9 8f 3d
       0.11340608 -0.06704706 -0.013401635 0.07020845
0000a0 bb 4f db bd cc c5 da bc dc bb c4 bc 56 93 74 3c
       -0.10708567 -0.026705645 -0.02401536 0.014927706
0000b0 38 f0 b8 bd 59 b2 94 3c 82 af d8 bc 51 6b cb 3d
       -0.09030193 0.018151449 -0.026450876 0.09932578
0000c0 10 12 76 bc 8c d6 c2 bc 7f d8 b9 3c 0f b9 8d 3c
       -0.015018955 -0.023783945 0.022686241 0.017300157
0000d0 6b 7b 94 3d 4e c3 af bd 0b d5 49 bd e2 ec bc 3c
       0.072501026 -0.08582173 -0.04927544 0.023062173
0000e0 ba 8d ec bd b3 4f 01 3d 04 e9 c7 3d 49 71 26 3d
       -0.1155047 0.031570148 0.09761241 0.04063538
0000f0 ea 17 ac 3d 30 b3 8f 3d f4 f7 95 bd 00 34 60 3d
       0.08402999 0.07016599 -0.07322684 0.05473709
000100 eb be 01 3d 6b 59 da 3d 85 15 df 3d 8b a3 97 bd
       0.031676214 0.106615864 0.108927764 -0.0740424
000110 0a 75 62 bd 21 ed a6 ba 82 96 b3 bd 69 fa 86 3c
       -0.0552874 -0.0012735465 -0.087689415 0.016476827
000120 8f 27 97 bd 5a 72 e4 3d 36 1c ad 3d c0 fd c6 3c
       -0.07380592 0.11154623 0.084526464 0.02429092
000130 92 f8 67 3c 51 5a d7 bd a6 0d cd 3d 52 f9 12 3d
       0.014158385 -0.10515273 0.10012369 0.0358823
000140 ce 47 7c bd f0 df de bd 41 c6 c5 3d ce 4b b8 3d
       -0.061591916 -0.108825564 0.096569546 0.089988336
000150 9d ba df 3c 82 e1 b0 bd 24 06 b2 3d 5e 7a 0e bd
       0.027310664 -0.08636762 0.086925775 -0.034784667
000160 9a 6c d0 bb ef ed e3 3d ae 86 fe bb 8c e3 a6 bd
       -0.0063606026 0.111293666 -0.00776752 -0.0814887
000170 df f2 b2 3d fd 9a cb 3c 1f d8 13 3d a1 3d af bd
       0.0873773 0.024854178 0.03609478 -0.08556677
000180 8e 35 bb bd 87 27 a9 bd 00 7d 9e bd 8e 15 ad bd
       -0.09141074 -0.08259492 -0.077386856 -0.08451377
000190 ff b9 f1 ba e6 82 4f bd 81 28 8f 3d c6 fc 11 bd
       -0.0018442272 -0.050661944 0.069901474 -0.035641454
0001a0 a6 06 c2 3d e7 b2 e7 3d ca 3f ab 3d ae 1c 70 bd
       0.09473924 0.1131342 0.08361776 -0.0586211
0001b0 7c f1 c1 3d 60 34 fb bb e6 6a 54 bc f3 4e 99 3d
       0.094698876 -0.0076661557 -0.01296494 0.074857615
0001c0 35 a6 9a bd 38 0c 95 3d 11 25 43 3d 90 a6 6b bd
       -0.07551233 0.07277721 0.04764277 -0.057531893
0001d0 ad c3 ad bd ca 57 02 bd e1 fb e2 bd 56 3a a0 bd
       -0.08484588 -0.031822003 -0.11083198 -0.07823627
0001e0 67 31 88 3d da be bb 3d e4 81 a1 3d 2e 14 2c bb
       0.06650048 0.091672614 0.07886103 -0.0026257145
0001f0 49 97 88 3d 3c 11 a0 3d ff 2d 73 3d 03 e8 93 3c
       0.0666948 0.07815787 0.059370037 0.018054968
000200 28 6e ac 3d b5 68 86 3d f4 d8 cf 3c f2 b2 a5 3d
       0.08419448 0.0656294 0.025372006 0.08090772
000210 d8 55 99 bc d1 f8 bf bc ff c2 66 bd 9e a6 5c bd
       -0.018717691 -0.023434075 -0.056338307 -0.053869836
000220 14 5d 05 3c c5 3a ac 3d 73 c0 d8 bc d2 a4 e4 3d
       0.008139867 0.08409647 -0.026458954 0.111642495
000230 a8 38 6f bd f3 c3 44 3d e6 18 c9 bb c9 9a 86 3c
       -0.05840364 0.048038434 -0.0061370013 0.01643123
000240 69 03 89 3d d4 08 7f bb e1 b3 b0 3d 63 94 54 3b
       0.066901036 -0.0038915174 0.08628059 0.0032437078
000250 50 0b 05 bd ba c5 f2 bc 7c c2 0b 3c 0a bc e4 3b
       -0.03248149 -0.029635299 0.008530255 0.006980424
000260 a5 ab b6 bc d7 74 9d 3d 5d de c1 3c ac 53 0d 3d
       -0.022298643 0.07688301 0.023665601 0.034503624
000270 c9 25 e1 3d b4 5d 19 3d ad 45 02 3d 9c c6 98 3d
       0.10993535 0.037442878 0.03180473 0.07459757
000280 89 df e2 bc 05 d1 53 3d f5 35 86 3d 00 f6 8a bd
       -0.02769448 0.05171301 0.0655326 -0.06785202
000290 63 3d 7c 3d 04 db e1 bd d2 8f 86 bd 6b 81 ce bd
       0.06158198 -0.11028102 -0.065704 -0.10083278
0002a0 2e 4f b8 3d fe ad 4b bd f7 72 50 bd bf 12 83 3d
       0.08999477 -0.04972648 -0.05089089 0.0640006
0002b0 57 7b 77 3d 8e a5 d9 3b 0d 4c a5 3c 5a b9 79 bd
       0.06042036 0.00664205 0.020177865 -0.06096778
0002c0 a9 05 e4 bc 41 50 4d bd 7f 6e 89 bd fb 6d 9f 3d
       -0.02783473 -0.050125364 -0.067105286 0.07784649
0002d0 7a 2e b5 3d e8 78 d0 bd be b8 93 3d e9 a3 bf 3d
       0.08846755 -0.10179311 0.07212971 0.09357435
0002e0 b7 66 cb bd 03 60 6e bd a3 a7 78 bb 22 52 63 3d
       -0.09931701 -0.058197033 -0.0037941716 0.05549825
0002f0 9a f2 58 bd 95 a0 dc bd d2 e9 49 3d 9f 19 2e 3d
       -0.052965738 -0.10772816 0.049295254 0.042504903
000300 dd 98 8e 3d bd 0b 84 bd 0e 1f e1 3d e6 b0 68 3d
       0.0696275 -0.064475514 0.10992251 0.05680933
000310 00 ef bb 3d c1 c2 28 3d 30 37 15 3d f8 93 da bc
       0.09176445 0.041201357 0.036429584 -0.026681885
000320 ab 84 9e 3d e1 80 51 3d ac a9 b0 bd e6 6e 26 bc
       0.07740148 0.0511483 -0.08626112 -0.010158276
000330 8b 69 97 3d e3 a2 12 3d e9 96 de bd 90 2a 60 bc
       0.073931776 0.035799872 -0.108686276 -0.013682023
000340 d0 38 14 bd e9 37 a3 3d d8 52 4c 3d c7 a8 e0 3d
       -0.036186993 0.079696484 0.049883693 0.10969692
000350 41 b6 86 3d 99 62 df bc 9f 07 b4 3d 7b d4 bc bc
       0.06577731 -0.027268695 0.08790516 -0.023050537
000360 5f fb d4 bd 35 97 ad 3c 8f fc e2 bd 9a 0c 36 3d
       -0.10399508 0.021190265 -0.11083328 0.04444561
000370 45 e0 0d 3c 42 cb c0 bc ae e0 58 bd 0e a2 a1 3d
       0.008659427 -0.02353442 -0.052948646 0.078922376
000380 26 09 93 bd a0 82 b4 bc 04 eb eb bc 21 2c 56 3d
       -0.07179479 -0.022034943 -0.028798588 0.05228818
000390 df 02 7a 3d c1 2f a6 bc 6a 62 c1 3b 79 63 80 bd
       0.061037894 -0.020286443 0.0059016244 -0.06268973
0003a0 ff 99 98 bb d2 23 57 3d b0 af 11 bd d0 76 ee 3d
       -0.0046570296 0.052524395 -0.03556794 0.116437554
0003b0 6e f4 26 bd e2 b8 b6 3d 19 ed ee 3d fc e1 ea 3d
       -0.04076045 0.08921982 0.116663165 0.11468884
0003c0 51 7a 33 3c 73 98 d4 3d 4a fe 48 bd 1d 0b d4 bd
       0.0109544555 0.1038064 -0.049070634 -0.10353682
0003d0 81 98 0f 3d de 5a 2f 3d 91 53 e7 3d 6e cb 73 bc
       0.03505755 0.042811267 0.11295236 -0.014880044
0003e0 d8 a7 b4 bc 94 d8 34 3d 3f 8a d7 3d b5 f7 58 3d
       -0.02205269 0.044151857 0.10524415 0.052970607
0003f0 96 c7 cc 3d 67 42 d4 bd b8 53 db 3d f4 d3 92 3d
       0.099990055 -0.10364228 0.107093275 0.07169333

fc1.bias f4 [256]
000000 24 f0 1f bd 6a b0 ba 3d 10 d4 ac bd 4f 3d 76 bd
       -0.039047375 0.091156796 -0.08438885 -0.060117062
000010 74 8d c4 3c 33 53 28 bd 61 a6 2e bd 6c d0 af 3d
       0.023993231 -0.04109497 -0.04263914 0.08584675
000020 0f 36 8b bd cf ed 2a 3d 88 8d 17 bd 62 b1 c1 bd
       -0.0679742 0.0417307 -0.03700021 -0.09457661
000030 6f 44 ee bd 28 2c 92 3d df ed 8f 3c b8 00 8d bc
       -0.116341464 0.071373284 0.01756948 -0.017212257
000040 7c 9a 2c 3d 53 85 6a bd e9 29 08 3d 52 74 4b bd
       0.042139515 -0.057256054 0.033243094 -0.04967148
000050 20 d3 ec 3d 0a 0e 1b bc f1 ed b6 3d af 5b 65 3d
       0.115637064 -0.009463796 0.089321025 0.05599564
000060 08 e2 5c bc 32 13 8d 3d 5e 80 ab 3d 60 5b 9d bd
       -0.013481624 0.06888427 0.083740935 -0.07683444
000070 c2 11 29 3d 70 2b af bc 73 5f 95 3d cb 84 b7 bd
       0.0412767 -0.021383017 0.07293596 -0.08960875
000080 45 46 38 3d e4 3a 8f 3d 9f 29 5b bd 70 4e a9 3d
       0.04498889 0.06993654 -0.05350649 0.08266914
000090 e4 5a 2c 3d cc 6a bb 3b 8d bb 9c bc 76 66 e2 bd
       0.042078868 0.0057195183 -0.0191324 -0.11054699
0000a0 af 51 87 bd df ff 84 bd eb eb 3c 3d 69 46 6d bd
       -0.06607377 -0.06494116 0.046123426 -0.057928476
0000b0 bd 68 d0 bd 4f 7c b2 3d 52 4c a2 bb 80 6d c5 bd
       -0.10176227 0.08715116 -0.0049529457 -0.09640026
0000c0 a8 22 43 3d eb b9 90 bd 10 2a 97 bd 04 f8 4f 3d
       0.047640473 -0.07066711 -0.0738107 0.050773636
0000d0 5f 8b a4 bc 95 f7 89 bd 90 99 14 3d c1 e0 a4 3d
       -0.020085989 -0.06736676 0.03627926 0.08050681
0000e0 22 b2 00 bd 7c ab 71 bb 0d f2 c3 bd 81 7e df bd
       -0.03141988 -0.0036875894 -0.09567652 -0.109128006
0000f0 b5 97 b9 bd 24 02 4e 3d b9 08 47 3d dc e4 97 bd
       -0.09062139 0.05029501 0.048592303 -0.07416698
000100 e7 c3 e0 bd 6c 5b cf 3d 38 da 5b 3d 6a fb bb bd
       -0.109748654 0.10124859 0.053674906 -0.09178813
000110 db 19 ba bd 0d 75 cf 3d 4e 33 b1 bc 7d 2b ce bd
       -0.09086963 0.101297475 -0.02163091 -0.100668885
000120 4e b8 bc bc 4f ca 1e bd ea fa c5 3b 73 90 8b 3c
       -0.023037102 -0.038767155 0.006041874 0.017036652
000130 27 89 75 bd bb 52 11 3d 6e ee e5 bd 80 d4 8f 3d
       -0.05994525 0.03547929 -0.112271175 0.07022953
000140 47 54 c0 bd 9d bc 9b 3d e2 fc 9b 3d d3 be 1d bd
       -0.09391075 0.076043345 0.07616593 -0.038512062
000150 a4 3c b9 3d f7 3f 37 bb 1b 39 83 bd e2 b5 06 bc
       0.090447694 -0.002796171 -0.064073764 -0.008222075
000160 3b 93 c0 3d cc cb 42 bd 86 9d bf bc 0b a3 93 bd
       0.09403082 -0.047557637 -0.023390543 -0.07208832
000170 a4 a6 57 bd 14 8f fd 3c 8a 2a 2a 3c f9 74 1d bd
       -0.052649155 0.030952014 0.010386119 -0.038441632
000180 88 e2 d7 3d ec 95 5f 3c fb 31 ae 3d dd e7 c5 bd
       0.10541254 0.013646584 0.08505627 -0.09663365
000190 5f f3 a3 bd 8b f1 52 bd 78 93 0f 3d 34 a2 20 3d
       -0.08005404 -0.051499885 0.035052747 0.03921719
0001a0 95 c6 13 bd 04 a6 ab 3d 58 8c dc bd fb f8 0c 3d
       -0.036078054 0.08381274 -0.10768956 0.034417134
0001b0 c9 9d 74 bd 28 82 ee bd 11 aa 86 3d 99 f3 68 3d
       -0.05972079 -0.11645919 0.06575406 0.056872938
0001c0 79 e4 33 3c 56 56 b5 bd be 8c 39 3c e9 52 c4 3d
       0.010979765 -0.08854358 0.011325059 0.09586126
0001d0 78 03 c8 3d e2 b2 c4 bd 1b ee d6 bd 43 b9 8a 3d
       0.097662866 -0.09604432 -0.10494634 0.06773617
0001e0 eb 8e b6 bd 7b d4 8e bd 00 32 a7 3d a6 77 d0 bd
       -0.08913978 -0.06974121 0.081638336 -0.10179071
0001f0 74 de ed bd a4 2d 88 3c ad da c0 bd c7 f4 61 3c
       -0.11614695 0.016623326 -0.09416709 0.01379127
000200 f4 b4 23 bd 2d 95 a4 3b 25 db 7c 3d 27 bc a7 bd
       -0.039967492 0.005022666 0.06173243 -0.08190184
000210 7f f1 98 3d 0a 0a a9 3d 2d 60 a8 bd 50 9e c4 3d
       0.07467937 0.08253868 -0.08221469 0.09600508
000220 0f f2 0c bd 6c c2 1f bd fc ce 6c bc 7e 06 cb bd
       -0.034410533 -0.039003775 -0.014453646 -0.09913348
000230 8c c8 83 3d 69 68 9d 3d 2e 52 8c 3c 6b 75 10 3d
       0.06434736 0.0768593 0.01712903 0.03526823
000240 58 15 51 3d c5 89 d6 3d 16 50 c9 bd de 85 d5 3d
       0.051045746 0.10475496 -0.09829728 0.10425924
000250 bb f9 dd bd ad 43 7e 3c 91 f6 aa 3d 3e 9a 22 3d
       -0.10838648 0.015519065 0.0834781 0.039697878
000260 3a d8 5e 3d e8 f2 2e bd f8 bd 7d bd a9 a3 76 bc
       0.05440543 -0.042712122 -0.061948746 -0.015053668
000270 26 b3 a7 3d cd 9d 06 bd 47 d2 28 bd ed 9e 8e bc
       0.08188467 -0.032865334 -0.04121616 -0.017409766
000280 09 33 83 3c 60 34 e7 3d ac 0c e5 3d 9e c6 97 bb
       0.016015546 0.112892866 0.111840576 -0.0046318313
000290 a0 c6 5f bd d4 52 b4 3d 82 c8 ea 3d 8d e3 13 3d
       -0.054632783 0.08804861 0.11464025 0.03610568
0002a0 84 85 05 bc f7 ba de bc e2 c7 67 bd 6c 27 8e 3d
       -0.008149508 -0.027188761 -0.056587107 0.06941113
0002b0 d4 92 59 3d a4 bb d1 bd 4b 9d 8f 3d 36 9b b0 bc
       0.05311854 -0.10240868 0.07012423 -0.021558385
0002c0 16 d0 b0 3c a9 af 99 bd aa 2e 12 3d 58 9b d9 bc
       0.021583598 -0.07504208 0.035689034 -0.026563331
0002d0 32 f4 1d 3d 76 f2 9e bd b0 5a dc bd 3f d8 a0 3b
       0.03856296 -0.077610895 -0.10759485 0.004908591
0002e0 40 72 b3 3d 13 2a 49 3d 02 4d 3b 3c b9 c2 2b 3b
       0.08762026 0.04911239 0.011431934 0.0026208593
0002f0 8d 45 98 3c c6 d6 84 bc bb 59 71 bd 34 e1 2f bd
       0.018587852 -0.016215693 -0.058923464 -0.04293938
000300 ef 20 26 bd de 35 ce bd 02 0c 3b 3d 4a ea a3 3d
       -0.04055875 -0.10068868 0.04566575 0.080036715
000310 f6 3b de 3d 31 90 b5 bd 48 9a c5 3d f9 60 57 bd
       0.108512804 -0.08865393 0.096485674 -0.052582715
000320 55 30 aa bd d3 85 8c bd a2 1f a6 3d 6f 44 09 bd
       -0.0831 -0.068614624 0.08111502 -0.03351253
000330 df 7b a0 bd 87 86 69 3d 70 52 d2 3b 34 e7 e0 3c
       -0.078361265 0.05701306 0.0064185187 0.027453996
000340 70 e4 b2 3d 1d 70 16 bd 06 07 b0 3d 0c b9 bd bd
       0.08734977 -0.036728013 0.085950896 -0.092638105
000350 67 af bf 3c 30 1d b0 3d 6f 1e c7 3c 13 5f 02 3d
       0.023399068 0.08599317 0.024306504 0.03182895
000360 64 d8 74 3c 47 07 c2 3d 2b b9 a7 bd 1b c7 98 bd
       0.01494417 0.09474044 -0.08189615 -0.07459851
000370 aa f3 7b bd e0 93 c8 bd df 73 0f 3d f5 83 13 bd
       -0.061511673 -0.0979383 0.035022613 -0.036014516
000380 40 d8 1f 3d d4 ef df bd 39 47 9d bd 07 ae 37 bd
       0.03902459 -0.109344155 -0.076796 -0.0448437
000390 3d ea 32 bd a8 bf 59 bc 1f 54 8c bd 98 86 a2 bd
       -0.04368042 -0.013290323 -0.06851982 -0.07935828
0003a0 16 b7 ae 3d 52 df 14 bd bc 73 80 bd cb ae ee bc
       0.085310146 -0.036345787 -0.062720746 -0.029136082
0003b0 ae 8c 6c 3c 6b af d8 bc 70 fd ca bd d2 e3 86 b8
       0.0144378375 -0.026450833 -0.099116206 -6.432053e-05
0003c0 11 03 de 3d 58 bd cd bd 48 bb bb 3d 85 dd e0 ba
       0.108404286 -0.1004588 0.091665804 -0.0017155862
0003d0 91 0b 89 3d d3 05 2e 3d f7 65 77 3d c6 4b b1 3d
       0.06691659 0.042486023 0.060399976 0.08657031
0003e0 95 1c bf bd 77 b2 12 3d 1d 08 12 3d f9 f6 e5 bd
       -0.093316235 0.03581473 0.03565227 -0.11228747
0003f0 55 72 88 3d bb 2f d1 bd 47 67 d0 bd 0a d3 a8 3d
       0.06662432 -0.10214182 -0.101759486 0.082433775

fc2.weight f4 [256, 256]
000000 96 00 64 bd 7c 0d 6c 3d c8 8f 87 3c 86 44 7e bd
       -0.05566462 0.057630047 0.016548052 -0.062077068
000010 00 c0 45 ba d8 1d 01 3c 50 2a f7 3c 18 14 eb bc
       -0.0007543564 0.00788065 0.030171543 -0.028696105
000020 38 05 12 bc d8 8b ac bc 16 3b 3d bd 80 e9 65 3c
       -0.008912377 -0.021062776 -0.046198927 0.0140327215
000030 6c e5 9f bc f6 7c 61 bd 00 8a 24 3b 00 d9 fe ba
       -0.019518577 -0.055050813 0.0025106668 -0.0019443333
000040 a0 65 a8 3b 58 6f 6c bc 7e 6e 11 bd f0 b2 fa 3b
       0.005139068 -0.014430843 -0.035505764 0.0076507255
000050 00 09 14 3a 76 b9 20 bd 58 7d 41 bc 8e 93 07 3d
       0.0005647093 -0.03923937 -0.011809669 0.033099703
000060 08 94 e0 bc 40 05 6e bd 84 a3 62 3d d8 99 46 bc
       -0.027414337 -0.058110476 0.055331722 -0.01212164
000070 94 07 d1 bc b0 1c 6c 3d 24 d2 70 bd d8 a4 4b bc
       -0.025516309 0.057644546 -0.058794156 -0.0124294385
000080 36 bc 02 bd 50 cc cc bb 62 a5 46 3d 34 0c 98 bc
       -0.031917773 -0.006249942 0.048497565 -0.018560506
000090 08 ff 3d bd 48 48 45 3c 64 17 2a bd 1e a9 0e bd
       -0.046385795 0.012041159 -0.041526213 -0.03482925
0000a0 80 14 68 bd 64 45 b7 bc 90 96 65 bd 1e 72 67 bd
       -0.056660175 -0.022371955 -0.05605179 -0.056505315
0000b0 60 6f ef 3b de 15 72 3d f4 cf db 3c 28 08 72 3c
       0.007306978 0.059102885 0.026832558 0.014772452
0000c0 ce 51 56 bd 4c c2 32 bd 7c 9f 6e 3d d2 9c 4d bd
       -0.05232411 -0.043642327 0.058257565 -0.050198384
0000d0 40 98 34 3d 00 f3 9a bc 36 ce 24 bd fc 8a e8 bc
       0.04409051 -0.0189147 -0.04023572 -0.028386585
0000e0 34 5c 59 bd b4 c4 ca bc 40 6b f7 3c c8 66 41 bd
       -0.053066447 -0.024751998 0.030202508 -0.04721716
0000f0 d0 d4 34 3d 58 fb 70 bc 08 7a 32 bd 10 5d 95 bc
       0.044148266 -0.0147083625 -0.04357341 -0.018232852
000100 ec 0e 01 bd a4 ec df bc 2c 13 7a 3d 60 c3 24 bc
       -0.03150837 -0.027334519 0.06105344 -0.010056347
000110 84 70 66 bd f0 77 53 3d fc 0e 46 bd b0 2d b5 bc
       -0.056259647 0.051628053 -0.048354134 -0.022116512
000120 10 a4 66 bd e0 ca b4 bb 64 96 fa 3c f8 98 29 bc
       -0.056308806 -0.0055173486 0.03058929 -0.010351412
000130 0c 77 da bc c2 db 27 bd 30 75 eb bb fa 6f 6a 3d
       -0.026668094 -0.04098106 -0.0071856007 0.057235695
000140 f0 11 1b 3d f2 ce 0a 3d 8e ae 6c 3d d0 4b 5a bd
       0.037858903 0.033888765 0.057783656 -0.053294957
000150 f6 f2 72 bd e4 f2 fa 3c 78 1b d0 3c 6c b1 2d bd
       -0.059313737 0.030633397 0.025403723 -0.04240553
000160 7c d7 f6 3c 82 ae 67 3d 80 65 e8 3c 80 43 6e bd
       0.030132048 0.056562908 0.028368711 -0.05816984
000170 18 63 28 bc 80 c0 6d 3d 44 9f cb 3c c0 c2 bd bb
       -0.010277532 0.05804491 0.024856217 -0.0057910383
000180 20 a8 7d 3d f8 f4 00 3c 60 39 5e 3d d4 6a 7a bd
       0.061927915 0.007870905 0.054253936 -0.061137035
000190 f0 9a 14 bd 6e 15 5d 3d 70 ae 3c 3d 00 77 d3 39
       -0.036280572 0.053975515 0.046064794 0.00040333718
0001a0 64 5e a3 bc 70 a4 8a bb 14 fa e5 bc be bc 6d bd
       -0.01994247 -0.0042310283 -0.028073348 -0.058041327
0001b0 60 14 a7 bc dc 26 48 3d 8e f7 41 3d 0e 59 5f 3d
       -0.020395458 0.048865184 0.047355227 0.05452829
0001c0 40 6b a3 3a 2c d3 23 bd 28 5c d6 3c da 33 05 bd
       0.0012467876 -0.03999631 0.02616699 -0.032520153
0001d0 40 f0 ce ba 9c ff fb 3c 68 82 60 bc 0e f6 08 bd
       -0.0015788153 0.030761532 -0.013702966 -0.03343778
0001e0 00 9f 68 3c 60 9f 51 bd 72 58 42 3d 14 d3 c0 bc
       0.014198065 -0.051177382 0.04744763 -0.02353815
0001f0 f8 09 fd 3c 66 fa 18 bd 18 c2 74 bc 18 12 12 bc
       0.030888543 -0.037348174 -0.014938854 -0.008915447
000200 6a 65 5f 3d ea ff 4b bd 6a c9 6d 3d ee cb 18 3d
       0.054540075 -0.049804606 0.05805341 0.037303858
000210 10 08 ae 3c b4 a4 4f 3d 68 1f 48 3d 20 83 5f bc
       0.021244079 0.050694183 0.048858076 -0.0136421025
000220 ae 83 37 bd e0 ba 97 bc da 8f 78 3d c4 86 b2 bc
       -0.044803314 -0.018521726 0.060684063 -0.021792777
000230 e4 0d 4c bd b0 96 98 3b 94 0e 70 3d 7c b4 5d bd
       -0.049817935 0.004656635 0.058607653 -0.0541272
000240 80 7c 38 3b 40 91 b7 3b be af 32 3d 00 15 92 3c
       0.002815038 0.005602032 0.043624632 0.01783228
000250 52 df 67 bd 12 d7 62 3d ec 75 df 3c 10 76 94 3c
       -0.05660946 0.05538089 0.02727791 0.018122703
000260 8a 86 7d 3d 30 97 4a bc 38 28 03 3c c0 98 4d bc
       0.061895885 -0.0123651475 0.008005194 -0.0125486255
000270 20 25 9d 3b be bc 3d 3d dc fe 41 bd 82 54 11 3d
       0.0047956854 0.046322577 -0.047362193 0.035480984
000280 58 6a 57 bc f0 62 05 3d da 58 00 bd ac e5 bb 3c
       -0.013147913 0.032565057 -0.031334735 0.022936665
000290 c0 a4 b5 bc 62 6f 54 bd 40 b8 4e 3c 40 df dc 3c
       -0.022173285 -0.051864035 0.012617171 0.026961923
0002a0 60 54 0d bc 60 b6 c6 bb a0 35 d1 bc cc 98 f4 bc
       -0.008626074 -0.0060642213 -0.025538266 -0.029858015
0002b0 58 04 ba 3c 52 09 35 3d 26 83 36 3d a8 6c f3 3c
       0.02270715 0.04419834 0.044558667 0.029714897
0002c0 20 c6 f6 3c 62 c4 24 bd 68 33 03 3d 80 d8 03 bd
       0.03012377 -0.040226348 0.032031447 -0.032188892
0002d0 48 97 3d bd 84 64 eb 3c 34 0a 93 bc ae 2e 57 3d
       -0.04628685 0.028734453 -0.017949201 0.05253475
0002e0 88 c9 b9 bc 72 4c 19 3d 96 e9 6e 3d cc 9c c8 3c
       -0.022679105 0.03742642 0.058328234 0.02448883
0002f0 fc 46 91 3c 28 13 68 3d 4c 57 d8 bc a4 f8 62 bd
       0.017734043 0.056658894 -0.026408814 -0.055412903
000300 68 eb 07 3d 90 36 fc 3b 18 09 13 bc 80 a3 2c 3a
       0.033183485 0.007696934 -0.008974336 0.00065856427
000310 04 af 9a bc 50 e6 d7 bb 74 92 5a 3d 50 7f ed 3c
       -0.018882282 -0.0065887347 0.053362325 0.028991371
000320 00 f1 1e 3d 88 32 e1 bc 00 b3 5a bd 54 93 cd 3c
       0.038804054 -0.027489915 -0.053393364 0.025094666
000330 68 c2 7b 3c 12 8e 1a bd f4 51 9d bc 38 ec 2b bc
       0.015366174 -0.037733145 -0.019204117 -0.010493331
000340 c0 c3 11 3d 16 e8 25 3d 18 50 94 bc 58 15 50 3c
       0.035587072 0.040504538 -0.018104598 0.012700401
000350 64 39 30 bd 02 bd 1c bd 60 ec 92 bb 50 a6 6f bd
       -0.043023482 -0.03826619 -0.0044837445 -0.058508217
000360 2c 02 be 3c 4a a3 1f bd ee bf 13 bd 90 82 cc bc
       0.023194395 -0.038974084 -0.03607171 -0.0249646
000370 d4 2f c3 3c 40 6c 9f 3c 54 84 00 3d de 73 2c 3d
       0.023826517 0.019460797 0.031376198 0.042102687
000380 fa 82 4d 3d b2 8e 46 bd d0 01 5a bd 90 8c 17 bd
       0.050173737 -0.04847593 -0.053224385 -0.036999285
000390 a0 2e 1d 3d ee f5 23 bd b0 c8 69 3d 38 be f7 bc
       0.038374543 -0.04002946 0.057076156 -0.03024207
0003a0 6c 72 44 bd b0 3f 38 3d 06 c7 55 bd be 66 19 3d
       -0.047960684 0.044982612 -0.052191757 0.0374515
0003b0 60 64 bc 3c ba d9 2c 3d 4a 3d 7e 3d e4 66 94 3c
       0.022997081 0.042199828 0.06207017 0.018115468
0003c0 18 0d c5 bc 4a e6 79 3d ec f0 75 3d 26 dc 23 3d
       -0.024054095 0.061010636 0.060044214 0.04000487
0003d0 72 4d 33 3d 10 fd dd 3b 58 67 dc 3c 58 9e 79 3c
       0.04377503 0.006774552 0.026904747 0.015235506
0003e0 92 9d 0c 3d 60 25 df bb 96 41 4a 3d c0 64 42 bc
       0.03432996 -0.0068098754 0.049378954 -0.011864841
0003f0 8c f2 38 3d a0 e1 29 3b 00 c8 4f bb 40 f9 e0 ba
       0.045153186 0.0025921836 -0.0031704903 -0.0017164126

fc2.bias f4 [256]
000000 dc 66 01 3d 20 d8 6b 3c d0 c0 3e 3d 00 d5 6b bc
       0.031592235 0.01439479 0.0465706 -0.014394045
000010 80 31 89 3a 40 8d 3a 3b b8 8a 07 3c 5e 5f 0f 3d
       0.0010467023 0.002846554 0.008272819 0.03500306
000020 36 71 01 3d 54 00 ba 3c a0 86 ed bb b8 1c 86 bc
       0.031602107 0.022705235 -0.0072487146 -0.016371116
000030 c0 17 2c 3d 8a fd 6b 3d 5c 77 f7 3c 00 ef 8a bc
       0.042014837 0.05761484 0.030208282 -0.016959667
000040 86 eb 46 bd 60 ba b2 bc c0 a2 a6 3b 14 a8 e3 bc
       -0.048564456 -0.021817386 0.0050853193 -0.027790107
000050 3c 43 47 3d dc 41 18 3d 00 f8 b1 3c 28 21 f7 bc
       0.048648104 0.037172183 0.0217247 -0.030167177
000060 00 95 40 3d c8 79 0e bd b8 5b 29 bc 38 74 c2 bc
       0.047017097 -0.03478411 -0.010336809 -0.023737058
000070 2e 26 27 bd f8 60 40 bc f4 13 e3 bc c0 19 65 3b
       -0.040807895 -0.011741869 -0.027719475 0.0034957975
000080 06 1f 29 3d dc 9b 2f 3d 58 83 7d 3c 8c 59 e4 3c
       0.041289352 0.04287325 0.015473209 0.02787473
000090 90 d5 24 bd 22 1a 5f 3d 5c 13 06 bd 38 d7 4a bc
       -0.04024273 0.05446828 -0.032733306 -0.012380414
0000a0 00 a4 be 3c 2a 0e 05 3d ac e5 e8 3c 10 ac f4 bb
       0.02327156 0.03248421 0.028429829 -0.0074668005
0000b0 ac 90 15 3d c0 17 6a bd a0 50 33 bb fc f1 75 bd
       0.036514923 -0.057151556 -0.0027361289 -0.060045227
0000c0 9c d1 00 bd f4 82 e4 bc 74 8a 4b bd 14 1e 56 3d
       -0.0314499 -0.027894475 -0.049692586 0.05227478
0000d0 e0 62 91 bc e8 73 fc bc a8 31 89 bc 48 82 14 3c
       -0.017747343 -0.030816987 -0.01674731 0.009064265
0000e0 60 b8 16 bd c0 47 7f 3c f0 3e 55 bc 90 97 13 3c
       -0.036796927 0.015581071 -0.013015494 0.009008303
0000f0 e8 02 3d 3d da b5 3b bd 5e 64 52 3d f2 25 0f bd
       0.04614535 -0.045827724 0.05136525 -0.034948297
000100 ec a4 30 bd a6 9d 37 3d 80 93 7b bc 50 78 8f bc
       -0.04312603 0.04482808 -0.015354991 -0.017513424
000110 06 37 27 3d 70 e7 15 bc 90 36 66 3d b4 6e 59 bd
       0.04082396 -0.009149417 0.05620438 -0.05308409
000120 ae 32 44 3d 94 89 bd 3c a6 01 7c bd d8 e2 0c bc
       0.047899894 0.023136891 -0.06152501 -0.008599006
000130 2c dc 36 3d 00 ad 21 bc 10 d5 46 3c 3c 79 f0 3c
       0.044643566 -0.009867907 0.012135759 0.029354684
000140 d0 9f b0 3c 70 55 3a 3d 32 63 17 bd d0 60 4d 3d
       0.02156058 0.045491636 -0.036959834 0.050141156
000150 08 af 62 bd d8 a0 2d bd c8 5f 93 bc f6 12 0a 3d
       -0.055342704 -0.04238972 -0.017990008 0.03370949
000160 40 6c 1d bb 4c 5a eb bc 9e 31 20 bd 68 76 13 3d
       -0.002402082 -0.02872958 -0.03910982 0.036001593
000170 32 a1 0b bd 38 87 41 bc 54 4e 21 3d 28 15 37 3d
       -0.034089275 -0.011812024 0.03938134 0.04469791
000180 f0 dc c6 3b a4 50 cc 3c 10 b8 cb bc c0 cb 5c bc
       0.0060688183 0.024940796 -0.024868041 -0.013476312
000190 00 92 d4 3b 58 46 e3 bc 04 74 06 3d 46 99 6a bd
       0.006487131 -0.027743503 0.032825485 -0.05727508
0001a0 8c a0 be bc 20 80 37 bc f4 e6 8d bc e0 76 bf bb
       -0.023269914 -0.011199981 -0.017322041 -0.0058430284
0001b0 18 92 0a bd d8 f3 0c 3c 20 46 fa 3b 20 00 0e bd
       -0.033830732 0.008603059 0.007637754 -0.034668088
0001c0 c8 6e b4 3c 5e 3d 73 bd a0 0b ff bb 4e f8 13 3d
       0.02202548 -0.059384696 -0.007783368 0.036125474
0001d0 80 29 65 3c f0 c6 c4 3b 90 ad 51 bd f8 9a 7e 3c
       0.013986945 0.0060051605 -0.051190913 0.015539877
0001e0 ec 70 ee bc ac fc 30 3d a0 b7 87 bb 4c 24 13 bd
       -0.02910658 0.043209717 -0.004141763 -0.035923287
0001f0 28 36 8d 3c b0 72 31 3c 18 08 4f bd f0 78 68 3c
       0.017237738 0.010830566 -0.05054483 0.01418899
000200 50 77 75 3c bc 20 63 bd a4 ab 99 3c 8c 73 cb bc
       0.01498206 -0.05545114 0.018758602 -0.02483537
000210 00 2a ee bc 38 22 39 bd 18 13 c4 3c 52 02 7e bd
       -0.029072762 -0.04519865 0.023934886 -0.06201393
000220 28 c8 2d 3c 1e 7a 15 3d b2 01 69 bd e0 55 8f bb
       0.010606803 0.036493413 -0.056886382 -0.004374251
000230 18 d6 0b 3d 10 21 72 bc 70 3a c0 bb f8 76 67 bc
       0.034139723 -0.0147783905 -0.0058663413 -0.014127485
000240 10 a9 87 bb 5c d3 25 3d 40 84 03 bc 94 29 9d bc
       -0.004140027 0.04048477 -0.008027136 -0.019184865
000250 50 c6 d7 3b 86 50 09 bd 68 37 ce 3c 90 41 56 bc
       0.00658492 -0.03352406 0.025172904 -0.013077155
000260 34 e1 77 bd 2c f9 3d bd a0 34 51 bb 1c ef e0 3c
       -0.060517505 -0.046380207 -0.0031922236 0.027457766
000270 88 19 40 bd fa 64 77 bd 8c 3b 94 bc f0 f8 0b bd
       -0.04689935 -0.060399033 -0.0180948 -0.034172952
000280 54 e4 50 bd cc fa 5f bd 80 e3 25 bc 34 16 04 3d
       -0.050999 -0.054682538 -0.010125041 0.032247737
000290 fe 8c 35 3d 70 2b a0 3b 6a ad 33 bd b4 98 b2 bc
       0.044323914 0.0048879907 -0.043866552 -0.02180133
0002a0 7c ea cc 3c b4 b7 98 bc a4 6e 2d bd a2 b5 1c bd
       0.025014155 -0.018642284 -0.042341843 -0.038259156
0002b0 a4 c6 35 bd 24 a8 8e bc 44 50 46 bd 7a 5d 1c 3d
       -0.04437889 -0.01741416 -0.04841639 0.038175084
0002c0 da 7f 1a 3d 02 1e 14 bd d4 ca 36 3d aa bc 1c 3d
       0.037719585 -0.03616143 0.044627026 0.03826586
0002d0 f8 72 6a 3c b0 af 09 bd cc f9 fa bc 58 c5 6b bd
       0.014309637 -0.033614814 -0.03063669 -0.05756125
0002e0 10 3e 65 3c 84 c0 f9 bc 80 ad c9 bb 60 6d 5e 3c
       0.013991848 -0.030487306 -0.006154716 0.013575882
0002f0 20 88 4d bd 70 b1 a7 bc e2 41 64 3d e6 ec 62 bd
       -0.050178647 -0.020470351 0.055726893 -0.055401705
000300 60 9b 75 bb f6 5c 72 3d a8 f7 30 bc 2e 76 5a 3d
       -0.0037476644 0.059170686 -0.010801233 0.05333536
000310 46 e9 1a 3d c8 a0 29 bc dc 6c 14 3d 00 36 e0 3c
       0.037820123 -0.010353275 0.03623663 0.0273695
000320 40 99 1f 3d d8 eb dd 3c 04 43 76 bd d8 44 16 bd
       0.03896451 0.027089998 -0.060122505 -0.03668675
000330 f0 dc da bb 34 58 60 3d 60 8b 0b 3b 7c 33 d8 3c
       -0.00667917 0.054771617 0.002129279 0.026391737
000340 10 2b 35 bd 20 2b 95 3c b4 02 ca bc a0 05 5d bb
       -0.04423052 0.01820904 -0.024659492 -0.0033725277
000350 90 68 55 bd ce 1b 29 bd fa 85 1a 3d 80 bc 65 bc
       -0.05210167 -0.041286282 0.037725426 -0.014021993
000360 90 c1 cf bc 90 39 8c 3c 40 b3 6c 3c 24 b0 77 bd
       -0.025360852 0.017117292 0.014447033 -0.060470715
000370 8e ae 67 bd 9c eb 0d bd 9c 6d 6c bd f0 e1 0c bc
       -0.056562953 -0.034648523 -0.05772172 -0.00859879
000380 dc 38 94 bc 20 91 89 3c 34 c4 3d 3d 7c e5 39 bd
       -0.018093519 0.016792834 0.046329692 -0.04538487
000390 a2 16 42 bd c8 be 2e 3c 90 3a a9 bc c8 5d 35 bd
       -0.047384866 0.010665603 -0.020657808 -0.04427889
0003a0 2a ed 7f bd 30 49 f1 bc ee 89 1f bd 80 0c 2b ba
       -0.062482037 -0.029453844 -0.0389499 -0.0006524995
0003b0 94 60 4f 3d d4 4f 4a 3d a4 6b ad bc bc 42 f3 3c
       0.050629213 0.049392536 -0.021169491 0.029694907
0003c0 20 cd 21 bd 2c f7 a9 3c 74 df 07 3d d2 e4 6c 3d
       -0.039502263 0.020747744 0.033172086 0.057835408
0003d0 a0 65 18 3d fe 3e 5b bd 1c 66 17 3d 82 ec 5f bd
       0.037206292 -0.05352687 0.036962613 -0.05466891
0003e0 8a b1 64 bd b4 50 37 bd 2c b5 7c 3d 70 4a b2 3c
       -0.055833377 -0.0447547 0.061696216 0.02176401
0003f0 c0 25 d8 3c d0 f7 16 bc 9c 91 b1 bc 70 51 f2 3b
       0.026385188 -0.009214357 -0.021675877 0.007394962

fc3.weight f4 [256, 256]
000000 28 23 6e 3c 3c 5a 4f bd a0 5d 38 bd d4 0c f1 3c
       0.014534749 -0.050623164 -0.045011163 0.029425062
000010 54 81 b8 bc a6 85 31 bd 98 91 4e bd f0 21 67 bc
       -0.022522606 -0.043340348 -0.050431818 -0.014107212
000020 42 f0 69 bd a0 98 35 3d 3e 5e 39 3d c0 89 81 ba
       -0.057113893 0.044335008 0.045255892 -0.0009882972
000030 48 5d 8b bc 6e 22 7e 3d bc 59 e8 3c 64 fb 24 3d
       -0.017012253 0.062044553 0.028363101 0.040278807
000040 c0 31 09 3d 84 65 a2 3c fc 98 41 3d 08 f4 9d 3c
       0.03349471 0.019823797 0.047265038 0.019281402
000050 0a 37 1a 3d 90 9b c9 3b bc a0 45 3d 0c fe ec bc
       0.037650146 0.0061525777 0.04824899 -0.028929733
000060 60 44 43 bd 36 e7 44 bd 18 f0 69 bc 70 b6 e5 3b
       -0.04767263 -0.048072062 -0.014278434 0.0070102736
000070 e0 58 26 3c a8 ed 51 bd f0 dc 65 bc b6 79 3e 3d
       0.010153025 -0.051252037 -0.014029726 0.04650279
000080 f8 86 4c bd ae 57 49 bd 00 aa a9 3a 58 7b da 3c
       -0.049933404 -0.049155883 0.0012944341 0.026670143
000090 ac 47 04 3d 7c 3c 71 bd ac b5 a3 bc 72 bc 77 bd
       0.032294914 -0.058895573 -0.019984089 -0.06048245
0000a0 8c 92 f3 3c 02 b4 4a 3d f0 36 6a bc d8 c2 97 bc
       0.029732965 0.049488075 -0.014295325 -0.018525526
0000b0 50 26 55 bd d6 62 6e bd 70 e2 99 bb 82 b5 5a bd
       -0.05203849 -0.058199726 -0.004696183 -0.053395756
0000c0 68 ee 08 bd 68 74 86 bc e4 ff 6b bd e2 d6 4b bd
       -0.033430487 -0.016412929 -0.057617083 -0.049765475
0000d0 c0 60 4d bc 00 aa d9 3b 6e 0b 4f 3d e2 25 4b 3d
       -0.012535274 0.00664258 0.05054801 0.049596675
0000e0 60 8f 41 3b 88 28 9e 3c 0c 29 c2 3c ea bb 4e 3d
       0.002953492 0.019306436 0.023701213 0.050472178
0000f0 ec 6f fe bc f2 e1 56 bd b8 aa 3e 3d a8 cd ce bc
       -0.031059228 -0.052461572 0.04654953 -0.025244549
000100 80 2c 8a 3a 8a ba 56 3d 3c f2 79 bd 20 30 3a 3b
       0.0010541826 0.05242399 -0.06102203 0.0028410032
000110 64 e5 a8 3c 16 6b 09 3d 50 ab 53 3d a0 ce e0 3b
       0.020617194 0.03354939 0.05167705 0.006860569
000120 40 2b d0 3b 72 1b 13 3d f8 90 c7 3c 4a 24 03 3d
       0.006352812 0.035914846 0.024361119 0.03201703
000130 1c 1e 10 3d 6c d9 27 3d 10 7b 77 bd 70 c7 90 bb
       0.035184965 0.040978834 -0.060420096 -0.004418306
000140 0a 81 3b 3d 98 5d f1 3c 50 bf a2 bb 18 bb 1e 3c
       0.045777358 0.029463574 -0.004966654 0.009688161
000150 00 5d 88 39 00 63 72 bd 96 f9 3a 3d 96 9f 1c 3d
       0.00026009232 -0.059176445 0.04564818 0.03823813
000160 42 01 3e 3d 1e 52 4c bd 4a 47 5a bd 30 94 72 bc
       0.04638792 -0.049883 -0.053290643 -0.0148058385
000170 b8 ec 77 bc f4 3d dc bc 90 85 ae 3b fe 3d 05 3d
       -0.015132122 -0.02688501 0.0053259805 0.032529823
000180 28 79 51 3c 50 3a e6 bb 28 31 0a 3c 8a 69 2d bd
       0.012785234 -0.0070259944 0.008434571 -0.042336978
000190 60 13 1f bc b0 0b dc 3b c0 70 ab 3c 8a cd 29 bd
       -0.009709209 0.0067152604 0.020927787 -0.041455783
0001a0 60 70 47 3d 0e 35 2f 3d c6 32 2d 3d 6c 61 c1 3c
       0.048691154 0.042775206 0.04228475 0.023606025
0001b0 1e 16 6d 3d 28 4c 44 3d 1e 2e 4b bd 8c ff 4a 3d
       0.05788242 0.04792419 -0.049604528 0.049560115
0001c0 98 73 54 3c 80 37 6f ba d4 87 60 bd 86 79 3e 3d
       0.012967013 -0.00091253966 -0.054817036 0.046502613
0001d0 58 d6 5a 3d f0 d0 05 bc 08 81 21 bd 8c 8f b2 bc
       0.05342707 -0.00816749 -0.039429694 -0.021796964
0001e0 0c 1b eb 3c 7c f0 e7 bc 54 da 4f 3d 88 99 db 3c
       0.02869942 -0.028312914 0.050745323 0.026806608
0001f0 5c fe 64 3d 0c 6e f0 3c e0 7c e3 3c 88 c8 3c bc
       0.05590664 0.02934935 0.027769506 -0.01152242
000200 1c 2d e4 3c 4a 4a 1b 3d a4 9e 58 bd 50 9e 42 3d
       0.027853541 0.037912644 -0.052885666 0.04751426
000210 34 8d 82 3c 64 44 6a 3d 70 89 6e bd cc 50 57 3d
       0.015936472 0.05719413 -0.05823654 0.05256729
000220 68 b1 11 3d 80 33 34 bb 62 93 5f bd 10 50 e5 3b
       0.03556958 -0.0027496517 -0.054583915 0.0069980696
000230 b0 64 93 bc ec 84 57 bd c0 02 52 3c 80 ad df 3b
       -0.017992347 -0.052617 0.012818038 0.0068261027
000240 a0 44 5c 3b 8c e0 31 bd 40 a7 7c 3b 28 d6 69 bc
       0.003361024 -0.043427035 0.0038551837 -0.01427225
000250 6a d6 20 3d b0 4b 8e 3b 8c 01 c0 3c ae 4e 29 3d
       0.03926698 0.0043425187 0.023438238 0.0413348
000260 20 7b 80 bc 50 9a ba 3b 76 e5 19 3d 40 68 8d 3a
       -0.01568371 0.005694665 0.037572347 0.0010788515
000270 0c 78 e4 3c 20 45 00 3d 3e a0 35 bd fc b3 fb bc
       0.027889274 0.031315923 -0.044342272 -0.030725472
000280 fe 38 07 bd 1c e7 ce bc 16 30 48 bd b0 d0 e9 3c
       -0.033013336 -0.025256686 -0.048873983 0.028541893
000290 10 8f 3e bc d6 e0 59 3d 70 f8 96 bc 8e ed 28 bd
       -0.011630788 0.053192936 -0.018429011 -0.041242175
0002a0 3c 76 73 bd b0 86 d3 3b 80 bc 3d bb b6 58 2b 3d
       -0.05943893 0.006455265 -0.0028951466 0.04183265
0002b0 e0 54 a1 bb 84 d1 05 bd 20 12 e0 3c 20 68 5d 3d
       -0.004923448 -0.032670513 0.027352393 0.05405438
0002c0 ec b2 24 bd 68 c2 b8 bc dc e1 fc 3c c4 dd e0 3c
       -0.040209696 -0.022553638 0.030869417 0.027449496
0002d0 64 e1 82 bc be 06 55 3d 78 41 cb 3c 08 27 bd 3c
       -0.015976615 0.052008383 0.024811491 0.0230899
0002e0 52 21 61 3d f6 de 30 3d f2 a6 70 3d de 64 62 bd
       0.054963417 0.043181382 0.05875296 -0.055271976
0002f0 38 1c cc 3c 40 d7 d7 3c 00 b3 23 3d c0 5e b0 3b
       0.0249158 0.026347756 0.03996563 0.005382389
000300 a0 ed be 3b 40 63 a6 bb c4 d0 38 bd fc 10 e7 3c
       0.005826667 -0.0050777495 -0.04512097 0.028206341
000310 cc 49 65 bd e0 3d 72 3b 10 11 2d 3d 10 c2 3d bc
       -0.05597858 0.003696315 0.0422526 -0.011581913
000320 74 21 dc bc 82 e7 74 3d 22 90 1a bd e0 e5 42 3d
       -0.02687142 0.059791096 -0.037735112 0.047582507
000330 86 52 69 3d c4 f9 bd 3c 58 22 eb 3c e4 25 ad 3c
       0.056963466 0.023190387 0.0287029 0.021136232
000340 e4 ec 6c 3d 30 3d 38 3c 00 19 da 3b 0c 96 03 3d
       0.057843104 0.011245057 0.0066558123 0.032125518
000350 22 8b 73 3d b6 30 7b bd 80 31 90 3c c6 81 02 3d
       0.05945886 -0.06132575 0.017601728 0.031862043
000360 e0 c9 47 3d ce 13 6d 3d 98 42 c5 bc f0 e9 8b bb
       0.048776507 0.057880215 -0.024079606 -0.004269831
000370 70 a2 70 3d 66 cf 3c bd c0 82 20 3c 60 a4 66 3b
       0.058748662 -0.046096228 0.009796798 0.003519319
000380 e8 13 ba 3c 78 1c d0 3c 8e 7a 71 bd e8 bc a8 3c
       0.02271457 0.0254042 -0.058954768 0.02059789
000390 38 f4 3f bd 38 71 f3 3c 4c e4 92 bc dc 21 ac 3c
       -0.046863765 0.029717073 -0.017931126 0.02101224
0003a0 20 a5 40 bd e0 2c 31 3d 16 a0 0d bd 1c a9 5a bd
       -0.047032475 0.043255687 -0.034576498 -0.05338393
0003b0 a8 07 65 bc f8 d0 5f 3d 02 54 1a bd 04 b1 e8 3c
       -0.013978876 0.054642648 -0.037677772 0.02840472
0003c0 50 2c 88 3c e2 64 28 bd b0 ff a7 3b 1c 8b b1 3c
       0.016622692 -0.041111834 0.005126916 0.021672778
0003d0 02 08 1d 3d 78 83 01 bd 84 6e 11 bd 66 a3 36 3d
       0.038337715 -0.03161952 -0.035505787 0.044589423
0003e0 1c b5 bb 3c 70 2f 0d 3d 80 54 2b bb 42 79 5a 3d
       0.022913508 0.034469068 -0.0026142895 0.053338297
0003f0 56 5a 64 3d 4c a2 5b bd 80 58 7f ba 20 58 97 3b
       0.055750214 -0.053621575 -0.00097406656 0.0046186596

fc3.bias f4 [256]
000000 00 96 d6 ba 60 5a 5a 3c 00 01 93 3c 70 c1 34 3d
       -0.0016371608 0.013327211 0.017944813 0.04412979
000010 28 26 62 bd 10 84 d7 bc 00 4a 9c 3c 00 c7 b0 bb
       -0.05521217 -0.02630809 0.019078255 -0.0053948164
000020 c0 ff 9e 3b aa a3 0f 3d 4c be 06 bd 04 a6 05 bd
       0.004852265 0.03506819 -0.032896325 -0.032629028
000030 b8 8f 19 bc b6 c8 7e bd d4 da d1 bc a0 42 04 3c
       -0.009372644 -0.06220313 -0.02561704 0.008072525
000040 d0 2f da 3b c0 f4 47 bd 00 ee 98 3c 64 5e 56 3d
       0.0066585317 -0.048817396 0.018668175 0.05233611
000050 86 3a 72 3d e4 43 7a bd 4a ac 71 bd 00 ad f7 39
       0.059137844 -0.0610999 -0.0590022 0.00047240406
000060 8c 0c 33 bd 0c 94 8a 3c 60 21 1f bd f4 88 c2 3c
       -0.043713138 0.016916297 -0.03885019 0.023746945
000070 d8 13 c1 3c 48 66 12 bd 30 69 bd 3b aa fd 31 3d
       0.023569033 -0.035742074 0.0057803616 0.043454804
000080 ea df 51 3d 34 6d 96 3c 5c 01 96 bc f6 39 13 bd
       0.05123893 0.018362619 -0.018311195 -0.035943948
000090 4e 32 13 3d b2 ee 34 3d 5c 37 e3 bc 8c 96 9a bc
       0.035936646 0.04417295 -0.027736358 -0.018870614
0000a0 10 5d f7 bb 10 3b 05 bd a8 9a 5f bc 78 02 79 bd
       -0.0075489357 -0.03252703 -0.013647713 -0.06079337
0000b0 80 6f 4d bd 8c 19 95 3c 38 f0 95 3c 96 05 3b 3d
       -0.050155163 0.018200658 0.018303022 0.045659624
0000c0 70 0b 43 bd 08 2e fe bc 60 9e a1 3b a6 46 46 3d
       -0.04761833 -0.031027809 0.00493221 0.04840722
0000d0 be b6 5b 3d 44 e4 85 3c c8 8b e1 3c 64 3d 73 3d
       0.053641073 0.016344197 0.027532473 0.05938472
0000e0 76 37 4b bd fa 79 21 bd 8a 29 58 3d 94 9e 16 bd
       -0.04961344 -0.039422967 0.05277399 -0.036772326
0000f0 d0 a1 f7 3c 78 4a 05 3c 84 e0 6d bd dc 02 5f bd
       0.030228525 0.0081354305 -0.058075443 -0.054446086
000100 7c c6 71 3d 7c e0 4f bd dc 10 cc bc d8 ab 6f bc
       0.05902718 -0.050751194 -0.024910383 -0.014628373
000110 18 63 56 3c 8c 11 b3 bc 7c 40 b7 bc 5c 36 e1 bc
       0.013085149 -0.021858953 -0.022369616 -0.02749174
000120 d8 01 50 3d a2 d8 48 3d 38 81 99 bc 24 18 a3 bc
       0.05078301 0.049034722 -0.018738374 -0.019908972
000130 28 a6 27 bd 2c 43 b6 bc 84 2c 54 bd f6 00 56 bd
       -0.040929943 -0.022248827 -0.051800266 -0.05224701
000140 88 7d 7d bd ec 8f ee bc fc 4f d2 3c ae 21 7f bd
       -0.061887294 -0.029121362 0.025672905 -0.06228798
000150 16 fb 48 bd 6a d4 2f bd f4 18 05 3d ac b7 b4 3c
       -0.04906758 -0.042927183 0.0324945 0.022060238
000160 4c 2f 87 bc de d4 3d 3d 80 c5 76 3c 5a 21 48 bd
       -0.016502045 0.046345584 0.015061736 -0.04885993
000170 60 ab 61 3d 2c ed db 3c d8 eb 41 3c 0a de 0a bd
       0.055095077 0.02684649 0.011836015 -0.03390316
000180 24 45 d2 3c 38 22 7d bc 24 10 bf bc 04 3f 34 bd
       0.025667734 -0.015450053 -0.023323126 -0.04400541
000190 8c be 82 bc 72 75 64 bd 5e 0a 7a 3d 3c 4d 5f 3d
       -0.01596 -0.055776067 0.061045043 0.054517016
0001a0 20 38 ec bb 70 bf e2 3b c0 09 60 bc 40 7c 68 3c
       -0.007208839 0.006919794 -0.0136742 0.01418978
0001b0 82 d7 27 bd 48 3e 88 3c 94 4b fe bc bc 08 d0 bc
       -0.04097701 0.01663126 -0.031041898 -0.02539479
0001c0 9a 24 70 3d 20 5a 38 3d 88 23 5d bc f0 46 28 bc
       0.058628656 0.045007825 -0.013497241 -0.010270819
0001d0 90 8e ff bc 62 86 11 bd 40 11 b3 bb 5c 92 0c 3d
       -0.031195909 -0.035528548 -0.005464703 0.034319267
0001e0 9e ee 64 3d c0 ba d7 3c 04 62 bb 3c 7e 43 4a bd
       0.055891626 0.026334167 0.022873886 -0.04938077
0001f0 20 21 af 3c ec 94 38 bd 68 75 59 bc 62 cb 23 bd
       0.0213781 -0.045063898 -0.013272621 -0.039988883
000200 ca 70 5f bd 24 90 b2 bc fe 5e 51 3d 20 23 69 3c
       -0.054550923 -0.021797247 0.051115982 0.014229566
000210 b8 a2 bc bc d2 5a 6b bd c0 60 3f bd ec 28 5b 3d
       -0.02302681 -0.05745966 -0.046723127 0.053505823
000220 70 b2 d8 bb 0c 40 f1 bc 3e a5 5e bd 70 e9 84 bb
       -0.0066130683 -0.029449485 -0.054356806 -0.004056148
000230 70 96 7c 3d 8e 7d 01 3d 4e 96 35 bd 80 fa 68 3b
       0.061666906 0.03161388 -0.044332795 0.00355497
000240 b6 f0 2c bd 6c e4 87 3c 18 a0 be 3c ac cc 00 bd
       -0.042221747 0.016588412 0.023269698 -0.03144519
000250 a0 25 48 3b f0 f4 df 3b 68 cd 18 bc 88 3a b8 bc
       0.0030540004 0.0068346187 -0.009326316 -0.022488847
000260 dc 65 4a bd 12 0c 6d 3d ae a9 13 3d f2 92 7a 3d
       -0.049413547 0.05787284 0.03605049 0.061175294
000270 24 a2 c8 bc 52 12 27 bd 3e 8e 16 bd d8 bb cd 3c
       -0.024491377 -0.040788956 -0.036756746 0.025113985
000280 c0 af 89 3c 90 c7 da 3b ee eb 61 3d 96 d0 57 bd
       0.016807437 0.0066766217 0.05515664 -0.052689157
000290 f8 76 23 bc a0 6a 09 bc 64 c2 d8 bc ca 9c 5e bd
       -0.009977095 -0.008387238 -0.02645988 -0.054348744
0002a0 78 c7 31 bd 24 33 66 bd 1c d2 48 3d e8 46 72 bd
       -0.04340312 -0.056201115 0.0490285 -0.059149653
0002b0 bc 41 69 bd c8 d4 57 bd 08 c2 17 bc 0a 75 0f bd
       -0.056947455 -0.05269316 -0.009262569 -0.035023727
0002c0 50 a8 53 bd 3a ce 5e bd e0 d1 70 3c d4 38 e0 3c
       -0.051674187 -0.05439589 0.014698476 0.027370848
0002d0 52 60 70 3d 28 03 7b 3c 34 04 b9 bc 44 19 92 bc
       0.05868561 0.015320577 -0.022585012 -0.017834313
0002e0 c6 2e 55 bd c8 db 1b bc 10 61 3c 3c e8 6d 50 bd
       -0.05204656 -0.009512849 0.011497751 -0.050886065
0002f0 70 c2 26 3d ac 7d 04 3d b8 63 72 bc 28 38 7e 3c
       0.040712774 0.032346413 -0.014794283 0.015516318
000300 a8 84 62 bd 20 00 43 bd 30 09 6e 3d 70 c4 a3 3b
       -0.055302292 -0.04760754 0.05811423 0.0049977824
000310 ce 5e 5f bd d2 19 26 3d 20 d5 84 bb fa a7 09 bd
       -0.054533772 0.040551968 -0.004053727 -0.03360746
000320 e8 49 d8 3c 30 ba e5 bc 5a a7 64 bd 3c df f9 bc
       0.026402429 -0.028042883 -0.05582366 -0.030501954
000330 a0 44 84 bb 3a f4 74 3d 68 b5 31 3c 50 e5 bc bc
       -0.004036501 0.059803225 0.010846473 -0.023058563
000340 62 2c 5f 3d 38 49 51 bc 96 7f 1c 3d 36 8f 3c bd
       0.054485686 -0.012773804 0.038207613 -0.046035014
000350 60 e1 32 bc 50 a0 4c bc 8e 00 01 bd 5a be 5b bd
       -0.010917991 -0.012489393 -0.03149467 -0.05364833
000360 3c bb 4e bd 28 c2 c7 3c 38 70 d5 3c c8 c1 4e 3d
       -0.05047153 0.024384573 0.026054487 0.050477773
000370 10 8f b6 bc 58 bf 78 3c 8c 4d 27 3d 40 61 9d 3a
       -0.022285014 0.015182339 0.04084544 0.0012007132
000380 be 6e 69 bd 40 88 b2 ba e8 82 cb 3c 18 d4 15 bc
       -0.056990378 -0.0013620928 0.024842694 -0.009144805
000390 f8 37 4f bc 80 70 0a 3b d2 47 0b bd 98 30 e0 bc
       -0.012647621 0.0021124184 -0.03400404 -0.027366921
0003a0 bc b8 59 3d d4 50 05 bd 5a 70 6d bd e0 a9 09 3b
       0.053154692 -0.032547787 -0.057968475 0.0021005794
0003b0 78 5e 58 3c 30 fa 24 3c 08 12 c5 bc 74 59 d9 3c
       0.013206117 0.010069415 -0.02405645 0.026531912
0003c0 ec 75 74 bd 54 79 e2 bc c8 5e 9b bc d0 03 96 bc
       -0.05968277 -0.027645744 -0.018966094 -0.018312365
0003d0 94 88 a7 3c 80 fe 5d 3a 34 e1 14 3d 76 7e 3a 3d
       0.020450868 0.00084684044 0.036347583 0.04553076
0003e0 dc 01 f1 3c cc 99 23 bd d8 64 97 bc 70 ff ea 3b
       0.029419832 -0.039941594 -0.018480703 0.007171564
0003f0 70 17 a9 bc 00 0a a5 3b 4e c3 04 3d 3c 7d 6a bd
       -0.020641059 0.0050365925 0.03241282 -0.05724834

output.weight f4 [4, 256]
000000 b8 70 03 3c 10 07 bc bc e2 44 33 bd 66 e9 38 bd
       0.00802248 -0.022952586 -0.043766864 -0.04514446
000010 dc a9 ab bc f8 f0 a4 bc d8 ab 25 3c e0 c9 77 3d
       -0.020955019 -0.020134434 0.0101117715 0.060495257
000020 2c 77 69 bd e4 d3 54 bd 28 18 35 bc 0c f1 9b bc
       -0.056998417 -0.051959887 -0.011053123 -0.019035839
000030 8c 1e 94 bc 08 9a 2c bd 10 47 41 bc 80 85 15 3c
       -0.018080972 -0.042139083 -0.011796728 0.009126067
000040 60 3d 93 3b 24 84 d0 3c cc 91 67 3d 64 9d e0 bc
       0.0044934005 0.025453635 0.056535527 -0.0274188
000050 cc ab 1c bd 90 94 88 bc a0 ae f5 3c c0 1d 6e 3c
       -0.038249776 -0.016672403 0.029990494 0.01453346
000060 00 64 e5 b9 cc 0d 0a bd 50 fe 77 bd 30 d4 3e 3c
       -0.0004375279 -0.033704564 -0.060545266 0.011647269
000070 80 7a 4c 3b 1a 00 03 bd 82 43 02 3d f8 94 5c bc
       0.0031200945 -0.03198252 0.03180266 -0.013463251
000080 b0 ee 88 3c 86 ad 7f bd 96 e2 77 bd 7c b8 10 3d
       0.016715378 -0.062421344 -0.060518824 0.035332188
000090 74 f2 9b 3c 54 9c ae 3c 10 28 ea bc f8 17 c3 bc
       0.01903651 0.021314777 -0.028583556 -0.02381514
0000a0 b8 50 09 3c 24 9b d7 bc be bf 29 3d 50 1c 96 bc
       0.008381061 -0.026319094 0.041442625 -0.018324047
0000b0 5a 3b 07 bd c4 9c 16 3d e0 03 0c 3d 88 79 9a bc
       -0.033015586 0.036770597 0.034183383 -0.018856779
0000c0 d8 48 7f 3c b0 0f 2d 3c 54 bc 5a 3d a0 60 11 bc
       0.015581332 0.010562822 0.05340226 -0.008873135
0000d0 20 e9 33 3b 84 f0 9a bc 28 32 74 bc a8 a1 c4 3c
       0.0027452186 -0.018913515 -0.014904536 0.024002865
0000e0 0c 8e 39 3d 58 a4 44 bc 78 c4 bd 3c 1a fa 4d 3d
       0.045301482 -0.012002073 0.023164973 0.050287344
0000f0 fe f8 18 bd 6a 4e 5a bd 10 4e d4 3b 88 ef 72 bd
       -0.037346832 -0.053297438 0.0064790323 -0.059310466
000100 00 5d 86 ba 08 71 19 3c 1c 71 18 bd d8 be 22 bc
       -0.0010251105 0.009365328 -0.037217245 -0.009933196
000110 b0 c9 b3 bc 70 26 37 3d bc 57 89 bc 04 de eb bc
       -0.021946758 0.04471439 -0.016765468 -0.028792389
000120 40 df 54 bd b0 5c e0 bc 0c 6c 9a 3c 18 83 44 bd
       -0.05197072 -0.027387947 0.018850349 -0.047976583
000130 30 13 3a 3d 60 41 b3 3b 3c 72 5c bd c8 33 41 3c
       0.045428455 0.00547044 -0.05381988 0.011792131
000140 24 07 eb 3c fc 16 98 3c 90 11 eb 3c 74 8e 5c 3d
       0.028689928 0.018565647 0.028694898 0.05384679
000150 68 82 cf 3c 22 95 59 3d c2 77 20 bd c8 ec 41 bc
       0.025330737 0.05312074 -0.03917671 -0.011836238
000160 fc 46 67 3d 28 e8 ff bc 8c 77 9e 3c d4 48 91 bc
       0.05646418 -0.03123863 0.019344114 -0.017734922
000170 c2 c9 41 3d 40 fc 57 bc b8 f8 f6 3c 8e b3 69 bd
       0.047311552 -0.0131827 0.030147895 -0.057056002
000180 ec cf 47 bd cc 86 59 3d 40 38 3b 3c dc 2f 2c 3d
       -0.048782274 0.053107068 0.011426985 0.04203783
000190 28 b5 58 bd c8 79 98 bc 7a 8a 06 3d 9c 49 0b 3d
       -0.05290714 -0.018612757 0.032846905 0.034005746
0001a0 d6 80 2b bd 68 e6 6b bc a0 9b 71 3b ca 01 1f bd
       -0.041870914 -0.014398195 0.0036866441 -0.038820066
0001b0 e4 1a 46 3d 58 64 6a 3c 86 60 36 bd a0 39 92 3b
       0.04836549 0.01430615 -0.044525646 0.004462436
0001c0 f8 db 5c 3d b0 08 fc 3c 7c 58 21 3d 06 71 6e 3d
       0.053920716 0.030765861 0.039391026 0.058213256
0001d0 96 4d 07 bd 5c 05 2d bd a0 10 4c 3b c6 e2 3e bd
       -0.033032976 -0.04224144 0.003113784 -0.046602987
0001e0 12 08 5d bd 7c a7 06 3d d2 66 52 3d 04 5f d4 3c
       -0.053962775 0.03287457 0.05136759 0.025924213
0001f0 f0 fc 58 bd ec 6f 6d 3d b8 9e 20 3c 18 2b 8e bc
       -0.052975595 0.057968065 0.0098034665 -0.017354533
000200 f6 8e 2d bd 10 aa 80 bb ca 17 31 bd 58 32 a6 3c
       -0.042372666 -0.003926523 -0.043235578 0.020287678
000210 6c 5b 02 bd 28 9b 05 3c 50 e3 ab bc 84 c2 cd 3c
       -0.031825468 0.008154668 -0.020982414 0.025117166
000220 98 35 15 3d c8 b3 3c bd 7a 9b 30 bd f0 f0 ab bb
       0.036428064 -0.04606989 -0.043117024 -0.005247228
000230 04 41 ff bc 60 2e 16 3b 24 e2 fd bc a0 ab 48 bd
       -0.031158932 0.0022915825 -0.030991621 -0.0489918
000240 86 cf 0c bd e6 75 48 bd 68 32 fb 3c 5a 7c 12 bd
       -0.034377597 -0.04894056 0.030663684 -0.035763122
000250 68 2b 7b 3c 96 4d 73 3d b4 79 e9 3c 3e 05 67 3d
       0.015330173 0.059400164 0.028500415 0.056401484
000260 e8 c9 16 bd 24 b7 95 3c c8 04 0a bd 60 d7 e8 bb
       -0.036813647 0.018275805 -0.033695966 -0.007105753
000270 7c 29 be 3c 7c 92 50 bd c0 8a 97 3b e0 83 15 bd
       0.02321314 -0.05092095 0.0046246946 -0.03650272
000280 be f0 4e 3d 84 dd 02 bd 00 33 8a ba b2 91 14 3d
       0.05052256 -0.031949535 -0.0010543764 0.03627176
000290 60 d7 bd bb 3c 22 f6 3c aa 35 60 3d 46 5e 4b bd
       -0.005793497 0.030045621 0.054738678 -0.049650453
0002a0 a6 b5 7e 3d 12 a8 41 bd 1e 70 0c 3d 5c d6 af 3c
       0.062184952 -0.047279425 0.03428661 0.02146452
0002b0 c8 e3 58 3c 28 d0 45 3c 88 22 c3 3c 54 1e ea 3c
       0.013237901 0.012073554 0.023820177 0.028578915
0002c0 5c cf 03 3d 82 39 34 3d f6 f4 7f bd 10 37 f9 bc
       0.032180175 0.044000156 -0.062489472 -0.030421764
0002d0 3a 1d 66 3d d0 6b 9a bc 02 3f 5c bd c0 f5 5b 3b
       0.056180216 -0.018850237 -0.053771026 0.0033563226
0002e0 a4 ba d3 bc 48 6b 06 3c d4 a3 75 3d 30 d3 bb 3c
       -0.025845833 0.008204289 0.05997069 0.02292785
0002f0 c0 f9 b8 bb 40 80 bf 3b b8 f8 05 3d 5e 8f 71 3d
       -0.005645007 0.005844146 0.0327079 0.058974616
000300 fc 89 6e 3d bc 70 3d 3d 40 2a 03 bc 80 7d 4e 3d
       0.05823706 0.04625009 -0.008005679 0.050412655
000310 00 ce e0 3c 10 94 2f 3c 4c 50 51 3d 60 ab 85 3b
       0.027441978 0.010716453 0.051101968 0.0040792674
000320 ec 20 34 3d 7e 48 51 bd 9a 7c 5f bd c4 a3 15 3d
       0.04397671 -0.051094525 -0.05456219 0.036533132
000330 18 3f 69 3d b0 fe d7 3b 70 69 29 bd 94 6b 33 3d
       0.056944937 0.0065916404 -0.04136032 0.043803766
000340 a0 5f 61 bd 60 e9 9c 3c d2 ca 7c bd 94 24 fc 3c
       -0.055022836 0.01915425 -0.061716862 0.03077916
000350 a0 d8 ee 3b 90 cc 94 bc 20 66 bd 3b 80 43 31 3a
       0.0072890073 -0.01816395 0.0057799965 0.00067620724
000360 b4 0c 40 bd 10 ec b8 3b aa ab 2b bd 4e 49 38 bd
       -0.046887115 0.005643375 -0.04191176 -0.044991784
000370 6e e2 2a 3d ca 37 2e 3d 08 4e 09 3c 06 50 04 3d
       0.041719846 0.042533673 0.0083804205 0.03230288
000380 e0 19 e2 3b c0 d7 aa 3a a2 d8 47 3d 6c cc db bc
       0.006900057 0.0013034269 0.04879058 -0.026830874
000390 d0 81 7f bd fc 65 42 3d 38 c3 a6 3c 46 af 28 3d
       -0.06237966 0.04746054 0.02035676 0.04118278
0003a0 3e d0 11 3d 5e f6 15 bd 80 b1 f5 3a 80 5b 76 ba
       0.035598986 -0.036611907 0.0018744916 -0.000939779
0003b0 3a f2 0e bd 28 3a 23 bd 8c ca 5a bd ba 53 6b bd
       -0.034898974 -0.039850384 -0.05341582 -0.057452895
0003c0 40 52 1a bb 78 f6 5e 3d 1a b2 1c 3d 70 87 90 3b
       -0.002354756 0.05443427 0.03825579 0.0044106767
0003d0 20 8a be 3b 48 66 a1 3c 96 a7 11 bd 30 98 9f 3b
       0.0058148056 0.019702092 -0.035560213 0.004870437
0003e0 70 32 fd 3b 32 3b 5f bd 62 0a 4f 3d 5e 66 71 3d
       0.00772696 -0.054499812 0.05054701 0.058935516
0003f0 e8 ae c7 bc d4 ea e9 3c 74 71 e0 bc be 0e 45 3d
       -0.024375394 0.028554358 -0.027397849 0.048109762

output.bias f4 [4]
000000 9c 7b e5 3c c0 4d ac bc 40 fb 19 bc 42 f7 25 3d
       0.028013043 -0.021033168 -0.009398282 0.040519007
