fetch_sticky_mittens_step_4_blocks/networks/ours_10k_block_4_uber_level_0_seed_200/network_release_and_lift_1.pth (torch, 610295 bytes, 8 tensors)

fc1.weight f4 [256, 73]
0	0xbdb6aa3a	-0.08919187
1	0xbd6b69b4	-0.057473853
2	0x3dd8b00a	0.10580452
3	0x3d43d6ae	0.047812156
4	0x3d59ca74	0.05317159
5	0x3dccdfb4	0.100036055
6	0x3d11a1ca	0.035554685
7	0xbbc15f42	-0.005901248
8	0xbc3f6828	-0.011682548
9	0x3d91abdb	0.07112857
10	0x3d9e16f9	0.077192254
11	0x3dd8c4f0	0.10584438
12	0x3dcfbfb6	0.10143988
13	0xbd048897	-0.032356825
14	0x3db833db	0.08994266
15	0xbd5176f9	-0.05113885
16	0x3d6d17ba	0.057883956
17	0xbd1ed5b4	-0.038778022
18	0xbd0a229f	-0.033724423
19	0xbcaee9de	-0.021351751
20	0xbd1b4772	-0.037909932
21	0x3debd43f	0.11515092
22	0xbd06ba2f	-0.032892402
23	0x3d8eb212	0.06967558
24	0x3dacb54a	0.08433016
25	0x3dce483a	0.1007237
26	0xbd130cb1	-0.035900775
27	0xbcd21f16	-0.025649589
28	0x3d18afc7	0.03727701
29	0x3c4cd64c	0.012502264
30	0x3b043147	0.0020170973
31	0x3dd4b3a0	0.10385823
32	0x3cfff09a	0.031242657
33	0x3de7c03f	0.11315965
34	0xbddf480f	-0.10902416
35	0x3dc74606	0.09730153
36	0x3de996de	0.11405729
37	0x3dc2dda5	0.095149316
38	0x3dcfec10	0.10152447
39	0x3aa94f25	0.0012917264
40	0xbb8faedf	-0.00438486
41	0x3ddce8ae	0.10786568
42	0x3de95ca2	0.113946214
43	0xbd86b929	-0.06578285
44	0x3dbfa079	0.093567796
45	0xbc3569fc	-0.011072632
46	0xbdef25d5	-0.11677138
47	0xbcb4f893	-0.022091186
48	0x3d9074aa	0.07053502
49	0xbdeedffb	-0.11663815
50	0x3d1b7437	0.037952628
51	0xbdc68ad6	-0.096944496
52	0x3b6d37bc	0.003619655
53	0xbc7f0ddd	-0.01556727
54	0x3d93656e	0.071970806
55	0x3d89b098	0.06723136
56	0xbda91895	-0.08256642
57	0xbdb5622b	-0.08856615
58	0x3db38db6	0.087672636
59	0xbd8aa6c9	-0.06770093
60	0xbd2dcc51	-0.04243118
61	0x3da4693c	0.08027884
62	0x3c9364cf	0.017992405
63	0xbdad30ec	-0.08456597
64	0x3c6de986	0.014521008
65	0xbdc60f9a	-0.096709445
66	0xbd637752	-0.055533715
67	0x3d722e12	0.059125967
68	0xbdba951b	-0.09110471
69	0xbc732ff1	-0.014842973
70	0x3dcca222	0.09991862
71	0xbd616af6	-0.055033647
72	0xbde0a363	-0.109686635
73	0x3dc97c68	0.09838182
74	0x3da1bc42	0.078972355
75	0x3d980c06	0.07424168
76	0x3dd35b8d	0.10320196
77	0xbcfa80a1	-0.030578913
78	0xbdedd92c	-0.11613688
79	0x3a730ed2	0.0009271923
80	0xbd4d3a22	-0.050104268
81	0xbdb2b49f	-0.08725857
82	0x3dc344d6	0.09534614
83	0x3c82f078	0.015983805
84	0x3ddee0bf	0.10882711
85	0x3dda31e9	0.10654051
86	0xbcf19859	-0.02949159
87	0xbdd5337e	-0.10410212
88	0x3ca59c58	0.020216152
89	0x3dadd417	0.084877186
90	0x3c677878	0.014127843
91	0xbd874624	-0.06605175
92	0x3d57e51d	0.052708734
93	0x3d984e05	0.07436756
94	0xbd8606d1	-0.06544269
95	0x3c9c1ae9	0.0190558
96	0xbde08137	-0.10962146
97	0xbd56899a	-0.05237732
98	0x3d311940	0.04323697
99	0x3d776c05	0.06040575
100	0xbd43d4a5	-0.047810216
101	0x3de0889f	0.109635584
102	0x3dc116ef	0.09428202
103	0x3d6e5ccf	0.058193978
104	0x3da4ce2b	0.08047136
105	0xbd637632	-0.05553264
106	0x3c63dc05	0.013907437
107	0x3be64a54	0.0070279036
108	0x3cb4f8c7	0.022091283
109	0x3d3c0e3a	0.045912005
110	0x3d52e2b9	0.05148575
111	0x3dbd7b02	0.092519775
112	0xbdc8ef32	-0.09811248
113	0x3d8631fa	0.06552501
114	0xbcb57e61	-0.022154989
115	0x3dcb2ea7	0.099210076
116	0x3b4faea5	0.003168979
117	0xbd54e959	-0.05198035
118	0x3dc2ce6c	0.09512028
119	0xbc7e26c4	-0.015512172
120	0xbd8b6b8b	-0.068076216
121	0xbde8460f	-0.113414876
122	0x3dedaae6	0.11604862
123	0x3d19eff9	0.03758237
124	0x3d600ead	0.054701496
125	0xbdb8cf69	-0.09023935
126	0x3dab8d09	0.0837651
127	0x3cc982ff	0.024598597
128	0xbdb14908	-0.08656508
129	0x3dca52fd	0.0987911
130	0x3d5ea7f6	0.0543594
131	0xbd8e04b8	-0.06934494
132	0x3dce0c7e	0.100609764
133	0xbd4b060e	-0.04956632
134	0x3dab80f7	0.083742075
135	0xbda42eaf	-0.08016717
136	0x3d2ac548	0.04169205
137	0xbd754fc2	-0.059890516
138	0xbd92aa9e	-0.07161449
139	0x3cbb06d8	0.022830412
140	0xbddcd878	-0.10783476
141	0x3c24b46d	0.0100527825
142	0x3c486858	0.012231909
143	0x3daf3b52	0.08556236
144	0x3d8de3be	0.06928204
145	0xbc81698d	-0.0157974
146	0xbd07c622	-0.03314794
147	0xbda39f1a	-0.079893306
148	0x3dc66b53	0.09688439
149	0xbdd59393	-0.10428538
150	0xbc8e54b9	-0.017374383
151	0x3d923093	0.07138171
152	0xbd66e5fb	-0.05637167
153	0xbdb8e95a	-0.09028883
154	0x3d0039af	0.03130501
155	0xbd57b9e1	-0.052667502
156	0xbdc07a71	-0.09398354
157	0x3d34d4be	0.0441482
158	0x3dce1e43	0.10064366
159	0xbcb69354	-0.022287048
160	0x3c1336b9	0.008985215
161	0x3d835f50	0.06414664
162	0xbdab4525	-0.08362798
163	0xbde06bca	-0.10958059
164	0xbda288d3	-0.079362534
165	0x3d3a2237	0.045442786
166	0x3dc5bef7	0.09655564
167	0xbd87610a	-0.066103056
168	0xbd293a63	-0.041315448
169	0xbd8fa09e	-0.07013057
170	0x3dc2ff87	0.09521394
171	0xbb4539ea	-0.0030094334
172	0xbd544294	-0.051821306
173	0x3d88d546	0.06681304
174	0x3d74e934	0.059792712
175	0xbdb89944	-0.09013608
176	0xbdc71a85	-0.09721855
177	0x3b91df80	0.004451692
178	0x3c6a3b0c	0.014296304
179	0x3d72ffaa	0.05932585
180	0xbc76bb6c	-0.015059333
181	0x3d0213e0	0.031757236
182	0x3dc734a4	0.09726837
183	0xbbfa457f	-0.007637679
184	0xbdd331ee	-0.10312258
185	0xbcc4f625	-0.024043152
186	0x3dd17d40	0.10228968
187	0x3de830f9	0.11337466
188	0xbd09298f	-0.0334869
189	0x3de34e99	0.11098976
190	0x3d74794c	0.05968599
191	0xbdb1d6fb	-0.086835824
192	0xbd359d26	-0.04433932
193	0xbd3fe183	-0.046845924
194	0xbdc7b3ed	-0.09751115
195	0x3d620647	0.055181768
196	0xbde84732	-0.113417044
197	0xbd530f6b	-0.051528376
198	0xbd8ad75d	-0.067793585
199	0x3cf57e81	0.029967548
200	0x3d8675c6	0.06565432
201	0xbab9f461	-0.001418721
202	0xbdb8f3f1	-0.09030903
203	0xbac3f35e	-0.0014949848
204	0xbdc7e582	-0.09760572
205	0xbc19acde	-0.009379594
206	0xbdce5240	-0.10074282
207	0x3d471c2b	0.048610847
208	0xbd7ad0c6	-0.061234258
209	0xbc8dfb4e	-0.017331745
210	0x3b924643	0.0044639423
211	0x3dc05eea	0.093931034
212	0x3dc1a61c	0.09455511
213	0xbc91f9bf	-0.017819284
214	0xbccd3f32	-0.025054548
215	0x3dafdcfb	0.085870706
216	0x3d3b972f	0.045798477
217	0x3d754ddc	0.059888706
218	0x3bcf29af	0.0063221077
219	0x3d7db02c	0.06193559
220	0x3d99735d	0.07492707
221	0xbd5e8ccb	-0.05433349
222	0xbdcee25d	-0.10101769
223	0xbbcb5d31	-0.0062061776
224	0x3c23f1ab	0.010006349
225	0xbd5efaaa	-0.05443827
226	0x3dcfd0bb	0.10147234
227	0x3d51cec5	0.05122258
228	0xbdbf17e7	-0.09330731
229	0x3db7db87	0.089774184
230	0xbdd85dd7	-0.105647735
231	0xbd76d3e9	-0.060260687
232	0x3d83912e	0.06424175
233	0x3cb81d2c	0.022474848
234	0xbc2fb460	-0.010724157
235	0xbd2f196e	-0.04274886
236	0x3dedf613	0.116192006
237	0xbdd30d86	-0.10305314
238	0xbd0f46f4	-0.034979776
239	0x3d124d6e	0.035718374
240	0xbddf15f3	-0.10892858
241	0xbd8bf030	-0.068329215
242	0xbdabb7a5	-0.08384637
243	0x3c01790f	0.007902398
244	0x3db8fd3a	0.09032674
245	0x3de68d6a	0.11257441
246	0xbb3656d2	-0.0027822745
247	0xbcc7c47c	-0.024385683
248	0x3c769571	0.015050278
249	0xbda0ba81	-0.07848073
250	0x3c134c33	0.008990335
251	0xbdc58d2c	-0.09646067
252	0x3dd94b37	0.10610049
253	0xbd55df17	-0.05221471
254	0x3ddc5a27	0.10759383
255	0x3d4ff878	0.050774068

fc1.bias f4 [256]
0	0x3da00a93	0.07814517
1	0x3d625fd8	0.055267185
2	0x3c690dba	0.014224464
3	0x3d8e537f	0.06949519
4	0x3ca78dbd	0.020453328
5	0xbdb9bb08	-0.090688765
6	0x3d5e51c6	0.054277204
7	0x3db9dd3a	0.09075399
8	0xbdce2ca3	-0.100671075
9	0x3d11eb3f	0.03562474
10	0xbdeea5aa	-0.11652692
11	0x3c1c1534	0.00952654
12	0xbdde6576	-0.10859196
13	0x3ded9b4f	0.116018884
14	0x3d882e0b	0.06649407
15	0x3d307422	0.043079503
16	0x3d8886ee	0.06666361
17	0x3cb43bab	0.022001108
18	0x3da7f78f	0.08201515
19	0x3d5d8a7f	0.05408716
20	0xbdd6dd22	-0.104913965
21	0xbdbfc2b7	-0.09363311
22	0x3c6c7564	0.014432285
23	0xbd9a58fd	-0.075365044
24	0xbd1f58fb	-0.038903218
25	0xbcb65a19	-0.022259759
26	0x3da6640d	0.08124552
27	0xbbe05ac9	-0.00684676
28	0x3bcb68a9	0.006207545
29	0xbdafeebb	-0.08590456
30	0xbadcf495	-0.0016857559
31	0x3d729e41	0.059232954
32	0xbc9d07e4	-0.019168802
33	0x3d1f6d19	0.038922403
34	0x3d8c9801	0.0686493
35	0x3d88aabd	0.06673191
36	0xbc1f1e11	-0.009711758
37	0xbd1fc20e	-0.039003424
38	0x3d265514	0.04060848
39	0x3de14735	0.1099991
40	0xbdc39b66	-0.09551124
41	0xbd4ed91e	-0.050500028
42	0x3d92f055	0.07174746
43	0x3dc12ea4	0.09432724
44	0xbd82b37f	-0.063818924
45	0x3cc12c76	0.023580771
46	0x3dbd0605	0.09229664
47	0x3d140bb5	0.036143977
48	0xbdd841de	-0.10559438
49	0x3dcd0d14	0.1001226
50	0x3d1babde	0.038005702
51	0x3c9912de	0.018685754
52	0x3ad9e3f0	0.0016623717
53	0xbcd4a2f6	-0.025956612
54	0x3d40f1e9	0.047105704
55	0xbda5f324	-0.08103016
56	0x3c21f116	0.0098841395
57	0xbd8345f0	-0.06409824
58	0xbdd832cb	-0.10556563
59	0xbd823e98	-0.06359595
60	0x3dd20b18	0.10256022
61	0xbd121ca0	-0.03567183
62	0x3d8debae	0.06929718
63	0x3da5760e	0.08079158
64	0xbdbf4475	-0.09339229
65	0xbdbee650	-0.093212724
66	0xbde60909	-0.11232192
67	0xbda04d16	-0.07827203
68	0x3cc23bac	0.023710094
69	0xbd085cf9	-0.03329179
70	0x3d8b1b9f	0.06792378
71	0x3d2e507c	0.042557225
72	0xbc12e7a9	-0.008966365
73	0xbd53b9df	-0.051690932
74	0x3c15e3b5	0.009148528
75	0xbd863c97	-0.06554525
76	0xbdeed0d7	-0.11660927
77	0xbd64b51a	-0.055836774
78	0xbdb8b819	-0.09019489
79	0xbd6d235b	-0.057895046
80	0x3db29a65	0.08720855
81	0xbd9c7cb5	-0.076409735
82	0xbd592cbd	-0.05302118
83	0x3a265661	0.0006345269
84	0xbdbb20bb	-0.09137102
85	0x3dd7670b	0.10517701
86	0xbcb03616	-0.021510165
87	0xbdbbf5bf	-0.09177732
88	0x3d7242d9	0.059145782
89	0xbdba89c9	-0.09108312
90	0xbdc7f2c5	-0.097631015
91	0x3d0dbf07	0.034606006
92	0xbdcca247	-0.099918894
93	0xbdef6b17	-0.11690348
94	0x3d827d7f	0.06371593
95	0x3d2da760	0.04239595
96	0xbcb85de5	-0.02250571
97	0x3cfbc8d8	0.030735418
98	0x3d9a172b	0.0752395
99	0xbdc69ff3	-0.09698477
100	0x3d9fe7b1	0.078078635
101	0x3c6ed5c5	0.014577334
102	0x3d802a5d	0.0625808
103	0x3dbc78c8	0.09202725
104	0xba4621e3	-0.000755815
105	0x3db62fb5	0.08895818
106	0x3db6045d	0.08887551
107	0xbdd0d57a	-0.101969674
108	0x3dcda437	0.10041087
109	0x3d951085	0.072785415
110	0xbd8a060b	-0.06739434
111	0xbdab4b2c	-0.08363947
112	0x3c278d79	0.010226601
113	0x3b5bb420	0.003352411
114	0x3c3ce689	0.011529573
115	0x3d67e9c8	0.056619436
116	0xbdca2724	-0.09870747
117	0xbb1fda08	-0.0024391431
118	0x3de87799	0.113509364
119	0x3d8c92a4	0.06863907
120	0x3dafb410	0.08579266
121	0x3ddda9ce	0.10823403
122	0x3d8b7945	0.0681024
123	0xbcc3c25b	-0.023896387
124	0xbcd124a6	-0.02553017
125	0x3deda646	0.1160398
126	0x3d0c1256	0.034197174
127	0x3c271e1c	0.01020005
128	0xbd596ee6	-0.053084277
129	0x3da728aa	0.08162053
130	0xbdb5e3e6	-0.08881359
131	0xbdb336af	-0.087506644
132	0xbce68469	-0.02813931
133	0xbc896ee4	-0.01677651
134	0x3d5c4227	0.053774025
135	0xbd9a95b6	-0.07548086
136	0x3d5bd067	0.053665545
137	0x3d64b3e3	0.055835616
138	0x3d3a5bdc	0.04549776
139	0x3cd86332	0.026414488
140	0x3dd9053b	0.10596701
141	0x3d5ab670	0.053396642
142	0xbdc95574	-0.09830752
143	0xbd162838	-0.03665945
144	0x3d91059d	0.07081149
145	0xbde33f68	-0.11096078
146	0x3cf8d67c	0.030375712
147	0x3d7334fd	0.059376705
148	0xbdef140d	-0.11673746
149	0xbd8c6aca	-0.06856306
150	0xbdcfaeb9	-0.101407476
151	0x3ae0a826	0.0017139956
152	0x3d958b86	0.073020026
153	0xbd8a73c7	-0.06760364
154	0xbd441ad3	-0.047877144
155	0xbccc7823	-0.02495963
156	0x3dbe9d24	0.09307316
157	0x3bed26c4	0.0072372872
158	0xbdc2b998	-0.095080554
159	0x3d1cfa2b	0.038324516
160	0xbbe1da90	-0.0068925098
161	0xbb83cac0	-0.0040219724
162	0x3dba4bf5	0.09096519
163	0x3d3e6891	0.04648644
164	0x3d8c4879	0.068497606
165	0xbd7827eb	-0.060584944
166	0xbd903776	-0.07041828
167	0x3be1643c	0.006878404
168	0xbde98f46	-0.1140428
169	0x3d0648e3	0.032784354
170	0x3d44690e	0.04795175
171	0x3db45e7f	0.08807086
172	0xbd9c0732	-0.0761856
173	0xbde4e9cf	-0.11177408
174	0xbdd93737	-0.106062345
175	0x3d046af3	0.032328557
176	0x3b083ef7	0.0020789483
177	0xb9b1b29e	-0.0003389315
178	0xbd342687	-0.043982055
179	0xbba22e02	-0.004949332
180	0xbdbdaefc	-0.09261891
181	0xbd93d068	-0.07217485
182	0xbd6dcabd	-0.058054674
183	0xbcb9f8f2	-0.022701714
184	0xbdb5e61c	-0.088817805
185	0x3d9bed31	0.076136
186	0xbd844ad2	-0.06459583
187	0x3d98a0d4	0.074525505
188	0x3dac604b	0.08416804
189	0x3c97f8c5	0.01855124
190	0xbcd57836	-0.026058298
191	0xbc2102bb	-0.009827311
192	0xbde206f1	-0.1103648
193	0xbcbc45c7	-0.022982491
194	0x3dc16c2d	0.09444461
195	0x3cf3f84a	0.02978148
196	0x3db8ac74	0.09017268
197	0x3cd8dcdc	0.026472501
198	0x3bb6fe4e	0.0055845147
199	0xbde14907	-0.11000257
200	0xbd05789d	-0.03258573
201	0xbdd1e8a2	-0.10249449
202	0x3dca24b3	0.09870281
203	0xbd4c57b0	-0.049888313
204	0x3dbd7a85	0.09251884
205	0xbd59671d	-0.053076852
206	0x3caf10b2	0.021370266
207	0x3dce32c8	0.100682795
208	0x3c6d4a94	0.014483113
209	0x3d9eb543	0.07749417
210	0xbd5e5545	-0.054280538
211	0xbc4852de	-0.012226788
212	0x3c9576cd	0.018245125
213	0xbc9bc061	-0.019012632
214	0xbca3e615	-0.020007173
215	0x3de40de9	0.11135466
216	0x3d50c8d4	0.050972775
217	0x3dabf04b	0.083954416
218	0x3d818f2e	0.063261375
219	0xbd9c1978	-0.07622045
220	0xbde1c64e	-0.11024152
221	0xbdeed07b	-0.11660858
222	0xbdcbe429	-0.099556275
223	0xbd8cd9b0	-0.06877458
224	0x3d7e2979	0.06205127
225	0xbdbefb87	-0.09325319
226	0x3d94c47b	0.07264038
227	0x3d20b580	0.039235592
228	0x3dd7864b	0.10523661
229	0x3cbee2f6	0.023301583
230	0x3d99fc92	0.07518877
231	0xbd863eee	-0.06554972
232	0x3ddd8051	0.1081549
233	0x3dae48c2	0.08509971
234	0xbdd64657	-0.10462635
235	0x3dea3836	0.11436503
236	0x3d43edda	0.047834255
237	0xbd809932	-0.0627922
238	0xbdcdc7fe	-0.10047911
239	0x3b46864f	0.0030292457
240	0xbc13d2ea	-0.009022454
241	0xbc99d5c5	-0.018778691
242	0x3d7c2033	0.061554145
243	0x3dbd89cd	0.09254799
244	0xbcd19f40	-0.025588632
245	0x3dca7d03	0.09887125
246	0xbd130a69	-0.0358986
247	0xbd85ca07	-0.06532674
248	0x3db1ed69	0.086878605
249	0x3dad466b	0.08460697
250	0xb927a1d7	-0.00015986651
251	0xbdc64ee4	-0.09683016
252	0x3c2b89aa	0.010469833
253	0x3b624859	0.0034527986
254	0x3dc2f889	0.095200606
255	0xbd8797d4	-0.06620756

fc2.weight f4 [256, 256]
0	0x3d013dd6	0.031553112
1	0x3d372e48	0.04472187
2	0xbc8624ec	-0.016375028
3	0x3d349900	0.044091225
4	0xbd5bf40a	-0.05369953
5	0x3ae39640	0.0017363504
6	0xbd2d477e	-0.04230451
7	0xbc1d1bf0	-0.00958918
8	0x3c32ce50	0.010913447
9	0x3cbb5b84	0.022870786
10	0x3d358270	0.044313848
11	0x3c83369c	0.01601725
12	0xbc4e9560	-0.012608856
13	0xbce725ec	-0.028216325
14	0xbd3e8158	-0.04651007
15	0x3ca08f88	0.019599691
16	0xbd0320b6	-0.032013617
17	0xbc279550	-0.01022847
18	0x3d6ed1ca	0.05830554
19	0x3cf55ec8	0.029952422
20	0xbb44fc20	-0.0030057505
21	0xbd0076ce	-0.0313633
22	0x3ccd8e24	0.025092192
23	0xbc501808	-0.012701042
24	0xbac08940	-0.0014689341
25	0x3d43c234	0.04779263
26	0xbbce25f0	-0.0062911436
27	0xbd33e5fc	-0.043920502
28	0xbceae6f0	-0.028674573
29	0x3d3d76fe	0.046256058
30	0x3bb8d7a0	0.005640939
31	0x3a645280	0.0008709803
32	0xbcc024f4	-0.02345512
33	0xbd48fe04	-0.049070373
34	0xbd634b16	-0.05549153
35	0x3c14f7b8	0.009092264
36	0xbcbc2504	-0.02296687
37	0xbc61fc48	-0.013793059
38	0x3ccb2b18	0.024800822
39	0xbd53cfbe	-0.05171179
40	0xbc273040	-0.010204375
41	0xbc383718	-0.011243604
42	0xbc88c8e8	-0.016697362
43	0x3c70c4a8	0.014695324
44	0x3c28e570	0.010308608
45	0xbbe91100	-0.0071126223
46	0x3d516b48	0.051127702
47	0xbbe59790	-0.007006593
48	0x3c5c0c48	0.013430662
49	0xbc36bb18	-0.011153005
50	0xbb5dbea0	-0.0033835545
51	0x3d6fb2f4	0.058520272
52	0xbd701ae4	-0.058619395
53	0xbc860c34	-0.01636324
54	0x3c5962c0	0.013268173
55	0x3d25e3f8	0.04050061
56	0xbcbe8f7c	-0.023261778
57	0x3d28da94	0.041224077
58	0xbd26f7a0	-0.040763497
59	0x3d3799f8	0.04482457
60	0x3d376a02	0.04477883
61	0x3c29eff8	0.010372154
62	0xbc905c5c	-0.017622165
63	0xbcddd0dc	-0.027077131
64	0x3cd58964	0.02606649
65	0x3c93b7d0	0.018031985
66	0xbd1f2c8c	-0.038860843
67	0x3d0d7d36	0.03454324
68	0xbd31d9aa	-0.04342047
69	0x3d76d3da	0.06026063
70	0xbcc742cc	-0.024323843
71	0xbd652ce4	-0.055951014
72	0x3d6ce1a2	0.057832368
73	0xbd38ddb6	-0.045133315
74	0x3d78c13c	0.060731158
75	0x3d5b97ce	0.05361157
76	0x3cc3bd70	0.023894042
77	0xbd50cef4	-0.050978616
78	0x3d635be6	0.055507563
79	0x3d44d1ba	0.048051573
80	0x3c84d750	0.01621595
81	0x3c2ece60	0.010669321
82	0xbd3415a0	-0.043965936
83	0x3ceff7e0	0.029293
84	0xbd7ff736	-0.062491618
85	0x3c956de4	0.018240876
86	0xbd47976a	-0.048728384
87	0xbc9a7504	-0.018854626
88	0x3cadf69c	0.021235757
89	0xbd1b555a	-0.037923194
90	0xbd7bb624	-0.061453
91	0xbd3e75ca	-0.04649905
92	0xbd4bb094	-0.049728945
93	0x3bb38340	0.0054782927
94	0x3d25a9bc	0.040445074
95	0x3c75f840	0.015012801
96	0xbc61fce8	-0.013793208
97	0x3d252e92	0.040327616
98	0x3d74b628	0.05974403
99	0xbd111a38	-0.035425395
100	0xbd66f634	-0.05638714
101	0xbd483af4	-0.048884347
102	0xbd58f184	-0.052964702
103	0xbd319874	-0.04335828
104	0xbd1a653c	-0.0376942
105	0xbc8172b4	-0.015801765
106	0xbcf9dc80	-0.03050065
107	0x3d3611aa	0.04445044
108	0xbc8f29a0	-0.017475903
109	0x3d7bacb6	0.061444007
110	0x3d43003e	0.047607653
111	0x3c5388f0	0.012911066
112	0x3d7a8048	0.061157495
113	0xbc035b28	-0.008017339
114	0x3c5ec4d0	0.013596728
115	0xbcc61eb4	-0.024184562
116	0x3d5bee84	0.053694263
117	0x3d4b15e0	0.04958141
118	0xbcfe6af8	-0.031056866
119	0x3b936500	0.004498124
120	0x3d003fa8	0.031310707
121	0x3d7f9d6e	0.062405996
122	0xbd59b136	-0.053147517
123	0x3cbf9d68	0.023390487
124	0x3c1ce788	0.009576686
125	0xbc3602a8	-0.011109032
126	0xbcd9c1f0	-0.026581734
127	0xbd4aa23e	-0.049471132
128	0x3d09f1fe	0.033678047
129	0x3c96d450	0.018411785
130	0xbd47add8	-0.048749775
131	0x3d368d58	0.04456839
132	0x3d5e8f38	0.054335803
133	0xbd2231e6	-0.039598368
134	0xbc204f80	-0.009784579
135	0xbbcd5a70	-0.0062668845
136	0xbc98d1d8	-0.018654749
137	0xbd0d9d6c	-0.034573957
138	0xbd2a1b0e	-0.041529708
139	0x3cf9ead0	0.030507475
140	0x3d3ca8ac	0.046059296
141	0x3d50ff2c	0.0510246
142	0x3b5a2100	0.003328383
143	0xbd0dca02	-0.034616478
144	0xbc83f178	-0.016106352
145	0xbcf5b304	-0.029992588
146	0xbc847958	-0.016171142
147	0xbd736b2c	-0.05942838
148	0x3b906610	0.004406698
149	0xbd7cfbfc	-0.06176375
150	0x3c92546c	0.017862521
151	0x3c197628	0.00936655
152	0x3cdf898c	0.027287267
153	0x3d1945b0	0.037419975
154	0xbc93b3fc	-0.01803016
155	0xbd39489c	-0.04523526
156	0x3cb2ed4c	0.021841668
157	0xbcb5ce10	-0.022192985
158	0xbd027774	-0.0318522
159	0xbd2e38d6	-0.04253467
160	0xbc414bd0	-0.01179786
161	0x3d22a452	0.03970749
162	0x3cb48fb4	0.02204118
163	0xba757600	-0.00093635917
164	0xbd506172	-0.05087418
165	0x3d3b01a8	0.045655876
166	0xbd6a6edc	-0.05723463
167	0x3d317730	0.043326557
168	0x3d18b18c	0.037278697
169	0x3cd97540	0.026545167
170	0x3c6d3a88	0.014479287
171	0xbc8310bc	-0.01599919
172	0x3bc5d2d0	0.0060370937
173	0x3d53e8f6	0.05173584
174	0x3cce265c	0.025164776
175	0x3cd6e0b0	0.026230186
176	0xbbff34b0	-0.0077882633
177	0x3c4aa018	0.012367271
178	0x3d2bff44	0.041991487
179	0xbd4f044e	-0.050541215
180	0x3bb21d10	0.0054355934
181	0x3cb379f0	0.02190873
182	0x3d246eb6	0.040144645
183	0xbd6f7e26	-0.058469914
184	0x3d2d358a	0.042287387
185	0x3b8a4db0	0.004220687
186	0x3bd85a50	0.006602563
187	0x3c504150	0.012710884
188	0xbd7fab4c	-0.06241922
189	0x3cd45f94	0.025924481
190	0xbcfea674	-0.03108523
191	0x3d346ee2	0.04405106
192	0xbd0d3b62	-0.03448046
193	0xbcb2bd4c	-0.02181878
194	0x3c6680e8	0.01406882
195	0x3cac7880	0.021053553
196	0x3ade5240	0.0016961768
197	0x3d1b6f24	0.03794779
198	0xbcc1a784	-0.023639448
199	0xbd3c3afc	-0.04595469
200	0x3d1525c0	0.036412954
201	0x3d77f5f6	0.0605373
202	0xbd7bd2be	-0.061480276
203	0x3d00fc3e	0.031490557
204	0xbd7af932	-0.061272807
205	0xbd34a708	-0.044104606
206	0x3d7ad99c	0.061242685
207	0x3cae9570	0.021311492
208	0x3cf5b8bc	0.029995315
209	0xbacb7500	-0.001552254
210	0x3d031dfa	0.03201101
211	0xbd574a98	-0.052561373
212	0xbd109680	-0.035299778
213	0xbca8e840	-0.020618558
214	0x3d219576	0.039449178
215	0x3d613a50	0.05498725
216	0x3d4f3818	0.050590605
217	0xbd131394	-0.035907343
218	0x3cc3d438	0.023904905
219	0xbb798160	-0.0038071498
220	0xb9b43a00	-0.0003437549
221	0x3d1e91e8	0.038713366
222	0x3d4aad84	0.049481884
223	0xbcc1ae20	-0.0236426
224	0xbc3d79d8	-0.011564694
225	0x3bf8c9d0	0.0075924173
226	0xbcfe29dc	-0.03102582
227	0xbd041baa	-0.032252945
228	0x3d7037d4	0.05864699
229	0xbd4cdd74	-0.05001588
230	0xbd10dff6	-0.035369836
231	0xbd3a2acc	-0.04545097
232	0xbc5ba8b8	-0.013406925
233	0xbc731568	-0.014836647
234	0x3d2f612c	0.04281728
235	0xba950ac0	-0.0011371002
236	0x3d030354	0.031985596
237	0xbc224cd0	-0.009906009
238	0xbc9e4b80	-0.01932311
239	0x3d1ce2d6	0.038302265
240	0xbd506d4a	-0.050885476
241	0xbb234960	-0.002491556
242	0xbd2768d0	-0.04087144
243	0x3c4be938	0.01244574
244	0xbcfb0f68	-0.030646995
245	0x3d7d65bc	0.0618646
246	0xbd7600a8	-0.06005922
247	0xbd390ba6	-0.045177124
248	0xbd791998	-0.060815424
249	0x3d7447de	0.05963885
250	0xbc501ea0	-0.012702614
251	0x3d4c9780	0.04994917
252	0xbd6107b6	-0.054938994
253	0xbd7092a4	-0.058733597
254	0x3d32f7ca	0.04369334
255	0xbcac13a0	-0.021005452

fc2.bias f4 [256]
0	0x3c220968	0.009889938
1	0x3c1d66e0	0.009607047
2	0xbce6ef9c	-0.028190427
3	0xbce0bcf8	-0.027433857
4	0x3d57a4d2	0.05264742
5	0x3d5cf992	0.053948946
6	0x3d56c7d8	0.05243668
7	0x3c8716f0	0.01649043
8	0x3d2d108c	0.04225211
9	0xbd40571c	-0.046958074
10	0x3d733dca	0.0593851
11	0x3d602986	0.0547271
12	0x3d09d832	0.033653446
13	0x3c4fa700	0.012674093
14	0xbd58d06c	-0.05293314
15	0x3d3e0532	0.046391673
16	0xbd5da782	-0.054114826
17	0x3d5cea00	0.053934097
18	0x3ccbe4d8	0.024889395
19	0x3d01f4e0	0.03172767
20	0x3d04d974	0.032433942
21	0x3d2b6fc0	0.04185462
22	0xbd0ae9b0	-0.033914268
23	0x3c9f8f5c	0.019477539
24	0x3d4a55ba	0.04939816
25	0xbc9e0e7c	-0.019294016
26	0xbd0b6480	-0.03403139
27	0xbccd0534	-0.025026895
28	0x3cc4dba4	0.024030514
29	0xbd7fe23e	-0.06247162
30	0x3c645708	0.0139367655
31	0x3c8b4414	0.017000236
32	0x3c8ad7b4	0.016948558
33	0xbd1e8670	-0.03870243
34	0x3d4178a8	0.047234207
35	0xbc7efb18	-0.015562795
36	0xbd558388	-0.05212739
37	0x3cfd69a4	0.030934162
38	0xbc37d7e8	-0.01122091
39	0x3d37051c	0.044682607
40	0xbc925510	-0.017862827
41	0xbd01a07c	-0.03164719
42	0x3d1b36a8	0.03789392
43	0x3cc5aef0	0.024131268
44	0x3d7237a6	0.0591351
45	0xbd72a59e	-0.059239976
46	0x3d3994ae	0.045307808
47	0xbd3a5b82	-0.045497425
48	0x3bf753b0	0.007547818
49	0xbcd5e6ec	-0.026111089
50	0x3cd8f764	0.026485153
51	0x3d5b7120	0.05357468
52	0x3d54074c	0.05176477
53	0x3b1d1180	0.002396673
54	0xbd1c1416	-0.038105093
55	0xbd2062ae	-0.03915661
56	0xbcf8b494	-0.030359544
57	0xbd6eb968	-0.058282286
58	0xbc3e1de8	-0.01160381
59	0x3d543640	0.05180955
60	0xbd1d45f8	-0.038396806
61	0xbc84b440	-0.016199231
62	0xbd1fe8cc	-0.03904037
63	0xbcbd8034	-0.023132421
64	0xbccf31b0	-0.025292248
65	0xbcfed1a4	-0.031105824
66	0x3cf64cf8	0.030065998
67	0x3d1e7d10	0.038693488
68	0xbcd64d94	-0.026160039
69	0x3d04f864	0.032463446
70	0x3d6c8a38	0.057749003
71	0x3bed8950	0.007249035
72	0xb9eb1900	-0.0004484132
73	0x3d4c07a8	0.04981199
74	0x3cad6030	0.02116403
75	0xbb142100	-0.0022602677
76	0xbd6e4472	-0.058170743
77	0xbd35318a	-0.044236697
78	0x3ceb2f10	0.028708965
79	0x3c4fbb30	0.012678906
80	0xbd17daf2	-0.037074037
81	0x3ca25b64	0.01981897
82	0x3d668f2a	0.056288876
83	0x3d2d1db6	0.042264663
84	0xbd54cf00	-0.051955223
85	0xb9c2f900	-0.00037188083
86	0xbd0e3c1c	-0.034725294
87	0x39941400	0.0002824366
88	0x3d2ecef0	0.04267782
89	0xbce0c25c	-0.027436428
90	0xbd656ed8	-0.056013912
91	0xbd5014ac	-0.050800964
92	0x3b43fae0	0.0029904172
93	0xbbd87fc0	-0.006607026
94	0x3d04171a	0.032248594
95	0xbcc42730	-0.023944467
96	0xbc3ed050	-0.011646345
97	0x3c968698	0.018374726
98	0xbbaf0bf0	-0.005341999
99	0xbc521580	-0.012822509
100	0x3c77edc0	0.015132368
101	0xbd1a9852	-0.03774292
102	0x3b430860	0.002975963
103	0xbc5112e8	-0.012760855
104	0xbd74c9a8	-0.059762627
105	0xbb644940	-0.00348337
106	0xbd7ecc00	-0.06220627
107	0xbaa79740	-0.0012786165
108	0x3d1ded52	0.038556404
109	0x3d5c15e4	0.053731814
110	0x3ca1ad9c	0.019736104
111	0x3d4c3bb6	0.049861632
112	0xbd72fa6a	-0.059320845
113	0x3b06da80	0.0020577013
114	0xbc0a1090	-0.0084268
115	0x3d70a97c	0.058755383
116	0xbd5207ee	-0.051277094
117	0xbcb5b088	-0.022178903
118	0x3cbf6d24	0.023367472
119	0x3bbb8e90	0.005723782
120	0xbc88c1e4	-0.016694017
121	0x3b892f90	0.004186578
122	0xbcd20214	-0.025635757
123	0x3ce62040	0.02809155
124	0xbc8f91c8	-0.017525569
125	0x3c78e4b0	0.015191242
126	0xbc5d5720	-0.013509542
127	0xbc5c0940	-0.01342994
128	0xbc77cff8	-0.015125267
129	0x3d3de498	0.046360582
130	0xbd08a290	-0.033358157
131	0xbcf070c4	-0.029350646
132	0xbb17c200	-0.0023156404
133	0x3c4a6998	0.012354277
134	0x3d44b344	0.048022524
135	0xbd0375bc	-0.032094702
136	0x3ca3755c	0.019953422
137	0xbb82bef0	-0.0039900467
138	0x3b073ea0	0.0020636693
139	0x3d459a68	0.048242956
140	0xbd2787e6	-0.040901087
141	0xbcf09378	-0.029367194
142	0x3c8aa0f8	0.016922459
143	0x3d417fe2	0.0472411
144	0x3d11478a	0.035468616
145	0xbd0c0b4e	-0.03419047
146	0x3c0ab6d0	0.008466437
147	0x3cba8104	0.022766598
148	0xbba0ba30	-0.004905008
149	0xbd452960	-0.04813516
150	0xbd328054	-0.043579414
151	0xb96d8800	-0.00022652745
152	0xbd73e594	-0.059545115
153	0x3c217038	0.009853415
154	0x3c12ce68	0.008960344
155	0x3cf87c24	0.030332632
156	0x3b9bb950	0.0047523156
157	0xbd5c627c	-0.05380486
158	0xbd7ed63a	-0.06221602
159	0x3d0a1808	0.033714324
160	0x3c61b648	0.013776369
161	0xbc8793c0	-0.016549945
162	0xbd7484b4	-0.059696868
163	0xbc1ac600	-0.009446621
164	0x3d596b28	0.053080708
165	0xbcdaba40	-0.026700139
166	0x3bf34f00	0.007425189
167	0xbd299f70	-0.041411817
168	0x3d633036	0.0554659
169	0x3d6316d4	0.055441692
170	0x3cec94e4	0.02887959
171	0xbd65d032	-0.056106754
172	0x3d5ca46e	0.05386775
173	0xbbda4480	-0.006660998
174	0xbd43c8c0	-0.047798872
175	0x3d4ca0d6	0.049958073
176	0x3d6ec24e	0.058290772
177	0xbce770cc	-0.028252028
178	0xbc6e3950	-0.014540032
179	0x3d59681c	0.053077802
180	0x3d7327bc	0.059364066
181	0x3cb2ee74	0.021842219
182	0x3d2cebf2	0.042217202
183	0x3c9b3088	0.01894404
184	0xbcad70cc	-0.02117195
185	0xbd2e124c	-0.042497918
186	0x3d3a4fe2	0.04548634
187	0x3c45c770	0.012071475
188	0x3d22cabe	0.03974413
189	0x3bdf85f0	0.0068213865
190	0x3c8eda0c	0.017437957
191	0xbd542ffa	-0.051803567
192	0xbd56bf7e	-0.052428715
193	0xbd4fbde6	-0.05071821
194	0x3c084e78	0.00831949
195	0x3c989050	0.018623501
196	0xbbda3b20	-0.0066598803
197	0xbd40dac4	-0.04708363
198	0xbca456bc	-0.02006089
199	0xbd6884ce	-0.056767277
200	0xbd794ad0	-0.060862362
201	0xbd459472	-0.04823727
202	0xbcfd2a60	-0.030903995
203	0x3bbccce0	0.0057617277
204	0xbd530e7e	-0.051527493
205	0x3c97d7f8	0.0185356
206	0xbd191c20	-0.037380338
207	0xbd155626	-0.03645911
208	0x3d468e9c	0.048475847
209	0x3c2c2850	0.010507658
210	0x3d2b2ae8	0.041788965
211	0x3d3e6fd0	0.04649335
212	0xbd34dd52	-0.04415638
213	0x3cb844c0	0.02249372
214	0xbd3a6844	-0.04550959
215	0x3d6373d0	0.05553037
216	0x3cd656f4	0.02616451
217	0xbb8b60f0	-0.004253499
218	0xbd634f92	-0.055495806
219	0xbc74fa98	-0.014952324
220	0xbd56ae32	-0.05241222
221	0x3cac2054	0.021011509
222	0xbd0b6368	-0.034030348
223	0xbd619f14	-0.05508335
224	0xbd5b67a4	-0.053565636
225	0xbc40a720	-0.011758596
226	0xbd3d66e0	-0.046240687
227	0x3d0b7a86	0.034052394
228	0xbd60a9da	-0.054849483
229	0xbcb19aa4	-0.021680184
230	0x3d127ad4	0.03576167
231	0x3d4e63e6	0.05038824
232	0xbd1d85e8	-0.03845778
233	0xbce43ad8	-0.02786009
234	0x3c16a938	0.009195618
235	0x3c165eb8	0.009177856
236	0x3bf59910	0.007495053
237	0xbc80fc80	-0.015745401
238	0xbd531050	-0.05152923
239	0xbd187b86	-0.037227176
240	0xbd70af70	-0.05876106
241	0xbd66f1ca	-0.05638293
242	0x3ce64390	0.028108388
243	0x3cfa0a68	0.03052254
244	0x3cf58e34	0.029975034
245	0xbca78b20	-0.020452082
246	0x3c78e990	0.015192404
247	0x3d65cc2e	0.056102924
248	0x3d01304e	0.031540208
249	0xbd7b95a0	-0.06142199
250	0xbc633350	-0.013867214
251	0x3d78f5bc	0.060781226
252	0xbd2db4a2	-0.042408593
253	0xbb1a7460	-0.00235679
254	0xbd276948	-0.04087189
255	0xbb8de9c0	-0.0043308437

fc3.weight f4 [256, 256]
0	0xbd3cd23c	-0.046098933
1	0x3d5fee60	0.05467069
2	0xbcbb3970	-0.022854537
3	0x3d4087f6	0.047004662
4	0xbcc58cf8	-0.02411507
5	0xbbd91360	-0.006624624
6	0x3d67c9c0	0.05658889
7	0xbd4d3c5c	-0.05010639
8	0x3d62f628	0.055410534
9	0xbd062a58	-0.032755226
10	0xbd6faa58	-0.05851206
11	0xbd36f2ea	-0.044665255
12	0xbd48adcc	-0.04899387
13	0x3d52e7dc	0.05149065
14	0x3918c800	0.00014570355
15	0x3cc042f0	0.023469418
16	0xbc5f6cc0	-0.013636768
17	0xbb9de5e0	-0.004818663
18	0x3d33f156	0.043931328
19	0x3cae3a50	0.02126804
20	0x3c47b310	0.012188688
21	0xbcf3f730	-0.029780954
22	0xbd404418	-0.04693994
23	0xbd1340e2	-0.03595055
24	0xbc622a88	-0.013804086
25	0x3d6360c0	0.05551219
26	0x3cc3fa1c	0.023922972
27	0x3cd3cd1c	0.02585464
28	0xbbb37310	-0.005476363
29	0x3bdbfa40	0.0067131817
30	0x3be320c0	0.0069313943
31	0x39d42f00	0.0004047081
32	0x3d5960fa	0.053071
33	0x3d3db972	0.046319433
34	0xbcc965a4	-0.024584599
35	0x3bdba850	0.006703414
36	0xbcf661a8	-0.030075863
37	0xbd16a8c4	-0.03678204
38	0x3d1e9c22	0.03872312
39	0xbd686202	-0.056734093
40	0x3c2c8e30	0.010531947
41	0xbd7c5b80	-0.0616107
42	0xbb558e80	-0.0032586157
43	0xbc489340	-0.012242138
44	0xbd40a63e	-0.04703354
45	0x3cc8489c	0.024448685
46	0x3d00e52e	0.031468563
47	0xbd4077fa	-0.04698942
48	0xba815040	-0.0009865835
49	0x38e04400	0.00010693818
50	0x3d075c08	0.033046752
51	0x3c9c4d18	0.01907973
52	0xbc93e4c8	-0.018053427
53	0x3d463632	0.04839153
54	0x3cf1a7d4	0.029498972
55	0x3d149428	0.036274105
56	0x3d618cea	0.055066027
57	0xbd0682fc	-0.03283976
58	0x3d4f5e6a	0.05062715
59	0xbb6e1860	-0.0036330447
60	0x3d36e276	0.044649564
61	0x3c1fbf60	0.009750217
62	0x3cbb7c10	0.022886306
63	0xbd0f5ff6	-0.035003625
64	0xbd52ba0c	-0.05144696
65	0x3762a000	1.3507903e-05
66	0x3d79aad8	0.060953945
67	0x3b6a6fc0	0.0035772175
68	0x3d68c35a	0.056826927
69	0x3d578934	0.05262108
70	0xbd2c8cec	-0.04212658
71	0xbd7ff8a2	-0.062492974
72	0x3c7a9d48	0.015296288
73	0xbb4703a0	-0.003036715
74	0x3d0edbf0	0.034877717
75	0x3cf926d0	0.030414015
76	0xbab36080	-0.0013685375
77	0x3cd3ac5c	0.025839023
78	0xbcb575d4	-0.022150911
79	0x3d164756	0.036689125
80	0xbd44cafa	-0.048045136
81	0xbcdad620	-0.02671343
82	0xbd19280a	-0.0373917
83	0xbd3dc9ac	-0.046334907
84	0xbc264570	-0.010148391
85	0x3d0d5a5c	0.03451
86	0x3c9f7ed0	0.019469649
87	0xbd5de3d4	-0.054172352
88	0x3ca2661c	0.01982408
89	0xba50f880	-0.00079715997
90	0xbcf2fb1c	-0.029660754
91	0x3d5e8050	0.054321587
92	0x3cfdceb8	0.03098236
93	0xbd11433c	-0.03546451
94	0xbd58bf5e	-0.052916877
95	0xbd4011e4	-0.04689206
96	0x3c344600	0.011003017
97	0xbc1ba1c0	-0.009499013
98	0x3d55e4f4	0.0522203
99	0x3ca6c290	0.020356447
100	0x3d59dce6	0.05318918
101	0x3d170aae	0.03687542
102	0x3ba11820	0.004916206
103	0xbd66ab06	-0.056315444
104	0x3bec8410	0.0072178915
105	0x3b624380	0.0034525096
106	0x3c4ecfe8	0.012622811
107	0xbd22129e	-0.039568536
108	0xbb8d5b00	-0.0043138266
109	0x3d5199d0	0.051172078
110	0xbd75fd0c	-0.060055777
111	0xbd7658cc	-0.060143277
112	0xbd7e84aa	-0.062138237
113	0xbd3048a8	-0.04303804
114	0xbd0f8530	-0.035039127
115	0x3d5d7e14	0.054075316
116	0xbcf00dc8	-0.029303446
117	0x3d368ea2	0.04456962
118	0x3d60124a	0.05470494
119	0x3c6542f8	0.013993017
120	0xbb8eeb60	-0.004361555
121	0xbd69ccf6	-0.05708023
122	0x3d2e0504	0.042485252
123	0xbcdecd04	-0.027197368
124	0x3d2e294a	0.042519845
125	0xbc78ab90	-0.015177622
126	0xbd03fcd2	-0.03222353
127	0x3d0f69ce	0.035013013
128	0xbd3f4ae2	-0.046702273
129	0xbc523940	-0.012831032
130	0xbc2ca400	-0.0105371475
131	0xbd2feca8	-0.042950302
132	0x3cbd5b0c	0.023114704
133	0x3c643c48	0.013930388
134	0x3c5f9ab8	0.013647728
135	0x3b672500	0.0035269856
136	0xbd18c1bc	-0.037294134
137	0x3cf37568	0.02971907
138	0x3c2d36c0	0.010572135
139	0x3caf3504	0.021387585
140	0x3bafaff0	0.0053615496
141	0x3d789f3c	0.060698733
142	0x3c1eb188	0.009685881
143	0x3c2be428	0.010491408
144	0xbd79587c	-0.0608754
145	0xbcce6a30	-0.025197119
146	0xbd5e2ce6	-0.054242037
147	0x3ce87160	0.028374374
148	0xbd52acda	-0.051434375
149	0xbd62a028	-0.05532852
150	0x3c812b00	0.015767574
151	0xbb536960	-0.0032258853
152	0x3d2b8ed4	0.04188426
153	0x3cb23d88	0.021757856
154	0x3d01fb18	0.031733602
155	0xbd187f38	-0.0372307
156	0xbd7f661e	-0.062353246
157	0x3d48f70a	0.04906372
158	0x3cb637e4	0.022243448
159	0x3cfcdca8	0.030866936
160	0xbd1bff3a	-0.0380852
161	0xbce4f48c	-0.02794864
162	0xbbc26380	-0.0059322715
163	0x3c1918b8	0.009344272
164	0x3c9c9a38	0.019116506
165	0xbcb1b7d8	-0.021694109
166	0xbb428100	-0.002967894
167	0x3911c600	0.00013902038
168	0x3d65a282	0.056063183
169	0xbc594408	-0.013260849
170	0x3d1aec76	0.037823163
171	0xbd1a670a	-0.037695922
172	0x3c696c20	0.01424697
173	0x3c5d9ef0	0.013526663
174	0xbd3697ec	-0.044578478
175	0xbc415cb8	-0.011801891
176	0x3be14640	0.0068748295
177	0x3d639f90	0.055572093
178	0xbcfce47c	-0.030870669
179	0xbd047d50	-0.03234607
180	0xbd718ee2	-0.058974154
181	0xbcd9acf0	-0.02657172
182	0x3c826b10	0.015920192
183	0x3b0f2ee0	0.0021848008
184	0x3cfd2bd4	0.030904688
185	0xbd413aa6	-0.047175072
186	0x3d046e30	0.032331645
187	0xbcc95168	-0.02457495
188	0xbd7e3a2c	-0.062067196
189	0xbcc21670	-0.02369234
190	0xbcb2d788	-0.021831289
191	0x3c380c38	0.011233382
192	0x3c1a2590	0.00940837
193	0xbccf6194	-0.025315084
194	0x3d0bbd62	0.034116156
195	0x3c213fa8	0.009841837
196	0xbb5587c0	-0.0032582134
197	0x3d16533c	0.036700472
198	0xbd36bd16	-0.04461392
199	0x3b8377e0	0.004012093
200	0x3d1abcea	0.03777782
201	0x3cbfff28	0.023437098
202	0xbca24064	-0.019806094
203	0xbc926874	-0.017872073
204	0x3cf88814	0.030338325
205	0xbce7bacc	-0.028287314
206	0xbcbac388	-0.022798315
207	0x3cfaadd4	0.030600466
208	0xbbacc240	-0.00527218
209	0x3b706420	0.0036680773
210	0x3d3597fe	0.044334404
211	0xbcd145f4	-0.025546052
212	0x3d658eb4	0.056044295
213	0xbd734fd4	-0.059402302
214	0xbcafba4c	-0.021451138
215	0x3d4cffb8	0.05004856
216	0x3ca04164	0.01956243
217	0xbd3208b8	-0.043465346
218	0x3d1d527e	0.03840875
219	0xbd5d560a	-0.05403713
220	0x3b6dbf80	0.0036277473
221	0x3c8123f8	0.015764222
222	0xbd4ed576	-0.05049654
223	0xbcbd3f2c	-0.023101412
224	0x3d7bb1fa	0.06144903
225	0x3cd01c98	0.02540426
226	0xbca7eaa8	-0.020497635
227	0xbcf10958	-0.0294234
228	0xbcdc92c0	-0.026925445
229	0xbd01bbe0	-0.031673312
230	0xbcf1e48c	-0.029527925
231	0xbcb6e2a0	-0.02232486
232	0xbc8df0b8	-0.017326698
233	0x3d0c38c6	0.03423383
234	0x3d3b5314	0.045733526
235	0xbd2959e2	-0.041345485
236	0x3d3786f6	0.044806443
237	0xbcef98a8	-0.029247597
238	0x3d2ecdf0	0.042676866
239	0xbd6fed94	-0.05857618
240	0xbd5affc4	-0.053466573
241	0x3c421730	0.011846349
242	0x3d26dd08	0.040738136
243	0x3d58439e	0.05279886
244	0xbce26148	-0.027634278
245	0x3c211d00	0.009833574
246	0xbd27a2a2	-0.040926583
247	0x3ba0ae50	0.004903592
248	0x3d7fc402	0.062442787
249	0x3cfddcf4	0.030989148
250	0x3c92a564	0.01790113
251	0x3d3f97bc	0.046775565
252	0x3d290058	0.041260093
253	0x3d641052	0.055679627
254	0x3d448b80	0.0479846
255	0xbcde6088	-0.027145639

fc3.bias f4 [256]
0	0x3d0b57e2	0.03401936
1	0x3d641770	0.055686414
2	0x3d0fbb68	0.035090834
3	0xbb507c60	-0.0031812415
4	0x3cb74e70	0.02237627
5	0x3ad0cd80	0.0015930384
6	0xbc5bb000	-0.013408661
7	0xbd0f78fc	-0.03502749
8	0xbd370918	-0.044686407
9	0x3d6a21ce	0.057161145
10	0x3c6ae660	0.014337152
11	0x3d254b82	0.040355213
12	0x3c803144	0.015648492
13	0xbd431522	-0.047627576
14	0x3c106a48	0.008814402
15	0xbc6e42d0	-0.0145422965
16	0xbd5a7e20	-0.05334294
17	0x3c822e58	0.015891239
18	0x3ceea698	0.029132172
19	0xbd24e074	-0.040253118
20	0xbc3cee38	-0.011531405
21	0x3ce37884	0.027767427
22	0xbd120666	-0.035650633
23	0x3d6d5d28	0.05795017
24	0x3d569682	0.05238963
25	0x3d45861a	0.048223592
26	0x3bc62620	0.0060470253
27	0xbca9a524	-0.020708628
28	0x3d2bafde	0.041915767
29	0x3d2c94c2	0.042134054
30	0xbcca55fc	-0.024699204
31	0xbd52f306	-0.051501296
32	0xbcad37a8	-0.021144703
33	0x3d2b8c98	0.041882128
34	0xbd0412f6	-0.032244645
35	0x3c1ed3b0	0.009694025
36	0x3d5e8d86	0.054334186
37	0xbd083628	-0.033254772
38	0xbcd67da0	-0.02618295
39	0x3c804b58	0.015660927
40	0x3d5e57f6	0.054283105
41	0x3d7f55b4	0.062337592
42	0x3cff9948	0.03120102
43	0x3d37440a	0.04474262
44	0x3d7513c0	0.05983329
45	0xbce5913c	-0.028023355
46	0x3c39afb8	0.0113333985
47	0x3be58c30	0.007005237
48	0x3d5e1f48	0.05422905
49	0xbd12c586	-0.035832904
50	0x3b3d2340	0.0028860122
51	0x3d38abae	0.0450856
52	0x3ce34684	0.027743585
53	0x3d502d68	0.050824553
54	0xbc2bf908	-0.010496385
55	0xbc33e710	-0.010980383
56	0x3ba3c9d0	0.004998423
57	0xbd484c80	-0.04890108
58	0x3c047ec8	0.008086868
59	0xbcc3f470	-0.023920268
60	0xbb640280	-0.003479153
61	0x3cb9e378	0.022691473
62	0x3d64c44c	0.055851266
63	0x3cdf5318	0.027261302
64	0xbcd0c928	-0.025486544
65	0xbd46c2e0	-0.04852569
66	0x3cc9bb30	0.02462539
67	0x3ca10d18	0.019659564
68	0x3d1c0030	0.038086116
69	0xbd3c3782	-0.045951374
70	0x3c36aaa8	0.011149086
71	0xbd4710f8	-0.048600167
72	0x3bbe4a80	0.005807221
73	0x3cea0190	0.028565198
74	0xbd615b9e	-0.055019014
75	0xbd0fc0d2	-0.035095997
76	0x3d3561c6	0.044282697
77	0x3c984ce8	0.01859136
78	0xbc427108	-0.011867769
79	0x3bc2dff0	0.0059471056
80	0x3d11ada2	0.03556598
81	0xbcbbb770	-0.022914618
82	0xbc881a44	-0.016614087
83	0xbcf3bd34	-0.029753305
84	0xbcb127f0	-0.021625489
85	0xbd13c496	-0.03607615
86	0xbd318614	-0.043340757
87	0xbd6ca690	-0.057776034
88	0xbd7e1f96	-0.06204184
89	0x3d5b59d8	0.05355248
90	0xbc22e0f8	-0.009941332
91	0x3d1c7d46	0.038205408
92	0x3c6a55e8	0.014302708
93	0x3d090c22	0.033458836
94	0xbd0df140	-0.034653902
95	0xbc9300b8	-0.017944679
96	0xbc313960	-0.010816902
97	0xbad2ca40	-0.0016082004
98	0xbd5b0248	-0.053468972
99	0xbbcc6360	-0.0062374324
100	0x3d42973a	0.047507502
101	0x3b443880	0.0029940903
102	0xbc1fe798	-0.009759806
103	0xbd5783f8	-0.05261609
104	0xbd0fb9ee	-0.035089426
105	0x3cbb9cd8	0.022901937
106	0xbd31fc9e	-0.043453805
107	0xbd23e2a2	-0.040011056
108	0x3d050f20	0.032485127
109	0xbd63e87e	-0.055641644
110	0xbabf4e40	-0.0014595464
111	0x3d0429fe	0.03226661
112	0x3cb4de4c	0.022078656
113	0x3d0417c6	0.032249235
114	0x3d68efde	0.05686938
115	0x3d400102	0.04687596
116	0x3d550004	0.052001968
117	0x3d6fb4de	0.058522098
118	0x3d145420	0.03621304
119	0x3d488a48	0.04896
120	0x3d0b78c0	0.034050703
121	0x3d629232	0.055315204
122	0xbce61f3c	-0.028091066
123	0x3d1eb0ee	0.038742952
124	0x3c627600	0.013822079
125	0x3ce9755c	0.028498344
126	0xbc004de8	-0.007831074
127	0xbcb67738	-0.022273645
128	0x3b618c20	0.0034415796
129	0x3d203f1c	0.039122686
130	0xbd7408a8	-0.059578568
131	0x3c05a638	0.008157305
132	0x3cff91f8	0.031197533
133	0x3b515c20	0.003194578
134	0xbc96f2d0	-0.018426329
135	0xbc15f558	-0.009152733
136	0xbd153c76	-0.036434613
137	0x3d73d730	0.05953139
138	0x3c5e5b90	0.013571635
139	0x3d357678	0.044302434
140	0xbc165140	-0.009174645
141	0x3d6dae7a	0.058027722
142	0xbd2bf576	-0.041982137
143	0xbd098152	-0.033570595
144	0xbd61340c	-0.054981276
145	0x3b9c0450	0.0047612563
146	0xbd3c5780	-0.045981884
147	0xbd28d1f2	-0.041215844
148	0x3cc55dd0	0.024092585
149	0x3b67c8c0	0.003536746
150	0xbc9badc0	-0.019003749
151	0x3cbaf120	0.022820055
152	0xbd687a0a	-0.05675701
153	0xbd0901f4	-0.03344913
154	0xbd79a47e	-0.060947888
155	0xbd7daca2	-0.061932214
156	0x3cf68fe4	0.03009791
157	0x3d36c290	0.044619143
158	0x3d7e5032	0.0620882
159	0x3d764422	0.06012357
160	0xbccbd72c	-0.024882875
161	0xbd4b42a6	-0.049624108
162	0xbc0ab290	-0.008465424
163	0x3cad82cc	0.021180533
164	0x3d7319e6	0.05935087
165	0xbcb15060	-0.021644771
166	0xbbef5b50	-0.0073045865
167	0xbba83b80	-0.005134046
168	0x3ca25b48	0.019818917
169	0x3cd0e7e0	0.025501192
170	0xbd715e3a	-0.058927752
171	0x3c47ae00	0.012187481
172	0xbd3f5da4	-0.046720162
173	0xbd6db95e	-0.058038108
174	0x3c818f08	0.015815273
175	0xbbd01fd0	-0.0063514486
176	0xbd789d08	-0.06069663
177	0x3d0a98a6	0.033836983
178	0x3c92cf8c	0.017921232
179	0x3d3db50c	0.046315238
180	0x3cc24fec	0.02371975
181	0x3d0b5514	0.034016684
182	0xbad5d440	-0.0016313866
183	0xbd1c00e2	-0.03808678
184	0x3d519e82	0.051176555
185	0xba9f3780	-0.0012147278
186	0xbb8c4dc0	-0.0042817295
187	0xbc8904c0	-0.016725898
188	0xbb7e9ee0	-0.003885202
189	0x3c146b78	0.009058826
190	0x3d67572e	0.056479625
191	0xbca06e20	-0.019583762
192	0xbcf8d9bc	-0.030377261
193	0xbcd89d44	-0.026442178
194	0x3d5aec3c	0.053447947
195	0xbb1113c0	-0.0022137016
196	0xbcdc1174	-0.026863791
197	0x3d6ca9dc	0.057779178
198	0xbbd63e30	-0.006538175
199	0xbd2db264	-0.042406455
200	0xbd49b652	-0.04924614
201	0xbd574d28	-0.052563816
202	0x3ab20400	0.0013581514
203	0x3d777d0c	0.06042199
204	0x3d29e034	0.041473582
205	0x3d47e3c2	0.04880119
206	0x3cf9a11c	0.03047233
207	0xbcc584c8	-0.024111167
208	0x3d4a1490	0.049336016
209	0xbc97ccdc	-0.018530302
210	0xbd7636a0	-0.06011069
211	0x3d302088	0.042999774
212	0x3d2ef89c	0.04271756
213	0x3d1ac562	0.037785895
214	0x3c6e96a8	0.014562286
215	0x3d33c8ba	0.0438926
216	0x3c5fdb58	0.0136631355
217	0x3d73a5a6	0.059484147
218	0x3cccc9d8	0.02499859
219	0x3cb92a60	0.022603214
220	0xbcd70514	-0.026247539
221	0xbca1f254	-0.019768871
222	0x3d272acc	0.0408123
223	0xbc6e94e8	-0.014561869
224	0x3d243c48	0.04009655
225	0x3cda7f90	0.026672155
226	0xbd298580	-0.04138708
227	0x3c30d620	0.010793239
228	0x3d4e0dae	0.050306015
229	0xbcfb8b18	-0.030705974
230	0x3cea63e0	0.028612077
231	0xbcaf2114	-0.021378078
232	0xbd09e260	-0.033663154
233	0xbcdb0e64	-0.02674026
234	0x3c23c388	0.009995349
235	0xbcf609b0	-0.030033916
236	0xbccff5d4	-0.025385775
237	0xbcd565e8	-0.02604957
238	0x3cfaffa0	0.03063947
239	0x3c126b68	0.00893674
240	0x3d5e9c60	0.05434835
241	0x3ce032cc	0.027367972
242	0x3c42bfd8	0.011886559
243	0x3d4bc1f6	0.049745522
244	0xbc3ca200	-0.011513233
245	0x3d727dfa	0.05920217
246	0x3d03ecdc	0.03220831
247	0x3d040334	0.032229617
248	0x3d387f7c	0.045043454
249	0x3c8d8158	0.01727359
250	0xbd47361a	-0.04863558
251	0xbc4c38f8	-0.012464754
252	0x3ce4c4dc	0.027925901
253	0x3d1222be	0.035677664
254	0x3c2d1368	0.010563709
255	0xbbfaf6f0	-0.007658832

output.weight f4 [4, 256]
0	0xbc9e6118	-0.019333407
1	0xbcb1c66c	-0.02170106
2	0x3a4ae780	0.00077401847
3	0x3d62f796	0.055411898
4	0xbd676122	-0.056489117
5	0xbcff52ec	-0.03116747
6	0x3bde7350	0.0067886487
7	0x3c7d3118	0.015453599
8	0xbd3b309e	-0.04570066
9	0xbcc1f9f0	-0.02367875
10	0xbd695c0e	-0.056972556
11	0x3b787f20	0.003791757
12	0x3b313260	0.0027038082
13	0x3d265612	0.040609427
14	0xbc81b4ec	-0.01583334
15	0x3ce4a03c	0.027908437
16	0xbd0df630	-0.03465861
17	0xbcda5754	-0.02665297
18	0xbd453368	-0.048144728
19	0xbd6708ba	-0.056404807
20	0xbc8593b0	-0.016305774
21	0xbc2bbdc8	-0.010482259
22	0xbcfcd450	-0.030862957
23	0x3d0c0d4a	0.03419236
24	0x3d198d2e	0.037488155
25	0xbd14a45c	-0.036289558
26	0xbb84a0e0	-0.004047498
27	0xbd22bf76	-0.039733373
28	0x3d39f534	0.04539986
29	0xbd05371c	-0.03252326
30	0xbd209a70	-0.039209783
31	0xbcbc24bc	-0.022966735
32	0x3c313bd8	0.0108174905
33	0x3d3507f8	0.044197053
34	0xbc8178e4	-0.015804715
35	0x3c0efbf8	0.008727066
36	0x3d222ae6	0.039591692
37	0x3cf89ae4	0.030347295
38	0x3b645dc0	0.0034845918
39	0xbcfd78d8	-0.030941412
40	0x3cef2ae0	0.02919525
41	0x3c928bf0	0.017888993
42	0xbd071ad6	-0.032984577
43	0xbc18a0b0	-0.009315655
44	0x3c23cef8	0.009998076
45	0x3cfd330c	0.03090813
46	0xbd1fb1c2	-0.038987882
47	0x3d2f092a	0.04273335
48	0x3c642358	0.013924442
49	0x3cd3b52c	0.025843225
50	0x3d43455a	0.04767356
51	0xbc744e90	-0.014911309
52	0x3d624ca4	0.05524887
53	0x3b8d0070	0.0043030307
54	0xbd5a0298	-0.05322513
55	0xbcf4d5b0	-0.02988705
56	0xbd42a54e	-0.047520928
57	0xbd0dde94	-0.034636095
58	0x3d7f42e6	0.06231966
59	0x3d35d958	0.04439673
60	0x3cb8a3ec	0.022539102
61	0xbd08de26	-0.033414982
62	0xbd6dfeda	-0.058104374
63	0xb92e6800	-0.00016632676
64	0x3c84fa98	0.016232774
65	0xbc1a8a90	-0.00943245
66	0x3ced9384	0.029001005
67	0x3c8959f4	0.016766526
68	0x3d2a37d2	0.04155714
69	0x3cfa8edc	0.030585699
70	0x3b1bfe20	0.0023802593
71	0xba4b9b80	-0.0007767007
72	0xbb629060	-0.0034570917
73	0x3d34a0ce	0.044098668
74	0x3d617b12	0.05504901
75	0xbcac0bf8	-0.0210018
76	0x3b7faee0	0.0039014146
77	0xbcba6674	-0.022753932
78	0x3d49bc96	0.049252115
79	0xbd122e7c	-0.035688862
80	0x3c15bdd0	0.009139493
81	0x3c829268	0.015938953
82	0xbca9f474	-0.020746447
83	0x3d6946fc	0.05695246
84	0xbc6a32a8	-0.014294304
85	0xbca73e58	-0.02041547
86	0x3d06a7fa	0.03287504
87	0xbb24a340	-0.0025121719
88	0x3cfa9cb4	0.0305923
89	0x3c37c4a0	0.011216313
90	0x3d70f406	0.05882647
91	0x3d00048e	0.031254344
92	0xbceca0ac	-0.028885208
93	0x3bcd53a0	0.0062660724
94	0x3d6f5168	0.058427244
95	0x3d162ada	0.03666196
96	0x3d11775e	0.035514228
97	0xbbf8bc60	-0.0075908154
98	0xbc81f5b4	-0.01586423
99	0xbc9e816c	-0.019348823
100	0xbd0c05f6	-0.034185372
101	0x3c695788	0.0142420605
102	0xbcfec988	-0.031101957
103	0xbc7a8cf8	-0.015292399
104	0xbd373a6e	-0.044733457
105	0x3c247cf8	0.0100395605
106	0xbd345ab4	-0.044031814
107	0xbbe30ae0	-0.0069287866
108	0xbd6006b8	-0.054693907
109	0xbd28dafa	-0.041224457
110	0x3c1778a0	0.009245068
111	0x3d7f1ddc	0.062284335
112	0xbc919910	-0.017773181
113	0x3c9e2684	0.019305475
114	0xbbe04c30	-0.0068450198
115	0xbd4a9698	-0.049460024
116	0xbbd22510	-0.0064131096
117	0x3d5f0746	0.054450296
118	0x3cb0a604	0.021563537
119	0x3d14769e	0.036245935
120	0xbd013efc	-0.031554207
121	0x3ca6a18c	0.020340703
122	0x3d677776	0.05651041
123	0x3d77d07c	0.06050156
124	0x3d5861ca	0.052827634
125	0x3b494740	0.0030712634
126	0x3c4bec00	0.0124464035
127	0x3b1eae40	0.0024212748
128	0x3c168cf8	0.009188883
129	0xbcbfa080	-0.023391962
130	0x3c9ae540	0.018908143
131	0x3a12cc80	0.0005599931
132	0xbca7fc94	-0.02050618
133	0xbc790420	-0.015198737
134	0xbd7fea86	-0.06247952
135	0xbbeb97e0	-0.007189736
136	0x3d33879c	0.0438305
137	0x3c9d3db0	0.019194454
138	0xbd2077b0	-0.039176643
139	0xbd72ad2e	-0.05924719
140	0x3d541c58	0.051784843
141	0x3bf08110	0.007339604
142	0xbd346b5e	-0.044047706
143	0x3ca9f874	0.020748354
144	0x3a96c700	0.0011503398
145	0xbc46e020	-0.0121383965
146	0x3b3ae640	0.0028518587
147	0xbba1cf50	-0.0049380437
148	0xbd5c4ad8	-0.053782314
149	0xbd487664	-0.04894103
150	0x3c8e0d2c	0.017340265
151	0xbd418af4	-0.047251657
152	0x3cc27188	0.023735777
153	0x3d6e8e9c	0.05824147
154	0x3d428b60	0.0474962
155	0xbd53465e	-0.05158078
156	0xbd27ef98	-0.04099998
157	0x3d4f9dfc	0.050687775
158	0xbc8f34ec	-0.01748129
159	0x3d0142d8	0.031557888
160	0xbd436d48	-0.04771164
161	0x3bf685a0	0.0075232536
162	0x3d1503e0	0.03638065
163	0x3cbf8e24	0.023383208
164	0x3d4a4008	0.04937747
165	0xbd4c3574	-0.049855664
166	0x3c9b6790	0.01897028
167	0xbd17568a	-0.036947764
168	0xbcb45edc	-0.022017889
169	0x3d4826ba	0.048865058
170	0xbc9e52d0	-0.019326597
171	0xbd4d6f28	-0.050154835
172	0x3d5347f6	0.0515823
173	0x3c1e3178	0.009655349
174	0xbd3ef384	-0.046618953
175	0xbbad4eb0	-0.0052889213
176	0xbcb72004	-0.022354133
177	0xbd660ad2	-0.056162663
178	0xb9afc000	-0.00033521652
179	0x3d7ebf00	0.06219387
180	0x3d58140e	0.0527535
181	0xbd184b76	-0.03718134
182	0xbcc5ec18	-0.02416043
183	0xbd56101c	-0.052261457
184	0xbd61d068	-0.055130392
185	0xbcfa3358	-0.03054206
186	0x3c8bfa88	0.017087236
187	0x3d733fb8	0.05938694
188	0x3c29e748	0.010370083
189	0x3d1305fc	0.03589438
190	0xbc5811c8	-0.013187833
191	0x3d6f19c4	0.05837418
192	0xbc71ee00	-0.014766216
193	0xbd5cceca	-0.053908147
194	0xbc862f90	-0.016380101
195	0xbd55c6f2	-0.052191682
196	0xbb4cb8e0	-0.0031238124
197	0x3ca528b0	0.020161003
198	0x3c73ca18	0.014879726
199	0x3c6cda68	0.014456369
200	0xbd10eb14	-0.035380438
201	0x3cdd2d98	0.02699928
202	0x3c060378	0.008179538
203	0xbd2a64e6	-0.04160013
204	0xbc9ee958	-0.019398376
205	0xbd3cee02	-0.04612542
206	0x3d6ea864	0.05826606
207	0xbd0c5aae	-0.034266166
208	0xbc9eee3c	-0.019400708
209	0x3d4276e4	0.047476664
210	0x3a85f280	0.0010219365
211	0xbcbed880	-0.023296595
212	0x3cca6890	0.024708062
213	0x3cb30728	0.021853998
214	0xbd084dac	-0.0332772
215	0x3d11a634	0.035558894
216	0xbd0ddc1e	-0.03463375
217	0xbbee47d0	-0.0072717443
218	0xbca98504	-0.02069331
219	0xbc0a72b8	-0.008450203
220	0xbd1ddce0	-0.03854072
221	0xbcf42384	-0.029802091
222	0x3c84e068	0.016220286
223	0xbd59bcf8	-0.05315873
224	0x3cf6fdac	0.030150257
225	0xbbcad080	-0.006189406
226	0x3d0cc02a	0.03436295
227	0xbd01474a	-0.031562127
228	0x3d6eba4c	0.058283135
229	0x3cfe6064	0.031051822
230	0x3d4bdd68	0.049771696
231	0xbbc289c0	-0.0059368312
232	0x3cba23c0	0.022722125
233	0xbd1d8d94	-0.038465098
234	0x3d6e23f4	0.058139756
235	0xbbe06d90	-0.0068489984
236	0x3d681884	0.056664005
237	0xbd02ef6c	-0.03196661
238	0x3c288430	0.010285422
239	0x3d1318c0	0.035912275
240	0x3b40b3e0	0.002940409
241	0xbd33a388	-0.043857127
242	0x3d08d9b0	0.033410728
243	0xbd558320	-0.052127004
244	0x3d207480	0.039173603
245	0xbca9e474	-0.020738818
246	0xbd09c99e	-0.033639543
247	0xbd66e40a	-0.05636982
248	0x3d594468	0.053043753
249	0x3d544aba	0.051829077
250	0x3bf20640	0.007385999
251	0x3baf89c0	0.0053569973
252	0xbd0e4776	-0.03473612
253	0xbc882390	-0.01661852
254	0xbcc26eac	-0.023734413
255	0x3cfd6734	0.030933

output.bias f4 [4]
0	0xbd38d8d8	-0.045128673
1	0xbd0a5940	-0.03377652
2	0xbcc136a0	-0.023585618
3	0xbd6f8f76	-0.058486424
