fetch_sticky_mittens_step_4_blocks/networks/ours_10k_block_4_uber_level_0_seed_200/network_release_and_lift_3.pth (torch, 622647 bytes, 8 tensors)

fc1.weight f4 [256, 85]
000000 3a 7d a7 3c a5 1a cf bd 3f d5 ec 3b 9b f8 fc 3c
       0.020445455 -0.10112504 0.0072275694 0.030880263
000010 27 a2 c8 bd bb 3a db 3d b3 81 d4 3d 90 b5 72 3d
       -0.09796553 0.10704561 0.10376301 0.059255183
000020 80 c8 9c 3c d3 ac a6 3d 15 dc 02 bd d6 03 59 3d
       0.019138575 0.08138432 -0.031948168 0.052982174
000030 b0 7c 83 3d 7d 3a b7 bd c5 fa 23 3d 05 3a cb 3d
       0.06420267 -0.08946703 0.040034074 0.09923176
000040 47 47 c5 3d 94 e8 b8 3d ec c3 2a bd 9b a1 e5 bc
       0.09632736 0.09028736 -0.041690752 -0.028031161
000050 42 65 db 3d 28 21 c5 bc 88 4b 9f bd af 0b bb bd
       0.10712673 -0.024063662 -0.07778078 -0.09133088
000060 a1 80 14 bc f3 b8 d9 bc a2 30 23 bd f7 5d 62 3d
       -0.009063871 -0.026577448 -0.0398413 0.055265393
000070 ee a9 aa 3c d1 75 30 3c c1 e7 4c bd 18 ac 39 3d
       0.020832982 0.010770277 -0.050025705 0.045330137
000080 f5 4c ad bd 2b 0b 8c 3d 4e 19 3f bd 29 37 c7 3d
       -0.08461944 0.068380676 -0.04665499 0.09727318
000090 61 0a b6 bd 4f 81 2f bd 7b 8d 8e 3d 80 38 bf bc
       -0.08888698 -0.042847928 0.06960579 -0.023342371
0000a0 08 35 4a 3b f9 30 b9 bd 53 81 62 bd cc 8a cd 3d
       0.0030854363 -0.09042544 -0.055299114 0.10036239
0000b0 24 05 b4 bb 1c 06 12 bc 9f 94 c7 bd 70 39 42 bd
       -0.005493777 -0.008912589 -0.09745144 -0.047418058
0000c0 c2 c0 7c 3d 27 61 50 3d 40 2d bf 3b 8f a7 82 bc
       0.061707266 0.0508739 0.0058342516 -0.015949039
0000d0 9b 7f d8 3d c6 e7 73 3d bd 22 49 bd 57 28 ff 3c
       0.10571214 0.05954721 -0.049105395 0.031147165
0000e0 3a d8 3e bd a4 95 82 3d e2 98 06 3d a3 5e a6 3d
       -0.04659293 0.06376198 0.032860644 0.08123519
0000f0 0c 8b 2d 3d b8 a4 69 bc 0c 0f d6 bd 3f ec 6d bd
       0.042368934 -0.014260463 -0.10452089 -0.05808663
000100 f4 02 46 bc 92 b6 a4 3d 05 39 3a 3c a4 fa 0c bd
       -0.012085665 0.08042635 0.011366134 -0.034418717
000110 ff b7 7e bc 46 0f b6 3d ee 91 64 3d cb 5e d1 3d
       -0.015546798 0.08889632 0.055803232 0.102231584
000120 37 a8 90 3d 85 e4 23 3d 7f e1 91 bd fb 09 b1 bb
       0.070633344 0.040012855 -0.07123088 -0.005402801
000130 97 88 34 3d a0 e4 3a 3d 74 62 8d 3d 93 be 8a bd
       0.044075575 0.04562819 0.06903544 -0.067746304
000140 ec b7 b7 bd 2b 97 d5 bd e8 3e 63 3d 94 4c 9d 3d
       -0.08970627 -0.104292236 0.055479914 0.07680622
000150 c2 c2 95 bd 35 a0 ac 3a 86 62 63 bd d2 e2 96 bd
       -0.07312538 0.0013170304 -0.05551388 -0.07367481
000160 04 4f 56 3b 9e 6e ac bd 2c 3c 79 3d 13 db 3c 3b
       0.0032700906 -0.08419536 0.0608484 0.0028817102
000170 b6 df 44 3d c5 72 23 bd 22 60 8f 3d 90 3f f7 3c
       0.04806491 -0.039904375 0.07000758 0.030181676
000180 7b 1c c0 bd 87 aa d9 bd a9 92 ff 3c 95 6c ed 3c
       -0.09380432 -0.10628229 0.031197863 0.02898244
000190 a8 ea 3a 3d 5b be b6 b9 4e ed a0 3d df 07 70 3d
       0.045633942 -0.0003485557 0.07857762 0.058601256
0001a0 f3 7b 8b bb 69 ba 87 3d 13 11 88 bd b9 8c c3 3d
       -0.0042567193 0.06627352 -0.06643882 0.09548325
0001b0 3b b8 d9 3d d6 55 9e bd f8 93 eb bb 97 17 88 bd
       0.10630842 -0.07731216 -0.00718927 -0.066451244
0001c0 16 64 61 3c f2 ed b6 3d 24 72 f8 3c b8 55 8c 3d
       0.0137567725 0.08932103 0.030327864 0.06852287
0001d0 f6 27 ea ba 39 3f e9 3c 7c 38 82 3d a2 b0 83 bd
       -0.0017864692 0.02847253 0.0635843 -0.064301744
0001e0 c2 53 92 3d c7 5d 90 bd 78 46 f5 bc 00 c5 46 bd
       0.07144882 -0.070491366 -0.029940829 -0.048527718
0001f0 d0 7f ad bd 02 61 c3 3b d9 3a d2 bd 3d 88 07 3c
       -0.08471644 0.005962492 -0.102651305 0.008272228
000200 86 70 2f bd 3f b6 6b 3c 71 49 9c bd 1e d1 a9 bd
       -0.04283192 0.014386713 -0.07631195 -0.08291839
000210 ee 35 eb 3b 52 61 7e bd b2 4f f1 bc 57 f6 26 3d
       0.00717806 -0.06210453 -0.029456947 0.04076227
000220 97 7b 6d bd de cb 8f 3d 70 52 9f bd a5 4f b8 bd
       -0.057979193 0.070213065 -0.077793956 -0.08999566
000230 ea d7 c6 3d 62 10 52 bd 31 49 47 3d 08 d1 b2 3d
       0.09709151 -0.051285155 0.048653785 0.08731276
000240 04 cb d5 bc 18 03 09 bd 42 4e 5e 3d 52 4a aa 3d
       -0.026097782 -0.033450216 0.05427385 0.08314957
000250 bb c3 c7 3b ef de b0 3d f0 a6 73 3c 39 5e a1 bd
       0.006096331 0.08636271 0.014871344 -0.078793
000260 4e 08 68 bd eb 63 58 bd f2 94 bc bd 6b 08 b3 bb
       -0.056648545 -0.052829664 -0.092080966 -0.00546365
000270 d4 99 a0 bc a9 85 80 bd 5e 20 de bd 02 34 53 bd
       -0.019604601 -0.06275494 -0.10846017 -0.05156327
000280 75 69 8a bd b3 a7 a8 bd 2f 43 ff 3c 43 49 ca 3d
       -0.067583956 -0.08235111 0.031159965 0.09877255
000290 5a ee 66 3d 05 d4 60 bd 30 be d5 bd 0e 56 31 3d
       0.056379654 -0.054889698 -0.10436666 0.04329496
0002a0 eb 61 49 bd 1f 55 84 bd 17 4c d1 39 91 7a d2 bd
       -0.049165647 -0.06461548 0.00039920278 -0.10277284
0002b0 17 77 85 bb 4e 80 2f bd 2d 7a 8d bd 0d b4 80 3b
       -0.0040730345 -0.04284697 -0.06908069 0.0039277137
0002c0 a2 e7 c3 bd 21 15 47 3d 5b 8c 99 bd cf ac b3 3d
       -0.09565665 0.048604134 -0.07497474 0.08773195
0002d0 7e f6 5f 3d b5 8c ce bd 1f 7a a4 bc b7 35 4b 3d
       0.054678433 -0.100854315 -0.020077763 0.049611773
0002e0 a0 2d 7f bd 6d 16 a5 3d 56 5c 9c 3b 81 4b 3b bd
       -0.06229937 0.08060918 0.0047717495 -0.045726303
0002f0 29 dc b7 bb 6a f9 03 bd 18 13 b0 bd 1f 79 da 3d
       -0.005610962 -0.03222028 -0.08597392 0.10667633
000300 78 e1 d0 3d 53 f3 81 bd 63 07 20 bd d0 53 b4 bd
       0.10199255 -0.063452385 -0.039069545 -0.088050485
000310 d5 28 ac 3d e9 58 35 bc 7c cd 43 3d cf 5c 34 bd
       0.084062256 -0.011068561 0.047803387 -0.04403382
000320 31 49 c2 bd c8 63 be bd ee 6d f1 3c 1f a0 6e 3d
       -0.094866164 -0.092963755 0.029471364 0.058258172
000330 e5 01 80 bd bf 20 2f 3d b8 5e 95 bd 65 ee 9e bd
       -0.06250361 0.04275584 -0.07293457 -0.07760314
000340 ca 8d d2 3d a7 47 5b 3d 05 e7 d8 bd 0f 4b 9d 3d
       0.1028095 0.05353513 -0.105909385 0.07680332
000350 bc 68 b3 bb cd 36 71 3d 18 48 d3 3d 3d 9b ab bc
       -0.005475132 0.058890153 0.10316485 -0.020948047
000360 39 26 f4 bb 1f 14 c6 3d 3b 3e 76 3d 93 f8 59 3d
       -0.0074508456 0.096718065 0.06011794 0.053215574
000370 30 30 8a 3d 5f 59 85 3c a4 fc 6e bd 5e 10 14 bc
       0.06747472 0.016277967 -0.058346406 -0.009037105
000380 6b 50 b2 bd 57 13 9e 3d 9a 1a 21 bc d4 08 31 bd
       -0.08706745 0.077185325 -0.009833002 -0.04322131
000390 5d a8 26 bb a2 67 25 bd cb a8 b5 3b 8a d3 c7 bc
       -0.0025429942 -0.040382035 0.0055438033 -0.024392862
0003a0 c0 91 87 bd 15 65 2f 3d 27 dc 25 bd cb cd 2a 3d
       -0.066195965 0.04282101 -0.040493157 0.041700166
0003b0 74 16 bd bd d4 f9 d6 bd 27 d7 d3 3d ad 0c 7e bc
       -0.09232798 -0.1049687 0.103437714 -0.015505952
0003c0 71 96 a9 3d 44 fd af bd 3f 3f 56 3d c3 3b cb 3d
       0.082806475 -0.085932285 0.05230641 0.09923508
0003d0 0b f0 10 bd 6d c0 b8 bd 88 3e 26 bd 89 c3 cd bd
       -0.035385173 -0.09021077 -0.04058698 -0.10047061
0003e0 b1 d5 9d bd e8 dc 7f 3d c2 cc 74 3d 43 09 06 bd
       -0.07706774 0.062466532 0.059765585 -0.032723676
0003f0 ad 42 30 3d b7 b3 71 bd b2 db 51 3d 3e ad b7 3d
       0.043032337 -0.05900928 0.05123491 0.0896859

fc1.bias f4 [256]
000000 27 df c2 3d 94 0a ac 3d 31 b2 a3 3c b4 c3 52 bd
       0.09515219 0.08400455 0.01998243 -0.05145617
000010 b5 f5 c6 3d e5 43 18 bd 52 34 ce 3c 57 56 f7 bc
       0.09714834 -0.037174124 0.025171433 -0.030192537
000020 bd 62 cd bd 53 4c 62 bd 8c f9 b1 3d a5 70 b3 bd
       -0.100285985 -0.05524857 0.086901754 -0.087617196
000030 5b f6 9b 3d c6 0c 01 3d 9d 8b ff 3b ba df 81 bd
       0.07615348 0.031506322 0.0077986256 -0.063415006
000040 7f 34 b7 bd de 14 ae 3d eb 6b c5 3d 31 18 8b bd
       -0.0894556 0.08500074 0.09639724 -0.067917235
000050 c0 c8 b5 3d e1 21 56 bd fb 89 93 3d 5d 17 6f 3d
       0.08876181 -0.052278403 0.07204052 0.05837189
000060 b8 f6 74 3d c5 4e 9b 3d 18 a6 c5 3d d9 ac aa bd
       0.0598056 0.075833835 0.096508205 -0.08333749
000070 03 da 30 bd d4 a8 49 bd 18 81 37 3d 80 28 1e bc
       -0.043176662 -0.049233273 0.044800848 -0.009653211
000080 8e 12 62 3d 95 c4 09 bd 71 ba 31 3d 8e 79 aa 3d
       0.055193476 -0.03363474 0.043390695 0.08323966
000090 a8 a0 bf bd 31 47 f3 bc 81 19 51 3d 31 3b c8 bd
       -0.093568146 -0.029697033 0.051049713 -0.09776915
0000a0 7a a8 81 bc 11 10 93 3c d3 de cd 3d 50 1a d7 3d
       -0.015827406 0.017951997 0.10052266 0.105030656
0000b0 03 e6 c3 3c a1 f7 ec bb ed f2 cf 3d e4 30 9e bd
       0.02391339 -0.007231668 0.10153756 -0.07724169
0000c0 67 d8 51 bd 0d ff 99 bd 33 04 48 3d dd 3a 45 3d
       -0.051231768 -0.0751935 0.04883213 0.04815184
0000d0 d9 92 0e 3d 38 ad ab 3d cd 0c f1 3c fd cb c6 bd
       0.034808014 0.08382648 0.02942505 -0.097068764
0000e0 06 1e 8a 3d f6 ae 3d bd aa 0e d5 3d cd 25 d5 3d
       0.06744008 -0.046309434 0.104031876 0.104076006
0000f0 be 3a ed 3c 2b 9f 95 bc 05 96 36 bd 26 2e 10 bd
       0.028958675 -0.018264374 -0.044576664 -0.03520026
000100 fd d1 03 3d 40 37 9e 3c a7 e6 91 3c 9e b1 c6 3d
       0.032182682 0.019313455 0.017810179 0.097018465
000110 ae 60 d3 bd ce 69 6b 3d 65 da 93 bd 16 87 aa 3c
       -0.103211746 0.05747395 -0.0721939 0.020816367
000120 a3 02 aa bd d0 bb 1c bd 11 50 88 3d 54 b0 9c 3d
       -0.08301284 -0.03826505 0.066558965 0.076508194
000130 1d a5 c4 3d 34 38 be bd e7 17 d2 3d 8b 1b bf 3d
       0.09601805 -0.09288064 0.10258465 0.09331425
000140 96 9a 15 3c 7f 81 51 bd 2f 7c 6f 3c 90 66 2d bd
       0.009131094 -0.051148888 0.01461701 -0.04233414
000150 4a f8 98 3a 70 b7 db bd 03 d5 a3 bb 5d 57 e0 3b
       0.0011670676 -0.10728347 -0.004999758 0.006846352
000160 7e be a9 3d 0c f6 a2 bd 0f e6 62 3d db 7d bc bd
       0.082882866 -0.07957086 0.055395182 -0.092036925
000170 34 eb b3 3d 77 1a da 3d b6 44 87 3d ad 7a a2 3d
       0.08785096 0.10649579 0.066049024 0.07933555
000180 61 0b c4 3c 83 67 94 bd b3 37 c1 bd d8 84 85 3d
       0.023931207 -0.07246306 -0.09434452 0.065194786
000190 1d c8 9d bd fe c5 89 bc f0 a7 d2 3d 32 b9 90 3d
       -0.07704184 -0.016818043 0.10285938 0.07066573
0001a0 28 fd 9a 3d d6 50 d1 3c 5a f7 89 bd da 3a 53 bc
       0.07567817 0.02555124 -0.06736632 -0.012892449
0001b0 15 56 69 bd 5a 9f 64 3d f2 32 c5 3c e6 44 b4 3d
       -0.05696686 0.055816032 0.024072144 0.08802204
0001c0 df 07 87 bb 59 9e 34 3d fd cc 41 3d 7f 2c 0b bd
       -0.0041208114 0.044096325 0.047314633 -0.03397798
0001d0 95 b6 d8 bc 04 bc 6f 3b e2 78 b6 3d f0 42 89 3d
       -0.02645425 0.0036580572 0.08909775 0.067022204
0001e0 e2 9b ac bd 3a 8c 82 bd 3b 88 84 bd cc 22 8a 3d
       -0.0842817 -0.06374402 -0.064712964 0.06744918
0001f0 28 f7 cb bd 0e 70 d4 bd ed 0a 5b 3d a5 99 c0 3d
       -0.09959251 -0.10372935 0.053477217 0.09404305
000200 9a 72 5d 3d 27 72 12 bd 8f dc 81 3d 26 f8 68 bd
       0.05406437 -0.035753395 0.06340896 -0.056877278
000210 28 ce 9c 3d b9 4c 3b 3d 97 18 50 bd 55 ad b2 3c
       0.07656509 0.045727465 -0.0508047 0.021811167
000220 a3 d7 c0 3d ac bb 7c 3d 60 9d 72 3d 89 a9 d3 3d
       0.094161294 0.061702415 0.059232116 0.10335071
000230 a7 65 f0 bc e3 06 d1 bc b2 c7 c4 bd 32 68 19 bd
       -0.029345347 -0.02551598 -0.09608401 -0.037452884
000240 86 b1 35 3c dc 57 a8 bd 3e 20 81 3c e3 95 3c 3d
       0.011089688 -0.08219883 0.015762445 0.04604138
000250 28 a5 07 bd cd a3 ba 3b bd 37 d9 3c 83 96 8c 3d
       -0.03311649 0.005695796 0.026515836 0.06864645
000260 8a f0 24 bd 83 a7 39 bc 97 16 54 bd 1f d7 d1 3d
       -0.04026846 -0.011331442 -0.051779356 0.10246109
000270 97 ae 9e 3c 1b f9 9a bd bb ea b3 bd a0 8a 42 3c
       0.01937036 -0.07567044 -0.08785006 0.011873871
000280 39 1d 6a 3d 44 c2 be bd 9a 18 17 bc 38 4e a0 bd
       0.057156775 -0.09314397 -0.009222174 -0.07827419
000290 1c 4d cb bd 61 78 30 3d 09 2b 06 ba 60 35 cf 3d
       -0.09926817 0.043083552 -0.0005118107 0.10117602
0002a0 b0 3c c6 bd 1b 62 56 bb 2e 74 86 bd 7b db 36 3d
       -0.09679544 -0.0032712284 -0.06565128 0.044642907
0002b0 7d 62 24 bd f1 1a 9e 3d c0 29 af bd 4d d3 dc 3d
       -0.04013299 0.077199824 -0.08552885 0.1078249
0002c0 d9 b0 20 3c f0 7d b4 3d 81 c8 cf bd 69 f2 ea bc
       0.009807789 0.08813083 -0.10145665 -0.028680043
0002d0 4d a8 67 bd 9b e0 91 bc 0e e5 b7 bb 37 e7 b9 3d
       -0.05655699 -0.017807296 -0.0056120222 0.09077304
0002e0 e9 23 2d 3d 44 e7 7f bc f3 19 af 3d 99 6b 0e 3d
       0.042270575 -0.015619103 0.08549871 0.034770582
0002f0 75 73 55 3d 9a 97 38 3d 79 37 c5 3c d2 15 67 bd
       0.05211206 0.045066454 0.024074303 -0.056417294
000300 21 01 d4 bd 39 14 a6 3d e3 33 4e bd b9 5e a7 bc
       -0.10351778 0.08109326 -0.05034245 -0.02043091
000310 bf 23 c1 bd 87 c8 a5 bd 0f 52 b4 bd 0f 27 b7 3d
       -0.09430646 -0.08094888 -0.08804714 0.08942997
000320 03 a2 df 3c f1 bf 43 3d 38 eb ae bb 82 4d c8 3d
       0.027298933 0.04779047 -0.005338099 0.097804084
000330 a5 1b 03 3d b8 41 cf bb 3b 51 c4 3d 89 a3 48 bd
       0.032008786 -0.006324973 0.09585806 -0.048984084
000340 cb 03 c4 3d 5d 8b 69 bd 51 13 58 3c 17 8a c1 bd
       0.09571036 -0.057017673 0.013188199 -0.09450167
000350 de ef 73 bd 95 8e 1f 3d b3 aa 96 3d 99 bd d5 3d
       -0.059554927 0.038954336 0.07356777 0.104365535
000360 14 e9 7c 3d 2c b7 3c bc 0b 70 bb 3d 8c cb 9e 3d
       0.061745718 -0.011518281 0.0915223 0.07753667
000370 ee a6 11 bc 1b f3 8d 3c 23 89 43 3b 6f 80 08 bd
       -0.008889897 0.017327836 0.0029836379 -0.03332561
000380 77 01 9e bd 4c 64 aa bc db 6a 88 bd ab 95 97 3d
       -0.07715123 -0.020799778 -0.06661006 0.07401594
000390 12 00 db bd e8 28 6c 3d 9b 74 87 bd ae 61 83 3d
       -0.10693373 0.0576562 -0.066140376 0.06415115
0003a0 ab 40 82 3d d3 48 4c bd 9c 65 9b 3d f9 e1 88 bd
       0.06359991 -0.049874138 0.0758774 -0.06683726
0003b0 91 ba 92 3c 13 43 d9 bc 79 5c 3d bd 78 68 c4 3d
       0.017911227 -0.026521241 -0.046230767 0.09590238
0003c0 2c f0 b5 bd 11 64 86 bd 6b 42 10 3d b0 81 0c 3d
       -0.088837 -0.06562055 0.03521959 0.034303367
0003d0 ef 24 9e 3d b4 28 77 3c 3a f0 ad bd 75 12 c6 3d
       0.07721888 0.015085388 -0.08493085 0.09671489
0003e0 22 0a 7f 3d 90 aa d6 ba 5c 83 15 3d 24 4a 47 3b
       0.062265523 -0.0016377736 0.036502227 0.0030409181
0003f0 3d a5 a4 3d 10 30 2b 3d 12 7e 52 3c 0f 75 6b bd
       0.08039329 0.041793883 0.01284744 -0.057484683

fc2.weight f4 [256, 256]
000000 8c d8 3b 3d 3a 37 6d bd 20 bf be 3c 08 c3 65 bd
       0.045860812 -0.057913996 0.023284495 -0.0560942
000010 da 46 3e 3d 60 99 1a bc c0 57 54 3b 82 40 3b 3d
       0.046454288 -0.0094359815 0.0032400936 0.045715816
000020 94 b8 c6 3c 98 85 52 3c 7a ce 37 3d 3c cf d5 bc
       0.024257936 0.012849234 0.044874646 -0.026099794
000030 78 fc 42 3c 8e cf 06 3d a0 68 60 3c 38 2d e7 3c
       0.011901014 0.032912783 0.01369682 0.028219804
000040 32 29 58 3d fe 88 68 3d 00 5f 5e 3b 34 97 34 3d
       0.052773662 0.05677127 0.0033931136 0.04408951
000050 2c de a6 bc d0 a0 46 3c dc f6 5a bd 5e ec 67 3d
       -0.020369612 0.012123302 -0.05345808 0.0566219
000060 2e 8a 72 3d 34 ae 65 bd 46 ff 6c bd 48 f1 3c 3c
       0.05921381 -0.056074336 -0.057860635 0.011532135
000070 c2 25 03 bd e8 00 77 bc 98 ae 56 3c 06 ed 0b bd
       -0.03201843 -0.0150759 0.01310315 -0.03416159
000080 5a 91 0b bd 6a 27 24 bd f8 c8 3d bd c8 a8 79 bd
       -0.034074165 -0.04007665 -0.046334237 -0.060951978
000090 b0 2d f0 bb 94 42 34 3d 78 e4 a4 3c 88 e4 01 bc
       -0.007329665 0.044008806 0.020128474 -0.007928021
0000a0 f4 8f 2c 3d f8 83 26 3c 40 63 ed 3b f8 87 08 bc
       0.042129472 0.0101633 0.0072444975 -0.008333199
0000b0 a0 71 3d 3d c0 eb 62 3b e8 14 fc bc b0 c4 33 3d
       0.04625094 0.0034625381 -0.030771688 0.043888748
0000c0 1a 56 6e 3d c0 23 f9 bb 80 e5 2d bd 00 5a 34 b9
       0.05818758 -0.0076031387 -0.042455196 -0.00017199665
0000d0 e8 5d 06 bc 88 10 29 3c f8 87 91 bc 72 eb 51 bd
       -0.0082011 0.010318883 -0.01776503 -0.05124993
0000e0 12 a6 13 bd 34 2b 8c bc 46 55 6d bd 9c 7b 0e 3d
       -0.03604705 -0.017110445 -0.05794265 0.03478585
0000f0 08 b1 1b 3d f0 66 24 3c 00 68 cb b9 a0 6f 2e bb
       0.038010627 0.010034308 -0.00038796663 -0.0026616827
000100 d8 6e 6c 3d 20 5a d4 3b e0 89 69 3c 1a 29 7b 3d
       0.057722896 0.0064804703 0.014254063 0.061318494
000110 d0 9b c9 bc e4 41 ab 3c b0 80 ca 3c 60 4b 2a 3d
       -0.02461043 0.020905443 0.024719566 0.04157579
000120 fe 3a 19 bd 3e 97 70 3d 72 c2 3e 3d c0 e1 58 bc
       -0.037409775 0.058737986 0.046572156 -0.013237417
000130 ec 42 b4 3c 80 1c 19 bb 7e 3d 2e 3d 20 e4 9d bb
       0.022004567 -0.0023362935 0.042539112 -0.0048184544
000140 74 a4 7e bd 74 0b 9a bc e0 e1 d7 bb 3a 6b 22 bd
       -0.062168553 -0.01880429 -0.0065882057 -0.03965304
000150 1c 6c f5 bc 90 e5 0d 3c 24 24 68 3d fc c3 e7 3c
       -0.029958777 0.008660689 0.05667509 0.028291695
000160 cc 3c 5c bd 30 d1 02 3d 08 15 76 3c ec 97 0b bd
       -0.053768918 0.031937778 0.015019663 -0.03408043
000170 a4 60 ec 3c a8 a0 aa bc d8 e7 2a 3d 80 aa e5 bc
       0.028854676 -0.02082856 0.04172501 -0.028035402
000180 c6 db 2a 3d a0 68 7b 3b 24 96 25 bd 80 59 2b 3a
       0.0417135 0.0038361922 -0.04042639 0.0006536469
000190 b4 9f 67 3d 20 f4 2d bd 18 f2 28 bd ae ce 1b bd
       0.05654879 -0.042469144 -0.041246504 -0.038038902
0001a0 c0 bf f6 bb b8 91 68 3c 20 48 78 3d ee ad 2f 3d
       -0.0075301826 0.014194898 0.06061566 0.04289048
0001b0 60 4e 62 bd 10 87 e7 bc b8 52 b7 3c 08 31 47 3d
       -0.055250525 -0.028262645 0.02237831 0.048630744
0001c0 a2 8f 08 3d d0 c8 b9 bc 88 28 f4 bc 90 b2 54 bd
       0.033340104 -0.022678763 -0.029804483 -0.051928103
0001d0 b4 19 28 bd 2c 79 f3 3c 18 7a 93 bc 38 3d 6e bc
       -0.041040137 0.029720865 -0.018002555 -0.014540963
0001e0 b0 03 87 3c d8 d5 ad 3c 58 05 1e bd 60 33 3e bc
       0.01648125 0.021220133 -0.038579315 -0.011608928
0001f0 60 ad 9e bb 98 7b f9 3c 2a 2a 63 bd 7c dd 1d 3d
       -0.0048424453 0.030454442 -0.055460133 0.038541302
000200 4c f5 bd bc 3c 06 69 bd 9a 25 39 bd 12 87 39 3d
       -0.023188256 -0.05689071 -0.045201875 0.04529483
000210 b4 f6 84 3c 28 c9 38 bd e8 5b 42 bd f6 bf 21 3d
       0.016230918 -0.045113713 -0.04745093 0.03948971
000220 48 4a 6e 3d 80 46 56 bd c4 24 31 bd c0 64 d5 3a
       0.05817631 -0.052313328 -0.043247953 0.0016280636
000230 78 ae f5 bc cc 4c a8 bc 86 ad 0e bd 88 7d 1d 3d
       -0.02999042 -0.020544432 -0.034833454 0.038449794
000240 38 27 c2 bc 44 06 78 3d 12 ff 3d bd 0c 25 b6 bc
       -0.023700342 0.06055285 -0.046385832 -0.022234462
000250 6c 7c 1b bd 6c 22 48 3d 52 11 64 bd 4c ec 3f 3d
       -0.037960455 0.048860952 -0.05568058 0.04685621
000260 50 ee 78 bd e0 c5 c1 bc 08 22 31 bd 60 bf 45 bd
       -0.060774148 -0.023653924 -0.043245345 -0.048278213
000270 7e 80 18 3d 6c 2d f8 bc fe 74 61 3d 58 9e 58 bc
       0.037231915 -0.030295096 0.055043213 -0.013221346
000280 dc fe 1b bd 78 d7 1e bd e8 e9 e7 3c b8 7a 7a bd
       -0.03808485 -0.038779706 0.028309777 -0.06115219
000290 90 b0 99 bc ba 50 70 bd 70 f5 42 3c 18 c8 5a 3c
       -0.01876095 -0.058670737 0.011899337 0.01335337
0002a0 a0 f2 01 bc 96 0f 55 3d 10 d4 72 bd fc a8 d8 bc
       -0.007931381 0.052016817 -0.05928427 -0.026447766
0002b0 86 bf 67 3d 10 b5 51 bc 94 73 36 3d 5c 23 cf 3c
       0.056579135 -0.012799516 0.044543818 0.025285415
0002c0 c0 e5 cb bb 74 0f c9 3c 80 ea 16 3b 08 c3 a8 bc
       -0.0062224567 0.024543501 0.0023027956 -0.02060081
0002d0 c0 48 38 bc e0 4b 27 bc ee 98 67 3d 80 85 84 bc
       -0.011247814 -0.010210961 0.05654233 -0.016176939
0002e0 a8 a1 b0 bc a6 e5 5c bd 3c 3f 01 3d a0 47 13 3d
       -0.021561459 -0.053929947 0.031554446 0.03595698
0002f0 80 57 9e 3c 72 bd 2e bd 4a df 20 bd f8 48 29 3d
       0.019328833 -0.042661138 -0.039275445 0.041329354
000300 40 50 99 bc 2a ae 6e bd d8 f2 43 bd 56 e4 7f bd
       -0.018715024 -0.058271565 -0.047839016 -0.062473617
000310 d8 ba a3 3c c8 d2 71 bd 5a 43 62 3d d0 ee 7f bd
       0.019986555 -0.059038907 0.055240013 -0.06248361
000320 5a e6 43 bd 18 e1 69 bc 4a 4d 39 bd 56 11 49 bd
       -0.047827102 -0.014274858 -0.045239724 -0.0490888
000330 98 70 28 3c 94 1b 13 3d 68 31 71 3d f6 29 29 3d
       0.010280751 0.035914972 0.058885008 0.041299783
000340 40 fb 91 ba 00 6e f5 bb 8a fc 32 3d 18 ec 34 3c
       -0.00111375 -0.0074899197 0.04369787 0.011042617
000350 48 32 8e bc b0 64 56 bd c2 66 74 3d 68 a9 00 bd
       -0.01735796 -0.052342117 0.05966831 -0.03141156
000360 70 60 18 3d 08 2a 24 3d 44 34 9e 3c d8 24 ab bc
       0.037201345 0.040079147 0.019312032 -0.020891592
000370 c0 65 73 bc 60 76 77 3c b0 f9 11 3c aa 6c 6f 3d
       -0.014855802 0.015103906 0.008909628 0.05845324
000380 f6 30 15 bd 58 49 21 3c f0 38 53 bd 84 ba f5 bc
       -0.036423646 0.009844147 -0.05156797 -0.029996164
000390 70 75 c1 3b 02 65 40 bd 6c 94 7c bd 9a 4e 0c bd
       0.005903892 -0.04697133 -0.061664984 -0.034254648
0003a0 d6 3d 7a 3d 00 b5 ad 39 00 7b 10 3c 1e 12 34 bd
       0.061094128 0.00033131987 0.008818388 -0.04396259
0003b0 e0 c7 e6 3c d2 aa 5a bd e0 4f 75 3d 30 fc 2e bc
       0.02817148 -0.053385563 0.059890628 -0.010680243
0003c0 2e de 52 3d 34 e8 4c 3d e0 d6 7a 3b 60 e6 8d 3c
       0.05148142 0.050026134 0.0038275048 0.017321765
0003d0 08 ea 44 bc 6c 2e 01 3d 06 97 61 3d b8 85 41 bd
       -0.012018688 0.031538412 0.055075668 -0.047246665
0003e0 94 76 97 bc f4 fa 17 bd 9c 84 f2 3c 62 49 3c bd
       -0.01848916 -0.037104562 0.029604249 -0.04596842
0003f0 72 ce 2d 3d 40 34 02 3d dc 8b 84 bc 38 80 6d 3d
       0.04243321 0.03178811 -0.016179971 0.057983607

fc2.bias f4 [256]
000000 10 00 2b 3d 54 df 49 3d 80 ef eb bb 00 9a 89 3b
       0.041748106 0.049285248 -0.0072001815 0.0041992664
000010 9c 63 35 3d 30 73 36 bd 24 8e 68 bd 44 54 55 3d
       0.044284448 -0.044543445 -0.05677618 0.052082315
000020 88 6c 2f 3c 8a 11 1b 3d f0 d8 93 bb 00 7c 26 3c
       0.010707028 0.037858523 -0.004511945 0.0101614
000030 c8 f6 bd bc d8 dd 66 3c fc 29 d5 bc 84 fc 4e bd
       -0.023188964 0.014090978 -0.026020996 -0.050533786
000040 c0 85 84 bc 3c 5c a1 3c 96 20 0a 3d 78 0c 4f 3c
       -0.016177058 0.019697301 0.033722483 0.01263725
000050 e6 72 05 3d 14 da 70 bd 60 64 8c bc f4 ac ec 3c
       0.03258028 -0.058801726 -0.017137706 0.028891064
000060 14 d0 de bc 9c ae 62 3d c6 a4 63 bd da 02 4b 3d
       -0.027198829 0.0553423 -0.055577062 0.049563266
000070 d6 60 32 bd f8 51 2f bd 80 a5 28 3b 94 9d c1 bc
       -0.04354938 -0.04280278 0.0025733411 -0.02363471
000080 00 09 ca 3b 94 f2 2f 3d e4 4e f4 bc 60 96 86 bc
       0.0061656237 0.04295595 -0.029822774 -0.016429126
000090 e0 68 16 3b 60 fb 41 bb ac 84 57 3d 30 b7 28 bc
       0.0022950694 -0.0029599294 0.05261676 -0.010297582
0000a0 70 7b 9a 3b 08 d9 81 bc 12 bf 1a 3d 58 1a ed 3c
       0.004714422 -0.015850559 0.037779875 0.028943226
0000b0 48 e6 54 3c 8e 90 0c bd c0 0f a0 bb b4 fb cb 3c
       0.012994356 -0.034317546 -0.00488469 0.024900295
0000c0 7c 09 28 3d a4 e8 d6 bc 00 a6 b9 ba 84 a1 8f bc
       0.04102467 -0.026233979 -0.0014163852 -0.017533071
0000d0 18 3f 90 bc 88 b2 13 3d 54 75 7c 3d 40 92 12 bd
       -0.01760821 0.036058933 0.06163533 -0.035784006
0000e0 b0 c2 ff 3b 22 f5 24 3d d4 02 98 3c 84 b8 95 bc
       0.007805191 0.04027284 0.018556036 -0.01827646
0000f0 60 0f 18 3d 84 00 a3 bc 6c 23 36 3d 36 ef 2e bd
       0.037124038 -0.019897707 0.044467375 -0.042708598
000100 be 32 4a 3d e8 27 0f bd 5c ac d5 bc d0 c8 2d bd
       0.049364798 -0.034950167 -0.026083164 -0.042427838
000110 68 84 e9 bc 6e c4 3d 3d d4 de 90 bc 7c 96 a9 bc
       -0.028505519 0.046329908 -0.017684378 -0.02070164
000120 e0 e6 65 bd e8 89 cf 3c d0 03 ef bb 10 51 59 bd
       -0.056128383 0.025334314 -0.0072941557 -0.053055823
000130 28 c7 5d 3d 90 60 12 3d 5c fb 9e bc 78 3d 4b bd
       0.05414501 0.03573662 -0.019406967 -0.049619168
000140 f8 4a 67 3c 70 72 1c 3c 70 10 df bb 40 3c 33 3b
       0.014116995 0.009548768 -0.0068073794 0.0027349144
000150 90 b5 e0 3c 20 7e 12 bb 68 0e 63 bd d0 63 f0 bb
       0.027430326 -0.0022353008 -0.05543366 -0.0073361173
000160 a2 9b 62 3d 70 a4 93 3b e0 96 5b bd 7c 8c 19 bd
       0.055324204 0.0045056865 -0.053610682 -0.037487492
000170 0e 83 1d 3d 36 1e 33 3d 30 f6 8d 3b 22 f0 21 bd
       0.03845506 0.043729983 0.0043323264 -0.03953565
000180 d4 7e 85 3c 06 4f 55 bd e8 e5 1e 3c 6e 9a 02 bd
       0.016295828 -0.052077316 0.009698369 -0.031885557
000190 ee d0 15 bd 48 06 16 bd 30 c9 73 3c 54 c6 5c bd
       -0.036576204 -0.036627084 0.01487951 -0.053900078
0001a0 c8 d6 57 bc 74 4b 8d 3c 24 4c e9 3c 22 d3 15 bd
       -0.013173766 0.017247893 0.02847869 -0.036578305
0001b0 38 c9 e7 3c f2 ea 0e bd a8 87 05 3d ae 5a 74 3d
       0.02829419 -0.03489203 0.032600075 0.05965679
0001c0 52 89 6d 3d 20 19 54 3b fe 00 5a bd f0 9e 70 bd
       0.057992287 0.0032363608 -0.053223602 -0.058745325
0001d0 90 ba 8b 3b a0 77 7a 3c 02 0d 50 bd c4 d6 c6 bc
       0.0042641833 0.01528731 -0.050793655 -0.02427233
0001e0 c0 34 b7 3a b8 2c 9d bc 88 3e 1f bd 16 cc 26 bd
       0.0013977513 -0.019186363 -0.038877994 -0.040721975
0001f0 90 b1 c2 bc c6 47 58 bd f0 5e 26 3c ea 29 34 3d
       -0.023766309 -0.052802823 0.010154471 0.043985285
000200 38 4f 5e bd 10 c4 e4 3b 96 0a 74 bd 30 01 02 bc
       -0.054274768 0.0069813803 -0.059580408 -0.007934853
000210 60 b0 a1 3c 80 7f b8 bb 08 af cc bc f0 6e 08 bd
       0.019737422 -0.0056304336 -0.024985805 -0.033308923
000220 50 d7 c1 bc 9c 54 0f 3d bc 38 ef 3c 60 67 e0 3c
       -0.02366224 0.0349928 0.029201858 0.027393043
000230 94 fd 1a 3d c0 cc de ba 00 52 86 39 24 0c ce 3c
       0.037839487 -0.0016998276 0.00025619566 0.025152273
000240 e0 fd 7f bc c4 86 47 3d 4c 15 64 3d 0e 13 10 3d
       -0.015624493 0.048712507 0.055684373 0.035174422
000250 74 72 de 3c 38 74 c7 bc b0 65 a1 bc a8 43 11 bd
       0.027154185 -0.02434741 -0.019701809 -0.035464913
000260 16 fb 35 3d 4c d3 1c bd 70 9e dd 3c 58 56 81 3c
       0.044428907 -0.038287446 0.027053088 0.015788242
000270 cc c8 f9 bc 28 96 7f bc b0 f0 44 3d 60 d1 e8 bb
       -0.030491255 -0.015599765 0.0480811 -0.0071050376
000280 46 5f 69 3d 54 b0 d3 3c 8c 48 ee bc 4c 60 aa bc
       0.056975625 0.025840916 -0.029087327 -0.020797871
000290 68 3b 41 bd f4 65 29 3d d4 23 b2 bc e0 5c 0a 3d
       -0.047175795 0.041356996 -0.0217456 0.03377998
0002a0 40 3e 4a bd e8 fe c6 bc c6 1e 7d 3d d0 e4 fe 3b
       -0.049375772 -0.02429147 0.061796926 0.0077787414
0002b0 6e c8 7d 3d 00 d2 15 bb 5e 96 2e 3d aa be 6f bd
       0.061958723 -0.0022860765 0.04262387 -0.05853144
0002c0 20 ba 51 bd 14 5a 0e bd 68 c4 fc 3c 40 10 69 3b
       -0.051202893 -0.034753874 0.030855373 0.0035562664
0002d0 ce e3 6b 3d 4a 29 75 bd e4 1d 60 3d 88 23 88 bc
       0.0575903 -0.05985383 0.054716006 -0.016618505
0002e0 f8 c1 52 bc d8 35 22 bc a0 67 2c 3d cc 56 ca bc
       -0.012863629 -0.009900533 0.042091012 -0.024699591
0002f0 10 4b 69 bc c8 a3 ca 3c ba 51 0d 3d e0 9c 49 bb
       -0.014239088 0.0247363 0.03450177 -0.003076367
000300 3a 4c 57 3d 80 43 7b bc 90 34 f8 bc c0 32 3f bb
       0.05256293 -0.0153359175 -0.030298501 -0.0029174536
000310 e4 e4 77 3d da 4c 0e 3d 8e 49 06 3d c8 d8 be bc
       0.06052102 0.03474126 0.03278499 -0.023296729
000320 a0 d2 55 3b a0 16 9d bb 54 f7 31 bd c0 57 78 bc
       0.0032626763 -0.004793957 -0.04344876 -0.01515764
000330 52 eb 71 3d 92 04 14 bd a0 c6 99 3c c8 04 62 3d
       0.05906231 -0.03613717 0.01877147 0.05518034
000340 3c fb bd 3c 70 78 47 3c 10 49 34 bd 04 5f e1 bc
       0.023191087 0.012174711 -0.04401499 -0.027511127
000350 30 50 a7 bc 60 1b 3f 3c 74 31 67 bd 94 07 14 bd
       -0.020423979 0.011664242 -0.056443647 -0.03614004
000360 96 30 5a bd c0 3f 0a bb 70 1a b6 3c 64 81 f4 bc
       -0.05326899 -0.0021095127 0.022229403 -0.029846855
000370 32 00 29 3d 4c 83 52 3d b8 f0 85 bc 40 59 24 bd
       0.041259952 0.051394746 -0.016350135 -0.040124178
000380 f8 a0 1e 3c 28 21 00 3c 24 71 23 bd 4c c3 2e bd
       0.009681933 0.007820405 -0.03990282 -0.04266672
000390 7e 68 6f 3d c0 62 d6 ba 38 c4 1a 3c 58 86 12 3c
       0.05844926 -0.0016356334 0.009446196 0.008943163
0003a0 6c 33 a8 bc ac 89 25 3d 80 2d 8e ba e6 5e 47 3d
       -0.020532332 0.040414497 -0.00108473 0.048674487
0003b0 56 ef 41 3d 1c 74 09 bd 78 26 0b 3c ea 55 31 bd
       0.04734739 -0.033557996 0.008493058 -0.043294825
0003c0 82 74 15 bd 40 5c f6 bb 10 17 0f bd f0 70 7e bc
       -0.036488064 -0.0075183213 -0.034934103 -0.015529856
0003d0 96 7d 14 3d cc bd b4 3c ee a5 5c bd 2c cb 4f 3d
       0.03625258 0.022063158 -0.05386918 0.05073087
0003e0 c8 f7 a7 3c 7a aa 78 bd 3e e4 5a 3d 7a b1 00 3d
       0.020503893 -0.060709454 0.053440325 0.031419255
0003f0 d8 d9 89 bc c4 29 2b 3d 2c bc 92 bc cc 5f 56 bd
       -0.016827509 0.041787878 -0.017911993 -0.052337453

fc3.weight f4 [256, 256]
000000 4e 40 69 3d c2 71 60 3d f0 c1 47 3c 70 f0 99 3b
       0.05694609 0.054795988 0.012192234 0.004697852
000010 84 31 38 3d 22 77 52 3d 80 bd b3 3c f8 71 2e bc
       0.044969097 0.051383145 0.021940947 -0.010647289
000020 d4 28 ae 3c c2 d2 11 bd 88 f6 6a bc f2 6c 0c 3d
       0.021259703 -0.035601385 -0.014341004 0.034283586
000030 20 56 05 bc 38 cc 2d 3d 70 ab ef bb 4c 82 6b bd
       -0.00813821 0.042431086 -0.007314138 -0.057497308
000040 a4 f2 8c bc 6e 2e 34 3d f8 80 50 bd 3c 9d 6f 3d
       -0.017205544 0.04398959 -0.050904244 0.05849956
000050 dc 74 39 3d ba 45 4d bd a0 a9 dc bb ca 0f 74 3d
       0.04527746 -0.050115325 -0.006734088 0.05958537
000060 c0 6c 4f 3b 64 18 4d bd a8 1f c8 3c 00 d7 51 3c
       0.0031650513 -0.05007209 0.024429157 0.012807608
000070 56 f2 53 3d f8 aa 3d 3d 48 36 ba 3c 00 3e be 3a
       0.05174478 0.046305627 0.022730961 0.0014514327
000080 c0 6b 4f bb e0 66 7f 3c 50 4a 4b bd c0 e7 23 bd
       -0.0031649917 0.015588492 -0.049631417 -0.040015936
000090 5c 38 96 bc f0 b2 c1 3b 40 b2 05 3b 4c 82 c6 3c
       -0.018337421 0.0059112236 0.0020400435 0.024232052
0000a0 a6 f8 51 3d 7c 32 63 bd 1c d6 cd bc 82 e4 18 bd
       0.05126252 -0.055468068 -0.02512651 -0.037327297
0000b0 4a 51 65 3d 52 08 05 bd 24 b2 13 bd 1c 88 c4 bc
       0.055985726 -0.032478638 -0.03605856 -0.023990683
0000c0 30 fc 11 3d bc 52 fe 3c cc f5 88 3c e8 78 e5 bc
       0.035640895 0.03104531 0.016718768 -0.028011754
0000d0 18 24 9b bc 1c 95 05 3d 0e ca 4b 3d d0 da d4 3c
       -0.01893811 0.032612905 0.04975324 0.025983244
0000e0 84 f2 05 3d a4 d1 b9 bc 2c 67 80 bc 18 01 6a bc
       0.032701984 -0.022682972 -0.015674196 -0.014282487
0000f0 10 3a 9f 3c 9e 8e 3f bd 52 70 7f 3d a8 6b 4d 3d
       0.019436866 -0.04676687 0.062362976 0.050151497
000100 40 96 b1 bc 98 ba 78 3c de 0e 0b 3d da 23 23 bd
       -0.02167809 0.015181206 0.033949725 -0.039829113
000110 5c 20 59 bd 4e 38 60 3d 9c c9 b0 3c 24 04 9f 3c
       -0.053009376 0.054741196 0.02158051 0.019411154
000120 bc 4a 2e bd 08 1c 50 bd de 74 62 3d 80 f2 9d bc
       -0.04255174 -0.050807983 0.055287234 -0.019280672
000130 04 d8 2f 3d f0 e9 64 bc 7a 56 1f bd 80 56 52 bb
       0.042930618 -0.013971791 -0.03890083 -0.0032095015
000140 62 8c 45 3d 44 79 b3 bc 36 e1 62 bd 58 b2 87 3c
       0.048229583 -0.02190841 -0.05539056 0.016564533
000150 aa 13 11 bd 82 96 38 bd e6 5f 22 bd e0 c3 d0 bb
       -0.035419144 -0.04506541 -0.039642237 -0.0063710064
000160 26 da 74 3d f0 00 e6 3c f2 33 08 bd 68 b9 98 bc
       0.059778355 0.028076619 -0.033252664 -0.018643096
000170 00 26 e8 3b 94 a0 60 bd b8 1b d1 bc 26 aa 63 bd
       0.007084608 -0.05484064 -0.025525913 -0.055582188
000180 60 38 94 3c 7e 92 17 bd bc a7 6c 3d ec d8 2f 3d
       0.018093288 -0.03700494 0.05777715 0.042931482
000190 30 b1 70 3c 70 82 de 3b 4c b0 11 bd b6 c2 14 3d
       0.014690682 0.0067904517 -0.03556852 0.036318503
0001a0 1c 68 ac bc b0 33 26 bc e2 72 3d 3d 40 84 d8 3a
       -0.021045737 -0.010144159 0.04625214 0.0016518906
0001b0 42 e8 1b 3d 74 54 45 bd 2c 08 09 bd c4 1a 52 3d
       0.038063295 -0.048176244 -0.03345506 0.051295057
0001c0 e2 9f 76 bd 92 5b 42 3d 20 cf 45 bb 20 68 76 3d
       -0.06021107 0.04745061 -0.003018327 0.060157895
0001d0 58 5b 86 bc 64 56 49 3d 80 40 23 3a 30 9f d6 3b
       -0.016400978 0.049154654 0.0006227568 0.0065497383
0001e0 00 4f 01 3a 38 c2 07 3d b8 0d 1e 3c 10 11 bc bc
       0.00049327314 0.033144206 0.0096468255 -0.022957355
0001f0 a0 fa de 3c 9c de df bc 00 2e dd bc 84 50 dc bc
       0.027219117 -0.027327828 -0.026999474 -0.026893862
000200 fc 08 a4 3c c6 eb 3c bd 66 25 73 bd 18 1d 57 3c
       0.020023815 -0.04612329 -0.059361838 0.013129495
000210 46 16 07 bd 46 91 11 3d b2 50 0c 3d 10 35 fe bb
       -0.032980226 0.035538934 0.034256645 -0.0077577904
000220 80 07 fc 3c f4 83 e7 3c e4 3e c7 3c 50 14 f7 bc
       0.030765295 0.028261162 0.02432198 -0.030161053
000230 50 bf 58 3c 48 26 fa bc 08 89 7c 3d b8 d9 e6 3c
       0.013229206 -0.030535832 0.06165412 0.028179988
000240 9c ab 9c bc 1e fd 58 3d 10 0c 3e 3d 8c be 89 bc
       -0.019124798 0.052975766 0.046398222 -0.016814493
000250 40 72 16 bd 20 bc ea 3b 08 31 25 3c 18 db 2f 3c
       -0.03673005 0.0071635395 0.010082491 0.010733388
000260 40 a3 1d 3d 60 53 5e bd ac 9c 5b 3d 5c be 0a bd
       0.038485765 -0.05427873 0.05361621 -0.033872947
000270 5c 03 ad 3c 02 f8 4b bd 30 a2 cd bb c8 21 d7 bc
       0.021119766 -0.049797066 -0.006275438 -0.026261225
000280 e8 d5 67 bd 10 fe e8 bb 0c 03 58 3d e0 4e d6 3c
       -0.05660048 -0.0071103647 0.05273728 0.026160657
000290 06 89 47 bd b6 89 1f 3d 18 99 4e 3d 86 17 22 3d
       -0.04871466 0.03894969 0.05043897 0.039573215
0002a0 8c c2 3f 3d 8c 41 67 3d 80 8f d0 3b f6 1f 6b bd
       0.046816394 0.056458995 0.006364763 -0.057403527
0002b0 fc 3e 63 3d 08 6e 4d bc 2c a4 01 3d 18 ef 3d 3d
       0.05547999 -0.0125384405 0.031650707 0.046370596
0002c0 5a 88 46 3d 1c 3a 4a 3d 9a 1e 7f 3d f0 f1 05 bc
       0.04846988 0.049371824 0.062285043 -0.008175358
0002d0 a4 91 21 3d a8 26 4b 3c b0 a0 ea 3c 50 d0 78 3d
       0.039445534 0.012399353 0.028641075 0.060745537
0002e0 b0 9e 2a 3c a0 07 9a 3c 4c d2 dc bc 6e 43 22 bd
       0.010413811 0.018802464 -0.026955746 -0.039615087
0002f0 c0 13 03 3b ac 87 02 3d f8 e6 a6 bc 70 e2 48 3d
       0.0020000786 0.031867668 -0.020373806 0.049044073
000300 e0 6b 54 3c 10 77 3b bc dc e8 03 bd 8e a2 22 bd
       0.0129651725 -0.011441961 -0.032204494 -0.039705805
000310 60 8c e9 3c 28 12 07 bc 48 08 5a 3d 78 13 4b bc
       0.028509319 -0.008244075 0.053230554 -0.012394778
000320 cc 0c 1f 3d 28 a9 76 3c 00 ad 89 3c 18 20 61 bd
       0.038830563 0.015054978 0.016806126 -0.054962248
000330 00 1d db ba 66 f4 5e bd b0 5a 3a bc dc 48 95 3c
       -0.0016717017 -0.054432295 -0.011374161 0.018223219
000340 da ec 68 bd c8 eb c6 bc 84 99 1a bd 9a 8a 12 bd
       -0.056866504 -0.024282351 -0.03774406 -0.035776712
000350 80 4f 9c 3b b0 ed 2c bc b0 7d 9e 3c e0 74 b2 3b
       0.0047702193 -0.010554716 0.019347042 0.0054460615
000360 60 ef 73 3d ac e6 5a bd fc d4 a8 3c dc 6d 85 3c
       0.059554458 -0.053442642 0.020609371 0.016287737
000370 84 14 cd 3c 50 b6 c0 bb 74 c4 86 3c 80 be 65 3b
       0.025034197 -0.0058811083 0.016451098 0.0035056174
000380 a0 b0 77 3b e4 31 3c bd 58 8e 35 bc bc 2d c7 3c
       0.0037794486 -0.045946017 -0.011081301 0.0243138
000390 fe e3 7b 3d ce df 4d bd d8 fe 2b bd 8c 17 00 3d
       0.061496727 -0.050262265 -0.041991085 0.031272456
0003a0 46 3c 51 bd 6c de 44 bd e4 43 50 bd 80 f6 fc ba
       -0.05108287 -0.04806368 -0.050845996 -0.0019299537
0003b0 c0 ae f4 ba a4 2f 55 bd 00 c4 aa 39 f0 38 5e 3d
       -0.0018667802 -0.052047387 0.00032570958 0.05425352
0003c0 68 dd 5a 3d fc 08 b4 bc 42 58 7d bd c4 78 3d 3d
       0.053433806 -0.02197694 -0.061851747 0.04625775
0003d0 18 06 13 3c fe 8b 58 3d 74 bf b1 bc f0 09 d1 bb
       0.008973621 0.052867882 -0.021697737 -0.0063793585
0003e0 c4 b4 ce 3c 56 84 3d 3d dc 66 99 3c 78 c8 ef bc
       0.02523268 0.046268784 0.018725805 -0.029270396
0003f0 58 22 03 bd 4a fd 0a bd 1e ae 21 3d f8 8c fe bc
       -0.032015175 -0.03393296 0.03947269 -0.031073079

fc3.bias f4 [256]
000000 38 b8 51 bc 60 46 11 bc 48 45 ce 3c dc 8c 1e 3d
       -0.012800269 -0.008866876 0.02517952 0.038708553
000010 d4 e6 eb bc fc 16 02 3d e0 e5 45 bb 00 dd 55 bd
       -0.02879659 0.0317602 -0.003019683 -0.052212715
000020 ce 9e 15 3d f8 19 5d bd 84 67 5b bd 40 fd 74 3d
       0.0365284 -0.053979844 -0.053565517 0.05981183
000030 a0 be 67 3b 20 60 64 bd fc 82 f3 3c 38 c5 03 bc
       0.0035361424 -0.055755734 0.029725544 -0.008042626
000040 e8 09 b3 3c e0 ab bb bb b4 c5 54 3d be 87 67 bd
       0.02185531 -0.005727276 0.051946357 -0.05652594
000050 20 c9 6f 3b 54 a7 84 bc 1c bc 6b 3d 38 14 ba 3c
       0.0036588386 -0.01619307 0.057552442 0.02271472
000060 ec 79 01 3d f0 1a 00 3c 20 07 50 3c 94 de bb 3c
       0.031610414 0.007818922 0.012697011 0.022933282
000070 f0 17 28 3d 88 10 56 bc 88 63 67 bd ac 6f 5e bd
       0.041038454 -0.013065465 -0.056491405 -0.054305717
000080 b4 cd e9 bc 00 5a 86 3a ae 54 28 bd a0 bb 7d 3c
       -0.02854047 0.0010250211 -0.04109638 0.015486628
000090 4c a7 fe 3c 40 d2 8b bb 9e 25 03 bd 48 64 cb bc
       0.031085633 -0.004267007 -0.032018296 -0.024828091
0000a0 30 21 74 3d bc 1a 3f 3d 00 3a 5c bc ca 6d 3c 3d
       0.059601963 0.046656355 -0.013441563 0.04600314
0000b0 40 e2 66 bb 00 8c c3 3b 6c 6e 21 bd 40 7c 4e 3c
       -0.003523007 0.005967617 -0.039411947 0.012602866
0000c0 de e6 58 bd 7a 33 36 bd ae 0e 65 bd 1a cb 40 bd
       -0.052954547 -0.044482686 -0.055922203 -0.047068693
0000d0 28 5f cc bc f6 80 77 bd 24 40 98 3c 90 e2 b6 bb
       -0.024947718 -0.06042572 0.018585272 -0.0055812076
0000e0 76 83 0c 3d 66 25 1f 3d 48 3e 63 bd e0 ae a9 bc
       0.03430506 0.038854025 -0.055479318 -0.02071327
0000f0 f0 4d 4d bc 92 7d 17 3d 80 d5 2c 3c 30 70 fa bb
       -0.012530789 0.036984988 0.010548949 -0.0076427683
000100 a6 7e 4f bd 0e 1c 57 3d 54 ed e3 bc b0 e9 0c bd
       -0.05065789 0.05251699 -0.027823128 -0.03440255
000110 00 0e d6 b9 f4 4e a7 3c 98 32 7b 3c c4 dd 10 3d
       -0.00040827692 0.02042339 0.015331887 0.035367742
000120 e4 40 dc bc f4 77 65 bd 00 0c 85 3c 84 6f fa 3c
       -0.026886411 -0.0560226 0.016241074 0.030570753
000130 50 fb 05 3d e0 65 d5 3c 08 7a 7d 3c 04 e6 f8 3c
       0.032710373 0.026049554 0.015470989 0.030383117
000140 28 58 05 3c e4 c5 2b 3d 78 9b 5d 3c 38 38 63 bc
       0.008138694 0.04193677 0.013525836 -0.013868384
000150 34 a7 ef bc 0c 46 49 3d dc ef f7 bc d4 28 20 3d
       -0.029254533 0.049139068 -0.030265741 0.039101437
000160 ce 99 54 bd 2c 1a 5a 3d e0 98 d3 3c 70 23 ca 3b
       -0.051904492 0.053247616 0.025829732 0.0061687753
000170 80 41 fe 3a f2 12 48 bd 20 75 0a bc 1a da 33 3d
       0.0019398183 -0.048846193 -0.008450776 0.04390917
000180 68 3c 83 bc 70 00 9f 3c 5c 04 86 bc 40 44 5f 3d
       -0.016020015 0.019409388 -0.0163595 0.054508448
000190 be f7 11 3d 56 81 4f bd f0 15 5a 3c 50 70 49 3d
       0.035636656 -0.050660454 0.013310894 0.049179375
0001a0 90 b7 c0 bb f0 39 0d 3d 00 89 89 ba 80 56 d5 3b
       -0.0058812574 0.03447908 -0.00104931 0.0065105557
0001b0 18 50 c3 bc bc 9f ee bc ee 2a 43 bd 20 e9 f4 3b
       -0.023841903 -0.029128902 -0.047648363 0.0074740797
0001c0 e8 b3 fc 3c 50 32 1d 3c 34 60 de 3c b0 48 49 bc
       0.030847505 0.009594515 0.027145483 -0.012285396
0001d0 54 8f 8a 3c 78 67 47 3d 60 6d 3f bc b0 93 ff 3c
       0.016914047 0.04868266 -0.011683792 0.031198353
0001e0 1c 3a df bc 60 f1 97 bc 80 23 7d 3b fe 1d 0e 3d
       -0.027249388 -0.018547714 0.0038625896 0.03469657
0001f0 60 97 6b 3d 8e 68 0c bd c0 f4 2f bd 38 a2 90 3c
       0.05751741 -0.0342794 -0.04295802 0.017655477
000200 6c f2 b2 3c 08 02 46 3c bc d5 f7 3c ea d5 15 bd
       0.021844111 0.012085445 0.030253284 -0.036580957
000210 50 06 4d bc 68 23 91 3c 54 29 b8 3c 24 90 76 3d
       -0.012513712 0.017717078 0.022480644 0.060196057
000220 0c 75 aa bc bc 98 94 bc 70 dd 5f bc f2 94 32 bd
       -0.020807765 -0.018139236 -0.013663635 -0.043599077
000230 3c 25 64 3d c8 0e 01 3c 98 67 f3 3c c8 25 82 bc
       0.055699572 0.007877059 0.029712483 -0.015887156
000240 a6 69 26 bd 14 de 43 bd 5c 0f 18 3d 00 5a 65 39
       -0.040628098 -0.047819212 0.037124023 0.0002187267
000250 bc 73 c2 bc f0 22 05 3c b2 24 13 bd 70 d7 a8 bb
       -0.023736827 0.0081260055 -0.035923667 -0.0051526353
000260 30 f5 4c 3d e0 47 36 bd 4c 04 75 bd f2 e7 1b 3d
       0.050038517 -0.04450214 -0.05981855 0.038062997
000270 00 a7 d3 39 08 97 fc 3c 50 ed 14 3d d4 06 ec bc
       0.0004036948 0.030833736 0.03635913 -0.02881185
000280 08 02 35 3c 0e db 4a 3d 78 8a 35 3c 18 68 81 3c
       0.011047848 0.049525313 0.011080377 0.015796706
000290 58 0f 58 3c f8 da 15 bd 20 85 20 3c b4 ef a1 3c
       0.013187252 -0.036585778 0.0097973645 0.01976762
0002a0 6c f4 98 bc bc ab 9f bc c2 60 2a bd d0 27 67 bd
       -0.018671237 -0.019491069 -0.04159618 -0.056434453
0002b0 de 54 0c bd 3e 1c 2e 3d e8 fb 59 bc c4 c8 d8 3c
       -0.034260623 0.042507403 -0.013304688 0.02646292
0002c0 bc d0 c9 bc 80 d6 3e bb 74 aa c1 3c 9a 5b 56 bd
       -0.024635665 -0.0029119551 0.023640849 -0.05233345
0002d0 fc 65 5c bd e0 74 00 bb 60 18 59 3b 4e ee 08 3d
       -0.053808197 -0.0019600913 0.00331261 0.03343039
0002e0 50 5d 36 3c 82 f5 45 3d 20 27 21 3d b0 ec 11 bd
       0.011130646 0.048329838 0.039343953 -0.035626113
0002f0 6c dd ac 3c 94 76 9f bc a0 95 8d 3b 88 fc 31 bc
       0.021101676 -0.019465722 0.004320815 -0.010863431
000300 ec c8 2e bd c0 dd 40 3b b2 90 02 3d 08 a5 89 bc
       -0.042672083 0.0029429048 0.031876273 -0.016802326
000310 68 f1 6a bc f0 2d 9a 3c 38 9d 46 3d e6 48 35 3d
       -0.014339782 0.018820733 0.04848978 0.044258974
000320 d6 1f 53 3d c0 7f 38 3d 2c 97 de bc 44 4f 61 bd
       0.051544033 0.045043707 -0.027171694 -0.055007234
000330 44 d1 4e 3d 10 cb 5b 3d ba 0d 55 bd d2 6c 45 3d
       0.05049254 0.053660452 -0.052015044 0.048199482
000340 9c 48 b6 3c a0 7a 31 bb e4 2b 50 3d 3c 12 23 bd
       0.02225142 -0.0027081147 0.050823107 -0.03981231
000350 6c bc a8 3c ea 27 2f 3d 90 36 fb bb a8 f2 48 bd
       0.020597659 0.042762674 -0.0076664165 -0.04905954
000360 c0 25 06 3d d6 51 36 3d 90 f2 02 bd a2 55 40 bd
       0.032750845 0.04451164 -0.031969607 -0.046956666
000370 04 60 48 3d 58 2d 00 bc 7a ca 50 bd b0 9e 23 bc
       0.048919693 -0.007823311 -0.050974347 -0.0099865645
000380 a4 84 66 3d 5c 3c 30 bd 78 9e 5a bd 54 b0 2a bd
       0.05627884 -0.043026313 -0.053373784 -0.041672066
000390 10 26 b7 3b cc d5 05 3d b4 4d 1c 3d ee ee 7a 3d
       0.005589254 0.032674596 0.03816004 0.061263017
0003a0 ca a2 07 bd a0 e2 20 3c 44 7b ba 3c 10 5f 80 3c
       -0.033114232 0.009819657 0.022763856 0.01567033
0003b0 ba a1 1d bd 90 dc 19 3c 4c d0 02 bd ba 63 0f bd
       -0.038484313 0.009390965 -0.03193693 -0.035007216
0003c0 94 eb 2a bd 50 48 81 bc 68 2b d7 bc 8c d9 2c bd
       -0.04172857 -0.015781552 -0.026265815 -0.042199656
0003d0 5a e7 3a bd 9c 11 80 3c fa 1e 37 bd f4 1e 98 bc
       -0.04563079 0.015633397 -0.044707276 -0.018569447
0003e0 dc 3b b6 3c 38 48 92 bc d0 aa 07 bc 9e 52 08 3d
       0.02224534 -0.017856702 -0.008280471 0.033281915
0003f0 88 f8 66 3d 36 4e 31 3d 60 22 e2 3b 78 5b 1f 3d
       0.05638936 0.04328748 0.0069010705 0.03890559

output.weight f4 [4, 256]
000000 24 1c 40 bd 48 7c 7c 3c 1a ba 29 bd 94 b4 68 3d
       -0.046901837 0.01541049 -0.041437246 0.056812838
000010 ae cc 54 3d 08 d0 da bc 0c f9 fb 3c 2c fc 74 3d
       0.05195301 -0.026710525 0.030758403 0.059810802
000020 88 16 62 3c 90 47 a9 bb e0 04 f6 3c 04 9b a2 bc
       0.013799317 -0.0051660016 0.030031621 -0.019849308
000030 20 98 b1 3b 80 f5 74 3a c8 9d a5 3c 22 0d 4f bd
       0.005419746 0.00093444437 0.020216838 -0.050549634
000040 42 92 1d bd 60 dc 40 bd 40 9e 16 3b 2e e0 55 3d
       -0.03846956 -0.047085166 0.0022982508 0.052215748
000050 a8 7d e7 3c 14 51 a7 3c a4 08 22 bd 70 30 c7 3b
       0.02825816 0.020424403 -0.03955902 0.0060787722
000060 f4 8f 8c bc 30 26 e8 bb 26 cf 46 bd a0 ce f3 3c
       -0.017158486 -0.0070846304 -0.048537396 0.029761612
000070 5c e5 c9 bc 24 5b d5 bc 44 a3 fc 3c 28 7a 42 3d
       -0.0246455 -0.026044436 0.03083957 0.04747978
000080 e0 0e 19 bc f6 06 3e 3d 1e 91 4a 3d 40 48 2c 3c
       -0.009341925 0.046393357 0.0494548 0.010515273
000090 80 cc e6 3a b8 b0 6c bc fa 98 21 3d 18 8e 26 3c
       0.0017608553 -0.01444643 0.03945253 0.010165714
0000a0 54 72 01 bd 00 3a 13 b9 88 06 89 bc 5e 5d 15 bd
       -0.031603172 -0.00014040619 -0.016726747 -0.036465995
0000b0 ec a0 91 bc b0 3e 60 3c 9c 1a bc bc 34 5c 95 3c
       -0.017776929 0.013686821 -0.022961907 0.018232442
0000c0 90 35 2a 3c 6c c2 89 bc e0 3f 71 3d b8 dd 5d bc
       0.010388747 -0.01681634 0.058898807 -0.013541631
0000d0 74 af ba bc b0 31 96 3b 10 c8 69 3c e8 b7 6f 3c
       -0.02278874 0.00458356 0.01426889 0.014631249
0000e0 90 2c 96 3c 58 77 ee 3c 80 0e 0b ba e4 0d 86 3c
       0.018331796 0.029109642 -0.000530459 0.016364045
0000f0 50 7c a2 bc 96 9e 16 bd c8 fc 7b bd f4 e1 04 bd
       -0.019834667 -0.036772333 -0.061520368 -0.03244205
000100 3c 45 94 3c 8c 1b a6 3c e0 42 ca 3b ec 42 d8 3c
       0.01809942 0.020276807 0.006172523 0.026399098
000110 c0 e4 2d bb 58 05 ed bc 0c 64 85 bc 48 aa 3c 3c
       -0.002653405 -0.028933212 -0.016283058 0.011515208
000120 e8 13 43 bd c0 2d b8 bc 38 8c 15 bd 34 66 c7 bc
       -0.047626406 -0.022482753 -0.036510676 -0.024340726
000130 1c ec 2a 3d 14 4c 2e bd 00 8d a3 3c 52 ab 04 3d
       0.041729078 -0.042553023 0.019964695 0.032389946
000140 ca 28 13 3d 38 1e 62 3d 78 3b fe bc 34 b1 f8 3c
       0.03592757 0.0552046 -0.031034216 0.030357935
000150 ec 8d cc 3c 98 31 a3 bc 7e 21 43 3d 52 14 10 3d
       0.024970017 -0.01992111 0.047639363 0.03517563
000160 08 40 19 bc 04 04 2c 3d c4 e6 ef bc b8 7f a8 bc
       -0.009353645 0.041996017 -0.029284842 -0.020568714
000170 00 3c 29 3d 2c e4 a3 3c 7a 72 03 bd 2c 54 c7 bc
       0.041316986 0.020006262 -0.032091595 -0.024332128
000180 50 cf c4 3b 28 dc 0d 3c e2 a2 27 bd 00 0e 2b bc
       0.006006159 0.008658446 -0.04092682 -0.01044035
000190 64 3c 39 3d b0 ca 17 bd 8c d7 5b 3d f4 a4 d0 3c
       0.04522361 -0.037058532 0.05367236 0.02546928
0001a0 34 48 1b 3d ce 40 5f bd e0 48 05 bb ea 05 5f bd
       0.037910655 -0.054505162 -0.0020337626 -0.054449
0001b0 80 52 9b 3a 80 39 80 3b 0c 9f 80 3c dc 95 28 bd
       0.0011850148 0.0039131045 0.01570084 -0.041158542
0001c0 84 88 ae 3c fe f4 69 3d d4 02 ab 3c 94 92 93 3c
       0.02130533 0.05711841 0.020875372 0.01801423
0001d0 f0 c1 0f bc 44 b0 5c bd 00 78 37 38 d4 40 98 3c
       -0.008774266 -0.053879037 4.374236e-05 0.0185856
0001e0 04 b2 67 bd 7a 8f 6b 3d d0 2e 6e bc e4 79 10 bd
       -0.056566253 0.057509877 -0.014537528 -0.035272494
0001f0 e8 fe db 3c 6e aa 08 bd 60 53 fc bb 52 d2 4d bd
       0.026854947 -0.03336566 -0.0077003688 -0.050249405
000200 dc 74 01 bd 88 16 02 bc 70 a9 f3 3c de 9f 44 bd
       -0.031605586 -0.007939942 0.02974388 -0.048004024
000210 b4 35 59 3d d0 06 35 3c 8c 29 7e bd bc 80 e3 bc
       0.05302973 0.0110489875 -0.06205134 -0.027771346
000220 ac c9 cb bc b4 fc e9 bc 14 98 07 bd 4c d6 cf bc
       -0.024876438 -0.028562881 -0.033104017 -0.02537074
000230 14 45 37 3d 44 f6 f6 3c 6c 14 85 bc 68 0b 81 3c
       0.044743612 0.030146725 -0.01624509 0.01575251
000240 a8 77 92 3c 90 e7 8e 3c d4 25 4b bd fa 81 15 bd
       0.017879322 0.017444402 -0.049596623 -0.03650091
000250 84 49 bd 3c fa 89 15 bd 64 be c3 bc 44 6f fe bc
       0.023106344 -0.036508538 -0.023894496 -0.031058915
000260 2c 20 73 3d ae 13 71 3d 5e 51 25 3d 72 4b 21 bd
       0.059356853 0.05885666 0.0403608 -0.03937859
000270 74 0e 2c bd f2 4b 43 3d de 35 11 3d f8 d0 52 3c
       -0.04200597 0.04767985 0.035451762 0.012867205
000280 d8 3e c4 bc f4 2e e9 3c b8 75 37 bd 78 8c af bc
       -0.023955747 0.028464772 -0.04479 -0.021429285
000290 b8 9d ee bc e2 bf 0f bd ee cd 0d 3d 38 37 3b bc
       -0.02912794 -0.035095103 0.034620218 -0.011426739
0002a0 74 cf b6 3c 68 f8 4c 3c f2 15 48 bd 00 9f 20 3a
       0.022315718 0.012510397 -0.048849054 0.00061272085
0002b0 68 3e 31 3d d0 5b f8 bc 60 2d 3a bb cc a2 8e bc
       0.043272406 -0.030317217 -0.0028408393 -0.017411612
0002c0 10 a3 40 3c 80 d3 20 ba 52 4a 21 bd 40 4f c0 3b
       0.011757627 -0.00061350316 -0.039377518 0.0058688223
0002d0 58 23 3d 3c cc 34 22 3d aa e6 2c 3d cc 20 9f 3c
       0.011544071 0.039601132 0.042212166 0.019424818
0002e0 70 32 73 3d f6 7c 5d 3d 20 65 89 3c 02 bf 06 3d
       0.059374273 0.05407425 0.016771853 0.032897003
0002f0 ca 7b 02 3d 52 66 32 bd e0 d5 c6 3b b0 19 39 3d
       0.031856336 -0.04355461 0.0060679764 0.045190513
000300 b0 a4 d9 3b 00 70 4e bc e4 4b aa bc 60 8e 2d bb
       0.0066419467 -0.012599945 -0.02078814 -0.0026482567
000310 48 49 f5 bc b4 bc 0d 3d 4c 86 58 3d c8 77 65 bd
       -0.02994217 0.03460379 0.05286245 -0.056022435
000320 e0 a5 f3 bc 96 c0 0a bd e0 24 f7 bb 80 78 4b bc
       -0.029742181 -0.03387507 -0.0075422376 -0.012418866
000330 48 a3 40 3d bc 70 f0 3c d6 47 2a bd 44 d1 af 3c
       0.047030717 0.029350631 -0.041572414 0.02146209
000340 20 84 6e bd b4 f7 2f 3d a0 3f 70 3d 90 c7 10 3c
       -0.058231473 0.042960837 0.058654428 0.008836642
000350 96 20 48 3d 10 77 d1 bb ee 7c 1a bd 44 da 57 bd
       0.0488592 -0.006392367 -0.0377168 -0.05269839
000360 60 b0 35 bd 10 62 f2 3b 80 47 99 3a 08 6a a3 3c
       -0.044357657 0.007396944 0.0011694282 0.01994802
000370 20 f8 ba 3c 80 47 94 bc e0 3a 5e 3c 5e 0c 33 bd
       0.022823393 -0.0181005 0.013563842 -0.043712966
000380 78 01 8a bc 60 98 65 bc 6c 96 70 3d 64 3b c9 bc
       -0.016846403 -0.01401338 0.058737203 -0.024564452
000390 6c 16 fa bc 36 4e 62 bd 58 e6 5c 3c 84 68 f9 bc
       -0.03052827 -0.05525037 0.013482653 -0.030445345
0003a0 10 71 36 bc 6c cb da 3c 34 7b 7e bd ba 03 71 bd
       -0.011135355 0.026708327 -0.062129214 -0.058841445
0003b0 26 c5 01 bd 5c 79 02 bd 10 64 4b bd 10 80 24 bd
       -0.031682156 -0.03185402 -0.049655974 -0.040161192
0003c0 7a 37 3d bd e4 0a be bc d8 d7 16 bd cc 20 49 3d
       -0.046195485 -0.023198552 -0.03682694 0.049103543
0003d0 dc 71 5b bd 60 16 5b bb e0 e5 06 3d cc eb f9 bc
       -0.05357538 -0.0033430085 0.03293407 -0.030507945
0003e0 e8 b0 4a 3d 46 48 6e bd 60 35 90 3b 86 f4 27 bd
       0.049485117 -0.058174394 0.004400894 -0.04100468
0003f0 38 5b d4 3c b8 26 7a bc 40 38 a7 3c 80 52 bd 3b
       0.025922403 -0.01526802 0.020412564 0.005777657

output.bias f4 [4]
000000 9c 12 b1 bc 88 17 3b bc 20 08 5f bc 4e 2a 57 bd
       -0.021615319 -0.0114191845 -0.013612777 -0.05253058
