fetch_sticky_mittens_step_4_blocks/networks/ours_10k_block_4_uber_level_0_seed_200/network_release_and_lift_0.pth (torch, 610423 bytes, 8 tensors)

fc1.weight f4 [256, 73]
00000000: c275 9ebc b410 993c 310f 563d 59e8 bdbd
00000010: c9b4 d43d 36ed 423d 9150 20bd 59df d8bd
00000020: 0f29 d6bc dfb0 ef3c 6141 11bc c406 44bd
00000030: 184e 07bb 4c17 e73c 692b ccbd 2c71 eebb
00000040: 7c65 d9bd e8ce 863d 41ba 17bd 7ec0 9e3d
00000050: 1f18 b2bd 1feb e33d 9386 92bc db88 b5bc
00000060: f010 4b3d 2c7c bebd 22bf eb3d 9856 e83d
00000070: 4c2f b1bb e66a cb3d 3403 ab3d ea60 87bd
00000080: 82c6 23bd 3099 913c 32e9 c9bd 0cea febb
00000090: c565 963d 012b a93d 84a4 833d 9d83 263d
000000a0: dfcf 0bbd 0a7b 7c3c ff8c 983d a094 b23d
000000b0: 085e adbc 7ad6 383d 7044 6bbc 599b 78bc
000000c0: 1f4b d43d 2b09 8c3d 39eb fb3c addd 6abb
000000d0: e010 a43d d7a8 ed3d b5cf 483d 40bf 6f3d
000000e0: 3ffa c33d f315 cebd 7016 a13d 62f3 98bc
000000f0: 7b8d eebd aa07 c6bd e373 71bd 4936 963d
00000100: 3bc9 343d 3a1c b13d 6426 aabd ba33 8ebd
00000110: ee39 853d 64c7 4abd 3d67 a63d 3ecc a4bd
00000120: 77d9 ea3b 6ff8 b43d 2962 debc 36c4 b93d
00000130: d877 8abd bd8e 8a3d 3ac5 b5bd 7887 2bbd
00000140: 281f 5e3d 9d50 a2bd d528 c53d 242a c2bd
00000150: 87b2 54bc ce39 a63d 9701 003d c776 763d
00000160: f6fe b73d 1f2f ecbd c0a2 04bd 9850 e43d
00000170: f9bc 11ba 4053 83bd e197 9cbd 339b 9dbd
00000180: ec8a ff3c 2177 6dbd 0a44 55bd c444 b63c
00000190: 19b4 bd3d a388 4e3d 6bfe d93d 6853 0f3c
000001a0: 1b57 6b3c 211d c4bd 1887 87bb 4068 843d
000001b0: 014b a53d 70b6 d5bd afe1 ebbd 68b6 b03d
000001c0: f4d5 ccbd 2416 1d3d 994d 173b 183d fd3c
000001d0: f448 d5bc 9aad 8abd 29d1 c53d c0b2 973c
000001e0: 14d9 903d b4b7 5d3d f315 253d 1c24 373c
000001f0: 97bc 123d dd8a 813d e066 ec3c 7b5e ee3d
00000200: ef2a dd3d 75eb cabd 61ca 593d 2d74 f4bc
00000210: 54b6 45bd 9409 10ba 16d9 2dbd a7de 653d
00000220: ea8a d03b b287 bbbd 7889 95bb 775e a8bd
00000230: 23df 4abc 31c2 5fbd 03b0 213d 3c57 013d
00000240: fb19 d63d e480 6bbc c736 6a3d 5410 91bd
00000250: 5282 ea3d 63c4 acbd edbd 0f3d 4a53 31bd
00000260: b675 4bbc dca9 87bd 2a71 c8bd a3f2 643c
00000270: b468 7d3d 6b7d 4d3d b5e9 b6bb a637 d0bd
00000280: 7d8c 12bd cd7c c5bd 5707 803d 51f4 1bbd
00000290: 885c 4c3d 98f0 c9bd 1186 643d 6975 e13c
000002a0: c61b 9f3d 587a da3d 730c a83d 0bf4 a43d
000002b0: d5ea 78bd d687 d93d 202d dbbd e27f 9b3d
000002c0: a06d 69bd e444 423d 6150 9bbd 4fa9 e13d
000002d0: 3cdf a33d 760f e83d ed96 aa3d d999 b5bd
000002e0: df77 8b3d 8cdc c3bc 41da 95bc f75a 543d
000002f0: d19e 1c3d 3039 90bd 4a2a de3d abeb b83d
00000300: b67c c73d 79a6 aebd 1812 22bc 9fe4 903c
00000310: d135 abbd bff0 bdbc 2a09 db3d 59b3 80bc
00000320: 6274 d23a 51f5 86bd 8d5a ebbd 306c 17bd
00000330: 12b2 1bbd c64b cbbd af3c 873c e72f e4bd
00000340: 2ade 573d 6f48 a33d 19b0 7dbd d92f d9bd
00000350: df90 15bd 490f ad3d 5155 33bd c6c6 823c
00000360: d80a 70bd 584b 3abc 497a 03bc 66dd 49bd
00000370: 83db d9ba 3f88 c7bd 747c e63c d714 ebbd
00000380: 913d 9dbd eece 053d 85a7 a43c fa3d c33d
00000390: ba40 b7bd 8d72 803d 070f e13c e53a 4d3d
000003a0: 90b0 d73d 1854 493d facd ac3d 7a59 0fbd
000003b0: aa38 403d efef 18bd 8bf9 ed3d 70f8 2dbc
000003c0: a37b dfbd 20e9 54bd 35ad 063d d9aa 983a
000003d0: 8cd2 d2bd a0c2 ab3d 5081 f53c 81c7 2b3d
000003e0: 7426 793c 2bba 933d fc54 d3bd d86b 9d3c
000003f0: a074 0a3d 4efd 173d b677 e73d e52c 1abd
-0.01934326 0.018684722 0.05226058 -0.092728324 0.103860445 0.047589503 -0.039139334 -0.10589475
-0.026142625 0.029259143 -0.008865685 -0.047858015 -0.0020645913 0.028209351 -0.09969217 -0.0072766747
-0.1061506 0.06582433 -0.03704286 0.07751559 -0.08696007 0.1112883 -0.017886436 -0.022159984
0.0495767 -0.09301028 0.11511065 0.113446414 -0.0054072496 0.09932499 0.0835022 -0.06610282
-0.039984234 0.01777324 -0.098589316 -0.0077793654 0.0734363 0.082601555 0.06427863 0.04065286
-0.03413379 0.015410194 0.07448768 0.08719754 -0.021163002 0.045126416 -0.0143595785 -0.0151737565
0.10365891 0.06837686 0.030751811 -0.0035837695 0.08011031 0.11604469 0.04902621 0.058532
0.09569215 -0.1006278 0.07865608 -0.018670741 -0.11648079 -0.096694306 -0.05894841 0.07334573
0.04413722 0.08647962 -0.08308104 -0.0694346 0.0650519 -0.04950656 0.0812516 -0.080467686
0.007167037 0.088364474 -0.027146416 0.090706274 -0.0676114 0.067655064 -0.088755086 -0.04187724
0.05422893 -0.07925532 0.09626929 -0.09480694 -0.012982017 0.08116494 0.031251516 0.06017187
0.08984177 -0.11532425 -0.032381773 0.111481845 -0.000555947 -0.06412363 -0.07646156 -0.076956175
0.031194173 -0.05797494 -0.05206684 0.022249587 0.092628665 0.050423276 0.106442295 0.008747913
0.014364029 -0.095758684 -0.0041359775 0.064651966 0.080709465 -0.10435188 -0.11517655 0.08628541
-0.10001746 0.038351193 0.0023087023 0.03091292 -0.026035763 -0.06771393 0.09659035 0.018517852
0.07072654 0.05413027 0.040304136 0.011178043 0.035824385 0.06325314 0.028857648 0.116391145
0.107992046 -0.09908191 0.05317152 -0.029840553 -0.048269585 -0.00054945913 -0.042443357 0.05612054
0.006364216 -0.09156741 -0.0045635067 -0.08221143 -0.0123823015 -0.054628555 0.0394745 0.031577334
0.10454174 -0.014373992 0.057181146 -0.070831925 0.11450638 -0.08435895 0.035093237 -0.04329232
-0.012418201 -0.06624195 -0.09787209 0.013973865 0.06186743 0.050168436 -0.0055820593 -0.10166864
-0.03577851 -0.096429445 0.062514 -0.038074795 0.049892932 -0.09860343 0.05579192 0.027521806
0.07768969 0.106678665 0.082054995 0.0805436 -0.06077083 0.10621612 -0.10701966 0.07592751
-0.056989312 0.04742898 -0.075836904 0.11018621 0.08001563 0.11331074 0.08329568 -0.08867235
0.06809973 -0.023908876 -0.018292548 0.051844563 0.038237397 -0.07042158 0.1084791 0.09029325
0.097405836 -0.08527846 -0.009892009 0.01768714 -0.08359874 -0.023186086 0.10695107 -0.01571052
0.0016056413 -0.06589759 -0.114918806 -0.03696841 -0.038011618 -0.09926562 0.016508428 -0.11141949
0.052702107 0.079728 -0.061935518 -0.10604829 -0.036515113 0.08450181 -0.043782536 0.015963923
-0.05860409 -0.011370502 -0.0080247605 -0.049283408 -0.0016621206 -0.09742784 0.028135516 -0.11478584
-0.076777585 0.032668047 0.02009941 0.095333055 -0.089478925 0.06271849 0.027472986 0.050104994
0.105317235 0.049152464 0.084377244 -0.03499744 0.04692904 -0.037338194 0.11619862 -0.010618314
-0.10912254 -0.051980138 0.032880027 0.0011647596 -0.10294065 0.08386731 0.029968888 0.04193831
0.015206922 0.07213243 -0.10318944 0.019216463 0.03380263 0.037106805 0.1130213 -0.03764047

fc1.bias f4 [256]
00000000: 0a7c 88bd 6476 893d ce4e c5bc 164e d2bd
00000010: 5516 c53d 28f5 da3d 0cb1 b9bd ad80 d73d
00000020: c6ad a53d 45b4 dbbc 5027 d5bd 7bd5 adbd
00000030: fecd eb3d 17b1 ebbd 1962 a9bd 958d 1c3c
00000040: fb8b eebd 5705 d2bc 4a2b e23d 0763 423d
00000050: a9f7 d83d ac4a eebd fd68 053d 4502 3fbc
00000060: 5dca 59bd abcf c43c ff9a c33d 8095 7e3d
00000070: 88e2 adbd 123c 7cbd 9ab7 ef3c 03b1 f2bc
00000080: b640 7a3d 48a2 a03d 7aee 1cbd 5d4e 1d3d
00000090: 556f d23d d863 66bc bc5a 383a 3bed 9ebd
000000a0: f6d8 dcbb 83ce 1b3c 7de1 b03d 2507 8b3d
000000b0: 98a4 4ebd 0f7b 67bd e019 443d ac2b 1ebc
000000c0: 64e1 dfbd 6f0d 4fbd 026a db3c 288c 4abd
000000d0: e28d eb3c d28f a0bd f618 48bd 0c11 94bd
000000e0: 66da 593c fa4d ad3d 4b77 b8bd a4e2 1dbc
000000f0: 7e60 0bbd 37a4 553d 4682 eb3d 2531 e13c
00000100: 9b91 933a 3c8b 623d be3c 103d a3a5 7fbd
00000110: 42d1 813d 593b 5e3d b3fb 373c 7f61 7abd
00000120: adf4 593d 802c bebd 0983 f7bc c946 babd
00000130: 9407 6bbb 0c13 c93c 9ef5 573d 80b7 a2bc
00000140: 6824 70bd e0a8 1fbc df58 eabd ddb0 9c3d
00000150: 07b4 df3d 8d88 563d 440a a93c fc1e 083d
00000160: 1710 c6bd cefe d53d e609 89bd d7eb d93c
00000170: f4f6 aabb b85d 63bd 6998 efbc 2585 81bd
00000180: eb22 293d 3770 e2bd 92eb 893b 3299 723d
00000190: 273a 84bd bfad babd fd30 443c 4ee4 c7bd
000001a0: 2b93 71bd 35d0 de3d 7030 6c3d 5f4b 88b8
000001b0: ad00 963d 15ab 29bd 35d6 2b3d ce9b d0bd
000001c0: d551 cf3b 47a3 2e3d 2a3b a7bd ec37 9f3d
000001d0: 5061 673d 5817 553d 6ff9 b2bd 320e 8c3d
000001e0: 3ba1 e73c 4d26 c9bc d99d 47bd 18f8 763d
000001f0: 6cf6 a4bd f71f 5bbd 28ec 433d 8234 e63d
00000200: 2937 56bb 6dee 733d a250 873d fbd1 23bd
00000210: 04d4 5d3d 5a84 a43c ba8f 48bd 7466 74bd
00000220: 70fa 933d 0921 c8bc 0387 94bd d1e9 073d
00000230: b4bb b5bd 1050 773c 0a1e 9c3d 59c1 1a3d
00000240: 6807 913d 3169 b73c f1bd 4a3d d66f 95bc
00000250: df98 8d3d fefa 10bd 2a61 2d3c 100a 94bd
00000260: 0b3d e73d 026a 5bbd 797f d2bd a550 c73d
00000270: 1969 a13d 43ea 60bd 93ed 1a3d 84c7 c73d
00000280: dbe6 bd3c 84a7 e1bd c299 d53d 62d1 adbd
00000290: a9a8 ec3d 094f 583d 0d35 a23d 1319 ecbd
000002a0: 464f d6b9 3c25 72bd 1918 ae3b 9323 55bd
000002b0: 83a4 e5bd 94c5 cabd 3980 e83c 9e69 0cbd
000002c0: fd8d cf3b ed3f b53d 6c9a 1e3d 97ff 853c
000002d0: d647 d83d 3a03 6d3d 184f 26bd 1ece f73c
000002e0: b084 9c3c e476 a03d f6b2 b6bc a7ee ca3d
000002f0: 1219 4dbd 6b3f 53bd f8e2 07bc 914c 5f3d
00000300: 6220 a7bd 647a d93d 6990 43bc 2054 9abd
00000310: 6ca8 da3d 5209 f2bc 6998 edbb b219 db3d
00000320: 6461 31bb e2e2 873c f952 b6bd 7083 efbd
00000330: 7f75 823d 5b29 f4bc f00a bcbc 21d6 05bd
00000340: b63f c2bd c7b6 163d d29c d23d 3fbe dcbd
00000350: 9d21 e23d 7e74 d6bb 105d eebd 7098 ec3d
00000360: aa06 85bd b9ca 133d 954e d3bd 216f dabc
00000370: 938c c53c f5fa 673d 454b 533d 30c0 b43c
00000380: adc2 7fbd 94d0 dbbd c395 133d fba9 dabd
00000390: 92de d5bd a8e9 39bd 9b41 d7bc c727 c13b
000003a0: 446a df3d 0b5d bb3c 7bc2 d43d e8a9 3c3d
000003b0: 481b ca3d 6e9d c7bd 45a3 e03d 507f 1f3d
000003c0: 42df 8e3d 6dd1 c4bd cfb8 a63b 2d5e e1bc
000003d0: da50 d3bd 886f adbd 22a8 68bb 2ee7 803d
000003e0: 2783 24bc 6ea2 dbbd 500f 01bc 598c 9ebd
000003f0: 0bbf e4bd cc05 3e3d 89b6 643c 61f5 d0bd
-0.066642836 0.06712034 -0.024085429 -0.102688 0.096234 0.10691291 -0.09066972 0.1052259
0.08089785 -0.026819358 -0.10407889 -0.08487984 0.11513899 -0.115083866 -0.08270664 0.00955524
-0.11647793 -0.025637312 0.11043413 0.04745772 0.105941124 -0.11635336 0.032570828 -0.011658256
-0.053171504 0.024024805 0.095510475 0.062154293 -0.08490473 -0.061580725 0.029262353 -0.029625421
0.06109687 0.07843453 -0.038313366 0.03840481 0.10275141 -0.014061891 0.00070325634 -0.07760092
-0.006739731 0.009509685 0.086367585 0.06788472 -0.050449938 -0.056513842 0.04787624 -0.009653967
-0.10931662 -0.05054992 0.026783947 -0.04945007 0.028754178 -0.078399315 -0.04885193 -0.07229814
0.013296699 0.084621385 -0.09007128 -0.009636555 -0.03402757 0.05215856 0.11499457 0.027489254
0.0011258604 0.055308565 0.03521418 -0.062413823 0.06338741 0.054255817 0.011229443 -0.061128136
0.053211857 -0.092858315 -0.03021385 -0.090955324 -0.0035862671 0.024545215 0.052724473 -0.01986289
-0.05862847 -0.009744853 -0.11442732 0.076509215 0.10923009 0.05237632 0.020634778 0.033232674
-0.09671038 0.10448991 -0.06691341 0.026601715 -0.0052174274 -0.0555093 -0.02924748 -0.063242234
0.041293066 -0.110565595 0.0042089904 0.05922813 -0.06456404 -0.09115171 0.01197457 -0.097603425
-0.05897824 0.10879556 0.05766338 -6.499024e-05 0.07324348 -0.041422922 0.04195233 -0.101859674
0.006326894 0.042636182 -0.081655815 0.07774338 0.05648929 0.052024215 -0.08738982 0.06838645
0.028275123 -0.024554396 -0.04873452 0.060295194 -0.08054814 -0.05349728 0.047832638 0.11240484
-0.0032686687 0.059553552 0.06607176 -0.039995175 0.054157272 0.020082641 -0.048965193 -0.05966802
0.072255015 -0.024429815 -0.07252314 0.03318197 -0.08873692 0.015094772 0.07622917 0.037782047
0.07081491 0.022389026 0.04949755 -0.018241804 0.069139235 -0.035395615 0.010582248 -0.07228482
0.1129094 -0.053567894 -0.1027822 0.097321786 0.07881374 -0.05491091 0.037824225 0.097548515
0.02318137 -0.11018279 0.104297176 -0.08487202 0.11555607 0.05280975 0.07920275 -0.1152822
-0.00040876324 -0.05911754 0.0053129313 -0.05203588 -0.11213019 -0.09900966 0.028381454 -0.034280412
0.006334065 0.088500835 0.038721487 0.016357226 0.105605766 0.057864405 -0.040602773 0.030249652
0.01910624 0.078351766 -0.022302132 0.099088006 -0.050072737 -0.051574152 -0.00829386 0.05451638
-0.081604734 0.10619047 -0.0119362855 -0.07535577 0.10676655 -0.02954546 -0.0072508347 0.1069826
-0.0027066106 0.016587678 -0.089025445 -0.116949916 0.06370067 -0.029804876 -0.022954434 -0.032674912
-0.09484808 0.036795404 0.10283817 -0.10778474 0.110415675 -0.0065446487 -0.11638844 0.11552513
-0.06495412 0.036082003 -0.10317723 -0.026664319 0.024114883 0.056635816 0.051585454 0.022064298
-0.062441517 -0.107331425 0.036031496 -0.106769525 -0.104428425 -0.045388848 -0.0262764 0.0058946344
0.109089404 0.022871515 0.10388657 0.046060473 0.09868485 -0.09746824 0.10968641 0.038939774
0.06976177 -0.09610257 0.005087949 -0.027510727 -0.103181556 -0.084685385 -0.0035500606 0.06294094
-0.010041035 -0.107243404 -0.007877186 -0.07741613 -0.11169251 0.046392247 0.013959535 -0.10203052

fc2.weight f4 [256, 256]
00000000: 94ee cf3c 6438 373d feb8 6bbd 407b 8a3c
00000010: d8c4 8e3c beee 44bd f208 1a3d e070 b6bb
00000020: 907a 30bc a63a 04bd 2a53 0f3d 6e1c 2f3d
00000030: 9804 1abd 5629 15bd 40e5 13bb c8d2 b03c
00000040: 0286 663d 80ae cfba 5445 3e3d 60f8 49bb
00000050: e25d 653d 9078 3ebc 6073 e9bb 18b2 183c
00000060: 5091 853b 9a9a 3c3d 64fd e6bc e011 03bc
00000070: 4ae0 7ebd 8c0a 9e3c 7402 30bd a8dd ff3c
00000080: 2a60 60bd e8c1 2cbd 70ad 55bc 5ee8 6e3d
00000090: 20d8 3cbc 06b2 353d 1c60 bc3c c0aa 37bb
000000a0: 022f 08bd 62d9 1fbd 1ae9 02bd 0c8b 303d
000000b0: 8081 a5ba 5e3f 03bd 801b 92bc fc65 e23c
000000c0: 3ada 5c3d 6cfa ab3c 80af a03b c051 b43a
000000d0: 6646 533d e217 5ebd ec3d 553d d4be 1cbd
000000e0: 8464 44bd 8036 c13a 7062 d1bb d07b 6c3c
000000f0: c05e d3ba 8c2c 27bd 50ec 613d a2e4 77bd
00000100: c8d1 0f3c 4ce2 9f3c 6c4d 56bd fa01 113d
00000110: daef 743d 842f 69bd 58f2 8cbc d6a7 493d
00000120: 8ec6 08bd 5c9b a23c 80ba 70bb d8dc 1ebc
00000130: dc86 51bd 7274 05bd 4851 e03c f6ec 173d
00000140: d0f6 37bd 0033 84b9 ba5d 2fbd a66e 673d
00000150: 9040 1bbc 72e0 7cbd 08c4 6abc a817 83bc
00000160: dc43 523d 00f3 f73a 38f2 44bc fa83 473d
00000170: 1089 5cbc 70a5 7ebd a48f 3f3d 60db 0f3b
00000180: 70bf 073c 7490 363d d810 1bbd b85d 66bd
00000190: 76a1 5fbd 0004 44b9 2464 4dbd 84a7 f1bc
000001a0: e674 323d 28ab 2c3d ca94 423d 7073 473c
000001b0: e074 0f3c 4ed5 013d 2ebf 263d 00aa 30b9
000001c0: 4ae3 793d 1072 93bb 8005 0ebd 605c ba3b
000001d0: 9082 05bd 7634 643d b036 b1bc 34d5 3abd
000001e0: 7883 55bc 4457 7cbd dc08 58bd c8aa 29bc
000001f0: 002c 72bd 00ad 903c f2c3 09bd 4686 3fbd
00000200: d0af c0bb 003c 05b9 40ba efbc 90e0 803c
00000210: 22db 76bd c8be 393c 60d0 f0bc 906a 72bc
00000220: 60c2 b13b 60ae cdbb 3891 0ebc a8de 643c
00000230: 56e1 663d 24b9 56bd 0c95 00bd e631 08bd
00000240: c2ee 673d fcc2 843c 7099 a93c e0dd 73bd
00000250: 089e 6c3c 668a 6d3d 5049 f73b 00c6 723b
00000260: 6403 b63c fee6 7f3d 362a 313d 440a 16bd
00000270: fc9f 1f3d b0a5 9e3c 2c37 473d 64dd fc3c
00000280: 709a f0bb 682a 6a3d 2880 34bc 58b4 223c
00000290: e055 d4bb ba64 573d 8445 1ebd 7e73 3d3d
000002a0: d4ac 493d 984d 353d c027 92bb 3891 233c
000002b0: 9ced cfbc 1a89 133d 9cd3 d23c b848 a9bc
000002c0: 58d0 2e3d 68bc 323d e0f1 9bbc 2a87 15bd
000002d0: 2430 f1bc 740f 5b3d 50d9 be3b 728f 24bd
000002e0: 8083 1e3d 8cfa 8c3c 50c7 a33b 3039 283c
000002f0: 4883 0abc e021 bdbc 10c8 8a3b 30cb 743c
00000300: eed5 0b3d c818 6abc ba66 62bd f862 3c3c
00000310: fcc2 873c 9896 21bc 88cd 513d e0bc 273d
00000320: f098 ad3b 9e26 793d 909e 983c f00a 1b3d
00000330: 48bc 92bc 24f2 653d 1867 8dbc 2c5e 44bd
00000340: 0aa1 52bd b02c 3ebc d023 a43c 42f1 21bd
00000350: 5067 e9bc 7c4b 54bd 7487 a8bc a0f0 1fbd
00000360: 268f 6cbd d674 1bbd eaee 0b3d 400c be3c
00000370: 4ce8 de3c 5024 7bbc d439 77bd 20eb b73c
00000380: e4ea 00bd 04bf ffbc a0e2 05bc 8056 2aba
00000390: 605d 73bb 8069 203b 4c5f 62bd 24aa 173d
000003a0: 3e97 2b3d 501b c13b 6cbd 15bd 3867 56bd
000003b0: c00a ff3b 80e2 73bd 0095 273b 308c 543d
000003c0: 9cbe 30bd d0f8 b0bb feda 53bd 1052 c63c
000003d0: dcb9 093d 34a4 993c 2011 c9bb 384e 7fbd
000003e0: 303f 163d 0c01 d33c aeaa 43bd 9cf7 84bc
000003f0: 4a4b 7abd 80da b63b 9ef8 25bd 72cf 5c3d
0.025382318 0.044731513 -0.05754947 0.016904473 0.017427847 -0.048079245 0.037606187 -0.005567655
-0.010771409 -0.032282494 0.03499142 0.042751722 -0.037602037 -0.036416374 -0.0022567064 0.021584883
0.056280144 -0.0015844852 0.046452835 -0.003081821 0.055997737 -0.011625424 -0.0071243495 0.009319805
0.0040761605 0.046045877 -0.028196998 -0.007999867 -0.062225617 0.019292139 -0.04297109 0.031233624
-0.05477921 -0.04217711 -0.013041839 0.05832707 -0.011526138 0.04435923 0.022995047 -0.002802536
-0.033247955 -0.03902567 -0.031960584 0.043101355 -0.0012627095 -0.032042854 -0.017835379 0.02763652
0.053919055 0.020993434 0.0049037337 0.0013757274 0.05158081 -0.054221995 0.052061006 -0.038267925
-0.04794742 0.0014740974 -0.0063899085 0.014433816 -0.001612626 -0.040813968 0.055157006 -0.060520776
0.008778043 0.019517086 -0.05231993 0.035402276 0.059799053 -0.05693008 -0.017205402 0.049232326
-0.03339248 0.019849472 -0.0036732256 -0.009696208 -0.051154003 -0.032581754 0.027382508 0.037091218
-0.044913113 -0.00025215 -0.042813994 0.056502007 -0.009475842 -0.061737485 -0.014328964 -0.016002491
0.051334247 0.0018917024 -0.01202064 0.048709847 -0.013460413 -0.062169492 0.046767846 0.0021950826
0.008285388 0.044571355 -0.03785786 -0.05624172 -0.05459734 -0.00018693507 -0.05014433 -0.029498823
0.043568514 0.042155415 0.047505178 0.012173519 0.0087558925 0.031697564 0.040709667 -0.00016847998
0.061007775 -0.0044996813 -0.034673214 0.0056872815 -0.032595217 0.055714093 -0.021632522 -0.045613483
-0.013031833 -0.06160666 -0.052742824 -0.010355659 -0.059123993 0.017660618 -0.033634134 -0.046758913
-0.0058803335 -0.0001270622 -0.029263616 0.01573208 -0.060267575 0.01133699 -0.029396236 -0.014795914
0.0054247826 -0.0062768906 -0.008701615 0.013969101 0.05636724 -0.052422658 -0.031392142 -0.03325071
0.05662418 0.016206257 0.020703048 -0.05953777 0.014441974 0.057993315 0.0075465813 0.0037044287
0.022218414 0.06247615 0.043253146 -0.036630884 0.038970932 0.019366115 0.0486366 0.030867286
-0.007342629 0.057169348 -0.011016883 0.009930693 -0.0064799637 0.052586295 -0.038640514 0.04625272
0.049237087 0.044263452 -0.004460305 0.009983353 -0.025381856 0.036019422 0.025735669 -0.020664558
0.04267916 0.04363671 -0.019036233 -0.036505856 -0.0294419 0.053481534 0.0058242455 -0.040175863
0.038699627 0.017209314 0.004998125 0.010267541 -0.008454151 -0.023087442 0.004235275 0.014941022
0.034139566 -0.014288135 -0.05527375 0.011498205 0.016572468 -0.0098625645 0.0512214 0.04095161
0.0052977726 0.060827844 0.018630296 0.037852228 -0.017912045 0.056139126 -0.017261073 -0.04794137
-0.05142311 -0.011607334 0.020036608 -0.039536722 -0.028491646 -0.0518298 -0.020572402 -0.039047837
-0.057753704 -0.03795322 0.034163393 0.0231992 0.027210377 -0.015328482 -0.060357884 0.022450984
-0.03147401 -0.031219013 -0.008171707 -0.0006497875 -0.0037134513 0.0024476945 -0.055266663 0.037027493
0.041892283 0.0058931485 -0.0365576 -0.05234453 0.007783264 -0.05954218 0.0025570989 0.051891506
-0.04315053 -0.0054007545 -0.05172252 0.024209052 0.033624515 0.018755056 -0.0061360747 -0.062330455
0.036681354 0.025757335 -0.047770195 -0.01623135 -0.061106957 0.0055802464 -0.040520303 0.053908773

fc2.bias f4 [256]
00000000: a890 903c e45f 233d a6e5 56bd 76d8 763d
00000010: 7c33 c3bc 7462 ddbc 6252 7c3d 2063 9b3c
00000020: d825 a7bc ae78 25bd 00d9 cd3b fc18 6bbd
00000030: e07e 8c3b 46cc 14bd 08a0 60bd 8e0e 283d
00000040: 60f8 98bc 8650 0abd 86e2 76bd 9462 81bc
00000050: 3aeb 773d d23b 6cbd 1046 82bb e091 78bd
00000060: 90e0 893b 3034 fe3b 6ca4 92bc 5c05 663d
00000070: 66ef 183d 4c51 243d 0404 203d 2c8f d23c
00000080: 3a37 323d 5aa0 033d c86d 5fbc 0831 1cbc
00000090: d466 a5bc 3c95 e4bc 985c ffbc 801e dfbb
000000a0: 3c3b bc3c 30b9 3b3c 3885 9e3c 8001 7aba
000000b0: 9aad 64bd a6f3 2e3d 50da 2abd 18a4 33bd
000000c0: d642 5ebd bcc5 083d 66c8 1a3d 22c4 3bbd
000000d0: e0ca 463c 5023 30bd 2071 b33b d4a4 32bd
000000e0: 52a9 4c3d b829 2b3c bca3 c93c 3c31 2cbd
000000f0: 60a0 98bc 605b 33bd e0f7 6bbc ccaa 003d
00000100: 383a 2f3c 00f6 6bbd 3424 4d3d 4c58 4abd
00000110: 9e27 723d 782c 583d 7836 afbc 886d 1fbd
00000120: e021 543b 3aea 543d 0eb3 633d f06b 183d
00000130: 487d cbbc a8d9 683c 74f6 3b3d 685d a1bc
00000140: 0cec d3bc c88a 3a3c 300a a73c 00d6 04ba
00000150: 78dd 13bd 1254 523d 1c6c 94bc b49b 03bd
00000160: 644b dc3c b8f0 46bd ba8d 0b3d a82d 97bc
00000170: 00c6 4b3a 7cef ab3c 8e55 233d fae6 613d
00000180: a0fd 3e3c 6e16 4a3d ccd5 733d c82b ff3c
00000190: c067 f83c 3457 053d 389e 263d e6d5 4b3d
000001a0: 5cef 4f3d 0005 cf3b 84a7 8abc a8be 453c
000001b0: 2c73 29bd 9067 523c 5042 a33b 3094 97bb
000001c0: 409a fbbb a21a 43bd a840 74bd 0e86 203d
000001d0: 908d ae3b 0262 683d 08e7 37bc dcf8 b4bc
000001e0: 702f 8f3c 2854 6bbd 98b4 c43c a4ba 3fbd
000001f0: b4fb b7bc cc28 903c a048 44bb f6fa 353d
00000200: 2ead 49bd 4e07 4a3d 2cc4 e13c 7833 9a3c
00000210: a0c5 193b c078 e73c 54d1 0bbd 9aa5 3dbd
00000220: 40d8 7bbd 66b5 203d e4c5 483d b6b5 7ebd
00000230: 8e2b 46bd cac4 033d 0ef7 4fbd a4e8 debc
00000240: 3240 243d e41b 41bd 506c 4b3c 90f8 1dbd
00000250: 10ed 733d e621 13bd a0e9 8ebc 10a0 073c
00000260: c859 2b3c 841b f7bc e04e 97bc d07f f1bc
00000270: a47b 26bd 40f5 d03a 5478 26bd 3803 bdbc
00000280: 6e6d 4ebd 3056 7ebd c255 5dbd b4a3 f03c
00000290: 2014 91bc e49c f53c 2c50 71bd 24d9 233d
000002a0: fca6 16bd d0cd 9b3c 601c 683c 3ca5 5c3d
000002b0: 1419 723d 004b 923c f819 063d 7847 68bd
000002c0: b0fe b3bc b45e 153d 74ac 6a3d ac03 923c
000002d0: 6055 013b e810 01bc 6c63 7bbd 406f 34bb
000002e0: 344f 6c3d e450 dd3c 2abc 3fbd d8b8 63bc
000002f0: b03f dabc fe64 11bd a663 37bd 46c4 4f3d
00000300: 4067 38bb dc56 843c 78b0 213d da79 433d
00000310: 38e6 2c3d fc3c 313d 808c c5ba b8e5 523d
00000320: f8d9 e9bc 7064 cf3b 6218 563d 00c5 243d
00000330: 503e f43b 9201 193d 92cc 0a3d 00dd 85b9
00000340: dce6 7bbd 6ac4 08bd 5218 103d f694 76bd
00000350: f695 083d f425 d43c cc1c 1dbd f481 21bd
00000360: 1430 d83c 0000 9bb8 d8fc 333d c494 173d
00000370: f023 583c a284 1fbd e8da 003d 20f5 7cbc
00000380: f009 d43b a4d3 3ebd 5e6d 4c3d f8c5 18bc
00000390: e0de 873c 066e 693d 180a 303c 1206 57bd
000003a0: 3625 6d3d 461d 6bbd bc44 b13c 06bd 683d
000003b0: 1813 433c 0a9c 2fbd 34bb 5abd 8e37 2dbd
000003c0: 7ced 393d 0427 473d bcd1 1dbd 5ecf 79bd
000003d0: 90e2 90bc 1437 d03c c4f6 bbbc 80c8 4a3d
000003e0: aa29 103d 44aa d23c 6cc6 dabc ac81 783d
000003f0: 4cbe 843c c0ac 1c3b 28d4 b43c 18f3 f73c
0.017647102 0.03988637 -0.052465104 0.060265027 -0.02382826 -0.027024485 0.061602004 0.018968165
-0.020403787 -0.040398292 0.006281972 -0.057396874 0.0042875856 -0.036327623 -0.054840118 0.041029505
-0.018673122 -0.0337682 -0.060274623 -0.015794076 0.060527064 -0.057674237 -0.0039756373 -0.060685992
0.004207678 0.007757686 -0.017900668 0.056157455 0.037337683 0.040116593 0.03906633 0.025703035
0.0435097 0.032135345 -0.013637014 -0.009533174 -0.020190634 -0.027903192 -0.031172082 -0.006809056
0.022977464 0.011457726 0.019350633 -0.00095369667 -0.05582962 0.04271283 -0.041712105 -0.043857664
-0.05426296 0.0333917 0.03778877 -0.045841344 0.01213333 -0.043002427 0.005476132 -0.043614224
0.049966164 0.010446958 0.024614207 -0.04203914 -0.01863116 -0.043788314 -0.01440236 0.031412885
0.010695033 -0.05760765 0.050083354 -0.049400613 0.059119813 0.052776784 -0.021388277 -0.038922817
0.0032368824 0.05198119 0.05559068 0.037212312 -0.024840012 0.01421205 0.045889333 -0.01969786
-0.025869392 0.011385627 0.0203906 -0.0005067289 -0.03609988 0.051349707 -0.018117957 -0.032130912
0.026891418 -0.04856941 0.034070708 -0.018454388 0.000777334 0.020988218 0.039876513 0.055151917
0.011657149 0.049337797 0.059530064 0.031148806 0.03032291 0.032553867 0.040678233 0.049764536
0.05076538 0.0063177347 -0.01692558 0.012069382 -0.041369602 0.012842074 0.0049822703 -0.0046258196
-0.0076783 -0.04763282 -0.059631974 0.039190345 0.005326934 0.056734093 -0.011224516 -0.022091322
0.017478675 -0.057453305 0.024011895 -0.046808854 -0.022458889 0.017597578 -0.0029950514 0.044428788
-0.049237423 0.049323373 0.027559362 0.01882337 0.002346374 0.02825582 -0.034135178 -0.046300508
-0.06148553 0.039235495 0.04901685 -0.06218501 -0.04838138 0.032170095 -0.05077272 -0.027210541
0.040100284 -0.04714574 0.01241596 -0.038567126 0.059552252 -0.035921 -0.017445385 0.008277908
0.010458417 -0.030164488 -0.018470228 -0.029479891 -0.040645257 0.0015942231 -0.040642098 -0.023072824
-0.05039733 -0.062093914 -0.054036863 0.029374935 -0.017709792 0.029982038 -0.05891435 0.040002003
-0.036780342 0.019019037 0.014166921 0.053868517 0.059105948 0.017858028 0.03273961 -0.056708783
-0.02197203 0.03646727 0.05729337 0.017824017 0.0019734725 -0.007877566 -0.061374113 -0.002753213
0.05769272 0.02701611 -0.046810307 -0.013899051 -0.026641697 -0.035496704 -0.044772767 0.05072429
-0.0028137714 0.016154699 0.039474934 0.04772363 0.04221174 0.04327105 -0.001507178 0.051488608
-0.028546318 0.0063291118 0.052269347 0.040226936 0.0074537173 0.037355013 0.0338865 -0.00025532395
-0.06149946 -0.03339044 0.035179444 -0.060200654 0.03334614 0.025897004 -0.03835754 -0.039430574
0.026390113 -7.390976e-05 0.043942302 0.03700711 0.013192162 -0.038944848 0.031458765 -0.015439302
0.006470911 -0.046588555 0.04990899 -0.009324543 0.016585767 0.056989692 0.010744594 -0.052496023
0.057896815 -0.057400964 0.02163922 0.05682089 0.011906408 -0.04287342 -0.053401187 -0.04228931
0.0453925 0.048621193 -0.038530096 -0.060988776 -0.017686158 0.025416888 -0.022944815 0.049507618
0.035195984 0.025715955 -0.026705943 0.06067054 0.016204022 0.0023906678 0.02207382 0.030267283

fc3.weight f4 [256, 256]
00000000: 1621 153d 3ecf 403d 12e9 16bd 30c2 31bc
00000010: 9c5a d1bc 909e e7bb ece9 c6bc 5c3c 773d
00000020: b08d 173d 0ec0 62bd 84c8 c3bc e049 3d3b
00000030: 0081 263c 6a70 713d 306a b6bc 3c25 e43c
00000040: 4023 ba3a 805a 4fbc 60f1 7bbc f863 1e3d
00000050: a8b1 26bc be83 523d 983c 613c 00f1 4ebc
00000060: c247 4cbd c815 ed3c 4a00 3abd a8e1 683c
00000070: f81f 95bc 543d 963c 40e7 ef3a 9866 263c
00000080: b4ea f4bc 1006 533c ac67 923c 7029 223d
00000090: 4c83 003d 2c10 0f3d 3016 70bc ae0a 66bd
000000a0: e05e 363c aa23 42bd a02f fc3c c856 0a3c
000000b0: f011 c73b 90eb e23b 408d c13a e06e 40bd
000000c0: a0c7 843c b803 da3c 6258 7e3d e069 233d
000000d0: d8fc 60bc 8848 d33c b201 373d 209a 54bc
000000e0: 16b7 26bd 90c5 64bc 502c 08bd f87d 663c
000000f0: 2418 12bd c25a 6d3d 2873 07bc c85c 52bc
00000100: 7c9c 133d e850 573c ac05 08bd 149c 7f3d
00000110: fab1 64bd acaf 2c3d 6626 5cbd 3889 aa3c
00000120: fc1a f33c 72e5 72bd 66ff 51bd faa3 01bd
00000130: bc5c ae3c dc58 733d a05e 673c 08c6 3ebc
00000140: b04e 613d 8cd2 5bbd 06ce 46bd 704d a5bb
00000150: 0025 4d3c 3ef8 263d bac6 513d 5ce5 d4bc
00000160: 5042 b13b a831 46bd 689e 233c 90a8 7ebd
00000170: e8f5 1f3d d8d7 a73c 5c60 0e3d 6442 2c3d
00000180: 902a b13c 389b d53c 6c98 35bd 883a 61bd
00000190: ac08 a5bc b864 003d f8b2 65bd 1466 bdbc
000001a0: 36ce 38bd 74b3 fa3c 4621 22bd 5e16 0ebd
000001b0: 90c1 f23c 5a4b 2bbd 1224 723d 8686 3dbd
000001c0: aa95 4bbd e4ce 75bd 0882 14bd 4a52 413d
000001d0: d62a 67bd 5a66 033d 0405 243d c2bd 06bd
000001e0: facc 553d 381e 083d b0c0 f03c a24b 3bbd
000001f0: a8fb 7dbd 3851 593c fe51 623d 9874 49bc
00000200: 4c74 df3c 9c18 dbbc 285d 8cbc 1cff 96bc
00000210: d458 5a3d 5824 42bd 8c7e 98bc 98ce 6b3c
00000220: a0c5 cdbc 5c12 f73c 24e6 e23c d0c0 823c
00000230: e8cb 693d 967e 1fbd 00f7 b63c ec89 b6bc
00000240: dc51 be3c 50b8 563c 30dd d43c 4481 2fbd
00000250: 4cf8 ddbc c8c5 0e3d d81c 44bc 48eb 37bc
00000260: c017 1dbd f28c 24bd 7878 6fbc bc41 763d
00000270: 96ce 713d 780e dfbc e25a 353d d6ee 64bd
00000280: 8c11 0bbd 1862 543d 3259 4e3d 2aff 5c3d
00000290: 9083 21bc eae5 01bd dc2b 213d c61c 39bd
000002a0: 5881 a7bc e4d7 13bd 50bd 13bc de7a 1f3d
000002b0: 9c4b 823c 34dd 2abd aaab 673d 7aa7 703d
000002c0: d6a5 343d f4cd ea3c 9ef1 663d c49d eb3c
000002d0: 90d3 b73b c433 c6bc 247e ca3c be53 0b3d
000002e0: 5c35 49bd 4cd7 233d 608e 41bc aed4 3f3d
000002f0: 5c3e 4ebd daef 713d ca95 6ebd dc86 f33c
00000300: 1eba 1dbd 80a8 89bc 1c20 833c ead5 0c3d
00000310: b87c 233c d4d1 29bd 08a1 c53c 10a2 86bc
00000320: 00dd 083a 807d 57bb ea9c 643d 4efb 4f3d
00000330: f2d8 1a3d 1065 51bc 5a8d 45bd ee65 57bd
00000340: 7078 ba3c 0e5c 71bd eca5 c73c 280a 793c
00000350: c4a8 683d f8b4 753c d0aa bd3c 3873 8ebc
00000360: feff 7dbd 2434 fd3c b8f6 1dbd 10d7 1ebd
00000370: e0dc 5e3b 688a 46bd ac1f 4b3d 046d e6bc
00000380: 2cfb 923c 1ab3 33bd d0d0 16bc 34a3 223d
00000390: 8043 b0ba 0001 28bc 0e6d 49bd 90cc adbc
000003a0: c487 463d 2c45 8abc c0ad 4dbd 7c57 61bd
000003b0: 8861 2fbc a0b9 583c 504f 06bc 346e 9bbc
000003c0: fa73 76bd 3e79 5bbd c0bc e73b 1c08 a73c
000003d0: 84c4 6b3d 0ecf 76bd acb3 5dbd e8fd 25bc
000003e0: b23d 26bd c06d 8dbb 927e 763d da32 153d
000003f0: cc00 e8bc 3ca8 f03c 2ed2 46bd f44a e53c
0.036408506 0.04707264 -0.036843367 -0.010849521 -0.025555901 -0.0070684627 -0.024281465 0.060360298
0.037000358 -0.05535894 -0.023899324 0.0028883144 0.010162592 0.058945097 -0.022267431 0.027849786
0.0014201179 -0.012655854 -0.0153773725 0.038669556 -0.0101741925 0.05139517 0.013747357 -0.012630701
-0.04987312 0.02894105 -0.045410432 0.014213957 -0.01820372 0.01833979 0.0018303171 0.010156296
-0.029897071 0.012879863 0.0178717 0.0395903 0.031375214 0.034927532 -0.014653727 -0.05616253
0.011131018 -0.047397293 0.030784428 0.008443542 0.0060751364 0.006925054 0.0014766827 -0.04698074
0.01620847 0.026613101 0.062096007 0.039895892 -0.013732158 0.025791422 0.04467935 -0.012976199
-0.040701948 -0.013963118 -0.033245385 0.014068119 -0.035667554 0.05794788 -0.0082672015 -0.012839504
0.036037907 0.013141848 -0.033208534 0.062404707 -0.055833794 0.04215972 -0.053747557 0.020817384
0.029675953 -0.059300847 -0.051268958 -0.03165052 0.021284454 0.059410915 0.014121681 -0.011643894
0.055006683 -0.05366759 -0.048536323 -0.0050446317 0.0125210285 0.040764086 0.05121491 -0.025988273
0.0054095164 -0.0483872 0.009986497 -0.062172472 0.039052874 0.020488665 0.034759864 0.042055503
0.02162674 0.02607499 -0.044334814 -0.05498746 -0.020145737 0.031346053 -0.05607888 -0.023119964
-0.045118533 0.030603148 -0.039582513 -0.0346893 0.029633313 -0.041819908 0.05911643 -0.04627087
-0.049703278 -0.06001176 -0.03625682 0.047197618 -0.056437336 0.032080032 0.040043846 -0.03289581
0.052197434 0.033231944 0.029388756 -0.045726426 -0.062007576 0.013263993 0.055253975 -0.0122958645
0.027277134 -0.026745133 -0.017134264 -0.018432193 0.05330737 -0.04739794 -0.01861503 0.0143925175
-0.025118649 0.030160122 0.02769763 0.01596108 0.057079226 -0.03893908 0.022334576 -0.022282563
0.023232393 0.013105467 0.025984377 -0.042847887 -0.027095936 0.034856588 -0.0119697675 -0.011225529
-0.038352728 -0.04017348 -0.014616124 0.060121283 0.059034906 -0.027228579 0.044276126 -0.055891834
-0.03395228 0.051851362 0.050378032 0.05395428 -0.009858027 -0.031713404 0.03934847 -0.045193456
-0.020447418 -0.03609456 -0.009017304 0.038935535 0.015905194 -0.041714862 0.056560196 0.058753468
0.044103466 0.02866266 0.056382768 0.028761752 0.005609937 -0.024194606 0.024718352 0.03401541
-0.049123153 0.040000245 -0.01181373 0.046833687 -0.05035244 0.05906663 -0.05824832 0.029727392
-0.038507573 -0.01680398 0.016006522 0.03438369 0.009978466 -0.041459873 0.024124637 -0.0164347
0.000522092 -0.00328812 0.055813707 0.050776772 0.03780455 -0.012780443 -0.048230506 -0.052587442
0.022762507 -0.05892568 0.02437111 0.015200175 0.056801572 0.01499676 0.023152739 -0.017388925
-0.06201171 0.030908652 -0.038565367 -0.03877932 0.0034006163 -0.04847184 0.04959075 -0.028128155
0.017942034 -0.043871976 -0.009205058 0.039706424 -0.0013447851 -0.010254145 -0.04917627 -0.021215707
0.04846932 -0.016878687 -0.05021453 -0.055015072 -0.010704406 0.01322785 -0.0081976205 -0.018973447
-0.060169198 -0.053582422 0.0070720613 0.020389609 0.05756046 -0.060256056 -0.054126427 -0.010131337
-0.04058618 -0.0043160617 0.0601793 0.03642545 -0.028320692 0.029377095 -0.048540287 0.027989842

fc3.bias f4 [256]
00000000: fe86 3ebd d472 ecbc cca8 033d f4ed cabc
00000010: 8c78 66bd d4a3 403d f49c 48bd e012 413d
00000020: 9af1 2a3d 6086 28bd b0b7 c43c 08dd bcbc
00000030: b25d 193d 2cfb ef3c 1293 5e3d 98b8 ecbc
00000040: f201 473d c2da 08bd 9c7b 0fbd 947a fb3c
00000050: 283a 6e3d f494 cebc 102d 2b3d 7c03 323d
00000060: 7033 d5bb c0a4 643c 845d 13bd e8e6 e33c
00000070: 7c11 f63c a696 7dbd de24 1cbd ca46 1cbd
00000080: f4cd 11bd 9c45 243d c00d 96bc 1072 263c
00000090: 8ac9 44bd 30db 543c e040 78bb 983b 7abd
000000a0: 1008 5ebd c6fa 66bd e2de 1a3d a0cb 79bd
000000b0: 987a 4c3d d0c4 70bc a0b3 5cbc a0c7 8dbc
000000c0: a8ce 3f3c 9a73 193d 90e4 253c d417 f33c
000000d0: a899 f83c 6445 183d 6c6c 153d 1e81 0f3d
000000e0: e034 8ebb 148b 3dbd 8676 51bd 78a2 413d
000000f0: 84bc 10bd 1ca2 3ebd e03f 59bd b03c 54bc
00000100: 7609 4a3d e0d8 6d3b 0007 62bc 806a 77bb
00000110: 5c6e bf3c fcf1 2c3d d051 423d 168e 0ebd
00000120: 1c80 45bd eea2 77bd 2a99 293d 5810 a0bc
00000130: 8c0b eebc 3ebb 463d 1048 e8bc ca27 783d
00000140: a471 48bd 88d1 13bd b44a 45bd a0ca 59bd
00000150: 9c38 8fbc 60f8 b03c 68bf be3c 3e75 63bd
00000160: 4838 273c 68f1 0f3c da15 723d 06fd 533d
00000170: 48dc c73c 04d6 8bbc f4ba 9c3c c434 00bd
00000180: 80ca f93a 56aa 0b3d 20ae 74bb 68cd 2c3d
00000190: d89a ad3c 808b 41bb 803d ea3b 5ab4 483d
000001a0: 1235 73bd e413 303d 0ab9 6dbd fc03 cc3c
000001b0: 74d2 733d 9815 743d c0c1 bebb b01e 61bd
000001c0: 6400 193d b0af 7bbd 5048 78bd b2fd 6bbd
000001d0: 5026 8b3b 90d0 84bc 4e0c 1d3d bc9b efbc
000001e0: a4d4 da3c e4b5 32bd 3653 2fbd a057 4dbb
000001f0: 4ec4 1e3d 9480 2dbd 8e65 613d 603c 353c
00000200: 046a fabc 2061 4b3c fc01 66bd 0a29 2d3d
00000210: bec9 373d c843 5abc 800f 28ba 007b b73c
00000220: f41e 28bd 10d5 df3b 50c9 d23c 508d e83c
00000230: b89e cb3c 3027 5ebd 22da 03bd d600 1d3d
00000240: 72e5 633d 6080 52bb 5cbb dbbc 4c50 1bbd
00000250: 3019 eabc 023b 2a3d f09c 9bbc 10f9 9e3c
00000260: 246a f73c ccac 2e3d 0684 6cbd b87e 1b3d
00000270: 7004 fbbc 78dc 763d 98b1 58bd 9c24 8a3c
00000280: 68c4 b4bc 7009 833c c09c 37bd 903d b13b
00000290: 6cce cabc 90eb 3d3d 6008 26bb 2008 edbb
000002a0: c6f7 553d f018 46bd dc89 14bd 940a 54bd
000002b0: 7073 e0bc fe1a 5a3d 64da 5d3d f08c 203d
000002c0: 80fa 6fbc 74f9 1bbd 082f 71bc e207 00bd
000002d0: 42dd 30bd 6cb9 563d 085a 213c 1021 be3b
000002e0: 621f 073d 36f5 2cbd 66ad 7dbd d42e f4bc
000002f0: 1647 52bd a0e0 633c e071 c63b e2d3 44bd
00000300: 681c bb3c de8b 3bbd b0af c0bc 483c 60bc
00000310: 94a5 323d a82d ddbc 4470 98bc da06 6ebd
00000320: b8b5 5fbd 64a4 c9bc 0a82 1abd 40a6 d2bc
00000330: 4c78 2e3d b61c 22bd 8825 81bc 70d0 c9bb
00000340: f61f 0a3d f0c1 da3c 4ef3 40bd 5409 d3bc
00000350: 9e70 7f3d a60c 623d 38e1 613c 00a7 53bc
00000360: a0d6 c0bc 5c83 be3c 0009 933a dcf5 383d
00000370: 1e65 6f3d 0211 543d f0e6 5d3d 00c9 95b9
00000380: 6e8b 773d 6053 89bc 1060 fb3c 5cff 413d
00000390: f8d2 78bc 98fc 333c ca80 603d ea3f 21bd
000003a0: 7ac8 563d c020 41bb 442c c53c b0dc f3bb
000003b0: a0d1 e73b 5654 5b3d 60af acbc 60db c23b
000003c0: 103c 4c3d fe3e 54bd a049 fcbb 6299 32bd
000003d0: 90d2 a73b 3e84 40bd f43d e93c 2455 713d
000003e0: 6cf4 5d3d 001c 92ba 8023 96bb 28c6 a13c
000003f0: 04e1 d2bc e03a b0bb dcb2 d9bc 18c1 6f3d
-0.046515457 -0.028863348 0.0321434 -0.024771668 -0.056267306 0.04703124 -0.048977807 0.04713714
0.041734315 -0.041143775 0.02401337 -0.023054615 0.03744287 0.029294573 0.054339476 -0.028896615
0.04858584 -0.03341175 -0.035029992 0.030698098 0.05816093 -0.02521751 0.04179102 0.043460354
-0.006506376 0.013955295 -0.035977855 0.027820066 0.030037634 -0.061911248 -0.038121097 -0.038153447
-0.035596803 0.040105447 -0.018317103 0.010159031 -0.048043765 0.0129917115 -0.0037880465 -0.06109199
-0.054206908 -0.0563915 0.037810214 -0.060985208 0.049921602 -0.014695361 -0.01347056 -0.017307103
0.0117069855 0.037463762 0.010125294 0.029674448 0.030346707 0.03717555 0.036480352 0.035035245
-0.0043397993 -0.046275213 -0.051138423 0.047274083 -0.035336033 -0.04654132 -0.05303943 -0.012953922
0.04932543 0.0036292598 -0.013795614 -0.0037752688 0.023368053 0.04222296 0.047441304 -0.034803472
-0.048217878 -0.060458116 0.041405834 -0.019539043 -0.02905824 0.04851841 -0.028354675 0.06058482
-0.0489365 -0.036088496 -0.048166946 -0.053171754 -0.017483048 0.02160281 0.023284629 -0.055531733
0.01020629 0.008785583 0.05910287 0.051754974 0.02439703 -0.017069824 0.019132115 -0.03130032
0.0019057542 0.034097992 -0.0037335232 0.04218808 0.021192 -0.0029532611 0.0071484447 0.04900012
-0.059376784 0.04298772 -0.058037795 0.024904244 0.059526876 0.059590906 -0.0058214366 -0.054960907
0.03735389 -0.061446846 -0.060615838 -0.05761499 0.0042465106 -0.016212732 0.038341813 -0.029249065
0.026712723 -0.043630496 -0.042803966 -0.0031332746 0.03876143 -0.04235895 0.05502849 0.011061758
-0.03056813 0.012413293 -0.056154236 0.042275466 0.04487013 -0.013321824 -0.0006411001 0.022397518
-0.041045144 0.006830819 0.025730759 0.028387696 0.024855956 -0.05423659 -0.03219045 0.038330875
0.055638738 -0.0032119974 -0.026822738 -0.037918374 -0.028576463 0.04156018 -0.018995732 0.019405872
0.030201979 0.04264526 -0.057743095 0.037962645 -0.030641764 0.06026885 -0.05290374 0.01686316
-0.02206631 0.015995711 -0.044827223 0.00540895 -0.024756633 0.046367228 -0.0025334582 -0.0072336346
0.05223825 -0.048363626 -0.036264285 -0.0517679 -0.027398795 0.053248398 0.05416335 0.03919691
-0.014647126 -0.038079694 -0.014720686 -0.031257518 -0.043179758 0.052422926 0.009848125 0.005802281
0.032988913 -0.04222604 -0.061932944 -0.029807486 -0.051337324 0.013908535 0.0060560554 -0.04805363
0.022840694 -0.045787685 -0.023521274 -0.013686247 0.04361494 -0.02699931 -0.01860822 -0.058112003
-0.05461666 -0.02461452 -0.03772167 -0.02571404 0.042595193 -0.039578162 -0.015764967 -0.006158881
0.033721887 0.026703805 -0.047107033 -0.025761284 0.06236326 0.055187844 0.0137866065 -0.012918234
-0.023539841 0.023255996 0.0011217892 0.045156345 0.058446042 0.051774032 0.054175317 -0.0002856925
0.060435705 -0.01676339 0.030685455 0.04736267 -0.015187018 0.010985516 0.054810323 -0.039367594
0.052437283 -0.0029468983 0.024068959 -0.0074420795 0.00707455 0.053547226 -0.021079719 0.0059465617
0.049861968 -0.051817887 -0.0076992065 -0.04360331 0.0051215366 -0.047001116 0.028471924 0.058919087
0.054188177 -0.0011147261 -0.0045818686 0.019747809 -0.025742061 -0.005378112 -0.026574545 0.058533758

output.weight f4 [4, 256]
00000000: dc13 c53c b8bb 4abd fced 213d 8cf9 503d
00000010: 64ee 4ebd 0cce ab3c 28d1 393d 9810 55bc
00000020: c0a0 73bc 90e5 253d 80ed d6ba 8052 b7bc
00000030: b41a 82bc 900c f9bc 8e97 2dbd 34dc 5fbd
00000040: 8cd2 f23c 74b7 eebc 80c6 dbbc a851 42bd
00000050: a2cd 0f3d 3070 6b3d 2022 39bb a0ca fc3c
00000060: d4c8 373d 6053 d63b a082 4c3c d040 c6bc
00000070: d0ab 41bd de82 233d c66e 413d c02f a83b
00000080: a6a7 00bd c438 7d3d c4ef 5ebd 3674 68bd
00000090: 70d9 6dbc 5c58 ecbc 24a5 a0bc aec7 583d
000000a0: 5ecf 103d a09a a3bc 6492 54bd 78f1 f8bc
000000b0: 9880 bebc dc5e 6b3d cc89 a73c f406 1e3d
000000c0: 6075 da3c 781c 593d b6e6 34bd 18d0 8bbc
000000d0: 3adb 40bd 8075 7aba 108d e7bc f692 393d
000000e0: 80b6 0e3b 3a0d 0cbd dc59 e53c 98e0 5cbd
000000f0: 6217 213d 800b 733b 8c99 24bd c459 703d
00000100: 7ce5 d73c 20b6 8ebc 20a8 453c 1c97 54bd
00000110: a650 6cbd be33 673d 38f8 62bc d04d 4bbd
00000120: 74fa 36bd 0aa2 63bd 2091 72bc 88b8 993c
00000130: 00ff b7bc 6c95 2a3d 3426 7bbd 1812 7b3c
00000140: 402d 63bb da97 1abd 88e2 323c 702f 06bc
00000150: 18f5 87bc 3c4b 0d3d be74 193d b28e 553d
00000160: 2269 193d c0a8 5ebd 04f2 03bd e038 babc
00000170: a80c 2b3c c015 67bb c4a4 2c3d 381b 2c3c
00000180: 4c8d a63c f810 5c3c 98e6 863c 848c ecbc
00000190: 0cbd 08bd 445d 633d d81b f43c 1e19 30bd
000001a0: e4dc eb3c 202d 51bc 724c 60bd f01c 8cbb
000001b0: 743d f4bc c863 c7bc 8030 26bd c012 993c
000001c0: 4cfe cf3c 0cd0 bfbc f8e1 883c 8a08 5c3d
000001d0: 70f7 fe3b ccf4 ce3c 0c5d fbbc d88a 2c3d
000001e0: acbd 533d 9095 8f3c c0f6 353b 3c29 3d3d
000001f0: 16fb 1cbd 44d8 02bd 3434 7dbd 52bc 41bd
00000200: d633 043d 4c9f 14bd a013 a8bb 0e39 36bd
00000210: 90f0 073d b6ce 47bd f8d2 a93c 16d9 78bd
00000220: 88d2 62bd a4d3 8cbc f0f4 593d 462d 1ebd
00000230: 8c16 d9bc 48ed 063c 786c 2cbd 50cc d0bc
00000240: 145b 42bd ce30 293d 88de 693d c84e 36bd
00000250: 0230 583d 6822 1cbd 6059 e9bc 2ef5 7abd
00000260: 80b6 1cbb 68f9 a23c 58f1 3e3c 0eab 673d
00000270: f835 54bc 7074 5cbd a8b0 fbbc 5051 e2bb
00000280: dabc 4bbd dcbf 5c3d e618 253d 6ebf 4d3d
00000290: 40d3 0abb 483d ec3c 88a9 36bc 00f8 d83a
000002a0: e0af 473c 32c7 79bd f82b a3bc d435 8c3c
000002b0: 4274 513d 807a 7d3c 0471 ef3c 4293 0e3d
000002c0: 007f 8db9 1cf0 e63c 7042 67bc 920d 363d
000002d0: d8d3 253d cc78 cdbc 4097 a83c c426 ac3c
000002e0: 609b f33c c02e b8ba ec98 51bd 7850 423d
000002f0: 4458 7cbd 1015 10bd 24f8 e9bc 7ad6 1e3d
00000300: 0a91 243d a266 543d 50d9 f3bb 2c02 823c
00000310: 00a1 6aba 78e6 d03c 4223 0dbd da3f 36bd
00000320: d4e6 6a3d ac98 29bd 8a0d 113d c07f 43bb
00000330: 5001 fb3b dccb ea3c 10db 6fbc 6cef ddbc
00000340: 78ca 09bd 4094 aeba 0cdf e23c 6870 313d
00000350: 60c2 0dbb bc48 d23c 80c4 4a3a e236 663d
00000360: a073 613b 5eec 253d f4a4 cb3c ac5c 7ebd
00000370: 44e9 f33c 54df 2cbd 004a 3b3b d8b4 0c3c
00000380: 0639 323d 9854 35bc c680 5bbd bcd0 063d
00000390: f49d 85bc 8e17 4fbd c08a 3ebb f001 12bc
000003a0: f8f5 20bc 680d 26bc 5076 cb3c 98d4 153d
000003b0: fa09 41bd 20a2 213c dc46 a83c f009 12bc
000003c0: c099 2dbd 4085 22bb 227b 41bd 44fd 00bd
000003d0: 78b4 903c 3829 2bbd 149d c13c c89e 35bc
000003e0: faed 7cbd 44c4 79bd 341d 39bd a01e a1bc
000003f0: 38e6 14bd 6417 b03c 40fa 1abc 68d1 dabc
0.024057321 -0.04949543 0.0395336 0.051019236 -0.050520316 0.020972274 0.045365483 -0.013004445
-0.014869869 0.04050213 -0.0016397685 -0.022378206 -0.015881874 -0.030401498 -0.042380862 -0.05465336
0.029641412 -0.029140212 -0.02682805 -0.047441155 0.035108216 0.057480037 -0.00282491 0.030858338
0.04486926 0.006540701 0.012482315 -0.024200827 -0.047282994 0.039919727 0.047224782 0.0051326454
-0.031409882 0.061821714 -0.054427877 -0.056751452 -0.014517173 -0.028850727 -0.019609995 0.052924804
0.03535401 -0.019971192 -0.05189742 -0.030388579 -0.023254678 0.05746351 0.020451449 0.03858085
0.026667297 0.053005666 -0.044165336 -0.017067 -0.04708407 -0.0009554252 -0.028265506 0.04530617
0.002177626 -0.0341923 0.02799695 -0.053925127 0.03932894 0.0037085712 -0.040185496 0.058679357
0.026354544 -0.017420828 0.01206401 -0.05190192 -0.0576941 0.05644583 -0.013853125 -0.049634755
-0.044672444 -0.055574454 -0.014805108 0.01876475 -0.02246046 0.041646406 -0.06131573 0.015324138
-0.0034664422 -0.037742473 0.010918267 -0.008190021 -0.016596362 0.034495577 0.03746485 0.052138038
0.037453778 -0.05436015 -0.032213226 -0.022732198 0.010440029 -0.0035260767 0.04214932 0.010504536
0.020331047 0.01343178 0.016467378 -0.028875597 -0.033383414 0.055508867 0.029798433 -0.042992704
0.028791852 -0.012767106 -0.054760404 -0.0042759106 -0.02981446 -0.024339572 -0.040573597 0.018685699
0.025389813 -0.023414634 0.016709313 0.05371908 0.0077809617 0.025263213 -0.030684017 0.0421246
0.051694557 0.017527372 0.0027765483 0.046181902 -0.03832539 -0.03194453 -0.061817363 -0.047298737
0.032275997 -0.03628473 -0.0051292926 -0.044488005 0.033188403 -0.04878112 0.02073048 -0.060753904
-0.05537656 -0.017190762 0.053212106 -0.038617395 -0.026500009 0.008235283 -0.04209563 -0.025488049
-0.04745014 0.04130631 0.057096988 -0.044508725 0.05278016 -0.03811875 -0.028485 -0.061268978
-0.002391249 0.019894317 0.0116542205 0.056559615 -0.01295232 -0.05382198 -0.030723885 -0.006906666
-0.04974065 0.05389391 0.040306948 0.05023139 -0.0021183044 0.028837815 -0.011148818 0.0016553402
0.012187928 -0.060980983 -0.019918427 0.017115511 0.051136263 0.015471101 0.029228695 0.034808405
-0.00026988238 0.028190665 -0.014114961 0.044446535 0.040485233 -0.025082015 0.020579934 0.021014579
0.029737175 -0.0014052019 -0.05117123 0.047440022 -0.061607614 -0.035176337 -0.028560705 0.03877876
0.040177383 0.05185569 -0.007441677 0.015870176 -0.00089503825 0.025500521 -0.034457453 -0.044494487
0.05734904 -0.041405365 0.035413302 -0.0029830784 0.0076600686 0.02866166 -0.014639631 -0.027091704
-0.033640355 -0.0013319328 0.027694248 0.04332009 -0.002163075 0.025669448 0.0007734969 0.056204684
0.0034401193 0.04050862 0.02485893 -0.062100098 0.029774316 -0.04220517 0.0028578043 0.008588038
0.043511413 -0.011067532 -0.053589605 0.03291391 -0.01631067 -0.050559573 -0.00290744 -0.008911595
-0.0098242685 -0.010135032 0.02483669 0.0365797 -0.047128655 0.009865314 0.0205416 -0.008913502
-0.042382956 -0.0024798661 -0.04723657 -0.031491533 0.01766418 -0.041787356 0.023634471 -0.01108522
-0.06175039 -0.06097819 -0.045193866 -0.019667923 -0.036352366 0.021495529 -0.009459078 -0.02671118

output.bias f4 [4]
00000000: dc64 c1bc 7cd6 6ebd 0004 f839 da33 34bd
-0.023607664 -0.058310017 0.00047305226 -0.043994762
