fetch_sticky_mittens_step/networks/ours_10k_block_3_uber_level_0_seed_250/actor_network_1_3.pkl (torch, 31315 bytes, 4 tensors)

weight f4 [100, 67]
0	0x3df38097	0.11889761
1	0x3dae9b42	0.08525707
2	0x3def9b39	0.11699528
3	0x3cba236d	0.02272197
4	0x3c27bdc4	0.010238115
5	0x3d96eb49	0.07369096
6	0xbd58739a	-0.05284462
7	0x3df5ac9c	0.11995813
8	0xbdf18421	-0.1179278
9	0xbde3a9d3	-0.11116376
10	0xbcd885fd	-0.026431078
11	0x3d8530b1	0.06503428
12	0xbdf3728b	-0.11887082
13	0x3cb5f828	0.022213057
14	0x3db72d94	0.0894424
15	0xbdade34b	-0.08490618
16	0x3d92e8a0	0.07173276
17	0x3ddda262	0.10821988
18	0x3cf3be61	0.029753866
19	0xbdcf39e2	-0.10118462
20	0x3d731330	0.05934447
21	0xbd8ce1cb	-0.06879004
22	0x3dc5a89f	0.096513025
23	0x3de3278a	0.11091526
24	0xbd9c01be	-0.0761752
25	0x3dcc621c	0.099796504
26	0xbd5de649	-0.054174695
27	0xbd36449e	-0.044499032
28	0x3c7c89df	0.01541373
29	0x3db896c0	0.09013128
30	0x3dcb88dd	0.09938214
31	0xbd971090	-0.07376206
32	0xbdbac3a5	-0.091193475
33	0x3cd5c39a	0.026094247
34	0x3d2097dd	0.039207328
35	0xbd8ccbb6	-0.06874792
36	0x3d38928b	0.04506163
37	0x3dd51eef	0.10406291
38	0x3de28094	0.110596806
39	0x3debcee4	0.11514071
40	0x3de23857	0.11045902
41	0xbca5862a	-0.020205576
42	0xbdf7467e	-0.12073992
43	0xbde1227b	-0.10992905
44	0xbdf57a6f	-0.11986243
45	0xbd875ceb	-0.066095196
46	0x3d909370	0.070593715
47	0x3dc6a68f	0.09699737
48	0xbdc1422a	-0.09436448
49	0x3d989b70	0.07451522
50	0x3d94d754	0.07267633
51	0x3da37871	0.07981957
52	0xbce67658	-0.028132603
53	0xba98e1b7	-0.0011663948
54	0xbd9c5b56	-0.076346084
55	0x3dbb11f7	0.09134286
56	0xbdb193ff	-0.08670806
57	0x3cba52a5	0.022744486
58	0x3d972039	0.07379193
59	0x3996d751	0.00028770653
60	0x3d2a81a1	0.04162753
61	0x3b7b7586	0.003836961
62	0x3d3fbc33	0.04681034
63	0xbcf25d5f	-0.029585538
64	0x3c67c78f	0.0141467
65	0x3db07577	0.08616155
66	0x3dc065a0	0.093943834
67	0x3cc0dc3f	0.023542522
68	0xbdb0a264	-0.086247236
69	0xbbafe91f	-0.0053683664
70	0x3cfd0de0	0.030890405
71	0xbd8f2989	-0.06990344
72	0x3cb98297	0.022645278
73	0xbd1628dc	-0.03666006
74	0xbd9e33b0	-0.07724702
75	0x3d9c942f	0.07645451
76	0xbdf6488d	-0.12025557
77	0xbc3f9ef1	-0.011695609
78	0x3cf4b876	0.029873114
79	0x3db584e0	0.088632345
80	0xbd150742	-0.036383875
81	0xbcd520a1	-0.026016535
82	0xbd086655	-0.033300716
83	0x3da24cb4	0.07924786
84	0xbd943707	-0.07237058
85	0xbd841880	-0.064499855
86	0x3d2428a4	0.04007782
87	0xbd05b119	-0.032639597
88	0xbd062c17	-0.03275689
89	0x3d2f5837	0.042808738
90	0x3df760f1	0.12079037
91	0x3dd26f26	0.10275106
92	0xbb19ffd6	-0.0023498437
93	0xbdb52666	-0.088452145
94	0x3bfb6277	0.00767165
95	0xbd9a65c1	-0.07538939
96	0x3ddd8fda	0.10818453
97	0x3d1582c5	0.036501665
98	0xbd2c7020	-0.04209912
99	0xbdd1203d	-0.10211227
100	0xbbb913ff	-0.0056481357
101	0x3de6b900	0.11265755
102	0x3dd09e51	0.101864465
103	0xbcd3b246	-0.025841843
104	0x3b9ceecf	0.0047892104
105	0x3c86970d	0.016429449
106	0x3d71cd78	0.05903384
107	0x3dd68603	0.104747795
108	0x3d045269	0.032305155
109	0xbdcfe039	-0.10150189
110	0x3de3674e	0.11103688
111	0x3dd0c54a	0.1019388
112	0x3d2f00c9	0.04272536
113	0x3c7e01e8	0.015503384
114	0xbd4c0091	-0.049805228
115	0x3cc6c02f	0.024261562
116	0xbc455c75	-0.012045969
117	0x3db90eab	0.09036001
118	0xbdab6582	-0.083689705
119	0x3dd1fca6	0.10253267
120	0x3d7f67f5	0.062355
121	0x3cfd51d5	0.03092281
122	0xbde38a75	-0.11110393
123	0xbd2f9150	-0.04286319
124	0xbc8a025d	-0.01684683
125	0x3dc87eac	0.09789786
126	0x3d9bd973	0.076098345
127	0x3da082f5	0.07837478
128	0xbd7d7cc2	-0.061886556
129	0x3d56b38b	0.05241732
130	0xbd5d2a19	-0.053995226
131	0xbdd79d7e	-0.10528086
132	0xbd67d765	-0.0566019
133	0x3d2c728a	0.04210142
134	0xbde2163d	-0.11039398
135	0x3c485ac3	0.0122286705
136	0x3cca6a91	0.024709018
137	0x3da2faba	0.079579785
138	0x3beded0b	0.0072609237
139	0x3d36a9ab	0.0445954
140	0x3d5e801d	0.054321397
141	0xbd723f8c	-0.059142634
142	0x3c0205eb	0.007935981
143	0xbd84e734	-0.06489411
144	0x3db028c2	0.08601524
145	0x3c43a561	0.011941285
146	0xbde485de	-0.11158346
147	0x3cc1226e	0.023575988
148	0xbb3231d3	-0.0027190342
149	0x3da03398	0.07822341
150	0x3ce072f2	0.02739856
151	0xbde4e781	-0.11176968
152	0xba0031a5	-0.000489021
153	0x3daf94a4	0.08573273
154	0x3dbfcdc9	0.09365422
155	0x3cad4261	0.021149816
156	0x3d576d36	0.052594386
157	0xbbe61530	-0.0070215687
158	0xbddc823b	-0.10767027
159	0x3dccbc51	0.09996856
160	0x3cc82408	0.024431244
161	0xbd8c522f	-0.06851613
162	0x3d1a429a	0.037661172
163	0x3da533b4	0.08066502
164	0x3da255a9	0.07926495
165	0x3dc723d8	0.097236335
166	0xbd0bc0e1	-0.03411949
167	0x3cf19be2	0.029493276
168	0xbb988da9	-0.004655559
169	0xbd8b4392	-0.067999974
170	0xbd80f368	-0.06296426
171	0x3c8cd46b	0.017191133
172	0x3d45516e	0.04817336
173	0xbdcdebd7	-0.100547485
174	0xbd75ab07	-0.059977558
175	0xbd73720a	-0.059434928
176	0x3d47f1c2	0.048814543
177	0x3dd0544d	0.10172329
178	0xbdb90541	-0.09034205
179	0xbd87dffa	-0.06634517
180	0xbd423ac0	-0.04741931
181	0xbdf6cf9f	-0.12051319
182	0x3db90d16	0.09035699
183	0xbdbf27d5	-0.09333769
184	0xbd8d58a6	-0.06901674
185	0xbc8e37e6	-0.017360639
186	0x3da92673	0.08259287
187	0xbc36ee9a	-0.0111652855
188	0x3caa2486	0.020769369
189	0x3bc70089	0.006073062
190	0xbd9bb410	-0.076027036
191	0x3d327e75	0.04357763
192	0xbde94b0f	-0.113912694
193	0xbdde0bd5	-0.108421005
194	0x3bcc656b	0.006237676
195	0x3ddb5b79	0.107108064
196	0xbde0c527	-0.10975104
197	0x3dcf3254	0.10117021
198	0xbbafb245	-0.0053618276
199	0x3d014019	0.03155527
200	0x3d1212fb	0.035662632
201	0xbdf203c8	-0.118171275
202	0xbd97a819	-0.07405109
203	0x3d2f95f9	0.042867634
204	0x3ddf094b	0.10890444
205	0xbdf28479	-0.118416734
206	0x3dba6d07	0.091028266
207	0xbd9da4e9	-0.0769747
208	0xbd7a094a	-0.061044015
209	0xbde0ba5f	-0.109730475
210	0x3dbb24c7	0.09137874
211	0xbdf17bf2	-0.11791219
212	0xbd5f238f	-0.05447727
213	0x3de761d7	0.11297958
214	0xbd9adef0	-0.07562053
215	0x3c61e5a3	0.01378766
216	0xbdd8adc5	-0.10580019
217	0x3d908279	0.07056136
218	0xbdcbcdab	-0.099513374
219	0xbdacb4ac	-0.08432898
220	0x3d55d159	0.052201603
221	0xbd2ba528	-0.041905552
222	0xbdd98c4f	-0.10622465
223	0xbd9df421	-0.077125795
224	0x3c7ff585	0.015622501
225	0x3d49e305	0.04928877
226	0xbd496372	-0.049167104
227	0x3d7b782a	0.061393894
228	0xbde1a053	-0.110169075
229	0xbc8a6bbc	-0.016897075
230	0x3cff1e03	0.03114224
231	0xbdac60d3	-0.08416905
232	0xbda03a66	-0.078236386
233	0x3dab9602	0.08378221
234	0x3d990996	0.074725315
235	0x3d7bf265	0.061510462
236	0x3db51138	0.08841175
237	0x3d0d681b	0.03452311
238	0x3b8ac52a	0.0042349296
239	0xbd2d108d	-0.042252112
240	0xbdac5642	-0.0841489
241	0x3d0ae7fb	0.03391264
242	0x3dc7bf19	0.09753246
243	0x3d93f4ef	0.07224452
244	0x3da4ae7a	0.08041091
245	0xbd182321	-0.037142877
246	0x3d9e7ff8	0.07739252
247	0x3d9b9d6d	0.07598386
248	0x3d5a07d8	0.053230137
249	0xbdecfd29	-0.11571724
250	0x3d9d6997	0.07686155
251	0x3d9c34d3	0.07627263
252	0xbde7ca0f	-0.113178365
253	0x3d6a0c86	0.05714085
254	0x3bd90db7	0.0066239494
255	0xbdd0f71b	-0.10203382

bias f4 [100]
0	0x3d5af6e2	0.053458102
1	0xbd4daa9a	-0.050211526
2	0xbd1f9399	-0.03895912
3	0x3da0ed1e	0.078577265
4	0x3cd73215	0.026268998
5	0xbd36eab1	-0.044657413
6	0x3de40f17	0.11135691
7	0xbd436ccd	-0.047711182
8	0xbdabe44a	-0.08393152
9	0x3d9a112d	0.07522807
10	0xbdc9649d	-0.098336436
11	0xbc8aa9c4	-0.016926654
12	0x3d8058c5	0.062669314
13	0xbdb37a7e	-0.08763598
14	0xbdddb81b	-0.10826131
15	0x3d139dba	0.03603909
16	0xbd44cf5a	-0.04804931
17	0xbc594be7	-0.013262725
18	0xbdca464a	-0.09876688
19	0xbcd6019b	-0.026123812
20	0xbcd0ce7a	-0.02548908
21	0xbda0a232	-0.07843436
22	0xbd96db3c	-0.073660344
23	0xbdb2dca4	-0.0873349
24	0xbd8ff712	-0.07029547
25	0xbd8878d5	-0.06663672
26	0xbde06adc	-0.10957882
27	0xb9096512	-0.0001310299
28	0x3dc5fde1	0.09667564
29	0x3d54c962	0.051949866
30	0xbcabbc33	-0.020963764
31	0xbde08a7b	-0.10963913
32	0x3dd303ac	0.10303435
33	0x3d796c0f	0.06089407
34	0xbc91bc0b	-0.017789861
35	0x3c5e3872	0.013563262
36	0x3cd9cf0d	0.026587987
37	0xbdc5c1c8	-0.096561015
38	0x3d2ee3f4	0.04269786
39	0xbbc05c6d	-0.005870393
40	0x3db20ae2	0.08693482
41	0xbda44d79	-0.08022589
42	0x3d3908ca	0.045174398
43	0xbd9333ee	-0.07187639
44	0xbde975ae	-0.11399399
45	0x3daa6746	0.08320479
46	0xbdf17326	-0.11789541
47	0x3d3fa982	0.046792515
48	0xbdb5754e	-0.08860265
49	0x3dbbd68b	0.0917178
50	0xbdd65ca7	-0.10466891
51	0x3deccfb5	0.115630545
52	0x3dc3f761	0.09568668
53	0x3d82436f	0.06360518
54	0x3dc92cc6	0.09822993
55	0x3dd86f86	0.105681464
56	0xbdd7807c	-0.10522553
57	0xbc921e3d	-0.017836684
58	0xbdf62c73	-0.12020197
59	0x3da0b2c6	0.07846598
60	0x3dc226b3	0.094800375
61	0xbdddce1d	-0.108303286
62	0xbd7a1eda	-0.06106458
63	0x3d1158d7	0.035485115
64	0xbb84eb3e	-0.0040563634
65	0x3d8d1ea0	0.06890607
66	0xbd816f1e	-0.06320022
67	0xbdd13623	-0.10215404
68	0x3d774bb0	0.060374916
69	0xbdf57f14	-0.11987129
70	0xbd9ded96	-0.077113315
71	0x3bcf2fbe	0.00632283
72	0xbdf4e6e4	-0.119581014
73	0xbdda1af1	-0.1064967
74	0xbdf8bfe6	-0.12145977
75	0x3da03d8d	0.0782424
76	0xbd560a01	-0.052255634
77	0xbd59cbeb	-0.053172987
78	0xbc9493c7	-0.018136872
79	0xbda7edfa	-0.08199687
80	0x3bd47809	0.006484036
81	0x3d240ac5	0.040049333
82	0x3d3bb323	0.045825135
83	0xbdd7ef9a	-0.10543747
84	0xbd7a93bd	-0.06117605
85	0xbdcf9213	-0.10135283
86	0xbd80eb21	-0.06294847
87	0xbdbb1e96	-0.09136693
88	0xbdd5fe02	-0.10448839
89	0x3d18af1f	0.037276383
90	0x3ce84cc1	0.028356912
91	0x3cb10717	0.021609826
92	0xbdb37ec3	-0.08764412
93	0x3b0af125	0.0021200862
94	0xbd873d3b	-0.06603476
95	0xbb89aa96	-0.0042012436
96	0xbd17dcce	-0.03707581
97	0x3df3c25b	0.11902305
98	0x3dab2b16	0.08357827
99	0x3d35f706	0.044425033

weight f4 [3, 100]
0	0x3b923d4d	0.004462874
1	0xbd26068a	-0.04053358
2	0x3dbdaa7d	0.09261034
3	0x3dc8bf8f	0.09802162
4	0x3d92309f	0.0713818
5	0xbd60dd53	-0.05489857
6	0xbd558693	-0.052130293
7	0xbdc2aa15	-0.09505097
8	0x3d740e8d	0.05958419
9	0x3d55134d	0.05202036
10	0xbd570370	-0.052493513
11	0xbd873423	-0.06601741
12	0x3d88d73b	0.06681677
13	0x3ae9c6cd	0.0017835737
14	0x3d35c8dd	0.04438101
15	0xbc33ee4d	-0.010982108
16	0x3d5feb60	0.05466783
17	0xbcb14627	-0.021639897
18	0xbc35950d	-0.0110829
19	0xbc999373	-0.018747067
20	0x3ccacfe7	0.024757339
21	0xbda8e3c7	-0.0824657
22	0xbac262cd	-0.001483047
23	0x3ced6f93	0.028983867
24	0x3dc55c55	0.096367516
25	0x3c5df2f3	0.013546693
26	0x3d9ba170	0.07599151
27	0x3d177b87	0.03698304
28	0x3d8027c2	0.06257583
29	0xbb0c7ccd	-0.0021436692
30	0xbcc8b420	-0.024499953
31	0x3d9eee27	0.07760268
32	0x3d68b8a0	0.056816697
33	0x3d41ba60	0.04729688
34	0xbdc5a5c0	-0.09650755
35	0x3d8b1007	0.06790166
36	0x3b044333	0.0020181655
37	0x3dc95982	0.098315254
38	0xbd4966a0	-0.049170136
39	0x3cae8020	0.02130133
40	0x3d33146d	0.04372065
41	0xbdb67465	-0.08908919
42	0xbd775eca	-0.060393132
43	0x3d3a2b17	0.04545125
44	0xbda42f93	-0.080168866
45	0xbcf9003a	-0.030395616
46	0xbce4468d	-0.027865672
47	0xbc77f98d	-0.015135181
48	0x3d9bf392	0.07614817
49	0xbd9bde60	-0.07610774
50	0xbc355780	-0.011068225
51	0xbc32b067	-0.010906315
52	0xbcf9fcad	-0.030515993
53	0x3dc3e04d	0.09564266
54	0xbdc2e43b	-0.09516188
55	0x3d6afb2d	0.057368446
56	0x3d0ccf4a	0.034377374
57	0xbd9f21f8	-0.07770151
58	0xbd78fc4a	-0.060787477
59	0xbbc6d067	-0.006067324
60	0xbd9078da	-0.070543006
61	0xbd431bcd	-0.047633935
62	0xbd71b1b7	-0.059007373
63	0xbdbefb12	-0.093252316
64	0x3d39690d	0.0452662
65	0xbcbbcc2d	-0.022924507
66	0x3d8f65c2	0.07001831
67	0x3cfb6ac0	0.03069055
68	0xbcc122c0	-0.02357614
69	0xbd48e857	-0.0490497
70	0x396cd99a	0.00022587777
71	0x3d7a48b7	0.061104503
72	0x3d9826ab	0.0742925
73	0xbbc2eb33	-0.005948448
74	0x3d33a26d	0.043856073
75	0xbd312000	-0.04324341
76	0xbcc7f0a0	-0.024406731
77	0xbd074f1d	-0.033034433
78	0x391fd000	0.00015240908
79	0x3bcdc4b3	0.006279552
80	0x3d1d80a0	0.038452744
81	0xbd663450	-0.056202233
82	0xbc1d4f00	-0.009601355
83	0xbd37a60d	-0.044836093
84	0xbcddbe47	-0.02706827
85	0x3c1946a7	0.009355224
86	0x3dbfcc9f	0.093652
87	0x3dafa98a	0.08577259
88	0xbdad4018	-0.084594905
89	0xbda68c2b	-0.08132204
90	0xbc9d6aa0	-0.019215882
91	0xbb5b3acd	-0.0033451796
92	0xbd4eba07	-0.05047038
93	0x3da9c7cb	0.082900606
94	0xbba7e24d	-0.0051234127
95	0xbc84ff07	-0.016234888
96	0xbd174407	-0.03693011
97	0x3da155bb	0.0787768
98	0xbd1d0dd0	-0.03834325
99	0xbcb7e900	-0.02244997
100	0x3c1d9627	0.009618319
101	0xbdaf668a	-0.0856448
102	0x3da34f65	0.07974128
103	0xbd01c7cd	-0.031684685
104	0x3da4dd57	0.0805003
105	0x3cef25f3	0.0291929
106	0x3d0851c0	0.033281088
107	0xbbea8d67	-0.0071579698
108	0x3da12f58	0.07870358
109	0x3cff446d	0.031160558
110	0x3c161eb3	0.009162593
111	0xbd6645e7	-0.056219008
112	0x3d9c5dad	0.07635055
113	0x3d7ffb8a	0.062495746
114	0x3d866b2a	0.06563409
115	0xbd3bca87	-0.045847442
116	0x3dbd5d9a	0.09246369
117	0x3d51c493	0.05121286
118	0xbd8509f7	-0.06496041
119	0xbd358367	-0.04431477
120	0x3d9b7f1f	0.07592606
121	0xbd9efd02	-0.07763101
122	0x3c9a218d	0.018814826
123	0x3d98b6cf	0.07456743
124	0xbd9e465f	-0.07728266
125	0x3da7b69a	0.08189125
126	0xbc863767	-0.01638384
127	0xbc5ea867	-0.013589955
128	0x3dbd37cf	0.0923916
129	0xbd41d803	-0.047325145
130	0xbd9be53d	-0.07612083
131	0x3cd6695a	0.026173282
132	0xbc7b9ca7	-0.015357173
133	0x3c00d0cd	0.007862282
134	0xbda8bd15	-0.082391895
135	0x3d9129f7	0.07088082
136	0xbdb4d845	-0.08830313
137	0xbd1e4ab7	-0.038645472
138	0xbcce0ce0	-0.025152624
139	0x3dc64b40	0.096823215
140	0x3cceb6e0	0.025233686
141	0x3d8f1fd3	0.06988492
142	0xbd8bd74d	-0.06828175
143	0xbcee0b73	-0.029058194
144	0xbdc219f2	-0.09477605
145	0x3c22d05a	0.00993737
146	0xbc9c2ca0	-0.019064248
147	0xbca23f67	-0.019805623
148	0x3b0d709a	0.0021582008
149	0xbdb88715	-0.0901014
150	0xbcee5127	-0.02909143
151	0x3c82f4ed	0.01598593
152	0x3d722b30	0.059123218
153	0x3c942627	0.018084599
154	0xbd66ebf0	-0.05637735
155	0xbdc148ea	-0.094377354
156	0x3bcc81b3	0.0062410473
157	0x3d45f657	0.04833063
158	0xbd838e78	-0.06423658
159	0xbd5df527	-0.054188874
160	0x3cc2ebed	0.023794139
161	0x3d52c2c3	0.05145527
162	0x3d69ee23	0.05711187
163	0x3d9164a0	0.07099271
164	0x3d1c996d	0.038232256
165	0x3c681d67	0.014167166
166	0x3cc12880	0.023578882
167	0xbd423aa3	-0.0474192
168	0xbda6152a	-0.081095055
169	0xbda5440f	-0.08069622
170	0xbc5f8af3	-0.013643968
171	0x3da388c8	0.07985073
172	0xbd850b23	-0.06496265
173	0xbdbd2d5b	-0.092371665
174	0x3d9f71b0	0.07785356
175	0x3ca1ecb3	0.019766187
176	0x3d039537	0.032124724
177	0x3bdbe033	0.0067100762
178	0x3d9bc797	0.07606428
179	0x3c76b90d	0.015058768
180	0x3db39a27	0.087696366
181	0xbd2e2c3a	-0.042522646
182	0x3d84c1cd	0.06482277
183	0x3d8a0702	0.06739618
184	0xbd99080f	-0.0747224
185	0x3d3c79da	0.046014644
186	0x3c50e6c0	0.012750328
187	0xbd13b1f7	-0.036058392
188	0x3d954520	0.07288575
189	0xbcfa11d3	-0.030526077
190	0x3d98badd	0.07457516
191	0xbce6d9e7	-0.028180076
192	0x3cadff87	0.021240009
193	0x3c9f56fa	0.019450653
194	0x3d8083e8	0.06275159
195	0xbb8cf7b3	-0.004301989
196	0x3d5af73a	0.05345843
197	0x3ba5cb1a	0.005059612
198	0x3c02c233	0.007980871
199	0xbd994430	-0.07483709
200	0xbdbf25e2	-0.093333974
201	0x3c84552d	0.016153896
202	0xbdcacdf3	-0.09902563
203	0x3d306c5a	0.043072082
204	0x3da04f18	0.07827586
205	0x3cf30707	0.029666437
206	0x3d526733	0.05136795
207	0x3ce34e00	0.027747154
208	0x3d278e2d	0.040907074
209	0xbdbf84ba	-0.093514875
210	0xbd835e35	-0.06414453
211	0xbc42654d	-0.011864972
212	0x3dab4280	0.08362293
213	0xbd248bfa	-0.040172555
214	0xbd4be68d	-0.049780417
215	0x3cc16120	0.023605883
216	0xbd1a3e7d	-0.03765725
217	0xbd7edf3d	-0.062224615
218	0xbdc7a278	-0.09747785
219	0x3d210523	0.03931154
220	0x3d0a3987	0.03374627
221	0x3d4cf0b7	0.05003425
222	0x3d06ccea	0.032910265
223	0x3dc1efe0	0.09469581
224	0x3d8adabf	0.06780004
225	0xbd75e587	-0.060033347
226	0xbdb137bb	-0.08653208
227	0x3cd3af73	0.025840497
228	0xbdb08d1a	-0.08620663
229	0xbd6dd980	-0.058068752
230	0xbd522a87	-0.05131009
231	0xbd3f5e10	-0.046720564
232	0x3dc7d1ff	0.097568505
233	0xbce1cc27	-0.027563168
234	0x3d7d6d2d	0.061871696
235	0xbcd0d773	-0.02549336
236	0x3d71d77d	0.059043396
237	0x3ce5ce4d	0.028052473
238	0x3d00c4c3	0.031437647
239	0xbd4e8f8d	-0.05042987
240	0xbd55352a	-0.052052654
241	0xbdb7fcd5	-0.08983771
242	0x3d4fdad0	0.050745785
243	0x3dc1ff97	0.09472578
244	0x3dc6db07	0.09709745
245	0x3c330d5a	0.010928476
246	0xbd88372d	-0.06651149
247	0x3d0b281d	0.033973802
248	0xbd8686ff	-0.06568717
249	0xbd8538ba	-0.0650496
250	0x3dca1165	0.09866599
251	0xbd61df7a	-0.055144764
252	0x3db0b3df	0.08628058
253	0x3d3688f3	0.0445642
254	0xbd35decd	-0.044401933
255	0xbd9277fa	-0.0715179

bias f4 [3]
0	0xbd7da30d	-0.061923075
1	0x3dc09d57	0.0940501
2	0x3d93d8d8	0.07219094
