fetch_sticky_mittens_step/networks/ours_10k_block_3_uber_level_0_seed_250/network_reach_object_1.pth (torch, 596855 bytes, 8 tensors)

fc1.weight f4 [256, 60]
0	0x3b9bbe6d	0.004752925
1	0x3c8122a8	0.015763596
2	0xbd27a06a	-0.040924467
3	0xbcc65cb8	-0.024214134
4	0xbc119955	-0.008886655
5	0xbcfc2145	-0.030777583
6	0xbb77b0be	-0.0037794556
7	0x3c177fed	0.0092468085
8	0x3db1dd26	0.08684759
9	0xbcbffb39	-0.023435222
10	0x3c9e0dd5	0.019293705
11	0xbdf1d4fe	-0.11808203
12	0x3c332d5b	0.010936107
13	0xbda1fa88	-0.07909113
14	0xbd9fa353	-0.077948235
15	0xb94fd15d	-0.00019819052
16	0xbc9ada26	-0.01890285
17	0x3d6cc3c1	0.057803873
18	0x3d56e670	0.052465856
19	0xbde8eec6	-0.113736674
20	0xbc905abf	-0.017621396
21	0x3c0a178f	0.008428468
22	0x3c8f5dbf	0.017500756
23	0xbd226e7b	-0.039656144
24	0x3ca92357	0.020646734
25	0x3dc4bcd3	0.09606328
26	0x3dd856df	0.10563444
27	0xbdff8c8c	-0.12477979
28	0xbb9fe824	-0.0048799682
29	0x3dce519c	0.100741595
30	0x3cc97e3b	0.024596324
31	0xbdd0eb45	-0.10201124
32	0x3d89679b	0.06709214
33	0x3da163be	0.078803524
34	0xbd8fd743	-0.0702348
35	0x3dd61614	0.1045343
36	0x3df9bf21	0.12194658
37	0x3d96efc5	0.07369951
38	0xbdc76125	-0.09735326
39	0x3ca2ece6	0.019888353
40	0xbd885e9b	-0.066586696
41	0xbd12318b	-0.03569178
42	0x3cf2f6f3	0.02965877
43	0xbdcc4ae1	-0.099752195
44	0xbdd03a71	-0.10167397
45	0xbd7d5862	-0.061851867
46	0xbdd8222a	-0.10553391
47	0xbcdf65c3	-0.027270203
48	0x3de771d8	0.11301011
49	0x3d24064e	0.040045075
50	0xbc36fc1f	-0.011168509
51	0x3d2f5b5d	0.04281174
52	0xbdb018df	-0.08598494
53	0x3d6fda68	0.058557898
54	0xbce4b199	-0.027916716
55	0x3d567a82	0.052362926
56	0xbcc3bb2c	-0.023892961
57	0x3dd5dd00	0.10442543
58	0x3d965b3e	0.07341622
59	0x3d6fd499	0.05855236
60	0xbe015a64	-0.12632138
61	0xbc19dc4e	-0.009390904
62	0x3d3b22b5	0.045687396
63	0x3db4c901	0.08827401
64	0xbd9f6662	-0.077832
65	0x3d50901c	0.050918683
66	0xbd6c41c4	-0.057679906
67	0x3d734147	0.059388425
68	0xbcb903c7	-0.022584809
69	0xbdbcad0a	-0.09212692
70	0x3de0437e	0.10950373
71	0xbdfdca60	-0.123921156
72	0x3c046994	0.008081812
73	0xbddd6c2f	-0.1081165
74	0x3d8cb96f	0.06871306
75	0x3da67676	0.081280634
76	0xbd1219f3	-0.03566928
77	0xbddf4577	-0.10901921
78	0x3d37d085	0.044876594
79	0xbd48cd24	-0.049023762
80	0x3b7d4242	0.003864423
81	0x3b09f5bc	0.002105101
82	0x3de388b8	0.111100614
83	0x3d9fe445	0.07807211
84	0xbd77e6a4	-0.06052269
85	0xbd4ab5a7	-0.049489643
86	0xbd2c4ee8	-0.04206744
87	0xbd491ac3	-0.049097788
88	0x3e007e14	0.12548095
89	0xbd6d7037	-0.057968345
90	0xbd838d43	-0.06423428
91	0xbdc53b51	-0.09630454
92	0x3dd95048	0.106110156
93	0x3d118425	0.035526413
94	0xbdbb3b8f	-0.09142219
95	0x3de4cd37	0.11171954
96	0xbd5081f9	-0.0509052
97	0xbd85562f	-0.06510579
98	0x3e01f1ac	0.12689847
99	0xbe036d43	-0.12834649
100	0x3d7f82fa	0.06238077
101	0xbdfcb723	-0.12339618
102	0x3cef9256	0.029244583
103	0xbdc9a7dc	-0.0984647
104	0xbe035fbe	-0.12829491
105	0xbdbb2c1f	-0.09139275
106	0xbdd1a885	-0.10237221
107	0x3d5f3929	0.05449787
108	0xbd8dbd68	-0.06920892
109	0xbd34f714	-0.044180945
110	0x3d8a9b71	0.06767929
111	0x3dc5bd0c	0.096551985
112	0x3d846d5a	0.0646617
113	0xbde4ceed	-0.111722805
114	0xbda74947	-0.081682734
115	0xbdf415b0	-0.11918199
116	0xbc17c161	-0.009262414
117	0x3ded19e9	0.115772076
118	0xbd3cf149	-0.046128545
119	0x3d0c2bf7	0.034221616
120	0xbd58670e	-0.052832656
121	0xbce7b0d6	-0.028282564
122	0xbd022121	-0.031769875
123	0x3d995d7f	0.07488536
124	0xbd318a8e	-0.043345027
125	0x3dcd3a2c	0.10020861
126	0xbdd2dca4	-0.1029599
127	0x3d7fb622	0.062429555
128	0xbbd2788e	-0.0064230626
129	0x3dbe9030	0.09304845
130	0xbcd2541e	-0.025674876
131	0xbda3e272	-0.080021754
132	0x3db69042	0.08914234
133	0x3d5e8ff9	0.05433652
134	0x3c7499af	0.014929219
135	0xbd2d7051	-0.04234344
136	0x3ddccdb5	0.10781423
137	0x3c26668e	0.010156287
138	0x3da06a5f	0.07832789
139	0xbdf54546	-0.119761035
140	0xbd84bbb9	-0.06481118
141	0x3cef103d	0.029182548
142	0x3d2d5603	0.042318355
143	0x3dbe3d18	0.092889965
144	0x3d38a9dc	0.045083866
145	0x3cffc724	0.031222887
146	0x3dc5a807	0.09651189
147	0xbda0b03d	-0.07846115
148	0x3cac50e4	0.021034665
149	0x3c562467	0.013070202
150	0xbdec2b4d	-0.115316965
151	0x3b17caef	0.002316173
152	0xbbc59ef9	-0.006030914
153	0x3d8cc119	0.06872768
154	0xbcb5c90f	-0.022190599
155	0xbbd880f9	-0.0066071716
156	0x3ce33efc	0.027739994
157	0x3d235d96	0.039884172
158	0x3c995745	0.018718371
159	0xbdbb26ce	-0.09138261
160	0x3d9b73ae	0.075904235
161	0x3c9fa0b0	0.019485801
162	0xbca6726f	-0.020318238
163	0xbd784149	-0.060609136
164	0xbd737574	-0.059438184
165	0x3d6ddb5e	0.058070533
166	0x3d0e2e1a	0.034711935
167	0x3bb081f8	0.005386587
168	0x3d34f888	0.04418233
169	0xbdc86746	-0.09785323
170	0xbba48504	-0.0050207395
171	0xbe03dad6	-0.12876448
172	0x3dff66bc	0.12470767
173	0xbd5fe185	-0.05465843
174	0xbdc6f90c	-0.09715471
175	0x3d35c5c0	0.044378042
176	0x3ced8963	0.028996175
177	0x3ded667a	0.115918115
178	0x3df34800	0.11878967
179	0x3d74ed05	0.059796352
180	0xbdf5ea52	-0.12007584
181	0xbca845df	-0.02054113
182	0xbc599e59	-0.013282382
183	0x3ad838ad	0.0016496383
184	0x3c77b532	0.015118884
185	0x3c687c96	0.01418986
186	0xbcb7ca21	-0.02243525
187	0xbdcc528b	-0.09976681
188	0xbd5a1d55	-0.05325063
189	0x3cb733dc	0.022363596
190	0xbcd857fc	-0.026409142
191	0xbb9e5283	-0.0048316135
192	0x3dad1aa2	0.084523454
193	0x3c88d48d	0.016702915
194	0xbdc79374	-0.09744921
195	0xbcf1fe0c	-0.029540084
196	0xbdbf04f5	-0.09327117
197	0xbd5418e7	-0.05178156
198	0x3d356170	0.044282377
199	0x3dbb1232	0.0913433
200	0x3d786a63	0.060648333
201	0x3de6e013	0.112732075
202	0x3d26d9f9	0.04073522
203	0x3daf9dc0	0.0857501
204	0xbd98406c	-0.074341625
205	0xbd90f0cf	-0.070771806
206	0xbc1829c2	-0.0092873
207	0xbd681404	-0.056659713
208	0x3cd09a68	0.025464252
209	0x3d51a19f	0.051179525
210	0x3d869209	0.06570823
211	0x3db978b2	0.09056224
212	0x3e036dea	0.12834898
213	0x3df995cf	0.12186777
214	0xbdb4f5a8	-0.08835918
215	0xbd9c8f70	-0.07644546
216	0xbdabd978	-0.08391088
217	0x3bc020d3	0.005863288
218	0x3db53e00	0.08849716
219	0xbd8c4c79	-0.068505235
220	0x3db8a29d	0.09015391
221	0xbced65d2	-0.028979216
222	0x3c97cc84	0.018530138
223	0x3de416ae	0.11137138
224	0x3d86f1b2	0.065890685
225	0x3c95893f	0.01825392
226	0xbdbcee36	-0.09225123
227	0xbd7cd433	-0.061725806
228	0xbcf00df3	-0.029303527
229	0xbdf249fb	-0.11830517
230	0xbc6e9123	-0.0145609705
231	0x3d3c085b	0.045906406
232	0x3df3c5e8	0.11902982
233	0x3dec77cf	0.11546289
234	0xbd502381	-0.05081511
235	0x3b0fc327	0.0021936388
236	0xbda23d26	-0.079218194
237	0x3c406e06	0.011744982
238	0x3d155ade	0.03646361
239	0x3d7030eb	0.0586404
240	0x3df497c4	0.119430095
241	0x3d668743	0.05628134
242	0x3dcac869	0.099015065
243	0xbd8b465d	-0.0680053
244	0x3dc94857	0.09828251
245	0xbd33e162	-0.043916114
246	0xbb980061	-0.004638717
247	0xbcb13b29	-0.021634655
248	0xbd993795	-0.074813046
249	0x3df18e09	0.11794669
250	0xbdfda81a	-0.123855785
251	0x3b1815cf	0.0023206358
252	0x3d9ca7b8	0.07649177
253	0xbd9185b6	-0.071055815
254	0xbca4c1eb	-0.020111999
255	0x3e01d48a	0.12678733

fc1.bias f4 [256]
0	0x3d6baaea	0.057536043
1	0xbc842649	-0.016131537
2	0xbdbd3ae5	-0.09239749
3	0x3df3eca2	0.119103685
4	0xbd03e8e1	-0.032204513
5	0xbd9584ee	-0.07300745
6	0xbd4f9493	-0.0506788
7	0x3d680e56	0.056654297
8	0x3dcdf64d	0.10056744
9	0x3d64fbe9	0.055904303
10	0xbc1bfca7	-0.009520686
11	0xbd0a7683	-0.033804428
12	0x3dfb28b0	0.1226362
13	0xbd805a58	-0.06267232
14	0x3c758ed8	0.01498767
15	0xbd9a2017	-0.07525652
16	0xbc751cea	-0.014960507
17	0x3dae29cd	0.085040666
18	0xbd95537a	-0.072913125
19	0xbb1f18cf	-0.0024276262
20	0xbce00b5d	-0.027349168
21	0xbde9b194	-0.114108235
22	0xbd724cb3	-0.059155177
23	0x3cae8b83	0.021306759
24	0xbd620ba2	-0.055186875
25	0x3dc37b9e	0.095450625
26	0xbcf39a43	-0.029736644
27	0x3dafd5f7	0.085857324
28	0x3c9a2247	0.018815173
29	0x3c389cda	0.011267865
30	0xbd877667	-0.0661438
31	0xbcb01075	-0.021492222
32	0xbd449c5b	-0.048000675
33	0xbd8de175	-0.06927768
34	0xbddf570c	-0.10905275
35	0x3c8b60f5	0.017014006
36	0xbd24710e	-0.04014688
37	0xbe032ebb	-0.12810795
38	0x3d48f25e	0.049059264
39	0x3d0bb71d	0.034110177
40	0xbdbd07af	-0.09229981
41	0xbdb1dfcf	-0.08685266
42	0xbc4fe1f4	-0.012688149
43	0xbdade4af	-0.084908836
44	0x3d3f5f56	0.04672178
45	0x3cefea41	0.029286506
46	0x3c076a3c	0.008265074
47	0xbcf9efaf	-0.030509798
48	0xbd049d69	-0.03237668
49	0xbd8ed896	-0.06974904
50	0xbdf6ca57	-0.12050312
51	0xbd607732	-0.054801174
52	0x3c89a9b2	0.01680455
53	0x3df0ba65	0.11754302
54	0xbce24799	-0.027622031
55	0xbe033939	-0.12814797
56	0x3ddc7604	0.10764697
57	0x3ddd9748	0.1081987
58	0xbd8a8cd6	-0.067651436
59	0xbdde71d0	-0.10861552
60	0xbde5d0b1	-0.11221445
61	0xbdd02b99	-0.101645656
62	0xbd2bd0b7	-0.041947093
63	0x3d958732	0.07301177
64	0x3cf0c690	0.029391557
65	0x3dd7d401	0.105384834
66	0x3d8b7a78	0.068104684
67	0xbd962566	-0.07331352
68	0x3d8b905a	0.06814642
69	0xbe00502d	-0.12530585
70	0x3d982b6f	0.07430159
71	0x3d9cd7db	0.07658359
72	0x3d0725bf	0.03299498
73	0xbd54d429	-0.051960144
74	0xbcd44eff	-0.025916575
75	0x3d8f42c6	0.06995158
76	0x3b2cd261	0.0026370513
77	0xbd9b24d7	-0.07575386
78	0xbdd20a5d	-0.10255883
79	0x3de34bce	0.11098443
80	0xbc397863	-0.011320206
81	0xbb81f8cd	-0.003966427
82	0xbcdb4d8a	-0.026770372
83	0x3dddf850	0.108383775
84	0x3d932c62	0.071862
85	0x3c4d5453	0.0125323115
86	0xbd83b250	-0.06430495
87	0x3da7c285	0.081913985
88	0x3cb2497f	0.021763561
89	0x3dddd5d0	0.10831797
90	0xbc0c60c4	-0.008567993
91	0xbd9c9750	-0.07646048
92	0xbdf4289c	-0.11921808
93	0xbcdf29ab	-0.027241549
94	0x3d8385d6	0.064220116
95	0x3c70dc7a	0.014701003
96	0xbd88af48	-0.06674057
97	0x3dca4d08	0.09877974
98	0x3c82ad27	0.015951706
99	0xbd427470	-0.047474325
100	0x3dff9280	0.124791145
101	0x3dcb1cd1	0.09917606
102	0x3df0875a	0.11744566
103	0x3e039b65	0.12852247
104	0xbdcce9ac	-0.10005507
105	0x3c6d4118	0.014480852
106	0x3df78b89	0.12087161
107	0xbc02c94c	-0.007982563
108	0x3c7b6d1c	0.015345838
109	0xbdba038c	-0.09082708
110	0x3d55866e	0.052130155
111	0xbd8e74b0	-0.0695585
112	0x3cd49ee0	0.025954664
113	0xbdbe98de	-0.09306501
114	0x3dacfd35	0.08446733
115	0xbdc8123c	-0.09769103
116	0xbcc84a75	-0.024449566
117	0xbd977455	-0.073952354
118	0xbd8701de	-0.06592153
119	0x3d21c6bb	0.039496165
120	0xbdf57bc3	-0.11986496
121	0xbd649764	-0.05580844
122	0xbc8f1c42	-0.017469529
123	0xbc250c2f	-0.010073706
124	0xbcf656a0	-0.030070603
125	0x3d70db48	0.058802873
126	0xbddce3b8	-0.107856214
127	0xbd643018	-0.05570993
128	0xbd6a144c	-0.057148263
129	0xbc678f4d	-0.014133287
130	0xbd0cf2bb	-0.034411173
131	0x3a52001b	0.000801088
132	0xbd4c1677	-0.04982611
133	0x3dfb5dbb	0.12273737
134	0x3ba43a02	0.005011798
135	0x3dcae829	0.09907562
136	0xbdb6d9ff	-0.08928298
137	0xbdd21be9	-0.1025923
138	0xbdf4de57	-0.119564705
139	0x3be41a64	0.006961154
140	0xbc9f9a8e	-0.019482877
141	0xbde0d0b1	-0.10977305
142	0x3e00d31c	0.12580532
143	0x3d0b55b9	0.0340173
144	0xbd5c1262	-0.05372847
145	0x3e03f405	0.12886055
146	0xbdcef14c	-0.101046175
147	0x3d7905ef	0.060796674
148	0xbc8717a5	-0.016490767
149	0xbdb5ddd8	-0.08880204
150	0x3d5214e8	0.05128947
151	0xbd077b36	-0.033076487
152	0xbde67129	-0.11252052
153	0xbceeae17	-0.029135747
154	0xbdc42082	-0.09576513
155	0xbcbb1f8b	-0.02284219
156	0x3c879863	0.016552156
157	0x3dbca15f	0.092104666
158	0xbd55d986	-0.0522094
159	0xbcc019d2	-0.023449812
160	0xbd1bcb35	-0.03803559
161	0x3d201d7e	0.039090626
162	0x3d76c9af	0.060250934
163	0x3c24474e	0.010026766
164	0x3c62b5c1	0.013837279
165	0xbc3c1fe7	-0.0114822155
166	0x3c046ff7	0.008083335
167	0xbd4de71c	-0.05026923
168	0x3d103309	0.03520492
169	0x3c9f966c	0.019480906
170	0xbcba7b54	-0.022763886
171	0x3ca5daf8	0.020246014
172	0xbd24c76c	-0.040229246
173	0x3d972e60	0.07381892
174	0xbda1809d	-0.07885859
175	0xbdb33aa3	-0.087514184
176	0x3cfeefde	0.031120237
177	0x3de9b19c	0.114108294
178	0x3c9f1242	0.019417886
179	0x3d97b7b9	0.07408089
180	0x3db99963	0.09062459
181	0xbe016def	-0.12639593
182	0x3ab56b44	0.0013841172
183	0x3cb2ee4a	0.02184214
184	0x3de56b06	0.11202054
185	0xbdef2e07	-0.11678701
186	0x3d2f77d8	0.0428389
187	0xbd80e760	-0.06294131
188	0xbd4029fd	-0.046915043
189	0xbcd2de9c	-0.025740914
190	0xbdc06153	-0.09393563
191	0xbd85b028	-0.0652774
192	0x3d6738ce	0.056450658
193	0x3de08f18	0.10964793
194	0x3dc4cbe5	0.09609202
195	0xbd9c00f2	-0.07617368
196	0xbd93615a	-0.07196303
197	0xbdfbc8fd	-0.12294195
198	0xbdcf77cf	-0.101302736
199	0x3d7dc153	0.061951946
200	0x3dba9464	0.091103345
201	0x3dfd2f10	0.12362492
202	0x3dbdcfab	0.09268125
203	0x3d917471	0.071022876
204	0xbdddd50c	-0.10831651
205	0xbe01c3fc	-0.12672418
206	0xbd6580b9	-0.056030963
207	0xbdacf0b8	-0.08444351
208	0x3daa1ba8	0.08306056
209	0xbd4f5528	-0.05061832
210	0xbce45563	-0.027872747
211	0x3de49cf3	0.11162748
212	0x3dc32654	0.09528795
213	0xbd29eeff	-0.04148769
214	0x3be2b0c8	0.0069180466
215	0xbdef4bb2	-0.116843596
216	0xbdac0c83	-0.08400824
217	0x3da1fe0f	0.07909786
218	0xbd05e33e	-0.03268742
219	0x3d89fc22	0.06737544
220	0x3da75207	0.08169942
221	0xbc725059	-0.014789664
222	0xbdd8d1ba	-0.10586877
223	0x3d268c9c	0.04066144
224	0xbda04122	-0.07824923
225	0xbdcd3039	-0.10018963
226	0xbcd611b7	-0.026131494
227	0x3d131b5f	0.035914775
228	0x3c03ee39	0.008052402
229	0x3bb7173b	0.005587486
230	0xbd931b13	-0.07182898
231	0xbd38f97b	-0.045159798
232	0x3dc19071	0.09451378
233	0xbd44eed5	-0.04807933
234	0x3d892a04	0.06697467
235	0x3dcf601d	0.10125754
236	0xbd91a35d	-0.07111237
237	0x3e00ef91	0.12591387
238	0xbcc7c07c	-0.024383776
239	0xbcc9ddb3	-0.024641847
240	0xbcfad752	-0.03062025
241	0x3d5fda7c	0.054651722
242	0xbdaab76c	-0.08335766
243	0x3df46e69	0.119351216
244	0xbb4213aa	-0.0029613771
245	0xbd84c0a9	-0.064820595
246	0x3dc29f13	0.09502997
247	0x3b69a06a	0.0035648593
248	0xbdabdc32	-0.08391608
249	0x3d2b48f3	0.041817617
250	0xbd71ea96	-0.05906161
251	0xbbf70f7f	-0.007539689
252	0x3d85c4fc	0.065317124
253	0x3df542e0	0.11975646
254	0x3c3c2701	0.011483909
255	0x3d8acf89	0.067778654

fc2.weight f4 [256, 256]
0	0xbd58afb4	-0.05290194
1	0xbd404a72	-0.046945997
2	0x3cd1f7ac	0.025630794
3	0x3cc1fc84	0.02367998
4	0x3b766c40	0.0037601143
5	0x3cbdc2c0	0.023164153
6	0xbcf526d0	-0.029925734
7	0x3d4741ae	0.04864662
8	0x3ca69630	0.020335287
9	0x3d25380e	0.04033666
10	0x3bcb8250	0.006210603
11	0x3c6cf138	0.014461808
12	0xbc4afb18	-0.012388967
13	0xbc89f5b8	-0.0168408
14	0x3c32d110	0.010914102
15	0x3c0fe520	0.008782655
16	0xbd7dc5b0	-0.061956108
17	0x3cf87ce0	0.030332983
18	0xbd51808c	-0.051147982
19	0xbd4e03c4	-0.05029656
20	0x3d5c5616	0.053793035
21	0x3d0d40c2	0.034485586
22	0xbb8a7820	-0.004225746
23	0xbd5b2dfa	-0.053510644
24	0xbb7cb7e0	-0.0038561746
25	0x3cc12ecc	0.023581885
26	0xbc9fbf7c	-0.019500487
27	0x3c768320	0.015045911
28	0x3d20f9da	0.039300777
29	0xbbf0ce50	-0.007348813
30	0xbd3f1596	-0.046651445
31	0x3cdf40e0	0.027252614
32	0x3d5f7218	0.054552168
33	0x3d684532	0.056706615
34	0xbd50463e	-0.05084824
35	0x3bc40180	0.005981624
36	0xbcb9f5c0	-0.02270019
37	0xbc39bd08	-0.0113365725
38	0x3d4fc4d8	0.050724834
39	0x3c092420	0.008370429
40	0xbd5b7816	-0.05358132
41	0xbc9a9cc0	-0.018873572
42	0x3d06d7ee	0.03292077
43	0xbc0482a0	-0.008087784
44	0x3c0adb88	0.008475192
45	0x3d1d2fee	0.038375787
46	0x3c50a740	0.012735188
47	0x3d32b3b8	0.043628424
48	0x3d6df014	0.058090284
49	0x3d43bbb6	0.047786437
50	0xbbd1e3e0	-0.0064053386
51	0x3c859094	0.016304292
52	0xbaa91f80	-0.0012903064
53	0xbd2b12c0	-0.04176593
54	0x3ce1fff4	0.027587868
55	0x3a83bb40	0.0010050312
56	0xbd384ba6	-0.04499402
57	0xbd0bdd44	-0.034146562
58	0x3cfebf28	0.03109701
59	0x3d64fc94	0.05590494
60	0xbd6f38c2	-0.058403738
61	0x3d0a4442	0.033756502
62	0x3d5b0ee2	0.05348099
63	0xbd5bd21a	-0.053667165
64	0x3c83c06c	0.016082965
65	0x3d0cc148	0.034364015
66	0xbd319314	-0.043353155
67	0xbd101868	-0.035179526
68	0xbd39cd6c	-0.04536192
69	0x3c942de8	0.018088296
70	0x3cb559b8	0.022137508
71	0xbd1f6070	-0.03891033
72	0x3d2b3c9c	0.04180585
73	0x3ca9e40c	0.020738624
74	0x3b29cc80	0.0025909245
75	0xbd4a226c	-0.049349234
76	0xbcbf8238	-0.023377523
77	0x3cd403e4	0.025880761
78	0xbd52fabe	-0.051508658
79	0x3d71cbe6	0.059032343
80	0x3d38c0d6	0.045105778
81	0xbd3e9e54	-0.046537712
82	0xbc0ebf60	-0.00871262
83	0xbd379c8e	-0.044827037
84	0xbd7bc418	-0.061466306
85	0x3d71efc8	0.059066564
86	0x3c34ff30	0.01104717
87	0xbd4e0844	-0.05030085
88	0x3c1375e8	0.009000279
89	0xbd24e6f6	-0.040259324
90	0x3cb64f94	0.022254743
91	0x3c92062c	0.017825209
92	0x3d3db162	0.046311744
93	0xbccb2dcc	-0.024802111
94	0xbce7f89c	-0.028316788
95	0xbd02957a	-0.031880833
96	0x3d485ade	0.048914783
97	0xbd27f500	-0.041005135
98	0x3d24a4dc	0.040196285
99	0xbcb93e84	-0.022612818
100	0x3cd778b4	0.026302673
101	0x3d39db1e	0.045374982
102	0xbd262a48	-0.040567666
103	0x3cd330a8	0.025780037
104	0x3c774590	0.015092269
105	0x3ccc6170	0.024948806
106	0x3ca8fbe4	0.020627923
107	0xbc3e13f8	-0.011601441
108	0xbbf5db60	-0.007502958
109	0x3d354f26	0.044264935
110	0xbcf45d1c	-0.029829554
111	0x3c324400	0.01088047
112	0xbcce2cb8	-0.025167808
113	0x3c911420	0.017709792
114	0x392e1a00	0.00016603619
115	0x3d2553b2	0.04036302
116	0xbd39683a	-0.045265414
117	0x3d1af436	0.037830554
118	0xbc4faa08	-0.012674816
119	0xbcbf7574	-0.023371436
120	0x3d6d3e62	0.05792082
121	0x3d51e338	0.051242083
122	0xbd64d9e2	-0.05587185
123	0x3d2e16e6	0.042502306
124	0x3d0f6d18	0.03501615
125	0xbc861954	-0.0163695
126	0xbc005970	-0.007833824
127	0x3cb7fb34	0.02245865
128	0xbcd28f50	-0.025703102
129	0x3d295a14	0.04134567
130	0x3a0bbf00	0.00053308904
131	0x3d318044	0.043335214
132	0xbcd0e444	-0.02549947
133	0xbcb87960	-0.022518814
134	0x3a4db000	0.00078463554
135	0x3d540612	0.0517636
136	0x3d7c669a	0.061621286
137	0xbd76da86	-0.060266994
138	0xbc0023f8	-0.007821076
139	0xbcf68454	-0.030092396
140	0xbd71a522	-0.058995374
141	0x3d40144c	0.046894357
142	0x3d219678	0.03945014
143	0x3d6690f0	0.056290567
144	0xbd7092c4	-0.058733717
145	0xbd28ec0e	-0.041240744
146	0x3d63d12a	0.055619396
147	0xbca6265c	-0.020281963
148	0x3d2223d6	0.039584957
149	0x3cce9628	0.025218084
150	0xbc709448	-0.0146837905
151	0xbc92b7d0	-0.017909914
152	0x3cf42be0	0.029806077
153	0x3d1e3622	0.038625844
154	0x3d23e534	0.040013507
155	0x3c46a8f0	0.012125239
156	0x3bffb0a0	0.0078030378
157	0xbcdb5e38	-0.026778325
158	0xbd541d50	-0.051785767
159	0x3be65800	0.0070295334
160	0xbd4d1b66	-0.050074957
161	0x3d20d8d2	0.039269276
162	0x3c29b1b0	0.010357305
163	0xbd6ab3f2	-0.057300515
164	0xbc96c06c	-0.0184023
165	0x3d2a7e6a	0.041624464
166	0xbd4a86c6	-0.049444936
167	0x3cd80750	0.026370674
168	0x3d364306	0.044497512
169	0x3c505a60	0.01271686
170	0x3c567520	0.013089448
171	0x3bd392d0	0.0064567104
172	0xbd207696	-0.039175592
173	0x3cdc7d44	0.0269152
174	0xbd32e00e	-0.043670706
175	0x38cd4c00	9.789318e-05
176	0x3c0c8538	0.008576684
177	0xbd7e6c52	-0.06211502
178	0xbd4cf6b4	-0.050039962
179	0x3d01dbbc	0.031703696
180	0xbd459ae8	-0.048243433
181	0xb9041600	-0.00012596697
182	0x3cf2b748	0.029628411
183	0x3d7a6a4e	0.061136536
184	0xbd352d56	-0.04423269
185	0x3ce17908	0.027523533
186	0x3d60b70a	0.05486206
187	0xbba43ba0	-0.0050119907
188	0x3d1db462	0.038502105
189	0x3cfea27c	0.031083338
190	0xbd026038	-0.031830043
191	0xbcd6bd08	-0.026213184
192	0xbd03d208	-0.032182723
193	0xbc976404	-0.018480308
194	0xbc903604	-0.017603882
195	0x3cc91bdc	0.024549417
196	0x3c384db0	0.011248991
197	0x3d042ee8	0.032271296
198	0xbd0edf20	-0.034880757
199	0xbc9c7178	-0.019097075
200	0x3d3b8cf6	0.045788728
201	0x3cf44390	0.029817373
202	0x3d502b88	0.050822765
203	0xbc11e3c8	-0.008904405
204	0x3b9e5200	0.0048315525
205	0xbb5cae60	-0.0033673272
206	0xbcceb5e0	-0.02523321
207	0x3ae5be80	0.0017528087
208	0xbd2c5c26	-0.042080067
209	0xbcf42a98	-0.029805467
210	0xbd7870cc	-0.060654446
211	0xbca65e58	-0.020308658
212	0x3c8df3f0	0.017328233
213	0x3cd72454	0.02626244
214	0xbc437198	-0.011928938
215	0x3cff3008	0.031150833
216	0xbd6a9f48	-0.05728081
217	0xbd44e578	-0.0480704
218	0xbd33efd0	-0.043929875
219	0x3c7afd60	0.015319198
220	0x3d1a533e	0.037677042
221	0xbcd3aba4	-0.02583868
222	0x3bf03530	0.007330559
223	0x3d448628	0.047979504
224	0x3cf77544	0.030207284
225	0xbd601958	-0.05471167
226	0xbcd46134	-0.025925256
227	0x3bd8df50	0.006618418
228	0x3d694c76	0.056957684
229	0xbd01e8ea	-0.031716265
230	0x3c12da38	0.00896316
231	0x3cf72898	0.030170724
232	0x3d199a70	0.0375008
233	0x3d264198	0.0405899
234	0xbd78feda	-0.06078992
235	0x3d414822	0.04718793
236	0xbd1964b0	-0.03744954
237	0x3cf3f80c	0.029781364
238	0xbd2b7902	-0.04186345
239	0xbcb67634	-0.02227316
240	0xbd5962e8	-0.05307284
241	0x3d6656ca	0.056235112
242	0x3cb60bb8	0.022222385
243	0x3d7b999a	0.061425783
244	0x3d693f08	0.056944877
245	0x3c8a3250	0.016869694
246	0x3c125018	0.008930229
247	0xbd3671ce	-0.044542126
248	0xbcb297d8	-0.02180092
249	0x3beaf3f0	0.007170193
250	0x3b39d080	0.0028353035
251	0x3b270f60	0.0025491342
252	0x3d327924	0.04357256
253	0x3d02b318	0.03190908
254	0xbd581426	-0.05275359
255	0x3d56a98a	0.05240778

fc2.bias f4 [256]
0	0x3c6921c8	0.0142292455
1	0x3bbb7a60	0.0057213753
2	0x3d4c7be8	0.049922854
3	0x3cba72e8	0.02275987
4	0xbd7b6b1e	-0.06138145
5	0xbccdec68	-0.025137141
6	0x3c580988	0.013185866
7	0xba740b00	-0.00093095005
8	0x3d41769a	0.047232248
9	0xbc61a088	-0.013771184
10	0x3b9ca650	0.004780568
11	0x3cc7e9cc	0.024403475
12	0xbd2335c6	-0.039846204
13	0x3cfd5ea0	0.03092891
14	0x3cbe8884	0.023258455
15	0xbcd06a30	-0.02544126
16	0xbba64b20	-0.0050748736
17	0x3c1df9f8	0.009642117
18	0xb9e0f500	-0.0004290715
19	0xbd51bab8	-0.05120346
20	0x3be7ebf0	0.0070776865
21	0xbd4e526a	-0.050371565
22	0x3bdbc290	0.0067065433
23	0xbd45af64	-0.04826297
24	0x3d440ad8	0.047861904
25	0xbd3a18f2	-0.045433946
26	0x3d4b92b4	0.049700454
27	0xbd58deb6	-0.05294677
28	0x3c92ac70	0.01790449
29	0xbd151034	-0.036392406
30	0xbc50b668	-0.012738802
31	0x3cdedbe4	0.027204461
32	0xbc971880	-0.0184443
33	0x3ce6d938	0.02817975
34	0x3a8d40c0	0.0010776743
35	0x3d51a758	0.051184982
36	0xbc2062d8	-0.009789191
37	0xbc03fb18	-0.008055471
38	0x3cd7b770	0.026332587
39	0xbd1089f2	-0.035287805
40	0xbd259ee8	-0.040434748
41	0x3d27314e	0.040818505
42	0xbce4482c	-0.027866445
43	0x3d3160aa	0.043305077
44	0xbd0dc6a2	-0.03461326
45	0x3d400dd8	0.046888202
46	0x3d3f5648	0.046713144
47	0xbc8af1cc	-0.016961
48	0xbd2bf6c6	-0.04198339
49	0x3cb2aa98	0.021809861
50	0x3cd1ef1c	0.025626712
51	0x3c4ee978	0.0126289055
52	0x3d563680	0.05229807
53	0x3ce4235c	0.027848892
54	0x3b532400	0.0032217503
55	0x3d445546	0.047932886
56	0x3cf1b314	0.029504336
57	0xbd2a2e02	-0.041547783
58	0x3c911034	0.017707922
59	0xbc8e8558	-0.017397568
60	0xba7baa80	-0.00096002966
61	0xbd50e1d6	-0.050996624
62	0x3d34818a	0.04406885
63	0x3c38e638	0.011285357
64	0xbd07ec3e	-0.033184282
65	0xbd43fc26	-0.04784789
66	0xbcba8750	-0.0227696
67	0x3d15544e	0.036457352
68	0x3cfbfd68	0.030760482
69	0xbd566e16	-0.05235108
70	0x3d4a3afc	0.049372658
71	0xbd7e8938	-0.06214258
72	0xbcf10004	-0.029418953
73	0xbd4461ce	-0.047944836
74	0xbd56618c	-0.05233912
75	0x3d151d9a	0.036405183
76	0x3d471038	0.04859945
77	0xbd08772e	-0.033316784
78	0xbcc34728	-0.02383764
79	0xbc04a2d0	-0.008095458
80	0x3c9a344c	0.018823765
81	0xbd246fb2	-0.040145583
82	0xbd45a514	-0.048253134
83	0x39e2b700	0.00043242425
84	0x3bf2e620	0.007412687
85	0x3d6c0b8a	0.057628192
86	0xbccf872c	-0.02533301
87	0xbb653000	-0.0034971237
88	0xbd446cc4	-0.04795529
89	0x3cca60e4	0.024704404
90	0xbca16fb8	-0.019706592
91	0xbd134084	-0.0359502
92	0x3cb74c5c	0.022375278
93	0xbbc5fa70	-0.0060418174
94	0x3c166bb8	0.009180956
95	0xbccb0104	-0.024780758
96	0xbd1b744a	-0.0379527
97	0xbd1138a8	-0.035454422
98	0xbd636564	-0.055516616
99	0x3d102178	0.03518817
100	0xbc35ca88	-0.0110956505
101	0xbcc5f2ec	-0.024163686
102	0x3c9995f8	0.018748268
103	0xbd2a0250	-0.04150611
104	0xbb6823a0	-0.0035421625
105	0x39fbcd00	0.00048027188
106	0x3d29c75a	0.041449882
107	0x3c174f70	0.009235248
108	0xbcd54374	-0.02603314
109	0x3a9dffc0	0.0012054369
110	0xbd1c704c	-0.038193032
111	0xbd030588	-0.031987697
112	0x3cd8d084	0.026466615
113	0x3d322eb4	0.04350157
114	0xbbf5fee0	-0.00750719
115	0xbd35d2f6	-0.04439064
116	0x3cdfd694	0.027323999
117	0xbd0e86f8	-0.034796685
118	0x3cf6125c	0.030038051
119	0x3d0bb33c	0.034106478
120	0x3c0b51e0	0.008503407
121	0x3ceffad8	0.029294416
122	0x3c949e30	0.018141836
123	0xbc3d4b80	-0.011553645
124	0x3cf19b94	0.02949313
125	0xbd680762	-0.056647666
126	0xbd2a0ea2	-0.04151786
127	0xbd5cfda2	-0.05395282
128	0x3c303458	0.010754667
129	0x3d4eba90	0.05047089
130	0x3cdf81e8	0.027283624
131	0xbc9d9b08	-0.019238964
132	0x3d0b73b8	0.034045905
133	0xbb89b770	-0.0042027757
134	0xbd6d2f0e	-0.057906203
135	0xbd0b048c	-0.033939883
136	0x3d617712	0.055045195
137	0x3d59b12a	0.053147472
138	0xbd2f85ac	-0.04285209
139	0xbce2f3e4	-0.027704187
140	0x3d75513e	0.05989193
141	0x3d57c54c	0.05267839
142	0x3c1bca60	0.009508699
143	0xbd0e4e5c	-0.034742698
144	0x3d214b42	0.039378412
145	0xbd457b7e	-0.048213474
146	0x3c18cdc0	0.009326398
147	0xbc807cf4	-0.015684582
148	0x3aa46080	0.0012540966
149	0xbcf8b5d0	-0.030360132
150	0xbd3269ec	-0.043558046
151	0xbd0361b0	-0.032075584
152	0xbd3dc896	-0.04633387
153	0xbd0f6a98	-0.035013765
154	0x3cf4ddcc	0.029890917
155	0x3d11e95a	0.035622932
156	0x3c3ccc60	0.011523336
157	0x3b553d20	0.0032537654
158	0xbc10d9b0	-0.008840963
159	0xbd2eb2ce	-0.04265099
160	0x3cf1bd10	0.029509097
161	0xbc846444	-0.016161092
162	0x3d174ae8	0.03693667
163	0xbd23ef80	-0.040023327
164	0x3cfd0620	0.03088671
165	0xbd72f1c8	-0.05931261
166	0x3d72953e	0.05922436
167	0x3cd97834	0.026546575
168	0xbbb313f0	-0.005465023
169	0x3ca5abb0	0.020223469
170	0x3d7ec32c	0.06219785
171	0xbbfda520	-0.0077406317
172	0xbb85ed30	-0.004087113
173	0xbcef8404	-0.029237755
174	0xbc0ed0e8	-0.008716799
175	0x3d3e53d4	0.046466663
176	0x3cb366c0	0.021899581
177	0xbcab05bc	-0.020876758
178	0x3d065ba8	0.032802254
179	0x3d507848	0.05089596
180	0xbd29af1e	-0.04142677
181	0x3d5fbf28	0.05462566
182	0xbc663c58	-0.014052473
183	0xbd14fa0a	-0.03637127
184	0xbd504a90	-0.05085236
185	0x3d42f89e	0.04760038
186	0xbcb8906c	-0.022529803
187	0xbc897ccc	-0.01678314
188	0xbce64728	-0.028110102
189	0xbb89a850	-0.0042009726
190	0xbcea9920	-0.028637469
191	0xbc48beb0	-0.012252495
192	0xbba85b70	-0.0051378533
193	0xbd102d1e	-0.035199277
194	0x3cdf3d5c	0.027250938
195	0xbcdd2f14	-0.026999988
196	0xbcc7bf94	-0.024383344
197	0xbd62fbe0	-0.055415988
198	0xbd48174a	-0.048850335
199	0x3d46a46c	0.04849665
200	0xbc9c65bc	-0.01909148
201	0xbb2f8a60	-0.0026785359
202	0xbb48a3a0	-0.0030615106
203	0xbd740a84	-0.05958034
204	0xbad60b40	-0.0016330257
205	0xbbbb6bb0	-0.0057196245
206	0x3c4c34d0	0.012463763
207	0xbd1268f4	-0.035744622
208	0xbc945058	-0.018104717
209	0x3d77f2f6	0.06053444
210	0xbc776fb0	-0.015102312
211	0xbccb5918	-0.024822757
212	0x3d5af7a4	0.053458825
213	0xbd0ff0cc	-0.03514175
214	0xb9c11f00	-0.00036834925
215	0xbd5f5fae	-0.054534607
216	0xbb18d780	-0.0023321807
217	0x3944f600	0.00018783659
218	0xbaaf1500	-0.0013357699
219	0x3c6e0a78	0.014528863
220	0x3ce53170	0.027977675
221	0xbd5ac790	-0.053412974
222	0x3d3d6982	0.0462432
223	0x3c1ce0b0	0.009575054
224	0x3c8cd8a8	0.017193154
225	0xbd112dcc	-0.035444066
226	0x3c44cc70	0.012011632
227	0xbd3cb9b4	-0.046075538
228	0xbd086b3c	-0.03330539
229	0x3cf53148	0.029930726
230	0xbbd53fb0	-0.0065078363
231	0xbc19aca0	-0.009379536
232	0xbd4c6072	-0.049896665
233	0x3d652ba0	0.055949807
234	0x3d17fabe	0.03710436
235	0x3d362bae	0.04447525
236	0x3d1131f2	0.035448022
237	0xbca88e94	-0.020575799
238	0x3c711110	0.014713541
239	0xbc420260	-0.011841387
240	0x3cc83d28	0.024443224
241	0x3c1c9068	0.0095559135
242	0xbd1b47e8	-0.037910372
243	0x3d706080	0.05868578
244	0xbc4de2c0	-0.012566268
245	0x3d5f6ba4	0.054546013
246	0xbd0cb762	-0.034354575
247	0xbc077248	-0.008266993
248	0xbd5b9e04	-0.053617492
249	0x3cd74310	0.026277095
250	0xbd4f7784	-0.05065109
251	0xbd2e88f8	-0.042611092
252	0xba3ebd00	-0.0007276088
253	0x3d2bef9a	0.04197655
254	0xbc861a0c	-0.016369842
255	0xbd046de6	-0.03233137

fc3.weight f4 [256, 256]
0	0x3d195a30	0.037439525
1	0xbba0f9f0	-0.0049126074
2	0x3c975b6c	0.01847621
3	0x3b236060	0.002492927
4	0xbab1c5c0	-0.0013562962
5	0x3bdacf70	0.0066775605
6	0x3ce55b54	0.02799765
7	0xbb048860	-0.0020222887
8	0x3cf0ed38	0.02940999
9	0xbd14c302	-0.036318786
10	0x3cf1126c	0.02942773
11	0x3d161eb8	0.03665039
12	0x3cd57230	0.026055425
13	0x3d31dc42	0.043422945
14	0x3d4f8c3c	0.050670847
15	0xbd613f42	-0.054991968
16	0xbb6ba900	-0.0035958886
17	0xbca57bd8	-0.020200655
18	0x3d68d4ea	0.056843676
19	0x3cea73c4	0.028619654
20	0xbd43cf78	-0.04780528
21	0xbd3b339a	-0.045703508
22	0x3d312e00	0.04325676
23	0x3d4bff9c	0.049804315
24	0x3d6a224a	0.057161607
25	0x3d68a66a	0.05679933
26	0xbc3286a0	-0.010896355
27	0x3d04a2a2	0.03238166
28	0x3d47dcf6	0.04879471
29	0xbd29b044	-0.041427866
30	0x3d209ee8	0.039214045
31	0xbc4e22d8	-0.01258155
32	0x3c5a3a00	0.013319492
33	0x3d0e8fc0	0.03480506
34	0xbc9d82b0	-0.019227356
35	0xb9cbf500	-0.00038901716
36	0x3d1961ea	0.037446894
37	0xbd2140d4	-0.039368466
38	0x3d6ef052	0.058334656
39	0x3d6503e0	0.0559119
40	0x3ce28e5c	0.027655773
41	0xbd5bee40	-0.05369401
42	0xbcf96b90	-0.030446798
43	0x3cb51320	0.022103846
44	0x3d34e1e4	0.04416074
45	0x3d3c5b92	0.045985766
46	0xba33fd00	-0.0006866008
47	0xbd64396e	-0.05571883
48	0x3d5460e8	0.05185023
49	0xbcc00c58	-0.023443386
50	0x3d606a66	0.05478897
51	0xbd24c832	-0.040229984
52	0xbcbe6530	-0.02324161
53	0xbcbe085c	-0.023197345
54	0xbc638798	-0.013887309
55	0x3cd261a0	0.025681317
56	0xbd26753e	-0.040639155
57	0x3c8dae60	0.017295063
58	0xbce12778	-0.02748464
59	0x3d2ea0e8	0.04263392
60	0x3c0b16e8	0.008489348
61	0xbb9253a0	-0.0044655353
62	0xbcf97954	-0.030453362
63	0x3d5d397e	0.054009907
64	0x3cfe2e10	0.031027824
65	0x3d00be98	0.031431764
66	0xbac83940	-0.0015275851
67	0x3d4a6c10	0.049419463
68	0xbcedd4c4	-0.029032119
69	0x3c659d08	0.01401449
70	0xbc8ac560	-0.016939819
71	0x3cfceb3c	0.030873887
72	0xbd7ffd6a	-0.062497534
73	0x3b25d3c0	0.0025303215
74	0x3d27d01a	0.040969945
75	0xbd57843c	-0.052616343
76	0x3d593c8e	0.053036265
77	0xbb4ac8a0	-0.0030942336
78	0xbd774e40	-0.06037736
79	0x3c99a850	0.018757015
80	0xbcf4f670	-0.029902667
81	0xbc27eb20	-0.010248929
82	0x3d152c12	0.03641898
83	0x3d3a4ad8	0.045481533
84	0xbd3961ee	-0.04525941
85	0xbcead060	-0.028663814
86	0xbce43cb8	-0.027860984
87	0x3d578948	0.052621156
88	0xbc57e318	-0.013176702
89	0x3caa5ac0	0.020795226
90	0x3d4fe1b8	0.05075237
91	0xbd22e29e	-0.0397669
92	0x3c9525e0	0.018206537
93	0x3d610760	0.054938674
94	0x3c2d8880	0.010591626
95	0x3cfd1a14	0.030896224
96	0xbd2897ba	-0.041160323
97	0x3c6503c8	0.013977952
98	0xbce25d88	-0.02763249
99	0xbd4349ac	-0.04767768
100	0x3d126e70	0.035749853
101	0x3cba1034	0.022712804
102	0xbd1f457e	-0.038884632
103	0x3cadcf74	0.021217085
104	0x3ba79aa0	0.0051148683
105	0x3cd7a058	0.026321575
106	0x3cc74fcc	0.024330042
107	0xbd4ab8b4	-0.049492553
108	0xba091980	-0.0005229935
109	0x3d648976	0.055795155
110	0xbd6a1184	-0.05714561
111	0xbc748598	-0.014924429
112	0x3d18dec4	0.03732182
113	0x3d6d388e	0.057915263
114	0x3ca3dc7c	0.020002596
115	0x3d19fa9a	0.037592508
116	0x3d722cd2	0.059124775
117	0x3d5963a4	0.05307354
118	0x3c4ad308	0.012379415
119	0xbd5b93e2	-0.05360783
120	0xbc48ff98	-0.01226797
121	0xbd56ceee	-0.052443437
122	0xbc8c6d34	-0.017141916
123	0x3d5a68d8	0.053322643
124	0xbce82f48	-0.028342858
125	0x3a6a2480	0.00089318305
126	0xbc2e1f30	-0.010627553
127	0xbd6b8758	-0.05750212
128	0xbd3c2c00	-0.0459404
129	0x3b2b7e20	0.0026167706
130	0x3c6560b0	0.014000103
131	0x3b919410	0.0044426993
132	0x3d3a3124	0.04545702
133	0xbd62278c	-0.055213496
134	0xbd5e6996	-0.054299913
135	0x3cfd86f4	0.03094814
136	0x3c2ff3e8	0.010739304
137	0x3cb1b130	0.021690935
138	0xbd3ac11a	-0.045594312
139	0x3cffe674	0.031237818
140	0xbd049ff6	-0.032379113
141	0xbc12d160	-0.008961052
142	0xbd5d419c	-0.054017648
143	0x3bd08d90	0.006364532
144	0xbd5012b0	-0.05079907
145	0x3bf31570	0.007418327
146	0x3d200538	0.039067477
147	0xbd453380	-0.048144817
148	0x3cd7c288	0.026337877
149	0xbd7e1ee0	-0.062041163
150	0x3c0eca00	0.008715153
151	0xbd6b8e74	-0.0575089
152	0x3ca897d8	0.020580217
153	0x3bdf35f0	0.00681185
154	0xbd29be22	-0.04144109
155	0xbcad1714	-0.021129169
156	0x3bb69580	0.005572021
157	0x3d48a0c6	0.04898145
158	0xbd4a1b02	-0.049342163
159	0x3d569822	0.05239118
160	0x3ba509b0	0.005036555
161	0x3d22b1b8	0.039720267
162	0xbc7b9ac0	-0.0153567195
163	0xbc9d7a38	-0.019223318
164	0xbd2f4e8a	-0.04279951
165	0x3cc8a334	0.024491884
166	0x3c86c188	0.016449705
167	0xbc80bdc0	-0.01571548
168	0x3d31f408	0.043445617
169	0xbb5ade60	-0.0033396706
170	0xbd51e980	-0.051248074
171	0x3d429a1e	0.04751026
172	0x3d6cb13c	0.05778621
173	0xbc667070	-0.014064893
174	0x3c936dc0	0.017996669
175	0xbd28425a	-0.041078903
176	0x3ca170f0	0.019707173
177	0x3d37ef40	0.0449059
178	0xbd0b223c	-0.033968195
179	0x3c0f5438	0.008748107
180	0x3c3dfa00	0.011595249
181	0xbc394be8	-0.011309601
182	0xbd60c514	-0.05487545
183	0xbbc75560	-0.0060831755
184	0xbd139fcc	-0.036041066
185	0xbd45d3aa	-0.04829756
186	0x3bd54ed0	0.0065096393
187	0x3c072a40	0.008249819
188	0xbae68ec0	-0.001759015
189	0x3d26fdc6	0.04076936
190	0x3d5ee842	0.054420717
191	0xbb0c18e0	-0.0021377131
192	0x3cad8270	0.021180362
193	0xbb5e4ca0	-0.0033920184
194	0xbcacfb1c	-0.021115832
195	0xbd53cf5a	-0.051711418
196	0x3cda0260	0.02661246
197	0x3d78ebe8	0.060771853
198	0xbc7dfab8	-0.015501671
199	0xbd7f8490	-0.06238228
200	0xbc95b1f0	-0.018273324
201	0x3b381c20	0.0028092936
202	0x3d4acf6c	0.04951422
203	0x3d3dcc3c	0.04633735
204	0xbcc8d834	-0.024517156
205	0x3d4f8d6e	0.050671987
206	0xbd02d14e	-0.03193789
207	0xbd5384b4	-0.051640227
208	0xbcfcbbfc	-0.030851357
209	0xbc077110	-0.008266702
210	0x3d311ee0	0.043242335
211	0xbb6760e0	-0.0035305545
212	0xbc493b50	-0.012282208
213	0xbd00d0c0	-0.03144908
214	0x3d01e062	0.03170813
215	0xbcd913ec	-0.026498757
216	0xbcc5cb28	-0.024144724
217	0xbcbeedc0	-0.023306727
218	0xbacd0480	-0.00156416
219	0xbd646f92	-0.055770464
220	0xbd1cacfc	-0.03825091
221	0x3d3116e6	0.04323473
222	0xbd27700c	-0.04087834
223	0x3d14fa04	0.036371246
224	0xbc985f24	-0.018600054
225	0xbd7e2270	-0.06204456
226	0x3c1781f8	0.009247296
227	0x3cf97e50	0.030455738
228	0x3d161e46	0.036649965
229	0xbcd3bdec	-0.025847398
230	0xbd1712e8	-0.036883265
231	0xbd009c54	-0.031399086
232	0xbabc0380	-0.0014344305
233	0xbd58ec96	-0.05296
234	0xbc8d885c	-0.017276935
235	0xbcf11b60	-0.029431999
236	0x3d5c5fea	0.05380241
237	0xbcec42e8	-0.028840497
238	0xbd69b578	-0.057057828
239	0xbc85a55c	-0.016314201
240	0xbc8f17f8	-0.017467484
241	0xbd040198	-0.032228082
242	0xba92ce80	-0.0011200458
243	0xbcb89b18	-0.022534892
244	0xbd22e922	-0.039773114
245	0xbc25a8a8	-0.010111012
246	0xbd6ab62e	-0.057302646
247	0xbd24675c	-0.040137634
248	0xbd5aeeca	-0.053450383
249	0x3d3ed66e	0.046591215
250	0xbb0446e0	-0.0020183846
251	0xbd4a0fbe	-0.04933142
252	0x3c248738	0.010042004
253	0xbd458a86	-0.04822781
254	0xbd780714	-0.060553625
255	0xbd5986a0	-0.053106904

fc3.bias f4 [256]
0	0x3c6d24b0	0.014474079
1	0x3d12f46c	0.03587763
2	0x3d7d6d0e	0.06187158
3	0xbd4aae6a	-0.04948274
4	0x3d20ae7e	0.03922891
5	0xbcab77b4	-0.020931102
6	0xbd2ad82e	-0.04171007
7	0xbc6ab470	-0.014325246
8	0xbd67fe82	-0.056639202
9	0xbc17d620	-0.00926736
10	0xbd22d87a	-0.03975723
11	0xbcb5d964	-0.022198386
12	0xbd4a9250	-0.04945594
13	0xbc450498	-0.012025021
14	0x3c172b20	0.00922659
15	0xbd34c512	-0.044133253
16	0xbc96fac0	-0.018430114
17	0x3d1ea9ee	0.038736276
18	0xbd510086	-0.05102589
19	0xbd5e39f0	-0.054254472
20	0xbbb600f0	-0.005554311
21	0x3d0c84fc	0.03430651
22	0xbd202a88	-0.03910306
23	0xbd3b3788	-0.045707256
24	0x3c4f1958	0.01264032
25	0x3a87b100	0.0010352433
26	0x3be79710	0.0070675686
27	0x3d53ab0c	0.051676795
28	0x3bb73750	0.0055913106
29	0x3d50e838	0.05100271
30	0x3b739e00	0.0037173033
31	0x3cd0802c	0.025451742
32	0x3d18029e	0.03711187
33	0xbb933220	-0.0044920594
34	0xbd4323fa	-0.04764173
35	0x3d5e77a0	0.054313302
36	0xba568380	-0.0008183047
37	0x3c5f1e00	0.013617992
38	0xbd3b0856	-0.045662247
39	0xbb933330	-0.004492186
40	0x3b831850	0.004000701
41	0x3d1b1398	0.037860483
42	0x3d3b80bc	0.045777068
43	0xbd3142f8	-0.043276757
44	0xbd497684	-0.04918529
45	0x3cfc53f8	0.030801758
46	0xbce47fa4	-0.027892895
47	0x3c83dbc0	0.016095996
48	0xbca65204	-0.02030278
49	0x3d55dd82	0.0522132
50	0xbc7f7510	-0.015591875
51	0x3d309e5e	0.04311978
52	0xbd0febd0	-0.035136998
53	0x3cf6e7a8	0.03013976
54	0x3a6bb900	0.0008992106
55	0xbd636058	-0.055511802
56	0xbd779674	-0.060446218
57	0xbcf67500	-0.030085087
58	0x3d75f7de	0.060050838
59	0x3b8b66e0	0.004254207
60	0x3c857934	0.016293146
61	0xbbd004a0	-0.0063482076
62	0x3d004068	0.031311423
63	0xbd4cceea	-0.050002016
64	0xbd0d3ab8	-0.034479827
65	0x3a1be980	0.0005947575
66	0xbc0e92b8	-0.008701973
67	0xbd465814	-0.04842384
68	0xbd1fcd04	-0.039013878
69	0xbd421d0a	-0.047390975
70	0x3d6354c2	0.055500753
71	0x3cbaebf4	0.02281759
72	0x3d797ed6	0.060911976
73	0x3b998690	0.0046852306
74	0xbd5abe7c	-0.053404316
75	0x3d0bc062	0.034119017
76	0x3c759060	0.014988035
77	0xbcf3e430	-0.029771894
78	0xbd35e2d2	-0.044405766
79	0xbd7f7fba	-0.06237767
80	0xbd58b016	-0.052902304
81	0x3d313c74	0.043270543
82	0x3d09180c	0.0334702
83	0xbd58f252	-0.05296547
84	0x3c994f94	0.018714704
85	0x3d2a61ea	0.041597284
86	0x3d2e86de	0.042609088
87	0xbbe30670	-0.0069282576
88	0x3d0b9b58	0.034083694
89	0x3b6f2000	0.003648758
90	0xbd1fac14	-0.038982466
91	0xbc49a688	-0.012307771
92	0xbd66d846	-0.0563586
93	0x3d2b994c	0.041894242
94	0x3cc9ccfc	0.024633877
95	0xbba1edd0	-0.0049416795
96	0xbd5c3114	-0.053757742
97	0xbd30131c	-0.042986974
98	0x3cc03c20	0.02346617
99	0x3d663716	0.056204878
100	0xbb8e9430	-0.0043511614
101	0x3bfd9310	0.0077384785
102	0xbc3786c8	-0.011201568
103	0x3b00b960	0.0019641742
104	0x3d08df5c	0.033416137
105	0xbc8343ac	-0.01602348
106	0xbd613242	-0.05497957
107	0x3c86a370	0.016435355
108	0x3ce5dd48	0.028059617
109	0xbcb8620c	-0.02250769
110	0xbd13488c	-0.035957858
111	0x3ca267a4	0.01982481
112	0x3d75ce22	0.060011037
113	0x3d1eaa3a	0.03873656
114	0x3cc25cdc	0.02372592
115	0x3cc90b04	0.024541385
116	0xbd03cd3a	-0.03217814
117	0x3cca1e24	0.024672575
118	0x3d192b28	0.037394673
119	0x3d4e417e	0.050355427
120	0x3ca5abdc	0.02022355
121	0x3d7ab476	0.061207257
122	0xbd5af0cc	-0.053452298
123	0x3cd74e64	0.026282497
124	0x3d14984c	0.036278054
125	0x3d737dac	0.059446022
126	0xbd79cda4	-0.06098713
127	0xbcd1ae64	-0.025595851
128	0x3c8e2f00	0.017356396
129	0xbc0dc5a8	-0.008653082
130	0xbd7e0124	-0.062012807
131	0xbd66210a	-0.056183852
132	0xbd0e49a2	-0.03473819
133	0xbd7d11ee	-0.061784677
134	0x38b71000	8.7291e-05
135	0x3b8090b0	0.003923498
136	0x3d700170	0.05859512
137	0xbc5a6de0	-0.01333186
138	0x3d303768	0.04302159
139	0x3cade06c	0.021225177
140	0x3c0ee950	0.008722618
141	0xbc39b920	-0.011335641
142	0x3d7b644a	0.06137494
143	0xbd1b6272	-0.03793568
144	0x3c8e9298	0.017403886
145	0xbd449e8c	-0.048002765
146	0x3b6f86a0	0.0036548749
147	0x3d311c5a	0.04323993
148	0xbd771310	-0.060320914
149	0x3d7818ee	0.06057065
150	0xbd6a82ae	-0.057253532
151	0xbca2697c	-0.01982569
152	0x3c978c00	0.018499374
153	0x3d514ae4	0.051096812
154	0x3d4486d2	0.047980137
155	0x3ca01ac0	0.019544005
156	0xbd5cf372	-0.053943105
157	0x3cb58a6c	0.022160731
158	0x3d336f12	0.043807097
159	0xbd29a796	-0.041419588
160	0xbd35cb32	-0.044383235
161	0x3c327048	0.010891028
162	0xbd147276	-0.03624197
163	0x3d67e9e0	0.056619525
164	0xbd1f6eaa	-0.038923897
165	0xbca69458	-0.020334408
166	0xbd22fc58	-0.039791435
167	0x3d09ba3a	0.033624865
168	0x3d76af4c	0.06022577
169	0x3ce00b40	0.027349114
170	0x3d531af0	0.05153936
171	0xbd746a74	-0.059671834
172	0x39e49400	0.00043597817
173	0xbd26b352	-0.040698357
174	0xbc1951d0	-0.0093578845
175	0x3d43f11a	0.047837354
176	0xbd5ae550	-0.053441346
177	0x3d33ec1e	0.04392635
178	0xbd7bab3a	-0.06144259
179	0x3d4cf3ae	0.05003708
180	0xbd2e9996	-0.04262694
181	0xbd5f29ba	-0.054483153
182	0xbcc07fac	-0.023498379
183	0x3d0681d8	0.032838672
184	0xbd1ca5de	-0.03824412
185	0x3d76f2d2	0.060290165
186	0xbc1daab0	-0.009623215
187	0xbc422ce0	-0.011851519
188	0x3d457d1c	0.048215017
189	0x3d5a82e8	0.0533475
190	0xbc9e4f58	-0.019324943
191	0x3d370d80	0.04469061
192	0xbd2a4860	-0.04157293
193	0xbba56170	-0.005047016
194	0x3c5fa4c8	0.013650127
195	0x3c1975c0	0.009366453
196	0x3ca3ac88	0.01997973
197	0xbc4b4ce0	-0.012408465
198	0x3d386dde	0.045026653
199	0x3d68ca48	0.056833535
200	0x3ccaf5e4	0.024775453
201	0x3d0ebd44	0.034848467
202	0x3ca81440	0.020517468
203	0x3d51386c	0.0510792
204	0xbd3c4522	-0.045964368
205	0xbc97872c	-0.018497072
206	0x3c9544b4	0.018221237
207	0xbd435cbe	-0.047695868
208	0xbb12d0e0	-0.0022402331
209	0xbcc764b4	-0.024340011
210	0xbcf41330	-0.029794306
211	0xbd4215be	-0.047384016
212	0xbd3fe1c0	-0.04684615
213	0x3d078f10	0.03309542
214	0x3d56bc4a	0.05242566
215	0xbc605208	-0.013691433
216	0x3d26c5a4	0.04071583
217	0x3d45e830	0.048317134
218	0xbd022392	-0.031772204
219	0xbcf24c3c	-0.029577367
220	0xbd0086b4	-0.031378463
221	0xbd42395a	-0.047417976
222	0xbbde7aa0	-0.0067895204
223	0x3c7f6038	0.015586905
224	0x3d7f9ff6	0.06240841
225	0xbcb7507c	-0.022377245
226	0x3d11f92c	0.03563802
227	0xbd2a926e	-0.041643552
228	0x3d026914	0.03183849
229	0xbd0d899e	-0.03455507
230	0x3d79dd82	0.061002262
231	0x3d423fbe	0.04742407
232	0x3c9af1f0	0.018914193
233	0x3d5cd622	0.05391515
234	0xbc1040c8	-0.008804508
235	0x3d549bb4	0.051906303
236	0x3cac2350	0.021012932
237	0xbc94f8c0	-0.01818502
238	0x3d2c2ff6	0.042037927
239	0xbc984a00	-0.018589973
240	0xbd5126c2	-0.051062353
241	0x3c43e288	0.011955865
242	0x3c910334	0.017701723
243	0x3cb3bfa0	0.02194196
244	0xbc8d695c	-0.017262153
245	0x3cba823c	0.022767179
246	0xbd72e648	-0.059301645
247	0xbd4fe6f4	-0.050757363
248	0xbd5b8f6e	-0.053603582
249	0x3d43e46e	0.04782527
250	0x3d670ce4	0.056408778
251	0x3d2e5a66	0.04256668
252	0xbd58bde2	-0.05291546
253	0xbca21e90	-0.019789964
254	0x3d0a84ac	0.033817932
255	0xbca84cf4	-0.020544507

output.weight f4 [4, 256]
0	0xbd5dd9ca	-0.054162778
1	0xbcbbf31c	-0.022943072
2	0xbb3b22c0	-0.0028554648
3	0x3d2d4aba	0.042307593
4	0xbd5ab1ba	-0.05339215
5	0xbc5f1b88	-0.013617404
6	0x3b0b34c0	0.0021241158
7	0x3cee1360	0.029061973
8	0xbd5c9962	-0.053857215
9	0xbd449b6e	-0.04799979
10	0x3d4b6132	0.04965324
11	0xbd0e8a44	-0.03479983
12	0xbc8b54d8	-0.01700823
13	0xbb03ab60	-0.002009116
14	0xbd6020b8	-0.054718703
15	0xbc35b668	-0.011090852
16	0xbc9b9044	-0.01898969
17	0xbbd82f70	-0.006597452
18	0x3d058998	0.032601923
19	0x3ce5e064	0.0280611
20	0x3c99bc20	0.018766463
21	0xbd39011c	-0.045167074
22	0x3ccbbacc	0.024869345
23	0xbce22170	-0.027603835
24	0xbcc3b8cc	-0.023891829
25	0x3c3541b8	0.011063032
26	0x3caa2a98	0.020772263
27	0xbc57a0f8	-0.013160937
28	0x3ceb1c54	0.028700031
29	0xbc798a30	-0.0152307
30	0xbd660ec4	-0.056166425
31	0xbd7b154c	-0.061299607
32	0x3d02449c	0.031803712
33	0xbd6f967e	-0.05849313
34	0x3c9135f8	0.01772593
35	0x3cf7ffa8	0.030273274
36	0x3c88aa2c	0.016682707
37	0xbd5cfbde	-0.053951137
38	0xbb90d190	-0.004419513
39	0x3cbd20bc	0.023086898
40	0x3d28d7a2	0.04122127
41	0xbcfa01f8	-0.030518517
42	0xbc526398	-0.012841128
43	0x3bad9940	0.00529781
44	0x3cfc59f4	0.030804612
45	0x3cf803c8	0.03027524
46	0x3b343220	0.0027495697
47	0x3d4fbef6	0.050719224
48	0x3d7f69da	0.062356807
49	0xbd34906e	-0.04408305
50	0xbd2a98ca	-0.041649617
51	0xbb2b1980	-0.0026107728
52	0xbd14fa1c	-0.036371335
53	0x3c656df8	0.014003269
54	0x3c6de380	0.014519572
55	0x3cdcbe28	0.026946142
56	0xbbfe3940	-0.0077582896
57	0x3d29cc52	0.04145462
58	0xbc6b88f8	-0.014375918
59	0x3d1d77ee	0.038444452
60	0x3b6f9f20	0.0036563352
61	0xbd6a082e	-0.057136707
62	0x3cdfc80c	0.02731707
63	0x3c286b18	0.010279439
64	0x3d2160da	0.039399005
65	0x39b62300	0.00034739822
66	0xbd0dcb6a	-0.03461782
67	0x3cc74678	0.024325594
68	0xbc0adaa0	-0.008474976
69	0x3b4c4820	0.003117092
70	0x3d76a7fe	0.060218804
71	0x3d77eda0	0.06052935
72	0x3c3d8028	0.011566199
73	0xbc557498	-0.013028286
74	0x3d3b48d2	0.045723744
75	0x3d7102a8	0.058840424
76	0x3d22d8e4	0.039757624
77	0x3d01a624	0.031652585
78	0xbd198c00	-0.03748703
79	0xbd298046	-0.041382097
80	0xbc5ad8f8	-0.013357393
81	0xbd598986	-0.05310967
82	0xbd6aab10	-0.057292044
83	0xbc90abb4	-0.01766
84	0xbd26f8dc	-0.040764675
85	0x3d08d0a6	0.033402108
86	0xbcdc42ac	-0.02688726
87	0x3d778538	0.06042978
88	0xbc8397b0	-0.016063541
89	0x3d788f40	0.06068349
90	0xbd0db87c	-0.034599766
91	0xbd61ee2a	-0.05515877
92	0xbc96a918	-0.018391177
93	0xbd0b765e	-0.03404843
94	0xbc9776bc	-0.018489234
95	0x3d122dfe	0.035688393
96	0x3cd98a00	0.026555061
97	0xbc2fc958	-0.010729156
98	0xbc980074	-0.018554904
99	0x3d6da82e	0.058021717
100	0x3d37093a	0.044686534
101	0xbcc9bae4	-0.02462525
102	0xbc908300	-0.01764059
103	0x3c95c754	0.018283524
104	0x3cbcae60	0.023032367
105	0x3d525646	0.051351808
106	0xbd5e2b48	-0.054240495
107	0x3d4270e6	0.04747095
108	0xbd50e98a	-0.05100397
109	0xbbf5c140	-0.007499844
110	0xbc9cdfc4	-0.019149669
111	0x3ce720d4	0.028213896
112	0x3d276a34	0.040872768
113	0x3d4295d2	0.04750616
114	0x3c366350	0.011132076
115	0xbd6a8f7e	-0.05726575
116	0xbc0bd3f0	-0.008534417
117	0x3c136670	0.008996591
118	0x39ab0400	0.00032618642
119	0x3c9bbc84	0.01901079
120	0xbbd49240	-0.006487161
121	0xbc9c8018	-0.019104049
122	0xbc980a68	-0.01855965
123	0xbcff6484	-0.03117586
124	0xbd078a1c	-0.033090696
125	0x3cf422f0	0.029801816
126	0x3d7d97c2	0.061912306
127	0xbd1d79c4	-0.038446203
128	0x3cb001f8	0.021485314
129	0xbc53a2c8	-0.012917228
130	0x3d0de5d6	0.034643017
131	0x3c4873f0	0.012234673
132	0x3bd6b080	0.006551802
133	0x3c32cee0	0.010913581
134	0xbcfac534	-0.030611612
135	0xbd0d4d22	-0.034497388
136	0x3d63894a	0.05555085
137	0x3c317078	0.010830037
138	0x3bfed640	0.0077770054
139	0x3cb36108	0.021896854
140	0xbd0cea3e	-0.03440308
141	0x3d1b257c	0.037877545
142	0x3d36270a	0.044470824
143	0x3d0d1444	0.034443155
144	0x3cd03338	0.025415048
145	0xbd66eb60	-0.056376815
146	0x3d1cb3ce	0.038257413
147	0xbce838cc	-0.028347395
148	0xbcea317c	-0.02858805
149	0x3c09d5a8	0.008412756
150	0xbd33d818	-0.043907255
151	0x3d54e4b6	0.05197593
152	0x3c75dab0	0.015005752
153	0x3d603160	0.054734588
154	0xbc948618	-0.018130347
155	0xbd6de1b6	-0.058076583
156	0xbd517744	-0.05113913
157	0xbd77d666	-0.0605072
158	0xbd6408f2	-0.055672593
159	0xbcf3cc04	-0.029760368
160	0xbcaab19c	-0.020836644
161	0xbc235370	-0.0099686235
162	0x3d1b6f7e	0.037948124
163	0xbd7649b0	-0.060128868
164	0xbced4fbc	-0.028968684
165	0x3cd29c94	0.025709428
166	0x3cd866b4	0.02641616
167	0xbd44a9ae	-0.04801338
168	0xbc1e89a0	-0.009676367
169	0xbc13a528	-0.009011544
170	0x3c2a31c8	0.010387845
171	0x3d190b20	0.037364125
172	0xbc39cd60	-0.011340469
173	0xbd4eb770	-0.05046791
174	0xbd3da188	-0.046296626
175	0xbc5d82c0	-0.013519943
176	0x3d298bce	0.041393094
177	0x3d5367fc	0.05161284
178	0x3d228d80	0.039685726
179	0x3d7b8606	0.06140711
180	0x3d38fb96	0.045161806
181	0x3b8c23d0	0.00427673
182	0xbccb2cfc	-0.024801724
183	0xbcb20ca0	-0.021734536
184	0x3cac152c	0.02100619
185	0x3b80f870	0.003935866
186	0x3d372822	0.044716008
187	0x3d6b6bd2	0.057475872
188	0xbd10bab0	-0.03533429
189	0xbd2c5fa2	-0.04208339
190	0xbc5d1cc8	-0.0134956315
191	0x3b90d800	0.0044202805
192	0xbc1b2480	-0.0094691515
193	0x3d2f4b16	0.042796217
194	0xbb8b10f0	-0.0042439625
195	0x3d514bee	0.051097803
196	0xbcc2c588	-0.02377583
197	0xbb833290	-0.0040038303
198	0xbd12475e	-0.035712592
199	0xbc807ac0	-0.015683532
200	0xbc8b575c	-0.01700943
201	0xbd481f78	-0.048858136
202	0x3ce15bbc	0.027509563
203	0x3d444ac8	0.04792288
204	0x3d32268e	0.0434938
205	0x3d20beac	0.03924434
206	0xba0fb180	-0.00054814667
207	0x3d7b2302	0.061312683
208	0xbd29f2f2	-0.041491456
209	0x3ca63c94	0.020292558
210	0x3c9b4b0c	0.018956684
211	0x3d04d15a	0.032426216
212	0xbccb1ebc	-0.024794929
213	0xbd35f3d6	-0.044421993
214	0xbd2cc25e	-0.04217755
215	0xbd18dffc	-0.037322983
216	0x3cd4cf08	0.025977626
217	0xbcbc9860	-0.023021877
218	0xbd1f3648	-0.038870126
219	0x3d7f6a7c	0.06235741
220	0x3c446c68	0.011988737
221	0xbd1e9756	-0.038718544
222	0xbce8e0b4	-0.02842746
223	0x3d1fba9a	0.038996316
224	0xbd416aae	-0.04722088
225	0xbcaa1d08	-0.020765796
226	0x39531800	0.00020131469
227	0x3d642ac4	0.055704847
228	0xbd3ebddc	-0.046567783
229	0x3d7ae164	0.061250106
230	0x3d3ef534	0.046620563
231	0xbd31ea88	-0.043436557
232	0x3c9de764	0.019275375
233	0x3d7d51ca	0.06184558
234	0xbc02e500	-0.007989168
235	0x3d0972c6	0.033556722
236	0xbd7a1ba6	-0.061061524
237	0xbc107eb0	-0.008819267
238	0xbd639cf4	-0.055569604
239	0x3d33de42	0.043913133
240	0xbb0a5100	-0.0021105409
241	0xbb41b8a0	-0.0029559508
242	0xbb254ac0	-0.0025221556
243	0xbd4b39a6	-0.049615525
244	0x3c9619d0	0.018322855
245	0x3d377f5e	0.0447992
246	0x3d332abc	0.043741927
247	0x3ae83840	0.0017716959
248	0xbcea61c0	-0.028611064
249	0x3d14dd52	0.03634388
250	0xbd1741e8	-0.036928087
251	0x3b30c9a0	0.0026975647
252	0x3c665230	0.014057681
253	0x3cce71c0	0.025200725
254	0x3d7be74a	0.06149987
255	0xbcfae05c	-0.030624561

output.bias f4 [4]
0	0x3d726436	0.0591776
1	0x3d2cf2fc	0.042223915
2	0x3d368be0	0.04456699
3	0x3b2e15e0	0.0026563331
