fetch_sticky_mittens_step/networks/ours_10k_block_3_uber_level_0_seed_250/network_reach_object_0.pth (torch, 596983 bytes, 8 tensors)

fc1.weight f4 [256, 60]
00000000: f652 9fbd 8083 823d 3fd5 1a3e e649 13be
00000010: 0bb8 42be 270a a23d a09e bfbe 9f80 2e3d
00000020: 877e 1bbe b4b7 9cbe e478 2dbc a068 30be
00000030: 6676 d4be ae3a 6d3d 51d5 3abd 84df 37bd
00000040: f7d4 d6be b72d 433e 08f1 0cbd 6597 94bb
00000050: 131d 1f3e 4e91 bebd 7ffb abbe e4e1 4ebe
00000060: ef2f dd3c c39c 98bd 8a8d e03d b79d e93c
00000070: 6b79 e33d cff1 8abd ffdf 17bd 2af0 b3be
00000080: 66e8 903d 0cf4 9bbe 689d f8bd 8c03 c73e
00000090: a89d 713b ceb0 64bd acb3 95be ff29 15bd
000000a0: 939a 2f3e fa27 a2bc 3084 f5bd e9dc 133e
000000b0: 2946 8f3d e350 1fbe 95e7 90be 92e0 72be
000000c0: af26 dd3e 0707 dd3d 2ebe a83e 0068 0cbe
000000d0: 2f44 71bc 6827 9bbe b5cd b9bd 3d56 a33d
000000e0: f9b1 f6bd f7c2 cbbe 688a 6b3e f491 4d3e
000000f0: b281 cdbc bb76 adbd 4b0f 073d 20b9 77be
00000100: 967d afbe c82a 053d 26cf a5bd 82cd 88bd
00000110: baab 8ebd 8507 52be 1f77 09be dfe4 023e
00000120: d443 3b3e ffcb eabd 5cc2 a33c 3462 e8bc
00000130: 9819 0fbe 434c b3be 5635 c4bd fa14 00be
00000140: 4a33 aa3d bd8d a1bd 0e6e 17be 88e5 c2bd
00000150: db03 9a3d 3cb2 cebd 6916 2e3e 9d01 2e3e
00000160: 092c 223e 4980 11be ef5d ae3d efcc bbbd
00000170: 6438 e7bd 6a7a 813e 869c 03bd 75e6 723e
00000180: 4615 ffbd 78a2 63bd eb3d 873e cdae ec3d
00000190: f687 47bd 4342 083e 7daa 973d 7f1e 89bd
000001a0: b63f e13c 368c d6bc f698 15be 42e8 09bd
000001b0: 293d d1bc a546 e13c 7b98 0e3e cf4c b73c
000001c0: e5bc 1d3e 5960 643d 6c38 01bd 1c31 3b3d
000001d0: 290d cdbe 9f0f b1bd 5b57 753d 6a0d 9f3d
000001e0: 5e7f 0c3e fde6 0a3e 81ab 223e 14c4 113d
000001f0: 57d8 bebd 7023 09be 45c4 953d d68b 22bc
00000200: 8f7d 0a3c 2d01 e43c 10c6 c4bd a6c8 853e
00000210: 10a1 993c fa02 c43c 8253 703e 422b 723c
00000220: cb58 f6be a16b cebe 9f47 ae3d ce8b 52bd
00000230: 4e23 fcbd d366 a7bc cf57 9fbe 553c 053e
00000240: 4bc5 29be 2e3c 46be c2bc cd3d d736 fe3d
00000250: b15b 23be f646 0abe a85c 9cbd 2e70 933e
00000260: e9bf c5be 69ce 85be a870 873c da08 13be
00000270: 76b8 98bc 3579 48be 905c a73e 3fe9 adbe
00000280: aa9a 0e3e a877 8639 74a4 103e f329 b43d
00000290: 8b85 803d 5e51 eebd 4078 aabe 3a94 3bbc
000002a0: 5549 15be 7ceb a53d 979c 8dbc fd4e b9bd
000002b0: 4b66 0cbe fbff 2b3d 5ef7 8abe d53d 27be
000002c0: f2cd cb3d aefe 48be e8cc 533d 94bb 56bd
000002d0: 76c2 9b3d 3e03 9c3d 9358 5fbb 7372 62be
000002e0: c3bb 99bd aff4 2bbe f2d5 aa3e 4199 75be
000002f0: daeb a5bd 50b6 febd ff09 ca3d 2972 3c3e
00000300: ca0f 583e 1ecd 47bd ed1d a0bd ff14 d4bd
00000310: ef74 96be 1b42 10bd d431 ac3e ba5b 563e
00000320: fdff 7ebe 9b1a a53e 6a2f a3be a4c2 7f3d
00000330: 366d c1be ddb5 6bbe bfb5 283d 7f58 d1be
00000340: 5cf4 c6bd 6359 4ebc bc87 24bd 7d0b d33e
00000350: 6769 3fbe baf3 ad3d c901 c63d 8207 98be
00000360: 19db 263e 9d4c db3d 46e1 f73c ff23 b7bd
00000370: cf36 1e3d 587f 5bbd 5759 553e e1bc 73bc
00000380: a17d 3c3e 6947 853d 82a5 0abe 2a4a af3d
00000390: 9ae2 843d 3964 823d 5a21 64be 9778 253e
000003a0: 9d55 573c 7f55 123d 5c28 393e 76df 93be
000003b0: 0e4c 043e 69a5 5ebe ee82 473e 1c7d b43d
000003c0: 59b9 653d 56cd ee3d 8016 0ebe 67e1 30be
000003d0: 7e54 5dbe aae4 98be 31b0 d7bd 3103 2cbd
000003e0: 5e70 14be e07d e83c d2e0 41be 6cb2 83be
000003f0: 4b88 883d 934c 98bd ff88 f7bd e948 8abd
-0.077794954 0.06372738 0.1512041 -0.14383659 -0.1901552 0.07912093 -0.3742571 0.04260313
-0.15184985 -0.30608904 -0.010587905 -0.17227411 -0.4149658 0.05791729 -0.04561359 -0.044890895
-0.41959354 0.19060408 -0.034409553 -0.004534649 0.15538435 -0.093050584 -0.33590314 -0.20203358
0.027000396 -0.07451775 0.109644964 0.028517587 0.11107143 -0.067844026 -0.037078854 -0.35144168
0.070755765 -0.3045963 -0.12139398 0.38869894 0.0036867652 -0.055832677 -0.2923864 -0.036417004
0.17148809 -0.019794453 -0.119881034 0.1443974 0.06995804 -0.155582 -0.28301683 -0.2371848
0.43193576 0.10792356 0.32957596 -0.13711548 -0.014725729 -0.30303502 -0.09072439 0.07975433
-0.12045664 -0.39797184 0.23002017 0.20075208 -0.025086258 -0.08469912 0.03297357 -0.24191713
-0.34275502 0.032511503 -0.08096151 -0.066798225 -0.06966348 -0.20510681 -0.13424347 0.1278262
0.18287593 -0.114646904 0.019990139 -0.02836714 -0.13974607 -0.3501912 -0.095804855 -0.12508002
0.08310564 -0.078883626 -0.14788076 -0.09516436 0.075202666 -0.10092589 0.17000736 0.16992803
0.1583711 -0.14209093 0.0851401 -0.09169947 -0.112900525 0.25288707 -0.032131694 0.23720725
-0.124552295 -0.055574864 0.26414427 0.11556778 -0.048713647 0.13306527 0.07405565 -0.0669527
0.0274962 -0.026189905 -0.14609131 -0.033668764 -0.025541859 0.027499506 0.13925354 0.022375492
0.15404089 0.055755947 -0.03154795 0.04570113 -0.40049103 -0.086455576 0.05989776 0.077662304
0.13720462 0.13564678 0.15885736 0.035587385 -0.09318607 -0.13392425 0.07312826 -0.009921035
0.008452787 0.027832592 -0.0960809 0.26129645 0.018753558 0.0239272 0.23469356 0.014780821
-0.4811462 -0.4031649 0.085097544 -0.05140286 -0.12311421 -0.020434773 -0.3112168 0.13011296
-0.16579168 -0.19358894 0.10045768 0.124128036 -0.15952946 -0.13503632 -0.0763486 0.28796524
-0.38622978 -0.2613404 0.01653321 -0.14358845 -0.018642645 -0.19577487 0.32687807 -0.33967015
0.13926187 0.00025647623 0.14125234 0.08797064 0.06275471 -0.11636613 -0.33294868 -0.011448914
-0.14578755 0.08101556 -0.017286582 -0.09048269 -0.13710897 0.04199217 -0.2714185 -0.16332181
0.0995139 -0.19628403 0.051709086 -0.052424982 0.0760545 0.07617806 -0.0034079894 -0.22113971
-0.07506516 -0.16792558 0.33366352 -0.23984243 -0.08101626 -0.12437117 0.09865188 0.18402924
0.21099773 -0.0487796 -0.07818208 -0.10355567 -0.29386088 -0.035219293 0.33631766 0.20933428
-0.2490234 0.3224686 -0.31872112 0.062441483 -0.37778634 -0.23018594 0.04118895 -0.4088783
-0.097145766 -0.012594554 -0.04016851 0.41219702 -0.18692552 0.08493753 0.09668309 -0.29693228
0.16294517 0.10707972 0.030258786 -0.089424126 0.03862649 -0.05358824 0.20834862 -0.014876575
0.18407299 0.06507761 -0.13539699 0.085590675 0.06488533 0.06366772 -0.22278348 0.16159283
0.01314297 0.035726067 0.18081802 -0.28881425 0.12919638 -0.21742786 0.1948354 0.08812925
0.056084964 0.116602585 -0.1387577 -0.17273484 -0.21614262 -0.29861957 -0.10531653 -0.04199523
-0.1449599 0.028380334 -0.18933418 -0.25722063 0.06666621 -0.074364804 -0.12086677 -0.06752188

fc1.bias f4 [256]
00000000: 142b 41bf 21fb b0be 89f7 d0be ed08 41bf
00000010: cd0f 26bf 7dc2 0fbf 42b0 cebe 1d82 2bbf
00000020: 1b88 81bf e592 6dbf 052c 64bf 87cb 42bf
00000030: 667d 75bf b4d2 3ebf 50bd 7dbf dd8e 54bf
00000040: 8ee1 50bf 7c9f 48bf 1a0e 4bbf 4048 07bf
00000050: 6fa8 27bf 45db 6ebf 970e 66bf 5072 54bf
00000060: 3f47 21bf adb7 bbbe 7f08 45bf 65fb 4dbf
00000070: 937a 61bf 9eed 06bf ddd6 4abf 691d 0abf
00000080: 2dc1 30bf 7f7a 8cbe e1d7 42bf f947 41bf
00000090: 495c 1dbf 5836 74bf 750c 4ebf b85a 1fbf
000000a0: fae3 94be 252c 21bf 0564 bcbe 7e3b f2be
000000b0: 3825 5cbf bd12 67bf 7597 5dbf ff96 36bf
000000c0: 2684 bebe 03f8 2ebf 633e 47bf 7c59 22bf
000000d0: 92fb 12bf 854d 1abf 8bf9 69bf d4bb 46bf
000000e0: 8d4a 18bf 064d 22bf b0b8 46bf f865 68bf
000000f0: bd49 5dbf ccd7 2cbf e6ec 5dbf 12a0 babe
00000100: 9a3e 6bbf 27c5 37bf 12c4 80bf 9cc2 10bf
00000110: ed5a 54be 3bb6 04bf 1958 52bf c393 5cbf
00000120: 2cbe 54bf e0cd 53bf 0b2c 3abf 6081 76bf
00000130: 5d6b 41bf fc91 38bf 35f8 19bf f48d 48bf
00000140: be98 f0be e1b9 c2be c7ed 58bf dc98 59bf
00000150: 6b5a 4bbf 78c4 29bf e45f 61bf 6b2a 2dbf
00000160: 30c6 2fbf 6510 70bf 69dd 3bbf 097a 12bf
00000170: 594b 44bf 9c1b 40bf 2fe0 30bf 49e2 4cbf
00000180: 73b5 53bf 2bf5 34bf 09b1 12bf 0fd0 27bf
00000190: e3b7 43bf 459d 2cbf 4c67 43bf cf16 3ebf
000001a0: edf2 13bf ddb7 30bf 9211 55bf 7d98 b8be
000001b0: 9d59 39bf ee89 11bf be55 3bbf 93ef 54bf
000001c0: 7d12 1fbf c00b 0ebf 06f0 34bf 5e3b 45bf
000001d0: 8069 08bf 3681 30bf 4b8b 65bf 32f7 33bf
000001e0: d107 29bf ff4e 46bf 86e5 27bf f392 50bf
000001f0: fceb 38bf df4c 13bf 099b 32bf 2c19 63bf
00000200: ca8f 0fbf ce46 54bf d701 49bf af68 64bf
00000210: b7f6 32bf 6d57 48bf 5cc7 49bf 24b6 67bf
00000220: dbe0 06bf a938 62bf b397 4dbf c0ac 39bf
00000230: 9315 17bf bb55 34bf aaf6 73bf 658b d7be
00000240: df2a 6bbf 56a8 43bf e565 3dbe 718e b7be
00000250: 8c0d 41bf 010d fabd cb4c 24bf 1bc8 36bf
00000260: f3ce 37bf d79d 15bf c0c9 43bf a846 33bf
00000270: 229e fdbe adae 1fbf dc33 f2be 1cb6 41bf
00000280: a23d 3dbf 1099 07bf 18df 36bf b9d8 00bf
00000290: d064 30bf 3d41 71bf 719d 43bf 963d 71bf
000002a0: 7957 22bf 4e69 4ebf 28f2 5bbf 0e72 14bf
000002b0: 7310 23bf 8a02 2cbf 2b07 80bf f663 31bf
000002c0: d200 83bf 1fbf 4fbf 8fde 8cbe 6a4b 27bf
000002d0: f695 27bf 8686 4bbf 1cbf 33bf c95f 39bf
000002e0: bf0d d7be 9f3e 79bf b318 18bf 9343 3cbf
000002f0: 032a 0cbf c615 ebbe b9a5 63bf b4dd 15bf
00000300: 6d37 3dbf 3139 0bbf 1845 45bf af44 1ebf
00000310: 454b 1dbf b91f 37bf 68d1 17bf bc97 63bf
00000320: 0f2a 53bf ef33 38bf 8052 34bf 925b 51bf
00000330: 6488 f9be dabf 5dbf a475 84bf 137f 20bf
00000340: 56e2 193e 9b24 b2be 9762 14bf 477b 2cbf
00000350: 5917 3abf c657 4cbf d194 a4be d288 60bf
00000360: df0e 42bf 0a69 4dbf b294 6dbf 7e56 24bf
00000370: df92 1bbf 260d 79bf fd3f 27bf c2cc 37bf
00000380: 1d5d f8be d6a7 24bf 4b90 2ebf 4362 3cbf
00000390: 0c3f 3dbf eb98 6bbf 0718 58bf f9e8 4abf
000003a0: 0203 08bf 1e61 61bf 54a8 cbbe a4d2 5cbf
000003b0: 56f9 35bf bb3b 27bf 52bc 24bf 424d 2fbf
000003c0: 62f9 22bf 1100 0abf 27e8 46bf 1ef9 38bf
000003d0: 300d 53bf b439 5cbf 0b28 08bf 2934 d8be
000003e0: f96b 2cbf 44f0 84bf a6f3 12bf 4f1b 51bf
000003f0: 9449 42bf 4b50 f9be fdf7 11bf ca84 3cbf
-0.75456357 -0.34566596 -0.40813854 -0.75404245 -0.6486786 -0.5615614 -0.4036885 -0.6699541
-1.0119661 -0.9280227 -0.8912967 -0.7609181 -0.9589447 -0.7454026 -0.9911699 -0.8303049
-0.8159417 -0.78368354 -0.7931839 -0.5284462 -0.65491384 -0.9330333 -0.8986601 -0.8298693
-0.6299934 -0.3666357 -0.7696609 -0.8046172 -0.8807766 -0.52706325 -0.79234105 -0.53951126
-0.6904476 -0.27437207 -0.76110655 -0.75500447 -0.6146894 -0.9539542 -0.8048776 -0.622478
-0.29080182 -0.62957984 -0.3679506 -0.47311014 -0.8599429 -0.9026297 -0.8655923 -0.7132415
-0.37210196 -0.68347186 -0.7782957 -0.6341779 -0.57415116 -0.60274535 -0.913964 -0.7763035
-0.59488755 -0.6339878 -0.7762556 -0.9078059 -0.8644064 -0.6751678 -0.86689603 -0.3645025
-0.918924 -0.71785206 -1.0059836 -0.5654695 -0.2073781 -0.5184056 -0.82165676 -0.86162966
-0.8310268 -0.82736015 -0.72723454 -0.9629116 -0.7555445 -0.72097754 -0.6014436 -0.78341603
-0.46991533 -0.3803244 -0.8473782 -0.8499887 -0.7943484 -0.6631541 -0.8803694 -0.6764285
-0.68661785 -0.93775016 -0.7338472 -0.5721746 -0.7667747 -0.7504213 -0.69092077 -0.80032784
-0.82698745 -0.70686597 -0.57301384 -0.6555185 -0.76452464 -0.67427474 -0.76329494 -0.74253553
-0.5779255 -0.69030553 -0.83229935 -0.3605384 -0.72402364 -0.5685109 -0.7317771 -0.8317806
-0.62137586 -0.5548668 -0.70678747 -0.7704371 -0.5328598 -0.6894716 -0.8966567 -0.70299065
-0.6602755 -0.7746429 -0.655846 -0.81474227 -0.72235084 -0.5753917 -0.69767815 -0.88710284
-0.5607878 -0.8292054 -0.7851843 -0.89222234 -0.69907707 -0.782584 -0.78819823 -0.905123
-0.5268685 -0.88367707 -0.803096 -0.7252922 -0.59017295 -0.70443314 -0.95298254 -0.42098537
-0.9186229 -0.76428735 -0.18495901 -0.35850862 -0.75411296 -0.122095115 -0.64179677 -0.71399087
-0.71800154 -0.5844397 -0.7647972 -0.7002969 -0.49534708 -0.6237591 -0.4730519 -0.756685
-0.7392217 -0.5296793 -0.71434164 -0.5033069 -0.6890383 -0.9424017 -0.7641211 -0.942346
-0.6341472 -0.8062943 -0.85916376 -0.57986534 -0.63696975 -0.67191374 -1.0002187 -0.69293153
-1.0234625 -0.81151 -0.2751355 -0.6534945 -0.654632 -0.7950214 -0.70213485 -0.7241178
-0.42002675 -0.9736118 -0.5941269 -0.7354061 -0.54751605 -0.4591505 -0.8892475 -0.5854142
-0.739127 -0.5438414 -0.77058554 -0.6182355 -0.6144298 -0.7153278 -0.59303904 -0.88903403
-0.8248605 -0.71954244 -0.70438385 -0.8178035 -0.4873687 -0.8662087 -1.0348401 -0.626939
0.15027747 -0.34793553 -0.57962936 -0.67375606 -0.72691876 -0.7982143 -0.32144788 -0.8770877
-0.7580394 -0.802384 -0.92805016 -0.64194477 -0.6077098 -0.9728569 -0.65332013 -0.7179681
-0.4850854 -0.643186 -0.68188924 -0.73587435 -0.73924327 -0.9203021 -0.8441166 -0.7926174
-0.5312959 -0.88038814 -0.39776862 -0.8625891 -0.7108358 -0.65325516 -0.64349854 -0.6847726
-0.6366178 -0.5390635 -0.77697986 -0.7225512 -0.82442 -0.8602555 -0.531861 -0.42227295
-0.67352253 -1.0385823 -0.5740303 -0.81682295 -0.7589352 -0.4869407 -0.57019025 -0.7364012

fc2.weight f4 [256, 256]
00000000: 7ae8 a63e 3a6b b7bd a957 d3bd ec5c 7d3c
00000010: d973 c1be 7003 8bbd 5232 fdbe 94ba 33bf
00000020: f117 b9be 9277 14bf d695 02bf 8227 983d
00000030: 9a98 20be 131e 59be ae5b a63d b698 eebe
00000040: 7e15 c0bd db08 0fbe 2c7f 693e 38bb bdbe
00000050: aa3b 413c 4a63 2d3e 9617 0abf 2319 19be
00000060: 1fc7 adbd 18c2 ba3e 9edb 9cbe cb1e 9c3d
00000070: 8568 683c 194b e63c 7459 81be b355 6d3b
00000080: 6900 e83d fd6a 733e e9bb a03e c2e7 b6bd
00000090: baab 8dbe 745f 15be c905 f63d a1f1 b5bd
000000a0: 35ca ab3d 9860 c7be d90c b33e 6a1c b93e
000000b0: 09b5 fdbc 58ef 52be 3461 06be cd4c 833c
000000c0: ebfa d03c 36ce debc 29f3 9abe ba6d d2bd
000000d0: aeb1 d0be 6ce7 7dbd 9513 d1be df96 fabe
000000e0: acdc 61be 7743 bb3d 815a 8cbd 2e3e 7f3b
000000f0: 522e 03be 5846 9fbe f74a 05bf 0245 b7bd
00000100: 7fc2 8f3e 0d72 f8bd 5892 9fbe bad2 463d
00000110: 2c26 953e 3f69 aebe 7ea8 efbd 76ff a83d
00000120: fe27 963d 629f bebe be9d 4abe 0efe 9fbe
00000130: 2a32 cbbe 39d3 0e3d e2e1 f1be bfa6 9dbe
00000140: c5ca 63be 4af5 bf3d 9da5 5e3d 05f6 91be
00000150: 806d b6bd 7a1a 673d 8cc6 3ebe d273 07bf
00000160: f55c 5a3d 7604 923e bade ee3c 4504 02be
00000170: 3da2 f1be 7034 2dbd e78b 2fbe 8a77 b7be
00000180: 3502 acbd 84a5 adbe 633c 733d 192f 313e
00000190: b1df 203f f51d 0ebe 473f 153e cf79 853e
000001a0: 7110 d8bd 7b19 513e 9c23 b33c 8f86 603e
000001b0: 73ca 7bbd c59b 6bbc b5d1 96bc 4b0e 0fbe
000001c0: b2a8 d73e 159a 0c3e d633 88bd 4b8d 08bd
000001d0: 08cd f0bc c32c aebd 479e 273e 04eb 4b3e
000001e0: f988 153e 021c ffbe 6304 b8bd aad0 a4be
000001f0: ecf7 663c 9fd1 353d 11cb 7c3e d526 94be
00000200: 076e 1d3e 4a0a 593e fe86 bcbe f4c2 f43d
00000210: 047f 263d dad1 50be d57f 1a3d d810 1dbe
00000220: 9090 54be d121 623d 4a04 5bbe 1830 d73d
00000230: ac6e 05be 29bf 9cbd c497 883e 16b9 44be
00000240: 1ac4 0d3e 309f 37be 9858 9a3e 94fa 033e
00000250: 9147 b6bd ee2a a83e 488e 133d 04d6 cfbe
00000260: f11a a9be e9e0 083e d4ab b2bd a3de ad3d
00000270: 639a dcbd a124 8bbe 95a8 1c3e 89bd 22bd
00000280: 5a71 8dbe a897 853e 4007 08bf 8c08 873e
00000290: 468e 52be 456e 82bd 2cb7 aabe 9aa1 db3d
000002a0: 4b3f 98bd 496f bfbd 9ad4 4a3c f28a 30be
000002b0: ca82 24be 9be0 7b3e 05f3 913e 7f91 0ebe
000002c0: f1cf 85be f93d dabe 608b 423d bdcb 0c3d
000002d0: a2d2 69bd 310f 013e 7e6d 41bc 0b76 b1be
000002e0: 1e60 27be 6a19 67bd f2c8 84be 4822 90be
000002f0: 328e e5bc 0460 c3bd e946 e3bd 93fd 99bd
00000300: 616b 72be d1e6 3ebe bc9e bebe 7395 08bf
00000310: 889c cbbe 98df d4be 9207 84bb 4ac2 40be
00000320: 1fff dabd 11fb a93d 3e87 d53c 339b 72be
00000330: 3d29 563d ad90 08bf 5f2f 58be 9eb3 e4bd
00000340: 0910 283e 6d2f 913e 17e4 833e 441c 363d
00000350: 49b8 b8be f5fa 58bd 34a6 e23d 28fe 2bbe
00000360: 5275 7abe c6c6 e7bd 7fbc 433e 382e 01bd
00000370: 2437 6dbd a028 4f3e 46a7 34be 61d0 6cbd
00000380: e05b 293e 6dfa 0e3b 30a9 c73d bd16 17be
00000390: 2228 ecbe 9a78 093e 36fe e6bd 086e 613d
000003a0: c3cc b1bd f0d4 bdbe bc39 283e 8e43 08be
000003b0: 5b19 09bf 80bf cabe a062 64be 9aff 453d
000003c0: 1015 cdbd 1eeb 4b3e a281 853e 5659 89be
000003d0: ad81 0c3e 10bb a3bd eae4 ac3d 501b 60bd
000003e0: 524b d3be 1fc7 96bc 539e 40bc effe 0a3e
000003f0: f8a1 6abe 240e acbe 6ea0 603d 1dd1 d8bd
0.3259924 -0.08955999 -0.10319454 0.015464049 -0.37783697 -0.06787765 -0.49452454 -0.7020657
-0.36151078 -0.5799495 -0.5100988 0.074294105 -0.15683213 -0.21202879 0.08122955 -0.46600884
-0.09379099 -0.13968222 0.22802418 -0.370569 0.01179401 0.16932407 -0.5394224 -0.14950995
-0.08485245 0.36476207 -0.30636305 0.07623061 0.014185076 0.028111981 -0.2526356 0.003621441
0.11328203 0.23771282 0.31393364 -0.08930923 -0.2767008 -0.14587194 0.12012822 -0.08883978
0.08388177 -0.38940883 0.3497074 0.3615449 -0.030970113 -0.20599115 -0.13123018 0.016027832
0.025510272 -0.027197938 -0.3026364 -0.10274835 -0.4076056 -0.06198828 -0.40835252 -0.4894323
-0.22056836 0.09143727 -0.068532 0.0038946974 -0.12810639 -0.31108356 -0.5206751 -0.08948709
0.28078076 -0.121311285 -0.3116634 0.04854081 0.29130685 -0.3406467 -0.11702059 0.0825185
0.07331847 -0.37230974 -0.19786736 -0.31248516 -0.3968671 0.034869406 -0.47242647 -0.3079128
-0.22245319 0.09372957 0.05435716 -0.2850801 -0.08907604 0.056421734 -0.18630427 -0.529111
0.053311307 0.28519028 0.029158939 -0.12696941 -0.4719409 -0.042286336 -0.17143212 -0.3583339
-0.083988585 -0.3391534 0.05938376 0.17303123 0.62841326 -0.13878615 0.1457492 0.26069495
-0.10550011 0.20419876 0.021867566 0.2192633 -0.061472367 -0.0143804 -0.018410543 -0.13970296
0.42120892 0.13730653 -0.06650512 -0.033337872 -0.029394642 -0.08504631 0.16368972 0.1991387
0.14603032 -0.49826056 -0.08985212 -0.32190448 0.014097195 0.044389363 0.24686839 -0.28935876
0.15374003 0.21195331 -0.3682174 0.11951247 0.040648475 -0.20392552 0.037719566 -0.15338457
-0.20758271 0.05520803 -0.21388355 0.1050722 -0.13030499 -0.076536484 0.26678288 -0.1921123
0.13844338 -0.17931819 0.30145717 0.12888557 -0.08900369 0.32845253 0.03602436 -0.40592968
-0.33028367 0.13367046 -0.0872418 0.0848973 -0.107716344 -0.27176383 0.15298684 -0.039731536
-0.27625543 0.26092267 -0.5313606 0.26373708 -0.20562086 -0.063686885 -0.33342874 0.107241824
-0.07433947 -0.09347398 0.01237979 -0.17240503 -0.16065517 0.24597399 0.28505722 -0.1392269
-0.2613521 -0.42625406 0.0474962 0.034373987 -0.05708564 0.12603451 -0.01180589 -0.34660372
-0.1634526 -0.05642072 -0.2593456 -0.28151155 -0.028021906 -0.09539798 -0.110975094 -0.075190686
-0.23673774 -0.18642737 -0.3723048 -0.5335304 -0.3976786 -0.41576838 -0.0040292228 -0.18824115
-0.10693192 0.0829984 0.026065465 -0.23692016 0.05228542 -0.5334576 -0.2111182 -0.11167072
0.16412367 0.28356495 0.25759956 0.04446055 -0.36078098 -0.052973706 0.11066857 -0.16796172
-0.24458817 -0.1131721 0.19114874 -0.03153822 -0.057913914 0.20230341 -0.17641935 -0.057815913
0.16538954 0.0021816746 0.09749067 -0.14754768 -0.4612437 0.13424912 -0.11278956 0.055036575
-0.08681633 -0.3707652 0.16428274 -0.1330702 -0.53554314 -0.39599228 -0.22303247 0.048339464
-0.10013783 0.19913909 0.26075464 -0.2682597 0.13721342 -0.07994664 0.084420994 -0.054713547
-0.41268402 -0.018405495 -0.011756497 0.13573812 -0.22913349 -0.33604538 0.054840498 -0.1058676

fc2.bias f4 [256]
00000000: e555 483e 87f2 3dbf 6e68 273e ad3c dbbd
00000010: f2d0 5b3e 006c 993e 2b75 85be 0560 40bd
00000020: 230d 2b3e 2d5d c13d db41 9bbe bd95 a13d
00000030: 2d1d e3be 75c9 58be 1de9 7cbe 7155 cfbc
00000040: 4282 a8be 8910 81bd 7061 d23e 66b7 09bf
00000050: 920c a13c 6c5b e4bd 6030 95bd d795 98bd
00000060: c0e1 42be 83cb a23e 199d 62be 4bab 093e
00000070: 18e9 0ebd 22a8 07be b7be a63d 29f7 e9be
00000080: 5ac9 23bd dd91 dd3d 9fe9 9bbd e3b5 41be
00000090: e4d4 24be 19b5 bd3d 80e3 fb3d 42d3 453e
000000a0: 67f8 2b3e 20b3 68bd 2cb1 c2be 4f02 f3ba
000000b0: 8946 59bd 4f31 6fbd 8f4b 26bf 3157 dcbe
000000c0: 3660 7f3e ff47 903e 85a0 f1be 9f9c 4abe
000000d0: e54f 063d 38b0 58be fa95 f13d b584 703d
000000e0: aa95 89be 6ac2 4dbe 1617 1cbe 656e d7be
000000f0: 3161 483e c1c4 48bc 884d 85bd 0c68 cb3d
00000100: 077c 65be c35a 973d 8b07 2f3b 7852 8abc
00000110: d803 d73d 126a 893d 5f86 7bbc 3199 b23e
00000120: 3ad5 373d ee72 67bd 2f03 c6be 602a 2a3e
00000130: 6ef6 84be 5fa1 7e3c 9b90 ad3e b2b2 5f3e
00000140: 4fca 683c e36d 06be 337e 89bd 437b 1a3e
00000150: ad1d c9bd adad e8be ace9 8cbd efff cb3d
00000160: d7fa 43be 91fc a1be e2a5 7f3c ec67 7f3e
00000170: 5217 fd3d 02c3 963e 06f4 e93a 7a78 8abc
00000180: 99eb 8a3e 3750 d6bd b107 d4bd 4a5a 0c3d
00000190: 16e0 a53e cfd8 633e c810 efbd 0d02 bf3e
000001a0: d746 34be eb35 cfbe 413f 683e 04e3 e2bd
000001b0: 420c 26bc e65b 02bd 97ac bfbd 78fb 013e
000001c0: 570f 82bd 9bdc b8bc 8c07 33be 5f75 543e
000001d0: 7598 393e fe5f a73d f63d 4e3d 4446 71bf
000001e0: 38fc f7ba 8dbb 67bc 89f8 803d fb33 1dbe
000001f0: 1923 1c3d cfb8 0dbe 443f 54bc 0224 24bd
00000200: 2126 e63d 1c72 b53e 0224 8dbd 288a 85be
00000210: a015 b4be 9755 6a3e 72e0 823c feee a5bd
00000220: d3a5 793e 0df6 b2be c30d 973e 5057 7dbd
00000230: 18d2 4dbf 7cf6 fabd 4bf3 513d 51d6 33be
00000240: 79ca fabd bba0 01be 32ab 0e3c 8f80 f3bd
00000250: eee7 463e 96ab 73bd a976 24bd 8e0b f3bd
00000260: b4bc bc3d be97 293e 19cf e8bd 01e5 9ebd
00000270: a79a 2a3c 1dd5 33bf 411b 963e 2616 56bd
00000280: 48b8 843e 0be5 473d 6ca3 af3d 513c 85bd
00000290: 1e9c a5bd 2b4e 46bc 3996 523d 1c00 a5be
000002a0: 2c83 c53c e689 013e e26f 993d e43e 483e
000002b0: 5233 853d 19f8 3dbd 8dbc 54be 4dee 74bd
000002c0: 4ff8 acbe f50d 5cbe d839 3b3c 0834 81bd
000002d0: c72b 7a3d fdb9 233e 57cd 753d f885 643c
000002e0: bb4f ccbd 01da 36bd 61fa c5bd bd18 c93d
000002f0: 69d6 4d3e cb3d 0d3e 6b55 2bbe 2e62 2fbe
00000300: bb17 5d3c 9bdf 0bbe 6258 a43e 6f71 00bf
00000310: 0ee5 59bd f681 49be 4587 b53e b0fc d33d
00000320: a620 46be 02bb 953d 235c 6d3d 74a7 a3bc
00000330: e45f c73d f910 04bf 8d6d c4be 8d60 babd
00000340: b84b c0bd 1af6 ef3d 5e35 0bbf 7e24 0e3e
00000350: 1a6d f53a e102 b53e 1d46 cabd b12a 77be
00000360: 42b7 b6bc 8129 12be a8bf ad3b 9073 c6bd
00000370: b65f 13be 253f e03d 9911 b83d 3c17 a83e
00000380: 2241 db3d 6fb7 073e 1a1e b23e f1a2 d3be
00000390: 4a4b 98bd ab42 09bd f2af 59be 5f75 0a3e
000003a0: f909 18be 9ba7 1fbe 8622 edbd c21a 173f
000003b0: 3ab4 d23e f1b5 793d 6eca 953c f8d5 64bf
000003c0: 5b08 2bbe 7b80 00be ef9b 46be 9f04 29bf
000003d0: b9e9 03be 8752 cb3e 429c bebe 57c8 2ebe
000003e0: d539 933e 1f1d e2bd 562f e53a e3d7 b13e
000003f0: 0d9b 4b3d 840a 5cbe db46 57bf 69a8 ff3c
0.19564016 -0.7419819 0.1634843 -0.10704932 0.21466425 0.2996521 -0.26065955 -0.04696657
0.1670423 0.094416 -0.3032368 0.078898884 -0.44358197 -0.211706 -0.246983 -0.025309296
-0.3291188 -0.06301982 0.41089964 -0.5379547 0.019659314 -0.1115025 -0.072846174 -0.07450455
-0.1903143 0.31795892 -0.2213024 0.1344425 -0.034890264 -0.13247731 0.08141845 -0.4569638
-0.039986946 0.10818837 -0.07612919 -0.1891704 -0.16096836 0.09263057 0.122992516 0.1931887
0.16793977 -0.056811452 -0.38025796 -0.0018540117 -0.053045783 -0.058396634 -0.64959043 -0.43035272
0.24939045 0.2817993 -0.4719278 -0.19786309 0.032791037 -0.21160972 0.11796184 0.05872031
-0.26871997 -0.20093694 -0.15243182 -0.42076412 0.19568326 -0.012253941 -0.065089285 0.09931955
-0.22410594 0.07390358 0.0026707377 -0.016885027 0.1049878 0.067096844 -0.015351861 0.348825
0.044881083 -0.05650609 -0.38674304 0.16617727 -0.2596926 0.015541404 0.33899388 0.2184551
0.01420839 -0.13127856 -0.06713524 0.15086083 -0.09820113 -0.45445004 -0.06880507 0.09960925
-0.19138657 -0.31638005 0.015603514 0.24941987 0.123579636 0.29445654 0.0017849214 -0.01690315
0.27132872 -0.104645185 -0.103530295 0.034265794 0.32397527 0.22250675 -0.11673123 0.37306252
-0.17605148 -0.40470824 0.2268038 -0.11078456 -0.010134758 -0.031825922 -0.09359091 0.12693584
-0.06350582 -0.02256613 -0.17483348 0.20747899 0.18124564 0.08172606 0.05035206 -0.9424784
-0.0018919772 -0.014143837 0.06297404 -0.1535186 0.03811941 -0.1384003 -0.012954537 -0.040073402
0.11237741 0.3543862 -0.068916336 -0.26081967 -0.3517275 0.22884212 0.015976164 -0.08102225
0.24379663 -0.34953347 0.29502687 -0.061850846 -0.803987 -0.122540444 0.051257413 -0.17562224
-0.1224565 -0.1265897 0.008707808 -0.11889755 0.19424412 -0.05948981 -0.040152226 -0.11867438
0.0921568 0.16561791 -0.11367626 -0.07758523 0.010412849 -0.7024706 0.29317668 -0.052267216
0.25921845 0.048802417 0.08576092 -0.06505645 -0.080864176 -0.012103598 0.051412795 -0.32226646
0.0241104 0.1265026 0.07492043 0.19555241 0.06503929 -0.046379182 -0.20775051 -0.059797574
-0.33783194 -0.21489699 0.011427365 -0.06308752 0.061076906 0.15988918 0.06001028 0.013947956
-0.09976145 -0.0446415 -0.096668966 0.098191716 0.20101322 0.13793103 -0.16731803 -0.17127296
0.013494427 -0.13659517 0.3209868 -0.50173086 -0.05319696 -0.19678482 0.35454765 0.10350931
-0.19348392 0.073110595 0.057949197 -0.019977309 0.097350866 -0.515884 -0.3836483 -0.09100447
-0.09389442 0.11716862 -0.54378307 0.13881108 0.0018724531 0.3535376 -0.09876654 -0.24137379
-0.022304181 -0.14273645 0.005302388 -0.096900105 -0.1439198 0.10949544 0.089877315 0.32830226
0.107057825 0.13253568 0.3478859 -0.41335252 -0.07436235 -0.033510845 -0.21258524 0.13521336
-0.14847554 -0.1559128 -0.115788504 0.59025204 0.41153127 0.06096453 0.018285003 -0.8938899
-0.16702406 -0.12549011 -0.19395421 -0.66022676 -0.12882127 0.397114 -0.3722859 -0.17068611
0.2875506 -0.11040711 0.0017485421 0.3473502 0.049708415 -0.21488386 -0.8409249 0.031208234

fc3.weight f4 [256, 256]
00000000: 5eb1 4a3d 2027 82be 21b0 debe 0ff7 34be
00000010: 52ed a8be e493 41be fe20 8c3d 2674 bcbb
00000020: c271 26bb 0fa5 07be a2df f9bc 8779 43be
00000030: 9ac9 29bc 16ad dcbd d38a eabd 6fc4 57be
00000040: de1e 25bf 8892 f8bb c3fd 0ebf 3c2a 46be
00000050: 5f14 413d 33d4 b5bd a803 173d 30ca aa3e
00000060: e609 76be 5d63 a0bd 7698 d23d 09da 933e
00000070: ca9d a23b 1f51 debd 1a44 78be ef2c be3d
00000080: 6626 c9bb 93d2 0fbe abb2 6239 b8e5 693e
00000090: 4c89 8ebd a68f 8abd 2c1e a7be c8dc 10bf
000000a0: 7e49 b8be ccb4 57bd 7b1d 74be 0b0c fabd
000000b0: 6d62 8abe 78b8 08bf a5b9 5abe 4a20 7fbe
000000c0: 5029 c7be a724 e8bc dd75 8cbd 153d 9c3c
000000d0: 7fb8 253e 64a7 30be d7c5 b9bd 56ee 713d
000000e0: 17ea 0ebe 58b7 e5be f02a cfbb cb28 6bbe
000000f0: e9ec 0ebd c205 91bd df75 16bf 34df e4bd
00000100: e8f4 033d 7a59 a7be 6620 093c 04e8 b5be
00000110: 36b3 01be 0a83 923d d698 0dbc 22b0 473e
00000120: 92a6 0abe 13f0 18bb 6887 11be 485a febe
00000130: bc77 adbe d8b4 44be 5fa1 22bf a828 05bf
00000140: e1c4 20be dd36 1fbf 2d11 a9bc 6a2b 00bf
00000150: 1133 353d 969f 2e3e ad91 88be 8c1a 75bc
00000160: 4589 233e 686b 11bf 433f 71be 3a4e 6cbe
00000170: 8e5f 47bd 1905 d73d 17ca 4dbe 8af0 a13e
00000180: 5bd0 5dbc efac 4ebd 85cc 043d 2b14 d53c
00000190: 217b f43e 1a4f 48be bb93 d4be 0f60 55be
000001a0: 1fa4 c3be 62c2 65be d204 6ebe 2680 603e
000001b0: 48d6 4b3d a621 67bc 40a2 debd 369d 26be
000001c0: 9b87 833e 3ab1 62be 604f 2e3e acb7 8a3d
000001d0: d090 c5bd 8e94 02bd bfb2 cabe 7252 26be
000001e0: 9896 193c f46e a1be a454 e43b 8a83 c6be
000001f0: c727 30be a2a2 a9bd 56a9 97bd 4d13 b43c
00000200: fb7d 9bbe 6cda b43c f50f 843d 7041 9fbe
00000210: 1011 2a3d acea e3be 88af 85bd 9ddd d7bd
00000220: af97 983d 3a62 f7bc 3f1d 743e cc9f ccbd
00000230: 2357 0abe 391f 71bc 4887 9a3d 29c6 85be
00000240: 1721 e4be 3b2b 3abe b105 42be c520 7abe
00000250: 6e76 7dbe 470d 673d 0a5f 0dbe a3c1 94bd
00000260: 4985 83be cbd5 ebbe 2f83 f4be a99e 663c
00000270: 5477 21be 2df8 b5be 39de a7be fb93 b83d
00000280: e2cd 19be 7ff7 c8bd 1d1d 9bbe cf90 0cbc
00000290: e6ff 603c 70d8 38bd a46a ecbe b05c 173d
000002a0: b53f fcbe acf3 d5be ec45 ac3e ae6d 6f3d
000002b0: 6ce0 17bf 5031 19be a6d2 f5bd 9ed8 82bc
000002c0: 474f ccbe aa2d 92be 5503 99bd fd21 1c3c
000002d0: d06d dabd b8a3 2ebc d093 ffbd 716e 6abe
000002e0: a615 1cbe 772c a03d 96a8 cbbd 152c b33e
000002f0: 32e8 6a3c b221 53be aa00 6b3e a81c f5bd
00000300: bcb5 923d 136e 693c 6c8d d63c 819a 11be
00000310: 0097 ab3c e361 2abe 10a8 eb3d f566 cebe
00000320: c9ed fabe 64e1 7dbe 0309 003e 17e3 d2be
00000330: 8644 2c3e 3b75 a7be c1f3 68be ccbf 05bd
00000340: 51d9 39bd 0a2f 69be 5ffa 27be f776 36be
00000350: 3c2b b0be 58a7 e53c 6d5a 933d d51e 5fbc
00000360: 03b1 0cbe 9dc0 033d 576c 0c3e 53ad 9fbb
00000370: a329 0c3e 3905 a6be 2790 41bd 5fde 9fbc
00000380: 2299 483d 2da8 b33d c907 fabd 69e8 44bd
00000390: 6392 d43b 1a28 9fbe d859 423d 2978 ad3c
000003a0: 21e7 c23b a6a8 8d3e 5217 ae3e 5047 b5be
000003b0: 5162 3cbc dc95 4f3d 35b5 00be 15a0 08be
000003c0: c749 7ebe 2319 a23c 06a3 5fbe d3c4 7fbe
000003d0: b7db 32be cab5 543c a701 dfbc 7162 02bf
000003e0: e385 e2bd c207 c8bc 52a3 c23e 09e8 30be
000003f0: edde 8c3d 7222 f8be b38f 95be 50c9 03be
0.049485557 -0.25420475 -0.4349375 -0.1767237 -0.3299356 -0.18904072 0.0684223 -0.0057511507
-0.0025397395 -0.13246559 -0.030502144 -0.19089328 -0.010363007 -0.10775201 -0.1145226 -0.21071027
-0.64500225 -0.0075858273 -0.5585596 -0.19352049 0.047138568 -0.088783644 0.03686872 0.33357382
-0.24027213 -0.07831452 0.10282986 0.28877285 0.0049626576 -0.10855316 -0.24244729 0.09285914
-0.0061386107 -0.14045171 0.00021619599 0.22841537 -0.06959781 -0.0676568 -0.32640207 -0.56586885
-0.3599357 -0.052662656 -0.23839371 -0.12209328 -0.27028218 -0.53406477 -0.2135988 -0.24914661
-0.38898706 -0.02833779 -0.06858418 0.019072095 0.16183661 -0.17251354 -0.09070938 0.059065185
-0.13956486 -0.44866443 -0.006322257 -0.2296478 -0.034893904 -0.07081176 -0.58773607 -0.11175385
0.032215983 -0.32685453 0.008369541 -0.35528576 -0.1266602 0.071539 -0.008642396 0.19500783
-0.13540104 -0.0023336455 -0.1421181 -0.49678254 -0.33880413 -0.19209611 -0.6352748 -0.5201516
-0.15700103 -0.6219309 -0.020638073 -0.50066245 0.044238154 0.17053065 -0.26673642 -0.014959943
0.15970333 -0.56804514 -0.23559289 -0.23076716 -0.048675112 0.10499019 -0.20096622 0.3162883
-0.013538445 -0.05045789 0.032421608 0.026010593 0.4775019 -0.19561425 -0.4151896 -0.20837425
-0.38211152 -0.22437432 -0.23244026 0.21923885 0.0497649 -0.0141071435 -0.108707905 -0.16270909
0.25689396 -0.22137919 0.17022467 0.06773314 -0.096467614 -0.031879954 -0.39589497 -0.16242388
0.009374283 -0.31529963 0.0069680978 -0.3877223 -0.17202674 -0.08282973 -0.07405345 0.02198186
-0.30369553 0.022076808 0.06448356 -0.31104612 0.04152018 -0.44514978 -0.065276206 -0.10540316
0.07450806 -0.030198205 0.23839281 -0.09991416 -0.13509803 -0.014716917 0.07545334 -0.26127747
-0.44556496 -0.18180554 -0.18947484 -0.24426563 -0.24752209 0.056409147 -0.13805786 -0.07263496
-0.25687626 -0.4606155 -0.47756335 0.0140759135 -0.15768176 -0.35540906 -0.3278673 0.090126
-0.15019944 -0.09812831 -0.3029565 -0.008579447 0.013732886 -0.045128286 -0.4617511 0.036953628
-0.49267355 -0.4178747 0.33647096 0.058454208 -0.59326816 -0.14960217 -0.120030686 -0.015972432
-0.39904234 -0.28550464 -0.07471339 0.009529588 -0.10665476 -0.010659151 -0.12479365 -0.22893693
-0.15242633 0.07820981 -0.099442646 0.3499457 0.014337586 -0.20618322 0.22949472 -0.11968356
0.07163569 0.014247435 0.026190482 -0.14219095 0.020946026 -0.16638903 0.11506665 -0.40312925
-0.4900954 -0.24793011 0.12503438 -0.4118888 0.16823015 -0.32706627 -0.22749235 -0.032653615
-0.045373265 -0.2277185 -0.16404103 -0.17818819 -0.34407985 0.028033897 0.07194982 -0.013618191
-0.137394 0.032166112 0.13713203 -0.004872957 0.13687758 -0.3242586 -0.047256615 -0.019515214
0.048974164 0.08772311 -0.12208516 -0.048073206 0.006487177 -0.31085283 0.047448963 0.02117546
0.005947963 0.2766773 0.34002167 -0.3540597 -0.01149805 0.050680026 -0.12569125 -0.13342316
-0.24832831 0.019787377 -0.21839532 -0.24977426 -0.17466627 0.012982795 -0.027222468 -0.5093146
-0.11060693 -0.024417762 0.3801523 -0.17276014 0.06878457 -0.4846378 -0.29211196 -0.12869763

fc3.bias f4 [256]
00000000: 7c7e 993d 8b78 2abe e348 33be 23a8 11bb
00000010: f169 9b3e 6ab6 22be 5f06 843d 53bf c63d
00000020: 8198 7dbe da1d b5be 04c8 35be 3d4e 433e
00000030: 105b fc3d 7032 4dbe 40b4 48be 2a3a 323e
00000040: 2c93 863e 82ec 213e 9101 dd3e adb4 833c
00000050: 3e39 32bd 3b54 10be 2ca7 573d 278f 9bbe
00000060: d7ec 793e ff15 18be 203a 8c3e 8a1c 823e
00000070: c156 903d 2487 cc3c a1a1 ae3d 8902 18bd
00000080: ca2d 8ebe 4899 4bbd 8c7b 55bd 999a 64be
00000090: 69ca ec3e 8b1f e63d 8020 eb3c 4b03 39be
000000a0: 0694 9fbe 4d83 3f3e a240 96bd 9dcb b9bd
000000b0: c6c0 983d bf01 da3d 6e85 3ebe 7d0c f03d
000000c0: 5aa8 1f3f 3343 8fbe 32a7 9d3e 183d 2fbd
000000d0: 8376 e73d 48cc 483e aa80 0c3e 1d20 f53e
000000e0: 097f 96be c904 4f3e 6efb 66be 7a06 6a3d
000000f0: ef5a b23d f3a8 e83d 6e94 983e 7796 673e
00000100: 1d42 20be a75d 82be 64dd ce3e 2bc5 abbd
00000110: c67c e3bd 6577 1e3e c174 723d c6b5 30be
00000120: a47a f0be dcb7 4abe bf68 a0be e8c5 b13d
00000130: a413 c13c 1ee1 13be 6a68 e93e c14e 0ebe
00000140: 6801 2cbd b074 7c3e e7c3 4fbe bfe7 2bbd
00000150: 2336 76bd bd53 8a3e 35d4 3a3e 2c6b 423e
00000160: 7f38 483d c9ec b83d a41e 0c3f 98cb 9cbe
00000170: b94a 393e f1e3 b43e adda fdbb bf13 86be
00000180: d130 23bd bdcb 403d 2a02 0c3e 2956 af3e
00000190: 2f87 833e e377 a0bd 9fc5 97be cace 2c3e
000001a0: e265 7cbe f478 b53d fd13 203e 5bbc 083e
000001b0: dfd9 c93d 768d d23e 734a b33e 36a8 a0bd
000001c0: 401d 14bf 455c 6b3d 5ca5 a0bb bce9 2a3d
000001d0: 71b3 1f3e fe98 d4bd 333d b0bd ccdc ca3d
000001e0: 8808 b03c 9bd1 6e3e 4005 263e 7231 dcbd
000001f0: a59f 3d3e 5be5 a1be 983f 563e a960 85bd
00000200: b78b eabe e298 56be bc6c a7bd b925 473e
00000210: 25d6 2d3e f35e fa3e 897a 2a3e b626 6d3e
00000220: 882f a2be fff3 d3bd 7fc4 d43d 44e0 35be
00000230: 9f84 80bd 3ad2 853e 0a50 1c3e 2bc8 bb3d
00000240: d688 bfbc 606f 193d 7875 543e 8a7f 26be
00000250: 7df7 963e 365a 8c3e 6773 243e 661d 373e
00000260: 0ae1 22be f172 8f3d fba5 aabe 7340 d5bd
00000270: 6d5c 51bd 4163 e23d bb35 c13e c9dc 42be
00000280: 9e11 c6bd fc81 923c a141 afbd 582c 85bc
00000290: f4d2 ebbb 28c5 dcbd 6fb6 1ebf 89fc c0bd
000002a0: f9da 5b3e 5f3b 1fbe b714 4f3c 2e28 82bd
000002b0: 8b35 af3e f838 4ebe ce89 d0be 3a73 493e
000002c0: 5eae 7c3d 2437 0bbe dcff fcbe 8430 533d
000002d0: dfdd cbbd c84d 313e bd84 e83d 24cf 06be
000002e0: 9536 a03a c932 3fbe 9961 1cbe 6c67 903d
000002f0: 7417 8f3e 5c69 a33e 5869 d0bd b170 3f3e
00000300: 25fa 3d3e e950 d73c e68d ecbd eb24 953e
00000310: afd1 8f3e e229 adbd 6b08 a1bd bc3b c6bd
00000320: 68b4 513e 3d7d 003e ad6a c3be 836d 993d
00000330: 9694 113e 2dd3 b5bd 8c06 283e b75f 2fbd
00000340: f028 2f3e d0e2 ce3e cab6 123f 3884 253e
00000350: 09fb 343e 2d19 323e 9c5c 643e d8a7 31be
00000360: d5ff af3e 46a0 ec3d 8b18 753d 7894 483e
00000370: c533 b2bb c8b7 d33d 100d 7cbe 3c29 7cbe
00000380: 351a df3d c174 ddbd 1f14 3abc e8c4 e73e
00000390: 111d 53be 05df 163f afa5 6cbd a717 973e
000003a0: 1764 e23d 6b0a bfbd 1cd8 dd3c 0b32 6cbe
000003b0: 5b5f ef3d 7e11 c1bd ddd0 d73d 6880 c13d
000003c0: 16e4 c5bd 9dd7 bf3c 1fdb 13be edd3 1c3e
000003d0: 92e6 6fbd 4731 023e aeff 59bd 2b64 eb3c
000003e0: 54d9 e3bd 919d 78be ddc5 8c3e 4aac 89be
000003f0: d82e 3fbe 216f d3be 78e0 d039 4e3a 213d
0.07494828 -0.16647546 -0.17508273 -0.0022225461 0.30354264 -0.15889898 0.06446528 0.09704461
-0.24765207 -0.35374337 -0.17752081 0.19072814 0.12322056 -0.20038772 -0.1960001 0.17405
0.26284158 0.15812877 0.43165258 0.016077364 -0.04351162 -0.14094631 0.052649662 -0.30382654
0.24406753 -0.14852141 0.27388096 0.254124 0.07047797 0.024966784 0.08526922 -0.037111793
-0.2776931 -0.049706727 -0.052119777 -0.223246 0.46248177 0.11236485 0.02870202 -0.18067662
-0.3116762 0.18702431 -0.073365465 -0.09072039 0.074586436 0.10644864 -0.18605587 0.11721132
0.6236626 -0.27980956 0.30791622 -0.042782873 0.11301901 0.19609177 0.13720956 0.47876063
-0.29393795 0.20216669 -0.2255685 0.057135083 0.087087505 0.113603495 0.29800743 0.22615992
-0.1565022 -0.25462076 0.40403283 -0.08387216 -0.11107783 0.15475233 0.059193376 -0.17256841
-0.46968567 -0.197967 -0.31329915 0.08680326 0.023568936 -0.14441344 0.45587474 -0.1389723
-0.04199353 0.24653888 -0.20289575 -0.041969057 -0.060110223 0.27017012 0.18245013 0.18986195
0.048882004 0.09029538 0.54734254 -0.3062408 0.1809491 0.35330155 -0.0077470155 -0.2618694
-0.039841477 0.0470693 0.136727 0.34245422 0.25689074 -0.078353666 -0.2964296 0.16875759
-0.2464824 0.088609606 0.15632625 0.13353102 0.09856009 0.4112355 0.35017738 -0.07844584
-0.5785713 0.057461042 -0.004902525 0.041726813 0.15595795 -0.103807434 -0.08605423 0.09905395
0.021488443 0.23322146 0.1621294 -0.107516184 0.18517931 -0.31620297 0.20922697 -0.06512577
-0.4580972 -0.20956758 -0.08175036 0.19447984 0.16976221 0.48900566 0.16648306 0.23159298
-0.31676888 -0.10349273 0.10389041 -0.17761332 -0.062752955 0.26136953 0.15264907 0.091690384
-0.023380678 0.03745973 0.20747936 -0.1625959 0.29485694 0.27412575 0.16059648 0.17882308
-0.15906158 0.07004345 -0.33329758 -0.10412683 -0.051113535 0.110540874 0.37736306 -0.19029535
-0.09671329 0.017884247 -0.085574396 -0.016256496 -0.0071967784 -0.10779792 -0.6199712 -0.09423167
0.2147025 -0.15549992 0.012639216 -0.0635532 0.34220538 -0.2013892 -0.40730137 0.19672862
0.061689727 -0.13595253 -0.49413955 0.05155994 -0.09954428 0.17314827 0.11353443 -0.13164955
0.0012223298 -0.18671717 -0.15271606 0.07050976 0.2794758 0.3191632 -0.10176343 0.18695332
0.18552454 0.026283698 -0.115505025 0.2912973 0.28089663 -0.08455254 -0.07862934 -0.09679362
0.20478976 0.12547775 -0.38167325 0.07491591 0.14216837 -0.08878169 0.16408747 -0.04281589
0.1710546 0.4040742 0.57310164 0.16163719 0.17673887 0.17392416 0.22300953 -0.17349184
0.34374872 0.11554007 0.05983786 0.19587886 -0.0054383003 0.10337788 -0.24614358 -0.24625105
0.108936705 -0.10813285 -0.011357336 0.45267415 -0.20616557 0.5893405 -0.057775196 0.29510233
0.11054247 -0.09328159 0.027080588 -0.23065965 0.116881095 -0.094271645 0.105378844 0.0944832
-0.096626446 0.023418242 -0.14439057 0.15315218 -0.0585695 0.1271411 -0.05322235 0.028734287
-0.111254364 -0.24278857 0.27494708 -0.2688926 -0.18670213 -0.41295722 0.00039840094 0.039362244

output.weight f4 [4, 256]
00000000: 8206 21bd 2b71 d03c 0e40 3dbd 26f3 e53c
00000010: f916 a5bd 13e1 f33b fb9b b5bd 3e4a b33c
00000020: effa 083e 6523 3bbd b952 093d c19c 833d
00000030: 6acd 5abd c433 02be 8c3f 513c 3842 823d
00000040: fffc 15bc dd67 103d 2f74 b5bd 6f9c ce3b
00000050: 3654 6bbd fd7c 013c 7628 cd3d 193a b9bc
00000060: d6bc a1bd 5464 393d 530b dc3d 35c1 62bd
00000070: f730 973c 684f 2dbe 6d11 233b 03a8 81bc
00000080: 86c9 823e 999f 293d 3e16 e2bc 356e 0a3d
00000090: c089 1c3d 6264 8c3c 30ab a83b 4646 15bd
000000a0: b007 7ebd bf0e e2bc 3220 a4bc 162d 13bd
000000b0: 50b0 aabd 3bf0 1abd ec33 8c3d 457c c5bb
000000c0: cb34 c1bd 16f8 9fbc 5290 c53d a074 bf3d
000000d0: 8a6e 943c 0192 013b 3acc 653d 7e4e 99bc
000000e0: 5151 2fbc 9748 29bd 6430 c73b 8397 43bd
000000f0: 12f1 d4bb fd37 583d 671d 853c bc6d 843c
00000100: ee30 a13a c6f1 f23d 4aa1 d73c 7f4b e13b
00000110: dc8a db3d 33df 8a3c e988 d03d 9696 9ebd
00000120: e198 b4bd faed ce3d dd01 a43e 8a37 d53b
00000130: 11ff c53c 849c 85bd 6b61 c43d 3e14 843a
00000140: 46af 1ebd e0d2 f63c 1006 0ebe 9712 45be
00000150: 9fc4 4dbd 3f27 c53c 991c 4abb a9bd 6f3d
00000160: 3d59 b83c 59fa b6bd a952 963c 4e07 bfbd
00000170: 3409 72bd 675b 8f3c 5bcf d8bd 9592 cdbd
00000180: 6734 523d 6fd4 e23c 1d0f 3fbd 6ad8 23bd
00000190: eda4 683d 142f 3a3d e6e2 673c cf88 b1bd
000001a0: 7668 6bbc 9f90 c13b 9e29 bb3d 90e1 67bc
000001b0: b6c8 c1bb 4c23 d23d 8c5e a23b 2626 08be
000001c0: 83c5 b43d db56 0e3e b199 6d3d c7da 633d
000001d0: c508 26bd 2cdc 13be 26d8 b13d f6d9 7b3d
000001e0: ab1a 55bc 1556 853d baa8 35bd f237 44bc
000001f0: 143f 5c3d a3e4 993d 4c58 0dbc 5a0e 85bd
00000200: 0ea6 32bd f2d4 fb3c e001 d63c e8a8 f0bc
00000210: b486 b23c ba57 c6bd d00c dc3c f528 91bc
00000220: 33f2 19bd de7b ba3c 858f c53c a569 363c
00000230: b818 82bb 8e75 ff3d a2b1 f5bd 6355 863b
00000240: 1233 debd 5374 733b 74b1 5c3c aa40 09bd
00000250: 7425 843d 41cd 17bd fe13 593d d02c 8b3b
00000260: b4d6 30bd f9e5 833c 676e debd 7290 d6bc
00000270: b5e7 813d e782 993c 4206 133d 6cbf 5bbe
00000280: 3774 d63d 2f9d 9a3d 6bf9 b8bd d3a6 bf3d
00000290: 7bb0 babd 6bab 83bd 616b c2bc 698e 83be
000002a0: 792e 75bb 9faf 23bd fc84 1bbd 6b20 023d
000002b0: 1840 e1bc 669e ff3c 0572 9d3d d509 923c
000002c0: f11f 42bd d965 96bb 6450 4fbc 4061 cabc
000002d0: cfff de3d 9db4 ae3d 6f49 063d 442a d43c
000002e0: 2e1f 903c 423b 233d ca81 44be 5494 debd
000002f0: f067 743d 6582 db3c 28a8 323d b367 9b3d
00000300: d007 663c 4682 adbc 6ef0 c63c 91f5 8b3c
00000310: bdde 33bd 2807 b6bd 66f0 08bc fb1d d5bd
00000320: d3c9 39bd b697 1abd 023f 7dbd a5c8 693d
00000330: 1adf 8f3c 8732 433d 7ba7 383c ccad a9bd
00000340: d4e2 bc3d 1741 79bc f101 b8bc 5256 f63c
00000350: ffd0 d63d c806 8dbc d84a 033e 1404 12bb
00000360: f94e 98bd e0e8 3fbd 8b19 d73c 7122 cd3c
00000370: 2621 5fbd d67f aabd 4c26 babd afd0 17be
00000380: 842c 47bd d2e2 18bd bf6e 40be 7aa2 d23d
00000390: 668a d1bd 72f7 4b3d b29d 183d 4935 133d
000003a0: fdbc c93c e66c 02bd 417d 2cbe c250 4d3d
000003b0: 174a 4bbd 6a8b 133b 7833 a63c da04 86bd
000003c0: 310d cebc f9f7 aebd b28d 6d3d 1b0b ed3d
000003d0: 4a4d 893d 0e95 ae3b 7fbc f33d 7b67 e2bb
000003e0: 677f 163c 523d c5bb 08ae 84bd c86e 42be
000003f0: f481 053e 9fa5 c73d d8df 343c 9863 a6bd
-0.039312847 0.025444588 -0.046203665 0.028070044 -0.08061022 0.0074426024 -0.088676415 0.021885987
0.13376974 -0.04568805 0.033526156 0.06426383 -0.053418554 -0.1271506 0.012771498 0.063602865
-0.009154557 0.0352553 -0.08860051 0.0063052694 -0.057453357 0.007903335 0.10017483 -0.022610711
-0.07897346 0.045261696 0.107443474 -0.055360038 0.018455965 -0.16924822 0.0024882213 -0.015827185
0.25544375 0.04141197 -0.027598497 0.033796508 0.038217306 0.01713771 0.0051473603 -0.03644397
-0.06201905 -0.027594922 -0.020034883 -0.03593167 -0.0833441 -0.037826758 0.06845841 -0.006026777
-0.094338976 -0.019527476 0.096466675 0.09348416 0.018119115 0.0019770863 0.05610297 -0.018714186
-0.01070054 -0.041328993 0.0060787667 -0.047751915 -0.0064984644 0.05278777 0.016249372 0.016165607
0.0012297907 0.11862521 0.026322026 0.006875455 0.10719845 0.016952133 0.101823635 -0.07743566
-0.08818222 0.10103984 0.32032672 0.006506865 0.024169477 -0.065239936 0.095888935 0.0010076833
-0.038741373 0.03012985 -0.138695 -0.19245373 -0.05023634 0.024066566 -0.00308398 0.058530483
0.02250349 -0.08934469 0.018349962 -0.09327565 -0.059090808 0.017499639 -0.10586425 -0.10037724
0.051319506 0.027689187 -0.046645273 -0.04000131 0.05679791 0.045455053 0.014153218 -0.08668672
-0.014368167 0.0059071328 0.09138797 -0.014152899 -0.005913819 0.102606386 0.0049551185 -0.13295802
0.08826735 0.1390032 0.0580079 0.055628564 -0.040535707 -0.14439458 0.08683805 0.06148716
-0.013006846 0.065105595 -0.044350363 -0.011976229 0.053771093 0.07514312 -0.008627009 -0.06496878
-0.043615393 0.030741189 0.026123941 -0.029377416 0.021792747 -0.09684701 0.026861578 -0.017719725
-0.037584495 0.022764143 0.024116287 0.011133586 -0.003970232 0.12473594 -0.119967714 0.0040995344
-0.10849585 0.0037148192 0.0134700425 -0.033508934 0.06452456 -0.03706098 0.05299758 0.0042472854
-0.043173507 0.01610087 -0.10860901 -0.026191924 0.06343023 0.018739177 0.03589464 -0.2145974
0.10471385 0.07549512 -0.09031948 0.09357991 -0.09115692 -0.0642918 -0.023732843 -0.25694588
-0.0037411733 -0.039962407 -0.03796862 0.031769197 -0.027496383 0.03120346 0.07687763 0.017826954
-0.047393743 -0.004589778 -0.012653444 -0.024704576 0.10888635 0.08530543 0.032784875 0.02589906
0.017592993 0.039851435 -0.19190136 -0.10868135 0.059669435 0.026795575 0.043617398 0.075881384
0.014039949 -0.021180283 0.024284568 0.017084869 -0.04391359 -0.08888084 -0.008358097 -0.10406109
-0.04535849 -0.03774234 -0.061827667 0.057076115 0.017562438 0.04765561 0.011270399 -0.08285102
0.092229515 -0.0152132725 -0.022461863 0.030070458 0.104890816 -0.017215148 0.1282152 -0.0022280263
-0.07436938 -0.046852946 0.026257297 0.025040837 -0.054474972 -0.08325164 -0.09089336 -0.148257
-0.048626438 -0.037325688 -0.18792246 0.10284896 -0.102314755 0.04979653 0.037259765 0.03593949
0.02462625 -0.031842135 -0.16844656 0.050125845 -0.049631204 0.0022513517 0.020288214 -0.06543894
-0.025152775 -0.08543391 0.05799646 0.11574384 0.06704195 0.0053278273 0.11901187 -0.0069093085
0.0091856485 -0.006019273 -0.06478506 -0.18987572 0.13037854 0.097483866 0.011039697 -0.08124465

output.bias f4 [4]
00000000: f21f 3d3d 8847 f838 50e6 6e3d 3f4c ae3d
0.046173044 0.00011838885 0.058325112 0.085106365
