fetch_sticky_mittens_step/networks/ours_10k_block_3_uber_level_0_seed_250/network_release_and_lift_0.pth (torch, 594935 bytes, 8 tensors)

fc1.weight f4 [256, 58]
00000000: 8272 883d 50d2 fe3d 9f8e cabd c770 b83c
00000010: 1f34 8e3d 91f1 9f3d 9fb3 8cbd 7435 a0bd
00000020: b691 c83d 22c9 683d 174a 74bd 2f7e 763d
00000030: 6048 473d 780b dd3d 3bcf d83d a8b9 f6bd
00000040: ee55 f0bd 0ddc f5bd 22d0 ec3d fbe9 cd3d
00000050: 0005 b4bd 3f5d dfbd 5282 e73d 67ed 733c
00000060: 7ced 89bd a624 003e 8fd1 dfbd 3df7 4abd
00000070: 10f3 98bd d8e8 edbd baaf b53c 4072 9dbd
00000080: 8e5b a5bc 1bb4 d03d e738 053e 052e c43d
00000090: 42e9 523d 6d6f 3bbd b9d1 6dbd 7d83 87bc
000000a0: 232f 0a3d b949 20bc bdb5 b83d 4c52 cd3c
000000b0: 5330 2d3d ba1f 26bd 7f28 5ebc 3ebe 463d
000000c0: cae8 01be 7dcf 923d 4fb6 2d3d 746b 643d
000000d0: e101 5bbd a07a 2fbc 284c ab3d 0baf 3dbd
000000e0: 2533 39bc 6d5e cc3d 005a f0bc e91c 79ba
000000f0: f4e1 013e 2ea5 b3bd c308 3bbc 332b b93c
00000100: 4048 a7bd eae9 9c3d 1d20 e6bc d4ae dfbd
00000110: 0425 073c 5643 b8bd 53e2 563d f5cf 693d
00000120: ebbd ccbc b3d1 1bbd b5d5 01be 2d30 d1bd
00000130: 17bf f43d 3ca7 dc3d 61bb 7cbd 83f0 a23c
00000140: fd3a 123d 8629 4f3d f917 d03c abd2 693b
00000150: 3508 a53c 694d 8fbc 67ec 2f3c c695 413d
00000160: 5419 b8bc f715 fcbc f5f5 de3c c0ba efbd
00000170: 7d59 693d 2c8e 9cbc f37b b2bc 845e 183d
00000180: c2b9 d23d 5f2d d43d e7c6 7a3d 6fe7 a7bd
00000190: 2faf b6bc 90a3 fcbd fa52 943d 8572 723c
000001a0: 956d dc3d 9a54 e1bd d595 45bd f531 903d
000001b0: ee99 5c3d f079 863d a1f1 eebd 1775 c43d
000001c0: 2376 2abd 8d86 32bd 9934 513d cb8c 01be
000001d0: a5d4 163d fb1e 51bd ce6d 123d 0538 6abd
000001e0: b76f a33d 7fd7 f13d 7c7a 21bd a8b8 673d
000001f0: 2e93 e4bd efb5 e6bc 9652 1fbd bcab b43d
00000200: a30c dd3d 32b4 21bd b974 f83d fa01 673d
00000210: a9a1 9d3d e395 39bc 838c 00be cb17 463c
00000220: 30b4 c2bc 6405 c0bc e6d7 003e fa94 febd
00000230: 12d1 62bd 9dfa 7f3d 4c79 c23c a844 6bbd
00000240: e698 02be a7f6 48bc 1f04 ab3d 68a6 04be
00000250: 1fc4 ddbd 7832 74bb 2af9 db3c 5d17 483c
00000260: 80bb 8d3d 4f25 8cbd aa8b f7bd ea2e d4bd
00000270: 252b 0cbd 52fb 433d a44c dc3d 5320 5dbd
00000280: 7bb7 5a3d 2692 403c 6511 6d3d 8743 2d3d
00000290: cc15 c4bb a8b3 edbd b508 b5bc 5aff 9bbd
000002a0: 0b62 a2ba fc7d 5abd 2567 f6bd 3abb f43c
000002b0: 79cc 623d 652c 9abd 1b19 963d 9d6c c0bd
000002c0: 0f83 eb3c 4a3b 7a3c b8a6 da3c 7483 6a3d
000002d0: 18f1 61bd be28 cf3d d4f0 50bd d74f 2cbd
000002e0: ebb3 bd3c 98a1 a2b9 a0c3 6d3c d841 a9bd
000002f0: 9ffb e6bd 7c56 adbd b9c8 7bbd ea07 afbd
00000300: 8a7b 953d 3e98 aabd 903c 1ebd a77d 3d3d
00000310: ba2e 573a 902b 08bd cf09 173b bae9 eebd
00000320: d84a c43b 6b6a a03d 0f6c b43d b2a4 07bd
00000330: af81 88bd dd83 f53d a3d4 7dbd 6a79 49bd
00000340: ba72 003e 1c0e 2a3d 379b d5bd e183 ffbc
00000350: 4420 1d3d ddcd 98bd 3c36 5ebd 97a4 4ebd
00000360: 8723 01be 2416 023e 066a 64bd 0d3a 59bc
00000370: 71c2 79bd 331d cc3c dbae 2d3d c142 4dbd
00000380: 3bac d43d e82c a23d 12f1 8d3d 94d2 bbbb
00000390: 5ba0 f63d df20 a93d c019 f53d 051c 603d
000003a0: 76b4 0b3c 4bd0 d1bd 2ca5 f23c 9243 4e3b
000003b0: bce6 b1bd 6ea9 023e 166a 97bc d0b1 a2bd
000003c0: f0a2 11bd 6403 be3d f4a1 8cbd abeb e6bd
000003d0: 0c67 813d c22c 063e 90df 8bbc 0212 03be
000003e0: 084c d83d a9fb c2bd f9bf b7bd fb01 64bc
000003f0: 60c6 0f3c 77a5 debc fe37 d3bb 6f9a e03b
0.06662466 0.12442458 -0.09890484 0.022514714 0.06943535 0.07809747 -0.068701975 -0.078226954
0.09793417 0.05683244 -0.05964097 0.06017893 0.048653007 0.10793203 0.10586401 -0.1204713
-0.1173514 -0.12004862 0.11563136 0.10054394 -0.08790016 -0.10906457 0.113041535 0.014888144
-0.0673475 0.1251398 -0.10928642 -0.04955219 -0.074682355 -0.11616677 0.02217852 -0.07687807
-0.020185258 0.101906024 0.13009988 0.0957909 0.051491983 -0.04576056 -0.058061335 -0.01654219
0.03373636 -0.009783202 0.09019039 0.025063656 0.042282414 -0.0405576 -0.01355946 0.048521273
-0.12686458 0.071684815 0.04241019 0.055766538 -0.05346859 -0.010710388 0.08364135 -0.046309512
-0.011303698 0.09978948 -0.02933979 -0.0009502904 0.1268385 -0.0877174 -0.011415663 0.022603607
-0.081680775 0.07661803 -0.028091485 -0.10922018 0.008248571 -0.08997218 0.052461933 0.05708309
-0.024992904 -0.03804178 -0.12679179 -0.10214267 0.1195051 0.10774085 -0.061702136 0.019890076
0.035700787 0.05057671 0.025402056 0.0035678546 0.020145515 -0.017492967 0.010737515 0.047261976
-0.022473015 -0.030772192 0.02721689 -0.117055416 0.05697011 -0.019110762 -0.02178762 0.037199512
0.10289337 0.10360216 0.061224844 -0.08198439 -0.02230033 -0.123358846 0.07242389 0.014797811
0.107630886 -0.110024646 -0.048238594 0.070407785 0.053857736 0.065662265 -0.11667181 0.095926456
-0.04161657 -0.04358535 0.05107555 -0.12651365 0.036823887 -0.051054936 0.03574925 -0.05718233
0.07980292 0.11808681 -0.03942345 0.056572586 -0.11160885 -0.028162925 -0.03889712 0.08821818
0.10793426 -0.03947849 0.12131638 0.05639837 0.0769685 -0.01132724 -0.12553601 0.012090634
-0.02376756 -0.02344007 0.12582359 -0.12430759 -0.055375166 0.062494863 0.02373948 -0.057438523
-0.12753639 -0.012265838 0.083503954 -0.12954104 -0.10828423 -0.0037261527 0.02685221 0.0122126015
0.069205284 -0.068430535 -0.12087186 -0.10360511 -0.034220833 0.0478471 0.107568055 -0.053985905
0.053397637 0.0117535945 0.057877917 0.042300727 -0.0059840437 -0.11606532 -0.022098878 -0.07617064
-0.0012388838 -0.053342804 -0.12031392 0.029874433 0.05537078 -0.07527999 0.07329007 -0.09395716
0.028749017 0.015272925 0.026690826 0.05725427 -0.055161566 0.10115193 -0.05101092 -0.04206833
0.02315708 -0.00031019445 0.014511973 -0.08264512 -0.11278462 -0.08463761 -0.06147072 -0.08546431
0.07298954 -0.08329819 -0.038631976 0.04626241 0.0008208562 -0.03324467 0.0023046618 -0.116656736
0.0059903674 0.078327976 0.08809673 -0.03311605 -0.0666536 0.119880415 -0.061970364 -0.049188055
0.12543765 0.041517362 -0.104299955 -0.031190814 0.03836085 -0.0746114 -0.05425094 -0.050449934
-0.12611209 0.12703758 -0.055765174 -0.013258469 -0.06097645 0.024916267 0.042403083 -0.05011249
0.10384413 0.079187214 0.06930746 -0.00573189 0.12042304 0.08258223 0.11967802 0.05471422
0.008526912 -0.10244807 0.029619776 0.003147338 -0.08686587 0.12759945 -0.018483203 -0.07944071
-0.03555578 0.092779905 -0.068668276 -0.11275419 0.06318483 0.13103011 -0.017074376 -0.12799838
0.10561377 -0.095206566 -0.08972163 -0.013916488 0.008775324 -0.02717851 -0.006445884 0.0068543474

fc1.bias f4 [256]
00000000: b480 9cbd 72cf 9d3b a8df 203d 0c9f c2bc
00000010: f11f b43d 0501 c33d 6aea fd3d 7643 41bd
00000020: b29b 6a3d 7fc6 a0bc 8d89 7abd a14a c5bb
00000030: 4114 42bc dbad 84bc a54f 003e 9dab e33c
00000040: 20b6 f33b 0e4c c2bd dabb 043e fa54 c13d
00000050: ad59 03bc 5dce d73d 7ee8 babc 8df6 babd
00000060: e64e c33d 69e8 6cbd 927f 533d f524 33bd
00000070: 0564 f53d 609c 23bd 4235 143c ee4e c43d
00000080: 6439 053e 8a36 febd eb38 943d 78a0 1e3d
00000090: 8c56 7d3c e4f3 23bd 9db4 4bbc 1d4c 8abd
000000a0: b135 713d eeb8 8cbd 6a6c e7bb 3060 c03c
000000b0: 6e2c dd3d 8c3a 83bd fed1 9cbd 16a4 b8bd
000000c0: 0635 01be b264 c93d 25e8 bc3d 3533 b0bc
000000d0: 69a9 023e 2121 21bb 5d76 e53d 64e3 df3d
000000e0: d7a4 b3bd fe45 b73c c328 02be a487 b9bc
000000f0: c092 f4bc 5983 e63b d617 903d 0c79 bf3d
00000100: 97c2 a0bd d503 f93c d3d0 a8bc da2b a83d
00000110: 9862 743c 68ab 8cbd 16c3 95bd 8ae4 12bd
00000120: 6981 ef3d e7d7 56bd c33c 7e3d b15d 863d
00000130: e8b3 8dbd bfce b2bd 2a09 e33d d1bf 1f3d
00000140: 1212 d33d 543d 493d 907f c3bd 8c21 613d
00000150: 48b5 01bd a7e9 bd3c 1883 4c3d 8b37 c4ba
00000160: fb01 013d 7147 cc3d 4f9f 433d 51b9 1f3d
00000170: 9537 66bb 0aff 6fbd f16b 8ebd 6ae8 9b3d
00000180: dc4f ee3c 11e2 8abd 1c13 c1bd 55b3 6b3d
00000190: 2723 c73d 6210 4cbd 3d66 c3bc 430a 2ebd
000001a0: 57d4 7dbc ce38 003d 953d dbbd 117c a8ba
000001b0: 9970 723d a4af 43bd 1f7e dfbc b41a 843d
000001c0: 2649 db3c f05c 49bd e5ce ad3d 27b4 4e3d
000001d0: 0941 b03d ff7d 6f3d f554 cb3c 78c8 acbd
000001e0: 28d6 d43d c90e 903d 8ecf 473d 993a 603d
000001f0: 0104 753d b2bf 2e3d ccf5 493d 107f 183d
00000200: 7530 c43d af69 3a3c 0f80 6abd 6c9c 86bd
00000210: 5269 cfbd 0324 7cbc 1d91 95bd 4d44 85bc
00000220: 2ccd b73d 2c65 b53d caa2 a5bc cbd5 973d
00000230: 5de3 403d fb5c 893d 19d2 f43d 36ab 7bbd
00000240: 544e cbbc 88cc fa3d 257c b33d 953b 68bd
00000250: 54cd ac3d 8aaa c93c cca7 72bd 2d6b cf3c
00000260: 3658 fa3c 2ff4 1bbc 6cea 8f3d 2f74 e03d
00000270: 8f8b 28bd e34d b63d d18a d7bd ec8c d93d
00000280: f812 6c3d 332f 5a3c 9dfb 28bd 2274 f33d
00000290: 8a8e d83d 8575 9bbd 90f0 dbbc 8d28 063e
000002a0: d6c9 433c db54 00be 3227 97bd 20fc f43d
000002b0: 5892 1bbd 38d9 403d 5111 fd3d bd35 96bd
000002c0: 61c4 5a3d e995 5b3d aced 66bd d26c 743d
000002d0: 0b65 8bbd 002c e3bd 44ac ab3d dc86 8a3d
000002e0: 1f8f 8f3d 381d e4bd d449 f9bd 00e8 01be
000002f0: aff1 59ba 1497 823d badd b1bd acc5 19bb
00000300: 5c46 a3bd 73af 2bbd 1a32 ce3d 4c2a c83d
00000310: fd15 9a3d e2a9 66bc 8055 cf3d c118 86b8
00000320: 7934 bf3d b974 533c 014a f53d 2cb2 5e3c
00000330: 8e7c a9bd 66a1 4aba 5a07 02be 8032 1f3c
00000340: 12c4 f63d 375e fcbd 50fc 93bd 76e2 043e
00000350: 53b9 433d 40e5 d93d 0fb8 7ebd 6958 d1bd
00000360: c42c a23c 3e84 9cbd ec23 e4bd aeaf b93d
00000370: 07d1 f2bc 97ec 65bd a7ae f43d 07c8 9e3d
00000380: 4438 a0bd 3117 8a3d 6bf6 37bd 63ac 133d
00000390: 97e6 abbd 482d d4bd 249f b23c 0083 493d
000003a0: f220 4b3d b7b9 303d b3ab f4bc 3584 02be
000003b0: e6fc c63d 0b2c 71bd 1bb6 4cbc bc8d bfbd
000003c0: 0fd6 753c c701 05be 7c7b e6bd b678 2c3d
000003d0: 2fd4 bdbd 3c44 9e3d 0443 f43c 12de e63d
000003e0: 455c eebd dc8d 003c 2722 3bbd 8a11 82bd
000003f0: 492a 053d 012f 153b 002c f6bb 73c1 883c
-0.07641736 0.004815989 0.039275795 -0.02375748 0.08795155 0.09521679 0.123982266 -0.047183476
0.05727739 -0.0196259 -0.061166335 -0.0060208593 -0.011845649 -0.016196182 0.12530382 0.027791793
0.0074374825 -0.094871625 0.12962285 0.09440036 -0.008016986 0.105374075 -0.022815939 -0.09129057
0.09536533 -0.05783883 0.051635332 -0.043736417 0.11981968 -0.039944053 0.009045901 0.09585367
0.13010174 -0.12412746 0.07237419 0.038727254 0.015462529 -0.040027514 -0.012433198 -0.06752799
0.058889095 -0.0687121 -0.0070624845 0.023483366 0.1079949 -0.06407651 -0.0765724 -0.09015672
-0.12617883 0.09833659 0.092239656 -0.021508792 0.12759937 -0.0024586397 0.11204217 0.10932043
-0.08771675 0.022372242 -0.12710862 -0.022647686 -0.029855132 0.007034701 0.07035796 0.0934926
-0.07849615 0.030397335 -0.020607388 0.08211489 0.014916085 -0.06868631 -0.073126 -0.035862483
0.11694605 -0.052451994 0.062069666 0.06560839 -0.0691908 -0.0873084 0.11085732 0.03900129
0.10306181 0.049130753 -0.09545815 0.054963633 -0.031667024 0.023182703 0.04992971 -0.0014970166
0.03149603 0.09974564 0.04775935 0.03899509 -0.0035128344 -0.058592834 -0.06954182 0.07612689
0.029090814 -0.067814 -0.09427473 0.05754407 0.09723502 -0.04982031 -0.023852462 -0.042490255
-0.01549252 0.031304173 -0.10705105 -0.0012854357 0.059189413 -0.047774926 -0.027281819 0.06450406
0.026768278 -0.049160898 0.084867276 0.050464775 0.086061545 0.05846977 0.024820784 -0.08436674
0.103924096 0.0703407 0.048781924 0.054743383 0.05981827 0.042663284 0.049306676 0.03723055
0.09579555 0.011377736 -0.057251032 -0.06572804 -0.1012751 -0.015389445 -0.07303069 -0.01626792
0.0897468 0.08857188 -0.020219225 0.07413825 0.04709183 0.06707188 0.119541354 -0.061442576
-0.024817623 0.122460425 0.08763913 -0.056697447 0.08437601 0.024617452 -0.059242055 0.02531966
0.03055964 -0.009518667 0.07027134 0.1095966 -0.04114872 0.089015745 -0.10524524 0.10622582
0.057635278 0.013316917 -0.041255582 0.11887385 0.10574062 -0.075907744 -0.026848108 0.13101406
0.011949977 -0.1253237 -0.07380523 0.119621515 -0.03798136 0.047082156 0.123568185 -0.073344685
0.053409938 0.053609762 -0.056379005 0.05967409 -0.06806382 -0.11092377 0.083824664 0.06764004
0.0700972 -0.111383855 -0.12172285 -0.12686157 -0.0008313907 0.06376472 -0.08684869 -0.002346377
-0.07972404 -0.04191537 0.1006815 0.097736925 0.07523725 -0.014078589 0.1012373 -6.394229e-05
0.0933618 0.012906247 0.11977006 0.013592284 -0.0827571 -0.0007729739 -0.12698117 0.00971663
0.12049116 -0.123226576 -0.07225859 0.12977013 0.04778416 0.10639429 -0.06218725 -0.10221941
0.019796737 -0.07642411 -0.11139664 0.09066711 -0.029640688 -0.056133833 0.11947375 0.07752996
-0.07823232 0.06742705 -0.044912737 0.036053073 -0.08393591 -0.10360199 0.0218044 0.049197197
0.049591966 0.04314586 -0.029867029 -0.12745745 0.09716205 -0.058879893 -0.012494589 -0.093532056
0.015004649 -0.12988959 -0.112540215 0.042107306 -0.092689864 0.077278584 0.029817112 0.11272825
-0.11638693 0.007846322 -0.045686867 -0.063510016 0.03251103 0.0022763612 -0.0075125694 0.016693806

fc2.weight f4 [256, 256]
00000000: e8ea 36bd 182b 03bc 0ec3 0a3d c4fe 54bd
00000010: e0be 41bc f073 9abb ee9e 39bd e0bd 183c
00000020: c619 65bd 5c83 bd3c 90a4 fabc b082 bebb
00000030: 8098 dabc 0ab5 68bd 8452 80bc 38fe 563c
00000040: 60be 33bd 800e 0e3b 1c68 ca3c d03a 10bd
00000050: 8446 243d 3011 833c e4d0 6fbd 1e09 1cbd
00000060: 00ed 4a3a dcb2 dfbc acb9 e2bc 40d0 52bc
00000070: a005 49bb e26a 183d d633 343d e82d 7e3d
00000080: 3c42 af3c c877 6bbd 18df c23c c05f 943b
00000090: 2077 07bb 3ce9 293d b8e4 243c f4e9 ea3c
000000a0: be01 193d f09a f3bc 80f0 b8bb 5899 99bc
000000b0: b4b5 24bd e8fb 183d 0ca2 d93c 9863 01bd
000000c0: 5445 23bd a4ac 94bc c868 87bc 4050 8a3c
000000d0: 1486 f7bc f47e 7abd d216 1ebd 30e2 99bb
000000e0: 7605 4d3d 80c1 26bc 5cb8 60bd 00b3 aa39
000000f0: a0a3 a2bb 3802 653d 5496 60bd 0050 60b9
00000100: 8ec3 3c3d 5877 59bc c06b 77bb 0615 333d
00000110: 0e3d 39bd f04c 7ebd 76a0 7f3d 2e3c 133d
00000120: d678 6dbd 204a a93b b0d3 f83c 2251 6ebd
00000130: d025 e8bc 847c 2fbd 46d3 723d 00c2 9939
00000140: d0e9 533d 5894 a2bc 3875 143d 484f 2ebd
00000150: 64bc 993c a0c0 20bc c0a1 923c 1c18 033d
00000160: b0c5 d6bc 0e12 5f3d ae19 5abd 18bf 713c
00000170: 7cc9 8abc 1017 843b be8e 3abd fc6f e93c
00000180: 0cc6 2ebd 2cc3 483d e292 04bd 5af5 4c3d
00000190: 4895 65bc 7674 7a3d 3444 583d 028f 28bd
000001a0: 00e8 4bba 70b3 6a3d aad9 133d a269 113d
000001b0: 3edb 313d b07d e2bc 7860 553c e016 84bb
000001c0: eac9 3cbd 643b 41bd f09d 90bc 547c 23bd
000001d0: 548d b8bc f460 34bd 709a 5a3d c077 08bd
000001e0: 7c5c fcbc 3495 513d 1470 0b3d c4c4 9c3c
000001f0: c4ca fdbc f0da ccbc 70c6 e33c 26cf 43bd
00000200: 88fc 643d 1894 143c 8c8f 3a3d 0410 c5bc
00000210: 78ba b33c e07e fc3b f0ff 9a3b 72cc 2fbd
00000220: 605c ed3c 80c4 79bc 0461 753d c0d7 47bb
00000230: 2061 7dbd 5817 85bc 9638 00bd 3452 1dbd
00000240: 6cfb 62bd b0b7 4e3c 1c77 dc3c 16a7 6fbd
00000250: 0078 e1b8 8463 87bc 70a5 523d 98ff 41bc
00000260: be2b 66bd 80c5 a4bb e63d 333d d8f2 6f3c
00000270: c0c9 d83a 50b0 68bc 04f8 58bd f803 18bd
00000280: d8c7 74bc 501f efbb 00ba 8d3c 5cf5 0e3d
00000290: 96ee 373d 3ccc d5bc c050 793d f4ae 923c
000002a0: d8b1 66bd 2ce5 663d 5a93 053d 1001 433d
000002b0: 1a38 5f3d 1c53 373d 8098 223b 16af 6c3d
000002c0: 28db 05bd 2c70 cbbc fae2 3d3d 50c4 343c
000002d0: 689a 0dbc 78b5 bdbc 10d4 0bbc dc6e f73c
000002e0: e845 7ebc 26d9 4bbd 600f bbbc 982b 593c
000002f0: 50ab f13c b057 483d c06b 7dbb 804d 483c
00000300: 80b4 393d 90dc 4bbd 18b6 dd3c 8018 eb3a
00000310: 80ae 893a 565b 6b3d 00e0 94b8 205c 62bb
00000320: b0a2 bb3b 1857 edbc ee09 653d f027 8cbb
00000330: 307a 45bc 2057 2fbd 78c9 5dbd 2ecb 33bd
00000340: 9098 853b 56be 3abd 1e5a 60bd 3c39 f9bc
00000350: 7e49 653d 302b b23b 7073 6a3d 1052 02bc
00000360: 2478 4bbd c4b5 d4bc 3c5a 5dbd 48f9 bfbc
00000370: 3847 34bc 1c4a 013d 6a3c 74bd 7cc2 ec3c
00000380: 765e 26bd c20d 193d 2cb9 28bd 98b1 68bd
00000390: 2a3b 743d 3ad0 1ebd 983b 53bd ba82 253d
000003a0: cc90 bb3c b037 14bd 7076 dabc 44a6 27bd
000003b0: 9ebb 073d 90e5 ba3b 64ae bc3c dcc8 1a3d
000003c0: c0ce 313b 0005 1a3d b04f 21bc 68c1 edbc
000003d0: e0bf 643d 10be 33bd bed5 26bd e4f5 a83c
000003e0: 3ea0 5f3d e0da 39bc 60a9 d23c 4063 ca3a
000003f0: 72d8 57bd 0094 61b9 a064 f73c 44c7 d23c
-0.044657618 -0.00800588 0.033877425 -0.052000776 -0.011825293 -0.004713528 -0.045317583 0.0093226135
-0.055932783 0.023133926 -0.030596048 -0.005813919 -0.026684046 -0.056813277 -0.015664347 0.013122134
-0.043882728 0.0021676123 0.024707846 -0.035212338 0.04010631 0.015999407 -0.058548823 -0.038094632
0.0007741004 -0.027306966 -0.027676426 -0.0128670335 -0.0030673519 0.037211306 0.043994747 0.0620555
0.021393888 -0.05748728 0.02378802 0.004528016 -0.002067037 0.041482195 0.010064296 0.02867601
0.037355177 -0.029736966 -0.005643904 -0.018749878 -0.040212348 0.03734961 0.026566528 -0.03158912
-0.03986104 -0.018148728 -0.016529456 0.01688397 -0.0302153 -0.06115623 -0.038595982 -0.004696153
0.050054036 -0.01017797 -0.05486332 0.00032558292 -0.0049633533 0.05591032 -0.054830864 -0.00021392107
0.046084933 -0.013273083 -0.0037753433 0.04372122 -0.045224242 -0.062085092 0.062408887 0.035946064
-0.057976566 0.005166307 0.030374378 -0.058182843 -0.028338343 -0.042843357 0.059283517 0.00029326975
0.051736653 -0.019846126 0.0362446 -0.042556077 0.01876659 -0.00981155 0.017899394 0.032005414
-0.026217312 0.054460578 -0.053247146 0.014755033 -0.016941778 0.0040310696 -0.045546286 0.028495781
-0.04266934 0.049014255 -0.03236664 0.050038673 -0.014012642 0.061146222 0.05279942 -0.041152008
-0.0007778406 0.05730003 0.036096253 0.03550113 0.043421976 -0.027647823 0.013023488 -0.004031047
-0.046090998 -0.04717578 -0.017653435 -0.03991349 -0.022528328 -0.044037774 0.05336994 -0.033317327
-0.030805819 0.05116768 0.034042433 0.019136794 -0.030980475 -0.025006741 0.027804583 -0.047804974
0.055904895 0.009068511 0.045547053 -0.024055488 0.021939501 0.0077055544 0.004730217 -0.042919584
0.028974712 -0.015244603 0.059906974 -0.0030493587 -0.061860204 -0.016246483 -0.031303965 -0.038408473
-0.055415556 0.012617037 0.026912265 -0.058508955 -0.00010751188 -0.016526945 0.051427305 -0.011840723
-0.05619406 -0.0050284266 0.043760203 0.014645301 0.0016539618 -0.014202192 -0.0529709 -0.03711316
-0.014940225 -0.007297434 0.017300606 0.03490196 0.044905268 -0.026098363 0.060868025 0.01790569
-0.05632195 0.0563709 0.03261123 0.047608435 0.054496862 0.044756994 0.0024810135 0.057784162
-0.032679707 -0.024833761 0.04635904 0.011033133 -0.00864277 -0.02315782 -0.008534446 0.030204229
-0.015519597 -0.049767636 -0.02283448 0.0132550225 0.029500633 0.04891175 -0.003866896 0.012225509
0.045338154 -0.04977089 0.027064368 0.0017936379 0.0010504276 0.05746015 -7.098913e-05 -0.0034539774
0.005726181 -0.028972194 0.055917673 -0.004277222 -0.012053058 -0.0428077 -0.054147214 -0.04389494
0.0040770248 -0.045591675 -0.054773442 -0.0304228 0.05597829 0.0054372773 0.057238996 -0.007954136
-0.049675122 -0.025965579 -0.054041132 -0.023434296 -0.011003308 0.031564817 -0.059627928 0.028901331
-0.04061743 0.037366636 -0.04119222 -0.05680999 0.059626736 -0.0387728 -0.051570505 0.040407874
0.022896193 -0.03618592 -0.026667804 -0.040930048 0.03313791 0.0057036355 0.023032375 0.03778921
0.002713129 0.037602425 -0.009845659 -0.029022887 0.05584705 -0.04388243 -0.040731184 0.020625062
0.05459618 -0.011343688 0.02571553 0.0015440956 -0.052696653 -0.00021512806 0.030199349 0.025729783

fc2.bias f4 [256]
00000000: 3ed3 3bbd 54f4 84bc 2ef6 67bd 4ad5 05bd
00000010: 8c3d 6e3d 0885 7ebd d62d 383d c814 2a3c
00000020: 2837 06bd 9a6c 78bd 0c95 0dbd 403b 003d
00000030: fc7d ab3c d09b 63bc 1c95 89bc c09c c23a
00000040: 6cc0 933c 80d9 20bc 301f 7cbd e8b5 393d
00000050: cc38 533d 4872 393d 202d 613c dc80 bcbc
00000060: c0a0 2fbd c0a6 993b 621c 42bd 80f0 f13a
00000070: 603a e8bb 1845 7f3d 30f1 773d 60eb 113c
00000080: e4c5 47bd 64bb 05bd ea1e 3a3d ce6e 34bd
00000090: d851 07bc 26f9 763d 9e91 663d 3cf3 0e3d
000000a0: 0612 033d de3d 2bbd d46e e23c 4293 533d
000000b0: 74eb 033d 2069 223d 487b aabc 96ad 763d
000000c0: a03c e13c 28c8 68bd 9816 523d d894 e4bc
000000d0: 2463 483d 7058 6dbc bce5 7bbd 80d6 67bc
000000e0: 509e 3cbd a429 89bc d28a 21bd 60e2 6f3c
000000f0: aa46 283d 1403 f23c 3c81 ae3c 1842 4c3c
00000100: c42f 10bd c06e 17bc 80c2 073d 90a1 863c
00000110: 6cf0 fdbc 0024 253b 8089 87bc 78ca 1dbc
00000120: 4cb2 653d f041 a6bb 9c7f 803c 48a1 063c
00000130: 100d 3a3c 50fd 56bd 9802 05bd 2065 5dbb
00000140: 0024 c6b8 c076 9f3c 6efc 413d d613 23bd
00000150: 9467 403d 2005 e53c 2c77 703d 5470 353d
00000160: 2066 7f3b 08a4 67bd 1ad2 22bd 6c5e dcbc
00000170: a42b 2bbd 7077 d53b 0658 643d 105b c93c
00000180: 7621 7abd 882c 68bd 8e7a 5bbd 2248 603d
00000190: 14b9 77bd d813 1b3d ae4e 02bd 804e db3c
000001a0: 980b 16bd b41c f43c 5484 9abc f835 563d
000001b0: f62b 273d 8860 0fbc c85d bdbc 0cbd f33c
000001c0: d048 6bbc 083c 973c b2da 46bd b45a 713d
000001d0: 6637 6a3d e092 5cbc 0cfa 24bd d0f9 573d
000001e0: ac7d 9fbc 1eb1 03bd c235 77bd 80bd da3c
000001f0: 0cd1 63bd 6ca6 7c3d 000c 0c39 c2c4 22bd
00000200: c03a 4d3c e6a0 39bd 6094 ec3c 2698 71bd
00000210: 5c7a d0bc fa0f 01bd a0a6 05bc 1c27 843c
00000220: c0d5 76bd ec3f 3e3d 90e0 a4bc 70fd aa3b
00000230: c263 253d ca85 3d3d a4e3 0e3d 8802 78bc
00000240: 9408 a9bc 7cea d03c dcde b23c c818 d6bc
00000250: fcb0 99bc 380d 25bc 085c fc3c 6e67 40bd
00000260: 4e58 10bd 604a 01bc ccb1 ae3c 2055 2d3b
00000270: 7257 663d c637 733d 8a9b 12bd 203d 39bc
00000280: 20b6 9abb b67e 13bd c09f 51bc d207 13bd
00000290: cceb 063d ce65 22bd dcd1 6abd 6ebe 113d
000002a0: 9eec 483d c017 ca3a bc97 e83c 00ca 2f39
000002b0: 00bf c53b 48e0 553c 407d 2dbc c0b6 6a3d
000002c0: 8850 9a3c e2cb 7f3d d08b acbb e467 d43c
000002d0: ca61 583d 26d0 253d bc2b 82bc 3c11 bc3c
000002e0: 3006 873b fa66 60bd 80b9 3e3c 3042 453d
000002f0: 0013 13bb 244a cebc ecc3 a7bc 90ee c1bc
00000300: a40f 763d f009 4a3c b056 0bbd 4e66 4bbd
00000310: f268 71bd 1867 b73c 90d9 043d 48b8 45bc
00000320: bc5c 69bd 7cf2 113d 5ade 18bd 1abb 5f3d
00000330: 5e17 34bd 280a 313d 7827 6bbc f0c0 ea3c
00000340: f82f 3ebc a4d1 323d a025 dd3b e2a2 2c3d
00000350: a0fa 1ebd 607c 6a3c 584a 313c bc5c 223d
00000360: 10a6 1f3d f430 683d 4419 493d a44d c93c
00000370: c013 b93a 3ee4 0a3d 1441 8e3c 481f bebc
00000380: 38d0 4dbc 4295 5dbd 5c6c 16bd 6804 6c3c
00000390: 6834 db3c 122c 6ebd 0c9c d9bc 3c58 f23c
000003a0: 50cf fabc 5494 dfbc 6c6b 013d 3883 55bd
000003b0: bc3e b83c 2e4f 37bd 6cda 193d 141a 3abd
000003c0: a472 77bd 8c7f afbc 7214 77bd 7651 49bd
000003d0: 1e01 5f3d b497 c4bc 900b d33b 9e4e 12bd
000003e0: 5cc9 53bd 1ee7 743d ecdc 58bd 90a5 313d
000003f0: 3021 28bc a0dc 8ebb 8294 183d b0f5 c13c
-0.045855753 -0.016229786 -0.05663126 -0.03267411 0.058164164 -0.062138587 0.044965588 0.010380931
-0.032767445 -0.060650446 -0.03456597 0.031306505 0.020934097 -0.013892129 -0.016794734 0.001484774
0.01803609 -0.009817481 -0.06155318 0.045339495 0.051567838 0.045275003 0.013743669 -0.023010664
-0.042877913 0.0046890676 -0.04739035 0.0018458515 -0.007087037 0.062321752 0.06053275 0.008906215
-0.048772708 -0.032649413 0.04543964 -0.044050984 -0.008259259 0.0602962 0.056291215 0.034899935
0.03199961 -0.041807048 0.027640738 0.051654108 0.032206967 0.039651036 -0.020810738 0.06022414
0.027494729 -0.05683151 0.05129108 -0.027903005 0.048922673 -0.014486417 -0.06149839 -0.014150262
-0.046049416 -0.016743489 -0.03943903 0.014641374 0.041083016 0.029542483 0.021301858 0.01246693
-0.035201803 -0.009242713 0.033144474 0.01643446 -0.030998431 0.002519846 -0.016545057 -0.009630792
0.05607824 -0.0050737783 0.015685849 0.008217163 0.011355653 -0.05248767 -0.032473177 -0.00337822
-9.448081e-05 0.019465804 0.047359876 -0.03981384 0.04697378 0.027956545 0.0587074 0.044296578
0.0038970783 -0.056552917 -0.03975115 -0.026900493 -0.041789666 0.006514482 0.05574801 0.024579555
-0.061067067 -0.056683093 -0.053583674 0.05475629 -0.06047924 0.03786072 -0.031813316 0.02677083
-0.03663215 0.029798843 -0.018861927 0.052297562 0.04081341 -0.008751042 -0.023116007 0.02975323
-0.014360622 0.018461242 -0.048548408 0.058924392 0.05718174 -0.013462752 -0.040277526 0.052728474
-0.019469105 -0.032151334 -0.060354 0.026701689 -0.055619285 0.06168215 0.00013355911 -0.039738424
0.012526214 -0.04531946 0.028879344 -0.05898299 -0.02544897 -0.031509377 -0.008157402 0.01613193
-0.06026244 0.04644768 -0.020126611 0.0052182004 0.04037834 0.04627017 0.034885064 -0.015137322
-0.020633973 0.025502436 0.021834783 -0.026134863 -0.01876115 -0.010073952 0.030805603 -0.04697364
-0.035240464 -0.007891268 0.021325015 0.0026448444 0.056235738 0.05937936 -0.035792865 -0.011306077
-0.004721418 -0.036009513 -0.012794435 -0.03589613 0.032939717 -0.03964787 -0.057329044 0.035582
0.04905378 0.0015418455 0.028392665 0.00016764551 0.006034732 0.013053961 -0.010588944 0.05730319
0.018837228 0.062450297 -0.0052656904 0.025928445 0.052827634 0.04048171 -0.015889995 0.022957437
0.0041206107 -0.054785706 0.011640906 0.048158824 -0.0022441745 -0.025181837 -0.020479165 -0.023673326
0.06007351 0.012331471 -0.03401822 -0.049658112 -0.058937974 0.022388026 0.032434046 -0.012067862
-0.056973204 0.03563164 -0.037321426 0.054621793 -0.043967597 0.043222576 -0.014352672 0.028656453
-0.011608116 0.04365696 0.00674887 0.042147525 -0.038813233 0.01431188 0.010820948 0.03963922
0.03897673 0.05668731 0.04909636 0.024573155 0.0014120266 0.033909075 0.017365016 -0.023208275
-0.01256185 -0.05409742 -0.036724433 0.014405347 0.026758388 -0.058147497 -0.026563667 0.029583089
-0.030616432 -0.027292408 0.031596586 -0.052127093 0.022490852 -0.044753246 0.03756182 -0.045435026
-0.060412064 -0.021423124 -0.060322233 -0.049149953 0.054444425 -0.023998119 0.0064405873 -0.035719506
-0.051705703 0.059790723 -0.052945063 0.043370783 -0.010261819 -0.0043597966 0.037251003 0.023676723

fc3.weight f4 [256, 256]
00000000: 4c21 9bbc 8029 51bc 503a d03b f01f 4cbd
00000010: 82fe 28bd 0898 17bc a0c7 003d 74e3 03bd
00000020: 0e83 44bd 986e 65bd 006a 5c39 6a71 093d
00000030: c237 63bd 2c92 4e3d 80f4 8a3c 8a26 113d
00000040: 5477 9f3c decd 7d3d 9073 4c3d 584d 8e3c
00000050: c023 753d baf6 533d 96ee 7bbd 78c3 81bc
00000060: 90b9 36bd 1699 6dbd 909a 97bc e8be e13c
00000070: b02e ec3c e8e4 3b3d 9cbd debc 4019 0b3b
00000080: 9035 b3bb b68d 37bd 80a4 33bd cc42 553d
00000090: 0068 9b3b 326f 7abd d09d 99bc 1033 773c
000000a0: 40ca c1ba 209f 71bd e0dd 0dbc 4846 7ebc
000000b0: 9ecc 76bd 0406 a8bc ee53 7cbd beca 3d3d
000000c0: deef 6c3d 4c7b a23c 409e 3c3d a0c7 493b
000000d0: e0d6 5ebd d8e1 923c 5898 debc a0df 6c3c
000000e0: 801f 173a 68fb 013d 5888 3d3c 10a2 41bd
000000f0: 0e61 54bd 7cf3 273d ee1b 06bd 86c5 47bd
00000100: 84bb 37bd c6b2 7ebd dcd6 27bd 1205 55bd
00000110: 0c4a 58bd ac59 423d 2ce0 90bc e271 023d
00000120: ec1e 41bd 74ca 6fbd f0fb 09bc 5a89 3bbd
00000130: e827 ce3c f060 0e3d 0077 bc3b 203a 353c
00000140: b42d 903c 7c40 c5bc 1053 5bbd d04a f2bb
00000150: 3a76 13bd b45f 4abd 0689 243d ccb5 bf3c
00000160: d46e 31bd 0270 43bd ea88 48bd 7ef0 0cbd
00000170: e077 503d ace0 b93c 3062 cbbc 5072 43bd
00000180: 504b 01bc b082 043c 2cf0 cdbc 60b8 ea3c
00000190: d21a 31bd 3846 5c3d a210 45bd 4031 fd3a
000001a0: 2056 28bc 8885 123d b298 14bd 1633 353d
000001b0: aaf6 463d fa5a 463d 942b b9bc 2858 7bbc
000001c0: 1445 013d 220d 783d 2c62 b9bc a88f a13c
000001d0: 50b9 25bd 08a1 533c e278 31bd 828c 683d
000001e0: 708a a1bc 286e 1b3d 10c0 5abd 104c f2bc
000001f0: 365a 1d3d aaaa 523d 2881 af3c ca04 15bd
00000200: a001 023c 1600 6bbd a40f 183d 44d6 603d
00000210: 4454 173d 9c8a 533d 3afe 573d 38ac 6b3c
00000220: 5cbd 283d 34ba 9f3c d062 ca3b 52be 25bd
00000230: 8012 a5bc 808e 113b 384f 1ebc c8ad 023c
00000240: 006c 073a 20bd 77bd 30e8 5cbd dec6 0f3d
00000250: 3002 3ebc 9c04 66bd c21d 3e3d 2440 7f3d
00000260: f2d2 693d f231 46bd f44e 953c 927b 2b3d
00000270: beda 553d 3e3d 3fbd c092 9f3b c815 4ebd
00000280: c0b1 523d c8e7 723d b0e2 723c d619 4bbd
00000290: c011 9cbc 4864 ffbc d6a7 7f3d d08c 663c
000002a0: 9cbd 013d 6278 473d 2ed7 553d c8b5 23bd
000002b0: a0a0 af3b fc3c a13c f09d 2bbd 2ce2 1f3d
000002c0: 205e 28bd 3c68 653d 6405 e03c 144b ea3c
000002d0: 5445 31bd c02b 2dbc c04e c23a 1405 593d
000002e0: c49f 59bd ce45 133d 267b 43bd 5052 47bc
000002f0: 1866 edbc 54c7 f0bc 88d3 e5bc 4aaa 39bd
00000300: 0ac6 5abd e030 97bc 9e23 05bd 1875 cb3c
00000310: 8ce8 0a3d 325a 5a3d 005c ed38 5cd4 be3c
00000320: b0b7 0d3c 608c 3abb d893 5c3c fcf3 613d
00000330: 54bb dcbc 9810 063d 2024 0f3d 90c7 65bc
00000340: e851 9f3c f082 f63b d8ad a13c c4cb 223d
00000350: 30ee 913c 1024 af3b b2d1 7cbd 8c36 673d
00000360: 9ab5 75bd 4064 cabc 60fe a93b eed9 15bd
00000370: 9e4a 7f3d 2864 7e3c 8046 a83a 0075 9f3b
00000380: ac86 63bd 449c 2b3d 9e8f 4d3d 7046 b33b
00000390: 1a22 16bd 90c0 6bbd c028 e6ba 7048 a33c
000003a0: b410 8c3c 508b 1f3d f81c f4bc 285a 673c
000003b0: a0a1 fc3b fc75 703d 405e 41bb d074 66bd
000003c0: 74b6 4d3d 043d d83c 5c11 b5bc 0026 b13b
000003d0: 308d fdbb b680 76bd 3a99 3dbd 149c 8dbc
000003e0: 2878 47bd 0836 1fbc b23b 52bd 3871 6ebd
000003f0: d037 3f3c 10f0 9e3c 60c5 34bb 5ce7 35bd
-0.018936776 -0.012766242 0.0063546076 -0.049835145 -0.041258343 -0.009252556 0.031440377 -0.032199338
-0.047976546 -0.056013674 0.00021020323 0.033555426 -0.055473097 0.05043237 0.01696229 0.035437144
0.01946608 0.06196391 0.049914896 0.017370865 0.059848547 0.05174897 -0.06150683 -0.015840277
-0.04461056 -0.058007322 -0.018506318 0.027556852 0.028830856 0.0458726 -0.027190022 0.0021224767
-0.0054690316 -0.04481288 -0.04385805 0.052065656 0.0047426224 -0.0611412 -0.018752009 0.015087858
-0.0014785007 -0.058989644 -0.008658856 -0.015519686 -0.060253732 -0.020510681 -0.06160348 0.04633593
0.057845943 0.019834183 0.046049356 0.0030789152 -0.05440414 0.017929956 -0.027172253 0.014457613
0.0005764887 0.0317339 0.011568151 -0.047273695 -0.05185037 0.04100369 -0.03274148 -0.048772357
-0.044856563 -0.06218221 -0.04097639 -0.05200679 -0.05280499 0.0474488 -0.017685018 0.03184689
-0.04714863 -0.058542684 -0.008421883 -0.045785286 0.025165513 0.034760416 0.0057514906 0.011061221
0.017599918 -0.0240786 -0.05354601 -0.0073941723 -0.03600142 -0.049407676 0.04016974 0.023402117
-0.043318585 -0.04771424 -0.048958696 -0.03440904 0.05089557 0.02269014 -0.024827093 -0.04771644
-0.007891491 0.008087799 -0.025138937 0.02865237 -0.04323847 0.053777903 -0.048111565 0.0019317046
-0.01027444 0.035771877 -0.036278434 0.044238172 0.04857508 0.048426606 -0.022603787 -0.015340842
0.03156002 0.0605594 -0.02262982 0.019721821 -0.04045993 0.012916811 -0.043328173 0.056774624
-0.019719332 0.03794685 -0.05340582 -0.029577285 0.03841611 0.05143229 0.021423891 -0.03638152
0.007934958 -0.05737313 0.03712429 0.05489184 0.036945596 0.05164586 0.052732684 0.014384322
0.041196212 0.019497968 0.00617633 -0.040464707 -0.020150423 0.002221018 -0.009662442 0.007976003
0.00051659346 -0.060483098 -0.05393237 0.035101764 -0.011597201 -0.05615674 0.046415098 0.06231703
0.05708594 -0.048387475 0.018226124 0.041865893 0.052210562 -0.046689264 0.004869789 -0.05031374
0.051439047 0.059303075 0.014824554 -0.049585186 -0.019051433 -0.031175748 0.06241592 0.014071658
0.031674966 0.04869879 0.052207164 -0.039968282 0.005359724 0.0196824 -0.041898668 0.039034054
-0.04110539 0.05600761 0.02734632 0.028600253 -0.043279007 -0.010569513 0.0014824495 0.05298336
-0.05313088 0.035955243 -0.047724865 -0.012165621 -0.028979346 -0.029391922 -0.028054968 -0.045328416
-0.05341152 -0.018455923 -0.03250467 0.024836108 0.03391318 0.053308673 0.00011318177 0.02329462
0.008649752 -0.0028465018 0.013462983 0.055164322 -0.026944794 0.03273067 0.03494656 -0.01402463
0.019448236 0.007522933 0.019736215 0.039745107 0.017813772 0.005344875 -0.06172342 0.056448504
-0.059987642 -0.024706006 0.0051877946 -0.036584787 0.06232702 0.015526809 0.0012838393 0.0048662424
-0.055548355 0.041897073 0.050185792 0.0054710433 -0.036653616 -0.05755669 -0.0017559752 0.019932002
0.017097808 0.038951218 -0.02979897 0.014120616 0.007709697 0.05870627 -0.002950564 -0.056263745
0.05022283 0.026396282 -0.022103004 0.0054061413 -0.007737778 -0.060181342 -0.046288706 -0.017286338
-0.048698574 -0.009717472 -0.05132646 -0.058213443 0.011671022 0.01940158 -0.0027583465 -0.044410095

fc3.bias f4 [256]
00000000: d0d6 d53c 7c16 cd3c 3c42 59bd 1a2c 683d
00000010: 105d 38bc f044 56bd 90bf ffbb d045 27bc
00000020: 2c55 b03c 1e97 5f3d 8ac8 153d 1029 063d
00000030: 0079 95b9 b248 673d 084b 3c3d 206c c8bb
00000040: 2834 1b3c c848 223d 9858 78bd 10f1 b2bc
00000050: f448 533d 80d8 8f3c 804f 033b 0069 b33b
00000060: b40f 693d d8d8 7dbd 4850 3dbc 5692 74bd
00000070: e0fd 5a3b 1637 5cbd 305f 723c 921f 6ebd
00000080: c0d3 10bb 4848 1d3d f421 fa3c 0cbf bf3c
00000090: ccd7 4e3d 0cb9 a53c 9c82 603d 94f5 40bd
000000a0: b4b0 ad3c f2f7 583d c878 e1bc 8eff 7bbd
000000b0: f467 883c 3082 b3bb 4030 e93a 746e 40bd
000000c0: 78af 1cbd 3486 51bd ac7f f0bc f0f9 ac3c
000000d0: 2a9d 323d a8a5 e3bc cc66 95bc 441b 03bd
000000e0: b447 303d d48b 673d 64f8 a2bc 98bb 77bc
000000f0: 685b abbc 6c18 05bd fc2a cc3c 8041 623c
00000100: 68c5 5d3c 903d fbbb c0a1 91bc 0408 86bc
00000110: daed 5cbd f003 fa3c f272 223d 60db b8bb
00000120: f422 e73c 2007 61bc 006d 863c 1099 e3bc
00000130: 5cc3 363d ac9a a5bc 8cdb f7bc c224 023d
00000140: fa29 0b3d 00a8 cf38 9066 6fbc f8ab b33c
00000150: c675 313d 0082 b7b9 a043 7ebb b61c 7a3d
00000160: 2e0b 52bd f083 55bd 4ade 58bd a0a3 d23c
00000170: 10c2 38bc f8b7 e43c 504c cfbb 2a97 2a3d
00000180: 94aa d6bc 1873 1abd 406b 9ebb fef4 433d
00000190: 20d5 203c 70b3 73bc 6874 643d 8898 f9bc
000001a0: 08d9 953c 54f7 5d3d 0609 73bd 70d4 c8bc
000001b0: 1004 79bc 8027 5c3b 70fe d83b f086 1c3d
000001c0: cc92 403d 9057 273c 5819 f5bc e695 66bd
000001d0: 02f6 36bd 6cde e3bc d494 60bd aa50 5b3d
000001e0: a0d6 e0bb 2059 0d3d a031 7dbd 0085 0ebc
000001f0: e42b a23c 30bf 143c a04a c63b 2896 c7bc
00000200: 780d 01bd 7055 49bd ea06 0bbd 9c70 4c3d
00000210: 7e94 753d ece9 edbc ba61 7a3d 600d 663d
00000220: 5025 3a3c faf2 2abd 3004 55bc fc32 5dbd
00000230: b4fb 4dbd ba90 253d 00db 5a3c 009c 5ebc
00000240: 68d6 d53c 28ef 02bc 7850 363d e0a3 14bc
00000250: 4ceb 0c3d 1014 fb3c 0c85 e03c b87e 573d
00000260: ac1d 5f3d c0c3 82ba 483a 5cbc c88a da3c
00000270: 1c7d 363d 4c30 8ebc 0093 a1bc 8007 b23b
00000280: aa11 27bd 6e3c 0c3d a06f bebb 6483 a7bc
00000290: c28c 4f3d b056 a33b e0d3 31bc 5410 9a3c
000002a0: a06e 383c a04e 2dbb 20ac 7abb bce1 20bd
000002b0: 88e8 c2bc c07a 86bc 9af6 10bd 2456 8abc
000002c0: ca97 39bd e44c 75bd 98f4 e9bc f0fc d23c
000002d0: 64e1 3c3d 4234 3cbd b0e4 0bbc da98 6b3d
000002e0: 9e8a 78bd 3e55 7c3d d0e6 51bd f092 1c3c
000002f0: 9808 713d c40f 05bd 4064 aebc 80d6 91bc
00000300: f8fb fcbc c0c0 4ebb 485b 0a3d d86f 73bc
00000310: f887 56bc 40a2 f7bc 8633 4b3d 00df 323d
00000320: c0dc b03b 30a6 023c 9c3d 84bc 008e 5dbc
00000330: e885 06bc c03f feba a418 a2bc 5458 413d
00000340: 30d5 853b c452 eb3c 4097 e7bb 60d6 3e3c
00000350: 7064 7b3c d8db 02bd d8d7 27bd 107b f0bb
00000360: 4c32 ddbc ecfd de3c 8046 41bb dea1 31bd
00000370: 04c4 7bbd d00f a93c 541a f23c f6ec 40bd
00000380: 4086 843b dc3c 1d3d 0251 6b3d 10ee c5bc
00000390: c85b a83c d480 653d a0e4 98bb 28e5 eb3c
000003a0: 2008 73bd d0cd 8f3c 40f2 81bb cc6a eebc
000003b0: 8afa 743d 707e 293c a0a2 6abc cc24 0a3d
000003c0: e81e 2f3c 34cd db3c b8df 5f3d e61f 443d
000003d0: c038 4dbd e8eb bf3c e891 afbc 4a2c 49bd
000003e0: d8f4 7bbd 0885 74bd 565c 27bd 3802 dc3c
000003f0: 16ba 263d 7267 18bd 1444 ab3c 40c3 143b
0.026103407 0.025035135 -0.05304168 0.056682684 -0.011252657 -0.052311838 -0.0078048185 -0.010209516
0.021524988 0.054587476 0.036568202 0.032754004 -0.00028509647 0.056465812 0.045969993 -0.006116405
0.009472884 0.03962019 -0.060631365 -0.021843463 0.051583245 0.01755929 0.00200364 0.0054751635
0.05689974 -0.061974376 -0.011554785 -0.05970987 0.0033415481 -0.05376347 0.014793202 -0.058135577
-0.002209887 0.03839901 0.030533768 0.023406528 0.05049877 0.020229839 0.05481206 -0.0471092
0.021202423 0.052970834 -0.027523413 -0.061523013 0.016651131 -0.005478166 0.0017790869 -0.046980336
-0.038253278 -0.051153377 -0.029357754 0.021115273 0.043606915 -0.027788952 -0.018237494 -0.032008424
0.04303713 0.056529835 -0.019893833 -0.015120409 -0.02091761 -0.032493994 0.02492284 0.013809562
0.013535835 -0.007667251 -0.017777324 -0.016361244 -0.05393777 0.030519456 0.0396604 -0.005641386
0.02821491 -0.013734609 0.016409397 -0.027782947 0.044619903 -0.020215355 -0.030256055 0.031773336
0.03397558 9.9018216e-05 -0.014611855 0.021932587 0.043325208 -0.00035001338 -0.0038797632 0.061062537
-0.051280193 -0.05212778 -0.052946366 0.025712788 -0.011276737 0.027919754 -0.006326236 0.041648068
-0.026204385 -0.03770742 -0.0048345625 0.047841065 0.009816438 -0.014874324 0.055775076 -0.03046824
0.018291965 0.05419095 -0.059334777 -0.02451536 -0.0151987225 0.003359288 0.006622128 0.038214624
0.047014996 0.010213748 -0.029919311 -0.056295298 -0.044668205 -0.02781602 -0.054829434 0.053543724
-0.006861523 0.034508824 -0.061814904 -0.008698702 0.01979632 0.009078786 0.0060513765 -0.024363592
-0.031506985 -0.049153745 -0.03394214 0.04991208 0.059956066 -0.029042207 0.061128356 0.0561651
0.011361435 -0.041735627 -0.013001487 -0.0540037 -0.05028887 0.040421225 0.013357878 -0.013586998
0.026103213 -0.00799159 0.044510335 -0.009072274 0.034404084 0.030649215 0.027407192 0.052611083
0.054471657 -0.0009976551 -0.01344163 0.026677504 0.044552907 -0.017357014 -0.019723415 0.005433023
-0.04078833 0.034237318 -0.0058116466 -0.020448394 0.050671346 0.004984699 -0.010853738 0.018806614
0.011256844 -0.002644457 -0.0038249567 -0.039277777 -0.02379252 -0.016415954 -0.035391428 -0.016886778
-0.045310773 -0.05988778 -0.028559014 0.025755376 0.046113387 -0.045948274 -0.00853841 0.057518817
-0.06067907 0.06160473 -0.05124551 0.009556517 0.058846086 -0.03248574 -0.021288037 -0.017802477
-0.030881867 -0.0031547993 0.03377846 -0.014858209 -0.013093941 -0.030228734 0.049609683 0.0436697
0.005397409 0.0079741925 -0.016142659 -0.013522625 -0.008210637 -0.0019397661 -0.01978714 0.047203377
0.004084252 0.02872599 -0.007067591 0.011647791 0.01534377 -0.03194794 -0.04097733 -0.007338889
-0.027001522 0.027220689 -0.0029491484 -0.04336726 -0.061466232 0.020637423 0.02955357 -0.047100984
0.004044324 0.03838812 0.057450302 -0.024161369 0.020551577 0.056031063 -0.004665926 0.028795794
-0.05933392 0.017554194 -0.003965646 -0.02910366 0.059809245 0.010345086 -0.014320999 0.0337265
0.010688521 0.026831247 0.054656714 0.047881983 -0.05010295 0.023427919 -0.021431878 -0.049114503
-0.061512798 -0.05969718 -0.040859543 0.026856527 0.04070481 -0.03720803 0.020906486 0.0022699386

output.weight f4 [4, 256]
00000000: 2891 403d c09d 7d3c 7c22 6a3d cab1 57bd
00000010: 6af2 713d 6a97 5a3d 8c56 ffbc e4b5 1d3d
00000020: 206d cdbc 584a 34bc 6809 053d 8080 7a3d
00000030: d8f7 723c c06b 683b c8a7 623c 046d 20bd
00000040: 08c2 6ebc c8a4 57bc b6d7 153d 1819 edbc
00000050: 24cb 443d e804 e03c 60f5 fe3c 58ef 5fbd
00000060: b085 9bbb 10ff 8fbb 4c02 823c f055 d5bc
00000070: 7041 5abd 40e1 febc e084 c1bb 8ccf 9dbc
00000080: b0ff 04bc e09f 8f3b 54b5 61bd 38f9 2e3c
00000090: b472 c83c 0817 0e3c 18d9 4fbd 2094 5b3c
000000a0: 8ad6 1f3d 6844 0cbc 2049 653d 34ba 393d
000000b0: 32cc 243d 84d4 453d e42f 3bbd 80cf e23a
000000c0: 6824 033d 3c20 22bd 8aa0 5dbd 320b 6f3d
000000d0: 386e c73c 7afb 3fbd 34c1 2fbd 2cf3 58bd
000000e0: d860 483c a013 78bb 9861 59bd a2ea 163d
000000f0: 3c1d d4bc 985c f9bc 0006 59b9 4093 cbbb
00000100: b0da e8bb dccb 43bd 3801 3c3d d69e 55bd
00000110: 08e4 c73c ec57 aabc 92f1 553d 347a abbc
00000120: 200c 9a3b 28dc 4c3d 9cd7 7ebd 4897 1fbc
00000130: 8287 4bbd 90fc e4bc 0cd5 2cbd 60fd b13c
00000140: 8209 653d 7088 6b3c bcd3 e53c 1867 f1bc
00000150: 3c56 44bd 9c85 18bd d089 2c3d e8d8 383d
00000160: 667c 09bd 884b 5bbc a803 a33c 58be 183c
00000170: 548d bc3c 5c57 09bd 603a 323c b631 1e3d
00000180: b843 cc3c f626 0e3d b4cf 29bd 6eb9 66bd
00000190: e824 723d 302a a2bc d8ff ddbc ec8e 613d
000001a0: a0fd 3ebc 9c52 703d 38cc 68bd fa2f 32bd
000001b0: 8cf0 613d 400f 04bc 08a4 f63c 8849 313c
000001c0: f0d5 b6bb 2cf3 4cbd 32e3 42bd 26b6 5d3d
000001d0: 1299 3dbd 10b9 df3c ded0 3f3d 303c 083d
000001e0: 50e3 41bc 80b7 3e3b e002 073c f81d 703c
000001f0: a847 d93c 16e9 113d fcab 7dbd c43c e9bc
00000200: 429a 543d 5cb3 bfbc 5874 813c 9816 0bbc
00000210: 1096 783c 4a78 333d 28b5 473c b0e6 db3b
00000220: 98f6 02bd 1079 72bc b675 0a3d 90ef e9bc
00000230: b2f0 4fbd d05a 143c c04b 973a b0b3 863b
00000240: 6884 77bc 4449 f63c 58a7 aebc 5ada 333d
00000250: 2ef6 5c3d 3099 47bc 08ca 9cbc 94e7 b9bc
00000260: fa4b 36bd 3cca e0bc 7ad5 2bbd 68a8 db3c
00000270: fc47 5b3d f020 0f3d bcbb 123d 38bd 03bd
00000280: a02e 2c3d 0ace 39bd 5cc2 9bbc 7406 d6bc
00000290: d0dc 333c 784f c83c 06e4 053d 10c9 ecbb
000002a0: 6487 d03c 14cc 7dbd d83d 373d c4c9 be3c
000002b0: 2090 41bc 14c4 59bd e6fd 7ebd e89d 323c
000002c0: ced8 183d cac9 70bd a013 fabb 1057 76bd
000002d0: 60bf 103b 200e 303b 7c5b d2bc b00b 01bc
000002e0: 2225 11bd 487a aa3c 98cc 2bbd 6e03 163d
000002f0: 7a51 7abd 3cf1 ac3c 840b ab3c 2a6f 7bbd
00000300: 9c8f 753d e096 33bb 1416 cb3c a873 88bc
00000310: c8fe 6c3c 4008 79bc 64f6 debc 1266 61bd
00000320: c0d2 f2bc 5828 e4bc 0608 07bd f29a 0dbd
00000330: 1ac2 64bd 8adf 5ebd 3639 38bd b8e6 7f3c
00000340: 08b2 643c 440b 9d3c c85f 053c a292 76bd
00000350: f479 233d 78d0 7bbd 8452 173d ac37 ab3c
00000360: 50ce d4bc 4875 193c f872 0dbd 86a3 2a3d
00000370: 3c4a 793d 90ec 18bd 2a1f 66bd d839 f1bc
00000380: 60f5 80bc 940d 323d 0437 aebc c20d 263d
00000390: 1e8f 5bbd 00b3 73bc a48d 683d fc7d cebc
000003a0: 60fb e13b 0882 1c3c 8475 c8bc 8e07 37bd
000003b0: 7079 48bd 283c 673d c683 513d a434 373d
000003c0: a2bd 40bd 40dd bdba 8024 3fba 40b5 c0bc
000003d0: 3818 58bd 0cb0 683d 440a 90bc 98e6 0d3c
000003e0: a8a5 4b3d 9a04 433d 9e9d 6bbd 76c0 193d
000003f0: 705e e5bb d00c 763c 3e4b 7d3d 4429 b83c
0.04701343 0.015479505 0.057161793 -0.052659787 0.059069075 0.053367056 -0.031169198 0.038503543
-0.025076449 -0.011004053 0.032479674 0.061157703 0.014829598 0.0035464615 0.0138339475 -0.039166465
-0.014572628 -0.0131618455 0.03658267 -0.02894263 0.048045292 0.02734609 0.031122863 -0.054671615
-0.0047461614 -0.0043944195 0.015870236 -0.026041955 -0.053285062 -0.031113267 -0.0059057325 -0.019264005
-0.008117601 0.0043830723 -0.05510457 0.010679536 0.024468757 0.008672483 -0.050744146 0.013402015
0.03902296 -0.008561231 0.05597794 0.045343593 0.0402338 0.048298374 -0.04569997 0.0017304271
0.03201714 -0.039581522 -0.05410818 0.058360286 0.024344549 -0.046870686 -0.042908862 -0.05296628
0.012230121 -0.0037853494 -0.05307159 0.036844857 -0.025892846 -0.03043966 -0.00020696968 -0.006212622
-0.0071061477 -0.047801837 0.0458996 -0.05215343 0.024400726 -0.020793878 0.052232333 -0.020932294
0.0047011524 0.050014645 -0.06221734 -0.009740658 -0.049689777 -0.027952462 -0.042195365 0.021727264
0.05591727 0.014375791 0.028055064 -0.029468104 -0.047933802 -0.037236795 0.042123616 0.045128733
-0.0335659 -0.013384707 0.019899204 0.009322725 0.02301661 -0.033530578 0.0108781755 0.038621627
0.024934635 0.034705125 -0.041457847 -0.056329183 0.059117228 -0.019795507 -0.027099535 0.05506794
-0.011657149 0.058672532 -0.056835383 -0.043502785 0.055161044 -0.0080602765 0.030107513 0.010820754
-0.0055797026 -0.050036594 -0.04757995 0.05412879 -0.046288557 0.027309924 0.04683005 0.033260524
-0.011833981 0.0029101074 0.008240432 0.014655583 0.026523426 0.03562268 -0.061931595 -0.028471358
0.051904924 -0.023400955 0.015802547 -0.0084892735 0.015172496 0.04381589 0.012189187 0.0067108497
-0.03197345 -0.014799371 0.033803664 -0.028556615 -0.050766654 0.0090548545 0.0011542961 0.004110776
-0.015107252 0.030064233 -0.02132003 0.04390941 0.053945713 -0.012182519 -0.019139305 -0.022693433
-0.04450605 -0.027440183 -0.041951634 0.0268137 0.053535447 0.03494352 0.03582357 -0.032162875
0.042036653 -0.04536251 -0.019013576 -0.026126124 0.010977939 0.024451956 0.032688163 -0.007226117
0.025455184 -0.061962202 0.044736713 0.023289569 -0.011814147 -0.05316551 -0.062253855 0.010901906
0.037316136 -0.05878619 -0.007631734 -0.060141623 0.0022086725 0.0026863888 -0.025678389 -0.007876322
-0.035435803 0.020810261 -0.041943163 0.036624365 -0.06111286 0.021111123 0.020879515 -0.06138531
0.05995141 -0.002740316 0.024790801 -0.016656712 0.014465041 -0.015199721 -0.027217098 -0.055028982
-0.029641509 -0.027851269 -0.032966636 -0.034571595 -0.055849172 -0.054412402 -0.044976436 0.0156189725
0.013958462 0.01917041 0.008140512 -0.060198434 0.039911225 -0.06147811 0.036943927 0.02090057
-0.025977284 0.009366341 -0.03453347 0.041659854 0.06086181 -0.03733498 -0.056182064 -0.029446527
-0.015742004 0.04346998 -0.021266468 0.040540464 -0.053603284 -0.01487422 0.056775704 -0.025206558
0.0068964213 0.009552486 -0.024470098 -0.04468494 -0.048943937 0.056453854 0.05115106 0.044727936
-0.047055848 -0.0014485493 -0.00072915107 -0.023523927 -0.05275747 0.056808516 -0.01758302 0.008660935
0.04971853 0.04761181 -0.057523362 0.03753706 -0.006999783 0.015017703 0.061839335 0.022480614

output.bias f4 [4]
00000000: 062b 5c3d 8459 debc 04ea 92bc 285e 293c
0.053751968 -0.027142294 -0.017933853 0.01033739
