fetch_sticky_mittens_step/networks/ours_10k_block_3_uber_level_0_seed_250/network_release_and_lift_1.pth (torch, 594807 bytes, 8 tensors)

fc1.weight f4 [256, 58]
000000 18 00 5a 3d 3a 55 ea bd 70 d8 1e bd 46 b1 a9 3d
       0.053222746 -0.11442037 -0.03878063 0.08285765
000010 8b 42 54 3b 28 f6 d4 bd 71 2c de bd c8 b5 e2 bd
       0.0032388296 -0.10398513 -0.1084832 -0.11069828
000020 36 a8 db 3c a5 bd e3 bd e4 a8 e1 bc 22 97 7f 3d
       0.026813608 -0.11120156 -0.027546354 0.06239999
000030 39 6f c5 bd 71 d6 a6 bd 98 cb de bd 43 52 93 3c
       -0.09640355 -0.0814637 -0.10878676 0.017983561
000040 dc 15 a7 bc e9 55 41 3d 74 71 bb bd 59 40 79 3d
       -0.020396166 0.04720107 -0.09152499 0.060852382
000050 bb 9a e5 bd de 9f 11 3c 82 12 3e 3d a6 80 08 bd
       -0.11211153 0.008888213 0.04640437 -0.033325814
000060 93 1b 1b 3d 5c b6 b0 bd 37 1a 5f bd a1 fe be 3d
       0.037868094 -0.08628532 -0.05446836 0.0932591
000070 dd 2b ef 3d 70 b1 be 3c cd d0 18 bd e5 26 77 bd
       0.11678288 0.023277968 -0.037308503 -0.060339827
000080 5b a8 de bd 83 e4 03 be d3 3e f2 3d 01 f0 48 3d
       -0.10871955 -0.12880139 0.11828389 0.04905701
000090 7a 81 c7 3c de d2 05 be 76 76 49 bd 66 61 24 3d
       0.024353731 -0.1306872 -0.04918524 0.04013195
0000a0 c1 3b 84 bd d6 92 c2 3a 1a 22 ee bd 75 84 1a 3c
       -0.0645671 0.0014844786 -0.11627598 0.009430994
0000b0 09 6b 37 3d 2b 1c fd 3d 58 b0 ef 3d cb 33 b0 bd
       0.04477981 0.12358888 0.11703557 -0.08603629
0000c0 8b 55 03 be af 70 98 bd 8e 29 81 bc c5 10 03 3e
       -0.12825601 -0.07443368 -0.015766885 0.12799366
0000d0 62 44 dd bd 59 2b 02 be 31 f1 a8 3a 08 50 04 3e
       -0.108040586 -0.12711848 0.0012889263 0.12921154
0000e0 25 c8 83 bd 6d 68 b3 3d c9 a0 92 3d 29 37 04 be
       -0.06434659 0.08760152 0.071595736 -0.12911667
0000f0 3a d8 27 bd 79 19 26 3d a9 23 0c bd b7 fc 3a bd
       -0.040977694 0.040551636 -0.034213696 -0.045651164
000100 86 f1 87 3c ce 27 11 bd 0c e7 dd bd b4 c8 cd 3d
       0.01659466 -0.03543835 -0.10835084 0.10048047
000110 4d 00 eb bd ac 28 98 3d 5a 32 ec 3c e8 4a 8f bd
       -0.11474667 0.074296325 0.028832603 -0.06996709
000120 44 da 08 3d b6 03 83 3d ff 12 7a bd ee 8f c8 bd
       0.03341128 0.06397192 -0.061053272 -0.097930774
000130 d0 12 fb bd 82 3a 50 bd cf c8 9b bd 2d c2 49 3c
       -0.122594476 -0.050837047 -0.076066606 0.0123143615
000140 f0 a4 89 bd 99 e0 81 bd f0 a5 ea bb f2 d1 bc 3d
       -0.067209125 -0.06341667 -0.0071608946 0.092197314
000150 38 92 f9 3d b4 f0 fd bd 0c ff a5 3d 4e e6 a0 3a
       0.12186092 -0.12399426 0.08105287 0.0012275667
000160 4d 89 81 bd d2 92 f6 3d 28 ca f8 3d 63 ab b9 bc
       -0.06325016 0.120397225 0.12147933 -0.022664731
000170 7c 68 d8 3d 7f 55 8e 3d 08 5b fc bb 5c 72 eb 3d
       0.10566804 0.06949901 -0.0077012815 0.11496422
000180 20 62 7a bd a1 70 df bb 56 3d b0 bd 33 40 c5 3d
       -0.061128736 -0.0068188463 -0.08605449 0.09631386
000190 a1 9f c7 3d 46 df 40 bd eb 4d ad 3d fc ec cd 3d
       0.09747244 -0.04708793 0.08462127 0.10054967
0001a0 dc 0b f9 3d 19 08 f9 3d 1f 7b ca 3d bb 79 52 bc
       0.12160465 0.12159748 0.09886765 -0.012846406
0001b0 3d a1 c6 bd bf 6b d6 3d 94 9c 6c 3d 69 64 87 bd
       -0.096987225 0.1046977 0.057766512 -0.066109486
0001c0 1e cf 0b bd e1 c4 91 3d 48 d4 d2 bd 2d 03 2b bd
       -0.03413307 0.0711763 -0.10294396 -0.041751076
0001d0 90 21 59 3d bb 44 04 3d 8f 62 a8 bd a9 4b 28 3d
       0.053010523 0.03229211 -0.082219236 0.04108778
0001e0 8f e8 eb 39 9a a3 f7 3d af 4b 04 3e 7e c6 8f bd
       0.00044995963 0.120917514 0.12919496 -0.07020281
0001f0 83 7b 1b bc a4 4c dd 3d ac a4 bc 3c fa f0 e8 3d
       -0.009489897 0.10805634 0.02302774 0.11374088
000200 96 ab 11 bd 89 82 ba bc 8a 6d 58 3b ef 0a 69 bd
       -0.035564028 -0.022767322 0.0033024275 -0.056895193
000210 41 71 07 bd 32 1c 75 3d 6c 8c 8e bc 18 ae 28 3d
       -0.03306699 0.059841342 -0.017400943 0.041181654
000220 d0 df b9 3d 15 9c ab 3d 9a e9 e6 bd d6 8d df 3d
       0.09075892 0.0837938 -0.11275025 0.10915725
000230 55 fb d4 bd f5 69 79 3d a0 f1 53 3d ea 5a 57 3c
       -0.103995 0.060892064 0.051744103 0.013144234
000240 0d 21 96 bd e0 4b 0b 3d 00 5c a3 3d 6c b7 9a bd
       -0.07330523 0.034007907 0.07976532 -0.07554516
000250 20 d6 01 3c 56 44 f9 3d 88 1c 49 3d 44 16 ef 3b
       0.007924587 0.12171237 0.049099475 0.0072963554
000260 79 3c 86 3b 3f ca 9c 3d 56 4f 34 bc ad d4 03 3d
       0.0040965644 0.07655763 -0.011005243 0.032185245
000270 ec 07 0d bd e1 7e ff bd 1a f4 df 3d 7c 5e 03 bd
       -0.034431383 -0.12475372 0.109352306 -0.03207253
000280 32 89 a4 3d 58 df 89 bd 0e c9 3f bd ff c4 f1 bd
       0.080339804 -0.067320526 -0.0468226 -0.11805152
000290 1f 69 d5 3d e8 19 05 bd 01 6e cb bd 38 61 cb bd
       0.10420441 -0.03249541 -0.09933091 -0.099306524
0002a0 7a d7 86 bc 5d d8 b7 bd 5b 00 f8 3d 09 b1 56 3d
       -0.01646017 -0.08976815 0.12109443 0.052414928
0002b0 06 84 f7 bb 8d 2d de bd 3d 2c f5 3d 99 c8 b3 3d
       -0.00755358 -0.10848532 0.119713284 0.08778495
0002c0 2b ab 20 3d f6 10 dc bd a1 dc 42 3d 3b 28 c2 3d
       0.03922574 -0.107454225 0.04757369 0.094803296
0002d0 16 11 43 3d f0 f5 73 bd e8 13 fa 3d cb c2 cd 3d
       0.047623716 -0.059560716 0.12210828 0.100469194
0002e0 e7 8e a1 ba 60 cc de bd c2 04 3a 3d 5c b6 18 bd
       -0.0012325913 -0.10878825 0.045414694 -0.037283286
0002f0 f8 a0 67 bd 6d 7e 02 be fb 43 c6 3d 0f be da 3c
       -0.056549996 -0.1274354 0.09680935 0.026701955
000300 77 55 03 3e 05 cf 30 3d 04 70 6e bd c3 ac 32 bd
       0.12825571 0.04316618 -0.058212295 -0.04362179
000310 60 da ac 3d b1 f4 c2 3d b6 7d 24 bb 92 33 6a ba
       0.08440089 0.095193274 -0.0025099344 -0.0008934076
000320 f7 d4 cc bd e7 7b 76 bc 04 c3 8e bc 62 9b 84 bd
       -0.10001557 -0.015044189 -0.017426975 -0.064749494
000330 4d 0e fa bd e8 f4 11 bd 26 0e cd 3d 3e 2e 86 bd
       -0.12209759 -0.03563395 0.10012464 -0.06551789
000340 26 da 7d 3d 0f 9f e7 3d 47 e6 4e bd 48 83 ba 3d
       0.06197562 0.11309635 -0.05051258 0.09107071
000350 86 ae 39 3d 9f 8a e9 bd f0 44 72 bd a2 36 d0 3d
       0.045332454 -0.11403393 -0.059147775 0.101666704
000360 46 61 89 bd 71 4d ae bc a9 bb eb 3d 92 81 99 3d
       -0.067080066 -0.021277161 0.11510403 0.07495417
000370 ea fb d1 bd e7 73 0e bd de 2c 79 3c 8c 7a e8 bc
       -0.10253127 -0.0347785 0.015208451 -0.028378747
000380 7a 22 db bc 93 83 ca 3d 1a 9b 1e 3d 0f 9d 88 3d
       -0.026749838 0.09888377 0.038722135 0.066705815
000390 a2 3f c5 bd cc 20 a3 3d 73 b8 ad bd be 0f 4c bc
       -0.096312776 0.0796524 -0.084824465 -0.012454925
0003a0 e7 79 2e 3d bf 85 c6 bd 31 60 84 bd 76 16 36 3d
       0.042596724 -0.09693479 -0.064636596 0.044455014
0003b0 92 c3 99 bd 35 bc 15 bd a9 a7 a3 3d c9 20 af bd
       -0.07508005 -0.03655644 0.07990963 -0.08551175
0003c0 01 40 47 3d bb aa 8f 3d a8 c5 49 bc 46 c4 82 3d
       0.048645023 0.07014986 -0.012315191 0.063850924
0003d0 fe 76 d8 ba b2 00 f6 bd 6d 5b 69 3d b5 b4 a7 3d
       -0.0016514955 -0.12011851 0.056971956 0.08188764
0003e0 44 24 97 bd f1 03 8d 3d 2b f6 ae bd 4a 04 ad bc
       -0.07379964 0.068855174 -0.085430466 -0.02112021
0003f0 ed 33 f7 bb ef ec d8 bd ae c7 1f bd ea 52 f7 3b
       -0.007544032 -0.105920665 -0.03900879 0.007547726

fc1.bias f4 [256]
000000 84 54 f2 3b 5d 86 dd 3c f6 3f 14 3c 05 11 75 bd
       0.007395329 0.027041608 0.009048453 -0.059830684
000010 23 7f 58 bc 26 94 42 bb 60 08 99 bd 09 f2 a9 bd
       -0.0132139055 -0.0029690354 -0.074723005 -0.08298118
000020 89 45 03 3e b2 b4 57 3d fd ac eb bd f7 3f 2e bd
       0.12819494 0.05266256 -0.11507604 -0.04254147
000030 9c 83 be 3d 34 2b 87 3d ef 69 ed bd eb b8 ba bd
       0.09302446 0.06600037 -0.11592471 -0.091173016
000040 85 70 53 bd cb 4b ed bd b7 58 55 bc 30 3a a4 bc
       -0.05162098 -0.11586722 -0.01302164 -0.020047277
000050 9f 6f 8d 3b 42 25 f5 bd 02 a6 7c 3c 02 a4 a6 bd
       0.004316285 -0.11969997 0.015420439 -0.08136751
000060 b5 40 eb bd d7 31 fc bd 0a 62 f3 3d ea 10 3e bc
       -0.11486951 -0.12314194 0.11883934 -0.011600712
000070 55 48 45 3c 38 0f 9b 3c a2 fc 30 bd d1 f9 a2 bd
       0.012041171 0.018928155 -0.04320968 -0.07957805
000080 96 fe cd bd 30 68 a4 3d 2b db e0 bb 43 6a a5 3c
       -0.10058324 0.08027685 -0.0068620644 0.020192271
000090 b3 42 9e 3d 35 67 be 3d 4b ae 57 bd 22 5e af bd
       0.077275656 0.09297029 -0.052656453 -0.08562876
0000a0 ba aa 04 be 38 b3 41 3d ff 5e ec bb b8 09 88 3d
       -0.12955752 0.047290057 -0.007213473 0.06642479
0000b0 5c 3e 1a 3d 24 6a 63 bd 2a 86 a1 bd 49 15 d9 bc
       0.037657127 -0.055521145 -0.07886918 -0.026499407
0000c0 e7 ec 79 ba 18 5c e7 3d 29 18 4e bd 9c 41 fa bd
       -0.00095338974 0.11296862 -0.05031601 -0.12219545
0000d0 09 0b 68 3a 44 80 e2 bd 88 90 bd 3d 83 a7 81 3d
       0.0008851742 -0.11059621 0.09256083 0.063307784
0000e0 ef 85 ea bd 95 e7 5c bc 22 1d 12 3c 80 f3 c4 bd
       -0.11451327 -0.013482948 0.008918079 -0.096167564
0000f0 be 5c 18 3d 24 44 0e 3c 8c 9c e3 39 3d 66 98 3d
       0.03719782 0.008683238 0.0004341345 0.074413754
000100 94 9e 29 bd e9 f2 fc bd 0a 51 06 3e 9b d6 e9 3d
       -0.041410998 -0.12351019 0.13116851 0.11417886
000110 db dc 75 bd be e2 aa 3d 63 74 e0 bd 18 d2 68 bb
       -0.060025077 0.08344029 -0.10959699 -0.0035525616
000120 c7 15 0b bc 67 96 db 3d 7a ab 97 bc 05 5b a2 bc
       -0.008489079 0.10722046 -0.018514384 -0.019818792
000130 50 fe 23 bd b6 d2 a8 3d 21 5d 9c 3c fe 43 51 3d
       -0.040037453 0.08243315 0.019087376 0.051090233
000140 75 da d4 bd 21 70 88 bd 61 bd 8b bd c5 9a 04 3e
       -0.1039323 -0.06662012 -0.068232305 0.12949665
000150 52 ac 8b ba f5 c3 30 3d 5f 77 e6 3d 06 8d 74 bd
       -0.0010656214 0.04315563 0.11253237 -0.059704803
000160 2f 0b 86 3d 4b 0b c3 3d 1f 36 f9 39 74 00 f7 3d
       0.06545102 0.09523638 0.00047533304 0.12060633
000170 bf 2e a6 bd 7e 7f 8c bd 54 54 a2 bd ef ec 34 3d
       -0.08114385 -0.06860255 -0.079262406 0.04417127
000180 bf 52 17 3d 1b a8 05 3e 14 46 bd bd 0c 4c a3 bd
       0.036944147 0.13052408 -0.09241882 -0.07973489
000190 61 8b 99 bd 20 d1 5f 3d c7 fe 04 3e 3d 6f 4a bb
       -0.074972875 0.054642797 0.12987815 -0.0030889057
0001a0 14 18 ea 3d 3c 42 ca 3d 3d ec 92 bc 65 59 04 bc
       0.11430374 0.098759145 -0.017934913 -0.008077954
0001b0 8b e0 a5 bd 1b 9c 99 3d 72 8e 91 3d bf b4 8b bd
       -0.08099469 0.07500478 0.071072474 -0.06821584
0001c0 40 52 05 be e8 57 bb 3d 74 fa fb bc 64 be ad 3d
       -0.13019657 0.09147626 -0.030759074 0.0848358
0001d0 3a f2 7e bd 63 7b f3 3d 81 4c a6 bc f5 93 a1 bd
       -0.062242724 0.118887685 -0.020300152 -0.07889549
0001e0 2f e5 82 bd 61 33 9d bd 15 ea 99 3d b9 93 aa 3d
       -0.063913696 -0.076758154 0.07515351 0.08328957
0001f0 90 db ae bd 4c 31 70 3c ff 38 6f 3d 93 29 92 bc
       -0.08537972 0.014660191 0.058403965 -0.01784209
000200 d4 38 d4 bc 62 80 ec bc 9c 2f e4 3b 9f df e6 bd
       -0.025906004 -0.028869811 0.0069636833 -0.11273121
000210 e4 d4 e3 bd 05 eb 28 3d d9 af b8 bd b1 ef 20 3d
       -0.1112459 0.041239757 -0.09017915 0.039291088
000220 b0 c3 f8 3c f7 eb b1 bd 1f 91 cc bd fa a5 e2 3d
       0.030366749 -0.08687585 -0.09988617 0.11066814
000230 dc 99 da 3d 62 ea 39 bb c5 60 86 3d b7 fa 03 3e
       0.106738776 -0.0028368463 0.06561426 0.12888609
000240 15 4c 35 3d 60 26 af bd d2 9d a7 3d 1f 97 e2 bd
       0.04426201 -0.08552241 0.08184399 -0.1106398
000250 1a 5b 84 3c 0d b7 47 3b 06 4e c2 3d a7 a1 01 bd
       0.016156722 0.0030474097 0.09487538 -0.031648304
000260 f4 bf af bd 52 8d 8d bd d8 29 8e 3d 1b 84 aa 3d
       -0.08581534 -0.0691172 0.06941575 0.08325978
000270 ee 38 3d 3d f8 2d 04 be 67 0a fb bd c0 54 d2 bd
       0.04619687 -0.1290816 -0.122578435 -0.10270071
000280 8c 29 24 bd 4d 8e bb bb a8 b8 2c 3d bf f3 c7 bd
       -0.040078685 -0.0057237507 0.04216829 -0.09763288
000290 94 3b 8f 3d 7e 1b c9 3d ea c9 ff bd 0e 76 0c 3d
       0.069937855 0.09819697 -0.12489684 0.034292273
0002a0 ab e3 80 bd ef 93 d7 3d e1 df 96 3d fa 12 2e bd
       -0.06293424 0.10526263 0.0736692 -0.042498566
0002b0 fe 94 ee 3d e0 23 d4 bd 58 f2 a9 3d f8 f0 3f bb
       0.11649512 -0.10358405 0.082981765 -0.0029287916
0002c0 d9 2e cb 3d aa e5 35 3c 03 af c9 bd bd 41 73 bd
       0.09921045 0.011102119 -0.09847834 -0.059388865
0002d0 74 54 9e 3d 9f 63 df bd f3 b8 4b 3c 55 1a 40 bd
       0.07730952 -0.10907673 0.012434232 -0.046900112
0002e0 5e c4 00 3e f7 cd 02 be b5 c4 f7 3d 1f 58 7e bd
       0.12574908 -0.12773882 0.12098066 -0.062095758
0002f0 62 58 b7 3d f6 12 72 3d 8e fd 6a 3d 6d cf 03 bd
       0.089524046 0.059100114 0.057370715 -0.03218024
000300 ba 9f ee bd 80 23 09 3d dc 80 9d 3c 2b c8 c8 3d
       -0.11651559 0.03348112 0.019226484 0.09803804
000310 3d c5 26 3b c8 82 ee 3d e8 78 04 be 62 13 89 3b
       0.0025447153 0.11646038 -0.12936747 0.004183219
000320 e2 66 df bd 55 3e 0c 3a ba 3c 93 3c 74 e7 d2 bd
       -0.10908295 0.00053498644 0.017973293 -0.102980524
000330 51 ca 71 3d fd da 8c 3d ca bd 2f 3d 94 1d 2f 3d
       0.059030835 0.06877706 0.042905606 0.042752817
000340 a0 82 80 3d fc 46 e2 bc 5b 13 2e bd 04 81 6f bd
       0.06274915 -0.027621739 -0.042498928 -0.05847265
000350 cd 80 7a bd fc 5b f6 bd c5 3d c9 bd 4b 60 d0 bd
       -0.06115799 -0.120292634 -0.09826235 -0.101746164
000360 f2 ad 1e bd 44 80 ed 3b 95 7b cf bd 3e a8 06 3d
       -0.038740106 0.0072479565 -0.10130993 0.032875292
000370 28 01 c8 bd 7f 78 d4 bd 89 25 00 3d 58 23 d2 3d
       -0.097658455 -0.10374545 0.031285796 0.102606475
000380 05 bd 1a bd f8 05 9a 3d 6d 94 e0 3d 70 a5 34 bd
       -0.03777792 0.0752067 0.1096581 -0.044103086
000390 b9 e4 f3 3d 15 32 70 bd 1e 0e 08 3d dc a5 04 be
       0.1190886 -0.058641512 0.03321659 -0.12953895
0003a0 79 11 e4 bd c5 01 d8 3c 97 53 4e 3c 78 c0 ce 3d
       -0.11136145 0.026368031 0.012593172 0.10095304
0003b0 27 d3 77 bd 3b 8c 45 bd a3 35 00 3d ff a8 b7 3c
       -0.060504105 -0.048229437 0.031301152 0.02241945
0003c0 65 56 a0 bd 16 56 0a 3d c6 0b a7 bd 94 fe c9 3a
       -0.078289784 0.033773504 -0.081565425 0.0015410953
0003d0 55 c8 fd 3d 40 f1 e5 3d 0d e9 f1 3d 08 35 e0 bd
       0.12391726 0.112276554 0.11812029 -0.10947615
0003e0 60 aa 40 bb 72 14 b8 3d 3f 88 05 3e bf 84 33 3d
       -0.0029398426 0.08988275 0.13040255 0.04382777
0003f0 49 c6 b1 3b 47 41 43 3c 57 a4 92 3d 66 af 52 3d
       0.0054252488 0.011917419 0.071602516 0.051436804

fc2.weight f4 [256, 256]
000000 7a 01 1f bd fe 08 63 bd 10 15 c3 3b 54 3d e2 bc
       -0.038819768 -0.055428497 0.0059534386 -0.027617134
000010 b0 b8 68 3c b2 d9 3c 3d 6a 89 49 3d d0 08 76 3d
       0.014204189 0.046106048 0.049203314 0.060066998
000020 44 52 1a 3d 90 82 da bb 48 f5 34 bc 80 d3 4e bb
       0.03767611 -0.0066683963 -0.011044808 -0.003155917
000030 10 3c 56 bc 48 3e 41 bd 9a f4 0d 3d 20 1a 62 bb
       -0.013075843 -0.047178537 0.0346571 -0.0034500435
000040 80 48 ff 3a d0 c5 58 3d f8 c9 bf 3c 56 8a 29 3d
       0.0019476563 0.052923024 0.023411736 0.041391693
000050 60 11 12 3b 10 fe 1d 3c 00 a4 b8 3c 64 c8 71 3d
       0.0022288188 0.009643093 0.022539139 0.059028998
000060 3c 34 09 bd 00 c2 a8 3a 46 83 71 bd 64 56 3a bd
       -0.03349708 0.0012875199 -0.058963083 -0.045492545
000070 08 10 a8 bc 7e 2c 6d 3d d8 fb b7 bc ba 98 2f 3d
       -0.020515457 0.05790376 -0.022458956 0.04287026
000080 50 ee e9 3b a8 b8 66 3c 8a e0 01 bd 68 7d c1 bc
       0.0071390048 0.014082111 -0.031708278 -0.023619369
000090 f4 a7 a7 bc 00 24 c8 b8 b8 ff 9e 3c 20 8f d5 3b
       -0.020465828 -9.543449e-05 0.019409046 0.006517306
0000a0 28 28 8a 3c 52 00 06 bd a0 1c 16 3d b0 1e e1 bc
       0.016864851 -0.03271515 0.036648393 -0.027480453
0000b0 40 96 8b 3b ac 8e 28 bd 70 8c 9d bb c4 08 1c 3d
       0.0042598546 -0.041151688 -0.004808001 0.038094297
0000c0 68 b0 3b 3c f6 f0 5b bd 48 2d 08 bc c6 49 58 3d
       0.011455633 -0.053696595 -0.008311577 0.05280473
0000d0 20 56 c4 3c 8c 10 15 bd 18 3f 16 3d c0 75 08 3d
       0.023966849 -0.036392733 0.036681265 0.03331542
0000e0 3c b2 15 bd 22 05 53 3d 00 1f 40 bb 84 b7 20 3d
       -0.03654693 0.051518567 -0.0029315352 0.039237514
0000f0 80 de 6c 3c 9c b4 89 bc 20 ef 50 3b 48 1f 7d 3d
       0.014457345 -0.016809754 0.003188081 0.06179741
000100 46 d3 5f 3d 7a 57 35 bd 00 33 7a bd 80 b9 2d 3d
       0.054644845 -0.044272877 -0.061083794 0.042413235
000110 c8 85 b2 bc c6 77 3e bd 46 66 1b 3d 40 55 f6 3c
       -0.021792307 -0.046500944 0.037939332 0.030069947
000120 08 08 41 3c 34 53 ea bc e0 c8 48 bb ec 88 84 bc
       0.0117817 -0.028604127 -0.003063731 -0.01617857
000130 c8 9e 05 bc 40 b9 7e bd 4c 41 28 3d 30 53 fd 3c
       -0.008155532 -0.062188387 0.041077897 0.030923456
000140 24 7b ef bc d0 e3 ca bb f0 d0 3e 3d 98 11 0d bc
       -0.029233523 -0.006191708 0.046585977 -0.008610152
000150 72 c1 15 3d 08 c2 41 3d f6 3c 1a 3d e8 3f 2b 3d
       0.036561437 0.047304183 0.037655793 0.041808993
000160 08 fe 76 bd ac bf fe 3c 88 31 0d 3d 8c 45 95 3c
       -0.060300857 0.031097256 0.034471065 0.01822164
000170 ec f0 e5 bc bc 9d 4d bd 90 b6 f3 3b 60 fd 44 bc
       -0.028068982 -0.050199255 0.0074375346 -0.0120233
000180 10 67 63 bc c4 2b 75 3d dc 56 88 bc b0 35 1f 3d
       -0.0138795525 0.05985619 -0.01664298 0.03886956
000190 60 e7 92 bb 8e 4b 3b bd 20 77 d2 bc 78 d8 55 3c
       -0.0044831485 -0.04572635 -0.025691569 0.013052098
0001a0 2a 2a 50 bd 16 ed 16 bd 18 83 96 bc 30 24 15 bd
       -0.05082146 -0.036847197 -0.018373057 -0.036411464
0001b0 5c 6e 49 bd 96 c5 55 bd 1a ab 51 3d 20 5e 4b bd
       -0.049177513 -0.052190386 0.051188566 -0.04965031
0001c0 56 b3 42 bd e0 af 8c 3b 10 6d e6 bc f8 88 38 bc
       -0.04753431 0.004293427 -0.028128177 -0.011263125
0001d0 48 86 22 bc 40 00 18 3c 10 4c d6 bc 58 f9 7d bc
       -0.00991971 0.009277403 -0.026159316 -0.015501343
0001e0 e0 d7 38 bd c8 a5 1b 3d b0 96 53 3c e4 65 77 bd
       -0.04512775 0.0379999 0.012914345 -0.060399905
0001f0 18 b3 06 3d 00 b5 3d bc 64 ca d2 bc 2e ab 5c 3d
       0.03288564 -0.011578798 -0.025731273 0.053874187
000200 9c 31 4d bd f0 c3 fe 3b 80 0d 3b bd 94 98 64 bd
       -0.05009614 0.0077748224 -0.04566717 -0.055809572
000210 60 5c aa 3b 26 25 58 bd 40 52 85 3a 04 b9 27 3d
       0.0051990002 -0.052769803 0.0010171607 0.04094793
000220 c4 84 ef bc 36 08 2e bd 6a 3c 35 bd f0 b0 1a bd
       -0.029238112 -0.0424883 -0.04424707 -0.037766397
000230 fa 23 09 3d ec 99 bd bc 60 14 7a 3b a0 3c 6c 3c
       0.033481576 -0.023144685 0.0038159117 0.014418751
000240 60 f0 62 3b ee a0 3f bd f6 fa 43 3d 18 0d 59 bc
       0.0034628138 -0.046784334 0.047846757 -0.013247751
000250 da b4 59 bd d4 41 07 bd 7e 85 7c bd 80 7d 22 3a
       -0.05315099 -0.033021763 -0.061650746 0.00061985105
000260 78 c1 74 3c 00 f7 48 3b 84 b9 5c 3d a0 c5 a7 3c
       0.014938705 0.0030664802 0.05388786 0.020479977
000270 94 7c d9 3c 18 06 c8 bc 14 d0 5d 3d a0 2c 89 bb
       0.026548661 -0.024416968 0.054153517 -0.004186228
000280 40 3e 88 bc 52 3e 64 bd 3a 84 48 3d f6 af 0d bd
       -0.016631246 -0.055723496 0.048954226 -0.034591638
000290 2c 2b 21 bd 90 f2 d4 3c 6c b0 43 3d ca 2d 7d bd
       -0.039347813 0.025994569 0.04777567 -0.061811246
0002a0 18 c7 04 bd 1e bd 1e 3d d2 74 06 bd 58 d7 68 3c
       -0.032416433 0.038754575 -0.032826252 0.014211498
0002b0 ec 76 88 3c 66 f8 79 bd f8 1e f4 bc c8 87 19 3c
       0.016658269 -0.061027907 -0.029799923 0.009370752
0002c0 2c 31 4c 3d 1a ba 66 3d d0 42 e0 3b 70 a9 d6 bb
       0.04985158 0.056329824 0.006843902 -0.0065509602
0002d0 76 02 4c 3d 66 00 59 3d 96 93 6f bd a4 f7 9b 3c
       0.049807034 0.052978896 -0.05849036 0.019038983
0002e0 36 a4 24 bd 96 58 2b 3d 04 05 7e 3d aa 35 0b 3d
       -0.040195666 0.04183253 0.062016502 0.033986725
0002f0 ca df 31 3d 24 04 37 3d c0 96 41 3b 94 a6 76 3d
       0.043426313 0.044681683 0.0029539317 0.060217455
000300 c8 8c 7a bd 70 56 75 bc 10 a7 86 3b 92 cf 12 bd
       -0.061169416 -0.014974222 0.004109271 -0.035842486
000310 10 59 0f bd 60 2f 02 3d e4 fe a1 bc 40 4c 32 3d
       -0.034997046 0.03178346 -0.019774862 0.04352975
000320 0e e0 02 3d 6a 35 55 bd c0 97 fe 3a 00 0f 8f 39
       0.031951956 -0.052052893 0.0019423887 0.0002728626
000330 cc a0 56 3d ee ce 5e 3d e0 a1 f6 3b ca 5f 6c 3d
       0.05239944 0.054396562 0.007526621 0.05770854
000340 f4 b8 7e bd 00 64 c4 bb a0 a9 8a 3c 80 9f 79 3a
       -0.062188104 -0.0059933662 0.016926587 0.00095223635
000350 48 f2 45 bd 82 45 0e 3d 96 36 3d 3d b8 73 81 bc
       -0.04832676 0.034734257 0.046194635 -0.01580225
000360 58 1f 6a 3d 14 ab 85 3c 5c 12 e8 3c 48 31 69 bd
       0.057158798 0.016316928 0.028329067 -0.056931764
000370 e4 cd 47 bd b0 73 96 3b 62 13 25 bd 16 fa 5a bd
       -0.048780337 0.0045914277 -0.040301688 -0.053461157
000380 ce 66 41 bd e2 17 6a bd 00 34 9a 38 f8 ae ec 3c
       -0.047217183 -0.057151683 7.352978e-05 0.028892025
000390 c0 0c cd bc 48 8f ee 3c 18 b9 6b 3d 76 ae 53 3d
       -0.025030494 0.029121056 0.057549566 0.05168005
0003a0 80 ab 49 3a b6 25 5c bd a4 33 73 3d 20 9c 75 3c
       0.0007693097 -0.0537469 0.05937542 0.014990836
0003b0 96 6f 0b bd e0 20 41 3b 10 dc 89 3b 0a 6f 38 3d
       -0.034041964 0.0029469058 0.0042071417 0.04502777
0003c0 60 f0 43 3d 0e 03 07 3d 86 d9 57 bd 34 b1 49 3d
       0.04783666 0.032961898 -0.05269768 0.04924126
0003d0 f6 f2 04 bd 04 2d 27 bd fc f7 36 bd 2a c0 6c bd
       -0.032458268 -0.040814415 -0.04467009 -0.05780045
0003e0 a0 a5 35 bb 4c 4c 85 3c 04 83 40 bd be d2 7c 3d
       -0.0027717128 0.016271733 -0.046999946 0.061724417
0003f0 c0 4d e7 3c 3c 91 75 3d a8 ce b4 bc e0 2a 45 bc
       0.028235316 0.05995296 -0.022071198 -0.012034148

fc2.bias f4 [256]
000000 dc ca 65 3d 60 58 5f bd c6 30 31 bd a4 cb 28 3d
       0.056101665 -0.05452764 -0.043259405 0.04120983
000010 2c 32 d8 bc 80 e2 0a 3a f0 1d 12 3c a6 c1 32 3d
       -0.026391111 0.00052980334 0.0089182705 0.04364171
000020 10 f9 15 bd 14 84 95 bc c2 b3 29 bd ee d3 3a bd
       -0.036614478 -0.018251456 -0.041431196 -0.04561227
000030 52 aa 36 bd 4a ed 2c bd 5c 55 ae 3c f8 9d 25 bc
       -0.044596024 -0.042218484 0.021280937 -0.0101084635
000040 1a 3b 35 bd 80 84 c6 bc 88 28 cd bc d8 b6 b8 3c
       -0.044245817 -0.024233103 -0.02504374 0.022548124
000050 b4 41 7d 3d c0 06 ca ba d2 f3 42 bd 18 f6 4e bd
       0.061830238 -0.0015413389 -0.047595806 -0.050527662
000060 1e 88 30 3d 5e 51 5f bd 5c 26 97 bc d0 56 d0 3c
       0.04309856 -0.054520957 -0.018450908 0.02543202
000070 58 3d 5b 3d 80 87 4f 3d 18 3e 7a 3d c8 c9 43 bd
       0.0535253 0.050666332 0.061094373 -0.047799855
000080 f0 80 50 bd de a5 7f bd 6a a1 4d bd 32 ea 4f bd
       -0.050904214 -0.062414043 -0.050202765 -0.050760455
000090 9c c1 db bc d0 d3 c4 3c da df 6b bd fe c6 13 bd
       -0.026825719 0.024026781 -0.05758653 -0.036078446
0000a0 fc bb fb 3c 48 3a a7 3c e8 28 bd bc b8 f6 02 3c
       0.030729286 0.020413533 -0.023090795 0.007993393
0000b0 e0 3b 7f bb 56 d7 1e 3d fc a3 a8 bc 0a f5 21 3d
       -0.00389456 0.03877958 -0.020586006 0.039540328
0000c0 de 18 3a 3d e8 43 8a bc 80 fb d8 bc 40 91 ec 3b
       0.04543387 -0.016878083 -0.026487112 0.0072194636
0000d0 c0 e8 1b bc 04 ed 74 bd e0 87 95 bb f0 66 61 3c
       -0.009515941 -0.05979635 -0.0045633167 0.013757452
0000e0 30 1a 0e 3d 68 a2 d1 3c 98 5e 50 bd d8 bf 4f 3d
       0.034692943 0.025590137 -0.05087146 0.050720066
0000f0 fe a7 33 3d 78 12 69 bc d8 fd 32 3d 80 5f 0c ba
       0.04386138 -0.014225595 0.043699116 -0.0005354807
000100 84 fd d0 bc b6 d5 65 3d 3c 91 62 3d 38 56 08 3d
       -0.02551151 0.056112014 0.055314288 0.03328535
000110 a4 6e e0 3c f0 97 fc 3b 2c 13 7b 3d d6 a5 68 bd
       0.027396508 0.007708542 0.06129758 -0.05679878
000120 60 65 17 3d 54 c5 4c 3d 70 3a 42 3c 54 4c c0 3c
       0.036961913 0.049992874 0.011854753 0.023473896
000130 dc a9 0d 3d bc 89 44 bd f8 a3 df 3c 7a 78 60 3d
       0.03458582 -0.047982916 0.027299866 0.054802395
000140 8c e3 0b bd 50 21 e8 3c a8 dc 3f bd f0 83 7c bd
       -0.034152552 0.028336197 -0.046841294 -0.061649263
000150 18 87 19 bd 1c 3a 97 bc 20 7f cf 3c 28 21 96 3c
       -0.03748235 -0.018460326 0.025329173 0.018326357
000160 c4 ea 0c 3d 90 5e 2c bc 0c 9b 88 bc b4 46 27 3d
       0.034403577 -0.010520592 -0.016675495 0.040838912
000170 ac 46 64 3d 30 54 d1 bb 60 5c 31 bc 90 89 ce bc
       0.05573146 -0.0063882098 -0.010825247 -0.02521208
000180 f8 1b f8 3c e0 3b 7e 3d 9a fc 4a 3d 2c 1b 2b bd
       0.030286774 0.06206882 0.049557306 -0.04177396
000190 9a fb 05 3d 18 e5 b0 bc 88 a4 32 bc 68 ae 30 bc
       0.03271065 -0.021593615 -0.010903485 -0.010783769
0001a0 c0 be ca 3c 74 ac e7 bc 00 89 2f ba e0 7a 49 bb
       0.02474916 -0.028280474 -0.0006696135 -0.0030743405
0001b0 74 58 4b 3d 42 09 4b bd f4 f6 7a bd ac 29 ba 3c
       0.049644902 -0.049569376 -0.06127067 0.022724949
0001c0 9e 02 72 bd 88 8e 78 3d 50 10 c5 bc 80 3d 1d 3b
       -0.059084527 0.060682803 -0.02405563 0.0023992956
0001d0 f0 b4 14 3d 58 25 65 bc 48 64 39 3d 98 8a 96 3c
       0.036305368 -0.013985954 0.04526165 0.018376634
0001e0 00 fa 95 3c d8 0e a5 3c 60 f5 05 3b 3e 00 05 3d
       0.018307686 0.02014868 0.0020440444 0.032470934
0001f0 0c 2a 16 bd 00 90 fa 38 a0 5e 54 bd c0 80 96 3c
       -0.036661193 0.00011947751 -0.051848054 0.01837194
000200 64 ed 61 bd d8 13 ac bc 40 a5 ef bb a0 a9 e7 3b
       -0.055158034 -0.021005556 -0.0073134005 0.0070697814
000210 4c f3 8f 3c 24 3a cb 3c f8 c6 d2 bc 9c 3a d9 bc
       0.017572068 0.024807997 -0.025729641 -0.026517205
000220 e4 0e 17 3d 78 47 3d bd e0 52 d3 3c ea 38 46 3d
       0.036879435 -0.046210736 0.025796354 0.04839412
000230 68 31 da bc 78 95 25 3c 10 8f 93 3b 40 42 6a 3b
       -0.026634887 0.010106437 0.0045031384 0.0035745054
000240 38 fe 06 3c 98 4d 60 3c 98 9d 36 3d 70 80 8c bc
       0.008239321 0.013690375 0.044583887 -0.017151088
000250 bc c0 dc bc aa 94 5c 3d da 0e 59 3d a6 69 3f bd
       -0.026947372 0.053852715 0.05299268 -0.046731614
000260 dc 3b 33 bd 2c b6 09 bd 00 88 d7 3a 46 58 1f bd
       -0.04375826 -0.033621 0.0016443729 -0.038902543
000270 be 34 66 bd 00 e9 ed ba 2c 5c 04 3d 38 6e 18 3d
       -0.056202643 -0.0018151104 0.032314464 0.037214488
000280 18 1b 04 3c 34 07 db bc ea 7f 1e 3d 6c 2a 98 3c
       0.0080631 -0.026736833 0.038696207 0.018574916
000290 90 b2 1a bd 54 c0 57 bd 80 82 bf bc 80 b4 31 bc
       -0.037767947 -0.052673653 -0.023377657 -0.010846257
0002a0 00 d1 8c bb f8 82 30 bd 14 53 17 3d c8 90 ac 3c
       -0.0042973757 -0.04309365 0.036944464 0.02106513
0002b0 f0 fc 6f bc 90 3e e9 3b 82 88 2e bd ba 96 6c bd
       -0.014647707 0.0071180537 -0.042610653 -0.05776093
0002c0 7a 9e 48 bd 00 23 0d 3c 2c 57 23 bd 40 a9 98 3b
       -0.04897926 0.008614302 -0.039878055 0.004658848
0002d0 b0 89 42 bc 7c c7 b3 bc f8 76 e2 3c 02 94 07 3d
       -0.011873648 -0.021945707 0.02764462 0.033100136
0002e0 f6 c6 17 bd 5c e2 fc bc 78 d2 de 3c d8 6f 2e 3d
       -0.03705498 -0.030869655 0.027199969 0.04258713
0002f0 fc 42 43 bd 94 cd 69 3d 3e f7 70 3d d8 94 07 bc
       -0.047671303 0.05708082 0.05882954 -0.008275233
000300 38 2a 5d 3c 94 4f 73 3d 60 b5 6b bb 14 8f 55 3d
       0.013498835 0.059402063 -0.0035966262 0.052138403
000310 b0 19 24 bc 48 30 56 3d 30 61 69 3c f4 2b f2 3c
       -0.01001589 0.05229214 0.014244363 0.029561974
000320 2c 5f a7 3c b2 30 50 bd 88 17 9f bc da de 7b bd
       0.020431124 -0.05082769 -0.0194204 -0.061491825
000330 08 2d 51 bd b0 be f8 bb 2a d4 22 3d 54 08 ec bc
       -0.051068336 -0.007591091 0.039753117 -0.028812565
000340 f0 3f 2b 3d fe 89 11 bd 80 95 83 ba 50 9d 89 bc
       0.041809022 -0.03553199 -0.0010039061 -0.016798645
000350 de 49 13 3d ee 82 6f 3d 8c 1d 07 3d 82 da 0e 3d
       0.035959117 0.058474474 0.032987162 0.034876354
000360 58 f9 3d 3d 24 59 6a 3d 96 25 32 3d d4 bf cb 3c
       0.04638037 0.057213917 0.043492876 0.024871744
000370 c0 26 02 3c 00 fe 2c b9 46 e8 45 bd c0 ed 50 bc
       0.007943809 -0.0001649782 -0.048317216 -0.0127519965
000380 4c 52 95 3c c8 90 8b 3c 30 39 79 bc 0c 6d 99 3c
       0.018227719 0.01703681 -0.0152113885 0.018728755
000390 6e ca 73 3d 4c c2 40 3d b0 1b 2d 3c 22 99 61 3d
       0.059519224 0.047060296 0.010565683 0.05507768
0003a0 ec 81 05 bd b6 99 4e bd d6 ef 31 3d 68 24 11 bd
       -0.032594606 -0.05043956 0.043441616 -0.03543511
0003b0 a8 97 ca bc b2 8d 18 bd e8 f0 05 3c 20 9f 2b 3b
       -0.024730518 -0.037244506 0.008175112 0.0026187375
0003c0 02 a1 69 bd a8 0f 2d bc 2a 63 5d 3d ae 73 5c 3d
       -0.057038315 -0.010562815 0.05404965 0.05382126
0003d0 a8 81 6f 3d 14 a0 f0 3c f0 8c 71 bd 20 d7 31 3c
       0.05847326 0.029373206 -0.0589723 0.010854512
0003e0 80 67 13 3b ee 72 19 3d f0 6a 72 3d e4 d1 c0 3c
       0.002249211 0.03746312 0.059184015 0.023537584
0003f0 00 74 2a b9 f8 c4 38 bc e0 9a 1a bd 44 cc 33 3d
       -0.00016255677 -0.01127743 -0.037745357 0.043895975

fc3.weight f4 [256, 256]
000000 be 01 46 bd b0 d7 a6 bc 30 4a 04 bc 88 d3 53 bd
       -0.048341505 -0.02036652 -0.008074328 -0.051715404
000010 82 77 72 bd 20 68 63 3b 1e cf 5d 3d 9e 5a 79 3d
       -0.059196003 0.0034699515 0.0541526 0.060877435
000020 82 40 65 bd 36 6e 26 bd 8a 23 4a bd 84 62 11 bd
       -0.055969723 -0.04063245 -0.0493503 -0.035494342
000030 30 1a b7 bc 60 f4 fd 3b b0 cc e2 bc 7e c1 7d 3d
       -0.022351354 0.007750079 -0.027685493 0.061952107
000040 1e 8c 64 bd 18 97 09 bc be 8b 1e 3d 46 13 0f bd
       -0.05579769 -0.00839784 0.038707487 -0.03493049
000050 16 3e 4a 3d 20 0b 89 3c 44 d6 c3 bc 04 26 bc bc
       0.049375616 0.016728938 -0.02390588 -0.022967346
000060 00 0a 5d bc 10 3f da 3c fa 82 75 bd 50 ac af 3b
       -0.013491154 0.026641399 -0.059939362 0.0053611174
000070 f8 9a 28 bd 82 52 55 3d bc bb 0b 3d 20 e4 61 bc
       -0.041163415 0.05208064 0.034114584 -0.013787299
000080 ae d2 29 bd a0 b2 84 3b 24 b6 71 bd b4 b4 80 3c
       -0.041460685 0.004049614 -0.059011593 0.015711166
000090 d6 47 4e bd c4 74 fe bc 7e b6 21 bd fe 37 05 3d
       -0.050361477 -0.031061538 -0.03948068 0.0325241
0000a0 d4 ef 49 bd 08 56 a2 bc 80 1a 57 3c 64 67 73 bd
       -0.049300984 -0.019816414 0.013128877 -0.059424773
0000b0 60 91 9c bb 0a dd 10 3d 0e 37 58 bd a4 f6 67 3d
       -0.0047780722 0.03536705 -0.05278688 0.0566317
0000c0 a4 a7 f3 3c 3c f0 8b bc aa 11 0b bd 24 34 7a bd
       0.029743023 -0.017082326 -0.033952393 -0.06108488
0000d0 7c 85 f4 3c 5a c5 59 3d 7e 6d 3f bd 28 75 4e bc
       0.029848807 0.053166725 -0.04673528 -0.012601174
0000e0 4c 06 95 bc 00 ce 14 bb 4c 18 90 3c 40 66 fd ba
       -0.01819148 -0.0022705793 0.01758971 -0.0019332841
0000f0 a0 ec 51 bd 0c f8 00 bd 50 cd 2d 3c e4 66 08 bd
       -0.051251054 -0.031486556 0.010608032 -0.03330125
000100 7a eb 52 bd fe 89 53 bd 7e 50 5f 3d 26 80 7e bd
       -0.0514941 -0.05164527 0.054520123 -0.06213393
000110 2e 8e 6d 3d 00 de b2 bb f0 1e 25 3c 76 42 75 bd
       0.05799692 -0.0054585934 0.010078177 -0.059877835
000120 a6 00 00 3d 08 49 62 bd 18 2f b8 3c 5a b4 36 3d
       0.03125062 -0.05524543 0.022483394 0.04460559
000130 c0 db 28 3d 40 8c 2c 3c a0 d9 e3 bc 54 61 34 3d
       0.041225195 0.010531485 -0.027813733 0.04403813
000140 b2 b0 74 bd 40 ca 5d bb 04 3d 80 bc 16 7e 5e bd
       -0.059738822 -0.0033842474 -0.015654095 -0.054319464
000150 1c 65 1b bd fa 28 6a bd e6 3d 04 3d 88 b8 6f bd
       -0.037938222 -0.057167985 0.032285593 -0.058525592
000160 38 5a 12 bc bc 16 82 3c 58 a3 f7 bc 30 7b c6 3b
       -0.008932643 0.015879981 -0.030229256 0.0060571656
000170 28 d8 20 3c 72 a8 68 3d 9c f8 a9 bc 2c 93 ae bc
       0.009817161 0.056801267 -0.020748429 -0.021310411
000180 7c 33 57 bd 4c d7 2d 3d a8 6c 12 bd 80 5c d5 3b
       -0.052539334 0.04244165 -0.035748154 0.006511271
000190 7a ee 2a bd 40 ad eb bb 9e 4c 2b 3d 6e 7b 6f 3d
       -0.041731335 -0.007192284 0.041821115 0.05846732
0001a0 24 5b 77 bd 88 27 c9 bc 52 70 14 bd e2 b2 41 bd
       -0.060389653 -0.024554983 -0.03623993 -0.047289737
0001b0 ca 39 54 3d 94 ff a5 3c 80 11 0b 3a 00 8e 1a 3a
       0.051812924 0.02026347 0.0005305037 0.00058957934
0001c0 c8 0b be bc 90 04 7a 3d 2c f7 c4 3c b0 b9 83 3c
       -0.023198977 0.061039507 0.024043642 0.016079754
0001d0 ce 76 30 bd 04 54 a8 3c 34 85 6d bd 48 35 41 bd
       -0.04308205 0.020547874 -0.05798836 -0.047169954
0001e0 60 67 38 3b 00 dc df ba c4 23 01 3d 40 2e ce 3b
       0.0028137788 -0.0017079115 0.03152825 0.0062921345
0001f0 c0 09 09 bb ec f9 00 bd 46 f2 3e bd 6e ab 03 3d
       -0.0020910352 -0.031488344 -0.04661777 0.03214591
000200 14 f6 4f bd 70 0a 95 3b 60 09 93 bb a0 d5 c3 bc
       -0.050771788 0.0045483634 -0.0044872016 -0.023905575
000210 28 14 52 bc 20 aa 09 3c 42 a3 5f bd a0 ed 3b bc
       -0.012822188 0.008402377 -0.054599054 -0.011470228
000220 68 2d 4d 3c 64 a4 f6 3c 3c 65 5c 3d 40 93 02 bc
       0.012523033 0.030107684 0.053807482 -0.007969677
000230 9c c5 fd bc f8 0a 0c 3d 88 7a 69 bd 72 e3 24 bd
       -0.030978017 0.034190148 -0.05700162 -0.04025597
000240 f6 35 45 3d 14 98 49 bd 80 b4 a7 bb f0 17 3b bd
       0.048147164 -0.0492173 -0.005117953 -0.045677125
000250 c0 f2 96 ba 9c b6 f1 3c 08 97 5a 3c 20 91 0d 3c
       -0.0011516437 0.02950602 0.013341673 0.0086405575
000260 76 98 1f bd d8 8c 7a bd 04 8a 39 bd b8 10 cc bc
       -0.038963757 -0.061169475 -0.045297638 -0.024910316
000270 60 41 2a bb 7e 7c 06 bd d8 1c 06 3c dc 62 e4 bc
       -0.0025978908 -0.03283357 0.008185588 -0.027879171
000280 d8 9c d0 bc 70 10 6d 3c c8 92 32 bd 98 68 4c bc
       -0.025465414 0.014469251 -0.043597013 -0.012476109
000290 f8 05 e9 3c 2e fe 24 3d c6 17 55 3d 28 18 42 bd
       0.028445229 0.040281467 0.052024625 -0.04738632
0002a0 d4 aa 11 bd 1c 20 f4 bc d4 95 3d bd 02 d5 1e bd
       -0.035563305 -0.029800467 -0.046285465 -0.03877736
0002b0 98 33 5f 3d cc 37 84 3c ac b3 77 bd 28 9f 40 3c
       0.054492563 0.016139887 -0.060474083 0.011756696
0002c0 c0 af 2b 3c 5c 28 46 bd b8 6f 97 3c 10 05 49 bc
       0.010478914 -0.048378333 0.018485889 -0.012269273
0002d0 d0 dc ad 3b 00 9e e5 ba e6 94 18 bd 36 98 65 bd
       0.005305864 -0.0017518401 -0.037251376 -0.056053363
0002e0 c8 39 74 3d bc 74 92 3c a8 4f 5a bc 40 8e 95 3a
       0.059625417 0.017877929 -0.013324656 0.0011410192
0002f0 cc 82 48 3d 60 b2 1b 3c 6e 54 48 bd a0 2c 7a 3d
       0.048952863 0.009502977 -0.048908643 0.061077714
000300 c8 c6 7b bc 96 6a 38 bd 14 4c 8d bc f0 f7 3b 3c
       -0.015367217 -0.045023523 -0.017248191 0.011472687
000310 1c 3f e0 3c ac 7b aa 3c 80 d3 d9 3c 24 a2 33 3d
       0.027373843 0.020810924 0.026590109 0.0438558
000320 2a 77 52 bd 10 14 61 3c 38 f9 1a 3d 02 46 14 bd
       -0.051383175 0.013737693 0.03783533 -0.036199577
000330 46 85 09 bd 60 e0 7f 3c 08 06 1b bc a4 c4 00 3d
       -0.033574365 0.01561746 -0.009461887 0.03143753
000340 e8 5d 24 3d b2 ea 61 3d 4c dd cd bc b2 a0 4e bd
       0.04012862 0.055155464 -0.025129937 -0.05044622
000350 60 d8 92 3b cc 12 10 3d 98 29 75 3d fc 96 21 bd
       0.0044813603 0.035174176 0.05985412 -0.03945063
000360 30 4a 3f bc b8 65 16 3c fe 26 7a 3d a8 0b b7 bc
       -0.0116754025 0.009179525 0.061072342 -0.022344425
000370 b0 65 48 bc 48 51 6f bd f8 4f 3e 3d 36 28 5b bd
       -0.012231275 -0.058427125 0.046462983 -0.053505145
000380 34 fd 66 3d 7c 9a 1b 3d 10 1b 8a bb 00 97 34 bc
       0.056393817 0.037989125 -0.004214652 -0.011022329
000390 c0 6a 58 bc e6 9e 0d bd 20 7c fa 3b 6c fa 6f bd
       -0.013209045 -0.034575365 0.0076441914 -0.05858843
0003a0 66 f5 63 bd a6 b4 20 bd 6a d9 4f bd 48 bf a9 bc
       -0.055653952 -0.03923478 -0.05074445 -0.020721093
0003b0 c8 ee 22 bc 28 32 5b 3d 00 a0 22 ba c6 e0 44 bd
       -0.009944625 0.05351463 -0.00062036514 -0.048065923
0003c0 f2 ab 60 3d 30 53 66 3d 3c 29 60 bd e8 46 bf 3c
       0.05485148 0.056231678 -0.054726824 0.02334924
0003d0 90 3c 00 bd 40 02 ce 3c 1e f9 5b 3d ca 7b 2e bd
       -0.031307757 0.025147557 0.053704374 -0.042598523
0003e0 96 3e 4e 3d d2 23 01 bd 30 8e 7c bd 8c 6f 8c 3c
       0.050352655 -0.0315283 -0.061659038 0.017143033
0003f0 9e a2 08 bd 64 97 86 3c 7a 40 06 3d b4 4e 11 bd
       -0.03335821 0.01642961 0.032776333 -0.035475448

fc3.bias f4 [256]
000000 00 cb 23 bd b0 e7 06 3d 60 d2 bd 3b 20 59 75 bc
       -0.039988518 0.0329358 0.005792901 -0.014974862
000010 64 f1 85 bc b8 76 de 3c e2 3a 66 3d e0 5f 71 3b
       -0.016350456 0.027156219 0.0562085 0.0036830828
000020 90 b6 e8 bc 34 89 91 bc d0 46 3a bc 92 e4 2d 3d
       -0.028407365 -0.017765619 -0.011369422 0.04245431
000030 48 6e 34 3d bc 66 aa 3c 78 81 e0 3c 16 42 3c bd
       0.044050485 0.02080094 0.027405486 -0.045961462
000040 88 d4 a9 bc 50 96 79 bd 30 99 9c bc 5c ee c7 bc
       -0.020731226 -0.060934365 -0.019116014 -0.02440565
000050 58 a6 04 bc fa 9f 59 bd 94 fa 85 3c d4 f8 d7 bc
       -0.0080963 -0.05313108 0.016354837 -0.026363768
000060 24 69 9b bc 12 54 30 bd 00 a8 3c bb 0e d0 33 3d
       -0.018971033 -0.043048926 -0.002878666 0.04389959
000070 00 e5 76 3c 5c 24 e4 3c b4 58 c5 bc 40 56 b2 bc
       0.015069246 0.027849369 -0.024090149 -0.021769643
000080 e6 35 78 bd 00 08 df 38 c0 67 eb ba d2 d5 4d 3d
       -0.060598277 0.00010634959 -0.0017959997 0.050252743
000090 6c cd 05 3d 40 2f 0e bb 98 ff ba 3c c0 40 48 bc
       0.03266661 -0.0021695644 0.022826955 -0.012222469
0000a0 b0 4b 9c bb d4 24 68 bd 10 8e 90 bc c0 40 27 3d
       -0.004769765 -0.056675747 -0.017645866 0.040833235
0000b0 b0 f5 0a bc 04 d8 26 bd 2e 9a 3b bd ea 58 6c bd
       -0.008481428 -0.040733352 -0.045801334 -0.057701983
0000c0 48 56 a7 3c 90 11 71 bc e8 58 1f 3c 0a 59 60 3d
       0.020426884 -0.01471366 0.009725787 0.054772414
0000d0 9a 45 2d bd 00 51 3c bd e6 8b 12 bd 54 11 d3 3c
       -0.042302705 -0.045975685 -0.03577795 0.025765099
0000e0 3c 35 fc 3c 08 21 4a 3c ae 2e 64 bd e4 04 a5 bc
       0.030787103 0.012336977 -0.05570858 -0.020143934
0000f0 08 cd 64 bd fc 59 82 3c 48 21 0f bc 40 27 29 bb
       -0.055859596 0.015912049 -0.008735962 -0.0025810748
000100 6e a5 00 3d 3c 63 67 bd 60 10 8c bc 2c 30 8d 3c
       0.031407766 -0.05649112 -0.017097652 0.017234884
000110 cc f5 f2 bc a0 7c cf 3c 70 f4 33 3d 6e f4 6e 3d
       -0.02965822 0.02532798 0.043934286 0.058338575
000120 40 cb 5f 3c 48 9f 1a bd aa 58 2a bd 56 5f 19 bd
       0.013659298 -0.03774956 -0.041588463 -0.037444435
000130 10 be 3b bd e0 74 a6 bc d4 0d fd 3c f2 2a 4a bd
       -0.045835555 -0.020319402 0.030890383 -0.049357362
000140 7c 35 1b 3d e0 f3 4d 3b f4 57 06 bd 88 12 50 bc
       0.037892804 0.0031425878 -0.032798722 -0.012699731
000150 bc 84 89 3c d4 d7 5e bd 00 b3 91 3b f6 e5 41 3d
       0.016786925 -0.05440505 0.0044463873 0.04733845
000160 f2 1d 6b bd a0 e1 f9 3c 00 2d c3 39 f6 4d 51 bd
       -0.057401605 0.030503094 0.00037226826 -0.05109974
000170 bc ec a6 3c 18 27 41 bd 0e 4a 11 bd 1a d4 4d 3d
       0.020376556 -0.047156423 -0.035471015 0.050251104
000180 10 f6 b7 bc e0 5b 15 bd 60 f3 6c bd 5c 7f 42 bd
       -0.022456199 -0.036464572 -0.057849288 -0.04748474
000190 98 91 38 bc c0 d1 70 bc fc 34 4b 3d a8 e2 ba 3c
       -0.011265181 -0.014698446 0.049611077 0.022813156
0001a0 e8 f8 77 3d 80 06 ae ba fe de 4e 3d 1c a6 a6 3c
       0.06054011 -0.0013277084 0.05050563 0.020342879
0001b0 24 d6 83 bc 48 d3 a0 bc b8 28 46 3c 88 36 5c 3c
       -0.016093321 -0.019631997 0.012094669 0.013440736
0001c0 70 65 72 3c 3e 02 78 3d 86 12 61 bd 2e 9d 22 3d
       0.014794692 0.060549013 -0.054949306 0.03970068
0001d0 98 5e 12 3d d2 1e 40 3d 3c 03 c4 bc 10 a4 dc 3c
       0.035734743 0.046904393 -0.023927324 0.0269337
0001e0 a8 15 42 bd 00 03 98 ba 90 2d 95 3b 78 f2 48 3d
       -0.047383934 -0.0011597574 0.0045525506 0.04905936
0001f0 64 9d e5 3c e0 a4 15 3c e0 55 45 3b 20 9a 2c 3c
       0.028029151 0.009133548 0.0030111 0.010534793
000200 a0 42 5e 3b f8 d6 0d bc 44 3c d5 3c 00 a0 9b 3a
       0.0033914223 -0.00865721 0.026029713 0.0011873245
000210 6c 9c f9 3c a2 bf 59 bd d4 db 9e 3c cc c3 9f bc
       0.030470096 -0.05316127 0.019391932 -0.019502543
000220 24 c2 94 3c b4 75 d1 3c 44 c2 a8 bc fc ab 07 3d
       0.01815898 0.02556882 -0.020600446 0.033123
000230 dc fe d0 bc d8 23 bb 3c a4 da 4e bd a0 8e c9 bc
       -0.025512151 0.02284424 -0.05050148 -0.024604142
000240 44 ed 88 bc c8 eb 3d bd 7e de 1e bd f4 71 00 3d
       -0.0167147 -0.046367437 -0.038786404 0.031358674
000250 b0 2f 34 3d 30 57 9a bc d4 f2 93 3c 90 10 94 3c
       0.04399079 -0.018840402 0.018060125 0.018074304
000260 80 c7 99 bb 68 99 31 bd 00 70 6a 38 10 90 dd 3b
       -0.0046929717 -0.04335919 5.5894256e-05 0.0067615584
000270 6a a4 26 3d fc d6 60 3d 94 57 37 bd 78 fe 7f bd
       0.04068414 0.054892525 -0.044761255 -0.06249854
000280 d8 9a 44 3d d4 bb 87 bc c0 26 ae 3c cc c3 2e bd
       0.047999233 -0.016569056 0.021258712 -0.042667195
000290 c8 cc c4 bc d0 a9 bf bc ba e7 3c bd 60 50 dd bb
       -0.024023429 -0.023396403 -0.04611943 -0.006753966
0002a0 c0 a7 b7 3a 00 67 eb bb 10 62 6e 3c d6 8c 5e 3d
       0.0014011785 -0.0071839094 0.014549747 0.05433353
0002b0 a0 5c ca 3b 56 f0 3e bd 36 fd 53 3d d0 ca d6 3c
       0.0061755925 -0.04661592 0.051755153 0.026219755
0002c0 0a 15 1a bd 58 c4 4c bd 98 a5 60 3c 76 88 56 3d
       -0.03761772 -0.049991935 0.013711356 0.052376233
0002d0 00 40 62 b7 78 fc 56 3d 60 31 52 3c 84 10 11 bd
       -1.3485551e-05 0.052486867 0.012829155 -0.03541614
0002e0 b0 a4 25 3c 84 a8 ae bc b6 f5 04 bd ce e6 46 bd
       0.010110065 -0.021320589 -0.03246089 -0.048559956
0002f0 e0 09 ae 3b 4c c6 c1 bc 6a d9 77 bd 40 ce c2 3a
       0.005311236 -0.023654126 -0.060510077 0.0014862493
000300 a0 d0 47 3c 40 a6 9d bb e0 c9 13 3b 42 4a 3a 3d
       0.012195736 -0.0048110783 0.0022550747 0.045480974
000310 a0 ed 0f 3b e8 e6 47 bd 74 36 40 3d 38 3a 15 3d
       0.0021961704 -0.048804194 0.04692693 0.036432475
000320 cc f4 2b 3d 40 28 3a bb 00 48 db 3c f0 22 99 3c
       0.041981503 -0.0028405339 0.02676773 0.018693417
000330 c0 79 50 3d 10 45 ce 3c 62 a9 69 bd a2 e3 45 bd
       0.05089736 0.025179416 -0.0570463 -0.04831279
000340 4c cf 24 3d 24 00 7e bd a0 8a 6f bd 38 36 a8 3c
       0.040236756 -0.062011853 -0.058481812 0.020533666
000350 3e 55 27 bd fc 9b c3 3c 64 3c da bc 66 10 07 bd
       -0.040852778 0.02387809 -0.026640125 -0.032974623
000360 14 df 28 bd e4 83 b5 bc 20 61 23 3b b0 cf 60 3d
       -0.04122837 -0.022157617 0.0024929717 0.054885566
000370 e8 5a 8b 3c 60 72 d6 bb 20 6b 01 3c 1e 1b 03 3d
       0.01701112 -0.0065443963 0.007899076 0.032008283
000380 0a a9 44 3d c0 b8 9f bb 08 ac 07 bc 5a 5e 10 bd
       0.04801277 -0.004874319 -0.008280762 -0.03524623
000390 80 34 ff 3b 00 9c fb bb 6c 66 06 3d ee b1 1a 3d
       0.007788241 -0.0076785088 0.03281252 0.037767343
0003a0 50 c4 44 bc 30 a5 95 bb 90 c9 d2 3b dc 65 15 3d
       -0.012009695 -0.004566811 0.0064327195 0.036474094
0003b0 24 07 86 bc 84 8a 21 bd 80 1e bf bc d6 77 57 3d
       -0.016360827 -0.03943874 -0.023329973 0.05260452
0003c0 d4 a0 b2 bc 10 da 09 3d 6e 4c 70 3d 0e e3 75 bd
       -0.021805204 0.033655226 0.05866664 -0.06003099
0003d0 54 a2 bf bc 64 77 e5 bc e0 52 9a 3c 40 1d a4 3b
       -0.023392834 -0.028011031 0.018838346 0.0050083697
0003e0 c2 79 3a bd a8 73 69 bc d6 1d 3f 3d 14 14 51 3d
       -0.045526274 -0.014248766 0.046659313 0.05104454
0003f0 d0 c6 bd 3b d2 d0 24 3d 7a 3d 08 3d fc 8a 52 3d
       0.0057915226 0.04023821 0.033261754 0.051402077

output.weight f4 [4, 256]
000000 50 80 7a bd 88 ee 0c bc 88 77 76 bd 18 6c 78 3c
       -0.061157525 -0.008601792 -0.060172588 0.01516249
000010 c8 c6 df 3c 90 f8 2a 3c 14 83 2a bd f4 6c 0b bd
       0.027316466 0.0104352385 -0.041628912 -0.034039453
000020 e4 94 8d bc b0 85 46 bc 74 af f3 3c f0 2c 2d bd
       -0.01728291 -0.0121168345 0.029746749 -0.042279184
000030 3c d4 bc 3c f6 79 70 bd aa f5 2c bd 40 c7 df 3b
       0.02305042 -0.05871006 -0.04222647 0.0068291724
000040 d8 88 00 3d 2e d3 0f bd 8e 06 40 bd c0 8b e5 bc
       0.031380504 -0.035113506 -0.04688125 -0.02802074
000050 f0 0c a5 3b 86 b5 77 bd 20 0e 09 bc c8 4e 75 bc
       0.0050369427 -0.06047585 -0.008365184 -0.014972396
000060 00 67 76 3a 3c e6 61 3d e0 4c b3 bb 6c a8 62 3d
       0.00093995035 0.05515121 -0.0054718107 0.0553364
000070 50 c2 0c bd 98 89 1b bd 00 60 de b8 c0 0c 01 bc
       -0.034365 -0.037973017 -0.00010603666 -0.007876575
000080 36 66 69 3d c0 81 63 bd e6 97 20 bd 50 82 f1 bb
       0.05698224 -0.05554366 -0.03920736 -0.007370271
000090 d8 81 6c bd d6 cc 66 3d be c4 78 3d 70 46 0b bd
       -0.057741016 0.05634769 0.060734503 -0.03400272
0000a0 b4 55 1c bd f4 f8 08 bd 8c 29 01 3d d0 15 68 bd
       -0.03816767 -0.033440545 0.031533763 -0.056661427
0000b0 e0 4b 09 3b 94 5a ed bc 18 1c a5 3c 26 d1 32 3d
       0.0020949766 -0.028973855 0.020154998 0.04365649
0000c0 90 10 c7 bc 36 a2 3c 3d 9c ff 6a 3d c6 e3 7e bd
       -0.02429989 0.046053134 0.057372674 -0.06222894
0000d0 88 62 43 3d 38 ce 77 3c 90 31 65 bc 80 af 0f bc
       0.04770139 0.01512485 -0.013988867 -0.00876987
0000e0 00 4e e0 3b 50 72 45 3d 5e 40 3b bd 7c 41 bb 3c
       0.006845236 0.04820472 -0.045715682 0.022858374
0000f0 00 f3 44 3b 5a a8 01 3d 9c 75 42 bd 6c 45 4f 3d
       0.0030052066 0.031654693 -0.047475442 0.050603315
000100 18 56 1e 3d 00 74 85 b8 a0 82 2d bb 9e c8 61 3d
       0.038656324 -6.363541e-05 -0.0026475564 0.055122964
000110 02 9e 57 3d 1a 4e 77 bd 18 01 66 3c 34 37 58 bd
       0.052640922 -0.060377218 0.014038347 -0.05278702
000120 c0 4c ac ba e0 fd 27 3d e8 ec 58 bc a8 d3 27 3c
       -0.0013145432 0.0410136 -0.013240077 0.010243334
000130 4c 93 16 bd ee a7 24 bd 40 79 5a bb 40 6b 81 ba
       -0.036761567 -0.040199213 -0.003333643 -0.0009873882
000140 16 97 56 3d da d7 59 bd d0 a3 55 3c cc a1 ba 3c
       0.05239018 -0.053184368 0.013039544 0.022782229
000150 1c 71 f8 bc 00 71 46 bc 2c 4f 9c 3c 10 2f b9 3b
       -0.030327372 -0.012111902 0.01908072 0.0056513622
000160 00 9e ab bc d8 76 68 3c 04 e2 a3 bc 14 fc 64 bd
       -0.020949364 0.014188491 -0.020005234 -0.055904463
000170 8e 27 43 3d 10 14 44 bc e8 9b 37 bc a8 56 7a bc
       0.047645144 -0.011967674 -0.011206605 -0.0152794495
000180 76 a2 6e 3d 06 17 00 3d 20 97 d9 3c a0 9a 65 3d
       0.058260404 0.031271957 0.02656132 0.056055665
000190 62 8c 7b bd 40 15 54 3c 24 92 96 bc 40 4f 23 bd
       -0.061413176 0.0129445195 -0.018380232 -0.0398705
0001a0 48 ea a4 3c 6c 70 70 3d 44 8b 83 bc 84 51 1f bd
       0.020131245 0.058700964 -0.016057618 -0.0388961
0001b0 a4 d3 74 bd 80 97 6a bc 40 fc 0f bc d0 d7 f5 3b
       -0.05977215 -0.014318347 -0.008788168 0.0075025335
0001c0 00 51 dd 3a a4 87 19 3d 72 ed 22 bd d6 db 3e 3d
       0.0016885102 0.037482873 -0.039777227 0.04659637
0001d0 c8 cf b4 bc 60 36 25 3d 68 3e 17 3d d8 e4 31 bc
       -0.022071734 0.04033506 0.03692475 -0.010857783
0001e0 58 cd 1b 3d 18 9a 60 bc 7a ec 3d bd 80 86 e1 3a
       0.038037628 -0.013708614 -0.0463681 0.0017206222
0001f0 00 9e 90 3a 00 4c c2 ba c8 f5 7d bd e4 0c 1b bd
       0.0011033416 -0.0014823675 -0.062001973 -0.03785409
000200 fc 3c d8 bc fc e4 92 bc 04 60 30 bd 00 2a 1c bc
       -0.026396267 -0.017931454 -0.043060318 -0.009531498
000210 50 9e 01 3d 6c 85 af bc 6e 67 29 bd 08 6c 39 3c
       0.03164512 -0.021425925 -0.041358404 0.011317261
000220 7e dd 2f 3d ac df b6 bc e0 2d f7 3c c8 04 7b bc
       0.04293584 -0.022323452 0.030173242 -0.015320964
000230 1c d7 30 bd 54 87 d2 3c 94 d7 05 bd e4 7c f8 bc
       -0.043173894 0.025699295 -0.032676294 -0.03033299
000240 54 e0 d0 3c e0 1c 98 3b de 6b 69 3d 9a 30 77 bd
       0.025497593 0.004642114 0.056987636 -0.060349084
000250 40 09 d6 3c 30 86 b1 bc 02 e7 27 bd 58 88 e2 3c
       0.026127458 -0.02167043 -0.04099179 0.027652904
000260 d6 58 55 3d 30 c5 03 3c 10 72 d3 3b 42 2e 5a bd
       0.052086674 0.008042619 0.0064528063 -0.05326677
000270 6c df ae bc b0 4d 46 3c f0 d6 54 3d 4c a3 b4 bc
       -0.02134677 0.012103483 0.051962793 -0.022050522
000280 a8 d4 5c 3c 98 7b 63 bd 14 55 61 3d 6e 01 42 3d
       0.013478436 -0.05553779 0.055012777 0.047364645
000290 b0 61 68 3d f8 34 34 bc 00 5d 52 bd 40 fb 6a 3b
       0.056733787 -0.010998957 -0.051358223 0.0035855323
0002a0 98 e7 af bc 24 e9 19 3d 82 04 16 bd fe 6a 35 bd
       -0.021472737 0.037575856 -0.036625393 -0.04429149
0002b0 fc b5 56 3d f0 8b 98 3c e0 b0 d7 3b a8 4a 15 bc
       0.052419648 0.018621415 0.0065823644 -0.009112038
0002c0 c0 05 9b bb 50 7f 3b bc 3c e4 73 3d 84 b2 e8 3c
       -0.00473091 -0.011443928 0.059543833 0.028405435
0002d0 84 13 83 bc 20 e2 30 3c e8 c9 db bc 48 3d da bc
       -0.016000517 0.0107961 -0.026829675 -0.02664055
0002e0 40 96 42 bb b8 7b 34 3c 98 a9 8d bc f0 fb df 3b
       -0.0029691607 0.011015825 -0.017292783 0.006835453
0002f0 20 98 33 bc 40 bb e5 bb a4 02 06 bd 00 fd 97 3a
       -0.010961562 -0.0070108473 -0.032717362 0.0011595786
000300 84 92 45 bd 88 16 f9 3c fc 29 7f 3d 60 4e 7f bb
       -0.04823543 0.030406252 0.0622959 -0.0038956627
000310 8e af 19 bd 60 ab 10 bd 1a 2c 7d bd 38 82 20 3d
       -0.037520938 -0.035319686 -0.061809637 0.039186686
000320 f0 f1 88 3c ec 35 48 bd 30 2a d3 bb 8c 77 8a 3c
       0.016716927 -0.04887955 -0.006444238 0.016902708
000330 48 15 21 3c c0 5a dc 3c 88 35 fc 3c a8 e7 15 3d
       0.009831734 0.026898742 0.030787244 0.036597878
000340 88 0d 60 bc 64 c6 42 bd c4 28 48 bd d8 a3 f9 3c
       -0.013675101 -0.04755248 -0.048867002 0.030473635
000350 d0 0b 25 3c 40 c4 b1 bc 1a 0c 4c 3d a4 eb e5 bc
       0.010073617 -0.021700025 0.04981623 -0.028066464
000360 10 8f ca 3c 80 ac 36 3a 16 77 24 3d 04 a1 c2 bc
       0.02472642 0.00069684535 0.04015263 -0.023758419
000370 98 d9 2c 3c 08 51 1b 3c e6 3a 78 3d 18 de 54 3d
       0.010549925 0.009479769 0.060603045 0.051969618
000380 08 ef 6e bd c0 7b 58 bd be 41 62 3d 06 47 37 3d
       -0.058333427 -0.052852392 0.055238478 0.044745468
000390 a2 a0 26 bd e0 c4 50 3c 7e f2 61 3d 60 85 bb bc
       -0.040680535 0.012742251 0.0551629 -0.022890747
0003a0 7c 43 ba bc 2c bf 04 3d 5a 4d 53 bd 0c 11 88 3c
       -0.022737257 0.03240888 -0.05158744 0.016609691
0003b0 ec 18 94 3c d0 ff cf bc 48 cb 05 bc 74 e0 97 bc
       0.01807829 -0.025390536 -0.008166142 -0.018539645
0003c0 50 d2 17 bc c0 4f e9 ba 6e aa 00 3d f0 d3 35 bc
       -0.009266451 -0.0017800257 0.031412534 -0.011097893
0003d0 a8 02 70 bc aa fa 60 3d da cf 7e bd 36 74 7b bd
       -0.014649071 0.054926552 -0.06220994 -0.061390124
0003e0 20 17 b9 bb 40 68 87 bc 2e 50 73 bd 3c 4b b3 bc
       -0.0056485087 -0.016529202 -0.059402637 -0.02188646
0003f0 ae 14 67 bd 4c bb f9 3c 38 30 71 3c ec 65 57 3d
       -0.056416206 0.030484818 0.014720969 0.052587435

output.bias f4 [4]
000000 00 3d e6 3a 8c 47 d7 bc f0 cd ac 3b f6 41 77 3d
       0.0017565787 -0.026279233 0.005273573 0.06036564
