fetch_sticky_mittens_step/networks/ours_10k_block_3_uber_level_0_seed_250/network_reach_object_2.pth (torch, 596855 bytes, 8 tensors)

fc1.weight f4 [256, 60]
000000 f4 20 22 3b a6 fb 6b bd 5f 0e c4 3d 34 1d 04 3e
       0.002473888 -0.057613038 0.095730536 0.12901765
000010 87 31 2d bc 9e cb 02 3d 29 d7 f8 3d 62 ee 9a bd
       -0.01057089 0.031932466 0.121504135 -0.07564999
000020 16 5a e1 3d 58 84 31 bd 91 cf 82 bd 51 b6 38 bd
       0.11003511 -0.043339103 -0.063872464 -0.045095745
000030 1f a3 04 bd d5 a2 9b bc e4 d1 14 3d bf f0 14 3a
       -0.032382127 -0.018998543 0.03633298 0.0005681626
000040 01 05 fe 3c 45 50 a8 3d d5 99 33 bd bb 24 dc bd
       0.031008245 0.08218435 -0.043847878 -0.10749193
000050 4f a7 99 3c 45 ad eb bd 40 a8 b3 3d ce a0 b0 3d
       0.018756537 -0.11507658 0.087723255 0.08624421
000060 38 6b 01 3e 84 43 ae 3d ec fa d8 bd 76 e4 de 3d
       0.12638557 0.08508971 -0.105947345 0.10883419
000070 fe 0a c7 bd e9 6e db 3d 6b 97 35 3c 56 d7 c0 bc
       -0.097188935 0.10714514 0.011083464 -0.02354018
000080 f9 26 98 bd 89 f9 93 3d 07 6d e0 3c ea ce 7e 3d
       -0.074293084 0.072253294 0.027395738 0.062209047
000090 55 3a 02 bd e8 f7 9b 3d 95 5d bd bd d6 0c 9f 3d
       -0.03179391 0.07615644 -0.09246365 0.0776612
0000a0 16 bc 97 3c 0e 9b 32 3d 08 df 89 bd fe a0 f9 3d
       0.018522304 0.043604903 -0.06731993 0.1218891
0000b0 af a1 80 bc c8 4c 1a bd d3 80 7e 3d c8 69 a5 bb
       -0.015702097 -0.03767088 0.062134575 -0.0050480105
0000c0 d5 3a ce 3d 81 86 b4 3b 89 95 c9 3d 83 85 1f bd
       0.10069815 0.005509198 0.09842975 -0.038945686
0000d0 73 57 57 bd 4d c8 8b 39 7e f2 cd 3d aa a9 71 bd
       -0.052573632 0.00026661382 0.10056017 -0.058999695
0000e0 da 0b 88 bd 70 77 ba bd 0d 32 46 3d 5d 6b e7 3d
       -0.066428855 -0.09104812 0.048387576 0.11299775
0000f0 b8 7d ad 3d 75 42 d4 bd 99 d7 1e bd 26 b9 ed bd
       0.084712446 -0.10364238 -0.03877983 -0.1160758
000100 7f 4e cb bd ac 41 5d 3d 8c f8 c2 3d b7 0e 5b bd
       -0.09927081 0.054017708 0.09520063 -0.05348083
000110 3b db 87 bd 62 2d e2 bd 0b ec bd bc d1 65 db bd
       -0.06633612 -0.11043812 -0.023183843 -0.10712779
000120 83 0a ab bd 57 ab af bd 91 c0 f0 3d fe 94 9e bd
       -0.08351614 -0.08577602 0.11755479 -0.07743262
000130 33 a2 8f 3d 05 75 fa 3d ee b9 52 bd 91 50 4e bd
       0.07013359 0.12229351 -0.051446848 -0.050369803
000140 3b 69 16 3d 30 35 8c 3d c6 06 80 bd d6 02 82 3c
       0.03672145 0.06846082 -0.06251292 0.015870493
000150 8a 6b 57 bc db ca c2 bd 63 a8 02 3e 87 da d8 3d
       -0.013148198 -0.09511348 0.12759547 0.10588556
000160 aa 2a 0a bd 19 af a3 bc f1 fb 8b 3d 09 f2 f0 bb
       -0.033732094 -0.019980954 0.068351634 -0.0073530716
000170 6c 0d fb 3d 43 81 ce 3d ac 83 70 3d 5e 9d f3 3d
       0.122584194 0.100832485 0.058719322 0.1189525
000180 f9 8e a0 bc cd 4f d0 3d 7d d3 9f 3c b5 cc 93 3d
       -0.019599425 0.10171471 0.019510025 0.07216779
000190 c4 67 03 3d 19 fe a3 3d 33 c4 5f 3c 64 b9 a8 bd
       0.03208138 0.0800745 0.013657617 -0.082384855
0001a0 18 59 c8 bd 9d f1 c9 3a 30 af c0 3c 31 a3 f8 3c
       -0.09782618 0.0015407089 0.023521036 0.030351253
0001b0 80 f1 cd bd e2 78 a5 bd 73 e9 ae 3d 8b 4a 8d bd
       -0.10055828 -0.08079697 0.08540621 -0.068989836
0001c0 b3 52 1c bd 64 9d d8 bd 5d e2 e2 3d 42 cb bc bd
       -0.038164806 -0.10576895 0.110783316 -0.09218456
0001d0 71 bf 64 bd 44 04 d7 3d 4e 27 af 3c 1b 42 af bd
       -0.055846635 0.104988605 0.021381047 -0.085575305
0001e0 0a fc 88 bd fe d8 10 3d 26 22 58 3d 5e a9 3a bd
       -0.06688698 0.03536319 0.05276694 -0.045571677
0001f0 15 0e 5a 3d 4d 02 df 3d a0 35 b7 3d 07 b4 f8 3d
       0.053236086 0.10889111 0.08945775 0.121437125
000200 ce f1 16 3d fb 63 fe 3d 50 b9 f8 3d 5a 9b d3 3d
       0.036851697 0.124214135 0.121447206 0.10332365
000210 2a f3 bc bd 3b b0 e5 3d a1 22 44 bd 49 ed 76 bc
       -0.09226067 0.11215254 -0.047884587 -0.015071222
000220 1f 22 ee 3d 17 f8 db bd 52 f6 cf 3d 0f 70 df bc
       0.11627602 -0.10740679 0.10154404 -0.027275113
000230 29 e7 74 3d 6f 2a 9c bd 92 5c e8 bc 3d 64 ad bd
       0.059790764 -0.07625281 -0.028364453 -0.084663846
000240 8f 31 40 bd 0a 20 03 3e 13 6e 12 bd 33 82 8d bd
       -0.046922263 0.1280519 -0.035749506 -0.06909599
000250 a2 e0 a9 bc 63 5d 92 bd e4 7a 95 3d 6e 8b bf 3d
       -0.020736996 -0.07146718 0.0729883 0.09352766
000260 b2 7d 26 3d e1 eb e4 bd 60 31 dc bd a7 38 d8 bd
       0.040647216 -0.11177803 -0.10751605 -0.105576806
000270 67 4d 5d 3d 3a fa d9 bd 04 f6 92 3d 52 49 a7 bd
       0.054028895 -0.1064343 0.0717583 -0.081682816
000280 61 0d eb 3d 1d 95 fd bd a2 97 fb bd 53 4a b7 bc
       0.11477161 -0.12381957 -0.12284781 -0.022374308
000290 44 d2 ed 3b ad ef bb bd 59 e7 e5 3d 95 9b 4c 3d
       0.0072577316 -0.09176574 0.11225767 0.049953062
0002a0 ab 61 84 3c de f9 99 3d 2a 6c 43 3c 5f 15 03 be
       0.016159853 0.075183615 0.011927644 -0.12801121
0002b0 17 d3 d1 3d 93 31 c0 3d 76 b7 89 3d e0 8e 02 be
       0.1024534 0.093844555 0.067244455 -0.12749815
0002c0 b6 db cc bd a3 0d c4 3d 81 79 be 3d eb 0e 59 3d
       -0.10002844 0.095729135 0.09300519 0.052992743
0002d0 49 bb b9 3d 6a b5 7d 3c c1 32 73 3d ec a2 38 bc
       0.09068925 0.015485147 0.059374575 -0.011269312
0002e0 4c c7 df bc 30 e4 2a 3c cf 7e 0e 3d 95 df 7d bd
       -0.027316712 0.010430381 0.034788903 -0.061980803
0002f0 7b e1 a7 bd 57 b4 54 3b df 3b 5f bd 69 71 ac 3d
       -0.08197304 0.0032456124 -0.054500457 0.08420069
000300 fb a7 97 bc 88 cd b0 bd f7 c7 80 bc 43 83 b3 bd
       -0.018512717 -0.08632952 -0.01572035 -0.087652706
000310 3b 23 e2 bd 09 a9 19 bd 6f b3 e1 3d d5 06 17 bc
       -0.11041876 -0.03751472 0.11020552 -0.0092179375
000320 af 50 d1 3d 1d b3 c3 bd 67 88 59 3c ae fe f4 bd
       0.10220467 -0.095556475 0.01327715 -0.11962639
000330 7a 9e 42 3d 71 26 54 bd 47 9b b0 3d 08 8e ff bd
       0.047514416 -0.051794473 0.08623367 -0.12478262
000340 66 8e f1 bd bd b1 fe bc c3 70 d8 bd 68 8e cc bd
       -0.117947385 -0.031090612 -0.105683826 -0.09988099
000350 24 52 6b 3d 22 fa 2e 3d 8f 1a cf bc 00 4c a7 3c
       0.057451382 0.042719014 -0.025281219 0.020421982
000360 3c 6f c8 bd 57 3a e4 3d 1d ed 7b bd c2 35 8b 3d
       -0.09786841 0.1114394 -0.061505426 0.06797363
000370 58 2f b0 3c 62 9b b4 bd 64 3b 70 bd b8 8b bd bd
       0.02150695 -0.088186994 -0.05865039 -0.09255165
000380 d7 39 da 3d c7 02 c3 bd b8 77 d0 3d d7 d7 07 bc
       0.10655563 -0.09522014 0.101790845 -0.008291206
000390 a0 a8 aa 3d 03 25 69 bd a1 c2 5a bc 26 b6 c3 3d
       0.08332944 -0.056920063 -0.013352067 0.095562264
0003a0 18 85 c2 bd ff 38 cd bd 39 a7 9d bd cd 54 03 3e
       -0.09498042 -0.10020637 -0.07697911 0.12825318
0003b0 84 58 a4 3d 31 b8 cd bd 5f 57 2e bd 66 61 e5 bb
       0.080246955 -0.10044897 -0.042563792 -0.007000136
0003c0 bb 16 78 3a 47 eb 4a bd 08 03 15 3d ca 46 d8 bd
       0.00094638363 -0.049540784 0.036379844 -0.10560377
0003d0 05 e4 90 3d 2c 21 83 bd 59 29 77 bd a9 f4 44 3d
       0.07074741 -0.064028114 -0.060342167 0.04808489
0003e0 fe 32 e6 bc ff 7c fd 3b 38 1b a6 bd 02 dd 80 3d
       -0.028100487 0.007735848 -0.0811066 0.06292154
0003f0 5d 1a e4 bd 2e ba 8f 3d 39 9f 52 bd 42 8d 98 3d
       -0.11137841 0.07017933 -0.051421378 0.07448818

fc1.bias f4 [256]
000000 e7 17 c1 bd 72 c8 f3 3d 87 24 69 3d 7f f1 a3 bd
       -0.09428387 0.11903466 0.0569196 -0.08005046
000010 3b c8 be bd 36 3c e7 3d 68 45 38 bd d6 8e d8 bd
       -0.09315535 0.11290781 -0.044988066 -0.10574119
000020 d1 51 9a 3d 43 66 53 bd 51 62 ab 3d f4 d2 e6 3d
       0.075351365 -0.051611196 0.08368362 0.11270705
000030 86 2b 6f bd 32 3b aa 3d b3 16 89 bd 4a a5 89 3d
       -0.058391117 0.08312072 -0.06693783 0.067209795
000040 57 3c 54 bc 9e 1f 77 bd 43 de 03 be b9 48 5d bd
       -0.012953839 -0.060332887 -0.12877755 -0.05402443
000050 25 5a df bd 53 91 4a bd 09 30 bd bd 64 4b bc bd
       -0.109058656 -0.049455 -0.092376776 -0.09194067
000060 2d 4d 9b 3d 9b 10 b5 bc 1d c3 87 bd 37 84 3d bd
       0.075830795 -0.022102645 -0.06629012 -0.046268668
000070 f4 c7 da 3c 5f 7a 8d 3d 18 17 96 3c 75 54 a8 bd
       0.026706673 0.06908106 0.018321559 -0.08219234
000080 9a 86 90 bd 73 ce 73 bd 87 aa 87 bc 3f 93 46 bd
       -0.07056923 -0.059523057 -0.016560806 -0.04848027
000090 0a d6 be 3c 0a c2 26 bd 39 30 1f bd d5 87 82 bd
       0.023295421 -0.040712394 -0.038864348 -0.06373564
0000a0 b1 79 6a 3c 9f 65 d8 bd 6f 66 c1 3d ea 00 0d bc
       0.01431124 -0.10566258 0.09443366 -0.008606175
0000b0 08 3b 4c 3d 28 17 04 3e b5 c3 81 3d b8 e5 73 bc
       0.049860984 0.12899458 0.06336156 -0.014886312
0000c0 0d f3 2e bc eb 4d 94 bc 15 0a ea bd c5 02 f5 bd
       -0.010678065 -0.01810356 -0.11427704 -0.11963419
0000d0 0f 03 af bd 4c 1e b3 bd 48 62 c9 3d 4b 6f c8 bd
       -0.08545505 -0.08746013 0.09833199 -0.097868524
0000e0 ae fb b9 bc 70 cf f2 bd 37 d4 0c bd 24 74 67 bd
       -0.022703018 -0.11855972 -0.03438207 -0.056507245
0000f0 88 4e e1 3c fe c3 82 bd 1a 33 8b bd 85 33 bb 3c
       0.027503267 -0.06385039 -0.06796856 0.022851715
000100 b8 65 36 3a 8f 09 d9 3d c6 f5 b1 3d d6 48 f2 bd
       0.00069579063 0.10597526 0.08689456 -0.118302986
000110 d1 4a 85 bd 9e 56 88 3c 11 ac e7 3d db 4f d9 bc
       -0.06508411 0.016642865 0.11312116 -0.026527336
000120 c6 58 a2 bd 35 7e f1 bc 8f 49 cd 3d 10 b5 50 bd
       -0.079270884 -0.029479126 0.10023796 -0.050953925
000130 34 c0 42 bc d7 28 cb bd df a4 a2 3d 3d 41 c1 3d
       -0.011886645 -0.09919899 0.07941603 0.09436271
000140 b2 cd fa 3d 1d c0 03 be 94 f9 e6 3c be aa 87 3d
       0.122462645 -0.12866254 0.02819518 0.06624363
000150 a1 8c 5d bd 6c 0a a1 bc d8 7b 9f 3d c8 7a c2 3d
       -0.054089192 -0.01965829 0.07787293 0.09496075
000160 0d d7 cd 3d 9b 9d 14 3c 85 6b 86 3d de 30 fb 3d
       0.10050783 0.009070779 0.065634765 0.1226518
000170 0b 1c c3 3d 30 85 ba 3d 29 fe eb bd c0 fb 78 3c
       0.09526833 0.09107435 -0.115230866 0.015196741
000180 d3 11 c6 bd c6 13 03 3e fe 28 1b bd 16 e0 41 bd
       -0.096713684 0.12800512 -0.03788089 -0.047332846
000190 8f 0d e6 bd c8 c4 bd bd 58 a7 21 bc 6f da 30 bd
       -0.11233055 -0.09266049 -0.009866558 -0.043177065
0001a0 4b aa e7 bd b5 97 e5 3d 7d 29 48 bd 02 e5 8f 3c
       -0.11311778 0.112105764 -0.04886769 0.017565254
0001b0 c0 5b 2b bd e6 e7 2a 3d 86 53 62 bd 38 9c fc 3d
       -0.041835546 0.04172506 -0.055255435 0.12334484
0001c0 8a 94 4a bc 25 45 0d bc 72 9d 8e bd 78 bf 02 be
       -0.012364516 -0.008622442 -0.06963624 -0.12768352
0001d0 33 8d 4f bc 48 a0 2a 3b 1c ba de bd bc 0d 8f bc
       -0.012667942 0.0026035476 -0.10875341 -0.017462604
0001e0 38 0f 8b 3d 02 b0 43 3d 96 26 54 bd e2 c2 cc 3d
       0.06790012 0.047775276 -0.05179461 0.099981084
0001f0 ab 42 97 3c 18 14 ce bd 38 f3 f1 bd ef 4f 5c bd
       0.018464407 -0.10062426 -0.118139684 -0.053787168
000200 ce 3f 6a bd d2 60 da bd 05 81 c4 bb 96 77 df 3d
       -0.057189755 -0.10662998 -0.0059968256 0.10911481
000210 5e b3 48 3d da 74 cc 3c c0 b5 91 3d 28 53 5b 3b
       0.048999183 0.024958063 0.07114744 0.0033466313
000220 d7 90 88 3d 56 6b 42 3d fc 63 a3 bd 94 e7 7f bc
       0.06668251 0.047465645 -0.07978055 -0.015619177
000230 13 94 f2 3d 4c 97 98 3b 4d 92 af 3d a8 db 4a 3d
       0.11844649 0.004656708 0.085728265 0.049525887
000240 0d eb 24 bd 87 0b d9 3d 07 dd cc 3d 67 0b 8b bd
       -0.040263224 0.10597902 0.10003095 -0.06789284
000250 f7 ca c7 3d 1b 00 bb bc d1 57 fd 3b 3a 0b e4 3d
       0.09755509 -0.022827199 0.007731416 0.11134954
000260 d8 42 e7 3d 20 9a f5 bd d9 d7 6d bd 3c fc 02 be
       0.11292046 -0.11992288 -0.058067176 -0.12791532
000270 47 ba ae 3c 4f 4b ed 3d 65 79 09 3d 4f 3b e4 3d
       0.021329058 0.115866296 0.033563036 0.11144125
000280 66 76 cf 3d d9 6f e3 3c ce 09 ce bd d5 45 ea bd
       0.101300046 0.027763294 -0.10060464 -0.11439101
000290 ae bb c8 3c cc 6f be bd 64 39 ab bc 0f fa d6 bc
       0.024503555 -0.09298667 -0.02090139 -0.026242284
0002a0 b4 6a c5 3d ae 22 5f 3d 4d 8b 58 bb bf 83 72 3d
       0.09639493 0.054476433 -0.0033042014 0.059207674
0002b0 cd 18 72 bd 40 ef 66 bd 07 a8 ba bc ea 60 fc 3c
       -0.059105683 -0.05638051 -0.0227852 0.030807931
0002c0 78 23 0a 3d 25 25 e0 bd cc d0 da bd b1 ee 54 3b
       0.033725232 -0.10944585 -0.10684356 0.0032490904
0002d0 9c d5 c9 3d 5b 86 ff 3d 84 30 ea 3d a3 8d 6a 3d
       0.09855196 0.12476798 0.11435035 0.05726398
0002e0 a7 b8 61 3d 45 fc e5 3d 0b 77 ac bd d7 0c 3b bd
       0.05510774 0.11229757 -0.08421143 -0.045666542
0002f0 ae fa fe 3c 85 b2 b3 3d 70 95 ae 3d 71 18 ca 3d
       0.031125393 0.08774284 0.08524597 0.09867943
000300 43 15 b3 3d 8e bd 9b bc db 0d 6d 3d 95 6c ce 3d
       0.0874429 -0.019011285 0.05787454 0.10079304
000310 fe 79 e5 bc 07 0f 97 bc 78 c6 f5 bd fb 6c ec bc
       -0.028012272 -0.018439783 -0.120007455 -0.02886056
000320 77 62 18 bd dc 16 e3 3d 7b dd ca bc 40 16 01 be
       -0.03720328 0.110883445 -0.024763813 -0.12606144
000330 cf fa ef b9 f4 93 4d bd 6d 33 cf 3d 99 79 41 3d
       -0.000457725 -0.050189927 0.101172306 0.047235105
000340 08 e4 24 3d 87 09 d1 bc 1e ab 09 bd de 40 75 3c
       0.04025653 -0.025517238 -0.033610456 0.014969079
000350 34 34 25 3c f8 02 f4 bd 4e 71 e8 bd 0a 2b e7 bd
       0.010083247 -0.11914629 -0.11349736 -0.11287506
000360 ed 91 c3 bb 81 62 16 3d 8a 3e c8 bd 80 cd d1 3d
       -0.0059683234 0.036715034 -0.097775534 0.10244274
000370 b5 ef e3 3d 9f d7 83 bd 6d f0 a0 3d 21 19 6b 3c
       0.11129705 -0.06437611 0.078583576 0.014349253
000380 84 10 dd bd 2b dd 23 bd 07 ec e3 bd 36 dd 0e bd
       -0.10794166 -0.040005844 -0.11129003 -0.034878932
000390 77 db c1 bd 23 b2 b4 3b d0 7c f9 3d 4f ec 81 bd
       -0.09465688 0.0055143996 0.12182009 -0.063439004
0003a0 de da 03 3e 15 2d a0 ba f9 49 9f 3d 3e 2e df 3d
       0.1287646 -0.0012220467 0.07777781 0.10897492
0003b0 fd ef 52 bd 22 8e 24 3d 60 80 01 be 57 68 e6 bc
       -0.051498402 0.04017461 -0.12646627 -0.028125925
0003c0 0a 06 0b bd c2 bc 2d bc f6 7a c6 bb c0 b4 83 3d
       -0.033941306 -0.010604085 -0.0060571386 0.0643096
0003d0 82 4d 7a 3d ea 3c f9 bd d4 23 f3 bd 98 d6 21 3d
       0.061109073 -0.121698216 -0.11872068 0.039511293
0003e0 9d 93 e8 bd 68 54 98 3d a7 9b d5 3c 11 05 ec 3d
       -0.1135628 0.07437974 0.026075197 0.11524404
0003f0 ae f5 dc bd 36 99 31 3b da cd e2 bd 9d 44 c1 bd
       -0.10789047 0.0027099377 -0.11074419 -0.09436915

fc2.weight f4 [256, 256]
000000 5a dd 48 bd 94 9b 0b 3d 20 b8 95 bc b4 a4 24 bd
       -0.049039222 0.034083918 -0.018276274 -0.040196136
000010 1e de 23 bd d2 f1 14 3d fe 00 79 bd 2e 58 37 bd
       -0.04000675 0.03636343 -0.06079196 -0.04476183
000020 40 8f 17 3c 4c 4b af bc e0 4f b0 3b d6 07 0d 3d
       0.009250462 -0.021398209 0.0053806156 0.0344313
000030 34 b9 68 3d e8 ba 29 bc e4 73 aa 3c 86 e1 6c 3d
       0.05681725 -0.010359503 0.020807214 0.057832263
000040 70 41 b9 bb 0c 1e b9 bc a0 49 fa bb ec 18 17 bd
       -0.0056535527 -0.022597335 -0.0076381713 -0.036889
000050 78 89 49 3d c0 32 f3 ba 00 82 c6 bb 24 41 32 3d
       0.049203366 -0.0018554553 -0.0060579777 0.043519154
000060 64 aa 29 bd a8 02 75 3c 3a 55 29 3d f8 ee 41 bd
       -0.041422263 0.014954247 0.041341044 -0.04734704
000070 80 18 16 3c b2 ae 5c 3d 1c af 0e bd ec 86 bb bc
       0.009161115 0.05387754 -0.034834966 -0.022891484
000080 58 87 ca 3c dc d9 63 3d 18 0e 68 bc 4c ae ab 3c
       0.02472274 0.05562769 -0.014163516 0.020957135
000090 90 7b ad bb c0 a8 31 bd 56 a5 7b 3d e0 41 14 bc
       -0.005294271 -0.043373823 0.061436974 -0.009048909
0000a0 48 0f 50 3d 00 87 d0 ba 64 9e c9 bc 64 af 9f 3c
       0.050795823 -0.0015909374 -0.02461166 0.019492812
0000b0 00 f2 57 bb 60 63 0b 3b e8 a5 32 3d f2 d0 6a bd
       -0.003295064 0.002126895 0.04361525 -0.057328172
0000c0 66 3e 63 3d be ee 2e bd 48 51 bb bc 38 be 12 bd
       0.05547943 -0.04270815 -0.022865906 -0.035825938
0000d0 70 81 92 bc 4c 3b f4 3c 36 6c 64 bd 18 51 9d bc
       -0.017883986 0.029813431 -0.05576726 -0.019203708
0000e0 d8 20 d7 3c a0 46 6c bd f8 55 f0 3c d2 13 31 bd
       0.026260778 -0.05768454 0.029337868 -0.043231793
0000f0 90 79 6e bd c0 78 83 3c f4 e5 12 3d c4 8b 6d 3d
       -0.0582214 0.016048789 0.03586383 0.05799462
000100 50 c7 68 3c 9c 38 80 bc e0 36 bd bc a0 d2 ea bc
       0.014207676 -0.015651993 -0.023097456 -0.028664887
000110 48 58 5a 3c f2 ed 4d bd a8 75 6f 3c e0 15 54 3b
       0.013326712 -0.05027575 0.014615454 0.0032361671
000120 34 60 87 3c 80 92 7c 3c 24 c7 c0 bc 58 eb 2b bc
       0.016525365 0.015415788 -0.023532458 -0.010493122
000130 98 e6 be 3c 68 9e b3 bc fa d0 10 3d a8 fb 34 3d
       0.023303315 -0.02192612 0.035355546 0.04418531
000140 68 c7 0b 3c 8e 8c 1b 3d d0 11 5a 3d d4 84 aa bc
       0.008531429 0.03797584 0.053239644 -0.02081529
000150 74 e6 57 3d 2c be d9 3c 18 32 18 bd 94 e2 51 bd
       0.05271001 0.026579939 -0.037157148 -0.051241472
000160 b0 78 66 3c b6 ff 25 bd b4 47 27 3d 28 36 c8 3c
       0.01406686 -0.040527068 0.040839866 0.024439886
000170 8c 37 e5 3c fc 00 cf bc be 7d 0f 3d c8 d4 2b bc
       0.027980588 -0.025269024 0.035032026 -0.010487743
000180 d4 0b 4a 3d 48 a8 1b 3d 6c 1e 9b bc 84 f7 88 3c
       0.049327686 0.038002282 -0.018935405 0.016719587
000190 50 af c2 bc 98 62 19 3c 00 38 a6 bb f0 3a 8c 3c
       -0.023765236 0.0093618855 -0.0050725937 0.017117947
0001a0 fc d0 49 3d c0 6e 62 3c 98 e7 53 3c 88 e3 e9 bc
       0.04927157 0.01382035 0.012933634 -0.028550878
0001b0 80 b4 cd 3b b0 71 92 3b ec 61 b7 3c 12 2e 41 bd
       0.006277621 0.004469119 0.02238556 -0.047163077
0001c0 90 44 1b 3d 4a 26 63 3d 94 4c a5 bc 6e 22 3b 3d
       0.037907183 0.055456437 -0.020178117 0.04568713
0001d0 48 72 87 bc 10 8b 13 3c 06 f8 3a bd 00 9e 54 bd
       -0.016533986 0.009005323 -0.04564669 -0.051908493
0001e0 c6 13 3d bd 08 fd 3c 3c 88 b7 3c bc 78 11 33 3d
       -0.046161436 0.011534937 -0.011518367 0.04371783
0001f0 0e fa 68 bd c4 37 61 3d b8 1a eb bc 44 aa 10 bd
       -0.056879096 0.054984823 -0.028699264 -0.035318628
000200 60 02 57 bd be 83 63 3d c4 39 81 3c ba 6a 0a bd
       -0.0524925 0.05554556 0.015774615 -0.03379319
000210 00 bd b4 bb 3c ba 3e 3d 84 3e 0b bd 48 f6 75 3d
       -0.0055156946 0.046564326 -0.033995166 0.060049325
000220 fc 9b 9e 3c 08 36 a6 3c 54 87 54 3d f8 f3 8c 3c
       0.019361489 0.020289436 0.05188687 0.017206177
000230 10 50 58 bd 00 cf 6c ba d2 c7 30 3d 0c 37 ff bc
       -0.05281073 -0.0009033531 0.043159313 -0.031154178
000240 f8 14 0d 3d a2 e4 60 bd e0 cc 6c bc 90 18 71 bd
       0.034443825 -0.05490554 -0.014453143 -0.058861315
000250 d0 0d f3 3c 8c dd 3c bd 40 f0 dd bc 20 6f 0e bd
       0.029669672 -0.04610972 -0.0270921 -0.034773946
000260 48 2f 03 bc 40 a9 c5 ba c0 73 a8 bc 2e b8 1c 3d
       -0.008006878 -0.0015080348 -0.020563006 0.038261585
000270 4c e5 a7 bc e4 03 4a 3d fa a8 46 bd 3a 03 24 3d
       -0.02049508 0.049320117 -0.048500992 0.04004214
000280 90 6a 82 3b 5e cd 49 3d a0 00 42 3c c0 f4 03 bc
       0.0039799884 0.04926812 0.011840969 -0.008053958
000290 48 fe 33 3d d6 0a 6a bd 54 a3 e4 3c 28 32 8a 3c
       0.043943673 -0.05713924 0.027909912 0.01686962
0002a0 16 16 24 bd 90 62 a6 3c 38 92 20 3c c8 e7 3f 3c
       -0.040060125 0.02031067 0.009800486 0.011712976
0002b0 1e b5 21 bd 60 f8 cc bb 40 85 15 bc 08 59 85 bc
       -0.039479367 -0.0062551945 -0.009126008 -0.016277805
0002c0 1e 53 14 3d 40 1f be bb e4 a0 6b bd 40 89 5c 3c
       0.03621208 -0.005802065 -0.057526484 0.013460457
0002d0 00 94 7d bb a0 e8 1f 3b 00 74 6d bb 5c 73 76 bd
       -0.0038692951 0.002440013 -0.0036232471 -0.06016861
0002e0 a0 3c 87 3b d0 27 91 3b de 44 7b bd 46 83 0c bd
       0.0041271 0.004429795 -0.061344974 -0.03430488
0002f0 28 9d e8 3c 8c b6 03 bd 80 98 1c 3b 18 5a 5f bd
       0.02839525 -0.032156512 0.0023894608 -0.05452928
000300 86 14 46 bd 0e 3c 73 3d b0 dd 79 bd fe 60 2d bd
       -0.048359416 0.059383444 -0.061002433 -0.042328827
000310 9e aa 45 bd 1c f2 8a 3c 16 bd 40 bd 84 dc f6 3c
       -0.048258416 0.01696115 -0.047055326 0.030134447
000320 9c a7 b3 3c 7c f9 10 3d 60 a3 6a bb a8 d4 5b 3d
       0.021930508 0.035394177 -0.0035802945 0.0536696
000330 30 6e d2 3b ba f7 0f 3d 38 ed 6e 3d e6 0a 24 bd
       0.006421827 0.03514836 0.0583317 -0.040049456
000340 c4 67 e1 bc aa e7 2c bd 72 4a 17 bd a4 32 e6 3c
       -0.0275153 -0.04221312 -0.03693623 0.02810032
000350 84 6a 46 bd 46 57 3c 3d 26 62 12 bd 20 ce 57 3d
       -0.048441425 0.045981668 -0.035738133 0.05268681
000360 4a 29 67 bd 78 ac 3d bd a4 e8 97 bc bc 0d 7a 3d
       -0.05643586 -0.046307057 -0.018543549 0.061048254
000370 4a ed 0e 3d e6 49 29 bd 04 42 5b bd e6 2d 07 bd
       0.034894265 -0.04133024 -0.053529754 -0.033002757
000380 e8 0f 5b 3c e0 3c 10 bc 88 b8 37 bd 9c f3 d6 3c
       0.013370492 -0.008803576 -0.044853717 0.026239209
000390 78 c8 74 3d a8 24 02 3d a0 70 6d 3d 60 48 07 bb
       0.059761494 0.03177324 0.057968736 -0.0020642504
0003a0 58 7b 66 3d 8c e6 31 3d 40 ad 0e 3b 0c a6 a3 bc
       0.056269974 0.043432757 0.0021770746 -0.019976638
0003b0 78 11 2f bd fc cb dd bc c0 09 d5 bb 88 7d 3d 3c
       -0.04274127 -0.027074806 -0.0065014064 0.0115655735
0003c0 24 b2 af 3c a8 48 ab 3c 36 14 50 3d 50 97 d9 3b
       0.021447249 0.020908669 0.050800525 0.0066403523
0003d0 66 15 40 bd 56 65 3b bd dc e6 0f 3d a8 56 24 3d
       -0.046895407 -0.04575094 0.035132274 0.040121704
0003e0 00 63 0d 3a f4 1e 88 3c 2a d2 5a 3d 50 b2 32 3c
       0.00053934753 0.016616322 0.053423084 0.010906771
0003f0 58 85 c1 3c 40 52 cf 3a e0 2e 06 3b d8 40 53 bd
       0.023623154 0.0015817359 0.0020474717 -0.05157551

fc2.bias f4 [256]
000000 7c ba c3 3c e4 e1 95 3c e2 8d 15 3d f4 f9 b3 bc
       0.023892634 0.01829619 0.036512263 -0.021969773
000010 58 9d 2a bd a8 ff ce bc f4 79 dc bc 40 ab 25 bc
       -0.04165396 -0.02526839 -0.02691362 -0.01011163
000020 08 75 67 3d 6a fc 2c 3d dc ef 7a bd a4 2a 7a 3d
       0.056508094 0.04223291 -0.061263904 0.06107582
000030 f8 ac 5a bd bc 23 3e bd f8 06 70 bc 2e 55 35 3d
       -0.053387612 -0.046420798 -0.014650099 0.044270687
000040 a4 e7 b4 3c 5e cf 73 bd 78 c2 1d bc 20 4f d3 bc
       0.022083111 -0.059523933 -0.0096288845 -0.025794566
000050 64 90 b1 3c d0 ab 05 bc 00 5f 94 3a 40 15 16 bd
       0.021675296 -0.008158639 0.0011319816 -0.03664136
000060 ac 7a dd bc b8 63 7d 3c 70 46 62 3d 2c 42 38 3d
       -0.027036034 0.015465669 0.055242956 0.04498498
000070 20 c4 45 bc 80 24 f7 ba a4 a8 81 bc 08 3d 11 bd
       -0.012070686 -0.0018855482 -0.015827484 -0.035458595
000080 10 66 4b bd 90 c1 76 bc 38 6b 42 bc 88 4a fd 3c
       -0.04965788 -0.015060797 -0.011866383 0.030919328
000090 b0 e2 ae bb 9e d8 10 bd a2 f3 59 3d a6 03 0c 3d
       -0.005337082 -0.035362832 0.053210862 0.034183167
0000a0 da be 30 bd 00 82 d8 3a b4 62 c3 3c bc 72 29 bd
       -0.04315076 0.0016518235 0.023850776 -0.041369185
0000b0 54 e7 de 3c 10 4b c9 bc 00 c8 9d bb 80 fa 12 3a
       0.027209915 -0.024571925 -0.0048151016 0.00056067854
0000c0 b6 13 22 3d 90 aa 98 bb fc 0d 57 bd 3a ac 2b bd
       0.03956958 -0.0046590045 -0.05250357 -0.041912295
0000d0 88 97 56 3d 08 c8 0f bc 1c 2f 93 bc 18 20 77 3c
       0.052390605 -0.0087757185 -0.0179668 0.015083335
0000e0 18 2f 29 bc c0 2c 13 3b 0c bb 47 bd 76 42 71 3d
       -0.010326169 0.0022457093 -0.048762366 0.058901273
0000f0 3c 5c ff 3c 00 e5 f7 3c b0 ed 0b 3d 90 79 24 3d
       0.03117191 0.030260563 0.034162223 0.040154994
000100 64 8e 87 3c a8 9b 8c 3c f0 9f 72 bd c8 36 2a 3c
       0.01654739 0.017164066 -0.05923456 0.010389037
000110 c8 ec 09 bc fe 80 12 3d be f2 3d 3d f8 73 02 bd
       -0.008418269 0.035767548 0.046374075 -0.031848878
000120 90 ad c3 bc 2e 80 3a 3d 68 ce 25 bc c0 7c f5 bc
       -0.023886472 0.045532398 -0.010120012 -0.029966712
000130 2e bc 27 bd f8 bd 7a 3d 08 77 2f bd 88 14 52 bc
       -0.040950947 0.061216325 -0.042838126 -0.012822278
000140 1a c4 14 bd 40 b2 fa 3a 26 dd 3c bd f0 cc c7 3c
       -0.03631983 0.0019126609 -0.04610934 0.024389714
000150 2a 13 39 3d 3c be aa bc 0e 37 5d bd fc b5 0e 3d
       0.045184292 -0.020842664 -0.054007582 0.034841523
000160 48 65 8a bc a4 c5 92 bc 94 6c 25 bd ce 2e 3d bd
       -0.016893998 -0.017916508 -0.04038675 -0.046187215
000170 6c 32 bf bc e0 fd 5a bc 5a 1c 6a 3d 48 57 7b bc
       -0.023339473 -0.013366193 0.057155944 -0.015340634
000180 72 9c 10 bd 22 df 7f bd 30 d0 c6 3b 14 61 ee bc
       -0.035305448 -0.062468655 0.0060672984 -0.029099025
000190 c8 b5 54 bd fc c6 59 bd f8 f3 29 3d 50 31 c2 bb
       -0.051931173 -0.053168282 0.041492432 -0.0059262887
0001a0 58 77 08 3d 08 65 55 3c 9e 6c 39 bd 00 64 01 3a
       0.03331694 0.013024576 -0.0452696 0.00049358606
0001b0 42 a4 10 3d c8 fa e5 bc ee c7 66 3d 64 1f e1 bc
       0.0353129 -0.028073683 0.05634301 -0.027480789
0001c0 e4 ef 16 3d 00 05 bd bc 00 e2 3d 3d a0 ec 4a 3d
       0.03684987 -0.023073673 0.04635811 0.04954207
0001d0 92 be 7d bd c0 3d 25 bb 98 22 5a 3d 38 61 66 3d
       -0.06194932 -0.0025213808 0.053255647 0.05624506
0001e0 5c b8 2a 3d 88 2c 49 bc fc 1e 60 3d 18 2a 3c bc
       0.041679725 -0.0122786835 0.05471705 -0.011484645
0001f0 00 3e ca b9 54 05 27 3d e2 81 7e 3d 44 11 7d 3d
       -0.00038574636 0.040776566 0.062135585 0.061784044
000200 5c ad b0 bc 5c 40 a4 3c c6 1d 2d bd ac 7e 01 bd
       -0.02156704 0.02005022 -0.042264722 -0.031614944
000210 cc e5 11 3d 66 65 51 3d 20 d5 5e bb 4a 92 08 bd
       0.035619542 0.05112209 -0.0034001544 -0.033342637
000220 38 58 58 3d f0 97 23 bc 58 e7 5a 3c 9c f0 ec 3c
       0.052818507 -0.009984955 0.013360821 0.028923325
000230 00 1a 1d 3b 38 d7 5b 3c e4 34 79 bd c2 cc 45 bd
       0.0023971796 0.013418011 -0.060841456 -0.048290975
000240 d4 61 81 bc 94 eb 29 bd 5c 20 87 3c 60 28 9a bc
       -0.015793718 -0.04148443 0.016494922 -0.01881808
000250 74 b8 51 3d bc 85 86 bc 28 0e fb bc a6 0d 28 bd
       0.0512013 -0.016421191 -0.030646399 -0.04102864
000260 90 42 40 3d 3e aa 2e bd 0e 44 47 bd b8 21 88 3c
       0.04693848 -0.042642824 -0.048648886 0.01661764
000270 a0 f1 92 bc 84 e1 bc bc c0 fc 0a bb d0 19 17 3c
       -0.017937481 -0.023056753 -0.002120778 0.009222463
000280 ae 0e 28 3d 98 58 41 bc 94 22 fa bc 30 58 16 3d
       0.041029625 -0.011800908 -0.030534066 0.036705196
000290 dc 86 ea bc fc d3 ee 3c 16 99 67 3d bc 09 c3 bc
       -0.02862876 0.029153816 0.05654248 -0.023808353
0002a0 88 15 3f 3c 7e 12 47 3d c4 41 56 3d 78 15 85 3c
       0.011662848 0.04860162 0.052308813 0.016245589
0002b0 a8 94 81 bc 90 f0 d0 3b f0 8e ca bc 00 d2 2d 3c
       -0.015817955 0.0063763335 -0.024726361 0.01060915
0002c0 68 62 09 3c c0 a1 28 bb 0c 35 f5 bc 58 a4 36 3c
       0.008385278 -0.0025731176 -0.029932521 0.011147581
0002d0 e8 3e 23 bd c4 46 38 3d 18 15 e0 bc 46 cb 43 3d
       -0.039854914 0.044989362 -0.027353808 0.04780128
0002e0 f0 ff 07 3c a8 7f 17 bc 00 e5 91 3a f2 3d 4d 3d
       0.008300766 -0.009246744 0.0011130869 0.050107904
0002f0 5e 11 04 3d fc 3e 75 bd 08 00 3b bc 4c d9 0f 3d
       0.032243125 -0.05987452 -0.011413582 0.03511934
000300 60 47 33 bc 38 8b c5 bc ca a4 44 bd 5c 16 26 3d
       -0.01094231 -0.024114236 -0.048008718 0.040548667
000310 ec ae 47 bd 60 58 ff 3c 90 8f c2 3b 56 07 74 bd
       -0.048750803 0.03117007 0.005937524 -0.05957731
000320 6a 37 55 bd 9c 89 51 bd 02 b6 1e bd fa 53 73 bd
       -0.0520548 -0.051156625 -0.038747795 -0.05940626
000330 68 e7 b9 3c be b3 45 bd 50 c5 68 3c 5c 8c bc 3c
       0.02269335 -0.04826712 0.014207199 0.023016147
000340 60 09 33 3d 4c f3 5d 3d 3c a9 3d 3d 98 61 66 bd
       0.043710113 0.054187104 0.046303973 -0.056245416
000350 70 b5 26 bd c0 b5 e4 bb 00 92 c4 39 94 8e d9 bc
       -0.040700376 -0.006979674 0.00037492812 -0.026557244
000360 e8 84 78 3d a4 87 52 3d c8 6f 94 3c ca 77 16 3d
       0.060673624 0.05139889 0.018119708 0.036735334
000370 24 18 73 bd 7a 48 5a bd c0 d8 0f 3b 9c fb 2a bd
       -0.059349194 -0.053291775 0.0021949261 -0.04174386
000380 58 19 53 3d a0 69 9b 3b 50 c6 5f bd 58 05 6d 3c
       0.05153784 0.004742816 -0.054632485 0.014466606
000390 ce e0 45 bd 64 68 81 bc e4 57 f9 3c d8 36 07 3d
       -0.048310094 -0.015796848 0.030437417 0.033011287
0003a0 32 39 0c 3d c8 ef 52 bd 60 96 fd 3b 80 e6 7f 3c
       0.034234233 -0.051498204 0.0077388734 0.01561892
0003b0 90 28 af bc 78 c7 86 3c 6e 87 4b 3d b0 35 f1 3b
       -0.021381646 0.016452536 0.049689703 0.0073611364
0003c0 54 db 6f bd 8c 17 fb bc ca f2 65 3d a4 49 2b bd
       -0.058558777 -0.030650876 0.056139745 -0.041818276
0003d0 80 93 3a 3a 68 49 5c bd 30 48 ce 3b 04 61 2c bd
       0.0007117316 -0.053780943 0.0062952265 -0.04208471
0003e0 a0 0c 0e bd d8 90 a8 3c e8 71 63 bd b0 24 c2 3b
       -0.03468001 0.02057688 -0.05552855 0.0059247836
0003f0 18 6c 17 bc 66 66 70 bd e2 40 6c 3d 78 a1 a5 bc
       -0.00924208 -0.058691405 0.057679065 -0.020218596

fc3.weight f4 [256, 256]
000000 18 21 55 bd f0 01 a6 3c 80 56 b3 bb 4c 16 7f 3d
       -0.052033514 0.020264596 -0.005472958 0.062277123
000010 52 17 44 bd 8a 3d 6a 3d 88 f2 92 bc 64 e5 f8 bc
       -0.047873802 0.057187594 -0.017937914 -0.03038282
000020 4e 20 59 3d e4 7a a3 bc 30 8c 5d bd 06 5a 52 bd
       0.053009324 -0.01995606 -0.05408877 -0.051355384
000030 d8 0b 05 bc 92 f3 3d 3d 80 b3 66 ba a0 d3 19 bc
       -0.0081205 0.046374865 -0.00088005513 -0.009388834
000040 94 14 3f bd 98 75 48 3c 6c b1 99 3c fc 2c 5e bd
       -0.046650484 0.012235068 0.01876136 -0.05424212
000050 2c cd 60 3d 24 82 77 3d 90 52 03 3c a0 df 1d bd
       0.054883167 0.060426846 0.00801529 -0.038543344
000060 50 55 7a 3d c0 6e ab bc d8 e3 4e bd e4 51 1f 3d
       0.061116517 -0.020926833 -0.050510257 0.038896456
000070 50 72 f6 bb 5a 22 72 3d b4 99 ff 3c 62 80 13 3d
       -0.0075209513 0.05911479 0.031201221 0.036011107
000080 58 12 c4 3c 28 1e 56 bc d8 16 f2 3c 66 11 4b bd
       0.023934528 -0.013068713 0.029551908 -0.04957714
000090 ac 73 94 3c 60 f3 f8 bc 00 e7 64 3d 28 05 d7 3c
       0.018121563 -0.030389488 0.05588436 0.026247576
0000a0 fa eb 44 bd 10 55 43 3c a8 b9 2b 3d 22 b8 1b bd
       -0.048076607 0.011922136 0.041925102 -0.0380174
0000b0 10 f2 41 3c 00 99 17 3a a2 78 31 bd 84 e3 e0 3c
       0.011837497 0.00057829916 -0.043327935 0.027452238
0000c0 c2 1b 37 bd c8 ab 4f 3d 74 f0 fc 3c b0 79 2e bc
       -0.044704206 0.050700933 0.030876376 -0.01064913
0000d0 40 d4 01 bd 20 18 27 3c 04 b4 99 bc 18 01 b6 3c
       -0.031696558 0.010198623 -0.018762596 0.022217318
0000e0 36 cb 4e bd a0 ea f2 bb 7c 78 51 bd 9c 93 d6 bc
       -0.050486766 -0.0074132234 -0.051140293 -0.026193433
0000f0 70 ed e3 3c a0 10 13 3b 74 65 17 3d 32 c0 7a bd
       0.02782318 0.002244033 0.036961988 -0.061218448
000100 f2 db 36 bd 68 0e 35 bc d0 7b 45 bc b6 76 0e bd
       -0.04464335 -0.011050798 -0.012053445 -0.03478118
000110 4a c5 73 3d 0e ab 58 bd 1c 73 e5 bc d8 62 84 bc
       0.05951432 -0.052897505 -0.02800899 -0.016160414
000120 bc 8a fc 3c 96 e6 08 bd e2 0f 60 bd 30 89 38 3c
       0.030827872 -0.03342303 -0.054702647 0.011263177
000130 00 84 cc ba 26 32 07 bd f0 87 fd 3b de 14 30 bd
       -0.0015603304 -0.03300681 0.0077371523 -0.04298865
000140 58 9b d2 bc 22 2b 79 bd 40 41 2c 3d 42 4d 08 3d
       -0.02570884 -0.06083215 0.042054415 0.033276804
000150 d4 02 a1 3c 30 f9 3a 3d 64 2b 3d bd b4 98 a4 3c
       0.019654669 0.0456478 -0.04618396 0.020092346
000160 b8 0e 3a bd f4 87 2e bd a4 53 d4 3c 30 52 ef 3b
       -0.045424193 -0.042610124 0.02591879 0.0073034987
000170 de 02 14 3d f8 c4 56 bd 74 ab 8a 3c d4 a9 04 3d
       0.036135547 -0.052433938 0.016927458 0.032388523
000180 14 d2 7f 3d 1c 91 d5 bc 48 10 3e 3c e8 7f b7 3c
       0.062456205 -0.02607017 0.011600561 0.022399858
000190 10 8d f3 3b 40 61 d0 bc 28 2d 6b 3c 52 17 24 3d
       0.0074325874 -0.025436997 0.014354028 0.040061302
0001a0 8a 53 32 3d 30 37 dc 3c 46 f9 77 3d 8a d5 53 3d
       0.0435367 0.026881784 0.06054046 0.05171732
0001b0 70 99 06 3c bc 54 53 3d d8 d9 30 bd e8 e0 72 3c
       0.008215293 0.05159448 -0.043176502 0.01482413
0001c0 f0 59 ab bb 1c 74 5a bd 9e 73 5b bd 9c b9 90 3c
       -0.0052292272 -0.053333387 -0.053577058 0.01766663
0001d0 5c 6c 9b bc 80 7f e6 3a 38 8d 47 bd e0 e3 6d bb
       -0.018972568 0.0017585605 -0.04871866 -0.0036299154
0001e0 b0 d2 ae bb c4 22 d0 bc 20 07 20 3b c8 47 45 bc
       -0.0053351745 -0.025407203 0.002441831 -0.01204104
0001f0 0e b6 0c bd c2 88 38 3d 30 8f cc 3c ac 3a ac bc
       -0.03435331 0.045052297 0.02497062 -0.02102407
000200 7c 21 a4 bc ce 5b 01 3d 78 06 5c 3c 76 4a 32 3d
       -0.020035498 0.031581692 0.013429277 0.043528043
000210 18 95 3c bd 58 26 1e 3d 38 2f 21 bc ce 89 0e bd
       -0.046040624 0.038610786 -0.009837918 -0.03479939
000220 44 f7 8f bc 94 d8 cb bc fa 6c 22 3d 4e cf 64 bd
       -0.01757396 -0.024883546 0.03965471 -0.055861764
000230 6c 1c d5 3c 14 8d 4b bd 50 6a 5a 3c 28 4e 8e bc
       0.02601453 -0.04969509 0.013331011 -0.017371252
000240 2e 4e 65 bd d8 14 51 3d fe 32 49 bd f6 7a 44 bd
       -0.05598276 0.05104527 -0.049120896 -0.047968827
000250 68 ff a2 3c 0c 63 c2 bc d0 ee d7 3c 90 e3 e5 bb
       0.019897178 -0.02372887 0.026358992 -0.007015653
000260 fe c8 56 bd 12 08 46 3d 4c 6e 18 bd 86 9a 66 3d
       -0.052437775 0.04834754 -0.037214562 0.05629971
000270 9e 49 1a bd d8 ae 6a bd a8 46 47 3c 30 c2 df 3c
       -0.037667863 -0.05729565 0.012162842 0.027314276
000280 a8 cc 5c bc d4 c7 ad 3c 10 c7 c2 bb b0 75 86 bc
       -0.013476528 0.02121345 -0.0059441403 -0.01641354
000290 4a 0d 60 bd 9c 78 19 3d 8e b4 0a bd 8c 6c 2a bd
       -0.054700173 0.037468538 -0.033863597 -0.041607425
0002a0 2e 30 11 bd 98 98 47 bc 80 b8 c9 bb a8 64 e4 bc
       -0.03544634 -0.012182377 -0.0061560273 -0.027880028
0002b0 74 40 c2 3c f0 49 41 bd 1c c6 a8 bc 88 1c 14 3c
       0.023712374 -0.047189653 -0.020602278 0.0090400055
0002c0 48 12 c1 bc f8 63 65 bd 38 16 c3 bc a0 6b 69 bd
       -0.023568287 -0.05600354 -0.023814306 -0.056987405
0002d0 40 df b9 3c 3a c2 1c bd 94 83 43 bd 80 d1 1a 3d
       0.022689462 -0.038271166 -0.047732905 0.03779745
0002e0 26 30 63 3d 5a 55 74 bd 48 72 58 3c 90 a0 fd 3c
       0.05546584 -0.05965171 0.0132108405 0.030960351
0002f0 44 72 2b bd 6e c3 77 3d 80 46 da bb 20 8a f0 3b
       -0.04185702 0.06048911 -0.0066612363 0.0073406845
000300 00 c4 59 bb c8 92 64 3c 20 9e 4b bb 78 f0 6c 3c
       -0.0033228397 0.013951011 -0.0031069592 0.014461629
000310 60 1d ed 3c 48 d4 2a 3d 50 a9 3a 3c f0 e4 4e bd
       0.028944671 0.041706353 0.011392906 -0.0505113
000320 10 cf 33 3c 40 1e 83 3b e6 5c 03 bd 18 93 0a 3d
       0.0109746605 0.004001409 -0.032071017 0.033831686
000330 68 e6 63 3c 20 f9 52 3c 98 cc fc 3c f8 39 e6 bc
       0.013909914 0.012876779 0.030859277 -0.028103814
000340 40 55 d4 3b 66 53 69 bd 7c 16 14 bd 30 6c ef 3b
       0.006479889 -0.0569643 -0.036154255 0.007306598
000350 90 64 a9 3b de 4b 0b bd 60 d3 50 3d c4 a0 38 bd
       0.0051694587 -0.0340079 0.050982833 -0.045075193
000360 fc 0b da 3c 40 84 4f bd ec 09 2a 3d fe 4b 1c bd
       0.026617043 -0.050663233 0.04151337 -0.03815841
000370 40 3d ae 3c 68 77 55 bc 8a 52 6c bd 48 ee 07 bc
       0.02126944 -0.013028957 -0.057695903 -0.008296557
000380 40 34 89 3a 58 0e 76 bc ae 4e 46 3d 30 78 4f bd
       0.0010467842 -0.015018068 0.04841488 -0.05065173
000390 d2 e3 7b 3d 20 4e 38 bb d4 33 b2 bc 70 fa 6f bc
       0.061496563 -0.0028122738 -0.02175323 -0.014647111
0003a0 96 a0 17 bd e8 97 0e bc 28 58 d4 bc b4 37 87 bc
       -0.03701838 -0.008703209 -0.025920942 -0.016506054
0003b0 16 7d 2c 3d 78 a2 1e bd c0 be 70 bd f0 3f 02 3c
       0.04211148 -0.03872916 -0.058775663 0.007949814
0003c0 b2 f5 07 3d 90 40 05 3c 7c c6 7e 3d 24 16 97 bc
       0.033193298 0.008133069 0.06220101 -0.018443175
0003d0 e4 65 43 bd 40 f6 fa 3c 8a 04 7d 3d 86 1c 5a bd
       -0.047704592 0.030635 0.061771907 -0.05324986
0003e0 90 ce ad 3c 40 0b 1d 3c 08 7e 46 3c c0 15 b9 bc
       0.02121666 0.009585202 0.012115009 -0.022593379
0003f0 8e fc 26 bd 82 6d 01 bd 20 9d 16 3c 7c 63 e1 3c
       -0.0407682 -0.031598575 0.009192735 0.027513258

fc3.bias f4 [256]
000000 6a 07 3e bd 90 2f 0b bd 4e 39 16 3d 38 3c f0 bc
       -0.04639379 -0.033980906 0.036675744 -0.02932559
000010 82 27 2e bd 2a b8 30 3d 86 75 0f bd 92 ff 1a bd
       -0.042518146 0.043144383 -0.03502419 -0.037841387
000020 ce 81 3d 3d 64 aa 48 3d b0 59 bf 3b 94 07 7e bd
       0.04626637 0.048990622 0.005839549 -0.062018946
000030 06 06 07 bd 5a a1 20 3d a0 97 dc 3c 68 3e 27 bd
       -0.03296473 0.039216377 0.02692777 -0.040831
000040 64 73 29 3d e8 15 6d 3d 44 d4 af 3c 0a a9 5b bd
       0.04136981 0.05788222 0.02146352 -0.053628005
000050 ce 4d 45 3d ac 36 fd bc 60 a3 8a 3b 40 ff f3 3c
       0.048169903 -0.030909859 0.0042309016 0.029784799
000060 a6 74 5b bd cc 6a 7e bd 40 4f f4 ba e0 07 26 3d
       -0.05357804 -0.06211357 -0.0018639341 0.040534854
000070 f0 87 6b bc d0 fe 66 3d d8 fd 04 3c 80 2a be 3c
       -0.014375672 0.056395352 0.008117162 0.023213625
000080 fc c2 7f bd e2 0e 79 bd b0 71 8a bc f0 f6 ff bc
       -0.06244181 -0.06080521 -0.016899914 -0.031245679
000090 c8 71 0f 3d ec 05 b2 bc c6 35 33 3d 78 a4 7c 3d
       0.03502062 -0.02173134 0.043752454 0.061680287
0000a0 a0 01 54 3b a4 6a 10 3d be 07 45 3d f2 b4 11 3d
       0.0032349601 0.03525795 0.048103087 0.035572954
0000b0 a0 b4 30 bd 4a 35 41 bd 98 f1 ca 3c b0 e7 c4 3b
       -0.043141007 -0.04716996 0.024773404 0.0060090646
0000c0 f2 f1 76 3d a0 aa 3f bb 22 e7 78 3d f0 1d 43 bd
       0.06028933 -0.0029245988 0.0607673 -0.047635972
0000d0 c0 5c 95 3c 5c 6f 79 bd 4e 11 7a 3d 14 da c5 3c
       0.018232703 -0.060897216 0.06105166 0.02415184
0000e0 b4 76 37 3d f0 f3 9f bb 70 c9 02 bd 4a 0c 2f 3d
       0.04479094 -0.0048813745 -0.031930387 0.04273633
0000f0 90 95 b3 bb 18 48 71 bd 00 14 43 bb ca 2b 09 3d
       -0.0054804757 -0.058906645 -0.002976656 0.033489026
000100 88 b3 dc bc 8c 17 de 3c c0 ec 0d 3d 58 da 6c bc
       -0.026941076 0.027110837 0.03464961 -0.014456354
000110 9c a3 bf 3c 1e d6 28 3d 08 95 0a 3c d0 17 c4 bb
       0.023393445 0.041219823 0.008458383 -0.005984284
000120 40 c2 14 3c d0 e9 84 3c 2a a9 77 bd c8 9c 37 bd
       0.009079516 0.016224772 -0.06046406 -0.044827253
000130 44 57 fc 3c a0 c2 c9 bb 36 09 64 bd 88 b1 aa bc
       0.03080333 -0.0061572343 -0.055672847 -0.020836607
000140 7e fc 6e 3d 5c 20 69 3d 64 b4 45 bd 86 06 4a 3d
       0.058346264 0.056915626 -0.048267737 0.049322627
000150 4e 56 1e 3d 36 46 45 3d b0 9e 69 bd 40 62 91 ba
       0.038656525 0.04816266 -0.0570361 -0.0011091903
000160 aa a8 77 3d b0 c2 70 bc b0 a3 98 3c 1a 37 33 bd
       0.060463585 -0.014694855 0.01863274 -0.04375372
000170 40 a8 89 3c 34 79 a2 3c 28 2a 8e bc 3c c0 5c 3d
       0.01680386 0.019833185 -0.017354086 0.053894266
000180 90 af 64 3d 4c 08 ad 3c 0e 7e 63 bd d4 6a dd 3c
       0.055831492 0.02112212 -0.055540137 0.027028479
000190 1c ad b3 bc e0 dc af bc e0 19 b2 bb c0 c3 90 3b
       -0.02193313 -0.021467626 -0.0054352134 0.0044178665
0001a0 0c ee 57 bd b6 f0 2c 3d 2c 78 fc bc 30 96 8a bc
       -0.052717254 0.042221747 -0.030819021 -0.016917318
0001b0 20 bd 9f bb 54 97 2e bd 60 e8 88 bc fc 84 1e bd
       -0.0048748404 -0.042624786 -0.016712368 -0.038701043
0001c0 c8 c5 7b bc ec 10 f5 3c 40 f2 53 3b 94 63 ad 3c
       -0.015366979 0.029915296 0.0032340437 0.021165647
0001d0 7c 75 e3 3c d0 06 b8 3b 00 e0 ba bb 40 57 7a 3b
       0.027765982 0.0056160465 -0.0057029724 0.0038198978
0001e0 fc 95 8f bc 48 4d 18 3d 50 59 2b 3d 0a 42 04 3d
       -0.017527573 0.037183076 0.041833222 0.032289542
0001f0 d4 70 1d 3d 60 b4 fb bb 90 e1 d5 bc 8a af 1f 3d
       0.03843768 -0.0076814145 -0.026108533 0.038985766
000200 3c 8b de bc a0 e2 09 bc 06 b5 39 bd 20 ff 2c 3c
       -0.027166001 -0.008415848 -0.045338653 0.010558873
000210 72 ce 11 bd 50 45 0e bd fc d9 73 bd 36 6c 10 3d
       -0.035597272 -0.03473407 -0.059534058 0.035259448
000220 48 71 66 bd 20 b5 9a 3b 92 50 6e 3d 44 bd 12 3d
       -0.056260377 0.004721299 0.058182307 0.03582503
000230 e0 75 e1 bc f6 7d 14 3d 9a 3f 1d bd 44 92 b0 bc
       -0.027522027 0.03625294 -0.038390733 -0.02155412
000240 06 22 66 3d b0 20 5c 3c d0 f4 8b 3c a4 0c d6 3c
       0.05618479 0.013435528 0.01708451 0.026129074
000250 44 1f 1f bd 74 47 32 3d 90 2b f3 bc 4c 9b 4b bd
       -0.038848177 0.043525174 -0.029683858 -0.04970865
000260 00 ad 57 3c 80 7f 5b 3a 80 61 2f bd c0 27 a1 bb
       0.013163805 0.0008373186 -0.042817593 -0.0049180686
000270 32 41 4e bd 7a 83 70 3d 60 66 bd 3c e0 1a 59 3c
       -0.050355144 0.058719136 0.023120105 0.013251036
000280 f8 0d 67 bd e8 a9 32 bd a0 af 19 3b c4 fc 03 3d
       -0.056409806 -0.043619066 0.0023450628 0.032223478
000290 cc d2 54 3d 70 d3 b1 3b be 87 74 bd e4 d3 41 bd
       0.051958844 0.0054268166 -0.059699766 -0.047321215
0002a0 c0 c1 b3 bb 3e c0 7c bd 64 a7 60 3d 28 35 61 3d
       -0.0054857433 -0.061706774 0.054847136 0.054982334
0002b0 74 34 41 bd 90 ac b5 bb c4 9b b9 bc 1c 53 e6 bc
       -0.047169164 -0.0055442527 -0.022657283 -0.028115802
0002c0 b4 30 d3 3c 36 c5 23 bd 04 1f 60 3d fa a5 51 bd
       0.02578006 -0.039982997 0.05471708 -0.05118368
0002d0 4e 22 54 bd 54 ff a1 bc 98 12 06 bc e8 bf 52 bd
       -0.051790528 -0.01977507 -0.008183144 -0.051452547
0002e0 c0 c4 e4 3a 9e a9 15 bd e0 52 39 3d 58 81 26 bd
       0.0017453656 -0.036538713 0.04524505 -0.040650696
0002f0 94 7b a9 3c e0 88 3b 3b 80 44 74 bb 68 5c 46 3c
       0.02068881 0.002861552 -0.0037272274 0.012106992
000300 d6 af 0c 3d 92 01 55 bd 18 d6 47 bd 90 14 3b bc
       0.034347378 -0.05200345 -0.04878816 -0.011418477
000310 64 e4 83 bc 00 9a c7 3b 50 5c 56 bd 92 4c 66 3d
       -0.016100116 0.0060913563 -0.05233413 0.056225367
000320 b4 10 f0 bc d0 da 81 3b 58 56 77 3c 20 b3 3b bd
       -0.02930484 0.003962852 0.01509627 -0.045825124
000330 d8 f7 d3 bc 70 62 4e 3d f0 f0 fd 3b 76 28 73 bd
       -0.025875017 0.050386846 0.0077496693 -0.05936476
000340 e4 bf ff bc aa 5e 10 3d 10 2e f0 bc fc 2a 7e 3d
       -0.03121943 0.03524653 -0.02931884 0.06205271
000350 82 83 63 3d 8a fd 5f bd 58 12 38 3d ca d9 3d 3d
       0.055545337 -0.054685153 0.04493937 0.046350278
000360 46 0b 7d bd 50 0f 2d bd 0c 16 82 3c b8 a6 0d bd
       -0.06177833 -0.04225093 0.015879653 -0.034582824
000370 3c 42 f0 3c 32 1c 1b bd ca 4e 53 3d e0 66 b4 3b
       0.029328458 -0.037868686 0.05158881 0.0055054277
000380 40 ce 9d ba b0 00 03 bd 78 7d 41 bd d0 cc 93 bb
       -0.0012039617 -0.031983078 -0.047238797 -0.0045104995
000390 7c 0b 2c bd f0 8e 07 3d c0 ef bc 3a b0 63 54 3d
       -0.04200314 0.0330953 0.0014414713 0.051852882
0003a0 7e 65 5b bd ae 26 47 bd c8 0a 96 3c 00 d5 e1 b9
       -0.053563587 -0.048620872 0.018315688 -0.00043074042
0003b0 f8 c5 e9 3c e8 87 ed 3c 00 3e 62 3d ce af 16 bd
       0.028536782 0.02899547 0.05523491 -0.036788754
0003c0 20 ab c5 bc 8c 1c 76 3d 08 38 54 3d b4 e9 9e 3c
       -0.02412945 0.06008582 0.051811248 0.019398548
0003d0 2e 30 06 3d 0a 8b 41 3d f4 de ee bc de 3a 40 3d
       0.03276079 0.04725174 -0.029159047 0.04693114
0003e0 32 f3 33 3d e6 cf 69 bd 94 25 bc bc 98 a8 e3 3c
       0.0439331 -0.057083033 -0.022967137 0.027790353
0003f0 fc 26 15 3d 28 94 2d 3c 8c 23 5c bd 88 37 76 bc
       0.03641413 0.010594405 -0.053744838 -0.015027888

output.weight f4 [4, 256]
000000 00 00 96 b7 c6 84 50 3d b8 cb c4 bc f0 16 c3 bc
       -1.7881393e-05 0.050907873 -0.024022922 -0.023814648
000010 80 28 42 3b f0 0a 04 bd a0 4d 2b bd 40 03 b4 bc
       0.002962619 -0.032236993 -0.041822076 -0.021974206
000020 72 0f 10 bd f6 90 08 3d 7c b2 11 bd d6 60 70 3d
       -0.03517098 0.03334137 -0.035570607 0.0586861
000030 28 de fb bc 60 d8 38 3c 6e ea 47 bd 84 95 d0 bc
       -0.03074558 0.011282057 -0.048807554 -0.02546192
000040 a0 00 a1 3c 1e cc 74 3d 68 3b 34 3d d0 f6 8b 3c
       0.019653618 0.059764974 0.044001967 0.017085463
000050 b6 be 47 3d 80 30 10 bd a4 7f 68 3d 3c 3e ea bc
       0.04876586 -0.035202503 0.056762353 -0.028594129
000060 70 85 af bc dc 3d a2 bc 14 64 3b bd d8 51 b4 3c
       -0.021425933 -0.019804887 -0.04574974 0.022011682
000070 44 be dc bc 2e 20 48 3d 58 6f 35 3d 44 0a 6a 3d
       -0.026946194 0.048858814 0.04429564 0.057138696
000080 0a 34 5b 3d 94 74 c2 3c 50 7d 23 bc 5e 46 4f bd
       0.053516425 0.02373723 -0.009978607 -0.050604217
000090 56 79 51 bd 78 8a 22 bd 48 a2 cc bc 5c 63 c7 bc
       -0.051141106 -0.039682835 -0.024979725 -0.02433937
0000a0 48 88 9c 3c c8 63 10 3c dc d1 94 3c 60 d4 a3 3c
       0.019107953 0.008812852 0.018166475 0.01999873
0000b0 a8 ef c9 3c a0 02 d7 3c c8 80 7d bd 5e 01 4c 3d
       0.02465041 0.026246369 -0.061890393 0.04980599
0000c0 e2 46 5d bd 56 5a 52 3d 44 16 4c bd 98 f5 f0 3c
       -0.054022677 0.051355682 -0.04982592 0.029413983
0000d0 9e f3 5d bd 80 fa 3a 3d 20 c0 00 bd a8 56 c0 bc
       -0.05418741 0.04564905 -0.031433225 -0.02347882
0000e0 30 05 76 3c 60 52 ea 3b 30 51 d5 3c 06 a1 06 bd
       0.015015885 0.007150933 0.02603969 -0.032868408
0000f0 ee a8 2b bd d2 c3 7a 3d e2 c9 24 bd 02 d1 67 bd
       -0.04190915 0.061221905 -0.040231593 -0.05659581
000100 d0 f5 3d bc 4e 08 16 bd 30 3f 85 3b 20 7f f3 bc
       -0.011594251 -0.036629014 0.0040663704 -0.029723704
000110 d0 9a 7a bc 2e 9d 55 3d ce c4 06 3d 40 4c d3 ba
       -0.015295699 0.05215185 0.03290253 -0.0016120747
000120 54 51 97 3c d4 0c 66 3d 0a 9b 61 bd a0 55 3f bc
       0.018471397 0.056164578 -0.055079497 -0.011678129
000130 1a 36 38 bd 88 d5 68 3d 70 83 fb 3b 6c bb 3a 3d
       -0.04497347 0.056844264 0.0076755807 0.045588896
000140 8c 8a 58 3d dc 77 3d bd d4 f9 74 bd f8 48 6e 3d
       0.052866504 -0.046256885 -0.059808567 0.058175057
000150 0a e5 45 bd 64 22 4d 3d fc 99 1d 3d 68 84 76 3d
       -0.04831413 0.050081626 0.03847693 0.060184866
000160 6c ea 7d bd 20 69 48 bb 24 ea 62 3d 38 d4 f9 3c
       -0.06199114 -0.0030580238 0.055399075 0.030496702
000170 a6 af 08 bd 8c 04 74 bd 20 48 6b 3d 28 a0 0f bc
       -0.033370636 -0.05957465 0.05744183 -0.008766212
000180 cc 45 e3 3c 80 74 4b 3a 52 07 09 bd 9a b0 67 3d
       0.027743243 0.00077611953 -0.033454247 0.056564905
000190 88 a4 4d bc 10 d6 0e 3c 0a 61 6f bd b2 a0 07 3d
       -0.012551434 0.008718029 -0.058442153 0.033112235
0001a0 50 7a 7f 3c 74 77 86 3c 2a 90 62 3d 60 0d 6f 3d
       0.015593126 0.016414382 0.055313267 0.058362365
0001b0 30 0f 48 bc c4 f0 6a 3d b6 25 72 bd 84 60 37 3d
       -0.012210652 0.05735852 -0.059117995 0.04476978
0001c0 98 a5 17 3c aa ba 40 3d 40 57 4b 3c 38 87 1d 3d
       0.009255789 0.047053017 0.012410939 0.038459033
0001d0 3e 4b 2a bd 48 55 11 bd e0 26 6a bd b8 8f b4 bc
       -0.041575663 -0.03548172 -0.05716598 -0.022041187
0001e0 ac fe 31 3d 40 9c 48 3c 6c 19 b9 3c be 2b 33 bd
       0.043455765 0.012244284 0.02259513 -0.043742888
0001f0 1c 46 61 3d 96 f0 1b 3d 64 c1 3c bd 74 1b 1c bd
       0.054998502 0.038071238 -0.04608287 -0.03811212
000200 96 68 33 3d 12 f4 26 3d b8 53 d0 3c 68 83 6f bd
       0.043800913 0.040760107 0.025430545 -0.05847493
000210 40 ac 0b bb 9e 02 35 3d 2a 81 10 3d 78 95 43 3c
       -0.0021312386 0.04419195 0.03527943 0.011937492
000220 4a cd 73 bd 88 df 59 3c aa 98 76 3d fa 05 38 bd
       -0.05952195 0.013297923 0.060204186 -0.044927575
000230 22 1a 47 bd fe d7 68 3d 62 85 39 3d 70 8c 6f 3d
       -0.048608907 0.05684661 0.04529322 0.05848354
000240 44 06 ac bc 30 c4 ed 3b 92 cd 69 3d 2a 76 40 bd
       -0.020999081 0.0072560534 0.057080813 -0.04698769
000250 c0 f5 0f bb 28 3a 20 3d d0 a4 64 bd 6c 25 5d bd
       -0.0021966547 0.039117962 -0.05582124 -0.053990766
000260 f0 2e c8 3c 46 d3 3f 3d 58 da 9f 3c c6 02 67 bd
       0.024436444 0.046832345 0.019513294 -0.05639913
000270 5c 63 69 3d 00 6b 83 b9 78 af 7a bc 48 ea 1c bc
       0.056979522 -0.00025065988 -0.015300624 -0.009577341
000280 5c 09 2f bd b2 4b 7a 3d e8 ae 18 3d 28 cd 5d bc
       -0.042733535 0.061107345 0.03727618 -0.013537683
000290 c0 ed f8 bc 44 4b 73 bd 2e 44 0e bd a0 c7 75 3d
       -0.030386806 -0.05939795 -0.03473299 0.06000483
0002a0 b6 df 1b 3d fa 47 58 bd b4 43 0c 3d 00 74 a6 39
       0.038055144 -0.052803017 0.034244254 0.00031748414
0002b0 cc 3c 25 3d 4c d7 fa bc e0 52 19 3b f0 44 2f 3d
       0.040341184 -0.03062024 0.0023395345 0.042790353
0002c0 6c 4c 7e 3d 7e 39 16 3d 22 94 6b bd 58 88 a9 bc
       0.0620846 0.036675923 -0.057514317 -0.020694897
0002d0 72 e9 43 3d 36 23 14 3d d8 f5 d6 3c d8 63 43 bd
       0.047830053 0.036166392 0.026240274 -0.04770264
0002e0 88 33 9b bc e0 b7 7a 3b b4 76 35 bd 34 01 31 3d
       -0.01894547 0.003825657 -0.044302657 0.043214038
0002f0 b6 0d 1d 3d fc bc 58 bd 9c 0f d4 3c 50 10 9c 3c
       0.038343154 -0.052914605 0.02588635 0.019050747
000300 38 b1 59 3d 98 ad 79 bc 8e 30 40 3d ec e0 dc bc
       0.053147525 -0.015239142 0.046921305 -0.02696272
000310 30 db 80 bb 3e 47 29 bd 64 5c dc 3c e0 2f 4b bb
       -0.003932379 -0.041327707 0.026899524 -0.0031003878
000320 f4 ce e1 bc b0 52 b2 bc 7c 13 9e 3c 36 3f 11 3d
       -0.027564503 -0.021767944 0.0192964 0.035460673
000330 74 52 1a 3d a4 ab d7 3c a6 15 24 3d b6 fe 52 3d
       0.03767629 0.026326962 0.040059708 0.051512443
000340 1c 23 73 3d 00 1e 62 b9 2e 91 68 bd 20 c7 2f 3d
       0.059359655 -0.00021564215 -0.05677908 0.04291451
000350 dc d7 5f 3d 86 ed 79 bd d0 24 c6 bc 0e 15 2f bd
       0.05464922 -0.061017536 -0.024187475 -0.04274469
000360 4c 52 2c bd 3c 5d 3d bd 88 8b ff bc 04 05 da bc
       -0.042070672 -0.046231493 -0.031194463 -0.02661372
000370 bc d0 df bc 0c 39 27 bd 98 37 26 bc 32 e8 1b 3d
       -0.027321212 -0.04082589 -0.0101450905 0.038063236
000380 ea 27 78 bd 1c 0a e6 3c 24 ee 1e bd ec 8f b0 3c
       -0.06058494 0.028080992 -0.038801327 0.021553002
000390 d0 0c 23 bd be 03 13 bd 10 6e fd bb c0 c4 87 3a
       -0.03980714 -0.03589224 -0.0077340677 0.0010358319
0003a0 f0 7f 6c 3c 40 c4 ff 3a 2c 27 48 3d 10 88 d5 bb
       0.0144348 0.0019513443 0.048865482 -0.006516464
0003b0 30 ff 8c bb f8 f2 a5 3c 54 d5 39 bd 26 49 01 bd
       -0.0043028817 0.020257458 -0.04536946 -0.0315639
0003c0 d2 7e 3e bd 10 b3 84 3b ee 8e 74 3d e8 37 c6 3c
       -0.046507664 0.004049666 0.05970662 0.02419658
0003d0 a0 4d e4 bc 84 cf 47 3d 76 66 3f 3d 72 5b 7f bd
       -0.027869046 0.048781887 0.046728574 -0.06234307
0003e0 28 25 33 bd 4c 5b 8e bc a8 32 62 bd 38 02 ce bc
       -0.043736607 -0.017377518 -0.05522409 -0.025147542
0003f0 a0 e0 1b 3b 90 05 50 bc 1c bb cb bc 14 dc e4 bc
       0.002378501 -0.012696639 -0.024869494 -0.027936973

output.bias f4 [4]
000000 2c 39 0c 3d 2e 0b 6d 3d 80 79 cf bc 00 4d de 3a
       0.03423421 0.05787199 -0.02532649 0.0016960204
